A3C-new/A3C-Pong&breakout-new/runs/BreakoutNoFrameskip-v4/2022-11-03_16-23_Second80MSteps_OK/model_sam_BreakoutDeterministic-v4_conv.48.tar (torch, 944955 bytes, 13 tensors)

conv1.weight f4 [32, 4, 3, 3]
0.17719272 -0.49984652 -0.20174748 0.16238168 -0.1853288 0.28405806 0.13058163 0.207633
0.2081813 0.09188738 0.020094113 -0.015818885 0.17255607 -0.093827315 0.08091098 0.08694386
0.10453279 0.24813657 0.14428821 0.18617405 0.19764067 -0.29896072 -0.008050944 0.18028525
-0.033527594 -0.14910582 0.04347332 -0.0010758584 -0.25493255 0.15691829 -0.26607236 -0.13911359
0.17473592 -0.23575994 -0.46565112 -0.18729043 0.1791629 -0.076440066 -0.10953825 0.01337007
0.50507337 -0.2868058 0.3512808 0.36630327 -0.4338859 0.10730929 0.14532617 -0.07687762
0.031001316 0.478963 -0.34032854 0.05375658 0.4491279 -0.27083442 0.12293814 0.20812267
-0.09161523 -0.19737068 0.48257276 -0.020271847 -0.22890727 0.34903362 -0.031018887 -0.002217473
-0.28297555 -0.16092455 -0.29342592 -0.08324791 -0.2621065 -0.28282538 -0.09820144 -0.1919003
0.09529489 0.06753569 -0.025417496 0.11296081 0.04913269 -0.10184035 -0.11471294 0.22442622
-0.07654498 0.14530286 0.039046872 -0.19651727 0.4265617 -0.23623496 -0.5628253 0.10672962
-0.045358587 -0.0056511383 0.26375884 -0.208533 -0.15537526 0.50567937 -0.22830687 -0.50489825
0.123913266 0.088047035 -0.22178811 0.122226804 0.10776246 -0.17431134 0.29431218 0.14028962
-0.23075327 -0.12360406 0.25668555 -0.05182282 0.36466524 0.17243162 0.19653377 0.33903188
0.57513815 0.05093528 0.17519057 0.41305742 0.14714651 0.10672709 -0.1738812 -0.021674972
-0.041609492 0.2674392 0.34038264 -0.071267016 0.1998789 0.0066900034 -0.29524475 -0.36077806
0.12576158 -0.09921868 -0.32694268 -0.081227325 0.02589893 -0.014912493 -0.01880753 0.011159309
-0.16818 0.0011895599 -0.34805787 -0.47624856 -0.26395977 -0.18080422 -0.38685846 -0.18670942
0.048509482 -0.06642298 -0.009056622 0.179996 0.45267418 0.27156052 -0.0114025 0.2166485
0.16751121 -0.14066036 -0.6177402 -0.33699206 -0.4242662 -0.4374338 -0.3599349 -0.14221731
-0.27602175 -0.03930849 0.15103744 0.18065865 -0.002332638 -0.17469968 -0.28117827 -0.12562837
-0.12488902 -0.30274454 -0.10914207 0.21403523 0.3622289 0.12255969 0.18999639 0.55844045
0.30341274 0.20827745 0.062824294 0.28050244 -0.0647421 -0.21278274 -0.19912905 -0.37833643
-0.42118093 0.033119656 -0.4645663 -0.39133435 -0.058567267 0.069789685 0.112715155 -0.058929417
-0.032955334 0.14357673 0.12692486 -0.20861441 -0.049888667 0.061821308 0.2920944 -0.15236771
-0.066766165 0.11156865 0.3563732 0.05761929 0.2575224 0.12132991 -0.003072034 0.1173162
0.11375957 0.023443837 0.014161028 0.15658195 -0.16370976 0.20408668 0.2804467 0.22080895
0.16583201 -0.027040826 0.032346938 0.19672057 -0.07422411 -0.043801054 -0.12831254 -0.014967272
-0.062270857 0.07709765 0.41737702 0.26341182 0.4883377 0.7873317 0.023686387 -0.10552748
0.3015215 -0.1468485 -0.23159774 -0.003155397 -0.22419098 0.2137171 0.36623538 -0.43446425
-0.13324653 0.20678762 -0.03739773 -0.24405286 -0.27090296 -0.124651484 -0.42895612 -0.46323943
-0.39719048 0.079245344 0.05317114 -0.08762295 0.11481912 0.18976298 0.2641896 0.016779732
00000000: 0272 353e e2eb ffbe e496 4ebe 6247 263e
00000010: d5c6 3dbe 0f70 913e 31b7 053e bf9d 543e
00000020: 7b2d 553e 732f bc3d 699c a43c 9b96 81bc
00000030: 8ab2 303e 8928 c0bd a8b4 a53d 9f0f b23d
00000040: 4a15 d63d 8317 7e3e 4ac0 133e 69a4 3e3e
00000050: 5162 4a3e 6111 99be 1be8 03bc b29c 383e
00000060: 3b54 09bd 32af 18be 1411 323d d103 8dba
00000070: 8586 82be 30af 203e a33a 88be cb73 0ebe
00000080: f9ed 323e 0e6b 71be d369 eebe 10c9 3fbe
00000090: 7b76 373e 9c8c 9cbd 9755 e0bd 230e 5b3c
000000a0: 7d4c 013f 36d8 92be 14db b33e 1a8c bb3e
000000b0: 4b26 debe f9c4 db3d 62d0 143e 0372 9dbd
000000c0: 79f6 fd3c a33a f53e 8b3f aebe dc2f 5c3d
000000d0: 18f4 e53e cfaa 8abe fec6 fb3d 1c1e 553e
000000e0: c4a0 bbbd 8a1b 4abe c713 f73e 2511 a6bc
000000f0: ab66 6abe 89b4 b23e 521b febc 0653 11bb
00000100: 2ce2 90be 68c9 24be ec3b 96be e17d aabd
00000110: d332 86be 7dce 90be d61d c9bd 8381 44be
00000120: f829 c33d 2750 8a3d 5a38 d0bc ff57 e73d
00000130: 5c3f 493d ac91 d0bd 9eee eabd fdcf 653e
00000140: 9dc3 9cbd 46ca 143e 9def 1f3d d33b 49be
00000150: 4c66 da3e 94e7 71be 5215 10bf 0f95 da3d
00000160: edc9 39bd 2f2d b9bb 660b 873e ad89 55be
00000170: b11a 1fbe 3474 013f 47c9 69be 0341 01bf
00000180: 3dc6 fd3d 0152 b43d 6c1c 63be 0c52 fa3d
00000190: 91b2 dc3d ac7e 32be 16b0 963e 15a8 0f3e
000001a0: 964a 6cbe 2024 fdbd 4a6c 833e 2a44 54bd
000001b0: 67b5 ba3e ea91 303e 2640 493e 9695 ad3e
000001c0: 413c 133f 83a1 503d 2865 333e 437c d33e
000001d0: 93ad 163e bc93 da3d ea0d 32be b68f b1bc
000001e0: b76e 2abd caed 883e a246 ae3e 71f4 91bd
000001f0: 0ead 4c3e d137 db3b 522a 97be e7b7 b8be
00000200: a5c7 003e 2a33 cbbd 0865 a7be 835a a6bd
00000210: fe29 d43c 8753 74bc 4012 9abc 89d5 363c
00000220: 6137 2cbe 02eb 9b3a a434 b2be dad6 f3be
00000230: bc25 87be be24 39be 5012 c6be c130 3fbe
00000240: e1b1 463d c508 88bd 3a62 14bc df50 383e
00000250: e9c4 e73e fb09 8b3e 8dd1 3abc 1bd9 5d3e
00000260: 0f88 2b3e 4509 10be 3924 1ebf 398a acbe
00000270: 6b39 d9be 53f7 dfbe 6349 b8be 6aa1 11be
00000280: b952 8dbe f001 21bd 8fa9 1a3e 95fe 383e
00000290: 2cdf 18bb 79e4 32be 99f6 8fbe b9a4 00be
000002a0: d1c5 ffbd 5501 9bbe e185 dfbd 0d2c 5b3e
000002b0: 1176 b93e 9300 fb3d 6a8e 423e f4f5 0e3f
000002c0: ea58 9b3e af46 553e 06aa 803d 049e 8f3e
000002d0: 8297 84bd b8e3 59be 7ce8 4bbe 50b5 c1be
000002e0: 07a5 d7be 7aa8 073d a2db edbe fa5c c8be
000002f0: 3be4 6fbd e5ed 8e3d 34d7 e63d f95f 71bd
00000300: 2cfc 06bd c705 133e 97f8 013e 049f 55be
00000310: 0f58 4cbd 5738 7d3d 668d 953e 4806 1cbe
00000320: b3bc 88bd 1b7e e43d 8c76 b63e 3402 6c3d
00000330: fad9 833e d17b f83d 2e54 49bb 7a43 f03d
00000340: c7fa e83d 4a0d c03c a803 683c 0557 203e
00000350: 88a3 27be 19fc 503e b696 8f3e be1b 623e
00000360: decf 293e b984 ddbc 397e 043d 1e71 493e
00000370: cf02 98bd bc68 33bd 5d64 03be 4a39 75bc
00000380: ba0f 7fbd 5fe5 9d3d 71b2 d53e eadd 863e
00000390: 6607 fa3e 928e 493f f409 c23c cb1e d8bd
000003a0: 0761 9a3e 745f 16be f527 6dbe c7ca 4ebb
000003b0: 5292 65be a8d8 5a3e 3483 bb3e 1972 debe
000003c0: c771 08be 22c0 533e 5d2e 19bd fee8 79be
000003d0: cbb3 8abe 4749 ffbd 23a0 dbbe b82d edbe
000003e0: 8d5c cbbe 624b a23d fbc9 593d a973 b3bd
000003f0: 4926 eb3d 3a51 423e dc43 873e a675 893c

conv1.bias f4 [32]
-0.004959186 -0.0023916324 -0.0036350659 0.00079815375 -0.006478453 0.00022431785 0.009591285 0.0059504774
0.004803613 -0.0005870689 -0.001014822 -0.004582483 0.00040445206 -0.0043240385 0.0007127117 -0.010971778
0.0031394006 0.0032624104 0.0027260727 -0.0025711332 -0.01407614 0.0017590242 0.0005841467 -0.0031383557
0.00054674153 0.001793661 0.0019591749 0.008710067 0.009376987 0.010215325 0.001975262 -0.0057982337
00000000: ab80 a2bb efbc 1cbb 493a 6ebb 313b 513a
00000010: 3449 d4bb dd36 6b39 c424 1d3c 39fc c23b
00000020: a067 9d3b 87e5 19ba c703 85ba a728 96bb
00000030: a30c d439 aab0 8dbb 46d5 3a3a f9c2 33bc
00000040: 67be 4d3b 2ace 553b e9a7 323b 7580 28bb
00000050: 9c9f 66bc 0f8f e63a 6c21 193a dfac 4dbb
00000060: 3453 0f3a 4719 eb3a 8065 003b abb4 0e3c
00000070: efa1 193c 2e5e 273c 6673 013b 1cff bdbb

conv2.weight f4 [32, 32, 3, 3]
0.23520452 -0.06683515 0.12468301 -0.06808191 0.12345994 0.240812 -0.021468185 0.043937758
-0.27556288 0.18160823 -0.34931764 0.16248852 0.23136728 -0.2548602 0.19762492 -0.106549874
0.122677945 -0.03737454 -0.03248217 0.010377619 -0.060328905 0.12670352 0.013697475 -0.50623214
-0.1224713 -0.0018499919 0.36828128 0.17170905 -0.12112019 0.14852685 0.18280764 0.11802698
0.31822842 0.071740784 0.16848129 -0.26517966 -0.08724983 0.040303618 -0.20372146 -0.086144745
-0.14373472 -0.18448055 0.028070346 0.057923555 -0.06266801 -0.2696635 0.18275085 -0.07298777
0.028748665 -0.004168579 0.11217043 0.0449723 0.059955508 -0.23459026 0.05767979 -0.20802085
0.12694024 0.31369352 -0.0737134 0.26606676 -0.17094488 -0.068438925 -0.08356308 -0.112450585
0.17503479 0.25131893 -0.21115184 0.19731979 0.19952095 -0.069019854 0.09155556 -0.18028644
-0.031855408 0.041212928 0.03877953 -0.23824008 -0.12777169 0.24580382 0.03350749 -0.06362985
0.055416115 -0.039121732 0.09058243 -0.27441314 -0.26067126 -0.23944958 -0.492028 -0.040444918
0.019101236 0.41321033 -0.09692635 -0.11523508 0.05826026 -0.12853771 0.10783112 -0.072295286
-0.06292729 0.1981912 -0.13050362 -0.011981438 0.057286702 0.11671467 0.09551313 0.06315667
-0.420287 -0.12039222 0.15447189 -0.021429056 0.071743965 -0.050119713 0.14248268 -0.0061563356
0.0067449566 0.26290917 -0.050238576 0.007359123 0.08958222 0.20099515 0.21492417 0.25749734
-0.061615862 -0.17864387 0.31474733 0.010197716 -0.19890286 -0.03133306 0.1789722 0.02691222
-0.21496826 0.022455933 0.0048229364 -0.23524003 -0.114558406 0.1072602 0.053508993 0.14503601
-0.065149814 0.016841501 0.08689603 0.048548706 -0.16001415 0.10768767 -0.055692736 -0.0833763
-0.19802774 -0.031663246 -0.0053554657 0.06259785 -0.26898175 0.1436288 0.021029178 0.138746
-0.03718164 0.045005232 0.032423034 0.13562806 -0.07589014 -0.016399108 0.06989682 -0.007677568
-0.26167983 0.06267181 0.2631507 -0.021609746 -0.01822808 0.11370639 -0.17735198 -0.092367
-0.29314527 0.0097454125 -0.044702467 0.000759355 -0.021458354 -0.28098747 0.035602853 0.086040094
-0.33899283 -0.069980994 0.04617449 0.22865167 0.03949057 0.0658204 0.17139876 -0.17225523
0.13031033 0.58392906 -0.049477693 0.09095645 -0.2684273 0.19279091 0.05767198 0.1930766
0.1666331 0.11377129 -0.04183849 -0.11548446 -0.033094797 0.07771172 0.07842283 -0.00072049483
0.038197253 -0.34168822 0.24659464 0.15389776 0.047381025 -0.013201296 0.0029416606 -0.0024038649
-0.17823423 0.1554556 -0.24446024 0.41424322 -0.3832426 -0.060228325 -0.16003416 0.32345173
-0.12841159 0.06719793 -0.03788481 0.010176488 0.09926739 0.1545865 0.10057147 -0.055757597
-0.0773735 0.23936766 0.42528805 -0.043588266 -0.25026143 0.13798504 -0.10596158 -0.006805282
-0.070531756 -0.18828991 -0.006190626 -0.08675793 -0.20649968 -0.29095462 0.0769302 0.2142543
0.04696127 0.10240696 -0.21512678 0.025724737 0.104697414 -0.05732963 -0.13477564 0.26463875
0.39869294 -0.040391054 0.15021247 -0.21881266 0.003108025 -0.16875283 0.04912086 -0.04767398
00000000: 74d9 703e dee0 88bd ce59 ff3d 876e 8bbd
00000010: 91d8 fc3d 6c97 763e 0cde afbc 14f8 333d
00000020: 9416 8dbe 82f7 393e c3d9 b2be 6463 263e
00000030: 8beb 6c3e 097d 82be 305e 4a3e d236 dabd
00000040: 933e fb3d 0c16 19bd 060c 05bd e406 2a3c
00000050: 711b 77bd 91be 013e 606b 603c 6e98 01bf
00000060: 3cd2 fabd 6d7b f2ba 5d8f bc3e 7fd4 2f3e
00000070: dd0d f8bd 6c17 183e ed31 3b3e 21b8 f13d
00000080: d6ee a23e d5ec 923d 5c86 2c3e a1c5 87be
00000090: 0ab0 b2bd 6815 253d 5c9c 50be a86c b0bd
000000a0: 322f 13be 78e8 3cbe c8f3 e53c 4041 6d3d
000000b0: 1658 80bd 5611 8abe 0a23 3b3e 9d7a 95bd
000000c0: 5282 eb3c 9398 88bb 9cb9 e53d e034 383d
000000d0: e893 753d 6e38 70be a541 6c3d 6b03 55be
000000e0: 9ffc 013e 709c a03e 0df7 96bd e739 883e
000000f0: 2d0c 2fbe b529 8cbd 1f23 abbd 7e4c e6bd
00000100: 523c 333e e0ac 803e 3038 58be 330e 4a3e
00000110: 384f 4c3e 485a 8dbd 7b81 bb3d 029d 38be
00000120: d17a 02bd e3ce 283d 49d7 1e3d 35f5 73be
00000130: 95d6 02be ffb3 7b3e 263f 093d 5e50 82bd
00000140: 02fc 623d 1c3e 20bd 4883 b93d e17f 8cbe
00000150: b476 85be 4532 75be 18eb fbbe 92a9 25bd
00000160: 327a 9c3c 4e90 d33e 5281 c6bd 5f00 ecbd
00000170: 4fa2 6e3d 649f 03be 90d6 dc3d 8d0f 94bd
00000180: 06e0 80bd a2f2 4a3e bea2 05be cb4d 44bc
00000190: 76a5 6a3d 1a08 ef3d 639c c33d 4958 813d
000001a0: dc2f d7be 3290 f6bd e12d 1e3e fd8b afbc
000001b0: 80ee 923d 544a 4dbd fbe6 113e 16bb c9bb
000001c0: cc04 dd3b 089c 863e f7c6 4dbd cc24 f13b
000001d0: e276 b73d acd1 4d3e 1515 5c3e b1d6 833e
000001e0: ea60 7cbd 6bee 36be 9026 a13e 5214 273c
000001f0: 31ad 4bbe 1857 00bd 7d44 373e 0477 dc3c
00000200: a420 5cbe 81f5 b73c b909 9e3b c3e2 70be
00000210: 999d eabd 3cab db3d 3f2c 5b3d 5284 143e
00000220: 446d 85bd 30f7 893c 8cf6 b13d 02db 463d
00000230: c0da 23be 5a8b dc3d 111e 64bd 32c1 aabd
00000240: c9c7 4abe 52b1 01bd e77c afbb 4d33 803d
00000250: fab7 89be 6e13 133e 6245 ac3c 6e13 0e3e
00000260: c64b 18bd 6857 383d 04ce 043d 15e2 0a3e
00000270: 4a6c 9bbd 6c57 86bc 1026 8f3d 1c94 fbbb
00000280: e6fa 85be 145a 803d b0bb 863e ec06 b1bc
00000290: 0e53 95bc e5de e83d c29b 35be e92a bdbd
000002a0: 2317 96be 39ab 1f3c ef19 37bd 740f 473a
000002b0: 6ec9 afbc 97dd 8fbe 4cd4 113d ca35 b03d
000002c0: 7890 adbe 3252 8fbd 7621 3d3d aa23 6a3e
000002d0: ddc0 213d d9cc 863d 2883 2f3e ad63 30be
000002e0: 1270 053e 607c 153f 1fa9 4abd 6047 ba3d
000002f0: 4e6f 89be fb6a 453e 7439 6c3d dfb5 453e
00000300: dea1 2a3e ec00 e93d d65e 2bbd 1e83 ecbd
00000310: 698e 07bd 5227 9f3d 269c a03d 97df 3cba
00000320: b974 1c3d c2f1 aebe 4e83 7c3e 6097 1d3e
00000330: 9b12 423d 404a 58bc e0c8 403b 298a 1dbb
00000340: 0983 36be c12f 1f3e c953 7abe b017 d43e
00000350: 6038 c4be fab1 76bd ffdf 23be 779b a53e
00000360: 547e 03be 119f 893d 1a2d 1bbd 49bb 263c
00000370: b44c cb3d ec4b 1e3e 6af8 cd3d 1462 64bd
00000380: ff75 9ebd cc1c 753e 5bbf d93e 9c89 32bd
00000390: 4422 80be f34b 0d3e 6302 d9bd d8fe debb
000003a0: f472 90bd 12cf 40be bcda cabb 24ae b1bd
000003b0: a774 53be 01f8 94be 958d 9d3d 7b65 5b3e
000003c0: 765a 403d beba d13d 324a 5cbe afbc d23c
000003d0: 996b d63d 79d2 6abd a002 0abe bb7e 873e
000003e0: 7b21 cc3e 1771 25bd 4cd1 193e 6d10 60be
000003f0: 02b0 4b3b 8bcd 2cbe f432 493d cb45 43bd

conv2.bias f4 [32]
-0.006805889 -0.17594011 -0.0074415756 -0.04998039 -0.057013404 -0.035005085 -0.004992313 -0.06873198
-0.102558725 -0.15652853 -0.013279653 -0.004588974 -0.028506152 -0.09312634 -0.029112587 -0.008228405
0.011520882 -0.026985833 -0.052521847 -0.12613566 -0.25551143 -0.013481924 0.00520299 -0.060113214
-0.11631634 0.013076422 -0.008551438 -0.0061509884 -0.029707544 -0.04898519 -0.046488296 -0.18504126
00000000: ef03 dfbb a529 34be 76d8 f3bb 3db8 4cbd
00000010: e386 69bd 7e61 0fbd 8f96 a3bb 5ac3 8cbd
00000020: 4f0a d2bd 0449 20be e792 59bc 1b5f 96bb
00000030: bc85 e9bc 06b9 bebd 857d eebc 6fd0 06bc
00000040: 15c2 3c3c 6511 ddbc 2621 57bd b529 01be
00000050: 65d2 82be 4ae3 5cbc d87d aa3b 4639 76bd
00000060: 4337 eebd 7d3e 563c 551b 0cbc 3b8e c9bb
00000070: 3c5d f3bc b2a4 48bd 836a 3ebd 757b 3dbe

conv3.weight f4 [32, 32, 3, 3]
-0.08379931 -0.14564852 -0.2270681 -0.067067474 0.04695495 0.052433625 -0.08226023 0.13974139
-0.027334504 -0.05462841 0.05386643 0.14031108 0.024907898 -0.26100206 -0.37844807 -0.062944755
-0.05565309 -0.06327422 0.016297502 0.07361644 0.0430366 0.058133543 -0.063757725 -0.19067387
0.06370283 -0.08442411 0.11994651 0.013534687 -0.051144306 0.008553641 -0.06858934 0.019887745
-0.21978171 0.14826716 -0.091982424 0.17295566 0.12560827 -0.06421774 0.08107648 -0.002523395
-0.008165549 -0.05374369 0.019013241 0.114531636 0.13245837 0.08069196 -0.0146256415 0.20536388
0.14015077 0.042492576 -0.05161956 0.0032983401 -0.039954595 0.14412197 0.11679163 0.14582823
-0.001055692 -0.05936457 0.24543665 0.15292439 0.02971116 -0.20520432 0.058383 0.027372131
0.008028112 0.098878294 0.028730446 0.05766023 0.2569191 -0.06333307 0.22498873 -0.11682092
0.03887206 0.13145018 -0.013735646 -0.03576422 0.2075903 0.26353338 -0.29011893 0.013712594
-0.15201546 -0.13268569 0.06481306 -0.0152024105 -0.056101423 -0.038469527 -0.05209281 0.1569079
-0.06430805 0.28277275 -0.08483837 0.00645293 0.041967835 0.14782184 -0.08377951 -0.024825085
-0.060760707 -0.106305 -0.10129929 0.13839884 0.1308127 0.19813254 0.03152083 0.14767526
-0.035556655 -0.16520765 -0.10673999 -0.04220308 -0.10046826 0.09155955 0.044682696 0.20603226
0.090315424 0.36154974 -0.08919232 -0.11736557 -0.12628497 -0.11702688 -0.020039203 -0.03373593
0.21025878 -0.054623596 0.21116361 0.030246237 0.07029307 -0.08455544 -0.090115204 -0.0991828
-0.004196376 0.093858816 0.047169346 -0.13706401 0.11582112 -0.2554328 0.13277353 -0.009489558
0.123313755 -0.09523366 -0.015337583 -0.29761425 0.058672998 -0.05133941 -0.23890646 -0.07074916
-0.09189218 0.19787943 0.09162834 -0.17333215 0.13464083 0.35078594 -0.118181914 -0.1019084
-0.21333414 -0.073159374 -0.1580502 0.03182525 0.07823919 -0.15236159 0.12387869 0.009253818
0.35084662 0.050044026 0.048616596 0.057545844 -0.24462347 -0.09215875 -0.14464323 0.046572432
-0.030432627 0.17906873 0.07741261 0.07453579 0.14341284 0.07992869 -0.12895942 0.115826294
-0.0056556794 -0.0083402265 -0.390871 -0.122090995 -0.07308756 -0.09659627 -0.18130529 -0.08650107
0.08673766 0.16312377 0.024787264 0.073873915 0.07021649 -0.0196912 0.06731849 0.16902553
-0.042969782 -0.21310355 -0.004458765 0.05589316 0.27137622 -0.14998068 -0.022928242 -0.10222677
0.010917022 0.06744168 0.2554011 0.20517045 -0.2618063 0.11428286 -0.21520534 -0.07399341
-0.01955543 0.05527088 0.10272359 -0.09992406 0.1792938 0.08603086 0.17568941 0.08438465
0.12390871 0.048491668 0.10455978 -0.10032361 -0.039955545 -0.020673536 -0.2063356 -0.17107871
-0.19160514 -0.08326448 0.1361202 0.029590035 0.079346485 -0.15726966 0.33911252 -0.3056401
0.20934851 -0.4741129 0.012408494 0.16411555 0.05913518 0.1948939 0.008343003 -0.08158005
-0.12159697 0.1922049 -0.2319806 0.09314301 0.19552618 0.12328459 -0.076610304 -0.014876062
0.135667 -0.06489149 -0.32908472 -0.05218376 0.14402983 0.29657006 0.25998804 -0.1255802
00000000: f99e abbd e324 15be 8a84 68be ac5a 89bd
00000010: d553 403d a4c4 563d 0d78 a8bd 5e18 0f3e
00000020: 9cec dfbc 0ac2 5fbd 0ca3 5c3d b5ad 0f3e
00000030: a60b cc3c 10a2 85be f2c3 c1be 2ee9 80bd
00000040: 7ff4 63bd ea95 81bd 5782 853c 37c4 963d
00000050: 2547 303d 701d 6e3d 6993 82bd 0340 43be
00000060: a176 823d 8ce6 acbd 84a6 f53d 98c0 5d3c
00000070: b17c 51bd 9224 0c3c 9178 8cbd a0eb a23c
00000080: 750e 61be 59d3 173e 4861 bcbd 4a1b 313e
00000090: 749f 003e 9784 83bd 6d0b a63d 8b5f 25bb
000000a0: cbc8 05bc 5822 5cbd a8c1 9b3c 908f ea3d
000000b0: 2ba3 073e d441 a53d 63a0 6fbc e94a 523e
000000c0: af83 0f3e b20c 2e3d 086f 53bd f728 583b
000000d0: 6ea7 23bd b694 133e 7330 ef3d ff53 153e
000000e0: 255f 8aba 4328 73bd bf53 7b3e 3698 1c3e
000000f0: d264 f33c 1521 52be 0323 6f3d 853b e03c
00000100: 5888 033c b480 ca3d 1d5c eb3c 222d 6c3d
00000110: e68a 833e c5b4 81bd 7263 663e ce3f efbd
00000120: 4f38 1f3d e09a 063e 7a0b 61bc 817d 12bd
00000130: 8d92 543e d9ed 863e 788a 94be caaa 603c
00000140: f1a9 1bbe c2de 07be b6bc 843d 8813 79bc
00000150: 9bca 65bd 3992 1dbd 455f 55bd 77ac 203e
00000160: f0b3 83bd 97c7 903e bdbf adbd 1a73 d33b
00000170: 77e6 2b3d 9c5e 173e 9794 abbd fa5d cbbc
00000180: 38e0 78bd 70b6 d9bd 0176 cfbd 6db8 0d3e
00000190: c4f3 053e 42e3 4a3e fc1b 013d 2f38 173e
000001a0: dba3 11bd 322c 29be 7f9a dabd 23dd 2cbd
000001b0: 4ec2 cdbd 9383 bb3d 3405 373d 1ffa 523e
000001c0: 4bf7 b83d 0c1d b93e 77aa b6bd 5c5d f0bd
000001d0: d950 01be caab efbd 4129 a4bc b02e 0abd
000001e0: 144e 573e febc 5fbd 463b 583e f5c6 f73c
000001f0: d0f5 8f3d 672b adbd 528e b8bd 5a20 cbbd
00000200: c181 89bb 0d39 c03d a534 413d 825a 0cbe
00000210: a033 ed3d 17c8 82be c9f5 073e 177a 1bbc
00000220: ec8b fc3d dd09 c3bd 7c4a 7bbc e560 98be
00000230: 1953 703d 4649 52bd e5a3 74be f0e4 90bd
00000240: f831 bcbd e8a0 4a3e a4a7 bb3d fc7d 31be
00000250: 49df 093e 379a b33e 5c09 f2bd 5ab5 d0bd
00000260: 4474 5abe 95d4 95bd e9d7 21be 315b 023d
00000270: de3b a03d ad04 1cbe 1cb4 fd3d 539d 173c
00000280: 2ba2 b33e f7fa 4c3d 3222 473d 31b5 6b3d
00000290: 937e 7abe babd bcbd 5b1d 14be bcc2 3e3d
000002a0: d84d f9bc cb5d 373e 818a 9e3d 38a6 983d
000002b0: d1da 123e a7b1 a33d f00d 04be 5636 ed3d
000002c0: 4753 b9bb 72a5 08bc 3e20 c8be d80a fabd
000002d0: eeae 95bd 44d4 c5bd 18a8 39be 7927 b1bd
000002e0: 84a3 b13d eb09 273e a90e cb3c 354b 973d
000002f0: aacd 8f3d 714f a1bc 47de 893d 0715 2d3e
00000300: 1501 30bd d137 5abe d51a 92bb 3af0 643d
00000310: d3f1 8a3e 8994 19be 02d4 bbbc 455c d1bd
00000320: 4fdd 323c dd1e 8a3d efc3 823e 3418 523e
00000330: 7a0b 86be 220d ea3d ca5e 5cbe db89 97bd
00000340: b632 a0bc b863 623d bf60 d23d fca4 ccbd
00000350: cb98 373e f330 b03d ede7 333e dcd1 ac3d
00000360: dac3 fd3d 339f 463d 7023 d63d 7776 cdbd
00000370: 6da8 23bd 8c5b a9bc a449 53be 422f 2fbe
00000380: 2334 44be 9186 aabd 1863 0b3e cd66 f23c
00000390: 6980 a23d 4c0b 21be 28a0 ad3e dc7c 9cbe
000003a0: 755f 563e edbe f2be ff4c 4b3c e80d 283e
000003b0: bb37 723d 4492 473e 17b1 083c 7113 a7bd
000003c0: d507 f9bd 5cd1 443e 538c 6dbe c3c1 be3d
000003d0: 0438 483e a27c fc3d dde5 9cbd baba 73bc
000003e0: 4aec 0a3e d4e5 84bd cb7d a8be a3be 55bd
000003f0: 8e7c 133e 08d8 973e 271d 853e 1998 00be

conv3.bias f4 [32]
0.054539766 -0.110573694 0.063601635 0.07906367 0.015992228 -0.12384407 0.1445056 0.031891044
-0.21740189 0.1410366 -0.07764075 0.0703442 0.10912977 0.110443786 -0.19293228 -0.037340056
0.15178575 -0.006239144 0.04226904 -0.04800997 -0.04554189 0.12638943 -0.038920283 0.02907426
-0.062293455 -0.06340863 0.05098422 0.111180685 -0.083665915 -0.092441946 0.055353556 0.12656312
00000000: 1765 5f3d 7674 e2bd 9341 823d 22ec a13d
00000010: 2202 833c f6a1 fdbd 47f9 133e 2fa0 023d
00000020: 9a9e 5ebe e66b 103e 1d02 9fbd 9f10 903d
00000030: 6e7f df3d 5a30 e23d 0a90 45be e3f1 18bd
00000040: b96d 1b3e bc71 ccbb 4d22 2d3d 1aa6 44bd
00000050: 228a 3abd 3b6c 013e e06a 1fbd 242d ee3c
00000060: 6c27 7fbd 62dc 81bd d4d4 503d b3b2 e33d
00000070: 0959 abbd 3452 bdbd 69ba 623d c399 013e

conv4.weight f4 [32, 32, 3, 3]
-0.08030443 0.052752554 0.09649814 0.011275935 0.07678736 -0.08524169 -0.084378846 -0.10265679
0.01998664 -0.104999155 0.050620403 -0.072732754 -0.13652988 0.18776608 0.11222133 0.05538901
-0.0068939826 -0.07778738 -0.02190901 -0.011546144 0.011799973 0.0107989805 -0.073460266 -0.11599146
-0.055562336 0.019606616 0.12314929 0.023615154 0.0584548 -0.17502189 -0.018560555 -0.13602963
0.023839138 -0.028334113 0.25819534 0.08368732 0.032989502 0.11492729 0.09741155 -0.09403904
0.23296829 -0.09528395 0.03396123 -0.22779481 -0.07396842 -0.09828518 -0.0018782223 -0.022135394
0.11952522 -0.12147133 0.04601374 0.08123971 -0.015263842 -0.09813937 -0.05673861 -0.05802453
0.16036078 0.2254349 0.023108056 -0.18602055 -0.2824276 -0.054493714 0.061384648 -0.06235369
0.07045282 -0.15058091 -0.04072418 0.0340261 -0.053885587 0.04799062 -0.050421935 0.0036858895
0.082448885 0.11316838 -0.14459169 0.077590264 -0.23879631 -0.010681238 -0.07123513 0.18581863
0.04831361 0.09753448 -0.05562735 0.05474604 -0.13098454 0.06727759 -0.07656753 -0.03456686
0.001016592 0.08153959 0.12876481 -0.112954244 0.066324644 -0.14445683 0.012507875 0.0376096
-0.006229481 0.047352314 0.017597843 0.096458405 0.022330618 -0.09804012 -0.12283647 -0.051144104
-0.076868914 0.061831485 0.0057288776 -0.010505065 -0.12296209 0.018192701 0.18299927 -0.020852566
-0.061661128 -0.13606074 0.055269204 -0.01614048 -0.015565366 -0.044026334 0.0014099343 -0.043122146
-0.12587555 0.18212004 -0.1700121 0.050802704 -0.12532744 -0.03492527 -0.005116855 0.11070734
-0.07483003 -0.01930256 -0.20803428 0.07177077 -0.0015985459 -0.0046641827 -0.0688238 -0.047233656
0.12232205 -0.091362044 0.11347478 -0.073691264 -0.042939503 -0.12096856 -0.041027784 0.049056865
0.03526221 -0.07616264 -0.16071346 -0.1255055 0.18358755 -0.07480758 -0.14780504 -0.11072707
-0.005934958 0.009828965 0.050763935 -0.18816611 0.20294955 -0.23936048 -0.0022756308 -0.1650614
0.07198268 0.052006647 0.09926155 0.03330481 0.03356279 -0.00028908942 0.057417877 -0.168048
-0.039681446 0.007997299 0.077728406 0.10952834 0.12763487 -0.053357787 0.10655089 0.006169754
-0.15567757 -0.03718848 0.16056783 0.052038588 0.037070546 0.305196 -0.054353304 -0.333855
0.115910105 0.16538368 -0.030762983 -0.12709285 -0.03131939 0.08941882 -0.1916896 0.13099045
0.017411385 -0.1412275 -0.11043615 0.02136979 0.075331725 0.008633519 -0.027638888 3.1200612e-05
0.077610366 0.036137015 0.10167301 -0.026205892 -0.037631743 -0.11658163 0.15524863 0.024172807
0.063218236 0.13197368 0.2031468 -0.13861555 -0.20500347 -0.109523326 -0.08353133 0.20404889
0.032691672 -0.08546276 0.035173863 -0.21037842 0.10538765 0.04287263 0.008886285 0.048656695
-0.011676351 0.12891906 0.043792542 -0.15471263 -0.0813767 0.21316805 0.10853596 0.036815755
-0.1111053 0.028670358 0.0075432905 -0.16368282 0.059906602 -0.057191588 0.04532814 -0.17620458
0.0047924696 -0.10153177 0.05334001 0.014956207 -0.113846175 -0.014653915 0.09135912 0.12619565
-0.20173311 0.038108196 -0.01235704 0.04538828 0.02008904 -0.06314818 0.072336055 -0.015027048
00000000: a676 a4bd 1013 583d d1a0 c53d b3be 383c
00000010: b142 9d3d 3293 aebd d1ce acbd b93d d2bd
00000020: 06bb a33c cc09 d7bd 5757 4f3d e9f4 94bd
00000030: 7dce 0bbe c045 403e 4cd4 e53d 96df 623d
00000040: ebe6 e1bb fd4e 9fbd 867a b3bc 0a2c 3dbc
00000050: ad54 413c 35ee 303c 5672 96bd ee8c edbd
00000060: 5595 63bd 0e9e a03c b235 fc3d 9174 c13c
00000070: 4d6e 6f3d f038 33be 4e0c 98bc 5a4b 0bbe
00000080: 4c4a c33c f11c e8bc 2e32 843e 4264 ab3d
00000090: 0020 073d 005f eb3d b57f c73d 8a97 c0bd
000000a0: 3d8f 6e3e 3b24 c3bd ee1a 0b3d 0b43 69be
000000b0: c17c 97bd be49 c9bd af2e f6ba 4955 b5bc
000000c0: a3c9 f43d f6c5 f8bd e778 3c3d 0161 a63d
000000d0: 3215 7abc 4bfd c8bd bf66 68bd 21ab 6dbd
000000e0: 9e35 243e 68d8 663e 1b4d bd3c 2c7c 3ebe
000000f0: 5a9a 90be cd34 5fbd 786e 7b3d 9566 7fbd
00000100: 9149 903d e231 1abe 66ce 26bd f45e 0b3d
00000110: 22b7 5cbd d091 443d 3b87 4ebd f78e 713b
00000120: f6da a83d d3c4 e73d d80f 14be a5e7 9e3d
00000130: 0587 74be 5c00 2fbc b9e3 91bd 3d47 3e3e
00000140: 7ee4 453d 28c0 c73d 81d9 63bd 623d 603d
00000150: d020 06be d5c8 893d 70cf 9cbd fb95 0dbd
00000160: 2b3f 853a 3bfe a63d ecda 033e 8e54 e7bd
00000170: 37d5 873d 7eec 13be d5ed 4c3c 860c 1a3d
00000180: ad20 ccbb 80f4 413d 5a29 903c fc8b c53d
00000190: b3ee b63c 42c9 c8bd b091 fbbd 7b7c 51bd
000001a0: 736d 9dbd 0343 7d3d 4fb9 bb3b 701d 2cbc
000001b0: 8cd3 fbbd dc08 953c 2964 3b3e 00d3 aabc
000001c0: 6190 7cbd 8253 0bbe f661 623d 0a39 84bc
000001d0: e005 7fbc f554 34bd 8bcd b83a d9a0 30bd
000001e0: 85e5 00be ad7d 3a3e a717 2ebe 7f16 503d
000001f0: d655 00be cd0d 0fbd 4aab a7bb 88ba e23d
00000200: 7d40 99bd 6720 9ebc f006 55be 8efc 923d
00000210: 4d86 d1ba 00d6 98bb 7ef3 8cbd 1478 41bd
00000220: fc83 fa3d 061c bbbd 7765 e83d 72eb 96bd
00000230: 55e1 2fbd 5dbe f7bd c00c 28bd daef 483d
00000240: 1b6f 103d 28fb 9bbd 1292 24be 8484 00be
00000250: 60fe 3b3e b734 99bd 345a 17be e0c4 e2bd
00000260: 097a c2bb ab09 213c d8ed 4f3d 9eae 40be
00000270: 02d2 4f3e ea1a 75be c022 15bb db05 29be
00000280: a86b 933d ec04 553d a449 cb3d a06a 083d
00000290: 2379 093d ed90 97b9 022f 6b3d c614 2cbe
000002a0: 0389 22bd 1a07 033c 1230 9f3d 6550 e03d
000002b0: b7b2 023e b28d 5abd 5a37 da3d a62b ca3b
000002c0: f169 1fbe f352 18bd e56b 243e 6a26 553d
000002d0: 49d7 173d a642 9c3e 92a1 5ebd 0bef aabe
000002e0: 4762 ed3d 575a 293e a702 fcbc a124 02be
000002f0: c348 00bd 3721 b73d 474a 44be 5c22 063e
00000300: 52a2 8e3c f19d 10be 592c e2bd b30f af3c
00000310: 8547 9a3d 9a73 0d3c f36a e2bc 67dd 0238
00000320: 2ff2 9e3d 6804 143d f039 d03d bdad d6bc
00000330: be23 1abd 5ac2 eebd 7ff9 1e3e 0d06 c63c
00000340: 9078 813d 1c24 073e b705 503e 3cf1 0dbe
00000350: 6eec 51be c44d e0bd 7912 abbd 31f2 503e
00000360: b4e7 053d 1907 afbd 7812 103d 716d 57be
00000370: 7bd5 d73d 369b 2f3d c897 113c 3e4c 473d
00000380: 2a4e 3fbc 5c03 043e cf5f 333d fd6c 1ebe
00000390: d4a8 a6bd ba48 5a3e 1a48 de3d 1ecc 163d
000003a0: 2d8b e3bd 19de ea3c b52d f73b 789c 27be
000003b0: a060 753d ba41 6abd 00aa 393d f96e 34be
000003c0: 260a 9d3b e3ef cfbd 0e7b 5a3d e10a 753c
000003d0: 2f28 e9bd f916 70bc 7e1a bb3d 6f39 013e
000003e0: 2093 4ebe 5717 1c3d 2f75 4abc 10e9 393d
000003f0: c591 a43c d553 81bd ed24 943d 0234 76bc

conv4.bias f4 [32]
-0.031264555 0.18826203 -0.22892691 0.08190264 -0.03708506 -0.11773592 -0.17417341 -0.0109298965
0.078513496 -0.18535553 -0.2817311 -0.120566204 -0.015313734 0.05703572 -0.039806414 -0.13293582
-0.2085076 0.092439964 0.028812613 -0.058977235 -0.19526453 0.2019259 0.09893319 -0.07724444
0.1400654 0.04158325 0.12324216 -0.36936137 0.21016866 -0.030466951 -0.13138878 -0.10881254
00000000: 430f 00bd c3c7 403e d16b 6abe 92bc a73d
00000010: 81e6 17bd 881f f1bd 845a 32be 4f13 33bc
00000020: afcb a03d d7cd 3dbe 0f3f 90be 6aeb f6bd
00000030: 75e6 7abc 4a9e 693d 0d0c 23bd 5420 08be
00000040: 0483 55be 2a51 bd3d 6e08 ec3c 1d92 71bd
00000050: 6df3 47be aac5 4e3e 7c9d ca3d 5532 9ebd
00000060: 4e6d 0f3e 3353 2a3d 6366 fc3d ef1c bdbe
00000070: 7436 573e d495 f9bc c88a 06be 1cd9 debd

linear.weight f4 [256, 800]
0.013263588 -0.016454266 -0.03809556 -0.027274888 -0.03474788 0.01447184 0.006861851 -0.1177513
-0.005308499 -0.03102648 -0.0156018175 -0.06627305 -0.06414724 0.058291472 -0.04134139 -0.015694356
0.07509574 -0.11406517 -0.10833373 0.09749226 -0.070592605 0.032382004 -0.020581353 0.015268173
0.061640557 0.0944308 -0.050523035 -0.049833525 -0.07074122 -0.014321438 -0.18128406 0.038574204
0.07877226 -0.1647006 -0.0834847 -0.035938658 -0.1506436 -0.21182771 -0.099245094 0.0403939
-0.034909982 0.005084957 0.009329248 0.047423344 -0.07287067 0.04870969 -0.056546684 0.07313433
-0.027991606 -0.014965175 0.051700562 0.012924202 -0.07761809 -0.043524038 0.018278396 0.03252725
-0.11487369 -0.0026879534 0.1850359 -0.2299073 -0.06764201 -0.07488905 0.006634434 -0.08413037
-0.027893018 -0.111441605 -0.06682874 -0.008071283 0.00084181625 0.021407388 -0.024926273 0.054439366
-0.062706575 0.0029781926 -0.017153172 -0.03577497 -0.028851958 0.090410106 -0.010513406 -0.022443948
0.05455931 0.021060433 -0.013739141 -0.12827046 0.13626891 -0.09811144 0.035765238 0.01509918
0.0091556795 -0.063409574 -0.15613475 -0.020746937 0.11758985 0.25211772 0.10859814 -0.009848953
-0.0669385 0.061156034 -0.11229269 -0.021466272 -0.040556863 0.0047818343 0.031501856 0.046978083
-0.08705925 0.042923637 -0.009749036 0.06924742 0.03625005 -0.071397044 -0.06691723 -0.04008652
0.09801428 -0.04577699 0.0043952335 0.10241144 0.053210665 0.027031537 0.12084723 0.03830968
-0.061564185 0.05939629 0.12052789 -0.13919951 -0.04578641 -0.077551715 0.102119535 0.13370295
0.10258548 -0.05488939 0.03672693 0.090313084 -0.087578945 0.00352359 0.11433207 0.046693545
-0.15771057 -0.01901842 -0.06324557 -0.09180627 -0.10033402 0.093607575 0.03827581 0.096644364
0.051815327 0.06035186 0.115682505 -0.20259714 0.084542744 0.11270976 -0.0075006606 -0.017534181
-0.038401727 0.07776509 -0.06274085 0.036446307 -0.035513207 -0.12962237 -0.13018887 0.08658185
0.15050614 -0.042097516 -0.04730989 -0.04112226 -0.055855505 -0.0045104553 0.040231504 0.10125802
0.09498973 0.11030974 0.08365884 0.0419169 -0.042807173 0.0314865 -0.07369135 -0.048578106
-0.091346 -0.0042980188 -0.09850442 -0.11357945 -0.14994575 0.06371251 -0.005761745 5.531034e-05
0.056362215 -0.07043356 -0.059993543 0.07540425 0.035691213 -0.112356365 -0.018166238 0.134573
0.12688515 -0.049249668 0.014337549 0.1392875 0.005285551 -0.037036665 -0.008592165 0.026545798
0.04304736 -0.10443831 0.06418904 -0.060314134 -0.029225998 -0.07400235 -0.026808577 -0.034936994
-0.0993555 0.090621546 -0.051071495 0.02888071 -0.049810607 -0.015950456 0.033307355 -0.021371957
-0.0211588 -0.05931751 0.0026286144 -0.020237774 0.08013979 -0.061328456 -0.04040085 -0.020256827
0.017354965 0.025959777 0.13123162 0.056316562 0.0561475 0.05824295 -0.09553322 0.024813902
-0.071630485 -0.09800892 0.09504 -0.02653233 -0.07901071 0.040555157 0.014820232 -0.033848196
-0.07926792 0.106017195 -0.019848648 0.0012115825 -0.1249927 0.02081214 -0.035565518 0.012958268
-0.0511924 -0.035755496 -0.06690938 -0.020702485 -0.005406838 0.0048639355 0.034905136 0.059192043
00000000: 854f 593c 19cb 86bc 170a 1cbd 966f dfbc
00000010: cb53 0ebd 4c1b 6d3c 61d9 e03b 9827 f1bd
00000020: ebf2 adbb 3f2b febc c49e 7fbc 2aba 87bd
00000030: a15f 83bd 0ac3 6e3d 9755 29bd 7391 80bc
00000040: cccb 993d 009b e9bd 13de ddbd 06aa c73d
00000050: db92 90bd fea2 043d 3a9a a8bc 5c27 7a3c
00000060: cf7a 7c3d ef64 c13d 3ef1 4ebd 3d1e 4cbd
00000070: c6e0 90bd 77a4 6abc 87a2 39be fcff 1d3d
00000080: 5a53 a13d 46a7 28be 07fa aabd 6a34 13bd
00000090: 5142 1abe 5de9 58be 0341 cbbd 1374 253d
000000a0: c5fd 0ebd b69f a63b b4d9 183c fb3e 423d
000000b0: 383d 95bd d083 473d 7f9d 67bd 74c7 953d
000000c0: a74e e5bc 7e30 75bc f8c3 533d 08c0 533c
000000d0: 3cf6 9ebd 4346 32bd 93bc 953c 4b3b 053d
000000e0: e642 ebbd 6028 30bb 0d7a 3d3e d26c 6bbe
000000f0: e587 8abd 6e5f 99bd ab65 d93b 8b4c acbd
00000100: e67f e4bc 7f3b e4bd 82dd 88bd 6a3d 04bc
00000110: 55ad 5c3a 8c5e af3c 2f32 ccbc d0fb 5e3d
00000120: 4e6c 80bd c82d 433b cf84 8cbc c688 12bd
00000130: f15a ecbc ef28 b93d 6c40 2cbc 5fdc b7bc
00000140: 9579 5f3d ee86 ac3c 221a 61bc 5559 03be
00000150: 148a 0b3e a7ee c8bd 927e 123d 8d62 773c
00000160: b401 163c e1dc 81bd cae1 1fbe 7bf5 a9bc
00000170: f3d2 f03d 9315 813e b468 de3d 815d 21bc
00000180: 0d17 89bd c07e 7a3d b6f9 e5bd 09da afbc
00000190: f41e 26bd efb0 9c3b 1708 013d 176c 403d
000001a0: 1f4c b2bd b2d0 2f3d 6cba 1fbc 97d1 8d3d
000001b0: ef7a 143d 9d38 92bd e70b 89bd c331 24bd
000001c0: b6bb c83d a780 3bbd e405 903b 17bd d13d
000001d0: 6df3 593d 3e71 dd3c c17e f73d 9cea 1c3d
000001e0: ba2a 7cbd 8649 733d 54d7 f63d 518a 0ebe
000001f0: 888a 3bbd 6fd3 9ebd 0c24 d13d 6de9 083e
00000200: 5618 d23d b2d3 60bd fa6e 163d 11f6 b83d
00000210: 975c b3bd 08ec 663b ef26 ea3d bb41 3f3d
00000220: e17e 21be 84cc 9bbc e586 81bd ed04 bcbd
00000230: ec7b cdbd 54b5 bf3d 19c7 1c3d 7bed c53d
00000240: 4f3c 543d 8333 773d f3ea ec3d a075 4fbe
00000250: bf24 ad3d 60d4 e63d 1ac8 f5bb d8a3 8fbc
00000260: 214b 1dbd 4e43 9f3d 467e 80bd b948 153d
00000270: 4c76 11bd babb 04be 3b50 05be d351 b13d
00000280: 481e 1a3e 726e 2cbd 04c8 41bd d16f 28bd
00000290: bec8 64bd 71cc 93bb cac9 243d 5d60 cf3d
000002a0: fa89 c23d 13ea e13d 5355 ab3d 0eb1 2b3d
000002b0: 9356 2fbd fdf7 003d 7eeb 96bd d6f9 46bd
000002c0: 9d13 bbbd 65d6 8cbb afbc c9bd 589c e8bd
000002d0: 618b 19be b47b 823d 05cd bcbb 06fd 6738
000002e0: 11dc 663d 783f 90bd cabb 75bd 8b6d 9a3d
000002f0: f330 123d 181b e6bd 5dd1 94bc 81cd 093e
00000300: 2eee 013e 05ba 49bd 0ae8 6a3c 62a1 0e3e
00000310: 6a32 ad3b c2b3 17bd 27c6 0cbc 9376 d93c
00000320: 6e52 303d c1e3 d5bd 8b75 833d f40b 77bd
00000330: 5c6b efbc 8b8e 97bd a99d dbbc 181a 0fbd
00000340: e57a cbbd ca97 b93d 5830 51bd 3d97 ec3c
00000350: 3506 4cbd 88aa 82bc 4b6d 083d 3e14 afbc
00000360: 3855 adbc ebf6 72bd d544 2c3b b0c9 a5bc
00000370: 5520 a43d 8c33 7bbd 5d7b 25bd a5f1 a5bc
00000380: 002c 8e3c 99a9 d43c 9561 063e 32ac 663d
00000390: ecfa 653d 2990 6e3d eca6 c3bd 8646 cb3c
000003a0: 01b3 92bd e7b8 c8bd 55a4 c23d 545a d9bc
000003b0: 5ed0 a1bd 2a1d 263d 8fd0 723c 68a4 0abd
000003c0: 3857 a2bd 8b1f d93d a299 a2bc f6cd 9e3a
000003d0: 2cfc ffbd 397e aa3c 26ad 11bd ea4e 543c
000003e0: 1faf 51bd 5b74 12bd c907 89bd 4298 a9bc
000003f0: d82b b1bb a661 9f3b b0f8 0e3d 5b73 723d

linear.bias f4 [256]
-0.08795793 -0.09985955 -0.47874555 -0.051790442 -0.06343539 -0.07285768 -0.09255185 -0.47298548
-0.076202676 -0.023688873 -0.012597932 -0.17071365 -0.030960618 -0.003669764 -0.028586589 -0.12580383
-0.18584329 -0.09091635 -0.036255307 -0.08887572 -0.06061868 -0.048242595 -0.073650055 -0.053140562
-0.05433992 -0.30720678 -0.04315708 -0.062048554 -0.05261284 -0.08048027 -0.04217843 -0.13341805
-0.046691116 0.00054930244 -0.053838983 -0.16776018 -0.061667662 -0.058552597 -0.04097204 -0.051718898
-0.06101339 -0.05910056 -0.03644329 -0.06269555 -0.06611113 -0.01984387 0.12906334 -0.04529889
-0.03215862 -0.04710295 -0.043097615 0.0014072577 -0.16154902 -0.051024772 -0.12945691 -0.03856215
-0.067949295 -0.024650538 -0.040695373 -0.024236456 -0.14035338 -0.033931036 -0.04137575 -0.056401957
-0.103428036 -0.05205224 -0.105931945 0.11725295 -0.057818957 -0.40567082 -0.15741278 -0.013362576
-0.033492174 -0.019657115 -0.07220213 -0.08966634 -0.08295223 -0.0458444 -0.073858276 -0.10899984
-0.1704518 -0.047995403 -0.059759974 -0.07793696 -0.054946184 -0.073036484 -0.047446083 -0.048820764
-0.019112406 -0.089232855 -0.037441622 -0.103164196 -0.022296023 -0.07609766 0.030918613 -0.08802457
-0.06721633 -0.08552052 -0.06842792 -0.0542223 -0.043203767 -0.028618619 -0.072471134 -0.0243114
-0.33011466 -0.025520258 -0.032006238 -0.016150123 -0.39251953 -0.009006721 -0.17040421 -0.030421043
-0.05806122 -0.08279831 -0.04348727 -0.12090133 -0.07441458 -0.17631808 -0.08961132 -0.020456053
-0.10357561 -0.039284345 -0.08309546 -0.039362337 0.0065526003 -0.08203556 -0.082096115 -0.046260905
-0.09185104 -0.06278407 -0.018567171 -0.15149304 0.058827672 -0.01992907 0.07016507 -0.073095284
-0.07634384 -0.20836522 -0.06278905 -0.046513084 -0.04988276 -0.06527148 -0.07972063 -0.064686395
-0.0067542787 -0.04056276 -0.5087786 -0.04986224 -0.05841167 -0.07205624 -0.037569948 0.03451715
-0.06128244 -0.00885665 -0.24450469 -0.16036527 -0.05633751 -0.36682516 -0.15734805 -0.26072145
-0.0069533074 -0.028710442 -0.46679795 -0.03350329 -0.049931403 -0.14869145 -0.29559758 -0.07825954
0.014495901 -0.08899627 -0.03501373 -0.02777946 0.027738135 -0.06392681 -0.45488414 -0.04475007
-0.06770164 0.008384092 -0.07702049 -0.10768679 -0.07674761 -0.011422599 -0.017208466 -0.076989144
-0.029955108 -0.027525721 -0.028014537 -0.059163418 -0.0509879 -0.038566846 -0.39942977 -0.19892523
-0.027572358 -0.050224584 -0.0630411 -0.056114607 -0.038814068 -0.081949845 -0.07546934 -0.039810278
-0.04429348 -0.05061474 -0.059533823 -0.025176886 -0.06394102 -0.033429798 -0.047814608 -0.069856025
-0.08141713 -0.045454565 -0.023420228 -0.178243 -0.032216165 -0.020211332 -0.02271529 -0.32248718
-0.020584837 -0.029763004 -0.015437118 -0.038837142 -0.032197837 -0.056202244 -0.04812329 -0.068646
-0.04493028 -0.016076092 -0.084721014 -0.33091027 -0.037188902 -0.0361849 -0.06435337 -0.049272805
-0.047247134 -0.18066342 -0.078862086 -0.012139389 -0.028308202 -0.05605475 -0.05825475 -0.048199434
-0.14814857 0.116353825 -0.041326463 0.02762004 -0.034209885 -0.07290302 -0.21495298 -0.02914168
-0.27897418 -0.039199635 -0.109349795 -0.09497777 -0.034685712 0.07844819 -0.5322614 -0.07676566
00000000: 4a23 b4bd 2a83 ccbd 231e f5be 3722 54bd
00000010: 6aea 81bd 6836 95bd d38b bdbd 272b f2be
00000020: 2610 9cbd 2b0f c2bc 8e67 4ebc 8fcf 2ebe
00000030: 1fa1 fdbc 6c80 70bb 6c2e eabc b8d2 00be
00000040: b44d 3ebe 5a32 babd 7280 14bd 7904 b6bd
00000050: 4b4b 78bd 079a 45bd d7d5 96bd eba9 59bd
00000060: 8993 5ebd 354a 9dbe 7ac5 30bd a026 7ebd
00000070: 9080 57bd d7d2 a4bd 4ac3 2cbd be9e 08be
00000080: 2f3f 3fbd 10ff 0f3a 4486 5cbd 53c9 2bbe
00000090: 3b97 7cbd d9d4 6fbd 4cd2 27bd 32d7 53bd
000000a0: 2de9 79bd 6e13 72bd 8f45 15bd 8666 80bd
000000b0: 4665 87bd 9d8f a2bc 2e29 043e 548b 39bd
000000c0: c2b8 03bd 06ef 40bd 2087 30bd bc73 b83a
000000d0: 1b6d 25be 5aff 50bd 5a90 04be 58f3 1dbd
000000e0: 0029 8bbd edef c9bc 31b0 26bd 888b c6bc
000000f0: ccb8 0fbe 45fb 0abd 9e79 29bd bd05 67bd
00000100: 14d2 d3bd bb34 55bd d9f2 d8bd 5122 f03d
00000110: 92d3 6cbd 16b4 cfbe d130 21be b5ee 5abc
00000120: 172f 09bd f507 a1bc b6de 93bd fca2 b7bd
00000130: dce2 a9bd 56c7 3bbd 0243 97bd 4f3b dfbd
00000140: eb8a 2ebe d496 44bd e0c6 74bd 6a9d 9fbd
00000150: 400f 61bd 2794 95bd d356 42bd 48f8 47bd
00000160: 9f91 9cbc b7bf b6bd 635c 19bd c047 d3bd
00000170: 26a6 b6bc 17d9 9bbd 0849 fd3c 3a46 b4bd
00000180: b7a8 89bd 6225 afbd f023 8cbd 3418 5ebd
00000190: 6ff6 30bd 9871 eabc bf6b 94bd b328 c7bc
000001a0: ca04 a9be dc0f d1bc f918 03bd 434d 84bc
000001b0: 52f8 c8be ed90 13bc 717e 2ebe 8d35 f9bc
000001c0: 9ad1 6dbd 2992 a9bd b51f 32bd 1e9b f7bd
000001d0: ac66 98bd ba8c 34be 2486 b7bd 7493 a7bc
000001e0: 731f d4bd 9fe8 20bd f42d aabd 673a 21bd
000001f0: 32b7 d63b 4202 a8bd 0222 a8bd 137c 3dbd
00000200: 661c bcbd ef94 80bd 2e1a 98bc fe20 1bbe
00000210: 49f5 703d 4a42 a3bc b4b2 8f3d fbb2 95bd
00000220: 295a 9cbd b15d 55be 8c97 80bd 8184 3ebd
00000230: dd51 4cbd 0ead 85bd 9244 a3bd 4d7a 84bd
00000240: ff52 ddbb 2325 26bd 503f 02bf 593c 4cbd
00000250: 1341 6fbd 3992 93bd f2e2 19bd db61 0d3d
00000260: 4c03 7bbd 7c1b 11bc 705f 7abe cb36 24be
00000270: 29c2 66bd 82d0 bbbe d91f 21be 487d 85be
00000280: 92d8 e3bb 2932 ebbc 2400 efbe bf3a 09bd
00000290: df84 4cbd 9242 18be 9158 97be 8a46 a0bd
000002a0: 3780 6d3c ad43 b6bd 8f6a 0fbd c091 e3bc
000002b0: 163b e33c 0fec 82bd 93e6 e8be d94b 37bd
000002c0: 28a7 8abd 6e5d 093c ebbc 9dbd e48a dcbd
000002d0: da2d 9dbd da25 3bbc c5f8 8cbc 7cac 9dbd
000002e0: 6a64 f5bc 9f7d e1bc be7e e5bc 5755 72bd
000002f0: b0d8 50bd 45f8 1dbd 0f82 ccbe 0eb3 4bbe
00000300: 6ddf e1bc 4bb8 4dbd b11b 81bd 6ed8 65bd
00000310: 80fb 1ebd 52d5 a7bd ab8f 9abd 1a10 23bd
00000320: 156d 35bd 6751 4fbd bdd9 73bd c23f cebc
00000330: 82f3 82bd afed 08bd 40d9 43bd ad10 8fbd
00000340: 06be a6bd 912e 3abd c7db bfbc 5585 36be
00000350: 19f5 03bd 3c92 a5bc 6a15 babc 0a1d a5be
00000360: 88a1 a8bc 8bd1 f3bc f7eb 7cbc b213 1fbd
00000370: e1e1 03bd 5334 66bd ed1c 45bd 4696 8cbd
00000380: d008 38bd 02b2 83bc 3682 adbd 126d a9be
00000390: 6453 18bd 9e36 14bd b3cb 83bd 48d2 49bd
000003a0: 3686 41bd d5ff 38be 7282 a1bd 4ae4 46bc
000003b0: 9ae6 e7bc aa99 65bd 889c 6ebd c56c 45bd
000003c0: 42b4 17be ea4a ee3d f045 29bd 6c43 e23c
000003d0: aa1f 0cbd 2e4e 95bd a21c 5cbe 88ba eebc
000003e0: b4d5 8ebe cc8f 20bd c9f2 dfbd b483 c2bd
000003f0: 9b12 0ebd 72a9 a03d 4842 08bf 5037 9dbd

critic_linear.weight f4 [1, 256]
-0.0048813643 -0.04295116 -0.0875555 0.0014143065 -0.0013265985 0.00022877721 0.0052532298 -0.07278904
-7.333635e-05 0.0039291354 0.00037736486 0.03837147 0.00044693227 0.0005556001 -0.0015945727 0.0024509903
0.000384905 -0.001671348 -0.0009393246 0.002656162 -0.0005582319 -8.884715e-05 0.00409068 -0.0017679667
-0.0043958006 -0.009834213 -0.0007141282 0.00077498914 0.0018635996 0.03319429 0.0010718663 0.0036388754
-0.00061059854 0.0002602032 0.02032881 -0.031177068 -0.0011459349 0.0029183659 -0.005215149 0.0010386378
0.0031615617 0.0016792682 -0.003920493 8.419259e-05 -0.0021074761 -0.0007167831 0.033133805 0.0017979596
0.004129449 0.0010183833 0.0017396148 -0.0012113618 -0.0048005357 0.0034211243 -0.0009586895 0.0027225784
0.0020474042 -0.0023325188 -0.0041698846 0.0010367939 -0.014719109 0.00042814168 0.17370039 0.0022153156
0.00025126152 -0.0039370875 -0.0011761502 0.019925969 -0.001532623 0.0035642444 -0.00013428561 -0.00079449394
-0.0042066704 0.024080502 -0.00521885 0.019884316 -0.0007658335 0.0017910083 -0.0032588071 0.022277055
-0.0016255745 0.00037082625 0.003727084 -0.0026209 -0.0027253034 -0.001021632 0.00040715662 0.000496875
0.02777196 0.019135002 -0.0011261806 -0.0032114103 0.005611419 0.0014111293 0.019887168 0.00037455748
-0.0025886572 0.03179912 0.0033444837 -0.0026199643 -0.0018499609 -0.0018793482 0.00042320875 -6.672986e-05
-0.005557267 0.0027189339 -0.0014135722 0.01809093 -0.029294616 0.025243353 0.0017040605 0.0011703433
0.00037266625 0.0011573633 0.00028139385 0.005037748 0.00025034556 -0.00746969 0.0025166005 -0.0028956977
-0.0006402185 0.0013636625 -0.0021865899 0.0005730224 -0.0003248337 -0.0022132036 -0.00074842497 0.0019764898
-0.010329165 -0.0003585688 0.0031439494 0.000612001 0.028656548 0.001363613 0.038871557 -0.003460289
0.00034807954 -0.04600989 -0.00077716575 0.003690366 -0.0019094202 0.0016861806 -0.0053353095 -0.002823683
0.0011316605 0.0035313985 -0.07447452 -0.001770113 0.0008899868 0.005669257 -2.1633208e-05 -0.0010509486
0.004798346 -0.0013036217 -0.007769524 -0.0009421886 0.0024913263 -0.0044908556 0.0022721062 -0.0051421574
-0.003333772 0.0010192965 -0.010989526 -0.0026705037 -0.0048535364 0.0011496032 -0.019642614 -0.0009666225
0.002330071 0.020742131 -0.0027577186 0.0010399313 0.0013059437 0.0015671885 -0.09961546 0.00010546831
-0.00081127393 0.019710775 -0.0013029136 0.022669058 0.00040707234 -0.0017043193 0.00042376367 0.00028072335
-0.0025691944 0.0016016448 0.00025234593 0.0010771629 -0.001965944 0.0058502886 -0.057320397 -0.01751955
0.00017923825 -0.0035469788 0.0020715129 -0.0017112959 -0.006036522 -0.006060183 0.0012230302 -0.0021044624
-0.002798831 -0.0027889626 0.00090433605 0.0014406794 0.025322022 -0.0006173935 0.0011578721 -0.0032531617
-0.005374367 0.0049257935 0.0004883992 -0.0011042097 0.016789384 0.00027390814 0.0015976966 0.006832348
-0.0028464666 0.0043204646 -0.0006226756 0.0034253495 0.00060531887 0.0017816975 -0.000678211 -3.5888686e-05
-0.0010796958 -0.00020484894 -0.0037076946 -0.0018230332 7.13921e-05 -0.00080969505 -0.004524527 0.005454261
0.002124571 -0.0022892158 0.0024981345 0.0008355295 -0.0002208174 -0.0021496648 -0.0005914581 0.002297371
0.005925958 0.029334305 0.0061138645 0.0121259745 0.00054749637 -0.001517613 0.0043218997 0.0009569057
-0.02692434 0.0036107057 -0.0017060894 -0.0022323336 -0.004428044 0.018371373 -0.08130464 5.7787453e-05
00000000: daf3 9fbb 8eed 2fbd 4c50 b3bd 4060 b93a
00000010: 42e1 adba eae3 6f39 4923 ac3b 6c12 95bd
00000020: 27cc 99b8 fabf 803b 0ed9 c539 672b 1d3d
00000030: 3c52 ea39 b1a5 113a fb00 d1ba cba0 203b
00000040: 13cd c939 2211 dbba 023d 76ba 0113 2e3b
00000050: 4f56 12ba 7353 bab8 1c0b 863b 1ebb e7ba
00000060: a60a 90bb ae1f 21bc 5534 3bba a428 4b3a
00000070: 0744 f43a bcf6 073d dd7d 8c3a 337a 6e3b
00000080: 9310 20ba e26b 8839 9b88 a63c 0d67 ffbc
00000090: 3233 96ba 0e42 3f3b d7e3 aabb e722 883a
000000a0: 3432 4f3b e41a dc3a 7b77 80bb 8d90 b038
000000b0: 951d 0abb 80e6 3bba 50b7 073d 83a9 eb3a
000000c0: 5450 873b 467b 853a c903 e43a 8fc6 9eba
000000d0: d04d 9dbb f134 603b 9050 7bba 496d 323b
000000e0: be2d 063b 2cdd 18bb 87a3 88bb 08e5 873a
000000f0: 6b28 71bc 3478 e039 84de 313e d42e 113b
00000100: c0bb 8339 af02 81bb 0d29 9aba c93b a33c
00000110: 4be2 c8ba 1996 693b 05cf 0cb9 9645 50ba
00000120: 1cd8 89bb 7944 c53c e302 abbb 6fe4 a23c
00000130: 37c2 48ba 44c0 ea3a b691 55bb 5f7e b63c
00000140: 3b11 d5ba 756b c239 1842 743b 68c3 2bbb
00000150: 019b 32bb 48e8 85ba a377 d539 b840 023a
00000160: 0582 e33c 02c1 9c3c 5a9c 93ba 8676 52bb
00000170: ffdf b73b a4f5 b83a 6aea a23c 4160 c439
00000180: 76a6 29bb cb3f 023d 202f 5b3b b5b3 2bbb
00000190: 637a f2ba 7654 f6ba 1ee2 dd39 52f1 8bb8
000001a0: bc19 b6bb 2430 323b 9d47 b9ba 6e33 943c
000001b0: 43fb efbc 26cb ce3c c85a df3a 3466 993a
000001c0: 6b62 c339 abb2 973a 0b88 9339 b113 a53b
000001d0: d040 8339 4dc4 f4bb 8ded 243b bfc5 3dbb
000001e0: 56d4 27ba ecbc b23a e44c 0fbb e236 163a
000001f0: 714e aab9 650b 11bb f331 44ba ff87 013b
00000200: a83b 29bc 4afe bbb9 b80a 4e3b b16e 203a
00000210: 23c1 ea3c 42bb b23a c837 1f3d 04c6 62bb
00000220: 727e b639 de74 3cbd b6ba 4bba 11da 713b
00000230: 8345 faba d502 dd3a d2d3 aebb 8a0d 39bb
00000240: 3a54 943a 096f 673b 1986 98bd 2303 e8ba
00000250: 014e 693a 2dc5 b93b f678 b5b7 fcbf 89ba
00000260: 723b 9d3b 49de aaba 7e97 febb 35fd 76ba
00000270: 8545 233b 0728 93bb 9ee7 143b 8b7f a8bb
00000280: 6a7b 5abb ea99 853a 6a0d 34bc 9e03 2fbb
00000290: 6a0a 9fbb 48ae 963a 8ce9 a0bc f064 7dba
000002a0: 1bb4 183b 67eb a93c d7ba 34bb 4e4e 883a
000002b0: 332c ab3a 1f6a cd3a 3103 ccbd de2e dd38
000002c0: acab 54ba 7e78 a13c 87c6 aaba 76b4 b93c
000002d0: 536c d539 7763 dfba 992c de39 0d2e 9339
000002e0: ee5f 28bb 48ee d13a 4c4d 8439 972f 8d3a
000002f0: 11d7 00bb c7b3 bf3b cbc8 6abd 2985 8fbc
00000300: e7f1 3b39 6e74 68bb 38c2 073b 904d e0ba
00000310: 04ce c5bb 8094 c6bb 154e a03a 05eb 09bb
00000320: 986c 37bb 07c7 36bb f710 6d3a 2ed5 bc3a
00000330: 2170 cf3c 94d8 21ba bec3 973a ff32 55bb
00000340: 751b b0bb 8d68 a13b ea07 003a 21bb 90ba
00000350: e489 893c 549b 8f39 cd69 d13a e4e1 df3b
00000360: c98b 3abb af92 8d3b 0d3b 23ba d47b 603b
00000370: 43ae 1e3a d987 e93a f8c9 31ba 2f87 16b8
00000380: 9484 8dba b8cc 56b9 cbfc 72bb d8f2 eeba
00000390: 58b8 9538 b741 54ba 7c42 94bb a8b9 b23b
000003a0: 633c 0b3b ab06 16bb beb7 233b 7007 5b3a
000003b0: 388b 67b9 64e1 0cbb 150c 1bba 7d8f 163b
000003c0: 8a2e c23b 7f4e f03c d056 c83b 06ac 463c
000003d0: dc85 0f3a a4ea c6ba b99e 8d3b dbd8 7a3a
000003e0: 6f90 dcbc 97a1 6c3b dc9e dfba 584c 12bb
000003f0: 2019 91bb 907f 963c 0c83 a6bd ce60 7238
