A3C-new/A3C-Pong&breakout-new/runs/BreakoutNoFrameskip-v4/2022-11-03_16-23_Second80MSteps_OK/model_sam_BreakoutDeterministic-v4_conv.80.tar (torch, 944955 bytes, 13 tensors)

conv1.weight f4 [32, 4, 3, 3]
00000000: 26c0 a43d 24d4 0fbf 5892 74be 3827 3f3e
00000010: f2ec 7ebe a974 7f3e 2ecd 2b3e 051e 2f3e
00000020: 4a0d 263e 2682 c13d 772e bc3d 6f77 c83b
00000030: 03f2 6b3e ac34 f3bc 0346 fa3d 2df1 383e
00000040: 3c49 4a3e 0d89 933e 54db f33d 3833 893e
00000050: 4b81 823e e731 afbe 060f ebbc 5dcd 5a3e
00000060: 5d72 21bd f807 1abe a687 273d 8045 7fbd
00000070: f690 83be 3914 023e be6b 90be 980f 33be
00000080: 739c 093e e91f 7bbe c1d5 f9be 39a5 74be
00000090: b712 0f3e 1b20 14be ec1d f8bd 5826 8e3d
000000a0: cc74 003f f461 8abe 5354 b43e a667 c13e
000000b0: 86ea edbe 631e 193e b6e0 323e 6773 cfbd
000000c0: 2549 e13d 4cd1 083f c7c5 aebe da45 c73d
000000d0: a603 013f 9521 90be e0be c33d bfcc 793e
000000e0: 3a8b 73bd 76f6 54be 4625 073f 00a9 583d
000000f0: 3868 85be f028 b53e be47 05bc e9b8 bdbc
00000100: a470 b3be 5d7b 2bbe e7be aebe 6765 65be
00000110: 9e59 97be 44d5 9cbe 4753 3ebe 9f63 69be
00000120: 461c 603d ab8c b43d 4cc5 e2bb 2d85 e63d
00000130: 9537 b63d 9837 b1bd 0bd6 cebd 3614 7f3e
00000140: 89f3 56bd 7c4f c63d 30d0 1b3c cb03 31be
00000150: 231a d63e 73eb 82be aaab 0fbf 8575 b73d
00000160: 8cb0 c9bd 9d49 05bc 4e2c 473e 45b2 52be
00000170: 112f 30be dd92 063f 445e 4bbe 3d70 0abf
00000180: e528 ba3d c6bf 6f3d 8e5c 87be 4966 843d
00000190: daca aa3d b439 26be 5df9 773e 0410 c93d
000001a0: 8856 6cbe 6ebd 34be bad8 673e 243d 45bd
000001b0: 5dae bb3e 059c 3f3e a416 623e 123a cf3e
000001c0: 8b81 2d3f ff5d fd3d d26f 733e fb94 ef3e
000001d0: 7716 193e acd6 f93d dab9 fabd 6e3d f53b
000001e0: 5d61 8cbc ea3d bb3e 1759 d73e c6c4 31bd
000001f0: ba33 6f3e 4724 1d3c 335e a2be c3c4 babe
00000200: 7c82 eb3d ec15 28be 43f6 d4be 56ee f8bd
00000210: f3c1 57bb 1413 bcbd 6e9b 7cbd a3ba 49bc
00000220: 0fb5 54be 2596 f7bc d70d c3be b84f 0bbf
00000230: fb26 98be 5b95 41be 3129 dbbe 147c 77be
00000240: ed2d 5e3d a125 dc3c cbeb d53c 27ec 5c3e
00000250: 8cf7 0c3f 6d96 9e3e 07e2 693d c958 8e3e
00000260: 2fa4 563e 9abe 62be 09f1 2bbf 7e56 b5be
00000270: d366 02bf 9bfb 0ebf cedf e9be 1298 22be
00000280: 4770 c2be f172 ebbd 904e ca3d 98a9 073e
00000290: d119 ffbc 2135 37be 7f52 a8be 74fe 34be
000002a0: ad2c ebbd a701 b8be 6a6e 1dbe 2586 763e
000002b0: 334e e53e 70f8 303e 2b3c 683e ef1f 223f
000002c0: cc23 a13e 8bb4 883e 2264 0b3e 59af 983e
000002d0: 860c 0ebe 59dc 67be 856d 0fbe af44 d0be
000002e0: 946e 09bf 9f4a f0bb 341d f2be 1e1a f1be
000002f0: 3df0 f3bd 1f7d 23b9 0c9b 0d3e 20dc 38bc
00000300: 1496 bf3b cac1 343e af8c 253e 7abd 29be
00000310: 7d7b 8abc 364f a03d bad0 813e 932e fcbd
00000320: 10b5 8cbc 194b 3a3e bc43 cb3e 9536 463c
00000330: f170 b23e a83e 573e 3759 dabc e768 973d
00000340: b266 df3d f78c 643d 37b3 793d d3e6 f43d
00000350: af92 32be 1f0f 6a3e 3e26 6f3e ae14 693e
00000360: 7c90 1c3e aa1f b4bd cd4d 283d 8a7a 3f3e
00000370: cf43 14be 18f6 3abd cd58 f9bd d71f 0abd
00000380: 5d03 b4bd 2267 193e 5da2 053f 0e2c a23e
00000390: b70e 143f cb32 6e3f bd5c e43d a3c5 5cbd
000003a0: 1054 c43e fe9f d6bd e225 46be 3ecf dd3c
000003b0: 888b 4abe 2d15 3b3e af51 a63e 95b7 edbe
000003c0: 7699 e7bd d31e 783e eabd 31bd e084 97be
000003d0: 021d b4be 1457 2fbe 59af 00bf 9464 16bf
000003e0: eae3 e2be ac5f 5c3d 357d c7bc 5b46 e6bd
000003f0: f264 c63d f743 803e 62bb 983e ec1a 873d
0.08044462 -0.56183076 -0.2388395 0.18667305 -0.24895075 0.24946846 0.16777489 0.17101295
0.16216007 0.09448652 0.0918855 0.006117753 0.23041539 -0.029688202 0.12220385 0.18060751
0.19754499 0.288155 0.11907068 0.2679689 0.25489268 -0.3421776 -0.028693687 0.21367402
-0.039415706 -0.15042102 0.04090085 -0.06232214 -0.25696534 0.12703027 -0.282072 -0.17486417
0.13438587 -0.24523892 -0.48795894 -0.23891152 0.13971983 -0.14465372 -0.12115082 0.06940907
0.5017822 -0.27027857 0.35220584 0.3777439 -0.4646799 0.14952998 0.17468533 -0.10129433
0.11000279 0.5344436 -0.34135267 0.0973012 0.5039619 -0.2815062 0.09557891 0.2439451
-0.05945895 -0.20797142 0.5279125 0.052895546 -0.26056075 0.35382795 -0.00813478 -0.023159461
-0.35046875 -0.16746278 -0.34130022 -0.22401963 -0.2956056 -0.3063146 -0.18586455 -0.22791909
0.054714464 0.08815893 -0.0069204923 0.1125587 0.0889732 -0.08653182 -0.10099419 0.24910054
-0.052478347 0.09683129 0.009510085 -0.17286603 0.41816816 -0.25570258 -0.56121314 0.08957962
-0.09848127 -0.008135227 0.19450495 -0.20575817 -0.17205454 0.52567846 -0.19860178 -0.5407751
0.09089831 0.0585325 -0.264378 0.06464822 0.08339472 -0.1623295 0.24216218 0.09817508
-0.23079884 -0.17650387 0.22641268 -0.04815401 0.36656466 0.1871186 0.22078949 0.40473992
0.6777579 0.12371444 0.23773125 0.4679335 0.14949976 0.121991485 -0.122424796 0.0074841296
-0.01713627 0.36570674 0.42060158 -0.04340055 0.23359576 0.009591169 -0.31712493 -0.36478242
0.11499497 -0.16414613 -0.41594133 -0.12154834 -0.0032922 -0.09183326 -0.061671667 -0.012312564
-0.20772193 -0.030222962 -0.38096496 -0.54418516 -0.2971724 -0.18904631 -0.42804864 -0.24168426
0.054243017 0.026873412 0.026113411 0.2157446 0.55065227 0.3097414 0.057100322 0.27802113
0.20961069 -0.22143021 -0.67164665 -0.3541755 -0.5093815 -0.5585267 -0.45678562 -0.15878323
-0.37976286 -0.11496533 0.09878266 0.13248289 -0.03114024 -0.17891361 -0.3287544 -0.17675191
-0.114831306 -0.3593876 -0.15374151 0.2407461 0.44786224 0.17282271 0.22679202 0.63329977
0.31472623 0.26700243 0.13612416 0.2982128 -0.13871965 -0.2264265 -0.14006622 -0.406774
-0.53684354 -0.0073331143 -0.47287905 -0.47090238 -0.11911056 -0.00015591503 0.13828677 -0.011282951
0.005846748 0.1765205 0.16166948 -0.16576186 -0.016904587 0.07827608 0.25354558 -0.12313571
-0.017176181 0.1819271 0.39700115 0.012097974 0.34851792 0.21019995 -0.02665387 0.073930554
0.109082595 0.055798497 0.06096193 0.11958089 -0.17438768 0.2285733 0.23354432 0.22761795
0.15289491 -0.08795102 0.04108982 0.18699089 -0.14478992 -0.04564485 -0.121751405 -0.03372177
-0.08789704 0.14980748 0.5220087 0.31674236 0.57834953 0.93046254 0.11150501 -0.05389942
0.38345385 -0.10479735 -0.19350389 0.02707636 -0.1977979 0.18269797 0.32484195 -0.46429124
-0.11308567 0.24230509 -0.043394007 -0.29593563 -0.3517838 -0.17123061 -0.5026756 -0.5874722
-0.4431451 0.053802177 -0.024351696 -0.11243888 0.096872225 0.25051853 0.29830462 0.06596932

conv1.bias f4 [32]
00000000: 3c8e 87b9 64dc 5abb 1b5a 103c 88bf 1d3b
00000010: 4624 c23a d473 1ebb ff3a ccba 0891 283b
00000020: e840 023b 5b24 41bc ee7f f539 0a36 a13b
00000030: 06b7 5e3b 04c3 043b 2ddd 0f3a 715e 873c
00000040: 3e46 143a 2e09 f039 a7e4 a4ba aba5 0f3b
00000050: db00 11bb b831 803a 64e0 3a3b f2d7 023b
00000060: 208b 083b f1b1 12bb 7570 38bb b543 d638
00000070: 5e28 2d3b 7278 993a 5992 b8bb 2e9f d43a
-0.0002585518 -0.0033395523 0.008810545 0.002407046 0.0014811836 -0.0024177926 -0.0015581547 0.002572121
0.0019875113 -0.011788453 0.00046825357 0.004919772 0.0033983602 0.002025784 0.0005487975 0.016524525
0.0005656219 0.00045783207 -0.0012580351 0.0021918814 -0.0022125754 0.0009780442 0.0028515095 0.001996514
0.0020834878 -0.0022383893 -0.0028143201 0.000102169266 0.0026421766 0.0011708869 -0.0056326804 0.0016221756

conv2.weight f4 [32, 32, 3, 3]
00000000: 0e8d 643e 907a 16be d9e4 603d 95da 70be
00000010: 5ec0 5f3d f35f 1a3e fbf0 153e a7a8 693e
00000020: 5938 7bbe f620 6a3e 6d7a b7be 42d7 993e
00000030: 0962 e73d 603f 80be e17c 053e aedb f0bd
00000040: 5dbf 7b3e 4e8f 1bbc a572 47bd ae95 783b
00000050: 594f d5bd 26ec 373e 5606 ba3d 25ee 03bf
00000060: 8dc1 22be d0a4 513c ce0f c43e 6b16 923e
00000070: 5c21 5bbe f11f d03d 56c6 dd3d 9f44 913d
00000080: 2db7 9f3e da87 a43d f6d4 673e dcf0 79be
00000090: 567b 9bbc d93d d0bd f65f 95be 7fcb b43c
000000a0: dd38 41be 1dd0 55be 71b2 3fbd eaad b8bd
000000b0: 100c 12bd b5dc b7be 68cf a03e db94 0dbe
000000c0: 7770 ca3d 3b1a 743d 65ad a33d add1 b73d
000000d0: 49ad 983d 5f6a 80be 51f7 8f3d bc37 e4bd
000000e0: 667c 3b3e b79a 7b3e 0b6b 92bd 58ae 3e3e
000000f0: 8196 42be 172a b93a 691b fabd b398 5cbe
00000100: 4932 893c 9ad8 d63c 8219 85be 42ef 713e
00000110: 92d5 0c3e 8afa 733a f006 1a3e e3fa f4bd
00000120: ab7f 2bbc 648a abbd 791b 0fbd f1c0 09be
00000130: 2347 fcbd 50e3 ea3d 1d28 50bc 788e 62bd
00000140: b4be 313d 3b50 7dbd f41d 923d 73f5 a8be
00000150: 05da 84be f051 a5be b72a f9be ebb1 7e3d
00000160: d1af 213a fb73 f93e 0308 07be 2099 e1bd
00000170: e5e7 953d 3f91 11be cf94 3d3d 1a1e 93bd
00000180: f6c4 d5bc 9ea7 f73d 54e3 b5bd 8556 51be
00000190: 3397 f23c 0481 d03d b324 c93d e2c7 0d3e
000001a0: 7df3 dcbe 52c3 54be 278c 0f3e fa72 e33c
000001b0: d1fd dfbc 55ba 833d 75e1 883e b799 17bd
000001c0: 4f1d 423d 94f6 b23d 84ec b3bd 72cf bfbd
000001d0: 4ebd bebc e7d7 383e 693c 363e d91b 9f3e
000001e0: a37d cebd 872f 1cbe 6d22 8d3e 9027 853d
000001f0: 7133 b3bd a8bf 263d 3f7f 5f3e 3853 f43d
00000200: 0306 51be 8efe 433d eb11 793d 7314 7fbe
00000210: ee21 0cbe 362d 5fbb 9719 5d3d ffff 3a3e
00000220: 892b 95bd f6c0 80bb ebdc ab3d 2a7b d13d
00000230: 3ef4 2ebe 8827 223e 3ba8 7ebc 5c40 7fbd
00000240: 959f 4dbe c9f2 ddbc 43c2 843d 2839 9d3d
00000250: 69d4 7dbe 1aa1 0f3e 353b 7f3c 7b42 403e
00000260: b55d bfbd 6da9 9b3d 8565 8cbd 6bb9 063e
00000270: 47c6 17bc b120 713d ae73 ac3d 9f37 18bd
00000280: 8c74 41be 0dc4 133d 8bf2 923e acfd de3d
00000290: 4dc9 4b3d d594 483d 58bb bfbd 75ea f3bc
000002a0: cb6e 84be fdbf 1e3d a081 f1bd 5a8b f0bc
000002b0: c554 23bb a6ae 96be ead0 4a3b 91e8 a83d
000002c0: 0a0c b1be 1f3d 23bd 0d31 703d 32c6 8b3e
000002d0: 23bc c33b 46a5 0c3d d901 243e 7de7 76be
000002e0: 3fd9 5a3e 88a2 213f 6fe0 96bd a64d 343d
000002f0: ad91 85be 747c f73d d45a 09bd d38d 0d3e
00000300: 6fbc 003e faa5 0b3e 48b0 823d efb6 f0bd
00000310: 05c2 dabc 4f48 3e3d 502f ff3d a31c e6bd
00000320: fe1a 5fbc 1a17 d4be 3dc6 353e b75c 473e
00000330: d90f 633d 3f20 61bd 350b 09bd 4bfe 1e3e
00000340: 22f8 8cbe 5b49 343d 10e7 70be d1f6 bb3e
00000350: 41b6 0fbe 4a6a f5bd 956f acbe ec53 bf3e
00000360: e160 94be 05ee b13d 399d 02be 0423 8a3d
00000370: e537 493e f80f a9bd 85de 473d 7c7c 11be
00000380: d55a ebbd 526f 363e 264c 0f3f fe77 ca3c
00000390: f6e6 87be 5bc8 553e bf75 d0bc 142b b33d
000003a0: dd30 9dba 4c0b 5abe 38c7 af3d 7816 aebd
000003b0: f08d 84be 8e0d 6abe 844c 0cbd 661d 463e
000003c0: 95d0 863d 4a84 863d 481a 3bbe 0b49 413d
000003d0: 67cb 513c 91c8 acbd b0a9 96be 73ab 8a3e
000003e0: a886 e13e 300d 42bc 0745 653e 8d0e 2bbe
000003f0: d68e 253e 6181 57be dd41 293d 2b00 d9bc
0.22319433 -0.14695191 0.054905746 -0.23520882 0.054626815 0.15075664 0.14642708 0.22818242
-0.24533214 0.22864136 -0.3583559 0.3004704 0.112979956 -0.2504835 0.13035919 -0.117606506
0.24584718 -0.009494616 -0.048693318 0.0037931013 -0.10415525 0.17961177 0.0908324 -0.51535255
-0.15894146 0.012795642 0.38293308 0.2853273 -0.21399444 0.10162342 0.10828845 0.070931666
0.3119444 0.08033724 0.22639832 -0.24408287 -0.01897971 -0.101680465 -0.29174775 0.02206969
-0.18869348 -0.2088017 -0.046801034 -0.090175465 -0.035656035 -0.35910574 0.31408238 -0.13826315
0.09884732 0.059595328 0.07992057 0.08975539 0.074549265 -0.25081155 0.07029594 -0.11143443
0.18309173 0.24570738 -0.07149323 0.18621194 -0.19002725 0.0014126924 -0.12212259 -0.21542625
0.01674761 0.02622633 -0.25996023 0.23626426 0.13753346 0.00093070476 0.15041709 -0.11961915
-0.01046745 -0.08376005 -0.03493831 -0.13452508 -0.12318256 0.11469138 -0.012704876 -0.05531165
0.04339476 -0.06184409 0.07134619 -0.32999763 -0.25947586 -0.32289076 -0.486654 0.062181395
0.0006167861 0.487213 -0.1318665 -0.110155344 0.07319621 -0.14215563 0.046284493 -0.07183476
-0.026094895 0.12092517 -0.0888125 -0.20443161 0.029613113 0.10180858 0.09821453 0.1384578
-0.43154517 -0.20777634 0.14018308 0.027764786 -0.027342709 0.064320244 0.2673451 -0.03701183
0.047391232 0.08738437 -0.08785346 -0.09365739 -0.023283627 0.1805111 0.17796482 0.31075934
-0.10082557 -0.15252505 0.27565327 0.065016866 -0.08750046 0.04071012 0.21825884 0.11929935
-0.2041245 0.047850184 0.060808104 -0.24910145 -0.13684818 -0.0034054047 0.053979483 0.18261717
-0.07283694 -0.0039292527 0.08391746 0.1022857 -0.17085359 0.15835392 -0.015543039 -0.062317237
-0.20080407 -0.027093308 0.06482365 0.07676917 -0.2478806 0.14026299 0.015578081 0.1877536
-0.09344045 0.07600675 -0.06855301 0.13156669 -0.009263582 0.058869068 0.08420502 -0.03716242
-0.18892115 0.03607564 0.2870067 0.10888228 0.049752522 0.048970062 -0.09361905 -0.029774884
-0.25865778 0.038757313 -0.11792302 -0.029363323 -0.0024922353 -0.2943012 0.0030947276 0.082474835
-0.34579498 -0.03985321 0.05864053 0.2729965 0.0059733554 0.034337305 0.1601633 -0.24111743
0.21371935 0.6313863 -0.07367026 0.044019364 -0.26087704 0.120842844 -0.033533886 0.13823633
0.12571882 0.13637534 0.06381279 -0.11753642 -0.026703844 0.046455678 0.12460196 -0.11235931
-0.013617275 -0.41423875 0.17751403 0.19468962 0.055435035 -0.054962393 -0.033457953 0.15526693
-0.2753306 0.04401527 -0.23525643 0.36711743 -0.14034368 -0.11983164 -0.3367888 0.37368715
-0.28980163 0.08687977 -0.12755288 0.0674496 0.19650228 -0.08254999 0.048796196 -0.14207643
-0.11491934 0.17815903 0.5597557 0.02471542 -0.26543397 0.20877211 -0.02544677 0.08748451
-0.0011992712 -0.21293372 0.0858292 -0.08500379 -0.2588954 -0.22856733 -0.03425266 0.19347152
0.065827526 0.06568201 -0.18271744 0.0471888 0.012804843 -0.084366925 -0.29426336 0.2708393
0.44048047 -0.011843964 0.22389613 -0.1670477 0.16167769 -0.21045448 0.041322578 -0.026489338

conv2.bias f4 [32]
00000000: 9a56 dfbc bd46 24be b3ab 0bbc 881a 94bc
00000010: 9987 0cbd 08a4 43bc 3397 9dbc 2d92 7bbd
00000020: ae54 2fbd 8c68 92bd 58c6 acbb 53db 573c
00000030: 7418 98bc 028c 02be 8467 2bbc 0b3f a4ba
00000040: 30f5 923c 11f3 87bc 21ae 5abd a5d4 54bd
00000050: 97fc e9bd dbae bf3b ffe4 03bb 1edd ebbc
00000060: 045e 85bd 1ade 223b d4df 66bc 0c9f bfba
00000070: 4492 ba3c cdd3 4bbd b9cb 67bd a712 f9bd
-0.027262975 -0.1604261 -0.008524823 -0.018079057 -0.034309004 -0.011940964 -0.019237136 -0.0614187
-0.042805366 -0.07148847 -0.005272668 0.01317485 -0.018566348 -0.12748721 -0.010461692 -0.0012530995
0.01793918 -0.016595395 -0.05338872 -0.051960606 -0.11425131 0.005849702 -0.0020125506 -0.02879196
-0.06512073 0.002485162 -0.014091451 -0.0014619543 0.022774823 -0.049762536 -0.05659077 -0.12161761

conv3.weight f4 [32, 32, 3, 3]
00000000: 9b5c 0fbc e3bd 18be 0fbf 77be 7f0c 22bd
00000010: 2924 79bc 8644 9a3d 3d9f 78bd 3d29 133e
00000020: a401 c93d 01a5 ddbc 76f3 28bc 6814 f53d
00000030: 3471 fa3d 4722 88be 5503 d3be f2e4 04bd
00000040: 68e3 22bc f19d 093c 40ea 81bd b343 893d
00000050: 8d8e 3f3c 8ce6 2e3e 321d c2bd 6f56 b0bd
00000060: b981 ba3d ecce 82bd 7cf3 363d a960 143d
00000070: 594d 883d dfff 003e ec83 c4bd 61b8 78bd
00000080: 29c6 a6bd 1102 3a3e 00b9 2b3d c93d 963d
00000090: 37e0 253e 9510 d2bd b96d 513d f03b 00bc
000000a0: feb5 0b3e ee62 7e3d ac7f f83d 5cbc 063e
000000b0: 3647 803e 3a16 863d 97c3 633d 907f 563e
000000c0: 6ba0 733d d3fe 713e 0aca c53c f71f 4fbd
000000d0: 7525 563d 0157 4b3d d35c 763d c420 cb3c
000000e0: 7b79 2b3c 5c3b 4a3d 97bb 933e bc31 253e
000000f0: 53d6 b7bd 238d 69be 2221 2dbd 0b75 163e
00000100: 5897 453d 2264 bd3d 5fcc db3c 4b26 a33d
00000110: 1140 763e 852d d3bd 0788 f93c 7880 0fbe
00000120: 9e4c ef3d 95a7 e83d 4a34 003b 4262 6cbc
00000130: cf33 313e b15f 4a3e 56de 9dbe b6af 94bd
00000140: 2309 56be c952 b8bd e733 f23c 97e3 04bd
00000150: 2365 2abe 3d14 e7bd 5b1e 9cbd fa3d 0f3e
00000160: b12d b6bd 4144 543e 83c0 b7bd 1f48 b13d
00000170: 1673 e03c 1ce7 113e feec 17bd 2258 79bd
00000180: cd92 debd ac9a 93bc 2998 1fbe d9cd b23d
00000190: 3875 723e 6e4f 853e b6cc 973d 46ce 4b3e
000001a0: a701 edbb 5769 26be 5a94 7bbe 82f3 2739
000001b0: 2498 d3bd d281 0a3e 141a f83c 03ff 0d3e
000001c0: af4b 933d a699 ad3e 29e8 adbd f3a8 55be
000001d0: 8af5 fbbd a7b7 02be d34d ecbd 9eed aebd
000001e0: be6b 353e c258 ac3d 956c 773e 8ef2 ab3c
000001f0: 917b 023e 1c5e 17bd 45af dbbd c39e fabc
00000200: 7b42 a93d c424 263e bbd5 fb3d 4981 39bd
00000210: 67c4 543c 2282 35be 94a6 b53d ef8e 283e
00000220: 1fff 213e 7786 55bc 079c 8b3d fd59 c5be
00000230: 7b4a 9b3c 746e 39be a197 91be dc61 edbd
00000240: 0097 dabc 673e 153e 15c4 0d3e 1ff5 c9bd
00000250: 63cb b63d 7904 8d3e 3c6c 6ebd 0f8e cb3d
00000260: 1ec4 15be 1ba5 01bb 8f75 21be 217e 2b3d
00000270: 82b8 713d 2946 c6bd dde9 993d 193e 333c
00000280: 2815 723e d484 d03d 02a5 cd3d 92d9 763d
00000290: aa4c 56be 0a97 00be b394 71be 9468 aabd
000002a0: cfab 3ebd 6130 5d3e a90d 2f3e 5889 883d
000002b0: b449 073e 3a5f d33d 1a1d a1bd 49b3 423e
000002c0: 4114 1e3d bf8d b5bd f9b9 e8be 7101 13be
000002d0: 62f3 e83b 7b0e c3bd f9c3 44be 37f3 24be
000002e0: 3b5d 823c 8d76 093d 16e0 433d 74e2 253d
000002f0: b1d8 473d 8204 a2bd a9b8 a6bd 2b76 b23d
00000300: 0551 6fbc d071 14be 2222 c43c 79c8 993d
00000310: f5f4 573e ce0e 48be c562 aebd 607e 4fbe
00000320: 7a4a 893d b977 b7bb 9471 f23e ce91 163e
00000330: 8a26 3bbe d282 b1bc 0200 98be 0399 e8bd
00000340: d0dd 87bd 39e5 a93d fed4 1ebd 2a55 f6bd
00000350: a20d 1a3e a2ac 113e bc9a 893e e2d0 513e
00000360: 24eb 353e bf65 6d3d ea1c 2e3e ced2 a4bd
00000370: fe5a 0f3d f090 203d d342 8bbe 643a 75be
00000380: 09ba 54be 12ff 47bd 7de5 243e ab26 b13c
00000390: 4932 263e 9878 8f3d 3c3f a33e e266 a1be
000003a0: 61dd 48bd 17ee e2be 76c4 2f3d 2f93 183d
000003b0: ddec 843c ae73 d63d 8d67 85bd 0e01 61be
000003c0: 5170 803d ec5f 173e c685 aebb 1252 b63d
000003d0: 7a09 8c3d eb52 1b3e 5ee8 21be 4216 863d
000003e0: a33e 85bc b3d7 d0bc bb41 c7be da46 2f3d
000003f0: 8ac3 2e3e b0b5 be3e 8527 a73e 7943 a4bd
-0.008750106 -0.14916186 -0.24193977 -0.0395627 -0.015206375 0.07532601 -0.060698736 0.143712
0.09814766 -0.027056219 -0.010311952 0.11966783 0.12228623 -0.26588652 -0.4121348 -0.0324449
-0.009941913 0.008399473 -0.06343508 0.06702366 0.011691702 0.17080134 -0.09478225 -0.08610236
0.09106774 -0.063871235 0.0446658 0.036224995 0.06655378 0.12597607 -0.095954746 -0.060722712
-0.08143265 0.18164851 0.041924477 0.07336003 0.16198812 -0.10257069 0.05113003 -0.00782679
0.13643643 0.062106065 0.121337265 0.13157791 0.2505433 0.06547208 0.05560645 0.20947099
0.05947916 0.23632364 0.024144191 -0.050567593 0.052281816 0.04964352 0.060147118 0.024795897
0.010465975 0.049373016 0.28854057 0.16132253 -0.08976426 -0.22807746 -0.042267926 0.14693086
0.048240036 0.092476144 0.02683085 0.07966288 0.24047877 -0.103114165 0.03046037 -0.1401385
0.116845354 0.11360089 0.0019562417 -0.014427723 0.1730492 0.19763066 -0.3083369 -0.07260077
-0.20901923 -0.09000165 0.029565765 -0.03244361 -0.16640143 -0.11283157 -0.07622977 0.13988486
-0.08895434 0.20729162 -0.089722656 0.08656334 0.027398627 0.14248317 -0.037091248 -0.060875066
-0.10867844 -0.01801809 -0.15585388 0.087306686 0.23677528 0.26037163 0.074120924 0.19902906
-0.007232863 -0.16251121 -0.2456831 0.00016017075 -0.10331753 0.13526085 0.030285873 0.1386681
0.0719217 0.33906287 -0.08491547 -0.2086523 -0.12302692 -0.1276537 -0.11538281 -0.08541416
0.17716882 0.08415367 0.24162515 0.020989683 0.1274245 -0.036954984 -0.107267894 -0.030593282
0.08264633 0.16224962 0.12296625 -0.04528931 0.012986279 -0.17725423 0.08869663 0.16460775
0.15819977 -0.013032547 0.06816869 -0.38545218 0.018956413 -0.18108541 -0.28435996 -0.11590931
-0.02668333 0.14574586 0.1384433 -0.09861206 0.08925512 0.27542475 -0.05820869 0.09939205
-0.14625594 -0.0019782248 -0.15767501 0.041868333 0.05901385 -0.09681351 0.07515309 0.010940098
0.23640883 0.10181585 0.10041238 0.060266085 -0.20927683 -0.12557617 -0.2359188 -0.08320728
-0.04655057 0.21600486 0.17095055 0.06666821 0.1321171 0.103208974 -0.07866879 0.19013704
0.038593534 -0.088649265 -0.45454386 -0.14356019 0.0071090916 -0.09524246 -0.19215383 -0.16108404
0.015913596 0.033560324 0.047821127 0.040499166 0.048790637 -0.07911016 -0.0814069 0.08713945
-0.014606719 -0.14496541 0.023942057 0.0750894 0.21089537 -0.19536898 -0.085149325 -0.20263052
0.067036584 -0.005598989 0.47352278 0.14704058 -0.1827642 -0.021668825 -0.29687506 -0.1135731
-0.06634104 0.08295674 -0.038777344 -0.120279625 0.15044263 0.1422601 0.26875865 0.20489839
0.1776548 0.05795836 0.17003217 -0.0804802 0.034998886 0.039200723 -0.2719942 -0.23948056
-0.20774092 -0.04882724 0.16103168 0.021624884 0.1623012 0.07005423 0.31884181 -0.31523806
-0.04903925 -0.44322273 0.04291197 0.03724974 0.016226226 0.10471283 -0.06513891 -0.21973059
0.06271423 0.14782685 -0.0053260056 0.089023724 0.06837745 0.1516835 -0.15811297 0.06547214
-0.01626522 -0.025493478 -0.38917336 0.04279218 0.1706678 0.37247992 0.32647339 -0.08020682

conv3.bias f4 [32]
00000000: 3e22 b5bd 620a f2bd 6ecb b23b 8a50 283c
00000010: 8072 d0bb 233e 8cbd ade9 9e3d df6e a4bd
00000020: 3edd 6abe f05d 173e 559e 15be 80bd 3a3d
00000030: 9d66 4bbd f57e c9bb 5252 75be 9b2e 4cbd
00000040: abe3 583e ac74 05bd 811f 81bd 5344 34bc
00000050: b108 56bd 0d41 943d ca1f 33be 938c ef3d
00000060: 9908 0fbe 271e 22be 536a 73bd fdf4 4c3e
00000070: ecbe f2bd d477 1abe 95a2 623d 9707 3f3a
-0.08844422 -0.118183866 0.0054563796 0.010273108 -0.0063613057 -0.06847789 0.07759414 -0.080289595
-0.2293596 0.14781928 -0.1461118 0.045590878 -0.049658407 -0.0061491677 -0.23957184 -0.049849134
0.21180598 -0.03258197 -0.06304837 -0.011002618 -0.052254383 0.0723897 -0.17492595 0.11696734
-0.13968123 -0.15831815 -0.05942757 0.2001533 -0.11852822 -0.15084773 0.05533083 0.0007287203

conv4.weight f4 [32, 32, 3, 3]
00000000: fdb2 e9bc 7bff 443d 6dc9 70bb 9bf0 963d
00000010: 06f5 6dbc 2d21 2dbe 1a28 3bbd d8f6 12be
00000020: c7cb 4dbd 713a 06bd 1cb7 5c3d 6095 0fbc
00000030: f6c2 36be f471 d63d 4574 2f3e ba63 093d
00000040: ddcb 653d 7064 a4bd 6c3b 943b 07f7 063c
00000050: 88dc 4bbd f622 1cbc 6461 8cbc 80ff ebbd
00000060: 3b05 1d3d 099c f3ba 3cf0 23ba e71c ac3d
00000070: 27ee 863d 4042 63be 6fc7 233b f8c0 fcbd
00000080: cdb8 fdbd 83cb ac3b 4d89 493e 4420 5c3d
00000090: 1fb2 2f3d 056b 4d3d b96b a23d c886 15bd
000000a0: a864 923c b85c 27be 210e 9f3c 6548 02be
000000b0: 8d14 09be 963c bdbd ffe4 46bd 9fcf a53c
000000c0: a579 c7bc ae13 f1bd e5f7 c23d d7ff 57bd
000000d0: 0425 31bd 9b03 85bd da58 753c 21cd d0bd
000000e0: 8095 673e 87fd a73d 4abf 8dbb 0eae 61be
000000f0: b04d 80be 89aa 08bd 9c42 8f3d 04df 283d
00000100: a68b 643d 26b4 01bd 4888 26bc 2af9 3b3c
00000110: fc89 13be d1de e2bb 6f0a 97bd e5d7 c5b7
00000120: 3cfc aebd 4b68 643e fb28 28be 7f85 033d
00000130: 3d4c a9be 1ee8 9abd 8855 873d 3401 1c3e
00000140: 5252 113e 46b0 c43d 6413 e0bd 6d0b fb3c
00000150: 552d 46be aa4b 193d 6c7e ffbd 1100 efbb
00000160: 5d9c f5bd b839 7d3c 0e3f ce3d ee0b b5bc
00000170: 4e68 bb3d cdde c1bd c5b5 d6bc d377 5dbc
00000180: bd5b db3c 5df1 853d 9bd7 973d 882c da3d
00000190: cb38 303d f38b efbd 943a a3bd cc18 283d
000001a0: 1d47 6fbe 7c2c 12bd 88cf 2ebc 0fd7 ac3c
000001b0: 88f4 71bd cb68 edbd 3d3e 7d3d 4655 c33c
000001c0: 593a 88bd 4ea6 e9bc 628f e2bc b4ca 31be
000001d0: ed19 a6bd 803e dbbd e58c c4bc 3728 313d
000001e0: 5723 48bd 01ca 353e 78c7 2bbe cb05 883d
000001f0: 02c9 09be e45b 763d 08e9 f23c 2f7b f43d
00000200: 4db9 4dbd 35fb 8fbc df01 a2bc c634 e73a
00000210: d442 9abd 9aff 14bd ea43 c0bc 8a56 ee3d
00000220: 80f1 543e 6911 b9bd 5b9f a23d 6f5a cf3b
00000230: be01 e1bd 83bf 81be ea3f c6bc 0093 ba3d
00000240: 8996 023d e3e3 a7bd 9855 7bbe ee80 42be
00000250: c93c e53d e420 77bd 7adf 26bd 450d e5bd
00000260: fa9e d4bd e16f b5bc 1d4c e03d d1eb 74bd
00000270: 7855 083e 5c5d 60be 4965 56be 956b 3fbe
00000280: c185 54bd 137c 453d abd3 a43d 36ec 4fbd
00000290: a9b1 503c 8b5e a0bd 6762 043e 1fde 17be
000002a0: 740b a2bc f948 32bc 7ee0 883c b0fb 043c
000002b0: 9fd4 153e 62ac 0dbe fc59 d23d f5ed 0f3d
000002c0: bd7d f2ba d444 03bd a0da b53d 8356 3cbd
000002d0: 9d47 833d 6881 733e 0bec a5bd 3629 37be
000002e0: 8f88 7a3d fc63 9d3d 9637 59bc fe4a 8abb
000002f0: 5b93 6cbd 0167 e23d 84cc 75be 6ea7 b23c
00000300: 4660 18bd 28f8 bebc bcd7 0bbe 94a7 ab3d
00000310: e433 733c 42d9 44bd 6c31 87bd 3603 c8bd
00000320: d3e8 243d 5000 41bc 83bb 163e 3888 553c
00000330: 1f62 dc3b 728b 0abe 0c3b 2d3e 8fba 4dbb
00000340: 6b80 11bc 08ba 563e 81ab 873a dff2 33be
00000350: 2f88 57be 8f34 48bd 6a30 08be 92f7 023e
00000360: e594 073e 7cdf 92bd bd24 36bd ca20 cdbd
00000370: dff3 9c3c 5f06 f3bd ec53 b53d 4ca4 c73d
00000380: 66f3 e93d a272 413e 556c e43b 7738 07be
00000390: 0203 acbc 8fb9 b93d ddaf 833d b9d5 053e
000003a0: 7420 4dbc c1f9 9c3d 64ce 59bb e6ab edbc
000003b0: b7d1 f3bb 4e0f c23d 0742 043e a3b5 15be
000003c0: 3bb1 cc3d 5695 1cbe ffa6 763d 89a2 f839
000003d0: 0844 2cbe 87ee f83c dddd fe3b f980 073e
000003e0: fb69 08be caef 583d 76ba c9bd bf3e 863c
000003f0: 7d06 6f3b 0e1e 8dbd 1d20 013e 64ba 3abd
-0.028527731 0.048095208 -0.0036741153 0.073701106 -0.01452375 -0.16907187 -0.04569254 -0.14351976
-0.050243165 -0.032770578 0.053885564 -0.008763641 -0.17847809 0.104709536 0.17134197 0.033542372
0.056102622 -0.080269694 0.004523685 0.008237607 -0.049770862 -0.00952982 -0.017136283 -0.11523342
0.038335066 -0.0018585931 -0.0006253754 0.0840395 0.06588393 -0.22193241 0.0024990698 -0.12341493
-0.123887636 0.005273284 0.19681282 0.05374171 0.04289448 0.05015089 0.07930703 -0.03650549
0.017870262 -0.16343963 0.019415917 -0.12722929 -0.13386746 -0.092400715 -0.04855823 0.020240603
-0.024349997 -0.11771332 0.095199384 -0.052734222 -0.04324819 -0.06494828 0.014974797 -0.10195375
0.22615623 0.082026534 -0.004325782 -0.22039053 -0.2505927 -0.03336576 0.069951266 0.04122831
0.05579724 -0.031665944 -0.010164328 0.01147298 -0.14408106 -0.0069235344 -0.07375037 -2.3584764e-05
-0.08544204 0.2230541 -0.16421883 0.032109734 -0.33065978 -0.07563804 0.06608111 0.15234834
0.14191559 0.09603934 -0.109411985 0.030645097 -0.1935323 0.037425674 -0.12475285 -0.007293709
-0.119927146 0.015455656 0.100706205 -0.022100415 0.09150754 -0.09466324 -0.026209721 -0.013517338
0.026777143 0.06540177 0.0741417 0.10653025 0.043022912 -0.11696615 -0.07970157 0.041039273
-0.23366971 -0.035686955 -0.0106695965 0.021098642 -0.059071094 -0.11592253 0.061826933 0.023844372
-0.06651754 -0.028521683 -0.02765626 -0.17362481 -0.08110414 -0.1070528 -0.023992965 0.043251242
-0.048861828 0.1775284 -0.1677531 0.0664173 -0.13455585 0.060146227 0.029652134 0.11937558
-0.050225545 -0.01757584 -0.019776283 0.0017639629 -0.07532278 -0.036376573 -0.023469884 0.116376
0.2079525 -0.09036524 0.07940551 0.006327919 -0.109866604 -0.25341424 -0.024200398 0.09110069
0.031881843 -0.08197763 -0.2454437 -0.18994495 0.111932345 -0.0603341 -0.040740468 -0.111841716
-0.10381885 -0.022148075 0.109520175 -0.059795205 0.13313854 -0.21910614 -0.20937075 -0.18693383
-0.05188537 0.04821403 0.08048185 -0.050762378 0.01273767 -0.07830533 0.12928163 -0.14830826
-0.019780852 -0.010881656 0.016708609 0.008116648 0.1463189 -0.1383529 0.102710694 0.035139043
-0.0018500608 -0.03204806 0.0887959 -0.04598094 0.064101435 0.23779833 -0.08101662 -0.17886814
0.06116539 0.07685086 -0.013257882 -0.0042203655 -0.057757717 0.11054803 -0.24003798 0.021808352
-0.03720119 -0.02331169 -0.13656515 0.08381572 0.014843915 -0.048058756 -0.06601223 -0.097662374
0.0402611 -0.01177986 0.14719968 0.013032965 0.006725564 -0.13529757 0.16917056 -0.0031391715
-0.008880715 0.20969403 0.0010350795 -0.17573117 -0.21048044 -0.04887825 -0.13299718 0.12789753
0.13240393 -0.071715325 -0.04446863 -0.1001602 0.019159256 -0.118664496 0.088538975 0.09748134
0.11423378 0.18891385 0.006970922 -0.13205133 -0.020997528 0.090685956 0.06430028 0.1306981
-0.012519944 0.07664824 -0.003323459 -0.029012632 -0.0074407714 0.094755754 0.12915812 -0.1462007
0.099947415 -0.15291342 0.060217854 0.00047423344 -0.16822827 0.030387176 0.007777913 0.13232793
-0.13321678 0.052963056 -0.09850018 0.016387342 0.0036472373 -0.06890498 0.12609906 -0.045587912

conv4.bias f4 [32]
00000000: 97b1 03be c26c c83d d365 92be fe29 603e
00000010: 1c66 11be c008 54be 3d92 d5be c777 a73c
00000020: 6f0c a3bd 409e 69be 02a4 89be e706 71be
00000030: 93ae 49bd 5b95 cb3d e2eb 32be eff7 a4be
00000040: d413 61be e3ce 123b f6af bcbd 7be2 01be
00000050: 61fd 8bbe a402 b33e 2723 ae3c 0c17 11be
00000060: 9a79 053e 5446 d9bd bac0 ff3d fc72 cebe
00000070: 7aa6 9d3e 93d3 743e c89c 55be 6c60 59be
-0.12860714 0.09786369 -0.2859331 0.21891019 -0.14199108 -0.20706463 -0.41713133 0.020442856
-0.07961356 -0.22814274 -0.2688294 -0.2353779 -0.049238753 0.09940597 -0.17472795 -0.32220408
-0.2198022 0.0022401146 -0.092132494 -0.12684052 -0.2734175 0.34962952 0.021256996 -0.14168948
0.13034669 -0.10609117 0.124879315 -0.403221 0.30791074 0.23908834 -0.20860589 -0.21228188

linear.weight f4 [256, 800]
00000000: eceb febd 4501 78bd 5519 a039 2def af3d
00000010: 2a15 21be 6184 0a3e bddd d73c db36 9fbe
00000020: 79df 263e fbe4 343c a6e8 08ba d959 01be
00000030: bc32 193e aaa9 91bc 8866 ad3b 5018 d4bd
00000040: d3d0 84bd fdd7 823d 4beb 4ebd b226 0e3d
00000050: 7df5 253d 9bf4 ab3d 3abc b43c c8a9 353d
00000060: 5741 043d a4a0 173e d49f eb3d f96f bfbd
00000070: 54c0 9dbc e541 373d 2aab d2bb 84b5 af3b
00000080: 2f56 8bbd 7d62 3fbe 8cb5 f03d cb30 2cbd
00000090: de0c bcbd 43ff 56bc 9c7e 28be 7f11 563e
000000a0: d564 da3c cc93 883c 17e8 1cbd b279 c33d
000000b0: 8452 8abc 5358 2f3e a80d 203d 8159 993d
000000c0: b280 b3bd f94c 7d3d 143e cc3d 8bf8 353c
000000d0: 982e 4fbe 17a3 f6bd 940b 5c3c 9257 33bc
000000e0: 634a 4bbb dc0c 343e 7740 223e a589 d2be
000000f0: ce9e 07bd 0b32 87bd a9cb c13d 82a1 0dbe
00000100: 3dc6 44bc 990a f5bc 57f3 96bd 7367 5fbe
00000110: cf18 2b3c cf64 29bd 4c88 bc3d 25db a1bc
00000120: 75dc 44bd 12b9 8bbd 36e3 233e 15df ea3c
00000130: c46a 793d 37ac 353e abb7 bd3d ba94 a53b
00000140: 24d9 97bd 2b65 69bc 721e f9bd 97a4 0bbe
00000150: daff 9e3d 61a1 2bbe 669b 3d3c aea4 56bd
00000160: dc68 06bc ba89 26be 1f1a d0bd 6fd8 b53b
00000170: 3cf4 ae3d 9485 6f3e da89 053e 219a 8bbd
00000180: 2de9 21be 897f e7bb 6114 bdbd 339f 093c
00000190: e0c7 0f3e 7ae6 ba3d ab34 443e b4ab c23d
000001a0: 8615 f43c 0923 20bd 3cfa e5bd f802 91bc
000001b0: d2c5 6ebe 7ea2 34be c73b b5bd 5d7e c2bc
000001c0: a666 f73d 92fd 9c3c 15c6 11be 91ee 123c
000001d0: 409c 723d 6ab9 72bd c181 9abd 4cf6 343c
000001e0: a0d3 9e3d bd88 ca3d aac2 ea3d 6adf 5dbe
000001f0: 097b 093d e539 85bd 5902 5ebd 8d2f 123e
00000200: 680a 99bd d6a2 63be 0776 b93c 28dc 923d
00000210: 403d 80bc 8363 ebbb 2e50 a33d 7157 efbd
00000220: a6a3 b73d 34e4 f1bc 9724 333b 2a70 0ebe
00000230: 37ea 03be 9544 3fbc 34d0 dbba c21e 603d
00000240: 13c8 c53c b483 273d 44fb 89bc a033 d4bd
00000250: d397 f4bd 5763 c8ba c40b 0d3e 6a53 a43d
00000260: bbdf 383d e53c 573e ecfc 28bd 3b5f 603e
00000270: 1e1e 2cbe f185 40be d929 b13d 0f07 8a3e
00000280: 894a b53d 8ce8 453d b034 f5bc c573 5bbd
00000290: 82fa 09be efd7 d5bd d8f0 bf3d ead6 ec3d
000002a0: 6c33 523e 5f0f 973d 3d37 8c3d 6729 013e
000002b0: 82c6 b63d 195b 703e c222 a53d 0f6e c33c
000002c0: 6a17 083e 3054 143e 0f4e 5a3d feb6 62ba
000002d0: dd4a a9bd 5d76 063e 5bba e53c c37f fbbc
000002e0: a8c7 453d b476 18bd b13c 02bd c0ba 3c3e
000002f0: 381c afbd f686 293d c997 8bbc 7c46 263d
00000300: 4ccf 5e3e 7fbf 21be 0762 f9bc 6c16 183c
00000310: 2ae8 6c3b 7291 24bd d392 edbb 3837 64bd
00000320: bd34 213c 741b 30bd cc5e be3d 0c49 623d
00000330: 7e00 85bd 7213 69bc 2032 683d d5a3 28bd
00000340: 32ac 97bd 97be 9f3e ae46 243d c03e 0e3d
00000350: d233 243e a685 323e b1c3 d0bd 9bb2 b93c
00000360: 82ec b5bc d106 cbbd 07c6 533c 0e27 983d
00000370: c102 96bd e2f5 60be a517 40be bc67 10be
00000380: 5bd8 6c3c 467b a2bb 76dd 6f3e 52e0 683e
00000390: cdbe 603e 2d31 eb3d d511 09be 343a 7abc
000003a0: 43ab babd 6b16 49be 8ac8 13bc fd6d 7cbe
000003b0: 36b7 cc3c 4d6c 513e ed95 acbd 4015 74be
000003c0: 5268 d9bd 6a73 35bd dc0a 343c 18c8 f3bd
000003d0: cbfd 58be 2838 d23d c70a cfbd d089 76bc
000003e0: 1743 2bbe 7b4e 6a3b a89d a8bd 4b30 083e
000003f0: e837 31bd 27eb cabd cd99 8c3d ada8 01be
-0.12447342 -0.060548086 0.00030536452 0.08590541 -0.1573073 0.13527061 0.02635085 -0.3109654
0.16296186 0.011040921 -0.00052226556 -0.1263193 0.1496076 -0.017781097 0.0052917637 -0.103562
-0.064851426 0.06388853 -0.05051736 0.03470487 0.04051732 0.08396264 0.02206241 0.04435137
0.032288875 0.14807373 0.11505094 -0.09347529 -0.019256748 0.044740576 -0.0064290958 0.0053622145
-0.068035476 -0.18689914 0.11753377 -0.04203872 -0.09182142 -0.013122383 -0.16454548 0.20905112
0.026659409 0.016672038 -0.038307276 0.09544696 -0.01688505 0.17123537 0.039075524 0.07487775
-0.08764781 0.061840985 0.09972778 0.011106621 -0.20232618 -0.12042826 0.013430495 -0.010946171
-0.003101968 0.1758303 0.15844904 -0.4112064 -0.033110432 -0.06601342 0.09462673 -0.13831142
-0.012010154 -0.02991228 -0.07370632 -0.21816806 0.010442927 -0.041355904 0.09205684 -0.019757817
-0.048061807 -0.06822409 0.16004643 0.028670827 0.060892835 0.17741476 0.092635475 0.00505313
-0.07414463 -0.014245312 -0.1216401 -0.13637005 0.077636436 -0.1676078 0.011572694 -0.052403145
-0.008203711 -0.16263476 -0.10161232 0.0055494825 0.08542678 0.233908 0.13040867 -0.06816507
-0.15811606 -0.007064764 -0.092324026 0.008399772 0.1404109 0.09125991 0.19160716 0.09505406
0.02979542 -0.039095912 -0.11229369 -0.01770161 -0.2331765 -0.17640111 -0.08849292 -0.023741895
0.120801255 0.01916388 -0.14235719 0.0089680115 0.059231043 -0.059258856 -0.0754428 0.01104505
0.07755208 0.09889362 0.114629105 -0.21667257 0.0335646 -0.06505183 -0.054201458 0.14275952
-0.07472688 -0.22230086 0.022639288 0.07170898 -0.015654206 -0.0071834936 0.079742774 -0.116866
0.0896676 -0.029527761 0.0027335042 -0.13909975 -0.12882315 -0.011674066 -0.0016770423 0.054716833
0.024143254 0.040897086 -0.016843446 -0.10361409 -0.11943021 -0.0015288395 0.1377402 0.080237225
0.04513524 0.21019323 -0.04125683 0.21911328 -0.16808364 -0.18801095 0.0865056 0.2695851
0.08852107 0.048317477 -0.02993235 -0.053577203 -0.13474467 -0.10441577 0.09372109 0.11564429
0.20527428 0.07375979 0.06846473 0.1261345 0.08924581 0.23472251 0.0806327 0.023856191
0.13290182 0.1448524 0.0532971 -0.0008648484 -0.08266232 0.1313109 0.028042963 -0.03070057
0.04828611 -0.03722258 -0.03179616 0.18430614 -0.08550304 0.041388474 -0.01704015 0.040594563
0.21758765 -0.15795706 -0.03044225 0.00928269 0.0036149123 -0.04017777 -0.007250169 -0.055716723
0.009839234 -0.04299493 0.09295425 0.055245444 -0.064942345 -0.0142258275 0.056688428 -0.041171867
-0.074058905 0.31200096 0.040106468 0.03472781 0.16035393 0.17433795 -0.10193575 0.022668174
-0.022207502 -0.099134095 0.012925631 0.07429324 -0.07324744 -0.21968797 -0.1875902 -0.14102072
0.01445588 -0.004958543 0.23424324 0.22741821 0.21947785 0.11483989 -0.13385709 -0.015272666
-0.09114697 -0.19637458 -0.00901998 -0.24651332 0.024989706 0.2045147 -0.084270336 -0.23836231
-0.10615601 -0.04429952 0.010988917 -0.11903399 -0.21190564 0.10264617 -0.101094775 -0.0150475055
-0.16724811 0.0035752344 -0.082331955 0.13299672 -0.043266207 -0.09908133 0.06865273 -0.12662001

linear.bias f4 [256]
00000000: a112 1ebe 468a 6cbd 43d9 03bf 3752 c2bd
00000010: 3aa4 f2bd eb64 13be adb8 01be d113 01bf
00000020: ee4f 08be 150d b5bd 93ff a3bd 82a8 96be
00000030: 3e6d e5bd c4fa 83bd e7dd bebd eb3e 30be
00000040: be7e 5bbe 4d62 2abe 2639 7ebd 7dbe 0fbe
00000050: f3a8 a5bd ac6a ddbd 98fd 07be 403c f3bd
00000060: d750 17be 812f c8be 837d bebd c230 3cbe
00000070: b1a4 d2bd f96e 5bbe 2edb 07be 2e6e 1abe
00000080: 5840 c3bd 73a8 35bd 357c 3fbe 212b 5bbe
00000090: 0e98 1abe 07c1 25be f747 11be a2c3 0cbe
000000a0: a6e1 b8bd ad53 a3bd 9407 9fbd 99e3 03be
000000b0: 3c29 dcbd d84b b8bd 639d ec3d 1186 0bbe
000000c0: b5e1 b5bd b4bb fdbd 651f d2bd 4fa4 47bc
000000d0: 0d23 88be 1f24 08be 8325 41be 7732 dbbd
000000e0: 4c33 ebbd be97 75bc 4cf9 9bbd 2df0 d7bd
000000f0: 1bfb 29be 7ee4 dabd 7d09 d73d d836 ecbd
00000100: d47f 25be d95f 0cbe a6f1 11be bba4 703c
00000110: f683 a7bd 2389 febe d062 7abe 483a 47bd
00000120: ab60 f7bd 5cca aebd 639c 2dbe 06c4 5dbe
00000130: ef0b 20be f38f bfbd b28d b1bd c7f4 49be
00000140: be74 9cbe 213f 90bd bafa bebd 2520 5ebd
00000150: 9369 d3bd e84b c8bd bb39 c3bd 1f11 02be
00000160: 4410 90bd aa48 57be 16f8 f5bd e607 0dbe
00000170: b691 93bd a4fe 0ebe b5f5 f1bd 4d79 4ebe
00000180: b008 29be d996 01be ea68 f3bd f3a1 bfbd
00000190: c873 ddbd bec1 a4bd ea0c 0abe a4c8 8bbd
000001a0: a45e a4be 673a 40bd e796 afbd 84dd d0bd
000001b0: 1933 efbe e8e9 3dbe 8b2c 50be 75f2 afbd
000001c0: b87f f5bd 1295 3ebe 3c31 b2bd d90b 43be
000001d0: ca09 e8bd 305a 5bbe a7b2 20be 3423 b9bd
000001e0: cfe2 0abe c43a cfbd d40a c7bd 4613 88bd
000001f0: 628b 41bd 93a1 f1bd 86e1 0dbe 6fba a7bd
00000200: e82e 46be 42a4 17be 9c76 a3bd fd5a 63be
00000210: bc1e ed3d 9990 99bd e6df 02bc 2438 f4bd
00000220: e617 d3bd 9778 52be b3f0 d8bd eb07 ccbd
00000230: bbca f5bd 2559 eabd 88ff 0dbe 39ed 21be
00000240: de2f b3bd f124 0fbe 31a6 1abf 740e f7bd
00000250: 7c67 bebd 1afe e1bd 06ad cbbd 2c59 06bd
00000260: 59d4 debd 2242 97bd 73de b5be 02fa 41be
00000270: a209 cfbd aff8 e8be 9d9e 42be 22a7 ccbe
00000280: 6735 11bd 52a6 f1bd 7c0b 16bf 20ce b6bd
00000290: 2963 01be ba9e 7abe dcb3 acbe 8e19 eebd
000002a0: 1608 99bd f854 58be 34d5 b6bd 9459 99bd
000002b0: 9ff1 c9bc cd18 eabd efdb ecbe c495 12be
000002c0: cccd 00be 11c2 a2bd a1d9 03be 8ab5 68be
000002d0: efbb 1dbe 8c60 9ebd f604 08be 23cf 0cbe
000002e0: 46aa cdbd 0fa1 7fbd 52c4 6fbd b239 b4bd
000002f0: 6dfc b3bd 0582 b73c 3f97 fdbe 4f3b b4be
00000300: ce31 1bbe 887f 10be 1e66 ebbd 239f 05be
00000310: 3b97 a1bd 5ff9 1fbe e29c 04be 966b d6bd
00000320: 8549 efbd 54ad bebd 621a 9ebd 606c bcbd
00000330: 81ea 70bd 5c21 8cbd 4ee1 f7bd d1f7 c9bd
00000340: 05d6 24be 4aeb e8bd e4a3 9bbd 8826 5dbe
00000350: ae1f 3ebe 704f 78bd b4a2 b0bd 49ae eebe
00000360: 3bd3 cbbd e0d8 c7bd cefc 1dbd 2f5e 9fbd
00000370: 8bd8 06be 148a febd 20ec e6bd 21b5 bebd
00000380: 5688 09be da77 8cbd 8cbb d1bd ca2b a4be
00000390: a263 f0bd 2405 ebbd 9c11 02be b5b2 b5bd
000003a0: c637 efbd 017e 7ebe 3813 16be ef48 9bbd
000003b0: c2bc 75bd 1221 ccbd 01fe fdbd 00a8 cdbd
000003c0: b0aa 4abe 86ae 663c 61b2 c9bd 72d2 7abd
000003d0: bc23 93bd bf45 11be dd5f aebe 1451 51bd
000003e0: ee0d d3be 3b19 d0bd fc4b 08be a6c5 14be
000003f0: ba64 99bd 5fcb 62bd 7f11 09bf c516 cbbd
-0.15436794 -0.057749055 -0.5150339 -0.094883375 -0.1184773 -0.14393966 -0.12668104 -0.5042086
-0.13311741 -0.08840386 -0.08007731 -0.29425436 -0.11202477 -0.06444314 -0.09319668 -0.17211501
-0.21435067 -0.16639061 -0.06206622 -0.1403751 -0.08088865 -0.10811362 -0.13280332 -0.11876726
-0.14776932 -0.39098743 -0.09301283 -0.18377975 -0.10285319 -0.21429051 -0.13267204 -0.15081093
-0.09533757 -0.0443501 -0.18699725 -0.21403171 -0.15097067 -0.16186915 -0.14187609 -0.13746503
-0.09027414 -0.07974944 -0.07765117 -0.1287979 -0.10750052 -0.08998841 0.11553457 -0.13625361
-0.08880941 -0.12389317 -0.10259894 -0.01218517 -0.26589242 -0.13295029 -0.18861966 -0.10702985
-0.114843935 -0.014989791 -0.07615909 -0.10543857 -0.16599695 -0.10688113 0.104998566 -0.11533898
-0.16162044 -0.13708438 -0.14252338 0.014687712 -0.081794664 -0.49714002 -0.24451756 -0.048639566
-0.12078985 -0.08534691 -0.16954188 -0.21656808 -0.15629552 -0.09353628 -0.08669604 -0.19722281
-0.30557817 -0.07043291 -0.09325166 -0.054229874 -0.10322871 -0.09780103 -0.095324956 -0.12701844
-0.070343524 -0.21023813 -0.12010209 -0.13772544 -0.072055265 -0.13964325 -0.11814443 -0.2016346
-0.1650722 -0.126552 -0.11885245 -0.09357061 -0.10813099 -0.08044766 -0.13481489 -0.068253785
-0.32103455 -0.046930697 -0.08573704 -0.10198501 -0.46718672 -0.1854626 -0.20329492 -0.08591167
-0.11987251 -0.18611553 -0.08700797 -0.19047488 -0.11329992 -0.21421123 -0.1569315 -0.090399176
-0.13563083 -0.101186305 -0.09718862 -0.06644301 -0.047252066 -0.11798396 -0.13855562 -0.08189856
-0.19353831 -0.14808753 -0.07981607 -0.22202678 0.11578128 -0.07498283 -0.007987952 -0.119247705
-0.10307293 -0.20553814 -0.10592785 -0.09962448 -0.120015584 -0.11442784 -0.13867009 -0.1581315
-0.08749364 -0.13978936 -0.6040984 -0.120633036 -0.09297082 -0.11034794 -0.09945111 -0.032799885
-0.10880346 -0.07385661 -0.35521278 -0.18943027 -0.10109259 -0.4550223 -0.19005819 -0.39971262
-0.03545132 -0.11799301 -0.58611274 -0.08926034 -0.12635483 -0.24474612 -0.33730972 -0.11625968
-0.074722454 -0.21126163 -0.08927384 -0.07487789 -0.024651347 -0.114305116 -0.46261546 -0.14314944
-0.12578505 -0.079471715 -0.12875988 -0.22725502 -0.15403722 -0.077332586 -0.13283142 -0.13750891
-0.10042243 -0.062409457 -0.058536835 -0.08800067 -0.08788381 0.022400865 -0.49529454 -0.352015
-0.15155718 -0.1411115 -0.11494087 -0.13048987 -0.07890173 -0.15622471 -0.12950471 -0.10469739
-0.116839446 -0.093104035 -0.07719876 -0.092003584 -0.05881739 -0.068423 -0.1210352 -0.0986172
-0.16097267 -0.11373003 -0.07599619 -0.2159673 -0.18566772 -0.060622633 -0.08624783 -0.46617344
-0.099523984 -0.097581625 -0.03857117 -0.07781636 -0.13168542 -0.1242868 -0.11275506 -0.09311891
-0.13430914 -0.06858797 -0.1024085 -0.32064658 -0.117377535 -0.1147559 -0.1270203 -0.08871976
-0.1168056 -0.24852754 -0.14655769 -0.0758227 -0.059994467 -0.09967245 -0.12401963 -0.10041809
-0.19791675 0.014079696 -0.09848476 -0.061235853 -0.0718455 -0.14186762 -0.34057513 -0.051102713
-0.41221565 -0.10161062 -0.13310236 -0.14528522 -0.07489915 -0.05536973 -0.5354232 -0.09916452

critic_linear.weight f4 [1, 256]
00000000: efdc 8cbc c8f6 45bd 4871 7bbd f7b0 a13a
00000010: 5bd3 613b d975 433b f6dd 2abb b95e 07be
00000020: 1fbe 883a 66a3 613b 6f1f 6abb 3c1c e93c
00000030: bf55 3e39 79d6 103a 63b6 99bb 1bcb 2a3a
00000040: bf72 8d39 8828 3a39 25c6 3bba 550f 35bb
00000050: 84ed b13a edfa a83a 5cf7 54bb 3534 223b
00000060: 4c01 62ba 5a01 353a b7d1 c239 6575 013c
00000070: ef1e 49bb 91d7 e53c f0aa 8b3b 0fad 6c3b
00000080: 4b6e d4ba d5b0 9cba 78ad ec3c d9bd 05bd
00000090: bf59 a5ba 4519 193b 7b23 84bb c9eb bfb9
000000a0: 73dd da3a 74f8 243b 3d26 3339 0784 36ba
000000b0: c7f3 823a a722 0c3b 47e4 033d aad7 ae3b
000000c0: a1c5 cf3a d415 cb3a a27d b339 a349 6bbb
000000d0: 8025 0ebc 86e5 31bb 8aa1 6d3a b651 29bb
000000e0: ee02 193b fb9c 96bc baa9 7a3a 3c64 45bb
000000f0: ac1f 08bb 2a9f 033a 4371 953e cae2 7a3b
00000100: b30c 0abb 5c9e d9ba 7a3d 063b d3d6 bc3c
00000110: 150c a4ba b762 7fbc a7cf 183c 1278 0c3b
00000120: 508f 60bc 2494 ae3c ddc6 aabb 86dd c13c
00000130: 8511 e9ba 79b2 4abb 2062 18bb ac37 b93c
00000140: 798d ad3a e537 d1ba e7c6 683b 2fd7 4fbd
00000150: f8be f3ba 6d87 30bb d836 35ba dbf3 563b
00000160: f888 db3c 8609 aa3c 7b21 08bb 3a3f eb3a
00000170: 023e f7ba 6326 a23a 3b9b a53c d4bf b03b
00000180: f438 ea3b 94ca ff3c a396 efba ace7 d23b
00000190: 188f 993b 1ac5 e8ba 2aa2 0239 5606 4ebb
000001a0: 2806 6dbb 883d b139 6735 88bb f909 ac3c
000001b0: f1fd f4bc f665 a93c fa3c ddbb fe33 78ba
000001c0: 0888 ccba f43e e839 fdf4 dcb9 0b42 743b
000001d0: 07ff a03a 7c32 64ba a05a 20ba 8dc1 4abb
000001e0: 5451 d3b9 a4e9 1bbb 1d72 aaba d673 8bba
000001f0: dc10 a4bb be0c 12b8 b73f cab9 5e2c 8e3a
00000200: 6332 00bd c07a debb b299 703a 0907 cab9
00000210: af5f 343d 2233 7aba 96df 0f3d bafa ceba
00000220: d94c be3b 32a6 1fbd b96c 943a 569d 643b
00000230: 727d 3e3b 57c2 04bb c39e 6abb 66a2 2cb8
00000240: 276b 38bc 0af0 58b9 419c 64bd a902 883a
00000250: e7f1 4e3b c52d c3ba 4c42 7bbb c2f6 473b
00000260: 57c0 0d3a ee34 823b 106e 84bc 585f 53bb
00000270: d81e a0ba 8e01 bebb 94b0 b0ba e0fe 31ba
00000280: aea9 57bb 9479 a83b e37b c7bc b041 b7ba
00000290: 1f57 d239 f8dd 5fbb d38e 68bb 9045 953b
000002a0: c10a 5cba 4f9f a73c 2502 a43a 0976 89bb
000002b0: e3d6 8f3b 1834 a0b8 6858 7ebe 4d34 023c
000002c0: 2990 2d3b 0166 b53c 7d6b bfba 383d b83c
000002d0: 317c 81bb 39ec de39 0d5d c53b 4af4 213b
000002e0: 1a06 03bb 4e63 f9ba 3c4c c1ba 4a04 4a3b
000002f0: de54 083a 3c81 313b 5d15 19bd 79da 20bd
00000300: 696d 6c3b 9038 663b 4cad 10bb 15ff 6d3a
00000310: f29f 5f3a 18cc c2bb 9a31 09bb 8f21 883b
00000320: 38b5 c9ba eada 2fbb 2521 623a 2b9c b3ba
00000330: e8d5 d33c 2aed 2f3b 5a09 aeba 30f9 583a
00000340: 0624 c338 36ec 183c a1c7 b13a f815 3d3b
00000350: dfd6 983c cd89 c33a 678a 10bb 1e51 23bb
00000360: cf44 ad39 92fe 6739 bdee 163a f89d 38ba
00000370: c53e 123c f139 0bbb 7292 9abb a956 3aba
00000380: 1317 553b 0a43 81b8 80d0 39bb cd30 13bb
00000390: ae76 e93a e8cc 883a f7f4 38bb c901 38bb
000003a0: e3b1 8b38 6eee 0bbb 01bb ea3a 3e16 b4ba
000003b0: 0936 6bbb 7a10 2abb 87d1 5aba 616e 8b3b
000003c0: 2322 43bb ae0b ce3c 749c 513b f68a 953c
000003d0: 499f 9939 3029 d5b9 729a 213b e77e 803b
000003e0: 0753 16bd 449e 083a a0f4 9f3b 1f00 3aba
000003f0: 2df3 68bb 7e03 ba3c 8722 63bd a015 70b8
-0.017195193 -0.048331052 -0.06138733 0.0012336065 0.0034458253 0.0029824881 -0.002607224 -0.13219728
0.0010432637 0.0034429668 -0.0035724302 0.028455846 0.00018151755 0.0005525123 -0.0046909316 0.00065152504
0.00026979108 0.00017753441 -0.000716301 -0.0027627547 0.0013574813 0.0012892165 -0.003249607 0.0024750356
-0.0008621409 0.00069048034 0.00037158813 0.007901524 -0.0030688604 0.028056892 0.0042623207 0.0036113893
-0.0016207186 -0.0011954556 0.02889131 -0.032651756 -0.0012615247 0.002336101 -0.00403255 -0.00036606033
0.0016698077 0.0025172504 0.00017085015 -0.00069624226 0.0009990864 0.002138296 0.032200124 0.0053357678
0.0015851745 0.0015494176 0.00034235144 -0.0035902045 -0.008675933 -0.0027144863 0.0009064904 -0.0025836057
0.0023347693 -0.018385401 0.00095620344 -0.0030119559 -0.002077083 0.0005020971 0.29187974 0.003828215
-0.0021064698 -0.0016602981 0.002048342 0.023051655 -0.0012515808 -0.0155875 0.009326852 0.0021433872
-0.013706043 0.021310873 -0.0052116946 0.0236652 -0.001778171 -0.0030929132 -0.0023251846 0.022609554
0.0013241015 -0.0015962092 0.0035518946 -0.050742324 -0.0018596342 -0.0026936189 -0.00069127744 0.0032799158
0.02679871 0.020756494 -0.002077191 0.001794792 -0.0018863084 0.0012371059 0.020215621 0.0053939614
0.0071479026 0.031224526 -0.0018279146 0.006436309 0.0046862476 -0.0017758936 0.00012458177 -0.0031436882
-0.0036167 0.00033805915 -0.0041567567 0.02100085 -0.029906245 0.020678502 -0.0067516537 -0.00094681967
-0.0015604505 0.00044297392 -0.000421442 0.003727081 0.0012283035 -0.00087050325 -0.000611702 -0.003093812
-0.0004030565 -0.0023790384 -0.0013003979 -0.001063938 -0.0050068926 -3.482098e-05 -0.00038575914 0.0010846963
-0.031298053 -0.0067895353 0.0009178176 -0.00038533684 0.044036563 -0.00095443625 0.035125338 -0.0015791275
0.005807501 -0.038976856 0.0011323906 0.0034883819 0.002906647 -0.0020257437 -0.0035800196 -4.115924e-05
-0.011256016 -0.00020688787 -0.055813078 0.0010376769 0.003157729 -0.001489096 -0.0038339077 0.003051207
0.0005407384 0.003973595 -0.016165763 -0.0032252874 -0.0012216223 -0.005798525 -0.0013480359 -0.00067899935
-0.0032907533 0.0051414464 -0.024351066 -0.0013981368 0.00040119232 -0.0034159403 -0.003548552 0.0045554116
-0.00083939364 0.020461706 0.0012512846 -0.004194979 0.00438963 -7.639098e-05 -0.24838412 0.00794704
0.0026483631 0.022143366 -0.0014604178 0.022490129 -0.0039515723 0.0004251914 0.0060230554 0.0024712258
-0.001999265 -0.0019026787 -0.0014747451 0.003082531 0.00052006345 0.0027085086 -0.03737389 -0.03927085
0.0036075956 0.0035128929 -0.002207595 0.00090788427 0.00085306086 -0.00594474 -0.0020934106 0.004154391
-0.001538909 -0.0026833364 0.0008626155 -0.0013703158 0.025858834 0.0026844242 -0.0013277933 0.0008276878
9.3050345e-05 0.009333661 0.0013563522 0.0028852206 0.018657146 0.0014918387 -0.002205515 -0.0024920176
0.00033048398 0.00022124712 0.00057576207 -0.0007042582 0.008926098 -0.0021244253 -0.0047171647 -0.000710825
0.0032514974 -6.163686e-05 -0.0028353035 -0.0022459507 0.0017811859 0.0010437043 -0.0028222182 -0.0028077236
6.6611705e-05 -0.0021351832 0.0017908515 -0.0013739539 -0.0035890362 -0.0025949762 -0.0008347262 0.0042551016
-0.0029774986 0.025152054 0.0031984122 0.018254738 0.0002930111 -0.00040657213 0.0024658707 0.003921378
-0.036700275 0.00052115717 0.0048814565 -0.0007095355 -0.0035545335 0.022706743 -0.05545285 -5.72406e-05
