A3C-new/A3C-Pong&breakout-new/runs/BreakoutNoFrameskip-v4/2022-11-03_16-23_Second80MSteps_OK/model_sam_BreakoutDeterministic-v4_conv.20.tar (torch, 944955 bytes, 13 tensors)

conv1.weight f4 [32, 4, 3, 3]
0.18302171 -0.41407877 -0.067474656 0.0790531 -0.22560824 0.28469616 0.024938865 0.22056033
0.25238863 0.050693203 -0.02273882 -0.02051057 0.115120865 -0.09668396 0.06316856 0.018234124
0.09856518 0.22350521 0.10621636 0.110010505 0.064011894 -0.27140027 -0.046596568 0.09884781
0.02508527 -0.110287644 0.07660166 0.025565801 -0.20145158 0.20431252 -0.26866195 -0.035169292
0.21361235 -0.2846914 -0.41471812 -0.12664154 0.2612048 -0.049835857 -0.016035441 -0.03265129
0.39595264 -0.27153462 0.32575873 0.3254433 -0.31640568 0.09804263 -0.06624437 -0.014136572
-0.08392723 0.2745988 -0.28631803 -0.01590165 0.3688521 -0.18154036 0.114893585 0.07811932
-0.084068246 -0.22609982 0.32480398 -0.027719846 -0.17284112 0.22699045 0.0029491887 0.05991136
-0.15048838 -0.066713944 -0.27946824 0.089560874 -0.15739125 -0.29857808 -0.012045625 -0.07983081
0.117934436 0.08548798 -0.08941947 0.09323481 0.035886068 -0.10192892 -0.112109214 0.15193899
-0.15433417 0.08041153 0.035534766 -0.15070471 0.34248248 -0.2002365 -0.47585315 0.109233506
-0.03103488 0.02768643 0.19336952 -0.18270773 -0.054741852 0.36836052 -0.21608303 -0.39467874
0.10577464 0.078424454 -0.18745005 0.10777097 0.15778439 -0.1656278 0.3041527 0.16768865
-0.2537781 -0.07593308 0.29132867 -0.040306386 0.28780308 0.046498504 0.164961 0.24867123
0.4367418 0.018924404 0.10088467 0.36195546 0.17782204 0.036364656 -0.25230664 -0.08014536
-0.1157267 0.16786164 0.2516411 -0.0922935 0.19913325 0.006323891 -0.30901948 -0.3428714
0.094646074 -0.019068087 -0.20205079 0.00012770711 0.08801514 0.08292749 0.07323688 0.047226492
-0.08428759 0.049313303 -0.30557677 -0.34108493 -0.1898367 -0.17310543 -0.3392656 -0.11440198
0.0903022 -0.10669177 -0.038875725 0.020572731 0.3175847 0.14605716 -0.068176694 0.24212846
0.15067588 0.057061557 -0.45829773 -0.2378865 -0.32644632 -0.2973586 -0.18616259 -0.112819724
-0.21272671 0.032630347 0.11519507 0.14721717 -0.058541097 -0.17916866 -0.22639327 -0.13446356
-0.09421154 -0.2358089 -0.05760326 0.19076273 0.29819918 0.1140948 0.053094123 0.46410435
0.24238235 0.100426346 -0.009566591 0.2085051 -0.011829295 -0.13753918 -0.21671377 -0.30684364
-0.21431972 0.13761093 -0.42405927 -0.27080625 0.028115926 0.035704985 0.054946404 -0.09659116
-0.052253608 0.14938977 0.1635029 -0.22770002 -0.03582174 0.04919094 0.29836896 -0.15084282
-0.041377157 -0.010254021 0.3068446 0.064028725 0.14394449 0.00861333 -0.055551995 0.056556687
0.028196445 -0.0432573 -0.02728345 0.18992977 -0.10561652 0.15291509 0.3016795 0.23023124
0.18552357 -0.034264363 -0.051150706 0.26621047 -0.026169784 -2.9479626e-05 -0.15133193 -0.056517657
-0.042756557 -0.10315357 0.16090403 0.1405933 0.36890873 0.5470996 -0.031080673 -0.14838581
0.23785324 -0.13414818 -0.2121232 -0.03991522 -0.21217822 0.27514848 0.4152055 -0.28080186
-0.15194725 0.16367035 0.007832203 -0.19735189 -0.23059593 -0.12799904 -0.2447611 -0.2276595
-0.24417897 0.11040637 0.09605093 -0.022409411 0.1086457 0.040467884 0.21817961 -0.08556917
00000000: 0b6a 3b3e 2202 d4be 2730 8abd 97e6 a13d
00000010: d905 67be b2c3 913e 974c cc3c 91da 613e
00000020: 1539 813e ada3 4f3d c346 babc c805 a8bc
00000030: 7dc4 eb3d 3d02 c6bd 855e 813d bb5f 953c
00000040: 8bdc c93d 8dde 643e f787 d93d 304d e13d
00000050: ab18 833d faf4 8abe 0bdc 3ebd b870 ca3d
00000060: a07f cd3c 7dde e1bd 55e1 9c3d 5f6f d13c
00000070: 5349 4ebe 4d37 513e 0f8e 89be ad0d 10bd
00000080: 32bd 5a3e 12c3 91be ef55 d4be 52ae 01be
00000090: a3bc 853e af20 4cbd c25c 83bc 5cbd 05bd
000000a0: 4eba ca3e 9606 8bbe d9c9 a63e 81a0 a63e
000000b0: edff a1be 93ca c83d 21ab 87bd 159d 67bc
000000c0: 0ae2 abbd 3798 8c3e 4798 92be 2d44 82bc
000000d0: 2fda bc3e b7e5 39be 544d eb3d 06fd 9f3d
000000e0: f92b acbd b686 67be b54c a63e bb14 e3bc
000000f0: 43fd 30be 2f70 683e 2d47 413b 9d65 753d
00000100: a019 1abe 52a1 88bd 7616 8fbe b16b b73d
00000110: 2c2b 21be 3adf 98be 035b 45bc 567e a3bd
00000120: 9c87 f13d 5214 af3d 8e21 b7bd e4f1 be3d
00000130: 45fd 123d 1cc0 d0bd 8499 e5bd e595 1b3e
00000140: c709 1ebe cdae a43d e78c 113d 5652 1abe
00000150: dd59 af3e cc0a 4dbe 06a3 f3be d1b5 df3d
00000160: dc3c febc a7ce e23c a902 463e bc17 3bbe
00000170: fe38 60bd c099 bc3e df44 5dbe 5513 cabe
00000180: 60a0 d83d 009d a03d e8f2 3fbe 07b7 dc3d
00000190: 3b92 213e 569a 29be e7b9 9b3e 93b6 2b3e
000001a0: 34ef 81be cd82 9bbd 0829 953e 4f18 25bd
000001b0: ed5a 933e 3775 3e3d 89eb 283e aca3 7e3e
000001c0: 9f9c df3e 5a07 9b3c 9f9c ce3d 3a52 b93e
000001d0: fb16 363e 1bf3 143d 562e 81be 4023 a4bd
000001e0: 1f02 edbd ece3 2b3e 1ad7 803e 6004 bdbd
000001f0: 96e9 4b3e a538 cf3b cd37 9ebe d78c afbe
00000200: cdd5 c13d ad34 9cbc 67e6 4ebe 1ee9 0539
00000210: 4841 b43d e3d5 a93d 38fd 953d 9170 413d
00000220: f99e acbd bffc 493d 8f74 9cbe afa2 aebe
00000230: 8d64 42be 8d42 31be 39b4 adbe 964b eabd
00000240: 5cf0 b83d 3781 dabd 273c 1fbd 2588 a83c
00000250: 769a a23e 0290 153e 39a0 8bbd 86f0 773e
00000260: c74a 1a3e 61b9 693d 00a6 eabe 8598 73be
00000270: f923 a7be 633f 98be 68a1 3ebe 070e e7bd
00000280: 08d5 59be 66a7 053d 65eb eb3d 19c0 163e
00000290: cac8 6fbd fd77 37be a3d3 67be d1b0 09be
000002a0: fbf1 c0bd e377 71be 65f1 6bbd 4e57 433e
000002b0: 90ad 983e 89aa e93d 3979 593d 169f ed3e
000002c0: 1433 783e 54ac cd3d 31bd 1cbc 5c82 553e
000002d0: a9cf 41bc 12d7 0cbe 37ea 5dbe 9c1a 9dbe
000002e0: a176 5bbe e1e9 0c3e 4c1e d9be 1ea7 8abe
000002f0: 5f53 e63c 643f 123d 7b0f 613d 96d1 c5bd
00000300: e107 56bd a2f9 183e 4e6d 273e 322a 69be
00000310: d1b9 12bd 707c 493d d1c3 983e 8a76 1abe
00000320: 187b 29bd 7b00 28bc bc1a 9d3e 7e21 833d
00000330: 2f66 133e ed1e 0d3c 7d8a 63bd fca7 673d
00000340: 3bfc e63c 912e 31bd 8b81 dfbc f37c 423e
00000350: 794d d8bd c695 1c3e bc75 9a3e bdc1 6b3e
00000360: e4f9 3d3e ca58 0cbd 6783 51bd bd4c 883e
00000370: 0462 d6bc 044b f7b7 c2f6 1abe 0f7f 67bd
00000380: 8021 2fbd 2e42 d3bd 07c4 243e b1f7 0f3e
00000390: 9be1 bc3e b80e 0c3f e59c febc 73f2 17be
000003a0: cd8f 733e 245e 09be d336 59be 247e 23bd
000003b0: 3f45 59be 43e0 8c3e d195 d43e 43c5 8fbe
000003c0: 0f98 1bbe 3399 273e a452 003c 9d16 4abe
000003d0: 5721 6cbe 2e12 03be a7a2 7abe 921f 69be
000003e0: 0d0a 7abe bc1c e23d 5ab6 c43d f193 b7bc
000003f0: a381 de3d a7c1 253d 7a6a 5f3e e43e afbd

conv1.bias f4 [32]
-0.001901709 -0.01620884 -0.027961832 -0.053844206 0.011554458 0.002518939 -0.018943172 0.012702034
0.0026482255 -0.048749737 0.010909368 0.00012528786 0.0031205327 -0.027879175 -0.035565738 -0.031756446
0.0040542004 -0.008431773 -0.012940122 0.0045986087 0.0020562354 -0.01824115 -0.0036795947 -0.0010275966
0.0030006205 0.0026631283 0.009460726 -0.00016591436 0.017231131 -0.0097198095 0.0030914287 0.026953647
00000000: c442 f9ba 67c8 84bc 3610 e5bc be8b 5cbd
00000010: e94e 3d3c c914 253b b62e 9bbc 311c 503c
00000020: da8d 2d3b cead 47bd 35bd 323c b45f 0339
00000030: da81 4c3b de62 e4bc 61ad 11bd 0c13 02bd
00000040: 19d9 843b 6b25 0abc ce02 54bc edaf 963b
00000050: e8c1 063b 776e 95bc 5b25 71bb 6cb0 86ba
00000060: 0fa6 443b e187 2e3b 2901 1b3c 4cf9 2db9
00000070: 4d28 8d3c d63f 1fbc 9199 4a3b e5cd dc3c

conv2.weight f4 [32, 32, 3, 3]
0.18663616 0.07124438 0.05021129 -0.1396626 0.2356669 0.11822247 -0.14812896 -0.06563416
-0.25868362 0.035051554 -0.2887331 0.05817706 0.17856093 -0.28244513 0.17322141 -0.008262419
0.079687975 -0.014878552 0.01840431 0.01067792 -0.14979158 -0.039633445 -0.050456025 -0.30343235
-0.014694351 -0.030012537 0.36824977 0.05736385 -0.1086171 0.17884241 0.12554508 0.019440416
0.19607553 0.03896816 0.16396444 -0.2526308 0.11121659 0.011463794 0.06698102 -0.049263276
-0.112919256 -0.10610914 0.12504107 0.15630487 -0.11054102 -0.26179373 0.032100312 -0.08922143
0.12937126 0.011495929 0.17322229 -0.08468957 -0.009314229 -0.24387428 0.054256447 -0.13367267
-0.0008641507 0.10613504 -0.014065768 0.26729617 -0.14022386 -0.11434739 -0.04475018 0.03556801
0.13117187 0.16481814 -0.12798455 0.14968237 0.14079441 -0.0489624 0.14131829 -0.19850712
0.05038122 0.10105294 0.048509046 -0.20027402 -0.049430743 0.25355804 0.022913042 -0.06649702
0.041547094 0.08056833 0.062147655 -0.19259082 -0.20172982 -0.17785594 -0.35343474 0.023368236
0.026103485 0.42555046 -0.11988558 -0.18946803 0.06724285 0.055938195 0.16834976 0.011881637
-0.099474035 0.19570652 -0.22225627 0.10868459 0.116157 0.06260617 -0.05478673 -0.017195959
-0.21264781 -0.09669871 0.10809947 -0.075333 0.01767538 -0.14699052 -0.040880315 -0.08469252
-0.030895595 0.23729289 0.036684096 -0.15960163 0.120279275 0.18485053 0.17165117 0.22549836
-0.11324982 -0.16284283 0.22413988 0.058319274 -0.24257222 -0.016967772 0.08697404 0.007428795
-0.22543216 0.016454656 0.058218528 -0.18546787 -0.10355495 0.036262378 0.035697244 0.10914707
0.01015185 0.042835437 0.045795605 0.03155758 -0.09413028 0.14109004 -0.0113285575 -0.00028278062
-0.12129843 -0.2299787 0.049388807 0.11431524 -0.12640397 0.25800514 0.08059503 0.13942762
-0.06872607 0.068096995 0.01064517 0.08124299 -0.20771843 0.05374038 0.0861117 0.008359826
-0.23681004 0.089598015 0.10102932 -0.025434922 -0.12808909 0.13272615 -0.10273704 -0.013194204
-0.31708568 -0.09037556 -0.06928384 -0.009521862 -0.015927162 -0.16816369 0.025041917 0.021602754
-0.24242355 -0.015381184 0.016304107 0.29285258 0.019062238 -0.034863144 0.18143293 0.035478223
0.08802039 0.42610955 -0.09437091 0.07388996 -0.34350294 0.10187233 0.08521981 -0.1325567
-0.02451139 0.10130257 -0.14470349 -0.10802211 -0.08315329 0.17747475 -0.09641459 0.017326815
-0.04500755 -0.11564036 0.15438205 0.06324084 -0.052404404 0.13815217 0.055151537 2.2763323e-05
-0.06515121 0.21459757 -0.26300594 0.16075496 -0.32296968 0.020328397 0.01596979 0.3246863
-0.13243495 0.037323385 -0.06757541 -0.053984668 -0.022395266 0.0386892 0.12462596 -0.08814246
0.060880736 0.055752274 0.33288705 -0.0859364 -0.22231023 0.19875976 -0.0643975 -0.14473914
-0.123735026 -0.15689038 0.042799897 -0.059947275 0.02664813 -0.20075786 0.10910213 0.14966884
0.015653545 0.20464648 -0.19527794 -0.044153053 -0.060481604 -0.096155554 -0.050204407 0.28669977
0.10494354 0.0099477535 0.1777499 -0.08888739 0.030362533 -0.111730985 0.12443265 -0.08424215
00000000: 8d1d 3f3e 93e8 913d 5baa 4d3d b603 0fbe
00000010: aa52 713e 9f1e f23d 1eaf 17be 346b 86bd
00000020: 2e72 84be 3892 0f3d d3d4 93be 124b 6e3d
00000030: add8 363e a69c 90be f460 313e 195f 07bc
00000040: 7333 a33d 2cc5 73bc a3c4 963c 71f2 2e3c
00000050: f762 19be ae56 22bd faaa 4ebd 7c5b 9bbe
00000060: 93c0 70bc dadc f5bc 3c8b bc3e 5bf6 6a3d
00000070: a472 debd 7722 373e e48e 003e 8241 9f3c
00000080: 06c8 483e 149d 1f3d 4be6 273e d358 81be
00000090: 86c5 e33d a3d2 3b3c 582d 893d 4ac8 49bd
000000a0: 3642 e7bd c04f d9bd c40a 003e 620e 203e
000000b0: 5563 e2bd d409 86be 9e7b 033d bab9 b6bd
000000c0: e679 043e 6c59 3c3c 2f61 313e ba71 adbd
000000d0: b59a 18bc 2eba 79be 023c 5e3d 7de1 08be
000000e0: 2c88 62ba 545d d93d 1b74 66bc 0bdb 883e
000000f0: d896 0fbe f72e eabd f74b 37bd c3af 113d
00000100: eb51 063e 16c6 283e 620e 03be 5646 193e
00000110: 692c 103e cc8c 48bd beb5 103e 7345 4bbe
00000120: 8a5c 4e3d d8f4 ce3d 6cb1 463d a214 4dbe
00000130: e477 4abd 5cd2 813e 22b4 bb3c 972f 88bd
00000140: 492d 2a3d 0201 a53d 8a8e 7e3d 8736 45be
00000150: 4392 4ebe de1f 36be 66f5 b4be be6e bf3c
00000160: fad6 d53c c0e1 d93e 9286 f5bd e803 42be
00000170: 9fb6 893d 731f 653d e163 2c3e 33ab 423c
00000180: 0bb9 cbbd 4a67 483e 2697 63be 0796 de3d
00000190: b9e3 ed3d aa37 803d 0d68 60bd 8ade 8cbc
000001a0: 59c0 59be f909 c6bd 4163 dd3d 3048 9abd
000001b0: f5cb 903c af84 16be 1e72 27bd 4673 adbd
000001c0: c218 fdbc e8fc 723e 1042 163d 9c6e 23be
000001d0: fb54 f63d 7549 3d3e 53c5 2f3e 0be9 663e
000001e0: 86ef e7bd 45c0 26be ed84 653e 31e0 6e3d
000001f0: da64 78be ffff 8abc 721f b23d 406d f33b
00000200: b0d7 66be eacb 863c 8d76 6e3d 4aeb 3dbe
00000210: 9e14 d4bd dc87 143d 4637 123d 8088 df3d
00000220: f253 263c 3674 2f3d 2c94 3b3d 8542 013d
00000230: 60c7 c0bd e879 103e 6a9b 39bc 2c42 94b9
00000240: 506b f8bd 897f 6bbe eb4b 4a3d 1c1e ea3d
00000250: 0b70 01be 4019 843e 020f a53d 1dc6 0e3e
00000260: 41c0 8cbd 7076 8b3d 1469 2e3c ba62 a63d
00000270: 24b4 54be df1e 5c3d 555b b03d a7f7 083c
00000280: 557e 72be 2a7f b73d 76e8 ce3d e65c d0bc
00000290: c929 03be 5de9 073e cc67 d2bd 812c 58bc
000002a0: 0e59 a2be d216 b9bd b0e4 8dbd 9501 1cbc
000002b0: ae79 82bc 1a33 2cbe b524 cd3c 42f8 b03c
000002c0: e13d 78be 5d01 7cbc 3190 853c c6f0 953e
000002d0: 6928 9c3c a8cc 0ebd 8ec9 393e 9d51 113d
000002e0: 0944 b43d 082b da3e 8945 c1bd 9f53 973d
000002f0: 9edf afbe 71a2 d03d b987 ae3d f2bc 07be
00000300: 1ccc c8bc b977 cf3d 272d 14be b23a ddbd
00000310: 464c aabd f1bb 353e 0375 c5bd f7f0 8d3c
00000320: d659 38bd dad4 ecbd 5416 1e3e 6a84 813d
00000330: 00a6 56bd c377 0d3e 94e6 613d ddf3 be37
00000340: ff6d 85bd 77bf 5b3e b7a8 86be f39c 243e
00000350: 485c a5be bd87 a63c 14d3 823c 483d a63e
00000360: 079d 07be 68e0 183d fa64 8abd 071f 5dbd
00000370: 4776 b7bc 9178 1e3d e53b ff3d 0984 b4bd
00000380: 145e 793d 7f5c 643d 2c70 aa3e 6cff afbd
00000390: 4ba5 63be ae87 4b3e d6e2 83bd 7f36 14be
000003a0: ca68 fdbd dfa7 20be f24e 2f3d 468b 75bd
000003b0: 2e4d da3c 7893 4dbe f070 df3d ca42 193e
000003c0: dd3b 803c d98e 513e f1f6 47be d5d9 34bd
000003d0: 8fbb 77bd 34ed c4bd 23a3 4dbd 50ca 923e
000003e0: a4ec d63d e7fb 223c 1204 363e 980a b6bd
000003f0: d9ba f83c 37d3 e4bd 8cd6 fe3d 2687 acbd

conv2.bias f4 [32]
-0.058826346 -0.10660497 -0.06809284 -0.043439317 -0.023666745 0.00041149757 0.045562297 0.0028655592
-0.0016533446 -0.18939354 -0.06321421 0.022806304 -0.026823536 -0.0130546745 -0.05642623 -0.056849487
-0.01644611 0.003883913 -0.043606028 -0.0885396 -0.18795112 -0.0031634204 -0.021675894 -0.067955665
-0.12683262 0.026443588 0.02743123 -0.028936049 -0.09336621 -0.00222954 -0.029424747 -0.19866386
00000000: e5f3 70bd b553 dabd 4274 8bbd 6ded 31bd
00000010: c3e0 c1bc 45be d739 889f 3a3d 1bcc 3b3b
00000020: 0ab5 d8ba 61f0 41be 7476 81bd 49d4 ba3c
00000030: 08bd dbbc 46e3 55bc 311f 67bd 02db 68bd
00000040: feb9 86bc 3f89 7e3b 3c9c 32bd 4054 b5bd
00000050: 4276 40be 6351 4fbb a591 b1bc 572c 8bbd
00000060: 69e0 01be 39a0 d83c 75b7 e03c 4b0b edbc
00000070: c936 bfbd 791d 12bb 2b0c f1bc 8a6e 4bbe

conv3.weight f4 [32, 32, 3, 3]
-0.07796558 -0.11771595 -0.26462457 -0.06046685 0.0055876523 0.07843985 -0.07766567 0.08711654
-0.12249739 -0.008426134 0.17212836 0.031669304 -0.10160282 -0.07336068 -0.2857493 -0.042727668
-0.05744126 0.031889062 -0.045963924 0.12197851 -0.020108439 0.036611933 -0.03423456 -0.20872292
0.033509985 -0.051166814 0.030910525 0.0047133802 0.108583376 -0.029803641 0.039646037 0.007711931
-0.15154554 0.03277583 -0.14378257 0.12464239 -0.0018745287 -0.06579604 -0.034351338 -0.03149646
-0.06114297 -0.021897605 0.029123286 0.081442595 0.19469967 -0.014645356 -0.011903511 0.16913922
0.11591107 0.06961103 -0.0008222213 0.06047375 -0.023205662 0.10374337 0.09775458 0.11454566
-0.006481536 -0.0351084 0.20200264 0.20705348 -0.0141418325 -0.13410814 0.043764662 0.104576826
-0.07642077 0.02674692 0.08919714 -0.14290439 0.19402626 -0.12807672 0.19449233 -0.16275816
0.013349347 0.15609342 -0.008982938 -0.13198997 0.13051005 0.18929149 -0.13294464 -0.0011017849
-0.03255178 -0.076906525 0.063107036 0.032881066 0.016814562 0.01834196 0.06767299 0.13992801
0.030403439 0.29701477 -0.03186642 -0.046998683 0.019985275 0.03424809 -0.0024408277 -0.1165891
-0.025829677 -0.107482575 -0.018355284 0.05542782 0.036468785 0.22967215 -0.07798094 0.053588018
-0.012784874 -0.09891837 0.08153208 0.0056424118 0.04163299 -0.0012691524 0.21416406 -0.055343974
0.005112216 0.16481382 -0.06704739 0.025783654 -0.07953317 0.00851404 -0.013354527 0.04520738
0.15029162 -0.108399 0.16518666 -0.007008453 -0.02509311 -0.057560656 -0.068378195 -0.018037336
-0.02457037 0.028251411 0.24798764 -0.24619688 0.056456286 -0.107708335 0.082533464 -0.03284975
0.019991098 -0.04408967 0.0405444 -0.22533812 0.08251183 0.088714406 -0.086441286 -0.03445657
-0.051364176 0.12948391 0.07239504 -0.11963088 0.10660618 0.22094044 -0.015480956 -0.05976894
-0.21959743 -0.081240706 -0.17651397 0.0005587793 0.13939385 -0.22174366 0.05321816 -0.095811255
0.15203993 0.052332178 -0.0078879995 -0.008476674 -0.20821077 -0.023740344 -0.06659027 0.16863832
-0.1451922 0.010332637 0.08635079 -0.028192753 -0.06164673 0.03937517 -0.17279238 0.068443514
-0.09714086 0.16761942 -0.086715296 -0.01871184 -0.08862846 -0.14265388 -0.2053013 0.048451792
0.17447096 0.106070064 -0.023028534 0.030611921 0.058559272 -0.060868174 0.1129513 0.10399798
0.05646359 -0.4346728 0.14013246 0.04454077 0.05449597 -0.050065357 0.0650859 -0.112329185
-0.11046459 -0.057369616 0.17871937 0.0875307 -0.09707777 0.053068567 0.05158174 -0.09073476
0.121871814 0.015742056 0.15826684 -0.0719244 0.25891897 -0.05698722 0.102550395 0.1429578
0.123279035 -0.043011233 0.038740497 -0.033278015 0.093352124 -0.019161608 -0.08353824 0.012704578
-0.050984517 0.0026951937 0.109023236 -0.08059172 -0.11444173 -0.21548194 0.16715425 -0.020398788
0.23192991 -0.25146255 0.032490596 0.071888976 0.13748924 0.16076864 -0.1468563 0.016309572
-0.08750065 0.08723777 -0.23454858 0.115472615 0.16273986 0.13474308 -0.074707404 0.07796547
0.17450131 -0.0052336464 -0.08788353 0.032888584 0.046098597 0.16677667 0.07380325 -0.019607808
00000000: 6bac 9fbd 0f15 f1bd df7c 87be 16ac 77bd
00000010: a018 b73b 12a5 a03d 2e0f 9fbd 286a b23d
00000020: e9df fabd c40d 0abc 6b42 303e acb7 013d
00000030: 2415 d0bd 203e 96bd bb4d 92be 3503 2fbd
00000040: 8747 6bbd 1b9e 023d ab44 3cbd decf f93d
00000050: 74ba a4bc 65f6 153d 8a39 0cbd 76bb 55be
00000060: c441 093d 4b94 51bd 1238 fd3c b372 9a3b
00000070: f660 de3d c426 f4bc e263 223d 5eb4 fc3b
00000080: c12e 1bbe f33f 063d bd3b 13be 8244 ff3d
00000090: bfb2 f5ba 13c0 86bd fdb3 0cbd 6f02 01bd
000000a0: 0d71 7abd 9b62 b3bc f593 ee3c 60cb a63d
000000b0: 5a5f 473e 13f3 6fbc f206 43bc d532 2d3e
000000c0: c862 ed3d 3a90 8e3d 568a 57ba 53b3 773d
000000d0: cd19 bebc 6777 d43d 8e33 c83d ea96 ea3d
000000e0: 1163 d4bb d3cd 0fbd c8d9 4e3e d405 543e
000000f0: 25b3 67bc a553 09be 9342 333d 602c d63d
00000100: 7e82 9cbd 5b1c db3c fdac b63d 8755 12be
00000110: d2ae 463e 8b26 03be ff28 473e 13aa 26be
00000120: 38b7 5a3c f4d6 1f3e 2c2d 13bc 6128 07be
00000130: 6da4 053e a1d5 413e a422 08be c469 90ba
00000140: 0455 05bd 2b81 9dbd 433e 813d 4cae 063d
00000150: b1be 893c e141 963c 2398 8a3d 4a49 0f3e
00000160: a210 f93c 5212 983e 5d86 02bd b181 40bd
00000170: 29b8 a33c ba47 0c3d 4bf6 1fbb 44c6 eebd
00000180: c298 d3bc d31f dcbd d25d 96bc 4808 633d
00000190: 4b60 153d 2d2f 6b3e 79b4 9fbd 1c7f 5b3d
000001a0: a677 51bc b795 cabd 4bfa a63d fbe3 b83b
000001b0: 5b87 2a3d b059 a6ba d34d 5b3e 5db0 62bd
000001c0: 6084 a73b f4c4 283e 2450 89bd 3e38 d33c
000001d0: 49e2 a2bd 797e 0b3c f2cc 5abc 602b 393d
000001e0: 0ce6 193e 4b00 debd b126 293e 2aa7 e5bb
000001f0: 1190 cdbc b9c4 6bbd de09 8cbd 09c3 93bc
00000200: cd47 c9bc 816f e73c 79f0 7d3e 091b 7cbe
00000210: b53e 673d 3096 dcbd 4e07 a93d 768d 06bd
00000220: 5fc4 a33c 5f97 34bd e311 263d 09bf 66be
00000230: f6fb a83d e6af b53d 2108 b1bd 5522 0dbd
00000240: 3e63 52bd 6e97 043e da43 943d 0901 f5bd
00000250: 5754 da3d 363e 623e d6a3 7dbc 47d0 74bd
00000260: 26de 60be 8761 a6bd 14c0 34be 0b7b 123a
00000270: 43bd 0e3e c510 63be 49fb 593d b138 c4bd
00000280: 5bb0 1b3e 445a 563d ab3c 01bc bfe1 0abc
00000290: 3435 55be 1c7b c2bc 7b60 88bd 86af 2c3e
000002a0: 44ad 14be 384a 293c afd8 b03d 7df4 e6bc
000002b0: 4881 7cbd dc47 213d 7cf0 30be 1d2c 8c3d
000002c0: caf1 c6bd 6da4 2b3e ca97 b1bd 9349 99bc
000002d0: d782 b5bd dc13 12be 813a 52be 6375 463d
000002e0: 84a8 323e 433b d93d 56a6 bcbc dac5 fa3c
000002f0: d9db 6f3d e850 79bd 0353 e73d e5fc d43d
00000300: 5e46 673d 6f8d debe e27e 0f3e 6270 363d
00000310: 2b37 5f3d 5511 4dbd c24b 853d d80c e6bd
00000320: 423b e2bd 67fc 6abd 3602 373e 4c43 b33d
00000330: b6d0 c6bd 6d5e 593d 6047 533d 25d3 b9bd
00000340: ee97 f93d 7cf5 803c b410 223e 1a4d 93bd
00000350: 0791 843e 6e6b 69bd f105 d23d 8863 123e
00000360: b879 fc3d 8c2c 30bd 5bae 1e3d 874e 08bd
00000370: 662f bf3d cef8 9cbc 1916 abbd dd26 503c
00000380: 24d5 50bd d9a1 303b 9347 df3d 460d a5bd
00000390: 6d60 eabd 4ca7 5cbe 7c2a 2b3e 5c1b a7bc
000003a0: 097f 6d3e b3bf 80be dc14 053d 873a 933d
000003b0: fbc9 0c3e 89a0 243e 7f61 16be a79b 853c
000003c0: 8a33 b3bd b7a9 b23d 812d 70be e87c ec3d
000003d0: 47a5 263e 17fa 093e 3200 99bd 5cac 9f3d
000003e0: 79b0 323e 027f abbb 48fc b3bd 2eb6 063d
000003f0: e2d1 3c3d 81c7 2a3e 2926 973d 8ea0 a0bc

conv3.bias f4 [32]
0.10425328 0.022604043 0.055159777 0.09282778 0.123717204 -0.053028468 0.029728532 0.07371109
-0.12869465 0.073221646 0.058896262 0.09572847 0.15841314 0.17929998 -0.15271443 -0.043358255
0.1257579 -0.050515328 0.054776363 0.00905386 0.02730239 0.11549393 0.0050056214 -0.028085819
0.003797504 0.0021622584 0.08700083 0.15393798 0.026779642 0.09031026 0.03389157 0.15689379
00000000: be82 d53d 1d2c b93c 38ef 613d 7e1c be3d
00000010: 725f fd3d 6134 59bd 4089 f33c d7f5 963d
00000020: 88c8 03be 3bf5 953d 353d 713d 4a0d c43d
00000030: 0e37 223e 6a9a 373e 2c61 1cbe 6d98 31bd
00000040: aec6 003e 29e9 4ebd 2e5d 603d a456 143c
00000050: 43a9 df3c 1588 ec3d 3206 a43b 3b14 e6bc
00000060: 8bdf 783b adb4 0d3b 7e2d b23d eba1 1d3e
00000070: fb60 db3c 96f4 b83d e3d1 0a3d c4a8 203e

conv4.weight f4 [32, 32, 3, 3]
-0.12734275 -0.035499915 0.12900189 -0.023621483 0.14162436 -0.15971299 -0.010669824 -0.058354177
0.037273385 -0.10151567 0.015316265 0.057641167 -0.055666327 0.35328078 -0.2411629 -0.018551214
-0.0067977635 -0.11929837 0.017562777 -0.081424356 0.013912989 -0.17332117 0.052585624 -0.054947607
0.021401895 0.017374862 0.18776502 0.008959986 0.17427126 -0.045587596 -0.051606502 -0.036449146
0.05121102 -0.0068971803 0.15304814 0.03934784 -0.01777349 0.09487984 0.019544866 0.06452477
0.20646228 -0.066067055 -0.0021289773 -0.07976282 0.07638161 -0.05083733 -0.03202175 -0.03973847
0.049106143 -0.1873723 0.19220454 0.04376513 -0.02277627 -0.13816778 0.0039951466 0.043136537
0.029115979 0.22399403 -0.13599163 -0.17331205 -0.12586668 0.045106534 0.07070227 0.023168754
0.07661244 0.040631946 -0.03234345 0.19213782 0.08799333 0.04173573 -0.08434229 -0.06091586
0.023471931 -0.010346335 -0.066423 0.120333865 -0.09744596 0.093984365 -0.16186759 0.15856434
0.16511658 0.14219497 -0.13678542 -0.0144150825 -0.04946585 -0.033156797 0.11071773 0.017824873
-0.1113441 0.10751169 0.0068295943 -0.1898146 0.017332954 0.039873227 -0.032171205 0.04809808
-0.016921237 0.13591811 0.085926555 -0.022886246 -0.08192338 -0.07940437 -0.1886843 0.2427955
0.12416949 -0.03840909 -0.08509161 -0.1051237 -0.029278548 -0.001206998 0.06458849 -0.06764043
0.015455572 -0.14711304 0.06210865 0.0041813874 0.0974909 -0.1245429 -0.018643415 0.10263225
-0.07882559 0.20879799 -0.18834837 0.02149389 -0.08496319 0.056141395 -0.05558595 0.054404452
-0.04265655 0.099856324 -0.27252728 0.20753676 -0.009154097 -0.043377995 0.059872564 -0.045997538
-0.09721462 -0.12907763 0.16799605 -0.036959868 0.032921296 -0.15028521 -0.04113495 0.11866659
0.009726329 -0.014369895 -0.016114725 -0.16217679 0.049962554 0.061576717 -0.05984373 -0.06656109
0.055003922 -0.09308346 -0.11741657 -0.015400968 0.16847014 -0.16074131 0.023430018 -0.123665325
0.10264005 0.18642485 0.064926565 -0.03282805 0.026275404 0.025419904 -0.011345735 -0.09262813
-0.060637537 0.114221245 0.22955938 0.04032997 0.09404448 -0.042470723 0.059027895 0.09713939
-0.27137122 -0.04987972 0.021360932 0.11110114 0.040184792 0.0034952923 -0.0016219541 -0.21843973
0.022898693 0.033644993 0.059535023 -0.058312736 0.021536741 0.005156778 0.09150323 0.045569997
0.09978579 0.042039696 -0.25072876 0.006491759 0.047383264 0.07963836 -0.035158884 0.08281885
-0.04147869 0.101972304 0.07659986 -0.1519472 0.003506297 -0.124416806 0.13588434 -0.014250551
0.054861188 0.031444702 0.11610242 -0.16899751 0.067755535 -0.07782149 -0.15905167 0.19589955
0.109794304 -0.006716291 0.0013935083 -0.25610843 0.15560693 0.11876229 0.15518796 -0.14867389
-0.11855607 0.07539967 0.04061836 -0.004939691 -0.13513415 0.19898188 0.17854355 0.014836946
-0.15791677 -0.010612051 -0.022386612 -0.11809096 0.08031427 0.008425619 0.014311239 -0.13991697
-0.14784767 0.034864526 0.039203342 -0.10166872 0.06979613 -0.020992182 0.0054059476 0.1941262
-0.06259254 0.053529393 0.06817228 0.036607414 0.06651648 -0.093854845 0.014605438 -0.069479495
00000000: 2366 02be 5c68 11bd 1219 043e d781 c1bc
00000010: fa05 113e cd8b 23be 7cd0 2ebc ca04 6fbd
00000020: faab 183d 73e7 cfbd 12f1 7a3c 2519 6c3d
00000030: 6002 64bd 38e1 b43e 68f3 76be b7f8 97bc
00000040: c6bf debb b452 f4bd d0df 8f3c d0c1 a6bd
00000050: 4ef3 633c 1b7b 31be 0664 573d be10 61bd
00000060: 0753 af3c ba55 8e3c 7945 403e e8cc 123c
00000070: 2a74 323e 0fba 3abd 5761 53bd b34b 15bd
00000080: a6c2 513d be01 e2bb a7b8 1c3e 332b 213d
00000090: b699 91bc 5d50 c23d 8e1c a03c 9025 843d
000000a0: d96a 533e 2a4e 87bd 5086 0bbb b05a a3bd
000000b0: f66d 9c3d ce3a 50bd 3d29 03bd cec4 22bd
000000c0: 8623 493d 86de 3fbe 44d1 443e 1143 333d
000000d0: 4d95 babc db7b 0dbe b8e9 823b f0af 303d
000000e0: a284 ee3c b15e 653e 6441 0bbe b778 31be
000000f0: 32e3 00be a1c1 383d 5acc 903d 66cc bd3c
00000100: fce6 9c3d af6d 263d 917a 04bd c7bf 443e
00000110: d935 b43d 16f3 2a3d a7bb acbd e982 79bd
00000120: 3548 c03c ad83 29bc c808 88bd 9a71 f63d
00000130: bf91 c7bd e07a c03d 9ec0 25be b15e 223e
00000140: 5214 293e 8f9b 113e 7a11 0cbe 3d2d 6cbc
00000150: b49c 4abd 6ccf 07bd fabf e23d 7805 923c
00000160: 6008 e4bd 172f dc3d caca df3b c25e 42be
00000170: d7fd 8d3c 1c52 233d f4c5 03bd 7e02 453d
00000180: 689e 8abc 1e2e 0b3e 43fa af3d f07b bbbc
00000190: 72c7 a7bd c29e a2bd 7536 41be 629f 783e
000001a0: 934c fe3d da52 1dbd 8344 aebd 184b d7bd
000001b0: 91d9 efbc 2234 9eba f846 843d 1187 8abd
000001c0: 5e39 7d3c cda4 16be a465 7e3d 0504 893b
000001d0: 4fa9 c73d 5910 ffbd 13ba 98bc db30 d23d
000001e0: 506f a1bd 24cf 553e 65de 40be f413 b03c
000001f0: 2e01 aebd 85f4 653d 18ae 63bd 34d7 5e3d
00000200: a2b8 2ebd 7981 cc3d b288 8bbe 8484 543e
00000210: 11fb 15bc 20ad 31bd ef3c 753d ea67 3cbd
00000220: 7518 c7bd ed2c 04be 2807 2c3e 3b63 17bd
00000230: 7bd8 063d 5ee4 19be 1f7d 28bd 7807 f33d
00000240: 2e5b 1f3c b56f 6bbc 0703 84bc ac11 26be
00000250: 89a5 4c3d de37 7c3d b31e 75bd 2e51 88bd
00000260: cb4b 613d 8ba2 bebd 1978 f0bd 5754 7cbc
00000270: 7083 2c3e 5f99 24be 4ff0 bf3c 3f44 fdbd
00000280: f234 d23d 28e6 3e3e 38f8 843d b576 06bd
00000290: 843f d73c 673d d03c 76e3 39bc d1b3 bdbd
000002a0: 115f 78bd d4ec e93d 9d11 6b3e 0a31 253d
000002b0: 649a c03d c8f5 2dbd 3cc7 713d 04f1 c63d
000002c0: 2bf1 8abe ad4e 4cbd 1ffd ae3c ff88 e33d
000002d0: cf98 243d 4611 653b c097 d4ba aaae 5fbe
000002e0: 0a96 bb3c 55cf 093d ffda 733d 56d9 6ebd
000002f0: d26d b03c 30fa a83b 0c66 bb3d 9ba7 3a3d
00000300: 7e5c cc3d d131 2c3d 855f 80be d2b8 d43b
00000310: f414 423d 7019 a33d c302 10bd ee9c a93d
00000320: 8fe5 29bd dbd6 d03d 63e0 9c3d 0c98 1bbe
00000330: e7c9 653b 3dce febd 4425 0b3e 257b 69bc
00000340: 20b6 603d 29cc 003d 1bc7 ed3d af0d 2dbe
00000350: 6ac3 8a3d e060 9fbd 71de 22be e499 483e
00000360: d6db e03d 5514 dcbb 61a6 b63a a520 83be
00000370: 6c57 1f3e a539 f33d 98e9 1e3e f83d 18be
00000380: 86cd f2bd 246b 9a3d 705f 263d 22dd a1bb
00000390: 9b60 0abe e8c1 4b3e 1fd4 363e a916 733c
000003a0: efb4 21be 2bde 2dbc 2164 b7bc acd9 f1bd
000003b0: cf7b a43d 9c0b 0a3c b079 6a3c 6546 0fbe
000003c0: 6165 17be 1bce 0e3d af93 203d b137 d0bd
000003d0: 46f1 8e3d ccf7 abbc 6024 b13b 05c9 463e
000003e0: 8530 80bd a341 5b3d e99d 8b3d a8f1 153d
000003f0: cb39 883d f836 c0bd a64b 6f3c 444b 8ebd

conv4.bias f4 [32]
0.063878626 0.062031075 -0.079490505 0.0068910946 0.04672359 0.02346286 -0.05762465 -0.024961354
0.03526843 -0.025151739 -0.12990837 -0.026640495 -0.0639101 0.059493642 0.036990456 -0.07387786
-0.07234228 0.027679587 0.037821226 -0.093382195 -0.07452538 0.06259251 -0.03236339 -0.019614143
-0.011011467 0.047728356 -0.018609967 -0.15333273 0.09592071 0.033613354 -0.059217874 -0.02694503
00000000: ccd2 823d 4c14 7e3d ebcb a2bd b1ce e13b
00000010: 3c61 3f3d 2f35 c03c d307 6cbd c17b ccbc
00000020: a175 103d 050b cebc b306 05be 2b3d dabc
00000030: 4ce3 82bd 9baf 733d 4e83 173d 474d 97bd
00000040: 3028 94bd 4dc0 e23c 6eea 1a3d 2a3f bfbd
00000050: c3a0 98bd 8030 803d 798f 04bd d7ad a0bc
00000060: 7169 34bc cf7e 433d ee73 98bc 4103 1dbe
00000070: 1472 c43d 28ae 093d 718e 72bd d3bb dcbc

linear.weight f4 [256, 800]
0.034904588 0.073328935 0.033134148 0.056459844 0.037966643 -0.031686857 0.008441354 0.000498544
0.026895007 0.019033473 0.028958933 -0.059153587 -0.008706851 0.030548638 -0.054482616 0.03235148
0.046708036 -0.10738434 -0.12351227 0.09497179 0.05476044 0.05913204 -0.07043975 0.0013271319
-0.0624968 0.009862958 0.021264447 0.005061588 0.043602023 0.016265426 -0.051687874 -0.015101829
0.0884182 -0.030801471 -0.026345037 0.0013405444 -0.08538265 0.0003820176 0.028163869 0.03607593
-0.034411706 0.011000686 -0.043965306 0.06450496 -0.100444525 0.017765455 0.099564634 -0.022263244
-0.0043837237 -0.04531695 0.01215494 0.008911887 -0.06300657 -0.038959384 -0.06298254 -0.017675396
-0.031717766 0.025110357 0.01742464 -0.082322724 0.0456304 -0.01757267 0.041540027 0.047741033
-0.024129735 0.02334832 -0.060014572 -0.05962614 0.012799506 0.007814934 -0.063936904 0.0047612316
0.027786328 -0.01270218 0.10367651 -0.020274151 0.06149394 0.07932372 0.053532757 -0.009676165
0.06067264 0.030329179 0.011967693 -0.027696108 -0.0335096 0.026761597 -0.009786016 0.045091465
0.02334925 -0.055692535 -0.13706736 -0.020619297 0.19542442 0.06746308 -0.023435725 0.11157922
0.19896437 0.04453853 -0.08362035 -0.12480878 -0.010723268 -0.060451183 -0.0060427086 0.024172798
-0.02233201 -0.0033602144 -0.015559403 -0.03077754 0.05245508 -0.003677925 -0.015348865 -0.0022821468
0.027962811 -0.08160166 -0.009212455 -0.03307981 0.008202147 0.0040741144 0.07517892 0.044700067
0.039609388 -0.1717545 0.013054417 -0.007947609 -0.09198989 -0.012651692 -0.016511893 -0.0069189025
-0.024318604 0.015930608 -0.0072650323 -0.009085739 -0.04652258 -0.033892654 0.08065239 -0.010603704
-0.08097431 -0.02483562 -0.030198952 -0.047492962 -0.0555875 0.07914621 0.004854411 -0.0016048276
0.032089926 0.11493899 0.12576342 -0.034243576 -0.031142993 0.015042635 -0.006426572 -0.00016282723
-0.0034079186 0.043208294 -0.046380147 0.017427914 0.016742678 -0.025254006 -0.03979122 0.047154285
-0.04656761 -0.051970027 0.04322512 -0.030620234 0.015475755 -0.0060376376 -0.03646485 0.05331097
-0.0683054 -0.061154645 0.010502137 0.05593137 0.036908105 0.008176172 -0.073194236 0.0768092
-0.0034733259 0.03673835 0.050168335 -0.018284991 -0.060304854 0.016602743 0.021528596 -0.02359202
-0.08216887 -0.0012578366 -0.07534483 0.089842856 0.010430115 0.014952762 0.030125061 0.011360357
0.042602185 0.03945981 -0.056466877 0.15329508 0.047139212 -0.0101688765 -0.03146384 -0.014222971
0.01635845 0.06556559 0.05386514 0.023580698 0.010363285 0.0063326294 -0.013952042 0.05166939
-0.050310712 -0.02285223 0.060151447 0.0119184 -0.0052429363 -0.013254051 0.008264996 -0.05116008
0.020886714 -0.011365536 0.051233903 -0.014307337 0.052154284 0.009184859 0.029138679 -0.040113863
-0.049768273 0.004098792 0.035591997 0.007201618 -0.013615807 -0.004949284 -0.06679441 0.017708033
-0.03176326 -0.07411417 0.057040475 -0.02536526 -0.036068175 -0.025374312 -0.036037117 -0.055296317
-0.00058856135 0.05320356 0.06215585 -0.056213047 -0.016844077 0.07325918 -0.0065536206 -0.0017221783
0.053428117 0.013112791 0.008967191 -0.012540071 0.0066326126 0.0066433023 0.02220573 -0.022080036
00000000: 1df8 0e3d 7b2d 963d acb7 073d 7042 673d
00000010: e982 1b3d 14ca 01bd 9b4d 0a3c b9b0 023a
00000020: eb52 dc3c 16ec 9b3c 493b ed3c 084b 72bd
00000030: 2ea7 0ebc 2341 fa3c 2a29 5fbd fc82 043d
00000040: ed50 3f3d 52ec dbbd 00f4 fcbd 9280 c23d
00000050: 7c4c 603d 7034 723d b742 90bd 28f3 ad3a
00000060: a5fc 7fbd 3f98 213c c732 ae3c addb a53b
00000070: 0998 323d 123f 853c aab6 53bd a96d 77bc
00000080: 9a14 b53d 5e53 fcbc 8cd1 d7bc 35b5 af3a
00000090: 19dd aebd 8949 c839 eab7 e63c 5bc4 133d
000000a0: 4af3 0cbd 393c 343c f714 34bd 2d1b 843d
000000b0: dcb5 cdbd dc88 913c 8be8 cb3d 6861 b6bc
000000c0: 57a5 8fbb 449e 39bd 8325 473c 2a03 123c
000000d0: 9709 81bd e093 1fbd fdfc 80bd fecb 90bc
000000e0: 7dea 01bd 3cb4 cd3c 1ebe 8e3c d198 a8bd
000000f0: f1e6 3a3d 8ff4 8fbc e025 2a3d 1a8c 433d
00000100: b9ab c5bc fa44 bf3c d7d1 75bd 8a3a 74bd
00000110: 05b5 513c 350a 003c 5af1 82bd 1b04 9c3b
00000120: 27a0 e33c ce1c 50bc 5a54 d43d fa15 a6bc
00000130: 12e1 7b3d 7974 a23d 2a45 5b3d c788 1ebc
00000140: e083 783d e674 f83c 2514 443c f3e2 e2bc
00000150: 5d41 09bd 233b db3c 8755 20bc d4b1 383d
00000160: ed46 bf3c db1d 64bd 635b 0cbe cde9 a8bc
00000170: 571d 483e 152a 8a3d 47fc bfbc a583 e43d
00000180: 51bd 4b3e 096e 363d 2541 abbd bf9b ffbd
00000190: a5b0 2fbc a99b 77bd ea01 c6bb 0806 c63c
000001a0: 9ff1 b6bc 0b37 5cbb deec 7ebc 2e21 fcbc
000001b0: 23db 563d 5809 71bb ce79 7bbc 1290 15bb
000001c0: 4412 e53c c51e a7bd d6ef 16bc b27e 07bd
000001d0: 4c62 063c 2680 853b 68f7 993d 6b17 373d
000001e0: 743d 223d 69e0 2fbe 32e2 553c b036 02bc
000001f0: 3265 bcbd 0b49 4fbc f343 87bc f6b7 e2bb
00000200: cf37 c7bc e880 823c 820f eebb 5adc 14bc
00000210: 768e 3ebd 06d3 0abd 152d a53d 28bb 2dbc
00000220: dcd5 a5bd 1274 cbbc cb63 f7bc fb87 42bd
00000230: b8af 63bd 6817 a23d c011 9f3b 1459 d2ba
00000240: ba70 033d 2265 eb3d 20c8 003e fe42 0cbd
00000250: 971f ffbc 6275 763c fe95 d2bb 9abc 2ab9
00000260: 6357 5fbb 2efb 303d 1cf9 3dbd fcc4 8e3c
00000270: f127 893c 7de1 cebc 1efc 22bd da24 413d
00000280: aebd 3ebd 86de 54bd d30c 313d 49d7 fabc
00000290: 058e 7d3c 60d7 c5bb 2b5c 15bd 9b5c 5a3d
000002a0: b4e3 8bbd 4b7d 7abd 2811 2c3c 4b18 653d
000002b0: f42c 173d 5af5 053c dce6 95bd 244e 9d3d
000002c0: bda0 63bb f47a 163d 507d 4d3d 68ca 95bc
000002d0: 3902 77bd 7a02 883c bd5c b03c 0d44 c1bc
000002e0: 2748 a8bd fedd a4ba 644e 9abd 88ff b73d
000002f0: 13e3 2a3c 6efc 743c d5c8 f63c ca20 3a3c
00000300: a17f 2e3d 9ca0 213d d049 67bd 63f9 1c3e
00000310: 0c15 413d 5c9b 26bc 3ae0 00bd 7707 69bc
00000320: 2802 863c 4147 863d b1a1 5c3d 4f2c c13c
00000330: c5ca 293c f281 cf3b 1b97 64bc 48a3 533d
00000340: 9b12 4ebd 9a34 bbbc 5d61 763d 6545 433c
00000350: f0cc abbb 8527 59bc e869 073c 3b8d 51bd
00000360: 9d1a ab3c 8336 3abc a4da 513d 5269 6abc
00000370: bb9f 553d 177c 163c 3db4 ee3c 6f4e 24bd
00000380: d1d9 4bbd 294f 863b eac8 113d 8dfb eb3b
00000390: d514 5fbc 9a2d a2bb 82cb 88bd 7010 913c
000003a0: 311a 02bd 2cc9 97bd 46a3 693d ceca cfbc
000003b0: 39bc 13bd cadd cfbc a89b 13bd 647e 62bd
000003c0: af49 1aba faeb 593d 2297 7e3d a73f 66bd
000003d0: 97fc 89bc e908 963d c1bf d6bb b7ba e1ba
000003e0: 71d7 5a3d 08d7 563c 20eb 123c df74 4dbc
000003f0: 6356 d93b 0fb0 d93b cbe8 b53c 31e1 b4bc

linear.bias f4 [256]
-0.048262462 -0.010936722 -0.348347 -0.0218696 -0.011204091 -0.026614856 -0.01392423 -0.31510714
-0.04615969 -0.0056526815 0.0074354974 -0.13410795 -0.0095171835 0.006447423 0.0054117586 -0.04453385
-0.14656524 -0.035557568 -0.006512748 -0.019982498 -0.00682829 -0.0044495407 -0.04574709 -0.008214336
-0.03540153 -0.1336101 -0.0065922746 -0.015902737 -0.026895655 -0.08500928 -0.010001318 -0.123906374
0.00096176495 0.025677007 -0.05240387 0.05693202 -0.035478663 -0.009755274 -0.005034627 -0.030538242
-0.030844359 -0.028459016 0.0033699137 -0.02533825 -0.040175237 -0.023581583 0.010212112 -0.005499724
0.00012802063 -0.04724382 -0.028848337 0.021025468 -0.10779 -0.021224266 -0.05623587 -0.007956813
-0.01777768 0.019770062 0.00792126 -0.0013580379 -0.029393189 -0.010478864 0.016189575 -0.021315198
-0.04977841 0.007875774 -0.061279856 0.08739194 -0.013967184 -0.23012628 -0.11413941 0.0087374
0.0044513084 -0.055808287 -0.035661083 -0.08766555 -0.037059326 -0.016444888 -0.016999887 -0.10059387
-0.11633292 -0.023355836 0.0059814467 -0.027571894 -0.024694875 -0.0158384 -0.03561214 -0.019632708
-0.07261748 -0.10811841 -0.0031573852 -0.021154553 0.014733543 -0.030337693 0.09565707 -0.05344744
-0.033136427 -0.09924618 -0.013783711 -0.012617661 -0.0047171554 0.010330613 -0.033660907 0.004646825
-0.24377123 0.0070780544 -0.0009148501 -0.04946813 -0.3016259 0.07635143 -0.06473055 -0.0017729227
-0.017018935 -0.0399893 -0.012636056 -0.01799507 -0.04363162 -0.11933522 -0.05484255 0.0031471923
-0.046433598 0.013083533 -0.03441837 -0.0100047635 0.01600574 -0.045049768 -0.024745958 -0.01633425
-0.040908255 0.0036499852 -0.00048626092 -0.10863006 -0.0133782355 0.002579468 0.04050912 -0.032457173
-0.028866276 -0.040238544 -0.00513086 0.0030854226 -0.017335093 -0.010659346 -0.01364785 -0.036173537
-0.00048075424 -0.029546907 -0.29538354 -0.041371763 -0.043100655 -0.057593536 -0.0069945557 0.058702637
-0.027700968 0.003907267 -0.027364243 -0.10497246 -0.010443863 -0.17782383 -0.11718284 -0.08430151
0.009244792 0.0014309566 -0.29657784 -0.016151808 -0.019601382 -0.05264396 -0.048962552 -0.028880531
0.053087015 -0.10204843 0.0010149066 -0.0062429174 0.040998355 -0.048720863 -0.31587845 -0.018339483
-0.027016217 -0.06528748 -0.036536854 -0.111808784 -0.011876515 -0.010771959 0.013011459 -0.053728204
0.0105828745 0.0034320778 0.015711112 0.009786097 -0.017234407 -0.058576338 -0.0474794 -0.05029285
-0.007965931 -0.0043157027 -0.034267936 -0.019292453 -0.011297662 -0.04828472 -0.018499367 -0.0077833487
-0.013474517 -0.024368353 -0.026651489 -0.0037705833 -0.15635458 0.009599644 -0.005254159 -0.031890083
-0.055383872 -0.01803514 0.018402645 -0.13968985 -0.07956409 0.016329143 -0.004681294 -0.057706725
-0.0054757395 -0.034802742 0.013338561 -0.0035035068 -0.004384382 -0.022660375 -0.025015952 -0.01915236
0.0037783938 -0.0045860223 -0.05270332 -0.29166105 -0.002336627 -0.015259644 -0.048033178 -0.014121134
-0.013636184 -0.12689266 -0.02709441 0.010002402 0.010657098 -0.023364346 0.0008942408 -0.0029320705
-0.09458703 0.06806848 0.01479016 0.03562017 -0.011970379 -0.042568665 -0.054341327 0.01012207
-0.14582348 -0.018915448 -0.07593209 -0.05948015 0.0072264993 0.05839154 -0.39447224 -0.07031559
00000000: dcae 45bd f02f 33bc 8a5a b2be e027 b3bc
00000010: 5d91 37bc 6607 dabc 7422 64bc b955 a1be
00000020: f111 3dbd 213a b9bb 79a5 f33b 9853 09be
00000030: f6ed 1bbc e744 d33b 1f55 b13b 2069 36bd
00000040: 3315 16be d0a4 11bd e468 d5bb 56b2 a3bc
00000050: d9bf dfbb 74cd 91bb 4d61 3bbd 6c95 06bc
00000060: 3201 11bd 16d1 08be 0204 d8bb 7546 82bc
00000070: 4754 dcbc 5819 aebd 91dc 23bc a0c2 fdbd
00000080: f41e 7c3a 9658 d23c 71a5 56bd 8d31 693d
00000090: 1352 11bd 96d4 1fbc 83f9 a4bb 562b fabc
000000a0: 4fad fcbc e222 e9bc c5d9 5c3b 2992 cfbc
000000b0: ca8e 24bd 2a2e c1bc b450 273c 0737 b4bb
000000c0: 473d 0639 bc82 41bd 5953 ecbc 9a3d ac3c
000000d0: 01c1 dcbd 83de adbc 9557 66bd 4b5d 02bc
000000e0: 7fa2 91bc d3f4 a13c 2cc8 013c 3100 b2ba
000000f0: fcc9 f0bc 8baf 2bbc 00a0 843c 369d aebc
00000100: 72e4 4bbd 6409 013c 9600 7bbd 8cfa b23d
00000110: 9ed6 64bc 39a6 6bbe ecc1 e9bd 5027 0f3c
00000120: 48dc 913b 3b97 64bd 5b11 12bd ff89 b3bd
00000130: 85cb 17bd 6eb7 86bc 5943 8bbc 2904 cebd
00000140: f43f eebd bd54 bfbc 0300 c43b 74de e1bc
00000150: e84c cabc 88bf 81bc 09de 11bd c6d4 a0bc
00000160: 79b8 94bd 2f6d ddbd 22ec 4ebb 504c adbc
00000170: f564 713c c186 f8bc dbe7 c33d b4eb 5abd
00000180: 10ba 07bd 9541 cbbd 13d5 61bc 4eba 4ebc
00000190: 5e92 9abb bb41 293c 05e0 09bd 6544 983b
000001a0: 2a9f 79be 06ef e73b 8dd2 6fba 189f 4abd
000001b0: b66e 9abe 235e 9c3d 7391 84bd 6a61 e8ba
000001c0: 4b6b 8bbc d2cb 23bd 7607 4fbc 666a 93bc
000001d0: 12b7 32bd 0666 f4bd 95a2 60bd 2041 4e3b
000001e0: 2831 3ebd 515c 563c 47fa 0cbd 05eb 23bc
000001f0: 781e 833c 1b86 38bd 09b8 cabc 68cf 85bc
00000200: 6a8f 27bd 9734 6f3b d6f0 feb9 7079 debd
00000210: 6330 5bbc 4b0c 293b e4ec 253d d0f1 04bd
00000220: f878 ecbc 2cd1 24bd c620 a8bb cd34 4a3b
00000230: 5302 8ebc 8aa4 2ebc 3b9b 5fbc b42a 14bd
00000240: be0d fcb9 5b0c f2bc 833c 97be 7075 29bd
00000250: 508a 30bd 33e7 6bbd 9632 e5bb 2d72 703d
00000260: 24ed e2bc 8808 803b fa2a e0bc cdfb d6bd
00000270: bd1c 2bbc 7317 36be 8ffd efbd 45a6 acbd
00000280: 7877 173c f08e bb3a 0dd9 97be cc50 84bc
00000290: 1493 a0bc 31a1 57bd f58c 48bd dd96 ecbc
000002a0: c571 593d c4fe d0bd 9d06 853a 6391 ccbb
000002b0: e4ed 273d 878f 47bd d2ba a1be af3c 96bc
000002c0: 1d51 ddbc 71b5 85bd aba7 15bd 01fc e4bd
000002d0: b795 42bc df7c 30bc 042e 553c 1b12 5cbd
000002e0: cb63 2d3c b6ec 603b 97b4 803c de55 203c
000002f0: 2c2f 8dbc beed 6fbd c279 42bd e0ff 4dbd
00000300: 8983 02bc bd6a 8dbb 895c 0cbd 350b 9ebc
00000310: d419 39bc 33c6 45bd fc8b 97bc 760b ffbb
00000320: 38c4 5cbc 24a0 c7bc 3954 dabc e41b 77bb
00000330: 6a1b 20be d347 1d3c 152b acbb 2d9f 02bd
00000340: 33da 62bd 6ebe 93bc 25c1 963c db0a 0fbe
00000350: 7ff2 a2bd b2c4 853c 8a65 99bb e35d 6cbd
00000360: d56d b3bb 528d 0ebd fb89 5a3c 179b 65bb
00000370: ddaa 8fbb 40a2 b9bc 41ee ccbc 69e5 9cbc
00000380: ee9e 773b 5846 96bb 70df 57bd 9954 95be
00000390: 1922 19bb 9603 7abc 70be 44bd 545c 67bc
000003a0: 4d6a 5fbc 26f0 01be 19f5 ddbc 1de1 233c
000003b0: 1c9b 2e3c 9666 bfbc 7c6b 6a3a fb27 40bb
000003c0: d8b6 c1bd 7d67 8b3d 6d52 723c 75e6 113d
000003d0: 691f 44bc 7b5c 2ebd 0395 5ebd 0ad7 253c
000003e0: c052 15be 92f4 9abc 4982 9bbd 75a1 73bd
000003f0: 45cc ec3b f82b 6f3d 44f8 c9be 9f01 90bd

critic_linear.weight f4 [1, 256]
0.00060234225 -0.08298152 -0.0948564 0.0023964774 0.0014194023 0.0011880951 -0.0015829217 -0.04943321
-0.0016879883 -0.0006551148 8.218415e-05 0.089647315 -0.0013483816 -0.001979233 -0.0007894415 -0.0033360748
0.010720597 -0.0016059888 -0.0020753965 -0.0010710976 0.0015693894 0.0015782021 -0.0012092066 0.0005333633
0.0025536083 0.0071873195 -0.0009428003 -0.0025454692 0.001129294 0.056339715 -0.0020288138 0.002595581
-0.00082125224 -0.0005978728 0.005672915 0.0020294047 -0.0004323826 -0.0010184153 0.00052479305 0.00095971604
-0.000832448 0.0011700643 -0.002913605 -0.002659999 -0.0007975192 -0.00024925004 0.051093306 0.0005396842
-8.115893e-05 -0.0011869142 -0.0010927799 0.0005372618 -0.003767584 -0.0009561874 -0.0014190068 0.00078980764
-0.0010864013 -0.00015890459 0.0002713193 -0.00038238504 -0.011672576 0.0018359716 0.00018207903 -0.00043686738
-0.0009520788 -0.0011686282 -0.00065515575 0.033396047 -0.0037056198 -0.01824946 0.001132489 -1.3190745e-05
-0.0025636454 0.04132383 -0.002330988 0.0112216305 -0.0019650254 -0.0011757143 0.001766445 0.035065584
0.00049210864 -0.0029088994 0.0009148438 -0.0015283525 -0.000102348466 -0.0014625946 -0.0010918757 0.0011606731
0.044251163 0.017774351 0.00087930204 -0.0021443665 -0.00069653743 0.0018416703 0.011391976 -0.0022574111
0.0021257952 0.071230344 -0.00040418992 -0.0023191664 -0.0005237743 -0.0007611772 -0.00015476861 -0.0017265171
-0.041377332 0.0014620374 -0.0012747686 0.017139101 -0.06585987 0.03914698 0.0033696392 0.0010432805
-0.0009880675 0.0007124415 7.4898606e-05 -0.0015018914 0.0010610886 -0.0010693907 0.00017394917 0.00060594856
-0.003563254 -0.00095999194 -0.0017214802 -0.0005011867 7.929341e-05 -0.002733251 -0.001968237 -0.00063954864
-0.0097765345 0.0018090071 0.0017468263 -0.00025440977 0.01746943 0.00089078356 0.049518608 0.0005050208
-0.0015916757 -0.008879319 -0.0016756372 0.001285189 -0.00042113924 -0.00042778338 -0.0006650421 -0.0008588384
-0.002323555 -0.0016640908 -0.048009403 4.1679334e-05 -0.0017640843 0.0027993105 -0.0019267886 -0.0016106727
0.0017709356 0.0015791463 0.0011864612 0.010780014 -0.0005567672 -0.009822103 0.0013390081 0.009914284
-0.0013133226 0.00043413608 -0.041095868 -0.0032892385 0.0004406455 0.014696926 0.00019066245 -0.0017553606
-0.00081499777 0.0067427144 -0.001030862 0.0017321322 -0.00038163198 0.00019388378 -0.07840924 0.000591783
-0.00014965235 0.032319613 -0.00043401396 0.0423815 0.0012521057 -0.0006694712 0.0010621364 -0.002592032
0.001120905 -0.0010963588 -0.002983214 -0.00073119474 -0.0010568803 0.014064085 -0.005781817 -0.0010381003
5.537411e-05 -0.0015406302 -0.0019451816 0.00042824235 -0.0017182362 -0.015391371 -0.0012984152 0.0019073903
-0.0015631265 -0.0032249512 0.0040193535 0.0013390378 0.040038545 -0.002611551 -0.000114237104 0.0004072815
0.002117039 0.0014948266 -0.000724425 0.00024834645 0.041803982 0.002766512 0.00031269813 0.0010219022
-0.0006244321 -0.00063545414 -0.0009089162 -0.00053445925 0.0022347714 -0.0001295115 0.0030550032 -0.0007534407
0.0004611281 0.00013409427 0.0041233357 -0.046001457 0.00046307108 0.002001655 -0.0010465105 0.0014444276
-0.0005663919 0.0010234464 -0.00079365826 -0.001042598 -8.3699226e-05 -0.00071136956 -0.0009394573 -0.001511991
-0.004429555 0.037635628 0.00069389713 0.006809275 0.00011008639 -0.0021315368 0.0022801335 0.0020044562
-0.0045691403 0.00019748605 0.0026957064 -0.002850492 0.0017012382 0.023115473 -0.087162845 0.0002602936
00000000: 81e6 1d3a 37f2 a9bd 1244 c2bd 380e 1d3b
00000010: 3d0b ba3a dbb9 9b3a 0a7a cfba 7a7a 4abd
00000020: 7d3f ddba 03bc 2bba 485a ac38 0399 b73d
00000030: 2ebc b0ba 05b6 01bb 86f2 4eba 0ca2 5abb
00000040: 71a5 2f3c 0b80 d2ba 6003 08bb 1264 8cba
00000050: f8b3 cd3a addb ce3a 3e7e 9eba 68d1 0b3a
00000060: 705a 273b 9b83 eb3b 4226 77ba e3d1 26bb
00000070: d204 943a 79c4 663d d9f5 04bb a01a 2a3b
00000080: 4e49 57ba 90ba 1cba dce3 b93b c3ff 043b
00000090: 69b1 e2b9 597c 85ba 4492 093a 7495 7b3a
000000a0: a438 5aba d85c 993a 2ef2 3ebb 6153 2ebb
000000b0: 9c10 51ba c6ad 82b9 3747 513d 9879 0d3a
000000c0: de33 aab8 3b92 9bba 9c3b 8fba 07d7 0c3a
000000d0: 92e9 76bb a6a8 7aba f8fd b9ba 180b 4f3a
000000e0: 9465 8eba a09f 26b9 dc3f 8e39 da7a c8b9
000000f0: 553e 3fbc fca4 f03a 78ec 3e39 590b e5b9
00000100: ed94 79ba a82c 99ba c2be 2bba 4bca 083d
00000110: fcd9 72bb e47f 95bc 0670 943a d24d 5db7
00000120: d502 28bb 2d43 293d 7dc3 18bb eeda 373c
00000130: a8c7 00bb 6d1a 9aba 0f88 e73a eea0 0f3d
00000140: da00 013a 3ca3 3ebb 21d2 6f3a 0053 c8ba
00000150: eaa3 d6b8 88b4 bfba 451d 8fba ba21 983a
00000160: b540 353d 849b 913c f680 663a 8088 0cbb
00000170: d697 36ba 3364 f13a 69a5 3a3c 13f1 13bb
00000180: ed50 0b3b 37e1 913d 74e9 d3b9 28fd 17bb
00000190: e64d 09ba bd89 47ba 6249 22b9 4d4c e2ba
000001a0: 477b 29bd d6a1 bf3a 2316 a7ba 4d67 8c3c
000001b0: 8ae1 86bd 9558 203d 2ad5 5c3b afbe 883a
000001c0: 0b82 81ba 24c3 3a3a e212 9d38 1ddb c4ba
000001d0: 3a14 8b3a cc2a 8cba 2066 3639 85d8 1e3a
000001e0: 7b85 69bb f8a7 7bba 4aa3 e1ba 1262 03ba
000001f0: 534a a638 5820 33bb 8afd 00bb 62a7 27ba
00000200: c22d 20bc 351c ed3a c4f5 e43a 4d62 85b9
00000210: 0d1c 8f3c 7983 693a 06d4 4a3d 5f63 043a
00000220: c69f d0ba 907a 11bc 0ea1 dbba c973 a83a
00000230: 5acc dcb9 1d48 e0b9 3856 2eba ab23 61ba
00000240: c946 18bb 9f1d daba 82a5 44bd d8d0 2e38
00000250: d938 e7ba a374 373b 4c8c fcba 351d d3ba
00000260: bd1e e83a 5bfb ce3a 0883 9b3a a89e 303c
00000270: 04f4 11ba e3ec 20bc a881 af3a 856f 223c
00000280: cb23 acba c29c e339 2454 28bd 4490 57bb
00000290: 7006 e739 60cb 703c 90ec 4739 2114 e6ba
000002a0: 93a5 55ba fdf1 dc3b fd1d 87ba b608 e33a
000002b0: c715 c8b9 484d 4b39 0695 a0bd e321 1b3a
000002c0: ffeb 1cb9 9261 043d 5e8c e3b9 3998 2d3d
000002d0: b21d a43a 747f 2fba 6237 8b3a 15df 29bb
000002e0: 55eb 923a b2b3 8fba 0782 43bb a6ad 3fba
000002f0: 0587 8aba 0c6d 663c 6575 bdbb de10 88ba
00000300: 7f41 6838 f9ee c9ba 77f5 feba b785 e039
00000310: 7136 e1ba 172c 7cbc 962f aaba 6601 fa3a
00000320: d2e1 ccba b459 53bb c8b4 833b a782 af3a
00000330: 75ff 233d 8e26 2bbb 9492 efb8 6688 d539
00000340: 05be 0a3b 0fee c33a 57e7 3dba 7f34 8239
00000350: a73a 2b3d 5f4e 353b a2f1 a339 59f1 853a
00000360: eeb0 23ba 9b94 26ba 5544 6eba f41a 0cba
00000370: 3e75 123b 7bcd 07b9 7336 483b 8d82 45ba
00000380: 91c3 f139 a89b 0c39 0c1d 873b 066c 3cbd
00000390: 59c8 f239 332e 033b 112b 89ba f352 bd3a
000003a0: eb79 14ba 2a25 863a 810d 50ba c9a7 88ba
000003b0: ae87 afb8 347b 3aba ea45 76ba 002e c6ba
000003c0: cd25 91bb d127 1a3d a6e6 353a 5720 df3b
000003d0: 2ede e638 41b1 0bbb 4b6e 153b 325d 033b
000003e0: bab8 95bb 4214 4f39 73aa 303b 52cf 3abb
000003f0: 15fc de3a a95c bd3c 6f82 b2bd 0478 8839
