A3C-new/A3C-Pong&breakout-new/runs/BreakoutNoFrameskip-v4/2022-11-03_16-23_Second80MSteps_OK/model_sam_BreakoutDeterministic-v4_conv.58.tar (torch, 944955 bytes, 13 tensors)

conv1.weight f4 [32, 4, 3, 3]
000000 be e0 13 3e a0 66 03 bf 2b e6 59 be 68 65 33 3e
       0.14441201 -0.5132847 -0.21279208 0.17519152
000010 0c 8d 34 be c4 0b 95 3e 34 25 13 3e 8d 06 40 3e
       -0.1763193 0.2911054 0.1436966 0.18752499
000020 20 99 32 3e d6 5a b8 3d ef 83 46 3d 3d 84 70 3c
       0.17441225 0.090017006 0.048465665 0.014679966
000030 8f 46 3f 3e b2 cd 85 bd 74 e1 f3 3d e2 95 f0 3d
       0.1867926 -0.06533374 0.11908236 0.11747338
000040 a3 66 fa 3d 24 0e 7f 3e 0f 3d 07 3e 0a 0e 5a 3e
       0.12226608 0.24907738 0.13206886 0.21294418
000050 3c cb 65 3e 1b 92 9b be dc 6e 36 38 cb 65 58 3e
       0.22440809 -0.30384907 4.3495427e-05 0.21132581
000060 19 a8 cc bc a7 26 2a be c6 f5 01 3d 63 78 c3 bc
       -0.024982499 -0.16616307 0.03172853 -0.023861116
000070 77 4d 86 be de 60 11 3e 96 ba 8a be 19 c2 0e be
       -0.26230976 0.14197108 -0.2709548 -0.1394123
000080 70 db 2e 3e 65 d0 66 be 20 e8 f5 be 9a 93 58 be
       0.17075896 -0.22540434 -0.4802866 -0.21150056
000090 aa 5a 2b 3e 9a 0c e3 bd 50 a4 f5 bd 26 61 38 3d
       0.16733804 -0.11086388 -0.11994231 0.045014523
0000a0 71 83 02 3f 1a 43 8b be c7 20 af 3e cc 13 bd 3e
       0.50981814 -0.27199632 0.34204695 0.36929166
0000b0 34 c3 e7 be 9e 09 eb 3d a5 df 1f 3e 55 c0 a7 bd
       -0.45266116 0.11476444 0.15612657 -0.08190981
0000c0 97 62 7b 3d 55 4a 00 3f 48 36 a6 be b2 4f 85 3d
       0.06137332 0.5011342 -0.32463288 0.06509341
0000d0 fd b5 e9 3e 4a 5b 90 be 5a 3f e6 3d dd e0 62 3e
       0.4564666 -0.28194648 0.11242552 0.22156091
0000e0 6c 5f b5 bd 39 ea 4d be 74 0f 01 3f a3 2f 47 bb
       -0.08856091 -0.2010888 0.50414205 -0.0030393384
0000f0 5b bc 7a be b6 97 b6 3e 37 39 03 bd 9f e4 9c bc
       -0.24485914 0.3566262 -0.032036986 -0.019151984
000100 9d 56 a9 be 6b 31 32 be 39 94 9c be 5d 90 0b be
       -0.33073893 -0.17401664 -0.30581835 -0.13629289
000110 7c cc 86 be 80 ef 93 be 23 30 0d be bd 7d 55 be
       -0.26327884 -0.28893661 -0.13787894 -0.20848747
000120 05 80 a1 3d e9 b1 84 3d fd 74 fb bc 18 73 e8 3d
       0.07885746 0.06479246 -0.030695433 0.113500774
000130 45 e9 60 3d 21 e1 c6 bd 47 fe e3 bd 00 ae 61 3e
       0.054909963 -0.09710909 -0.11132484 0.22039032
000140 dc 52 98 bd a7 cb 01 3e b4 7c 0c 3d 5e 3d 4a be
       -0.07437679 0.12675343 0.034298614 -0.19749972
000150 d8 95 da 3e 71 20 76 be dc 25 11 bf 74 1c c5 3d
       0.42692447 -0.24035813 -0.56698394 0.09624568
000160 29 b7 8e bd 7f d7 30 bc d6 c7 7a 3e 0d a8 57 be
       -0.06968529 -0.010793566 0.24490294 -0.210602
000170 95 3f 2f be 46 eb 01 3f e8 f0 68 be cb 26 06 bf
       -0.17114098 0.50749624 -0.22748148 -0.52402943
000180 d3 d5 ee 3d b3 19 95 3d 6c e1 79 be ab ce d5 3d
       0.116618775 0.07280292 -0.24402398 0.104398094
000190 25 53 cc 3d fa c9 32 be 4d 19 90 3e 2a a1 02 3e
       0.09976796 -0.1745986 0.28144303 0.12756792
0001a0 a8 67 69 be e5 a3 0f be 9f 3d 75 3e 39 9e 71 bd
       -0.22793448 -0.14027365 0.23949288 -0.058988784
0001b0 3a d8 b7 3e e9 3b 33 3e 27 a2 4a 3e 7c b0 b4 3e
       0.35907155 0.17503323 0.19788419 0.35290897
0001c0 26 96 1c 3f 8f d9 8f 3d 64 5f 3c 3e 15 eb de 3e
       0.6116661 0.07023918 0.18395764 0.43538728
0001d0 41 91 10 3e 6c 72 d6 3d d4 11 25 be 86 cd 56 bc
       0.1411791 0.10471043 -0.16120082 -0.013110524
0001e0 eb 7c 0e bd 2f ba 99 3e 11 e9 bc 3e 4c 8c 82 bd
       -0.0347871 0.3002486 0.36896566 -0.06374416
0001f0 71 43 57 3e 37 24 3e 3c 58 a0 9c be 13 f3 bc be
       0.2102182 0.011605314 -0.30591083 -0.369042
000200 81 c4 ed 3d db db 03 be 8a 0a bb be 1a f7 d1 bd
       0.11609746 -0.12876837 -0.36531478 -0.10252209
000210 e0 a4 20 3c ed a3 4e bd 22 47 32 bd 97 b3 a3 b9
       0.009804934 -0.0504493 -0.04352487 -0.00031223588
000220 c9 62 4a be 2f ee 99 bc 11 b6 b9 be ff c0 01 bf
       -0.19764246 -0.018790333 -0.36271718 -0.50685114
000230 9b 82 90 be 52 0c 3e be 06 1a ce be 6e a5 55 be
       -0.28224644 -0.18559387 -0.4025423 -0.20863888
000240 fe 22 5a 3d 85 03 d7 bc 58 8c 0e 3c b7 d0 47 3e
       0.053256027 -0.026246795 0.008700453 0.19513212
000250 e5 6f f9 3e 88 0d 93 3e b5 62 6c 3b c7 2d 69 3e
       0.4871818 0.2872126 0.0036069576 0.22771369
000260 85 74 3b 3e b9 99 31 be 52 e4 23 bf 15 8a af be
       0.18306167 -0.17343797 -0.64020264 -0.34285036
000270 0c c3 ec be 1b 76 f8 be 3a 3a c9 be e2 fa 1f be
       -0.4624256 -0.48527607 -0.39302236 -0.15623048
000280 d1 61 9f be 6f e0 8c bd 16 1c 0c 3e 88 98 2a 3e
       -0.31129315 -0.06878745 0.13682589 0.16659749
000290 66 15 4d bc 47 01 39 be 41 78 97 be 02 19 18 be
       -0.012517309 -0.18066894 -0.29583934 -0.1485329
0002a0 53 62 03 be 12 21 a4 be ad 43 03 be 5b 04 64 3e
       -0.12830476 -0.3205648 -0.12818785 0.22267286
0002b0 bc 91 c6 3e 52 88 0d 3e d0 7b 52 3e a0 d7 16 3f
       0.38783062 0.13821533 0.20555043 0.5892277
0002c0 e7 e1 a1 3e 0c 8a 5e 3e 37 9b aa 3d fd 67 94 3e
       0.31617662 0.21732348 0.08330386 0.28985587
0002d0 a3 ab a1 bd e7 b3 5e be 0f 8a 36 be ba 4d c1 be
       -0.07894065 -0.21748315 -0.17826103 -0.37754613
0002e0 55 ff ee be 29 74 9f 3b c3 7c e6 be 6c 29 ce be
       -0.46679178 0.0048661423 -0.4501706 -0.40265977
0002f0 7f 13 89 bd d7 09 89 3d d3 d3 f5 3d 30 8e 3a bd
       -0.06693172 0.0669133 0.12003293 -0.045545757
000300 12 27 fa bb f0 c8 11 3e 9e 4e fa 3d f2 fe 33 be
       -0.007634052 0.14236808 0.12222026 -0.17577723
000310 a4 56 f7 bc ea fd 68 3d 94 3b 91 3e 26 c8 12 be
       -0.03019268 0.056882776 0.28365767 -0.14334163
000320 47 2d 55 bd 34 45 16 3e 36 44 ba 3e 5a 59 1f 3d
       -0.052045133 0.14674836 0.36380166 0.03890357
000330 94 e6 9a 3e de 28 31 3e e6 d4 d7 3b 08 c0 df 3d
       0.30254042 0.17300746 0.006586659 0.10925299
000340 6b 03 02 3e 0f c1 0b 3d bc e2 fb 3c df f0 0f 3e
       0.12696616 0.034119662 0.030747764 0.14056729
000350 f5 9a 31 be c2 55 64 3e f2 7b 8b 3e ba b7 66 3e
       -0.17344268 0.22298339 0.27243 0.22531024
000360 bc 74 21 3e af bd 5a bd ca da 01 3d 57 01 3f 3e
       0.15767187 -0.053403553 0.031702794 0.18652855
000370 17 cb c5 bd dd dc 47 bd 26 e4 eb bd 28 a2 46 bc
       -0.09657877 -0.048794616 -0.11518125 -0.012123622
000380 61 70 85 bd 8f d0 c5 3d d8 83 e9 3e 6f af 8f 3e
       -0.06515575 0.0965892 0.456084 0.28063533
000390 18 db 03 3f 0c e2 55 3f 2d 0a 32 3d fa 40 a2 bd
       0.51506186 0.83548045 0.043466736 -0.079225495
0003a0 4c 99 a5 3e 83 d6 10 be 4d b9 60 be d1 26 dc 3b
       0.3234352 -0.1414433 -0.21945687 0.0067184945
0003b0 61 30 5d be 81 65 4b 3e 00 69 b4 3e 90 c4 e6 be
       -0.21600486 0.1986294 0.3523636 -0.4507184
0003c0 87 15 fa bd cc 02 64 3e 38 66 1a bd 30 b9 86 be
       -0.12211137 0.22266692 -0.03769514 -0.26313162
0003d0 82 bf 99 be 6e 29 0f be 2d 97 ed be 94 69 03 bf
       -0.3002892 -0.13980648 -0.464044 -0.51332974
0003e0 b9 e8 d8 be 78 c2 aa 3d c8 4d fb 3c 6b 07 d0 bd
       -0.42365053 0.08337873 0.030676737 -0.10157665
0003f0 c7 d9 d5 3d 88 dd 5a 3e 52 e2 8a 3e 92 3b bc 3c
       0.10441928 0.2137357 0.27125794 0.022977624

conv1.bias f4 [32]
000000 0b f6 41 3b d2 c9 1c 3b a3 75 e1 3b 1c e0 31 3a
       0.0029596116 0.0023924005 0.0068804785 0.0006785409
000010 cd 3f 4b 3a d0 35 84 ba 72 ed 0c 3c fb 9c 07 3b
       0.00077533425 -0.0010086838 0.008601533 0.0020692933
000020 99 9d 55 bb dd 73 93 3b ab ca ac b9 8d 92 a8 3b
       -0.0032595156 0.004499896 -0.00032957396 0.0051444233
000030 49 1a 06 3c c4 4f cc 39 d3 22 dc b8 7e cd 2a 3c
       0.008184978 0.00038969342 -0.00010496904 0.01042497
000040 92 5a 8a b9 a4 3b 21 3b b3 52 7e 3b 4a 5c 0a 3c
       -0.0002638889 0.00246022 0.0038806617 0.008444855
000050 a1 5b 13 bc d5 9c d3 38 5d 18 2d bb 90 0c b5 bb
       -0.008994014 0.00010090476 -0.0026412227 -0.005525179
000060 ae 4a d7 3b 2f 68 1c 3b 98 c1 fd 3a 43 84 ab 3b
       0.006570182 0.002386581 0.0019360064 0.0052342727
000070 ef 6f 76 b9 96 ec 46 3c b9 1b 02 bc ea 0e 88 3b
       -0.00023502087 0.012141367 -0.00794118 0.0041521685

conv2.weight f4 [32, 32, 3, 3]
000000 ec 41 14 3e cb 5e d3 bd bf 26 d7 3d b0 7b f8 bd
       0.14478272 -0.10320815 0.10505437 -0.121329665
000010 84 11 d4 3d 55 b5 81 3e 7b 2a df 3c 69 b6 8c 3d
       0.10354903 0.25333658 0.027241936 0.068707295
000020 43 bf 74 be 90 29 31 3e 34 66 ad be 7a 6a 2a 3e
       -0.23901086 0.17301011 -0.33867037 0.1664218
000030 a4 dd 4c 3e ef 67 63 be a3 b9 33 3e c0 ca df bd
       0.20006424 -0.22207616 0.17551284 -0.10927343
000040 85 9c 1c 3e b1 61 6c bc 89 d6 0e bd 6f 14 f8 3c
       0.15294082 -0.014427588 -0.034872565 0.030283181
000050 58 a7 31 bd 72 90 14 3e b1 f5 8b 3d 76 f2 0f bf
       -0.043372482 0.14508227 0.06833971 -0.5622934
000060 d1 b5 0a be 0d 37 d3 3c 23 42 b5 3e 02 f8 4a 3e
       -0.1354592 0.025783086 0.3540202 0.1982117
000070 33 49 e1 bd d8 23 22 3e 7b 9a 28 3e c8 3f cc 3d
       -0.1100029 0.15833986 0.1646518 0.09973103
000080 f5 08 aa 3e a1 ea a8 3d 72 4e 51 3e 6b 03 87 be
       0.3320996 0.08247877 0.20440081 -0.26369795
000090 2c dc 33 bd 7b 76 3e bd 7d e9 7b be 90 1c 22 bc
       -0.043911144 -0.04649971 -0.24600787 -0.009894505
0000a0 d0 95 3a be 98 d1 3b be 20 84 09 3c 05 3e 3e 3d
       -0.18221211 -0.18341672 0.008393317 0.046445865
0000b0 b4 69 a0 bd f0 18 98 be 89 92 5b 3e 53 47 f7 bd
       -0.07832661 -0.29706526 0.21442617 -0.12074151
0000c0 48 3b 34 3c bb 8d 0e 3d 1c 40 c0 3d 49 2a 74 3d
       0.011000462 0.034803133 0.09387228 0.05961064
0000d0 2f ed b9 3d e8 c1 58 be a3 63 71 3c 72 4b 36 be
       0.09078442 -0.2116772 0.014733228 -0.17802218
0000e0 49 2d 1c 3e f3 1d 74 3e 78 41 33 bd db 27 6e 3e
       0.1525165 0.2383955 -0.043763608 0.23257391
0000f0 d7 14 2c be 19 81 8e bd 8f d6 9b bd 15 6e 28 be
       -0.16804825 -0.06958217 -0.07609283 -0.16448243
000100 f5 2c 84 3d 06 31 67 3e a0 01 70 be 73 e1 56 3e
       0.064538874 0.22577295 -0.2343812 0.2098444
000110 88 5a 5d 3e cb 4d 36 bd 8e f7 1b 3e be af 39 be
       0.21616566 -0.044507783 0.15231153 -0.18133447
000120 07 c8 8b bc 9c a0 55 bc 41 54 1d 3d cf 9c 38 be
       -0.017063154 -0.013038781 0.03841043 -0.18028568
000130 7e d7 00 be 71 9c 5c 3e b7 8d 4c 3d ba d0 21 bd
       -0.12582204 0.21544053 0.049939837 -0.039505698
000140 60 51 4d 3d 5d ac 5f 3c 1d 21 c3 3d fb 1e 9d be
       0.050126433 0.013651934 0.095278 -0.306877
000150 23 d6 8a be 68 a8 8b be 33 d8 ff be 4a 0a 6f bb
       -0.27116498 -0.2727692 -0.49969634 -0.0036474639
000160 f6 98 a6 3c 4b a8 dd 3e 00 5e 9c bd 84 10 12 be
       0.02033661 0.4329246 -0.076351166 -0.14264113
000170 20 61 39 3d 74 d9 00 be 48 cd b5 3d 4e 0f 8f bd
       0.04525864 -0.12582952 0.08877045 -0.06985341
000180 f7 8e 1d bd 99 87 38 3e bd 82 dd bd f1 d0 18 be
       -0.03846642 0.18020476 -0.10815952 -0.14923455
000190 42 91 6c 3d a9 52 db 3d 25 51 c6 3d 0c 53 e5 3d
       0.057755716 0.107091255 0.09683446 0.111974806
0001a0 9c 0c f0 be 8c 28 b1 bd 09 4c 21 3e cd 53 9a 3a
       -0.4688462 -0.08650312 0.15751661 0.0011774242
0001b0 be 25 3b 3d ca d0 ac 3c 95 af 3f 3e 67 57 b6 ba
       0.04569029 0.021095652 0.18719323 -0.0013911546
0001c0 0e c5 89 3d dd 84 84 3e ea 67 b7 bd 96 8f 50 bd
       0.06727038 0.25882617 -0.08955367 -0.050918184
0001d0 8e 28 6c 3d be ae 29 3e cb 55 83 3e 18 57 95 3e
       0.057655863 0.16570565 0.25651392 0.2916801
0001e0 f9 14 84 bd 14 96 24 be 92 d0 9c 3e ce 61 1d 3c
       -0.06449313 -0.16072875 0.30627877 0.009605838
0001f0 b9 68 25 be d1 6e 0d bd 3f 69 5a 3e 8f 7c 8f 3d
       -0.1615323 -0.03452951 0.2132921 0.070061795
000200 49 e2 89 be 89 b6 4d 3d 2e 7c d7 3c 11 56 74 be
       -0.26930454 0.050222907 0.02630433 -0.23860957
000210 5b 16 ce bd 98 c6 bf 3d 5e 3c 87 3d a6 bd 33 3e
       -0.10062858 0.093640506 0.06603311 0.17552814
000220 51 57 43 bd f0 e2 15 3d 1c 0a 80 3d 14 54 9e 3d
       -0.047690693 0.036593378 0.06251928 0.077308804
000230 28 f2 37 be 91 a3 e9 3d e7 76 fc bc 01 75 af bd
       -0.17963469 0.11408151 -0.030818416 -0.085672386
000240 f2 98 52 be 49 28 95 3c 6f 91 76 3c 0f 69 5f 3d
       -0.20566157 0.018207686 0.0150493225 0.05454355
000250 7d e5 72 be 2d f9 e9 3d fc 59 a1 bb 84 a5 30 3e
       -0.23720355 0.1142448 -0.004924057 0.17250639
000260 44 ae 86 bd 80 d0 fc 3c 7b ba 3e 3c b2 e2 0d 3e
       -0.06576207 0.03086114 0.01164114 0.13856009
000270 da 63 2b bd c0 a1 74 3c fe c0 93 3d ea 5f 38 bc
       -0.041843273 0.014931142 0.07214545 -0.011253336
000280 f7 aa 5f be 1b 94 3a 3d 11 8d 89 3e 6a d6 cf 3c
       -0.21842562 0.0455514 0.26865438 0.025370795
000290 a4 0d b6 bc bb 09 29 3d d4 29 d1 bd f2 10 46 bd
       -0.022223301 0.041269045 -0.10213056 -0.048356004
0002a0 c8 61 94 be cf 4a 82 3c 0d 53 08 bd a3 bb 8d 3c
       -0.2898085 0.015904812 -0.03328233 0.017301386
0002b0 ae c3 66 3c 2c 62 91 be 55 76 cd 3c 52 fa b0 3d
       0.01408474 -0.28395212 0.02508084 0.08641495
0002c0 37 58 c0 be 0c 70 75 bd 27 53 46 3d 23 72 7e 3e
       -0.37567303 -0.05992131 0.048419144 0.24848227
0002d0 e1 77 62 3d 98 15 a9 3d 3e 15 36 3e 2f ea 58 be
       0.055290107 0.08256072 0.17781541 -0.21183084
0002e0 52 6d 23 3e 83 7c 20 3f b3 4f 9c bd d2 e4 ab 3d
       0.15959671 0.6268999 -0.07632389 0.083932534
0002f0 62 15 8c be ba ef 0f 3e b5 8c 86 3d b3 61 5e 3e
       -0.27360064 0.14056292 0.065698065 0.21716957
000300 10 a2 06 3e ff 53 10 3e 8d 0b 20 3c 2b 66 b2 bd
       0.1314776 0.14094542 0.009768379 -0.08710893
000310 b7 e7 5e bd d6 93 6f 3d e8 ce 18 3e 56 22 05 bd
       -0.0544202 0.058490597 0.14922678 -0.03250345
000320 98 34 49 3d 84 d3 ce be 02 ad 38 3e c1 df 0d 3e
       0.049122423 -0.4039575 0.18034747 0.13854887
000330 e2 37 8f 3d 59 59 70 bd 92 b4 27 bd be 9f 92 3d
       0.06993081 -0.05867896 -0.04094369 0.07159375
000340 06 cc 67 be 5e 9b 12 3e 75 81 37 be a2 5d d0 3e
       -0.22636423 0.1431708 -0.17920478 0.40696436
000350 bc 80 86 be 69 31 ac bd d7 5d 58 be 7f 09 a2 3e
       -0.26270092 -0.08407862 -0.21129547 0.3164787
000360 39 5f 4c be 0b 37 55 3d 72 9d ca bd 42 8c 91 3d
       -0.199582 0.052054446 -0.098933116 0.0710683
000370 80 92 18 3e c9 ee 0a 3e 46 1a e6 3d de 78 c9 bd
       0.14899635 0.13567652 0.1123548 -0.09837507
000380 94 c5 c7 bd e0 bd 57 3e de 5d ed 3e 76 7f 20 3a
       -0.09754482 0.21068525 0.46360677 0.0006122509
000390 93 77 9b be d8 5c 2b 3e 8a 22 c6 bd 34 8e 71 3c
       -0.30364665 0.16734636 -0.096745566 0.0147433765
0003a0 7e cb b7 bd 13 34 6c be 47 d5 9d bb 93 ce 07 be
       -0.0897436 -0.2306674 -0.0048166844 -0.13262396
0003b0 f7 95 67 be df 8b 86 be 5b 63 3d bb a5 b5 51 3e
       -0.22615801 -0.26278588 -0.0028898332 0.20479448
0003c0 cd ff 9b 3d 19 43 be 3d 5f d0 42 be e8 b4 a2 3d
       0.076171495 0.092901416 -0.190248 0.079446614
0003d0 e2 bf 02 3e 28 9e 01 bd 1c 10 59 be bf 89 84 3e
       0.1276851 -0.03164497 -0.21197551 0.25886342
0003e0 30 fc c8 3e 91 ca c5 bc 3b 86 39 3e 82 f3 59 be
       0.39254904 -0.024144443 0.18117611 -0.21284297
0003f0 92 3e 15 3d c8 4d 43 be b3 fe f5 3c 37 78 15 bd
       0.036436625 -0.1907264 0.030028677 -0.0364916

conv2.bias f4 [32]
000000 97 55 aa bc f3 41 24 be 30 6b fc bb 26 4e 92 bc
       -0.020792766 -0.16040783 -0.0077032074 -0.01785953
000010 88 82 7c bd 8a ed b4 bc 9b 40 25 bc 39 df aa bd
       -0.06164792 -0.022085924 -0.010086204 -0.083433576
000020 f5 ff c6 bd b7 a2 08 be 06 f7 30 3b 1f c6 5f 3c
       -0.09716789 -0.13343321 0.0027002706 0.013658076
000030 04 95 b9 bc 0a 1c ee bd ce 59 78 bc c4 59 0b 3a
       -0.022654064 -0.11626442 -0.01515813 0.00053158053
000040 32 b3 44 3c ef ef ed bc ff ac 65 bd 32 b6 da bd
       0.012005614 -0.029045073 -0.056073185 -0.10679282
000050 c6 02 4c be 38 73 9e 3a cc c1 ca 3b eb 53 29 bd
       -0.19922933 0.0012088781 0.006187653 -0.041339796
000060 6b 46 f2 bd 8f a0 b0 3c 33 80 44 bc dd ad 03 3c
       -0.118298374 0.021560935 -0.011993456 0.008037058
000070 52 3a 8d 3a 1d 9d 7f bd 32 af 8e bd ce 8f 24 be
       0.0010774827 -0.062405694 -0.069670096 -0.16070482

conv3.weight f4 [32, 32, 3, 3]
000000 20 84 3d bd b4 8b 4e be fd 5d 8d be 27 32 75 bd
       -0.046268582 -0.2017048 -0.2761077 -0.059862282
000010 05 62 f5 3c 38 d7 a1 3d 4a 9e 34 bd 65 e6 d3 3d
       0.029953966 0.07902378 -0.04409627 0.10346679
000020 b4 77 0b 3d 84 8d 50 bd dd 05 73 3d f3 56 06 3e
       0.034049705 -0.05091621 0.059331764 0.13119106
000030 3c 51 8b 3d 0d 7a 8c be 7a da b4 be ea 96 57 bd
       0.068026036 -0.27436867 -0.35322934 -0.052634157
000040 77 d6 89 bd e6 25 18 bd bb be be bc 31 01 41 3d
       -0.06730359 -0.037145518 -0.023284307 0.047120277
000050 f3 49 0b 3d 6f 0d 04 3e fc 6c c0 bd 85 af 29 be
       0.03400607 0.1289575 -0.09395787 -0.16570862
000060 84 4e 18 3d f9 56 f8 bd 3f 9d e0 3d 24 e2 d9 3c
       0.037184253 -0.12125964 0.10967492 0.02659709
000070 d2 fb 17 bc 57 3e 12 3d 7e 36 a0 bd e8 44 0d bb
       -0.009276347 0.035703983 -0.078228936 -0.0021555964
000080 db b9 14 be 91 23 35 3e 03 21 c1 bd e7 af 12 3e
       -0.14524023 0.17689349 -0.094301246 0.14324914
000090 45 ae 2e 3e 20 4a bc bd 44 50 ba 3d df 14 6e 3d
       0.17058666 -0.09193826 0.09097341 0.058125373
0000a0 2d 07 02 3d 29 db 94 bb 0d 49 39 3d 65 5b 01 3e
       0.031745125 -0.0045427275 0.045235682 0.1263252
0000b0 b8 e9 38 3e f5 56 8f 3d 44 2b 96 3c 69 93 4f 3e
       0.18057907 0.069990076 0.018331178 0.20271076
0000c0 8c 41 d9 3d 3d 6b 10 3e b2 ae 08 bd 50 d2 70 bd
       0.10608205 0.14103408 -0.033369727 -0.05879432
0000d0 e8 49 0c bd fd 07 af 3d 95 a0 cd 3d 91 85 01 3e
       -0.03425017 0.085464455 0.10040394 0.12648608
0000e0 03 9f 65 3c d7 5f 2c bd cd 6b a4 3e d7 03 1d 3e
       0.014014962 -0.042083587 0.32113495 0.15333496
0000f0 91 de d6 bc 17 a9 79 be e2 8c 09 3d 08 37 b1 3d
       -0.026229175 -0.24380909 0.033581622 0.086530745
000100 cd 6b 1c ba f8 56 8e 3d eb 64 2b 3d c0 c6 c1 3d
       -0.00059669913 0.06950182 0.04184429 0.09461737
000110 78 cf 84 3e 33 32 66 bd c5 9c 8c 3d f9 36 15 be
       0.25939536 -0.056200217 0.06865839 -0.14571752
000120 b0 8f 9e 3d 57 a5 14 3e 0a 6f 94 bd 73 de e8 bc
       0.0774225 0.14516197 -0.072477415 -0.028426385
000130 e5 ac 5d 3e c1 ee 72 3e 9b e0 ad be 11 5c 3b bc
       0.21647985 0.2372389 -0.33960423 -0.011435525
000140 a2 e1 27 be c3 ec 0b be 0d a2 08 3d c9 24 c0 3a
       -0.16394666 -0.13664536 0.03335767 0.00146594
000150 97 e3 db bd 74 58 ce bd 37 94 c5 bd 86 6a 0e 3e
       -0.10736769 -0.10075465 -0.0964741 0.13907823
000160 f0 a3 89 bd e6 54 87 3e 3f fa 9a bd 17 31 11 3d
       -0.06720722 0.2643196 -0.07567262 0.035447206
000170 ef 66 14 3c b1 e0 e0 3d 30 f8 4d bd bd 4b 52 bd
       0.009057744 0.109803565 -0.05028552 -0.05134176
000180 7c 3e 0e be e3 4e c7 bd 44 ad f9 bd 3e 9a e4 3d
       -0.13891023 -0.09731843 -0.12191251 0.11162232
000190 a9 19 20 3e 1b d4 78 3e dd ec 34 3c 41 c5 2c 3e
       0.15634789 0.24299662 0.011042801 0.16872121
0001a0 41 14 98 bc f0 b3 36 be 1e 62 3a be 10 74 78 bd
       -0.018564345 -0.17842078 -0.18201491 -0.06065756
0001b0 94 71 18 be a7 1f bf 3d 7c bf 80 3c fd b2 10 3e
       -0.14887077 0.09332209 0.015716307 0.14130779
0001c0 16 83 11 3e 63 df b5 3e f2 2b f2 bd 0b e8 2e be
       0.14210162 0.35521993 -0.11824788 -0.17080705
0001d0 6e 2f 0e be 19 13 de bd 56 25 f3 bc 13 6c 46 bd
       -0.1388528 -0.10843486 -0.02968089 -0.04844291
0001e0 44 d9 39 3e 18 ed cc bc f3 c0 56 3e 55 a8 03 3b
       0.18149287 -0.025015399 0.20972042 0.0020089347
0001f0 22 b9 b5 3d bd 5f ae bd 3d ba 54 bd 42 da a6 bd
       0.08873202 -0.085143544 -0.051935423 -0.08147098
000200 77 4c 02 bd b6 12 15 3e 8a b5 b3 3d d0 dc d8 bd
       -0.031811204 0.14557919 0.0877486 -0.10588992
000210 1c 53 43 3c fb fc 4c be e4 53 a0 3d 87 9d 01 3d
       0.01192167 -0.2001838 0.07828501 0.03164437
000220 02 6a e8 3d 54 1c a1 bc 4a c5 31 ba 58 50 b2 be
       0.113483444 -0.019666828 -0.00067814125 -0.34826922
000230 b1 b6 14 3d 4a 9b b1 bd d2 d7 98 be d3 47 bf bd
       0.03630704 -0.08672197 -0.29852158 -0.09339871
000240 9c bd aa bd 2a b3 26 3e 83 f7 ad 3d a4 0f 05 be
       -0.08336946 0.16279283 0.08494475 -0.12994248
000250 69 5d 06 3e bf 12 c3 3e 79 5f b8 bd 2e 06 5a bc
       0.1312157 0.3810024 -0.09002585 -0.013307137
000260 8f 4a 49 be 37 36 3b bd 7b 94 1e be 1d 75 61 3d
       -0.19657348 -0.045706 -0.15486328 0.05504333
000270 9f 9a 0f 3d a0 c8 05 be 7a 28 ea 3d c0 b9 4e 3d
       0.035059568 -0.13064814 0.114335015 0.050470114
000280 31 c7 a7 3e b6 d7 c6 3d c2 28 b8 3d 99 20 af 3d
       0.32769158 0.09709112 0.08992149 0.085511394
000290 a5 df 78 be 1e 1e f6 bd d4 28 47 be 40 1c 68 3c
       -0.24304064 -0.12017463 -0.19449168 0.014166892
0002a0 59 21 13 bc 85 82 51 3e a1 d8 ea 3d 0a 6d a9 3d
       -0.008980119 0.20459945 0.114671 0.08272751
0002b0 da c3 0b 3e 1b ef a1 3d 61 b3 b4 bd 45 94 07 3e
       0.1364893 0.07906934 -0.08823276 0.13240154
0002c0 74 e3 d5 3c 26 56 b0 bd 4a 4b e0 be 7e 21 20 be
       0.026109435 -0.086101815 -0.4380744 -0.15637776
0002d0 fc 09 34 bc d6 60 99 bd 01 42 35 be f4 d1 ed bd
       -0.010988709 -0.07489173 -0.1770096 -0.11612311
0002e0 38 23 86 3d 3f 6b 07 3e 3d 83 02 3d c4 4e 81 3d
       0.06549686 0.13224505 0.03186344 0.063138515
0002f0 3f 7c 53 3d d3 55 98 bd 83 27 fa bc 2c e1 1c 3e
       0.051632162 -0.07438245 -0.030536419 0.15320271
000300 ba 32 3d 3c 6b 62 33 be 45 ce 3b 3d cd 84 d7 3d
       0.011547739 -0.17518012 0.04585101 0.105233766
000310 dd c0 5e 3e 36 4c ec bd 2b 3c 9d bd 9b f7 09 be
       0.21753259 -0.115379736 -0.07677492 -0.1347336
000320 a3 6a 91 3b cb 8a 6d 3d 26 f2 b2 3e 2e 0c 20 3e
       0.004437761 0.05799369 0.3495037 0.15629646
000330 a1 b3 52 be 79 76 20 3d b8 b2 56 be 73 d7 a1 bd
       -0.20576335 0.039175484 -0.20966613 -0.07902422
000340 32 de 66 bd 45 4d af 3d f8 e3 86 3d 57 ec ff bd
       -0.056364246 0.0855966 0.0658645 -0.1249625
000350 ef 63 39 3e 13 1a f1 3d 31 5e 5b 3e 17 dc 19 3e
       0.18104528 0.117725514 0.2142265 0.15025364
000360 25 6c 1d 3e ef 66 51 3d 7e 86 13 3e db 8a f6 bd
       0.15373285 0.051123556 0.14406773 -0.12038203
000370 e9 7d c6 bc e5 3b 36 bc d4 8e 82 be 24 97 2e be
       -0.02422996 -0.011122678 -0.25499594 -0.17049843
000380 ea c2 3a be 09 7d b5 bd 61 0d cf 3d 87 2f 16 bc
       -0.18238416 -0.08861739 0.10109974 -0.009166605
000390 8b 2f 10 3e 27 26 97 bd ec 2e ca 3e ad cd a4 be
       0.14080636 -0.07380324 0.39488924 -0.32188168
0003a0 46 30 de 3d 9c 40 f4 be 86 08 70 3c e2 6c 78 3d
       0.10849051 -0.47705543 0.01465047 0.060650714
0003b0 ed 02 19 3d 9a f4 3a 3e 33 de c6 bc e3 ce d4 bd
       0.037356306 0.1825737 -0.024275875 -0.10391023
0003c0 e7 4f 53 bd 57 fc 0e 3e 61 e6 09 be a5 39 ba 3d
       -0.051589873 0.13963448 -0.13466789 0.09093026
0003d0 0a 57 1b 3e 0f dd 1f 3e ba f3 05 be fa d1 5c 3d
       0.15169922 0.15611671 -0.13081256 0.053911187
0003e0 e8 1a b3 3d 65 bf b0 bc 60 41 a6 be 19 2f 29 bd
       0.08745366 -0.021575639 -0.32471752 -0.04130468
0003f0 36 89 24 3e 19 22 a9 3e 06 33 ac 3e fd e5 1e be
       0.16067967 0.33033827 0.33632678 -0.15517421

conv3.bias f4 [32]
000000 3b 44 b6 bc 4b 38 c8 bd 92 19 68 3d 7f a7 47 3d
       -0.022249332 -0.09776362 0.05666501 0.04874372
000010 a1 08 06 bc fb 75 ce bd 49 a3 1d 3e e1 6a 94 bc
       -0.008180768 -0.10081097 0.1539432 -0.01811737
000020 cd 74 55 be d0 eb 0d 3e a1 e2 f7 bd 3a ef 96 3d
       -0.20845337 0.13859487 -0.12103773 0.073698476
000030 4a 4e 32 3d 2c ed ac 3d fc 37 63 be 74 ca 1b bd
       0.043531694 0.084436744 -0.22189325 -0.03803487
000040 f6 ff 24 3e bd 62 55 bc 3e 2e 87 3a 2d b6 2e bd
       0.16113266 -0.013024029 0.0010313464 -0.042654205
000050 0d 4d 70 bd f6 85 ea 3d 81 6d ce bd 6e ef 8e 3d
       -0.05866723 0.11451332 -0.1007948 0.06979261
000060 1f a9 bd bd f6 69 d8 bd 4b 0b 40 3c d8 d7 1a 3e
       -0.09260773 -0.105670854 0.011721442 0.151214
000070 08 8b d2 bd f1 df ef bd 0c 00 94 3d f2 62 9e 3d
       -0.10280424 -0.11712635 0.072265714 0.07733716

conv4.weight f4 [32, 32, 3, 3]
000000 92 93 a9 bd 26 e7 88 3d 7a f9 56 3b af b6 8a 3d
       -0.082801 0.06684713 0.0032802508 0.067731254
000010 3f 23 71 3d a3 4f d5 bd c7 08 21 bd 0c eb ce bd
       0.058871504 -0.1041558 -0.03931501 -0.101034254
000020 17 dd 6d 3c 21 5e d2 bd c2 48 f7 3c 53 75 84 bc
       0.014518044 -0.1027186 0.03018606 -0.016169226
000030 8b 89 18 be af af 39 3e ea 02 fb 3d 57 d8 85 3d
       -0.14896218 0.18133424 0.12256415 0.06535404
000040 6c 43 c3 3c 10 96 b6 bd 34 32 f9 bb 60 37 02 3d
       0.02383586 -0.08915341 -0.0076048616 0.03179109
000050 da a8 5c bc bb 0e 2a bd a5 50 73 bd e0 45 fd bd
       -0.013467992 -0.041517954 -0.05940308 -0.12366843
000060 12 78 b8 3c d8 20 b8 bc 75 c2 9d 3c 50 2f c1 3c
       0.022518191 -0.022476599 0.019257763 0.02358213
000070 3a 24 1f 3d 31 8b 68 be c8 ce dc 3c ef 5b 18 be
       0.038852908 -0.22709347 0.02695407 -0.1487882
000080 0d 97 12 bc 67 15 8f 3a 65 9c 53 3e 0d 4f 47 3d
       -0.008947146 0.0010916413 0.20665129 0.048659373
000090 d8 6d 0d 3d 91 e0 f7 3d 6f 58 0f 3e 02 88 45 bd
       0.034528583 0.121033795 0.13998578 -0.04822541
0000a0 97 ff 34 3e 4b 18 1a be 80 15 8c 3c 56 f3 61 be
       0.17675625 -0.1504833 0.017100096 -0.22065482
0000b0 36 1e 91 bd c7 f6 02 be 76 27 16 bc 7b 49 fd bb
       -0.070858404 -0.1278945 -0.009164682 -0.007729707
0000c0 7f 5a bd 3d 49 fb 18 be 43 dc 27 3d 37 d9 92 3c
       0.092457764 -0.14939608 0.040981542 0.017925842
0000d0 e9 41 0e bd 27 37 bd bd 84 bd 9a bc fe 08 63 bd
       -0.034730826 -0.09239035 -0.018889196 -0.055428497
0000e0 d5 86 3a 3e 16 0e 23 3e 33 ab e8 3c 06 a6 6b be
       0.18215497 0.15923342 0.028401947 -0.23012552
0000f0 29 34 ad be cd 50 d9 bd e3 33 ee 3c 4b 7e 31 bd
       -0.33828858 -0.10611115 0.029077476 -0.043333333
000100 d8 f3 dc 3c 46 a8 ab bd de 7c 01 bd 07 fb 11 3d
       0.026971743 -0.08381705 -0.031613223 0.03563979
000110 8a 87 d9 bd e3 5b 62 3b 13 14 95 bd ca 6b 8f bb
       -0.10621555 0.0034539632 -0.072792195 -0.004376863
000120 84 c0 40 bd 08 e4 19 3e fc f0 06 be f7 04 a2 3c
       -0.047058597 0.15028393 -0.13177866 0.019777758
000130 ef 2a 6d be 86 f7 5c bd c4 b6 88 3a 58 34 e8 3d
       -0.23160909 -0.053946994 0.0010430445 0.11338109
000140 67 f6 97 3d bf 42 a0 3d 99 6b d0 bd 31 e9 09 3d
       0.074200444 0.07825231 -0.101767726 0.033669654
000150 e7 e2 14 be 95 c0 91 3d 21 10 8d bd 85 c6 d1 bb
       -0.14539681 0.0711681 -0.06887842 -0.006401839
000160 97 b4 a2 bd cc 27 34 3c 66 81 cd 3d dd bd a7 bd
       -0.07944601 0.010995816 0.100344464 -0.081905104
000170 32 77 66 3d d5 5e 0d be 86 48 4c bd ed d2 3d 3c
       0.056266017 -0.13805707 -0.04987385 0.011585933
000180 00 8e 08 bd 4a 35 e9 3d 0a 21 66 3d 19 d1 c7 3d
       -0.033338547 0.11387117 0.056183852 0.09756679
000190 fd 1f 40 3c b4 f5 11 be ff c5 ce bd 64 b2 58 bd
       0.011726377 -0.14253885 -0.100963585 -0.0529045
0001a0 f7 3b 36 be b7 05 5e 3d 41 a7 44 bc ba e2 b3 bb
       -0.17796312 0.05420467 -0.012002767 -0.0054896744
0001b0 1b 7a 88 bd 06 1e f1 bb 3d 96 ed 3d 3d 69 f1 3c
       -0.06663915 -0.0073583154 0.11600921 0.029469127
0001c0 65 98 3f bd 57 71 d8 bd 20 d8 b3 bc 34 b5 4c bd
       -0.046776194 -0.10568493 -0.021953642 -0.049977496
0001d0 97 14 09 bd e2 44 b3 bd 65 47 a6 ba ac 65 49 bd
       -0.0334669 -0.08753373 -0.0012686072 -0.049169227
0001e0 57 a9 73 bd 3b a9 34 3e 14 37 0e be 88 c9 31 3d
       -0.059487667 0.17642681 -0.13888198 0.043405086
0001f0 36 fa 72 bd 5b 62 6f bb 5d b0 ef 3a 6e fa cc 3d
       -0.05932065 -0.003652713 0.0018286813 0.10008703
000200 8e 16 fc bd 86 2e 1f bd f5 5d 1a be ab 0e 4a 3d
       -0.123089895 -0.038862728 -0.15074904 0.049330395
000210 5d 66 c3 bc c4 7d ba bd e8 6b 9d bc ab 33 1f bc
       -0.023852522 -0.09106019 -0.019216493 -0.009716908
000220 ee 12 3b 3e 07 6a 0a be c6 cc e7 3d 07 06 f1 bc
       0.1826894 -0.13517009 0.11318354 -0.02942182
000230 68 c4 a9 bd 23 71 52 be 97 54 3d bd 28 3d 7e 3d
       -0.08289415 -0.2055097 -0.04622325 0.062070042
000240 f3 07 52 3d 32 fb 6d bd 33 de 48 be 47 d5 bb bd
       0.051277112 -0.058100887 -0.19616012 -0.09171539
000250 82 87 1c 3e 7e e6 d2 bd cd 07 b1 bd 26 8c b1 bd
       0.15286067 -0.10297869 -0.08644066 -0.08669309
000260 c0 73 a6 bd e1 a6 80 bc d3 15 b5 3d d0 37 3a be
       -0.08127546 -0.015704574 0.08842053 -0.18185353
000270 f0 15 20 3e 2f 52 43 be d1 65 56 bd bf 1f 6c be
       0.15633368 -0.1907432 -0.052343193 -0.23058985
000280 af b6 32 bb af 76 72 3c 9b fa a1 3d 9a 93 3d 3d
       -0.0027269532 0.014798804 0.07909127 0.046283342
000290 93 f9 2d 3d ed 14 b0 bd 91 14 92 3d d7 23 28 be
       0.04247434 -0.08597741 0.07132829 -0.16419922
0002a0 2a f8 b3 bd 6c 4d f7 3c 0a 73 57 3d 15 f2 5e 3d
       -0.08787568 0.030188285 0.052599944 0.054430086
0002b0 7c c0 05 3e 47 b0 bf bd b8 6e ba 3d 08 ed 07 bc
       0.13061708 -0.09359794 0.09103149 -0.008296259
0002c0 02 1c 9f bd 8a cf 28 bd cf f1 e3 3d c4 63 13 bd
       -0.07769014 -0.04121355 0.11130106 -0.035983816
0002d0 0a 14 7b 3d 11 6e b0 3e d4 5c 24 bd e0 42 84 be
       0.061298408 0.34458974 -0.04012759 -0.25832272
0002e0 10 28 ae 3d cb 05 1c 3e fd 91 9a bd 00 d7 04 bd
       0.08503735 0.15236585 -0.07547376 -0.032431602
0002f0 5f 2d 74 3c bb a9 e0 3d e0 6c 68 be 13 9e fd 3d
       0.014903395 0.109698735 -0.22697783 0.12383666
000300 b8 24 3e ba 3c 9b 07 be cd dd 1d be 16 12 7c 3d
       -0.00072533963 -0.13242811 -0.15416642 0.061540686
000310 b8 40 d8 3c 33 76 df 3c 2e c3 6b bc 98 cd 3e bd
       0.026398048 0.027278041 -0.014389796 -0.04658279
000320 ba bb 7e 3d 39 06 85 bc 88 f6 09 3e 59 8c c1 bc
       0.06219075 -0.016238319 0.1347295 -0.023626493
000330 08 93 53 bc a7 00 d2 bd eb 03 d1 3d 28 89 fe 3c
       -0.012913473 -0.10254031 0.102058254 0.03107126
000340 ca 5c fa ba 1d e6 37 3e aa 03 ea 3d d6 2d ed bd
       -0.001910114 0.17958875 0.1142648 -0.11581008
000350 c1 a9 27 be 6d 03 cf bd 2b d1 9c bd 21 56 26 3e
       -0.1637335 -0.10108075 -0.07657083 0.16243793
000360 96 26 c6 3d 78 01 95 bd 9e d1 1b 3d 88 1b d7 bd
       0.096753284 -0.07275671 0.038041703 -0.10503298
000370 6e 0a 35 3d 39 60 cc bc 35 52 ba bb 05 14 2c 3d
       0.0441994 -0.024948226 -0.0056860694 0.04201128
000380 7c 37 ae 3c d4 48 10 3e 2c ca 2a 3d 38 0f 1d be
       0.021266691 0.14090282 0.041696712 -0.15337837
000390 9e 11 81 bd b6 fd 6d 3e d2 b7 b9 3d 54 27 a5 3d
       -0.06302188 0.23241314 0.09068264 0.08064142
0003a0 02 2e d8 bd a2 f0 c9 bb 69 6c d8 bc c8 27 00 be
       -0.1055565 -0.006162719 -0.026418881 -0.12515175
0003b0 eb 4c 35 3d 33 89 20 bd 12 c0 89 3d 36 ea 1b be
       0.044262808 -0.039193343 0.06726088 -0.15226063
0003c0 0c 22 93 3c a0 49 8f bd 00 aa df 3c 3b df 18 3c
       0.01796057 -0.06996465 0.027302742 0.009330566
0003d0 41 49 ff bd ba 47 69 3c c8 04 7e 3d a2 03 11 3e
       -0.12465144 0.014238292 0.06201628 0.14161542
0003e0 1a 0f 60 be c6 5f 97 3d 86 89 a4 bc e7 50 15 3d
       -0.21880761 0.07391314 -0.020085108 0.036454108
0003f0 d7 cb 95 bb 94 a6 59 bd a1 9b fd ba 2d d9 0c bd
       -0.0045714187 -0.053137377 -0.0019348749 -0.034386802

conv4.bias f4 [32]
000000 b3 7d ef bd a2 ab 01 3e 83 fb 84 be bd 6c fb 3d
       -0.11693897 0.12663129 -0.25973138 0.122765996
000010 d6 57 c4 bd 55 3e 22 be 3e 5b 84 be 7c a8 cf bc
       -0.09587066 -0.1584409 -0.25850862 -0.025348894
000020 28 65 78 3c 09 c5 5f be 0e 54 91 be 8d dc 0c be
       0.015160836 -0.21852507 -0.2838444 -0.13756008
000030 b5 64 ba bc bf 5a 56 3d cd c4 d8 bd 96 9f 22 be
       -0.022753099 0.052332636 -0.10584412 -0.1588119
000040 12 be 57 be 19 c6 45 3d f4 c0 e8 bc d8 4b 87 bd
       -0.210686 0.048284624 -0.02841232 -0.06606263
000050 4d 1e 64 be de a4 63 3e 53 af c8 3d 24 a6 0e be
       -0.22277184 0.2223086 0.097990654 -0.13930565
000060 6a 6a bb 3d 2c 43 b0 bb b7 17 a9 3d f2 67 d0 be
       0.09151156 -0.0053791013 0.08256476 -0.40704304
000070 b6 50 3c 3e c8 53 f7 3c ce 37 29 be 49 6d 0e be
       0.18390164 0.030191317 -0.16525194 -0.13908876

linear.weight f4 [256, 800]
000000 51 76 d9 3c b1 e3 bf bc 74 57 9d bc 34 81 fa 3c
       0.026545675 -0.023424001 -0.01920674 0.030579187
000010 a8 e2 b0 bc 78 38 13 3d fe c9 65 bd dc 66 d0 bd
       -0.021592453 0.035942525 -0.056100838 -0.10175869
000020 b1 69 7d 3d d1 26 d4 3d f7 95 6f bd 3d 66 ff bd
       0.061868373 0.10358966 -0.058492627 -0.12470672
000030 fa 73 07 bd db 14 bd 3c 5b 7a 54 bd f6 5a 2b bd
       -0.03306959 0.023081234 -0.0518745 -0.041834794
000040 25 54 64 3c 44 f3 51 bd 3a e7 55 bd 45 32 26 3d
       0.013936077 -0.051257387 -0.052222468 0.040575285
000050 46 ae 5c bc 47 83 d9 bb fb 01 30 bd 3e 0b a9 ba
       -0.013469284 -0.006637964 -0.04297064 -0.0012897027
000060 94 2f b7 bb 3e cb a7 3d c8 41 83 3d 4b 89 0c bd
       -0.0055903886 0.08193062 0.06409031 -0.03431062
000070 e4 a3 94 bc 44 8e 5c 3c 4a 65 01 be 00 00 96 3d
       -0.018144555 0.013461653 -0.12636295 0.07324219
000080 51 3d 6c 3d 28 f0 66 be 8d d7 bc 3c 5f e5 d7 ba
       0.057675663 -0.2255255 0.023052001 -0.0016471556
000090 c2 a5 27 be 96 91 9d bd 36 e1 b1 bd 2b 59 1f 3e
       -0.16371825 -0.07693784 -0.08685534 0.15561359
0000a0 12 84 5f bb 9b c7 0b 3e 8c 1a 13 3c bf 91 03 3e
       -0.003410582 0.13650362 0.008978497 0.12848566
0000b0 b5 ff 69 bc d5 7d f7 3c a7 98 3b bb c2 eb a0 3d
       -0.014282157 0.030211369 -0.0028624923 0.07857467
0000c0 cc 60 0d 3c 4e df 35 bd c6 12 98 3d 5d 42 f2 3b
       0.008629035 -0.044402413 0.07425456 0.007393165
0000d0 f4 2f 0d be 1f 36 62 3c 82 6e 1c 3d 55 13 94 3c
       -0.13787824 0.013806849 0.038191326 0.018075624
0000e0 17 f9 c0 bd 4d b1 fa bc e6 01 39 3e 10 6e bb be
       -0.0942251 -0.030602122 0.1806713 -0.3660741
0000f0 da 61 d6 bd 90 43 3b be 9d 5a 32 bd b5 f6 17 be
       -0.104678825 -0.18287492 -0.043543447 -0.14840205
000100 48 57 48 bd 61 e5 bf bd a1 fc d9 bd d1 22 92 bd
       -0.048911363 -0.093699224 -0.10643888 -0.07135547
000110 c7 55 53 3c ca 62 0d bd 8d a1 8a 3d 82 48 26 3d
       0.012898869 -0.03451804 0.067690946 0.040596493
000120 1e cd cb bc fb 05 7b 3d 5b 4e 36 3d 32 88 51 bd
       -0.024878081 0.061285 0.04450832 -0.051155277
000130 af c8 fd ba 99 ce 4b 3e 97 ac 8d bb 25 a2 9f bc
       -0.0019362177 0.1990303 -0.004323553 -0.019486496
000140 83 2c 7d bb 99 4f f1 3c e5 2e 0e bd 27 01 65 be
       -0.0038631267 0.0294569 -0.03471269 -0.22363721
000150 0e 95 e1 3d ea 35 18 be c3 d3 4b 3d ee bd dd 3c
       0.11014758 -0.14864317 0.0497625 0.027068105
000160 11 75 05 3d 2a e0 24 be be b6 87 be ff 8b 5b 3d
       0.032582346 -0.16101137 -0.2650661 0.053600308
000170 5b 4e ea 3d 3b 77 98 3e 0e c4 42 3c 60 42 99 bd
       0.11440726 0.29778466 0.011887563 -0.07483363
000180 19 27 36 be 67 9f ae 3c ce dd 42 be 54 d3 3f bd
       -0.17788352 0.021316243 -0.19029924 -0.046832398
000190 ab 74 7d bd 53 ed 8b bd 14 c4 ea ba 44 3f 55 bd
       -0.06187884 -0.068323754 -0.0017911219 -0.052062288
0001a0 27 d8 08 be 2e 7f 12 3c c4 ac a9 bd 46 fb 64 3d
       -0.13363706 0.008941455 -0.082849056 0.055903696
0001b0 28 e7 13 3d ae 7d d9 bd c8 e3 a6 bd b6 a0 52 bd
       0.03610912 -0.106196746 -0.081489146 -0.051422797
0001c0 73 1d df 3d d6 0a 89 3d eb c0 fe bd 10 e7 5d 3d
       0.10894289 0.0669152 -0.1243914 0.054175436
0001d0 c3 1e 71 3d 9d fd 22 3d ff 2c 56 3d a6 7c 6b 3d
       0.058867227 0.039792646 0.052289005 0.05749192
0001e0 06 14 e2 bc 2e 71 ec 3d a2 f3 62 3e bd d6 81 be
       -0.027597439 0.11545025 0.22163251 -0.25359145
0001f0 02 a7 b7 bd ea ef 77 bd e8 48 19 3d 91 79 e9 3d
       -0.08967401 -0.060531534 0.037423044 0.1140014
000200 7d 32 96 3c 68 f5 ca bd 15 be 97 3d 45 73 b2 3d
       0.018334622 -0.09910089 0.07409302 0.08713392
000210 65 93 34 3d f8 0c 75 bd 40 b0 1e 3d d4 c7 26 bd
       0.04408588 -0.05982682 0.038742304 -0.040717915
000220 20 28 ec bd 69 ea 03 be 39 16 e5 bd 26 b9 b3 bd
       -0.11531091 -0.12882389 -0.11185879 -0.08775549
000230 b6 11 38 be 62 cd d8 3d b5 2a bd 3d ef cb a0 3d
       -0.17975506 0.10586049 0.09236661 0.07851397
000240 f4 02 4b 3d 3b 78 d5 3c 44 7b 00 3e 24 56 2e be
       0.049563363 0.026058307 0.12547022 -0.17025048
000250 09 73 0b bd ba 51 c5 3d 00 4f 0c bb 56 86 45 bd
       -0.034045253 0.09634729 -0.0021409392 -0.048223816
000260 37 aa a5 bd 85 5a 82 3c 1d e6 d0 bd ac d0 a9 3d
       -0.080891065 0.015912304 -0.102001406 0.08291754
000270 35 4f 9e bd ee 43 2a be d3 66 95 bd 16 47 fd 3d
       -0.07729951 -0.16627476 -0.07295003 0.12367074
000280 b7 28 0d 3e 79 fc 07 be dd e4 0e be 54 89 48 bd
       0.13785063 -0.13279904 -0.13954492 -0.04895909
000290 c2 1b ec bd 6d 57 90 bd da 5c 28 3d a1 db f2 3d
       -0.11528732 -0.07047925 0.041104175 0.11858297
0002a0 d9 4c d3 3d 6f d1 ae 3d 8d 24 11 3e 0a fa e2 3d
       0.10317392 0.0853604 0.141741 0.110828474
0002b0 40 fe 37 3d a8 bc f5 3c 23 56 16 bd 81 24 bd bc
       0.044920206 0.029997185 -0.03670324 -0.023088695
0002c0 9f 0a e2 3b e1 c7 ab 3d 56 d8 85 bd bb a8 97 bd
       0.006898239 0.08387733 -0.065354034 -0.0740523
0002d0 cc 08 04 be 03 4f b0 3d 89 4b af bd cd 12 db 3c
       -0.1289398 0.0860882 -0.08559329 0.026742363
0002e0 2e 74 6f 3d 19 c5 c3 bd 7e 7c 99 bd 1c bf 83 3d
       0.058460407 -0.09559078 -0.07494448 0.064329356
0002f0 d5 af 89 3b d5 4b 7a bd f5 08 0b bd a6 84 48 3e
       0.004201869 -0.061107475 -0.03394409 0.19581851
000300 40 97 37 3e 50 91 ad bd a4 4b 77 39 19 43 50 3d
       0.17928791 -0.08474982 0.00023583934 0.05084524
000310 1a 4c 82 bd 71 2e 87 bd eb a5 a4 bc fa 0d 76 3c
       -0.063621715 -0.06600655 -0.020098647 0.015017981
000320 59 bf 68 3d ec d0 0f bd 14 15 e4 3d 05 1e 93 3c
       0.05682311 -0.035111353 0.11136833 0.01795865
000330 5d 3c 4c bd 2a cb 2d bd ff 39 01 bd 2f 1e af bd
       -0.049862254 -0.04243008 -0.03154945 -0.08550679
000340 84 bd 01 be b1 37 52 3e 54 58 18 bc 40 1b d1 bc
       -0.1266995 0.20529057 -0.009298403 -0.02552569
000350 10 e7 8c 3c 5e a8 a0 3d 8c 10 64 bd b4 8a 1c bd
       0.017200023 0.078446135 -0.055679843 -0.038218215
000360 2b 86 38 bd ea c7 97 bd 72 89 cc 3c b4 68 bf 3c
       -0.045049828 -0.074111775 0.024967883 0.023365356
000370 b9 98 89 3c b6 79 ef bd e5 ac 0c be cf d9 1f bd
       0.016796457 -0.116931364 -0.13737829 -0.039026078
000380 bb 25 17 3d 3b b2 86 3d f8 05 2d 3e a5 82 9b 3d
       0.036901217 0.065769635 0.16896808 0.07593278
000390 65 da a7 3d 2b 2a 8c 3d 15 4c 11 be 7e 3d ed bc
       0.08195952 0.068439804 -0.14189179 -0.028959986
0003a0 8b bf 91 bd d7 8c ec bd ac 9b b7 3d 98 1f 0f be
       -0.07116612 -0.115503006 0.08965239 -0.13976896
0003b0 ee c9 aa bd a3 7b 54 3d 5a fd 35 bd b2 8d 88 bd
       -0.08339296 0.05187572 -0.044431068 -0.06667651
0003c0 86 d7 87 bd ad e1 48 3d ee 83 8f 3d ed 48 61 3d
       -0.06632905 0.049043346 0.070075855 0.055001188
0003d0 4c b6 16 be 40 7b 90 bb b6 eb 17 3d d8 9e 65 bd
       -0.14717978 -0.004409224 0.037090026 -0.05605969
0003e0 48 53 c7 bd e4 a3 9a bb 04 18 21 3d 59 f2 94 bb
       -0.097326815 -0.0047192443 0.039329544 -0.0045454917
0003f0 99 f9 8d bd 03 58 51 3c ae 0c 06 3d 2e a1 ba 3d
       -0.069323726 0.012777331 0.032726936 0.09112774

linear.bias f4 [256]
000000 bb 6f ea bd c8 3f 00 be 28 b7 03 bf 0d c0 89 bd
       -0.11447092 -0.1252433 -0.5145135 -0.06726084
000010 a5 d9 9e bd e8 f1 cd bd 7d 99 ef bd c1 81 03 bf
       -0.07756356 -0.100559056 -0.116991974 -0.51369864
000020 b1 af ad bd 5e 48 7b bd b2 62 d7 bc 62 e7 47 be
       -0.08480776 -0.06134831 -0.026292179 -0.1952186
000030 5d d4 92 bd bc 17 2a bd ef 8b 63 bd ad 59 26 be
       -0.07169411 -0.04152654 -0.055553373 -0.16245146
000040 64 4b 3d be 71 70 fa bd 55 fa 58 bd 8f 6b cf bd
       -0.1848579 -0.12228478 -0.05297311 -0.10127937
000050 cc 21 52 bd de 2a 45 bd 59 61 a8 bd 1a 67 6d bd
       -0.051301762 -0.048136584 -0.082216926 -0.057959653
000060 64 40 d5 bd fc 37 b8 be 54 e8 8f bd 79 04 b5 bd
       -0.10412672 -0.35980213 -0.07026735 -0.08838744
000070 b7 ae b6 bd 32 c6 a4 bd 53 d5 88 bd 5b e8 18 be
       -0.08920043 -0.08045615 -0.06681313 -0.14932387
000080 99 aa 76 bd cc cc fd bc 4b 17 87 bd b6 45 34 be
       -0.06022129 -0.030981444 -0.0659624 -0.17604718
000090 94 3b de bd d8 02 68 bd aa fd a9 bd 53 08 a4 bd
       -0.108512074 -0.056643337 -0.08300336 -0.080094
0000a0 8c ba 7f bd 3c cb 9d bd 65 a8 62 bd 4e 9d c4 bd
       -0.062433764 -0.077047795 -0.055336375 -0.09600316
0000b0 00 87 af bd f9 f6 16 bd 35 2b 20 3e 72 e7 5c bd
       -0.08570671 -0.036856625 0.15641482 -0.05393166
0000c0 fd 16 83 bd 8e 2c 88 bd 2f 07 49 bd 21 70 fc 3a
       -0.06400869 -0.06649123 -0.049079116 0.0019259491
0000d0 8f 6c 59 be fb 02 74 bd 64 5b 1d be 3c d8 91 bd
       -0.21232818 -0.059573155 -0.15366894 -0.071213216
0000e0 54 33 bf bd 82 20 62 bc ca 91 8a bd 0d 52 4e bd
       -0.09335962 -0.013801696 -0.06766088 -0.05037122
0000f0 47 09 d4 bd 5b 70 7f bd 4b cc 17 3c c3 bc 9f bd
       -0.10353332 -0.06236301 0.009265016 -0.07799675
000100 30 22 0b be d8 89 ab bd 79 38 e8 bd 15 60 dc 3d
       -0.1358726 -0.08375901 -0.11338896 0.10760514
000110 9c 5d 55 bd d0 c3 d4 be 2c 65 35 be be be 76 bc
       -0.052091226 -0.41555643 -0.17714375 -0.015060125
000120 04 40 69 bd d3 1f 61 bc 92 b8 e1 bd 98 78 fc bd
       -0.056945816 -0.013740498 -0.11021532 -0.12327689
000130 19 9b e6 bd 72 5b 58 bd 73 33 84 bd 6f 40 e2 bd
       -0.11260051 -0.052821584 -0.06455126 -0.11047446
000140 01 c7 65 be fc a2 81 bd 27 7f 67 bd af 2b b7 bd
       -0.22439195 -0.06329915 -0.056517746 -0.08943879
000150 b0 7a 9b bd de 13 96 bd 77 d1 70 bd 08 3a 89 bd
       -0.0759176 -0.07328008 -0.05879351 -0.06700522
000160 34 1e 94 bb 59 9f d9 bd 1f 1e 58 bd f7 1b f9 bd
       -0.004520202 -0.10626096 -0.0527631 -0.12163537
000170 6b e7 1a bd 7e 03 e8 bd 2f 84 13 3b 38 00 0f be
       -0.037818354 -0.11328791 0.0022509207 -0.13964927
000180 f4 7d d6 bd 1e e0 83 bd bd 8c cb bd 1c 3f 6e bd
       -0.104732424 -0.06439231 -0.09938953 -0.058165655
000190 ae a0 42 bd fe 24 54 bd 8e e9 bc bd 7e 84 15 bd
       -0.047516517 -0.05179309 -0.092242345 -0.036503308
0001a0 37 80 ab be 99 19 0d bd 36 15 58 bd de 95 42 bd
       -0.33496258 -0.03444824 -0.052754603 -0.047506206
0001b0 79 f0 e2 be 9a 27 68 bd 36 dc 48 be 79 25 2e bd
       -0.4432409 -0.056678392 -0.19615254 -0.042516205
0001c0 15 d8 b8 bd f6 19 f9 bd 6a a5 94 bd 3e 6f 0f be
       -0.090255894 -0.12163155 -0.07258113 -0.1400728
0001d0 cf c1 a5 bd 7a 8d 55 be 7d 39 e2 bd cf 8c 40 bd
       -0.08093607 -0.2085475 -0.11046121 -0.047009286
0001e0 c0 59 f2 bd 17 01 2c bd 9b 95 c0 bd 5f 63 5c bd
       -0.11833525 -0.041993227 -0.09403535 -0.053805705
0001f0 80 cc 0c bd 33 29 b9 bd d4 51 d7 bd 12 17 23 bd
       -0.034374714 -0.09041061 -0.10513654 -0.039816923
000200 b5 35 07 be 07 01 a0 bd c9 c0 d7 bc f7 48 47 be
       -0.13204081 -0.07812696 -0.026337044 -0.19461428
000210 e6 b6 b1 3d e2 6f 96 bc 5e 21 75 3d a1 9f b3 bd
       0.08677463 -0.018363897 0.059846275 -0.08770681
000220 f9 05 9e bd 5a aa 3f be e0 68 ad bd e6 0d 51 bd
       -0.07715983 -0.18717328 -0.08467269 -0.051038645
000230 f3 92 7d bd be 7a b3 bd ed 51 a9 bd 4b 28 e5 bd
       -0.06190772 -0.087636456 -0.08267579 -0.11189326
000240 a3 9c bf bc 2c aa 77 bd d7 58 13 bf 92 cf 97 bd
       -0.02339012 -0.060465023 -0.57557434 -0.07412638
000250 5e 41 9b bd 4c c8 bb bd 0f 52 3c bd 3b d0 9d 3c
       -0.07580827 -0.09169063 -0.045976695 0.019264331
000260 d8 28 97 bd 5b 75 14 bd b3 a8 8b be a8 93 2c be
       -0.07380837 -0.03624473 -0.27277145 -0.16853201
000270 a0 7f 68 bd d0 dd c5 be 5b 64 20 be f7 a3 a3 be
       -0.056762338 -0.38645792 -0.15663283 -0.31961033
000280 84 df 92 bc 5c a7 73 bd 0e 54 ff be 13 b9 7d bd
       -0.017928846 -0.05948578 -0.49868816 -0.06194408
000290 43 91 8c bd a0 3a 32 be 62 3d 9f be 67 04 b1 bd
       -0.06863644 -0.17405176 -0.3110152 -0.08643418
0002a0 cf 76 dd bc fb f5 f6 bd 8c 94 88 bd ba de 07 bd
       -0.027034191 -0.12058636 -0.06668958 -0.033171393
0002b0 59 cf 2b 3b 7e d3 b1 bd 81 b7 e9 be 94 30 cc bd
       0.0026216118 -0.08682917 -0.45647815 -0.09970203
0002c0 3a 40 96 bd ac 25 b8 3b 05 7f a5 bd 4f 66 ef bd
       -0.07336469 0.005619725 -0.08080868 -0.11689436
0002d0 70 bc 09 be 0f ff 19 bd b2 0d 2b bd 26 39 a1 bd
       -0.1345079 -0.03759676 -0.041761108 -0.07872228
0002e0 14 69 84 bd e8 5a 0c bd 28 ff 1e bd e0 c0 65 bd
       -0.064653546 -0.034266382 -0.038817555 -0.056092143
0002f0 cb 37 3d bd 1c 05 fb bc ad 76 d6 be 6a 40 82 be
       -0.046195786 -0.030642085 -0.41887417 -0.2543977
000300 c1 9e 8a bd 67 cc 70 bd bd c2 a9 bd c9 c5 76 bd
       -0.06768561 -0.058788683 -0.082890965 -0.060247216
000310 34 57 81 bd 57 42 00 be 3e 66 b3 bd 1d de 91 bd
       -0.06315461 -0.12525307 -0.087597355 -0.07122443
000320 17 35 93 bd 7a 3f 82 bd 37 2d 85 bd fd 4f 47 bd
       -0.071878605 -0.063597634 -0.06502765 -0.048660267
000330 20 2f 2b bd 14 dd 34 bd 08 3d b6 bd bc 0a 9f bd
       -0.04179299 -0.04415615 -0.088983595 -0.07765719
000340 c3 6e b9 bd 94 22 71 bd e9 4f 70 bd 24 61 3e be
       -0.09054329 -0.058870867 -0.05866996 -0.18591744
000350 29 31 5f bd 17 11 37 bd fe 3b 20 bd 73 48 b9 be
       -0.054490242 -0.044694033 -0.039119713 -0.36188087
000360 5b 5c 6d bd ac b2 3c bd 56 34 2c bd 94 47 36 bd
       -0.057949405 -0.046068832 -0.0420421 -0.044501856
000370 86 31 7b bd 62 64 b8 bd 07 42 83 bd ed e8 83 bd
       -0.061326526 -0.090035215 -0.06409078 -0.064409114
000380 00 ed 63 bd bb 89 0e bd 94 8e ba bd d6 12 a9 be
       -0.055645943 -0.03479932 -0.09109226 -0.33022183
000390 7c 1f 90 bd cf ae 7f bd 0d 57 9a bd e2 33 90 bd
       -0.07037255 -0.06242257 -0.07536135 -0.07041146
0003a0 26 93 93 bd 8c 43 45 be 1b c3 b8 bd 07 72 d1 bc
       -0.07205801 -0.19264048 -0.090215884 -0.025567068
0003b0 b1 a9 29 bd 15 46 91 bd 9f 3c bf bd cf a8 89 bd
       -0.041421596 -0.07093445 -0.093377344 -0.06721651
0003c0 29 fa 0b be 2f 60 00 3e 70 d2 59 bd 06 81 2c bc
       -0.13669647 0.12536691 -0.053179204 -0.010528808
0003d0 c4 1b 63 bd ff 3b bf bd 18 b2 7e be d8 cb 0e bd
       -0.0554464 -0.09337615 -0.24872625 -0.03486237
0003e0 2d 3b 92 be 1d 5e b1 bd 47 34 fc bd 6a c8 d3 bd
       -0.28560773 -0.08660529 -0.123146586 -0.1034096
0003f0 8a 9b 65 bd ad c9 4a 3d 92 a8 09 bf 91 e8 af bd
       -0.056056537 0.04950874 -0.5377284 -0.085892804
