A3C-new/A3C-Pong&breakout-new/runs/BreakoutNoFrameskip-v4/2022-11-03_16-23_Second80MSteps_OK/model_sam_BreakoutDeterministic-v4_conv.36.tar (torch, 944955 bytes, 13 tensors)

conv1.weight f4 [32, 4, 3, 3]
0.19113061 -0.46128175 -0.1577438 0.14014566 -0.19232695 0.3062806 0.068799935 0.21033755
0.25490433 0.055162556 -0.035955776 -0.0485162 0.15561686 -0.10954093 0.05237246 0.033345483
0.12229331 0.2604284 0.13025394 0.14035201 0.13978493 -0.27628246 -0.017231155 0.16365685
-0.035569064 -0.13416402 0.0731986 -0.0037554107 -0.2455817 0.18108273 -0.24406898 -0.10235468
0.2082906 -0.24959779 -0.4595626 -0.15321171 0.21507266 -0.0383647 -0.08913578 -0.0023656348
0.4686124 -0.30208793 0.3578274 0.35350248 -0.412778 0.110418275 0.091176644 -0.07418182
-0.009731597 0.42857116 -0.3490637 0.030927854 0.44953078 -0.24049546 0.11841972 0.16950645
-0.10043501 -0.20037167 0.4513997 -0.040088322 -0.1992616 0.3211907 -0.03871898 0.025002938
-0.22998683 -0.12394813 -0.28141722 -0.039661016 -0.24168313 -0.27440742 -0.09339305 -0.16390732
0.10602784 0.06423116 -0.039165016 0.110916816 0.02695792 -0.11104048 -0.09694259 0.19815871
-0.10287586 0.15298437 0.027441073 -0.20467524 0.421366 -0.22881788 -0.5493258 0.119643554
-0.056013163 -0.012076577 0.25205228 -0.21600632 -0.13615568 0.4755655 -0.23589726 -0.48919335
0.12896377 0.084984556 -0.22192219 0.1332693 0.120605424 -0.19581269 0.30459347 0.14626087
-0.2586902 -0.09454064 0.26014647 -0.06041963 0.3511284 0.14810067 0.19512704 0.2944518
0.52044046 0.03086482 0.14608969 0.38821724 0.15800415 0.088622496 -0.19546168 -0.031163527
-0.08160242 0.22457187 0.29896986 -0.07706369 0.21056853 0.01798872 -0.29766688 -0.35512295
0.124412775 -0.07599426 -0.28088292 -0.052763432 0.048484087 0.029632246 0.019553075 0.019518979
-0.14277951 0.02272814 -0.34093183 -0.45053416 -0.25360903 -0.16807388 -0.37283406 -0.15835093
0.06798475 -0.10678464 -0.016914483 0.12448459 0.38968813 0.2338608 -0.048821263 0.22035374
0.14702815 -0.07197056 -0.5643894 -0.31836572 -0.37796944 -0.37180737 -0.3126728 -0.1449076
-0.2474365 0.0013534 0.14596389 0.18581381 -0.015623348 -0.1839318 -0.27336618 -0.122086115
-0.119633 -0.27660903 -0.079260744 0.21351951 0.34800997 0.119063035 0.1490822 0.50819016
0.27394062 0.1715906 0.014576237 0.2527965 -0.050130267 -0.19111182 -0.20675969 -0.3611889
-0.3422424 0.0691537 -0.4567251 -0.33858764 -0.0435254 0.06347488 0.090212 -0.07192829
-0.06424501 0.12889178 0.14560923 -0.23625411 -0.048236754 0.06692245 0.2940289 -0.1468029
-0.0636846 0.050893076 0.34073302 0.0657579 0.21321101 0.074921906 -0.036759824 0.11004154
0.09850444 0.016238833 0.009606096 0.17853324 -0.12677817 0.19879907 0.3074974 0.23348619
0.18452974 0.0081039565 0.019369695 0.21280333 -0.037299145 -0.029500753 -0.13290058 -0.025169471
-0.05856633 0.038388543 0.34727153 0.2284385 0.42833984 0.6904443 -0.0030347235 -0.12912261
0.288759 -0.13626276 -0.2332138 -0.015524426 -0.22572961 0.21868747 0.38925394 -0.4001968
-0.14686112 0.19349255 -0.032180116 -0.23077072 -0.25137994 -0.11566578 -0.37692222 -0.39068285
-0.34965402 0.094141185 0.078349404 -0.053139936 0.12883972 0.14443831 0.25778517 -0.017803755
00000000: beb7 433e 1f2d ecbe 9787 21be 5882 0f3e
00000010: 5bf1 44be d0d0 9c3e fbe6 8c3d ba62 573e
00000020: d282 823e 22f2 613d 5d46 13bd ecb8 46bd
00000030: 075a 1f3e ff56 e0bd 8184 563d 4695 083d
00000040: ea74 fa3d df56 853e 4a61 053e 70b8 0f3e
00000050: c823 0f3e e574 8dbe 5a28 8dbc a995 273e
00000060: deb0 11bd 4b62 09be 26e9 953d 561d 76bb
00000070: c579 7bbe c06d 393e 38ed 79be 559f d1bd
00000080: 224a 553e 9096 7fbe ca4b ebbe 88e3 1cbe
00000090: 023c 5c3e 4e24 1dbd d28c b6bd c408 1bbb
000000a0: f7ed ef3e 45ab 9abe 2735 b73e 47fe b43e
000000b0: a357 d3be fa22 e23d d2ba ba3d a3ec 97bd
000000c0: 4771 1fbc ae6d db3e 7ab8 b2be 695c fd3c
000000d0: e628 e63e 7144 76be 0a86 f23d 1993 2d3e
000000e0: dfb0 cdbd 3b2e 4dbe dd1d e73e a733 24bd
000000f0: 3c0b 4cbe 1c73 a43e cb97 1ebd f6d2 cc3c
00000100: ab81 6bbe 84d8 fdbd eb15 90be 9773 22bd
00000110: c87b 77be 217f 8cbe db44 bfbd 52d7 27be
00000120: 2025 d93d a08b 833d 7f6b 20bd 5b28 e33d
00000130: dbd6 dc3c 3169 e3bd d689 c6bd 1eea 4a3e
00000140: 94b0 d2bd efa7 1c3e 1acc e03c 6396 51be
00000150: 49bd d73e 3c4f 6abe 9ea0 0cbf ae07 f53d
00000160: 0f6e 65bd d6dc 45bc ff0c 813e c330 5dbe
00000170: 656c 0bbe 527d f33e 0d8f 71be 8d77 fabe
00000180: 140f 043e 620c ae3d 923f 63be bf77 083e
00000190: faff f63d 1f83 48be adf3 9b3e 69c5 153e
000001a0: 0b73 84be 869e c1bd eb31 853e 937a 77bd
000001b0: 1ac7 b33e b4a7 173e 62cf 473e 63c2 963e
000001c0: 963b 053f 38d8 fc3c 8998 153e 69c4 c63e
000001d0: d7cb 213e b67f b53d 1b27 48be a74a ffbc
000001e0: 2b1f a7bd 2bf6 653e 9412 993e 91d3 9dbd
000001f0: 479f 573e 155d 933c cb67 98be add2 b5be
00000200: 20cc fe3d e1a2 9bbd e3cf 8fbe 781e 58bd
00000210: 4097 463d 53bf f23c c52d a03c 44e6 9f3c
00000220: cb34 12be 5d30 ba3c 9e8e aebe 6aac e6be
00000230: 0bd9 81be 8f1b 2cbe 1be4 bebe bf26 22be
00000240: 973b 8b3d e8b1 dabd 3e90 8abc c7f1 fe3d
00000250: 3485 c73e 3579 6f3e cef8 47bd 69a4 613e
00000260: 8c8e 163e 4d65 93bd d37b 10bf d500 a3be
00000270: 3685 c1be 895d bebe a616 a0be a862 14be
00000280: fe5f 7dbe 9164 b13a 8f77 153e fa45 3e3e
00000290: 12f9 7fbc 9e58 3cbe a7f6 8bbe 4908 fabd
000002a0: 2502 f5bd b39f 8dbe 7553 a2bd dca4 5a3e
000002b0: 5d2e b23e 52d7 f33d 01a9 183e c018 023f
000002c0: f241 8c3e 72b5 2f3e 2bd1 6e3c 8b6e 813e
000002d0: 6555 4dbd d1b2 43be d0b8 53be c0ed b8be
000002e0: 653a afbe 74a0 8d3d dfd7 e9be 5c5b adbe
000002f0: b147 32bd 1eff 813d 12c1 b83d 244f 93bd
00000300: e392 83bd 35fc 033e 961a 153e 99ec 71be
00000310: e793 45bd a30e 893d f58a 963e 8053 16be
00000320: 126d 82bd 4275 503d 8f74 ae3e 14ac 863d
00000330: fd53 5a3e a870 993d 7891 16bd 755d e13d
00000340: b2bc c93d 4d07 853c e362 1d3c 6bd1 363e
00000350: 23d2 01be fc91 4b3e 4d70 9d3e 0117 6f3e
00000360: 5df5 3c3e 75c6 043c 32ad 9e3c 1ee9 593e
00000370: fdc6 18bd 90ab f1bc 1717 08be 3530 cebc
00000380: 3fe3 6fbd 4e3d 1d3d 93cd b13e c8eb 693e
00000390: 5c4f db3e f5c0 303f 36e2 46bb b838 04be
000003a0: 38d8 933e 7788 0bbe 99cf 6ebe 295a 7ebc
000003b0: aa25 67be 9cef 5f3e 4b4c c73e 98e6 ccbe
000003c0: c362 16be e922 463e 4ccf 03bd 294f 6cbe
000003d0: dfb4 80be 2ee2 ecbd f3fb c0be 9507 c8be
000003e0: da05 b3be 18cd c03d a775 a03d 43a9 59bd
000003f0: 8fee 033e a3e7 133e 6bfc 833e 2ed9 91bc

conv1.bias f4 [32]
-0.0039804797 -0.00052946835 -0.014004307 -0.017865835 -0.0019835383 -0.003292028 -0.00040283398 -0.00051102246
0.00096508284 -0.009485625 -0.0013557433 -0.00056166615 0.0016949154 -0.014143823 -0.0028659806 -0.04112752
0.00017080065 -0.0009881108 -0.0015311572 -0.0036902197 -0.005587443 0.0022823955 0.004507953 -0.0017805112
-0.0048952093 0.0023476144 -0.0009419618 -0.0008101131 -0.004524154 -0.010211544 0.011245895 -0.0056755645
00000000: af6e 82bb 05cc 0aba 5272 65bc 5f5b 92bc
00000010: 40fe 01bb 11bf 57bb 7633 d3b9 23f6 05ba
00000020: 9dfd 7c3a 9869 1bbc 32b3 b1ba c73c 13ba
00000030: ec27 de3a 7ebb 67bc 2dd3 3bbb 5575 28bd
00000040: f318 3339 7f83 81ba 1cb1 c8ba 9dd7 71bb
00000050: de16 b7bb 3e94 153b 73b7 933b 0b60 e9ba
00000060: fe67 a0bb 6fda 193b fded 76ba c55d 54ba
00000070: 5b3f 94bb 524e 27bc b440 383c 16fa b9bb

conv2.weight f4 [32, 32, 3, 3]
0.26384264 0.04161113 0.13427162 -0.13356376 0.1417248 0.17818548 -0.036268108 -0.027874906
-0.1744879 0.20660631 -0.35368994 0.17717251 0.25304237 -0.31726754 0.21424003 -0.057542335
0.09684001 -0.08108324 -0.046561033 -0.008763054 -0.1507076 0.09581539 -0.010512518 -0.43966475
-0.12144737 -0.00037862847 0.32723787 0.10956775 -0.13064729 0.18666016 0.17843775 0.08438872
0.25892895 0.054010116 0.16012901 -0.24213219 -0.11978269 0.038304072 -0.11840582 -0.05918547
-0.08171574 -0.13967785 0.088077 0.014852986 -0.07026746 -0.35135508 0.11047293 -0.10561357
0.017596932 -0.001880108 0.16357547 0.008532224 0.05568089 -0.23552577 0.06856491 -0.19453834
0.084783666 0.24506392 -0.11201727 0.28539434 -0.13625881 -0.00016655991 -0.09513988 -0.011913942
0.25427002 0.22714072 -0.19215591 0.24498138 0.19885314 -0.06476736 0.11511213 -0.17878509
0.043611422 0.11232412 0.09458661 -0.18563084 -0.090756044 0.31362692 0.037080918 -0.08405031
0.061583027 -0.07294785 0.03705415 -0.2916236 -0.26552266 -0.21668287 -0.46573418 -0.042806827
0.006452587 0.4249432 -0.17452109 -0.13682383 0.037496444 -0.11389752 0.11499722 -0.06696928
-0.05581783 0.1894043 -0.16965161 0.025182655 0.06638815 0.05422919 0.068901055 0.034036603
-0.40197873 -0.11159845 0.15822087 -0.07717713 0.13413838 -0.0887596 0.08647878 -0.07338498
-0.07438609 0.25978824 -0.033741634 -0.04113806 0.0591953 0.31075782 0.23976555 0.31710988
-0.07925682 -0.18788601 0.30450135 0.029992308 -0.23825853 -0.034892596 0.09920144 -0.06860025
-0.24330024 -0.017823918 -0.045876008 -0.21220759 -0.11694727 0.03508159 0.048581608 0.1166068
-0.044701032 0.029416114 0.08278842 0.04780873 -0.15260814 0.121016145 -0.011078821 -0.045636516
-0.2098143 -0.09278411 -0.012722936 0.075402565 -0.23196697 0.14477973 0.09620041 0.16787669
-0.07745108 0.14694653 0.091360345 0.1861112 -0.06592471 0.007080867 0.124167204 0.016990472
-0.25559723 0.08123132 0.19133897 -0.045144964 -0.042508468 0.10507346 -0.2119436 -0.11676466
-0.24873748 0.0033627965 -0.062941454 -0.0304305 -0.035637263 -0.2530174 0.019435445 0.055996437
-0.36020494 -0.0624595 0.05047804 0.26397967 0.010657273 0.011499438 0.19872391 -0.13442323
0.09221829 0.5690664 -0.06958776 0.08205208 -0.2774894 0.25946862 0.07890912 0.05889646
0.14199749 0.09748958 -0.130496 -0.14709839 -0.043093223 0.11183954 -0.028362215 0.047370773
-0.050585177 -0.20321256 0.28038704 0.16485327 -0.053711466 0.042310968 0.05217709 -0.017895948
-0.13964897 0.13212363 -0.21856394 0.39385465 -0.42374367 -0.060175013 -0.07575991 0.29905075
-0.13717875 0.103820495 -0.07692265 -0.08426106 0.04240849 0.13775775 0.07541129 -0.09353959
-0.02803424 0.14705412 0.4224587 -0.09298371 -0.30290294 0.17401958 -0.16340502 -0.008549794
0.0034079757 -0.14207388 -0.027119892 -0.016708028 -0.09256641 -0.26068583 0.17241189 0.23721027
0.0076815663 0.1338845 -0.1706529 0.0028798264 0.120049484 -0.19058084 -0.08523876 0.2880481
0.32967892 -0.08369095 0.09682982 -0.19392927 0.050849594 -0.09660645 0.10587107 0.035938125
00000000: 6216 873e 6f70 2a3d 807e 093e f0c4 08be
00000010: 4e20 113e 4176 363e de8d 14bd ea59 e4bc
00000020: f5ac 32be 9b90 533e d916 b5be b66c 353e
00000030: c58e 813e e470 a2be bd61 5b3e 83b1 6bbd
00000040: 0e54 c63d f80e a6bd c8b6 3ebd ea92 0fbc
00000050: 1853 1abe dc3a c43d b23c 2cbc bd1b e1be
00000060: 66b9 f8bd a782 c6b9 b98b a73e 0e65 e03d
00000070: 67c8 05be d723 3f3e 63b8 363e fed3 ac3d
00000080: 5692 843e b639 5d3d dcf8 233e 80f1 77be
00000090: a150 f5bd bbe4 1c3d c07e f2bd 776c 72bd
000000a0: 955a a7bd b607 0fbe b761 b43d f059 733c
000000b0: 63e8 8fbd d0e4 b3be a23f e23d ed4b d8bd
000000c0: 7127 903c f56d f6ba 5480 273e beca 0b3c
000000d0: a511 643d ab2d 71be c26b 8c3d 0f35 47be
000000e0: 0fa3 ad3d 09f2 7a3e 4f69 e5bd 351f 923e
000000f0: 6e87 0bbe 96a6 2eb9 b3d8 c2bd b232 43bc
00000100: ae2f 823e 9497 683e 85c4 44be 66dc 7a3e
00000110: 28a0 4b3e c0a4 84bd e9bf eb3d 7013 37be
00000120: e4a1 323d 300a e63d a0b6 c13d 0316 3ebe
00000130: 4ede b9bd b593 a03e 29e2 173d 9222 acbd
00000140: 7c3e 7c3d af65 95bd 18c6 173d b04f 95be
00000150: 96f2 87be 1de2 5dbe b674 eebe 3656 2fbd
00000160: 3970 d33b 2892 d93e a8b5 32be 8c1b 0cbe
00000170: df95 193d 1a43 e9bd aa83 eb3d 3127 89bd
00000180: 3da1 64bd 33f3 413e 27b9 2dbe db4b ce3c
00000190: 83f6 873d 6d1f 5e3d ff1b 8d3d f769 0b3d
000001a0: 28d0 cdbe ba8d e4bd a704 223e 0b0f 9ebd
000001b0: 925b 093e 98c7 b5bd c91b b13d dd4a 96bd
000001c0: bc57 98bd f702 853e ab34 0abd 6280 28bd
000001d0: c576 723d a61b 9f3e 1a85 753e 3a5c a23e
000001e0: 6651 a2bd 3165 40be 9ae7 9b3e 6eb2 f53c
000001f0: 0bfa 73be 8aeb 0ebd 202a cb3d 4a7e 8cbd
00000200: b323 79be 7703 92bc 7be8 3bbd f24c 59be
00000210: 0d82 efbd b7b1 0f3d 82fd 463d 8ccf ee3d
00000220: 6e18 37bd 10fa f03c fa8c a93d 16d3 433d
00000230: 4f45 1cbe 50d7 f73d f183 35bc 5bed 3abd
00000240: 8fd9 56be 9805 bebd dd73 50bc a96c 9a3d
00000250: c088 6dbe 2341 143e b804 c53d dee7 2b3e
00000260: ac9e 9ebd 2779 163e 221b bb3d ef93 3e3e
00000270: 8903 87bd 9e06 e83b 604b fe3d 9a2f 8b3c
00000280: a4dd 82be 9b5c a63d 5dee 433e ede9 38bd
00000290: 5c1d 2ebd c130 d73d be07 59be 4f22 efbd
000002a0: 0ab5 7ebe 5d62 5c3b 73e7 80bd 6249 f9bc
000002b0: 61f8 11bd 7f8b 81be 1537 9f3c 855c 653d
000002c0: c86c b8be 88d5 7fbd 10c2 4e3d 5828 873e
000002d0: d89b 2e3c 2468 3c3c 487e 4b3e 3ea6 09be
000002e0: f1dc bc3d 56ae 113f 0784 8ebd ec0a a83d
000002f0: 1713 8ebe 12d9 843e 1b9b a13d 6a3d 713d
00000300: ca67 113e 9ea8 c73d bea0 05be f6a0 16be
00000310: 8582 30bd 210c e53d e057 e8bc db07 423d
00000320: 6732 4fbd f416 50be e48e 8f3e 4ccf 283e
00000330: 8e00 5cbd 444e 2d3d a5b7 553d 869a 92bc
00000340: 2400 0fbe 6b4b 073e 3acf 5fbe 51a7 c93e
00000350: eef4 d8be 137a 76bd 0328 9bbd 2e1d 993e
00000360: 9678 0cbe d79f d43d 9f89 9dbd 1091 acbd
00000370: 86b4 2d3d 5e10 0d3e 3c71 9a3d af91 bfbd
00000380: 10a8 e5bc 5b95 163e 824c d83e 3e6e bebd
00000390: 1816 9bbe 3032 323e a553 27be 6f14 0cbc
000003a0: 5858 5f3b d17b 11be 892a debc 46df 88bc
000003b0: 7593 bdbd 9d78 85be be8c 303e 40e7 723e
000003c0: a6b5 fb3b 0519 093e a2bf 2ebe 78bb 3c3b
000003d0: 81dc f53d a027 43be a991 aebd 0a7b 933e
000003e0: adcb a83e 2966 abbd b64e c63d 6595 46be
000003f0: aa47 503d 9ad9 c5bd eed2 d83d db33 133d

conv2.bias f4 [32]
-0.010094365 -0.16843872 -0.03632112 -0.03751786 -0.029613372 -0.025464332 0.004520862 -0.030839546
-0.0390292 -0.20084924 -0.051730447 -0.013802345 -0.06669593 -0.039792106 -0.04503527 -0.03623723
-0.030372744 -0.011814517 -0.03594734 -0.12908968 -0.26494506 0.0016644346 -0.057001453 -0.069697924
-0.13130371 0.003859663 -0.007215956 -0.032957565 -0.065402344 -0.024947971 -0.07045798 -0.21651354
00000000: d662 25bc 337b 2cbe 74c5 14bd 54ac 19bd
00000010: be97 f2bc 939a d0bc bd23 943b 37a3 fcbc
00000020: 15dd 1fbd 6cab 4dbe 4ee3 53bd 3b23 62bc
00000030: e097 88bd 0cfd 22bd e776 38bd 7d6d 14bd
00000040: 43d0 f8bc ad91 41bc 853d 13bd 1630 04be
00000050: e1a6 87be 2829 da3a 5b7a 69bd c9bd 8ebd
00000060: 7b74 06be 66f2 7c3b d473 ecbb 83fe 06bd
00000070: aaf1 85bd b05f ccbc 464c 90bd bab5 5dbe

conv3.weight f4 [32, 32, 3, 3]
-0.10564702 -0.11198841 -0.15023793 -0.10097838 -0.0012853483 0.048431605 -0.05085452 0.1858252
-0.025242096 -0.03577334 0.11054756 0.13796616 -0.10394751 -0.19513527 -0.32190135 -0.08685525
-0.058849096 -0.04573395 -0.029025663 0.042309076 0.018990112 0.082176745 -0.073537536 -0.20070094
0.028239425 -0.06948075 0.07686801 0.005601298 -0.028167196 0.04070908 -0.057559498 0.06202171
-0.22744708 0.08631558 -0.11091312 0.15688094 0.08414576 -0.07988704 0.11353555 -0.036558993
-0.1125212 -0.10770915 -0.0319346 0.15636893 0.15089718 0.011678239 0.050390206 0.21577464
0.119926795 0.013880785 -0.0626456 0.01821387 -0.06140744 0.110108316 0.09463236 0.17594913
-0.013102136 -0.098422624 0.18416382 0.17270075 0.054412555 -0.16161063 0.11300552 0.05494739
-0.031169439 0.069711715 0.039762586 -0.048978966 0.19965166 -0.06498957 0.34136328 -0.11654393
0.01670122 0.14143477 0.0025485067 -0.06596189 0.16116495 0.20312732 -0.23138261 0.062734865
-0.12002243 -0.10812546 0.07442306 0.020187141 0.02949131 0.035341047 0.03380955 0.1654221
-0.09495511 0.30532083 -0.0958749 0.0072227777 0.02729608 0.10843925 -0.045312237 -0.0062753186
-0.06950535 -0.1065978 -0.03400669 0.13244095 0.119592085 0.19101098 -0.023247318 0.09718276
-0.034294635 -0.14668594 0.011184152 -0.033074826 -0.07628755 0.113059044 0.10285634 0.12335194
0.035754617 0.32056028 -0.079205714 -0.020148713 -0.07927356 -0.06852571 -0.010687481 -0.00066017156
0.20320947 -0.112709455 0.14007877 0.04129995 0.039427865 -0.038293935 -0.14277707 -0.0954003
0.00667342 0.038347017 0.11370134 -0.1826522 0.109231286 -0.24097668 0.13258484 -0.00054304133
0.074273564 -0.08153291 0.03625621 -0.27641112 0.06832781 0.009311535 -0.18496293 -0.05747831
-0.05619959 0.19006233 0.058501873 -0.18411674 0.10448157 0.28602195 -0.10761552 -0.121637054
-0.24180855 -0.07145143 -0.17787452 -0.0015381176 0.107974865 -0.19635713 0.07690423 -0.060666457
0.28352594 0.0099685425 -0.020100966 -0.0015098602 -0.2264037 -0.029491091 -0.084700726 0.07501094
-0.09482663 0.08394149 0.055608533 0.09187102 0.09627053 0.09807887 -0.17376623 0.08814468
-0.044248313 0.0621231 -0.30880734 -0.11310844 -0.10357233 -0.13426097 -0.18479094 -0.034795385
0.139732 0.18826531 -0.0011491171 0.045998983 0.06819415 -0.057397 0.13398956 0.11704482
-0.07848696 -0.33756003 -0.004859951 0.052372836 0.20509756 -0.15001929 0.05928533 -0.036697183
-0.025527587 -0.018075878 0.19235866 0.16387928 -0.20083943 0.1155854 -0.13649735 -0.074035354
0.037494633 0.057271715 0.104533084 -0.08658964 0.23096555 0.0043856185 0.1334841 0.055732958
0.13203613 0.031139119 0.09227627 -0.10369261 -0.006077153 -0.03695695 -0.15879989 -0.115267925
-0.16787758 -0.07086807 0.12725027 -0.04303577 -0.014699446 -0.28551918 0.27639428 -0.14933935
0.3652093 -0.35011765 0.051507764 0.14057574 0.105118535 0.23025239 -0.08528282 -0.036255494
-0.10668357 0.14456 -0.2548659 0.104947865 0.2978318 0.12604569 -0.06530071 -0.0793821
0.13952039 -0.03694681 -0.25677142 -0.0602053 0.13988787 0.24253596 0.15541852 -0.08781377
00000000: 775d d8bd 2e5a e5bd f9d7 19be c1cd cebd
00000010: 2279 a8ba 3860 463d d44c 50bd f648 3e3e
00000020: 83c8 cebc 1187 12bd c266 e23d 0047 0d3e
00000030: 6fe2 d4bd 8ad1 47be 41d0 a4be 2ae1 b1bd
00000040: c00b 71bd 8653 3bbd 3ac7 edbc 484c 2d3d
00000050: 2791 9b3c 484c a83d d99a 96bd 8c84 4dbe
00000060: 5e56 e73c ec4b 8ebd fa6c 9d3d 188b b73b
00000070: e4be e6bc 90be 263d 82c3 6bbd 7a0a 7e3d
00000080: e3e7 68be 39c6 b03d 6b26 e3bd 66a5 203e
00000090: 9d54 ac3d d19b a3bd 5485 e83d e2be 15bd
000000a0: 8471 e6bd 9d96 dcbd dbcd 02bd 2d1f 203e
000000b0: ca84 1a3e 1656 3f3c f665 4e3d 07f4 5c3e
000000c0: 2e9c f53d 3b6c 633c 564c 80bd 4135 953c
000000d0: 5e86 7bbd 7880 e13d 9cce c13d 022c 343e
000000e0: 57aa 56bc cd91 c9bd 7195 3c3e 77d8 303e
000000f0: b3df 5e3d 427d 25be 706f e73d 8410 613d
00000100: 0d57 ffbc 04c5 8e3d 18de 223d 2b9e 48bd
00000110: 7c71 4c3e 4019 85bd 2bc7 ae3e 95ae eebd
00000120: ffd0 883c 47d4 103e d904 273b 0717 87bd
00000130: 6d08 253e 9c00 503e 90ef 6cbe 237b 803d
00000140: 52ce f5bd e270 ddbd 1e6b 983d 815f a53c
00000150: c297 f13c c6c1 103d e27b 0a3d 6964 293e
00000160: d377 c2bd 0353 9c3e 0f5a c4bd 0dad ec3b
00000170: 079c df3c 6615 de3d 5399 39bd 30a1 cdbb
00000180: d258 8ebd f34f dabd 994a 0bbd 9a9e 073e
00000190: b2ec f43d 6298 433e 2971 bebc c107 c73d
000001a0: 8878 0cbd d734 16be bc3d 373c 7879 07bd
000001b0: a63c 9cbd 808b e73d 58a6 d23d f19f fc3d
000001c0: 6f73 123d 7a20 a43e 9b36 a2bd ea0e a5bc
000001d0: 2d5a a2bd 3557 8cbd 8b1a 2fbc 5d0f 2dba
000001e0: 2516 503e 37d4 e6bd cf70 0f3e 232a 293d
000001f0: 1d7f 213d 1ada 1cbd 2734 12be 3c61 c3bd
00000200: b4ac da3b c311 1d3d 40dc e83d 2e09 3bbe
00000210: a7b4 df3d 97c2 76be 52c4 073e e35a 0eba
00000220: bd1c 983d bafa a6bd 6481 143d c285 8dbe
00000230: 73ef 8b3d 698f 183c ec66 3dbe 606e 6bbd
00000240: 8b31 66bd b39f 423e a99f 6f3d 1989 3cbe
00000250: 6ffa d53d 7871 923e 8765 dcbd d91c f9bd
00000260: a99c 77be 2155 92bd bd24 36be aa9a c9ba
00000270: ed21 dd3d d811 49be f77f 9d3d 647d 78bd
00000280: 502a 913e 1953 233c c8aa a4bc 80e6 c5ba
00000290: 5fd6 67be 4d97 f1bc 9377 adbd 569f 993d
000002a0: 7734 c2bd 84e9 ab3d c6c5 633d e026 bc3d
000002b0: 7c29 c53d 93dd c83d c6ef 31be 3385 b43d
000002c0: b83d 35bd cb74 7e3d ff1b 9ebe 66a5 e7bd
000002d0: bb1d d4bd b57b 09be d639 3dbe 9b85 0ebd
000002e0: e815 0f3e 9fc8 403e f99d 96ba 6e69 3c3d
000002f0: 60a9 8b3d 1e19 6bbd 8f34 093e 32b5 ef3d
00000300: c5bd a0bd abd4 acbe 3940 9fbb e684 563d
00000310: 1805 523e a89e 19be 2dd5 723d c94f 16bd
00000320: 3b1f d1bc dd13 94bc abf9 443e f8cf 273e
00000330: daa8 4dbe 0ab8 ec3d f6c5 0bbe d99f 97bd
00000340: f993 193d bf95 6a3d 7115 d63d e955 b1bd
00000350: 3c82 6c3e 3cb5 8f3b 0eb0 083e 3e48 643d
00000360: 7b34 073e 7717 ff3c 57fb bc3d cb5c d4bd
00000370: db22 c7bb 2c60 17bd 709c 22be 9711 ecbd
00000380: 1ae8 2bbe 4723 91bd e54d 023e 4746 30bd
00000390: f2d5 70bc 922f 92be 8d83 8d3e 6aec 18be
000003a0: b7fc ba3e 9f42 b3be cef9 523d 16f3 0f3e
000003b0: 6348 d73d 48c7 6b3e c2a8 aebd a480 14bd
000003c0: ea7c dabd 8907 143e c97d 82be e8ee d63d
000003d0: 697d 983e 1f12 013e 61bc 85bd 1593 a2bd
000003e0: 6fde 0e3e 8a55 17bd 8b77 83be d599 76bd
000003f0: c43e 0f3e 595b 783e 0826 1f3e b5d7 b3bd

conv3.bias f4 [32]
0.123462886 -0.050809976 0.117759034 0.10750723 0.02907521 -0.088787794 0.14232765 0.08031023
-0.18492505 0.14074795 -0.025097094 0.1305785 0.18410936 0.13374631 -0.17226812 -0.021077985
0.17056547 -0.0067078555 0.07665256 -0.02903698 -0.019899165 0.14868899 -0.015165581 0.012420329
-0.027984917 -0.024186047 0.105169 0.13441043 -0.018365838 -0.03531016 0.060148105 0.18821569
00000000: 1cda fc3d 1f1e 50bd a62b f13d c02c dc3d
00000010: 232f ee3c 60d6 b5bd 57be 113e b179 a43d
00000020: fe5c 3dbe 3b20 103e 6c98 cdbc 5fb6 053e
00000030: 2a87 3c3e cbf4 083e 0e67 30be bdab acbc
00000040: b7a8 2e3e 92cd dbbb 04fc 9c3d f6de edbc
00000050: 9303 a3bc ed41 183e 0f79 78bc a37e 4b3c
00000060: a040 e5bc d121 c6bc d862 d73d e3a2 093e
00000070: f473 96bc 63a1 10bd dc5d 763d 9dbb 403e

conv4.weight f4 [32, 32, 3, 3]
-0.11214135 0.058621667 0.17188053 -0.013939445 0.06264301 -0.17424206 -0.058856145 -0.061140742
0.024889011 -0.10241399 0.10938585 -0.06441629 -0.14668211 0.22167984 0.035056584 0.09737425
-0.01563633 -0.07098451 -0.037202395 -0.034741085 0.01825859 -0.015396668 -0.014818171 -0.115936145
-0.05242509 0.03672939 0.19224755 -0.0060359053 0.08657578 -0.10184342 -0.05847084 -0.1609078
0.027330808 -0.08019289 0.26882297 0.11367546 0.0053436384 0.12248261 0.13896868 -0.068011716
0.2657425 -0.0381415 0.032869577 -0.14743496 -0.023992715 -0.10752248 -0.0078203 -0.04526758
0.1037774 -0.13921826 0.055779606 0.005450954 -0.05960319 -0.15999117 -0.058820188 0.06873478
0.15715483 0.23999898 -0.031684972 -0.18332095 -0.24008046 0.0017317457 0.00874576 -0.03101152
0.119360596 -0.14758356 -0.024815626 0.05683619 -0.045179248 0.023656148 -0.07735588 0.0051270267
0.07520186 0.052409973 -0.10238669 0.11094639 -0.25105566 0.031802583 -0.086660646 0.20113498
0.08314347 0.07368212 0.008108065 0.11964428 -0.1120338 0.00443798 -0.02314635 -0.032543425
-0.012112429 0.073551714 0.07217682 -0.16701862 0.08920775 -0.047619518 -0.080314696 0.005245085
0.03141505 0.09189028 -0.008809964 0.030647151 -0.055505857 -0.13755736 -0.20878781 -0.009676708
-0.0024842164 0.008068699 0.022940364 0.02330087 -0.11253149 -0.0029471375 0.09554451 -0.048460703
-0.053334076 -0.13140206 0.10832597 -0.030152714 0.042185143 -0.042526554 -0.027118705 -0.047116566
-0.1471918 0.23510055 -0.10700421 0.11444234 -0.15244818 0.035816915 0.010217561 0.10313355
-0.03283523 0.022637391 -0.25659627 0.113690704 0.0020187243 0.019009568 -0.10833169 -0.054337952
0.07165219 -0.085991815 0.09632517 -0.09234548 -0.007302827 -0.10866982 -0.13526492 0.066640265
-0.016673883 -0.050228518 -0.14205264 -0.13873309 0.117291465 -0.013683143 -0.08554077 -0.071029276
0.048542336 -0.022262374 0.06612234 -0.17999345 0.13910992 -0.2522767 0.029069144 -0.17433278
0.053882975 0.12535201 0.012164516 0.018757338 0.025575364 -0.030803934 0.01877252 -0.21876201
-0.027883232 0.022477584 0.10290973 0.087580085 0.21186648 -0.081951015 0.06903922 0.14090832
-0.20549385 -0.021149388 0.1455724 0.14162238 0.010947073 0.26629847 -0.02065038 -0.3207216
0.10814481 0.112301975 0.0069745546 -0.1895241 0.03227686 0.1234337 -0.13429546 0.06890994
-0.030178918 -0.1140607 -0.10682583 -0.016710978 0.09743644 0.017696112 -0.026499234 0.052848555
0.1070933 0.047894146 0.06312397 -0.1036972 -0.035552956 -0.16023827 0.12124336 0.04014098
0.10382888 0.076954104 0.19137448 -0.19840096 -0.09014247 -0.12427322 -0.18199639 0.24018808
0.08687711 -0.10587583 -0.00865372 -0.25175378 0.004445062 0.068821646 0.12370848 -0.05675584
-0.029232828 0.15318139 0.04871965 -0.10804396 -0.10136395 0.21747765 0.15168057 0.08706991
-0.15238807 0.029447375 0.07075803 -0.14366096 0.09507769 -0.016924743 0.03359096 -0.1903181
-0.027323851 -0.0769604 0.052209765 -0.022472335 -0.059559233 0.040763684 0.0888866 0.11861854
-0.1174021 0.058117967 -0.050888963 -0.023899425 0.07069286 -0.1248981 0.0045533413 -0.036258653
00000000: 5daa e5bd 461d 703d 7301 303e 4562 64bc
00000010: fa4a 803d 836c 32be 2413 71bd b76e 7abd
00000020: 0ae4 cb3c 6dbe d1bd b005 e03d b0ec 83bd
00000030: d633 16be 0a00 633e 7e97 0f3d 276c c73d
00000040: c317 80bc 5460 91bd 8a61 18bd ab4c 0ebd
00000050: 0a93 953c 4e42 7cbc eac7 72bc ee6f edbd
00000060: b1bb 56bd 8f71 163d 8bdc 443e d8c8 c5bb
00000070: a44e b13d 4893 d0bd 1f7f 6fbd 04c5 24be
00000080: dce4 df3c 2b3c a4bd 2aa3 893e aece e83d
00000090: b019 af3b 2ad8 fa3d ce4d 0e3e ba49 8bbd
000000a0: 670f 883e 433a 1cbd 40a2 063d 31f9 16be
000000b0: 5f8c c4bc bf34 dcbd b720 00bc 7f6a 39bd
000000c0: 3f89 d43d 3b8f 0ebe 2879 643d eb9d b23b
000000d0: 7922 74bd bad4 23be 70ed 70bd d2c4 8c3d
000000e0: 32ed 203e 4bc2 753e 1ac8 01bd 7db8 3bbe
000000f0: a7d7 75be befb e23a 604a 0f3c df0b febc
00000100: 5473 f43d 2520 17be 244a cbbc 11cd 683d
00000110: e00d 39bd 8aca c13c c26c 9ebd 9e00 a83b
00000120: 6f03 9a3d d7ab 563d 1db0 d1bd dc37 e33d
00000130: 5e8a 80be 6d43 023d 237b b1bd 54f6 4d3e
00000140: 2047 aa3d a7e6 963d b1d7 043c 0f08 f53d
00000150: fa71 e5bd 796c 913b 6a9d bdbc 414c 05bd
00000160: 3673 46bc 48a2 963d 71d1 933d ee06 2bbe
00000170: 8eb2 b63d af0c 43bd 087c a4bd f6de ab3b
00000180: 11ad 003d f930 bc3d ab57 10bc bc0f fb3c
00000190: 1c5a 63bd d6db 0cbe 79cc 55be 0e8b 1ebc
000001a0: 3cce 22bb 9432 043c 6eed bb3c 77e1 be3c
000001b0: e976 e6bd c324 41bb d7ac c33d bb7e 46bd
000001c0: d574 5abd 438e 06be 02da dd3d d302 f7bc
000001d0: 54ca 2c3d 5330 2ebd 0c28 debc 4dfd 40bd
000001e0: 72b9 16be 33be 703e 0625 dbbd bf60 ea3d
000001f0: 601b 1cbe c2b4 123d 8f67 273c af37 d33d
00000200: 3c7e 06bd 0d72 b93c 9660 83be acd6 e83d
00000210: 934c 043b f4b9 9b3c 01dd ddbd 7991 5ebd
00000220: 62be 923d 7a1c b0bd 2146 c53d a11f bdbd
00000230: 8e4c efbb 488e debd e382 0abe b17a 883d
00000240: ab97 88bc 6bbc 4dbd 3f76 11be 0c10 0ebe
00000250: 8236 f03d 432f 60bc 0030 afbd cc77 91bd
00000260: 54d4 463d 955f b6bc 266b 873d 3450 38be
00000270: d572 0e3e 692a 81be 6a22 ee3c 4b84 32be
00000280: 65b4 5c3d 475c 003e ae4d 473c fda8 993c
00000290: 6d83 d13c 8858 fcbc d4c8 993c 2603 60be
000002a0: 606b e4bc e922 b83c 56c2 d23d 305d b33d
000002b0: 87f3 583e efd5 a7bd 6f64 8d3d 454a 103e
000002c0: fb6c 52be 7b41 adbc ee10 153e 7505 113e
000002d0: 5a5b 333c 4658 883e fc2a a9bc 9f35 a4be
000002e0: 077b dd3d 94fe e53d ce8a e43b 9b12 42be
000002f0: be34 043d cfca fc3d c084 09be a820 8d3d
00000300: c739 f7bc a898 e9bd 80c7 dabd 76e5 88bc
00000310: c28c c73d 70f7 903c ec14 d9bc ba77 583d
00000320: bb53 db3d a72c 443d 2447 813d 335f d4bd
00000330: fa9f 11bd 8015 24be 704e f83d de6a 243d
00000340: 3ca4 d43d 1d9a 9d3d acf7 433e 9f29 4bbe
00000350: 9e9c b8bd f582 febd 435d 3abe ddf3 753e
00000360: a0ec b13d 6dd5 d8bd 55c8 0dbc dfe5 80be
00000370: e2a7 913b 5df2 8c3d df5a fd3d d078 68bd
00000380: af79 efbc 95db 1c3e 418e 473d 2746 ddbd
00000390: e797 cfbd 76b2 5e3e 2752 1b3e b551 b23d
000003a0: 9e0b 1cbe 9f3b f13c 96e9 903d dc1b 13be
000003b0: 18b8 c23d c2a5 8abc ad96 093d bfe2 42be
000003c0: 45d6 dfbc 6a9d 9dbd e8d9 553d e717 b8bc
000003d0: 62f4 73bd d2f7 263d 2e0a b63d 47ee f23d
000003e0: 8370 f0bd 1b0d 6e3d f270 50bd bac8 c3bc
000003f0: 6bc7 903d 93ca ffbd 3234 953b f483 14bd

conv4.bias f4 [32]
0.031155538 0.20459193 -0.1614354 0.040814135 -0.0064357845 -0.04754808 -0.13119416 -0.032123316
0.14527825 -0.13100587 -0.23795356 -0.057491634 -0.009106539 0.081715755 0.016027771 -0.11427132
-0.1546601 0.09798888 0.05704395 -0.07571876 -0.13241851 0.16015507 0.11073869 -0.03682801
0.1563738 0.04825491 0.13117465 -0.29805702 0.23445058 0.013426464 -0.11315996 -0.06279852
00000000: e639 ff3c 8c80 513e 524f 25be b92c 273d
00000010: 46e3 d2bb c7c1 42bd c357 06be bd93 03bd
00000020: d2c3 143e 6726 06be 19aa 73be 597c 6bbd
00000030: 9833 15bc 975a a73d ac4c 833c 1507 eabd
00000040: 385f 1ebe 65ae c83d eba6 693d 7012 9bbd
00000050: b898 07be b1ff 233e f7ca e23d f8d8 16bd
00000060: 7420 203e f1a6 453d a652 063e ee9a 98be
00000070: d013 703e acfa 5b3c 69c0 e7bd 839c 80bd

linear.weight f4 [256, 800]
0.03679616 -0.04561133 -0.030476017 -0.014268097 0.0017651014 -0.049949024 0.01833675 0.014085139
-0.02382566 -0.06670886 0.011967715 -0.08718042 -0.07474238 -0.020850608 -0.0399851 0.027827604
0.013886517 -0.12771301 -0.03919524 0.05387854 -0.087862246 -0.03827672 0.022606112 -0.076330565
0.066361174 0.051584467 -0.04875849 -0.061680183 -0.034569554 0.019201342 -0.13942836 0.007957084
0.07841567 -0.07932113 -0.07697864 -0.11755795 -0.087386 -0.115481265 -0.06395735 -0.04754359
-0.021749223 -0.05645521 -0.055641647 0.048362702 -0.103710674 0.019754615 -0.10761775 0.015951786
-0.015310192 -0.08970198 0.044199888 0.039640233 -0.049971633 -0.01493087 -0.009123478 0.10146261
-0.069005996 -0.082958125 0.06466453 -0.15686513 0.026939763 -0.05372972 0.009825982 0.041749176
-0.0022703197 -0.06692642 -0.030441985 -0.065019086 0.037614323 0.0004356387 -0.06029278 0.07249498
0.011474048 -0.005060179 0.04326074 -0.0021536483 0.016627783 0.07561449 0.022406148 0.021094901
-0.022702385 0.024162214 0.03700175 -0.080381155 0.057632007 -0.06664446 -0.0139279915 -0.021530062
-0.006492082 0.027850969 -0.17753167 -0.069739364 0.12523504 0.16291378 0.024726395 0.056946885
-0.0682592 0.079730235 -0.12967575 -0.07277402 -0.047139216 0.011795003 0.026576087 0.037947442
-0.06115482 0.03876474 -0.049969394 -0.01836633 0.07632239 -0.11267856 -0.036968857 0.02772342
0.033111285 -0.097639486 -0.009820824 0.0605026 0.020731384 -0.00071319536 0.18210009 0.05300687
0.012526325 -0.011263337 0.11045203 -0.07749389 -0.035225473 -0.028050736 0.0048597804 0.02469852
-0.008292262 -0.0014098777 -0.03786483 0.017339183 -0.09040515 0.060245354 0.14653464 0.007861625
-0.11681217 -0.03567663 0.0013654667 -0.04162197 -0.08857064 0.029459339 -0.012720497 0.07045821
0.11434517 0.048099376 0.19106103 -0.18241735 0.013065682 0.12973902 -0.0047212746 -0.0036734724
-0.036957778 0.0075584953 -0.05662109 0.0020921149 0.072919965 -0.0984266 -0.09220956 -0.024703937
0.07321867 -0.07887343 0.032169 -0.007517882 0.010709688 0.037557274 -0.08742747 0.088154174
0.022760745 0.09687581 0.06163437 -0.012513566 -0.03035305 0.10894935 0.00872508 -0.025798468
-0.051689483 -0.01204481 -0.012292566 -0.035267394 -0.051260658 0.012247841 -0.019503243 0.047247574
-0.030008378 -0.06358702 -0.112395994 0.08104894 -0.018979127 -0.011653478 -0.0042761574 0.03864967
0.041633345 0.0077690477 -0.09876742 0.10018788 -0.02380943 -0.049314983 -0.022933103 0.028909115
0.037008572 -0.012749554 0.01808136 0.0024784715 0.003006315 -0.023727307 -0.02441249 0.038761653
-0.09703849 0.011697124 0.03189366 0.02555125 -0.0950611 -0.036276095 0.035366796 -0.08903724
0.02620751 -0.06090594 0.009664596 -0.09197438 0.07501474 -0.1384945 0.022036348 -0.02444164
0.014774301 -0.0017614571 0.081849344 0.103582986 0.03757185 0.09020956 -0.078104824 0.018491281
0.017766897 -0.029157143 0.08293623 -0.031379443 -0.091526926 -0.023489328 0.0024671743 -0.02411469
0.039439242 0.058317885 0.041277885 -0.020717634 -0.05623936 0.080601156 -0.029555412 0.0021839933
-0.046443805 0.023941414 -0.03702517 -0.04351888 0.015136801 0.015303587 0.022847716 0.07301223
00000000: 92b7 163d f2d2 3abd d7a8 f9bc bcc4 69bc
00000010: fa5a e73a 5997 4cbd f436 963c 5bc5 663c
00000020: 082e c3bc a89e 88bd 3c14 443c a68b b2bd
00000030: 8812 99bd e5ce aabc 6bc7 23bd b7f6 e33c
00000040: 4684 633c 33c7 02be 308b 20bd beaf 5c3d
00000050: 1ff1 b3bd 0dc8 1cbd 7430 b93c 3353 9cbd
00000060: 5ee8 873d 3c4a 533d fbb6 47bd 5ca4 7cbd
00000070: ce98 0dbd 224c 9d3c 4fc6 0ebe 6e5e 023c
00000080: 6598 a03d 1e73 a2bd faa6 9dbd 39c2 f0bd
00000090: 6ef7 b2bd 7181 ecbd 12fc 82bd 11bd 42bd
000000a0: 6d2b b2bc 943d 67bd 7fe8 63bd f817 463d
000000b0: 4366 d4bd 6ed4 a13c b266 dcbd 52ad 823c
000000c0: 99d7 7abc acb5 b7bd f10a 353d cc5d 223d
000000d0: 0eaf 4cbd 9ca0 74bc a47a 15bc a1cb cf3d
000000e0: 0453 8dbd f3e5 a9bd d66e 843d 41a1 20be
000000f0: c7b0 dc3c b213 5cbd 28fd 203c 2f01 2b3d
00000100: a5c9 14bb b810 89bd 7861 f9bc ba28 85bd
00000110: 7a11 1a3d 7066 e439 90f5 76bd 4078 943d
00000120: a5fd 3b3c dccf a5bb 2c32 313d 3924 0dbb
00000130: fd36 883c c5db 9a3d 198d b73c 37cf ac3c
00000140: 5afa b9bc d6ef c53c 268f 173d e09e a4bd
00000150: 8a0f 6c3d e47c 88bd 3b32 64bc d05f b0bc
00000160: 88bb d4bb b727 e43c ddca 35be 83d3 8ebd
00000170: 9d3d 003e dfd2 263e 028f ca3c 2341 693d
00000180: 7bcb 8bbd 9b49 a33d b8c9 04be 8c0a 95bd
00000190: 0d15 41bd d43f 413c 18b6 d93c c76e 1b3d
000001a0: 7a7d 7abd c7c7 1e3d b5ac 4cbd fc74 96bc
000001b0: ea4e 9c3d 04c4 e6bd a86c 17bd 3a1c e33c
000001c0: b39f 073d 36f7 c7bd 85e7 20bc 93d1 773d
000001d0: ddd4 a93c bbf5 3aba 7278 3a3e bb1d 593d
000001e0: 373b 4d3c dc89 38bc ad34 e23d 1eb5 9ebd
000001f0: 9648 10bd a8ca e5bc cb3e 9f3b 8d54 ca3c
00000200: 45dc 07bc a5cb b8ba 2718 1bbd e70a 8e3c
00000210: 5626 b9bd d5c3 763d 2d0d 163e 0cce 003c
00000220: 383b efbd a821 12bd 76f9 b23a cc7b 2abd
00000230: 8664 b5bd b654 f13c a269 50bc 654c 903d
00000240: cd2d ea3d da03 453d 81a5 433e 9dcb 3abe
00000250: 7111 563c 4eda 043e ecb4 9abb a4be 70bb
00000260: 0a61 17bd 41ad f73b 84eb 67bd dd1b 093b
00000270: 1057 953d e393 c9bd 5ed8 bcbd e95f cabc
00000280: acf3 953d 6588 a1bd a4c3 033d 9158 f6bb
00000290: b077 2f3c a8d5 193d 2c0d b3bd 2d8a b43d
000002a0: be74 ba3c d366 c63d 5274 7c3d b305 4dbc
000002b0: f6a6 f8bc d620 df3d a3f3 0e3c 4f57 d3bc
000002c0: 5ab8 53bd 9857 45bc c266 49bc 8b74 10bd
000002d0: b2f6 51bd 2bab 483c 44c5 9fbc ac86 413d
000002e0: 21d4 f5bc e939 82bd df2f e6bd fdfc a53d
000002f0: 1d7a 9bbc 3bee 3ebc 021f 8cbb 1e4f 1e3d
00000300: ba87 2a3d 7f93 fe3b 9346 cabd 4e2f cd3d
00000310: fe0b c3bc 82fe 49bd 34de bbbc cfd2 ec3c
00000320: 4d96 173d 81e3 50bc 5c1f 943c da6d 223b
00000330: 9905 453b c55f c2bc b4fc c7bc 8ac4 1e3d
00000340: 1ebc c6bd 4ba5 3f3c eda2 023d db50 d13c
00000350: 65af c2bd 3e96 14bd c6dc 103d 2859 b6bd
00000360: 22b1 d63c 8278 79bd 4158 1e3c 105d bcbd
00000370: 54a1 993d 81d1 0dbe 9285 b43c d639 c8bc
00000380: e90f 723c b1e0 e6ba a1a0 a73d 5123 d43d
00000390: f1e4 193d cabf b83d 6cf5 9fbd 077b 973c
000003a0: e28b 913c f6da eebc 78da a93d bb87 00bd
000003b0: 7872 bbbd b16c c0bc 51b0 213b 2c8c c5bc
000003c0: 0b8b 213d bcde 6e3d 0013 293d 07b8 a9bc
000003d0: 3e5b 66bd 3812 a53d 311e f2bc 5421 0f3b
000003e0: dc3b 3ebd c920 c43c b4a7 17bd da40 32bd
000003f0: 5800 783c e5bb 7a3c 222b bb3c 7087 953d

linear.bias f4 [256]
-0.05448896 -0.040837873 -0.4100628 -0.038581543 -0.038169853 -0.037725456 -0.06135512 -0.40131503
-0.056483 -0.012934775 0.0073263235 -0.16922522 -0.025605911 -0.011403579 -0.015935954 -0.12253101
-0.17022584 -0.07389356 -0.020691719 -0.069319084 -0.049037665 -0.023794891 -0.0613029 -0.048560172
-0.036357306 -0.25621504 -0.025364716 -0.045394447 -0.051089197 -0.11562622 -0.032062143 -0.14980844
-0.018716382 0.02449269 -0.09098019 -0.07233265 -0.057432663 -0.047572818 -0.025000613 -0.039997123
-0.0641497 -0.048055813 -0.013996266 -0.042344965 -0.037258036 -0.03512911 0.03705212 -0.029431786
-0.014239553 -0.049300037 -0.045643836 -0.0027624776 -0.12113437 -0.03985728 -0.10475758 -0.032028638
-0.051242627 -0.0058819726 -0.0024060197 -0.0023566887 -0.10081804 -0.017400661 -0.015406464 -0.033476308
-0.07875946 -0.030317003 -0.088675156 0.08703379 -0.024302881 -0.34713086 -0.15606774 0.0083214585
-0.003710523 -0.058052976 -0.061649635 -0.10910823 -0.066645354 -0.027648536 -0.054417934 -0.15716942
-0.16146848 -0.028793864 -0.033243943 -0.06180672 -0.044208955 -0.038712576 -0.047903996 -0.031299192
-0.06852127 -0.10383905 -0.003155324 -0.04750095 -0.0017842682 -0.055864252 0.08787841 -0.08113015
-0.038100593 -0.13983245 -0.055109937 -0.035080865 -0.030402144 -0.00434741 -0.06959646 -0.006269902
-0.31334123 -0.0024922048 -0.019951621 -0.05028762 -0.33120948 0.019620182 -0.12564489 -0.015973866
-0.017883165 -0.06268654 -0.036682725 -0.09413183 -0.045484465 -0.14330925 -0.07472736 -0.03297693
-0.08078945 -0.008177605 -0.060807094 -0.034061234 0.025581745 -0.055069055 -0.050773177 -0.050616395
-0.10281026 -0.03747805 -0.023967294 -0.14555603 0.004213012 0.0021353466 0.032006674 -0.03160726
-0.048209894 -0.13231467 -0.040624857 -0.018609453 -0.031711023 -0.03514468 -0.01681103 -0.05465911
-0.00043724052 -0.032016568 -0.42235374 -0.032526564 -0.052234113 -0.07843319 -0.020525694 0.04219262
-0.04184144 0.0062944586 -0.18769377 -0.11791993 -0.03520298 -0.28943694 -0.13663185 -0.19852717
-0.005211905 -0.028747315 -0.3933146 -0.035429306 -0.01502693 -0.121088654 -0.19769725 -0.050195854
0.025246913 -0.10881102 -0.012469039 -0.01794951 0.027435657 -0.068545915 -0.39807147 -0.037754305
-0.054877855 -0.052877914 -0.057821948 -0.15251394 -0.058253337 -0.031017557 0.007320409 -0.08761364
-0.013847564 -0.010365985 -0.017377166 -0.03771243 -0.033283524 -0.04687605 -0.24403135 -0.09656096
-0.012346204 -0.021814983 -0.051467963 -0.036844857 -0.034498554 -0.078651056 -0.0663738 -0.019710472
-0.031924933 -0.04410093 -0.046947382 -0.022087224 -0.13049068 -0.02091112 -0.031385645 -0.05483632
-0.084078535 -0.026399486 -0.004914799 -0.16162506 -0.045876987 -0.0065469015 -0.015855 -0.24814677
-0.024678199 -0.034823403 -0.0024720968 -0.008085289 -0.04174339 -0.0332331 -0.04261156 -0.04798563
-0.015147034 -0.009472592 -0.09987241 -0.32411128 -0.03276381 -0.046567056 -0.049023632 -0.04754461
-0.034758285 -0.16489603 -0.07057996 0.0012040933 -0.0061367424 -0.037218284 -0.03303882 -0.019959083
-0.13918306 0.058599856 -0.009135454 0.017457508 0.0027510142 -0.051689267 -0.1957057 0.012212908
-0.20744853 -0.02192651 -0.109487705 -0.07847253 -0.0026379752 0.07203716 -0.47722575 -0.06993206
00000000: d12f 5fbd 9d45 27bd c0f3 d1be ae07 1ebd
00000010: fe57 1cbd 0286 1abd 824f 7bbd 2a79 cdbe
00000020: b85a 67bd 61ec 53bc a811 f03b 6049 2dbe
00000030: 7dc3 d1bc 14d6 3abc 1e8c 82bc 8af1 fabd
00000040: af4f 2ebe 8255 97bd ae81 a9bc 2af7 8dbd
00000050: b8db 48bd 81ed c2bc c018 7bbd 08e7 46bd
00000060: 66eb 14bd 9e2e 83be aac9 cfbc 87ef 39bd
00000070: e842 51bd 71cd ecbd 9853 03bd 6267 19be
00000080: 1953 99bc e5a4 c83c d253 babd 2423 94bd
00000090: 833e 6bbd b7db 42bd 16ce ccbc 06d4 23bd
000000a0: eb60 83bd 2cd6 44bd 9850 65bc ea71 2dbd
000000b0: e29b 18bd 8be3 0fbd f7c3 173d ee1a f1bc
000000c0: 044d 69bc d6ee 49bd 08f5 3abd af0a 35bb
000000d0: 4c15 f8bd 6341 23bd 248b d6bd 7630 03bd
000000e0: cae3 51bd 90bd c0bb 50ae 1dbb ad72 1abb
000000f0: b079 cebd d58b 8ebc 656b 7cbc 741e 09bd
00000100: a44c a1bd 5d5b f8bc 529b b5bd c63e b23d
00000110: d616 c7bc 23bb b1be 39d0 1fbe ba56 083c
00000120: 3f2c 73bb f5c8 6dbd 5484 7cbd 2374 dfbd
00000130: 5c7d 88bd 2f7f e2bc 57e5 5ebd 05f1 20be
00000140: fe57 25be 1ce1 ebbc cd2a 08bd 0b29 7dbd
00000150: 7314 35bd 1491 1ebd fb36 44bd 9533 00bd
00000160: e154 8cbd 91a9 d4bd 8dc9 4ebb 5b90 42bd
00000170: 1bde e9ba ead1 64bd 99f9 b33d 9027 a6bd
00000180: 5e0f 1cbd 3d30 0fbe f5ba 61bd f4b0 0fbd
00000190: eb0d f9bc b874 8ebb 9788 8ebd c073 cdbb
000001a0: 436e a0be 4254 23bb 9571 a3bc 64fa 4dbd
000001b0: 4a94 a9be 81ba a03c 0ea9 00be a0db 82bc
000001c0: b77f 92bc cd61 80bd a040 16bd 30c8 c0bd
000001d0: eb4d 3abd a9bf 12be a80a 99bd d112 07bd
000001e0: f074 a5bd 5dfb 05bc dc10 79bd cb83 0bbd
000001f0: cf90 d13c 1790 61bd 89f7 4fbd 2353 4fbd
00000200: 308e d2bd 9582 19bd 0f57 c4bc a40c 15be
00000210: 4e0d 8a3b 2cf1 0b3b 6e19 033d 9d76 01bd
00000220: bd77 45bd 7f7d 07be 4066 26bd da72 98bc
00000230: 6be3 01bd def3 0fbd 49b7 89bc 3be2 5fbd
00000240: 6e3d e5b9 ce23 03bd c03e d8be 933a 05bd
00000250: 70f3 55bd 95a1 a0bd 8025 a8bc 2bd2 2c3d
00000260: ee61 2bbd bf41 ce3b cc32 40be 0180 f1bd
00000270: 0031 10bd 1431 94be 38e9 0bbe b54a 4bbe
00000280: a1c8 aabb 7d7f ebbc 8860 c9be 521e 11bd
00000290: 8333 76bc 54fd f7bd 2671 4abe 2b9a 4dbd
000002a0: 9dd2 ce3c 50d8 debd f14a 4cbc da0a 93bc
000002b0: bec0 e03c cd61 8cbd 06d0 cbbe 42a4 1abd
000002c0: 9ac7 60bd 8396 58bd b5d6 6cbd 9d2c 1cbe
000002d0: 0d9b 6ebd 8818 febc 0be0 ef3b c86e b3bd
000002e0: e5e0 62bc 18d6 29bc 8f5a 8ebc 5978 1abd
000002f0: 4e54 08bd 1a01 40bd 5be3 79be c1c1 c5bd
00000300: bc47 4abc 56b5 b2bc 12d0 52bd a2ea 16bd
00000310: 5b4e 0dbd ce13 a1bd fdee 87bd db77 a1bc
00000320: b8c3 02bd 2da3 34bd e64b 40bd 44f0 b4bc
00000330: 599f 05be cc4d abbc 3c8e 00bd 0d9c 60bd
00000340: 5e31 acbd bc43 d8bc 520c a1bb 0a81 25be
00000350: 82e9 3bbd 6487 d6bb 58e2 81bc 301a 7ebe
00000360: ef29 cabc fca2 0ebd e702 22bb 2978 04bc
00000370: 1efb 2abd 6e1f 08bd 7689 2ebd 948c 44bd
00000380: 442b 78bc ee32 1bbc e889 ccbd eaf1 a5be
00000390: 5833 06bd 19bd 3ebd 01cd 48bd 23be 42bd
000003a0: b45e 0ebd 81da 28be 3a8c 90bd abd2 9d3a
000003b0: ba16 c9bb 3372 18bd b753 07bd 3b81 a3bc
000003c0: 0186 0ebe 6706 703d dfac 15bc 0c03 8f3c
000003d0: 5c4a 343b 20b8 53bd 1367 48be a618 483c
000003e0: 636d 54be 399f b3bc 173b e0bd 35b6 a0bd
000003f0: e1e1 2cbb 3888 933d ef56 f4be 8a38 8fbd

critic_linear.weight f4 [1, 256]
-0.0032819444 -0.06358728 -0.10011048 -0.0016971449 0.00095063314 -0.0015667174 0.00018395763 -0.063028514
-0.0011813124 -0.0013962627 0.0015457198 0.047519792 0.0038770093 0.0021806017 0.0008925343 0.0037793063
0.0064753434 -0.0019245187 -0.0011039878 0.0021074635 -0.0010856788 -0.00010615281 -0.0049019614 0.0011851878
-0.0050755246 -0.0032003056 0.0010726671 0.0017804814 0.0016774837 0.03440021 0.0001560928 0.010087786
-0.0004116801 -0.0012197648 0.024308175 -0.016420146 0.00092618476 0.001509289 0.0012793978 0.0022848276
0.0004889888 0.00028457737 0.0011322323 -0.00178631 0.0026659973 -0.0024007196 0.039493855 -0.0020582809
0.00013695844 0.001889898 0.00043344076 0.0027940287 -0.002170105 0.0012998644 -0.0016713742 0.0011778951
-9.983759e-05 -0.0009884455 0.0005357072 -0.00026633326 -0.005236517 -0.0008874527 0.011653163 0.00053501147
0.0032410864 -0.0012346872 0.00079772697 0.01711457 -0.00017723285 0.004469439 0.0008357301 0.000624067
-0.0021052854 0.030461553 -0.00037936185 0.023212492 -0.0016863111 0.0018100265 0.0046706605 0.027724778
-0.0014663454 -0.00064591377 0.0023029528 -0.0016293449 0.0009042603 0.0033800807 0.00033733057 0.0010196905
0.024881488 0.022476776 0.0012605907 0.00073669036 9.147478e-05 0.0012027939 0.0118749235 0.0020641682
0.0030145764 0.04263446 0.0003905206 0.00016359797 0.0014882056 -0.00328128 0.002478874 -0.0006082073
-0.011526177 0.00065665157 0.0004925955 0.017084002 -0.026809985 0.033178333 0.00050735165 0.0026919788
-0.0012201427 0.0020113199 -0.00016485818 0.008087594 0.0010211451 -0.002600173 -0.0015326642 0.0018155272
-0.0010483934 -0.00068425166 0.0011310113 0.00010124952 0.002930126 -0.00072529 0.00034205808 0.0029964389
-0.010739163 0.002391694 -7.154403e-05 0.0019456807 0.018545877 0.0012052314 0.04331182 -0.00042722054
0.0016949528 -0.03615009 -0.00051137677 0.0014343956 0.0012707034 -0.0014123088 -0.0024808836 -0.00033038668
-0.00071457715 -0.0020967936 -0.0818545 -0.0011843685 -0.0009694619 0.0007881921 0.0016105425 0.0012012857
0.0011143013 0.0021025706 -0.008094485 0.0032872846 0.0014717644 -0.0034257993 0.0010478491 -0.0013402628
-0.00045732284 0.0005406505 -0.013073036 0.0022365835 -0.0011467275 2.8360506e-05 -0.014027313 0.0007274142
-0.0001751009 0.024742963 0.0008117097 -0.00039448575 -0.002649421 0.0018078645 -0.061335575 0.0010577467
-0.0023842223 0.028426718 -0.0001883919 0.027865494 0.00057111634 0.0015913157 0.001300646 0.0025408515
0.0018981071 0.0002684141 0.00023649893 -0.000529125 0.0036543924 0.0076322034 -0.020593952 -0.008913919
0.001017084 -6.251372e-05 -0.00016538578 -0.0017634013 -0.00048721887 -0.002553387 -0.0010305172 -0.0021548416
-8.568067e-05 -0.00027123647 -0.00036516774 0.00042768382 0.028131127 -0.0002891045 0.0020554936 0.0013272116
-0.0042726565 0.0027128872 0.0008756209 -0.0010072648 0.020779341 0.0023942408 -0.0016655601 -0.0038504282
0.0013845161 -0.0009335399 -0.0016079439 0.0005508824 0.00045209035 0.0019136023 0.0017848728 -0.0019752851
7.772855e-05 -0.0006838971 -0.0073926365 -0.0028191712 0.0014297975 -0.0011607723 0.0012856628 0.0024260425
-0.003713158 -0.0015274961 0.002164193 -0.00019467868 5.9497223e-05 -0.0012264305 -0.0005481324 0.0030126723
-1.7078206e-05 0.026926326 0.0023493378 0.0155925695 2.4446583e-05 0.00043825328 0.020131493 0.0012021583
-0.01900633 -0.0010916177 0.0013589839 0.002727847 0.0008161213 0.020079011 -0.08566506 -0.002346137
00000000: e415 57bb 0c3a 82bd b906 cdbd bc72 deba
00000010: e933 793a 505a cdba c0e4 4039 1815 81bd
00000020: 44d6 9aba cd02 b7ba c099 ca3a 1da4 423d
00000030: 6c15 7e3b 6de8 0e3b f7f8 693a 3dae 773b
00000040: 1e2f d43b 2240 fcba afb3 90ba 5f1d 0a3b
00000050: 564d 8eba 5b9e deb8 a2a0 a0bb 4e58 9b3a
00000060: 9650 a6bb 38bc 51bb bc98 8c3a 0b5f e93a
00000070: 03df db3a 3ce7 0c3d d8ac 2339 3e47 253c
00000080: c5d6 d7b9 84e0 9fba f021 c73c 8b83 86bc
00000090: 35cb 723a 56d3 c53a 77b1 a73a 0cbd 153b
000000a0: 7c2f 003a 5433 9539 6967 943a 9e22 eaba
000000b0: 03b8 2e3b 6455 1dbb 4fc4 213d 39e4 06bb
000000c0: 809c 0f39 74b6 f73a 6f3f e339 061c 373b
000000d0: 5238 0ebb 3660 aa3a 0312 dbba 9a63 9a3a
000000e0: e65f d1b8 ba8e 81ba b46e 0c3a a5a2 8bb9
000000f0: 1797 abbb f1a3 68ba e8ec 3e3c 0340 0c3a
00000100: 6868 543b 3ad5 a1ba 8d1e 513a db33 8c3c
00000110: 95d7 39b9 5f74 923b e614 5b3a 6d98 233a
00000120: d4f8 09bb 828a f93c 16e5 c6b9 2028 be3c
00000130: 3607 ddba 693e ed3a 570c 993b 131f e33c
00000140: 6332 c0ba 8a52 29ba 23ed 163b be8f d5ba
00000150: e20b 6d3a 5884 5d3b bedb b039 23a7 853a
00000160: 43d4 cb3c 3721 b83c 683a a53a 741e 413a
00000170: 26d6 bf38 11a7 9d3a 0a8f 423c ff46 073b
00000180: 3390 453b 79a1 2e3d cabe cc39 7f8b 2b39
00000190: e50f c33a be0a 57bb 9b74 223b 1a70 1fba
000001a0: 4ad8 3cbc 2423 2c3a 8621 013a c0f3 8b3c
000001b0: 9da0 dbbc 01e6 073d cbff 043a e96b 303b
000001c0: 32ed 9fba 59d0 033b c8dd 2cb9 d481 043c
000001d0: f2d7 853a aa67 2abb ade3 c8ba fcf6 ed3a
000001e0: 3f6a 89ba 5a5f 33ba 713e 943a ec55 d438
000001f0: 5b07 403b 6321 3eba 4256 b339 e75f 443b
00000200: 50f3 2fbc f8bd 1c3b e909 96b8 3606 ff3a
00000210: 86ed 973c dbf8 9d3a bc67 313d 92fc dfb9
00000220: 2e29 de3a 1e12 14bd ea0d 06ba 5402 bc3a
00000230: bb8d a63a 381d b9ba 5296 22bb c037 adb9
00000240: 7652 3bba 5c6a 09bb 55a3 a7bd d03c 9bba
00000250: 7d23 7eba ad9e 4e3a d718 d33a 7674 9d3a
00000260: bf0d 923a 48cb 093b bb9e 04bc 7c6f 573b
00000270: 38e8 c03a 6083 60bb fb57 893a c2ab afba
00000280: d5c4 efb9 71ba 0d3a 4a30 56bc a593 123b
00000290: ca4d 96ba b9e7 ed37 d1d2 65bc f1af 3e3a
000002a0: 4a9b 37b9 c1b1 ca3c eac8 543a fbd2 ceb9
000002b0: e9a1 2dbb def5 ec3a 033b 7bbd 17a4 8a3a
000002c0: 9d40 1cbb 26df e83c 118b 45b9 2d46 e43c
000002d0: f8b6 153a b293 d03a 707a aa3a 6a84 263b
000002e0: e8c9 f83a eeb9 8c39 b3fc 7739 fab4 0aba
000002f0: 887e 6f3b 9017 fa3b a6b4 a8bc b00b 12bc
00000300: ad4f 853a cc19 83b8 686b 2db9 ee21 e7ba
00000310: 6971 ffb9 ba56 27bb 6b12 87ba 3e38 0dbb
00000320: 76af b3b8 be34 8eb9 fc73 bfb9 c03a e039
00000330: 4073 e63c f392 97b9 76b5 063b d5f5 ad3a
00000340: a401 8cbb b2ca 313b ed89 653a 3306 84ba
00000350: 7039 aa3c b2e8 1c3b ec4e daba 7757 7cbb
00000360: a778 b53a cdb8 74ba a5c1 d2ba 1869 103a
00000370: 8a06 ed39 d7d1 fa3a 65f2 e93a c973 01bb
00000380: 3302 a338 8f47 33ba ee3d f2bb d8c1 38bb
00000390: 0b68 bb3a 0e25 98ba af83 a83a 3dfe 1e3b
000003a0: 7458 73bb 4436 c8ba 22d5 0d3b a922 4cb9
000003b0: a88c 7938 2ec0 a0ba 8bb0 0fba 4170 453b
000003c0: 2b43 8fb7 9994 dc3c 59f7 193b fa77 7f3c
000003d0: a312 cd37 5cc5 e539 cdea a43c bd91 9d3a
000003e0: 2ab3 9bbc 9d14 8fba ef1f b23a aec5 323b
000003f0: f9f0 553a bd7c a43c 2a71 afbd a6c1 19bb
