A3C-new/A3C-Pong&breakout-new/runs/BreakoutNoFrameskip-v4/2022-11-03_16-23_Second80MSteps_OK/model_sam_BreakoutDeterministic-v4_conv.68.tar (torch, 944955 bytes, 13 tensors)

conv1.weight f4 [32, 4, 3, 3]
00000000: 94e2 ed3d d5c6 08bf 53ec 6bbe 9f1b 3a3e
00000010: cfc3 58be c451 883e c64b 293e baaf 3f3e
00000020: 6af1 303e d21c ba3d 1ac0 923d b167 8c3c
00000030: 9f15 4e3e 86d0 61bd 7254 e53d 3815 1a3e
00000040: bbf7 213e fcdd 863e a8dc fe3d 634e 6e3e
00000050: e29e 7b3e 945e a3be 22d1 dcbc 83d3 4f3e
00000060: 0fa7 e0bc 4264 28be 9de9 f83c 294d 2bbd
00000070: f08b 87be cfac 083e 205c 90be d242 28be
00000080: 1c33 1e3e f8e3 75be f220 f7be 8bc4 60be
00000090: 75ad 223e f368 fbbd 5ce0 febd a4eb 473d
000000a0: cbfd 023f ba93 85be eb67 b13e 2b20 bd3e
000000b0: d536 ebbe 7206 063e 2987 353e 4d44 abbd
000000c0: fae4 8b3d d620 083f 7ba9 a2be 2b37 993d
000000d0: c9c7 f83e 7c9c 8ebe ff10 d43d 5e17 733e
000000e0: b913 8fbd f17a 65be 4d65 043f 708a 183d
000000f0: 6976 86be 5f90 b53e e498 84bc fae2 9fbc
00000100: 93eb b1be 5830 2dbe abce acbe ba35 34be
00000110: 5a1e 86be 2d17 9cbe aa92 26be 4ec9 5cbe
00000120: 6acf 873d 46ab a53d 88c5 91bc 7d88 fa3d
00000130: fcfc 9e3d b3cd aabd 9116 e5bd 9d0f 673e
00000140: 207c 8abd 816a f03d 36bb eb3c 8fd7 42be
00000150: 8cc7 dd3e 3449 7abe c187 0fbf 48d4 bd3d
00000160: ee69 b6bd 9d39 3ebc 0437 673e 3754 55be
00000170: 72e6 31be 0f53 083f 9900 5abe c9c8 06bf
00000180: 1b22 e53d fba3 7c3d f6d6 82be 329a b23d
00000190: 4ebf c83d 0ebf 2abe d95f 8c3e 96fa f83d
000001a0: 6408 64be f5ff 1dbe 76ce 673e d7eb 87bd
000001b0: b855 bc3e 3de3 3a3e e9e8 513e 28c4 c73e
000001c0: 0075 263f 2f8c d33d 32e9 603e 6b43 e63e
000001d0: 12b3 183e 5e41 e33d 6f63 12be d37b 28bc
000001e0: b041 7ebc a2dd b13e e7e7 cd3e 983c 40bd
000001f0: 6839 673e b9c8 8e3c d526 9ebe 1b66 bbbe
00000200: ffd8 f03d 1dda 0fbe 8a5f c5be 74b1 d6bd
00000210: b68e 1a3c 89a9 91bd 6626 44bd 60f7 9dbb
00000220: 588b 54be 269f 03bd 3423 babe 05c9 04bf
00000230: 098d 91be 834d 3abe e568 d5be b142 64be
00000240: cf7a 573d 91d8 95bb f7a8 913c 973e 4e3e
00000250: 31fa 053f d901 9d3e 474b cd3c 7c1c 803e
00000260: 72f9 443e 7aaf 51be caa2 29bf bb0a b6be
00000270: 6dce fbbe 28c4 03bf e4a4 d5be 130e 25be
00000280: 144e b0be 7dca b4bd 6454 f73d dee2 143e
00000290: 0e05 c3bc e2aa 38be e8f7 9abe c390 1fbe
000002a0: ca56 f2bd 6c41 abbe c580 0fbe b548 6c3e
000002b0: 8422 d43e f89a 163e 3d39 593e bfb2 1e3f
000002c0: b2b0 a53e 594c 793e 4ea5 df3d 87be 993e
000002d0: 973b e2bd 6fdb 61be b83a 25be aa89 cdbe
000002e0: 61fd 00bf 3fa0 7bbb e7ea f2be 8a26 dfbe
000002f0: 93a2 b8bd f519 423d 5af3 003e 796a b3bc
00000300: db59 b9ba f846 193e 1041 083e a888 3cbe
00000310: 8474 cbbc 26ed 803d 20ec 8b3e 4543 0bbe
00000320: 186a 14bd db28 253e ae0c c13e fd43 9a3c
00000330: 9344 9d3e 75d0 4a3e e652 a2bb 4705 cb3d
00000340: b024 013e 1860 5a3d bd1c 113d 60fe 053e
00000350: 4292 31be 5a57 563e b8be 823e f5a5 6d3e
00000360: 843c 1f3e 2f32 89bd 1ba8 1c3d 8777 3b3e
00000370: f20b f9bd b9d5 46bd bc7e 00be 7544 c9bc
00000380: 6b5f 94bd 1799 033e 496b fc3e 96ed 9a3e
00000390: 7293 0c3f e287 613f 00e9 963d 42c6 9ebd
000003a0: cad6 b13e 6fcd 04be 61d2 4fbe 6f36 b13c
000003b0: 1c17 4dbe 6d12 453e 5566 ad3e a9e8 e9be
000003c0: 6fcc 07be 801a 683e f8c3 37bd 36d6 8dbe
000003d0: 144f a4be 8d09 1bbe a339 f8be 5191 0cbf
000003e0: 745c dcbe eb2d 613d 92f0 19bb 2abf e7bd
000003f0: 5984 cd3d e15a 713e a836 923e dc4a 523d
0.11615482 -0.53428394 -0.2303937 0.18174599 -0.21168445 0.26624882 0.16532812 0.18719378
0.17279592 0.09087528 0.07165547 0.017139288 0.20125435 -0.055130504 0.11197747 0.15047157
0.15817158 0.26341236 0.124444306 0.2327209 0.24572328 -0.31908095 -0.026955191 0.20295529
-0.02742341 -0.16444495 0.030384833 -0.041821633 -0.2647395 0.13347171 -0.28195286 -0.1643174
0.15449184 -0.24012744 -0.48267323 -0.21949975 0.15886481 -0.12275877 -0.12445137 0.04880871
0.5116851 -0.2608927 0.34649596 0.36938605 -0.4594027 0.13088396 0.17727341 -0.08362637
0.06830783 0.53175104 -0.31769928 0.074812256 0.48589924 -0.27853763 0.10354804 0.23739383
-0.06986184 -0.2241018 0.5171707 0.0372414 -0.26262215 0.3546171 -0.016186185 -0.01951741
-0.3475004 -0.16912973 -0.33751425 -0.1759862 -0.2619503 -0.30486432 -0.16266885 -0.21561167
0.06631358 0.080893084 -0.017794386 0.12233064 0.07763097 -0.08340015 -0.11185945 0.2256455
-0.06761956 0.11739064 0.028775793 -0.19027542 0.43316305 -0.24441987 -0.5606652 0.09269005
-0.08906923 -0.011610416 0.2257958 -0.20832907 -0.17373064 0.5325174 -0.2128929 -0.52650124
0.11188146 0.06167982 -0.25554627 0.08720817 0.098021135 -0.16674444 0.27416876 0.121571705
-0.22268826 -0.15429671 0.22637352 -0.0663678 0.36784148 0.18250747 0.20499004 0.39016843
0.6502228 0.10329472 0.21963957 0.4497331 0.1491206 0.11096452 -0.14295743 -0.010283428
-0.015518591 0.34739405 0.4021599 -0.046932787 0.22580492 0.017429696 -0.30889 -0.36601338
0.11760139 -0.14048047 -0.38549453 -0.10483065 0.009433439 -0.071124144 -0.047888182 -0.004820749
-0.2075628 -0.032134198 -0.36354983 -0.5186923 -0.28427914 -0.18193631 -0.4168159 -0.22291066
0.052607354 -0.004572936 0.017780764 0.20141064 0.52334887 0.30665472 0.02506031 0.25021732
0.19235781 -0.20477095 -0.6626402 -0.35555062 -0.49180928 -0.51471186 -0.41727364 -0.1611865
-0.3443457 -0.08827684 0.12076643 0.14539668 -0.023806121 -0.18033937 -0.30267262 -0.15582566
-0.1183296 -0.3344835 -0.14013965 0.2307461 0.41432583 0.14707553 0.21213241 0.61991495
0.3236137 0.2434553 0.10920201 0.30028173 -0.11046522 -0.22056364 -0.1613568 -0.40144092
-0.50386626 -0.0038395075 -0.4744484 -0.4358409 -0.090153836 0.047388036 0.12592831 -0.021901356
-0.0014141159 0.14968479 0.1330607 -0.18411505 -0.024835832 0.062952325 0.27328587 -0.1359988
-0.03623399 0.16128866 0.37704986 0.018831247 0.3071638 0.19806083 -0.00495373 0.09913116
0.12611651 0.0533143 0.035427798 0.13085318 -0.17340949 0.2093176 0.25536132 0.23207839
0.15550429 -0.06699025 0.038246255 0.18307315 -0.121604815 -0.048543666 -0.12548345 -0.024568776
-0.07244762 0.12851368 0.49300602 0.3025939 0.54912484 0.88097966 0.0736866 -0.077526584
0.34734184 -0.12968992 -0.20295097 0.021632401 -0.20028347 0.1924531 0.33867136 -0.45685318
-0.13261579 0.22666359 -0.044864625 -0.27702492 -0.32091582 -0.15140362 -0.48481473 -0.54909235
-0.43039286 0.05497543 -0.0023489338 -0.113157585 0.10035009 0.23569824 0.28557324 0.051340923

conv1.bias f4 [32]
00000000: 7ea4 4e3b 3083 ee3a 880f de3a 61c8 ab3b
00000010: 2f13 41bb e3fe 8dbb 6068 4e3b 6e56 c93b
00000020: 5144 f4b9 96c6 f0bb edae 913a a3f0 c8ba
00000030: f153 7d3b 5e20 ec3a 378c a8b9 3c17 8e3c
00000040: 4eb4 90bb 4937 cc3a 3813 d23a 1cad 4f3a
00000050: 67ea 0dbc caf8 913b 4856 903b bfc8 523b
00000060: 05cb e9ba 01b1 afba 8555 9bb9 d419 783b
00000070: 55ee 21ba dbbd 8c3b bc03 e0bb d2cb 0a3b
0.003153115 0.0018197056 0.0016941885 0.005242393 -0.0029460897 -0.0043333634 0.0031495318 0.0061443364
-0.00046590206 -0.007347892 0.0011114754 -0.0015330504 0.003865477 0.0018015017 -0.00032147925 0.017345063
-0.0044160252 0.0015580441 0.0016027456 0.00079222186 -0.008661843 0.004454707 0.004404817 0.003216311
-0.0017836994 -0.0013404192 -0.0002962762 0.0037857192 -0.0006177177 0.0042950935 -0.0068363827 0.0021178615

conv2.weight f4 [32, 32, 3, 3]
00000000: a0e4 3e3e 3bb9 06be 0414 7d3d f6cd 45be
00000010: 2fa3 5d3d 6d84 533e 0183 d93d 22a4 133e
00000020: 19f0 69be d994 433e 7087 9abe 7c69 413e
00000030: b7c5 1c3e 46ab 85be a514 0f3e 0cd9 c0bd
00000040: a348 313e a9ab 63bc 5be3 35bd 3390 6f3c
00000050: 592a aabd 8c08 0d3e d8d5 953d 20af 0fbf
00000060: cc7e 1abe acba 923c bccd ad3e 42e2 803e
00000070: fba5 07be 3c5d d03d 197e eb3d 59c7 9f3d
00000080: f888 9c3e 0f57 973d de25 583e 8b0d 7fbe
00000090: 4fd6 f3bb 59f7 a9bd 722f a1be 5f58 353c
000000a0: 896f 62be c825 3bbe 76cd d5bc 3341 80bc
000000b0: 38d9 b5bd 1de3 a5be 7a28 863e fc2d cabd
000000c0: d0d5 833d c9cd f63c b195 b13d 9a1d 963d
000000d0: 2415 ca3d 22c4 5fbe 5c5c bc3c 1b4c 1dbe
000000e0: 50dd 403e b885 733e 59c8 06bd ca1d 453e
000000f0: eed6 43be 710d 0cbd 5329 e8bd 7f6b 16be
00000100: 2301 fe3c 2d91 fc3d fcba 83be 51e6 653e
00000110: fd77 3d3e 75de f6bc e661 1a3e b918 26be
00000120: 87df 0d3c 1dcf 8cbd 070c adbc 7ee5 34be
00000130: eb9c e1bd 9c8c 103e e63d 993b 9a09 51bd
00000140: c0f8 2d3d 5fb6 2339 3c0c dd3d 624d 97be
00000150: c93e 89be 6dfb 8abe c04d eebe ca6c c83c
00000160: 4699 523c 99ff ec3e 21ab 01be 7f71 fbbd
00000170: 883d 063d 4451 dbbd b9d3 413d 69d5 33bd
00000180: d072 abbc 1fbe 273e 908d abbd ddd8 53be
00000190: 32ef 033d 7d97 5b3d 76cf d23d df42 f53d
000001a0: 0886 fdbe ae45 00be af7d 1b3e 9173 05bc
000001b0: f067 b8bc 3b5e 003d 11a6 8b3e 5552 ea3c
000001c0: 9ccc cf3d 1982 1e3e d4b0 ddbd 86d6 c2bd
000001d0: de65 cf3c 1ce0 543e 121f 5b3e 4931 973e
000001e0: ca9e d8bd a60e 2cbe 0dad 8d3e 5318 cb3c
000001f0: 27e4 0abe 43dd 01bc 9ae4 443e 005b a43d
00000200: c9b3 70be a895 963d 8f13 963c 41b1 68be
00000210: 99b9 eabd 075a 7a3d 424c 773d 7ac9 433e
00000220: 1324 82bd 8d29 1c3c d540 7e3d 250b 973d
00000230: b15b 43be 68ae 0b3e 30b5 24bd b8bb bcbd
00000240: 69f0 31be 13bf 723d e848 823d 2993 8c3d
00000250: 0d01 49be a86b d33d 8702 b9bb 8ae5 263e
00000260: b032 a8bd 4117 a33d e9de e9bc 7b64 fc3d
00000270: 1724 05bd 0c39 093d 7a5a 723d 00d1 36bd
00000280: f54d 5cbe 2641 d33c 2e5b 893e c5b4 bf3d
00000290: 55dc 353c b8da 8f3d b884 eabd 7de8 f9bc
000002a0: 3503 8bbe 4eba d83c 74e9 89bd dd2d c2bc
000002b0: e656 33bc 5629 98be b772 053d f36f ac3d
000002c0: d1f4 bdbe f09a 2abd 8ae8 413d 6e1c 873e
000002d0: a9ff 0f3d 9526 c43d c972 173e c167 5bbe
000002e0: e2ed 4a3e 6d04 1f3f 409d b4bd 45f0 5c3d
000002f0: 719a 8dbe 3865 d03d c873 673c f510 423e
00000300: 4bb9 0b3e c5a5 023e 1858 383c 6129 d8bd
00000310: 3dd7 27bd 21a2 ed3c 74f2 173e 2836 94bd
00000320: 5e6d 3b3c 1477 c5be 544b 3c3e f119 293e
00000330: 4b63 483d 9a9a 7bbd f0ca 07bd 0a38 b13d
00000340: 6337 81be dae8 813d 8119 3abe ce55 d53e
00000350: 6589 41be 8b46 c5bd 6ab7 91be 38ce a93e
00000360: a681 63be 14f3 733d b78c dcbd 2706 1e3e
00000370: 0bac 483e a468 593d 5dff 0a3e 5098 ddbd
00000380: 9f21 a6bd 3104 593e 3348 0a3f e0e8 683d
00000390: a977 98be 35e3 243e a656 90bd 6f4a 773d
000003a0: 1864 55bd 5672 6bbe ca8d 923c 9453 22be
000003b0: f24c 8cbe da2e 86be eafe fabb 55b6 4d3e
000003c0: 6b22 583d 3dad aa3d 25b5 2abe 0cf4 b23d
000003d0: 12c8 9f3d c210 c1bb 5c38 86be 851d 883e
000003e0: 4361 d73e 26b3 f6ba 1509 513e 4ad4 3bbe
000003f0: 52e8 013e 2e9e 54be 5cac 173a 71fd 24bd
0.18641901 -0.13156597 0.061786667 -0.19316849 0.054110702 0.20655985 0.1062069 0.1441808
-0.22845496 0.1909975 -0.30181456 0.18887895 0.15309797 -0.26107234 0.13972719 -0.094163984
0.17312865 -0.013895907 -0.044406276 0.014621782 -0.083088584 0.13772792 0.07316178 -0.56126595
-0.15087432 0.017911278 0.33946025 0.2517262 -0.1324691 0.10174033 0.114986606 0.078016944
0.3057325 0.07389652 0.21108195 -0.2490751 -0.007441319 -0.08299131 -0.3148151 0.011068433
-0.2211286 -0.18276131 -0.026098948 -0.01565609 -0.08879322 -0.32399836 0.26202756 -0.09872052
0.06437266 0.030127423 0.086711295 0.07329865 0.098673135 -0.21852162 0.02299326 -0.15361063
0.18834424 0.23781478 -0.03290591 0.19249645 -0.19124958 -0.034192506 -0.11336007 -0.14689444
0.031006401 0.123323776 -0.25728595 0.2245114 0.18502803 -0.030135373 0.15076408 -0.16220368
0.00865925 -0.06875441 -0.0211239 -0.1766567 -0.11016258 0.14116138 0.0046765683 -0.051034547
0.042473555 0.0001561283 0.10793349 -0.29551226 -0.26805714 -0.27144948 -0.46543694 0.024465937
0.012853926 0.46288756 -0.12662937 -0.12277507 0.032773525 -0.107088596 0.047321055 -0.043904696
-0.02092877 0.16381119 -0.0837661 -0.20688196 0.032210536 0.053611267 0.10293476 0.11975645
-0.4951632 -0.1252658 0.15184663 -0.008145229 -0.022510499 0.031339865 0.27275136 0.028603712
0.10146448 0.15479316 -0.10824743 -0.09513573 0.025317129 0.20788616 0.21398571 0.2952979
-0.105771616 -0.16802463 0.2767109 0.024791872 -0.13563596 -0.007926288 0.1922783 0.080251694
-0.23506083 0.073527634 0.018319873 -0.22723867 -0.11461181 0.061121013 0.06037546 0.19119826
-0.06354537 0.009531391 0.062073547 0.073751725 -0.19077946 0.1364075 -0.040211856 -0.09215492
-0.17376865 0.059264254 0.06361562 0.06864006 -0.19629307 0.10323268 -0.0056460532 0.162985
-0.08212793 0.0796342 -0.028548675 0.12323853 -0.03250512 0.03350167 0.059168316 -0.04463291
-0.21514113 0.025787901 0.26827377 0.09360651 0.0110998945 0.07024139 -0.11451095 -0.030506367
-0.27150884 0.026456024 -0.06733981 -0.02370351 -0.010946011 -0.29719037 0.032580104 0.0841979
-0.37100843 -0.041651666 0.047340907 0.26388878 0.035155926 0.095776714 0.14789881 -0.21426298
0.19817308 0.6211613 -0.088190556 0.053940076 -0.27656892 0.10175556 0.0141267255 0.18951781
0.13644902 0.12758549 0.011251472 -0.105547674 -0.04097675 0.029007973 0.14838582 -0.07236892
0.011439649 -0.38567412 0.1838811 0.16513802 0.04892282 -0.061426736 -0.03315252 0.08653267
-0.2523757 0.06343241 -0.18173791 0.41667026 -0.18900068 -0.09632596 -0.28460246 0.33165145
-0.22217426 0.05955799 -0.10769027 0.15432034 0.19596879 0.05307831 0.13573976 -0.10820067
-0.081118815 0.21193005 0.5401642 0.056862712 -0.29778793 0.16102298 -0.07047777 0.06037372
-0.05209741 -0.22992834 0.017889876 -0.15852195 -0.27402455 -0.2620762 -0.0076597827 0.20089085
0.0527672 0.08333824 -0.16670664 0.087379545 0.07801832 -0.0058918903 -0.26214874 0.26585022
0.42066392 -0.0018821701 0.20413621 -0.183427 0.1268628 -0.20763466 0.00057858764 -0.040280763

conv2.bias f4 [32]
00000000: f586 0cbd 0d55 20be b402 28bc cf96 a7bc
00000010: 4240 1abd 1a04 7abc 9892 96bc c4ba 92bd
00000020: 470d 88bd ab40 d3bd aacd abbb 8e5c 873c
00000030: 4237 acbc 5f58 06be 98c7 81bc 8a37 82bb
00000040: 674a b13c b86c 4ebc bdc6 3ebd 655a adbd
00000050: 0962 23be 5377 61bb b61b f7bb 69f2 d8bc
00000060: 8352 c8bd 6caa 383b de84 d0bc a0c2 303c
00000070: 6079 ca3c a7cf 68bd 590f 8ebd 1544 0dbe
-0.034308393 -0.15657444 -0.010254551 -0.020457653 -0.037658937 -0.015259767 -0.018380448 -0.07164529
-0.066431575 -0.10315069 -0.005243023 0.016523626 -0.021022443 -0.13119648 -0.015842244 -0.003973906
0.021641923 -0.012599163 -0.04657625 -0.08464507 -0.15955366 -0.0034403398 -0.007541145 -0.026482778
-0.09781363 0.0028177751 -0.025453981 0.01078859 0.02471608 -0.056838658 -0.06936521 -0.13795502

conv3.weight f4 [32, 32, 3, 3]
00000000: 504b 8cbd 5f38 35be 2c02 80be 334a 8abd
00000010: bf8b 233c f85e 383d 46d0 7bbc fa54 d53d
00000020: 811a d13d e14e 3ebd 820b 963d 5ad2 f83d
00000030: ab72 d53d 4d7b 85be cd48 b7be e346 11bd
00000040: ae8a 3bbd b9eb 19bc 1950 87bd 5d30 833d
00000050: a4c2 003d 9b80 3a3e fc85 b8bd bac7 97bd
00000060: a1e0 993d 211e b1bd 6e7b c83d a0ef 173d
00000070: 4e07 713d 7fc6 b73d bc9c 4cbd c7e2 ddbc
00000080: 59c3 0abe b7a6 213e a673 2fbd 0f82 023e
00000090: da7a 353e ee9a 9dbd 432e 693d 9afc 313d
000000a0: 0118 d43d 57e4 d73c 8688 ab3d 75d4 083e
000000b0: 9c5b 603e 2c9e 9e3d b713 0e3d 26e0 603e
000000c0: 6602 d93d f6b2 3e3e f5ef 723c df0a a7bc
000000d0: 5c69 81bc 8c74 aa3d e3be 2b3e b70b 8c3d
000000e0: 690e 46ba 7f2d 823d 20a9 a33e 3594 393e
000000f0: 8d4f 79bd 3ee6 89be 37de f0bc 6fb9 273e
00000100: a911 373c 3705 a33d 15ee 123c 10bf 033e
00000110: be8e 7c3e 5b95 99bd 6fc2 503d 3610 25be
00000120: 9d18 033e 6020 113e eae0 bdbc f738 13bd
00000130: 065d 423e e15e 663e 3063 a8be f891 2abd
00000140: f431 3ebe ee45 14be e065 0d3d 8577 41bc
00000150: 2f5e 1ebe f5c8 f6bd 8981 a5bd e7e5 1e3e
00000160: dbaa 88bd 7d4c 8d3e 7b79 d9bd 480d 443d
00000170: 5215 bebb b0cd 283e f858 8dbd 2e8c 36bd
00000180: 8f16 b8bd 3eb7 9cbd 5f31 06be ce4f cb3d
00000190: 638b 4a3e 1e2a 713e 71f0 d53c 0b54 453e
000001a0: 2119 ccbc d606 1bbe c778 5abe b8ff 28bd
000001b0: 4c04 f7bd e4cb e03d e211 b63c dc23 2d3e
000001c0: 7a93 b23d 4a54 a03e 603d e5bd a3d0 1dbe
000001d0: 3e6c 0bbe 4e1b 01be 39c8 78bd 1d6c 88bd
000001e0: 0339 0d3e 92ae c43c 5f6c 6e3e 17b9 0e3d
000001f0: eb00 e13d 7fde 70bd cf4f 0dbd 0a83 acbd
00000200: a8b7 403d e1d1 313e 8dcb bb3d 8587 8ebd
00000210: 3163 a83c 0386 46be 3278 893d 9f58 8f3d
00000220: a9db 0a3e ad4e 273c 3eb1 e83c 4e83 cdbe
00000230: 26f2 633d 8d17 10be ea24 87be 9b7f edbd
00000240: 0cc2 8fbc 62be f63d e7d0 053e 35f6 e7bd
00000250: a9b8 0c3e ad8c 983e ae32 6fbc cac8 153d
00000260: 03ec 2bbe e9a3 84bb 1ae1 32be 6d91 d43c
00000270: 31ce 5e3c 020a acbd bbc1 8e3d 7305 b03c
00000280: d9d9 9b3e d7c4 b53d e77f 8c3d abc1 873d
00000290: fd2c 5dbe 43f8 11be 853a 7bbe d62e 7abc
000002a0: ff1c 00bd 7a0a 643e 7d87 1f3e a376 7b3d
000002b0: c025 1c3e 431d e13d bce5 a6bd 1809 203e
000002c0: a211 443d f5f0 4dbd 5c34 e1be fff4 19be
000002d0: b472 693b fdb4 c7bd 5a33 31be 4995 12be
000002e0: e509 273d 7b94 b03d ada9 e43c 4b50 703d
000002f0: 06f1 403d 90ac b9bd adb0 3dbd 5f7f fb3d
00000300: 1d77 d3bb 4809 1ebe 9184 903d 37ed c73d
00000310: 5131 593e 18b4 04be d436 8cbd f2f6 18be
00000320: 5317 8339 6292 5e3d b257 d73e 6e36 253e
00000330: 3ae3 37be 02d3 0d3c 5edd 79be cd85 c9bd
00000340: 5de2 a4bd 2415 d43d 55dc 473d 818f ecbd
00000350: 11e2 553e 598b 163e 1324 8a3e 624c 5f3e
00000360: 6a3e 233e 4a76 803d 1273 1b3e cb17 c3bd
00000370: 9ba2 2d3c 7ea7 143d 251f 92be c63f 4abe
00000380: 85f7 4ebe aa35 91bd 0f8d 283e 860c 90bb
00000390: 7161 133e e4ec 9a3c 3f5d c63e c651 9cbe
000003a0: 0a0f 8b3d 97a3 eebe e12a 9f3c e48d a13d
000003b0: 37c5 7e3c edfd e43d d9eb 90bd bce3 45be
000003c0: dfb2 523d 55ec 343e d4f2 3abd 3433 e73d
000003d0: dbe3 cf3d fac9 163e d557 f3bd 12eb 003d
000003e0: 7bfa dbbc dff0 1bbd 61f9 a9be 0825 83bc
000003f0: 6cf4 283e 218b b63e 859e b53e 42bc 05be
-0.06850302 -0.17697285 -0.25001657 -0.06752434 0.0099820485 0.045012444 -0.0153694805 0.104165986
0.10210133 -0.046461944 0.07326414 0.121494964 0.10422262 -0.26070634 -0.3579773 -0.035467993
-0.045786552 -0.00939458 -0.06607074 0.06405709 0.031435624 0.18213122 -0.090099305 -0.07411142
0.07513548 -0.08648325 0.09789167 0.03709376 0.058844857 0.08973407 -0.04995416 -0.027085675
-0.13551082 0.15786253 -0.0428349 0.12744926 0.17722645 -0.07695566 0.056928884 0.04345379
0.10356141 0.026353998 0.08375649 0.13362296 0.21909946 0.07745013 0.03468677 0.21960506
0.105961606 0.18622956 0.014827718 -0.020390926 -0.01579731 0.08323011 0.16772036 0.06838172
-0.0007555248 0.06356334 0.3196497 0.18122943 -0.06086688 -0.26933473 -0.029402835 0.16379331
0.011173644 0.07959979 0.008967896 0.12865853 0.24663827 -0.074991904 0.050966676 -0.16119465
0.12802358 0.14172506 -0.023178536 -0.035942998 0.18980798 0.22497131 -0.32888174 -0.041643113
-0.18573743 -0.14479801 0.034520984 -0.011808281 -0.15465616 -0.12050048 -0.080813475 0.15517388
-0.06673213 0.27597418 -0.10618874 0.04786423 -0.0058008814 0.16484714 -0.06901735 -0.04456728
-0.08988678 -0.07652138 -0.13104771 0.09927331 0.19779734 0.23551223 0.026115628 0.19270341
-0.024914326 -0.15139326 -0.21335135 -0.041259497 -0.120613664 0.10976389 0.022225324 0.1690821
0.08719535 0.31314307 -0.11193347 -0.1541162 -0.1361551 -0.12608072 -0.060737822 -0.06661246
0.1379128 0.024009023 0.23283528 0.034844484 0.10986503 -0.05880594 -0.03449994 -0.08423431
0.04705015 0.17365219 0.091696836 -0.06959442 0.02055511 -0.19387059 0.067123786 0.06999325
0.13560356 0.010211629 0.028404828 -0.4013924 0.055650853 -0.14071484 -0.2639535 -0.115966044
-0.017548583 0.120480314 0.13067971 -0.11326257 0.13742317 0.29794827 -0.014599485 0.03656844
-0.1678925 -0.00404786 -0.17468682 0.02594825 0.013598965 -0.08400346 0.06970545 0.021486973
0.30439642 0.08875435 0.06860333 0.06628736 -0.21599193 -0.1425486 -0.24534042 -0.015269956
-0.031277653 0.22269621 0.15579028 0.061392438 0.15248775 0.10991909 -0.08149287 0.15628469
0.04786838 -0.050278623 -0.4398526 -0.15034865 0.0035621347 -0.09751318 -0.17304745 -0.1431476
0.04078092 0.086220704 0.027912939 0.058670323 0.047104858 -0.09066117 -0.04631107 0.122801535
-0.0064534084 -0.15433228 0.07056535 0.09762042 0.21210219 -0.12959325 -0.06846395 -0.14937952
0.00025003645 0.05433882 0.42059094 0.16134045 -0.17957774 0.008656265 -0.24400851 -0.098399736
-0.08050988 0.10355595 0.04879411 -0.11550809 0.20887019 0.14701594 0.26980647 0.21806481
0.15941778 0.06272562 0.15180615 -0.095260225 0.01059785 0.036292545 -0.28539386 -0.1975089
-0.20211609 -0.07090314 0.1646006 -0.004396024 0.1439264 0.018911786 0.38743016 -0.30531138
0.06789978 -0.46609184 0.019429626 0.078883916 0.015549949 0.11181245 -0.07076234 -0.19325155
0.051440116 0.17668279 -0.045641735 0.11289063 0.10150882 0.14725485 -0.11881987 0.03147418
-0.026852837 -0.03807151 -0.33198074 -0.016008869 0.1649949 0.35653022 0.35472503 -0.13060096

conv3.bias f4 [32]
00000000: 0da2 8dbd 742c 07be 4afb d83c 4067 ee3c
00000010: fae1 8dbc 4ab3 b8bd e7c7 f73d 5aef 7fbd
00000020: 88d0 52be c04a 043e 0816 0ebe aaca 4f3d
00000030: 9e11 533b 8b30 473d 2ac2 78be 5832 58bd
00000040: 451f 3b3e 156d e3bc df08 22bd c367 d8bc
00000050: 987d 91bd 8a1d c33d 4e8a 21be e216 b83d
00000060: 87dd e9bd 661c f9bd 4a1b 41bd 565d 323e
00000070: 2dcb e8bd a2b0 0ebe ae5a a73d 108e 9f3c
-0.06915674 -0.13200551 0.026487011 0.029101968 -0.017319668 -0.09018572 0.12098675 -0.062484123
-0.20587361 0.1291914 -0.13875592 0.050730385 0.0032206546 0.04863028 -0.24292818 -0.052782387
0.18273647 -0.027761975 -0.03955924 -0.026416665 -0.07104033 0.095271185 -0.15775415 0.089887396
-0.11419206 -0.1216362 -0.047145166 0.17418417 -0.11366878 -0.13934568 0.08171593 0.01947692

conv4.weight f4 [32, 32, 3, 3]
00000000: ac32 51bd 14aa 853d fb68 bdbc 3042 dc3d
00000010: 0aab 253c a348 2abe 6f5b 86bd 644f 22be
00000020: ffc0 2cbd 3474 81bd e419 3c3d 8d6a fdbb
00000030: e16d 45be 5dfb 213e 7e90 093e c155 5db9
00000040: 9a53 873a b176 c2bd f862 48ba 7790 e83c
00000050: edb2 ef3c 917c 243d 5647 0abc 9399 f6bd
00000060: 30f6 3bbc 4918 9f3c e377 94bc 664f 843d
00000070: bf46 813d 4334 7cbe e987 ed3c 5a7f 0ebe
00000080: 913c c1bd 8a56 573d 6164 403e e590 913c
00000090: 4e56 2a3d 7708 eb3c 2517 073e ab14 25bd
000000a0: 0227 d63d 7ef7 62be 5073 a03c 3742 2dbe
000000b0: 812e 0fbe e23f d5bd f598 1abd 2f88 553b
000000c0: f207 4c3d 3ffd 2dbe 9844 a23d 0de9 603b
000000d0: 851b 88bb 7d48 56bd fa5e 913c 8a10 a0bd
000000e0: 1699 5b3e 8dd4 4f3e 03f7 ea3c bbc8 36be
000000f0: 68dd 82be 52c3 89bd 8b0e 9a3d 4533 82bb
00000100: cddf 203d cc05 82bd a520 21bd 8087 ad3c
00000110: a3a5 0abe c5a2 20bc 4e98 cabd f03d 89bc
00000120: 1743 6fbd 398f 373e 4c71 40be b419 283d
00000130: 4dff 94be 17d9 c0bd 2857 5b3d c6eb 623e
00000140: cc0f 013e bdae c33d bd08 efbd d8d0 1b3d
00000150: 7b78 24be 38a9 1d3d b817 e2bd 0557 24bd
00000160: 038c e4bd dc70 643b 9cf4 d73d 6f40 52bd
00000170: 36b4 313d d81f 10be 4d81 81bd a5a3 e93b
00000180: 3309 cb3c 00ca 913d f1bd ae3d a34a ae3d
00000190: 3076 a3bb 3afe 17be f621 a9bd 44f5 14bd
000001a0: eaa8 43be b8fe 9dbc 7a91 a9bc 3f66 6b3c
000001b0: ea88 3bbd 31f4 bcba e96d 773d b944 2b3d
000001c0: 0ba6 96bc c65b 85bc 7c2f 853b 4ea2 4abe
000001d0: 4860 87bd 6522 93bd 11b0 a4bb 3216 4ebc
000001e0: d224 02bc 9aca 373e 629c 23be 3924 39bb
000001f0: 43c7 cfbd c675 923a 4705 5a3c 3d0e aa3d
00000200: 000a aebd 74c0 3bbd e0b6 e0bd e4f0 9a3d
00000210: adb7 86bd 1844 adbd d108 51bd 4af5 1d3d
00000220: 385d 443e 4614 f2bd c8ec a83d 776b e03a
00000230: 467e b8bd 3ad8 87be 9e9e 4ebc 4969 8a3d
00000240: 3c42 183d 330c 7bbd d05e 5dbe 5084 e6bd
00000250: 289b 193e 84cb 90bc f9f4 4abd 2eb4 e2bd
00000260: 143d 07be 89df 81bb 6f75 b93d dea0 00be
00000270: 19c3 253e 44ff 4ebe 826d 1abe 5ed4 59be
00000280: 9a2d 583c 7fca cb3c b1b2 db3d 7a09 6d3c
00000290: 2c05 ed3c 8b20 debd dd27 f83d 59f4 23be
000002a0: b307 89bc c12b 103d 4673 373d 2bf9 893d
000002b0: 96ce f63d 6f92 0abe 702e 913d e8bc ca3c
000002c0: 842a 88bd e363 eebc 95c7 7f3d d06c bdbd
000002d0: 60a7 283d 0214 9b3e 929c 82bc 662d 6abe
000002e0: 263b 5d3d 0d39 d33d eee0 febc 6c58 f73b
000002f0: 4d16 a4bc 46db 273e bbab 39be 00d6 ca3d
00000300: 4c1c b3bc 58b6 3bbd 09f3 01be 602e dc3c
00000310: 43d1 f73b 738a 8e3b 9fe3 ecbc b38a abbd
00000320: 4a93 333d 2499 8ebd 5878 203e f5e1 83bc
00000330: 2e06 6a3c e2d2 cdbd da5a 1e3e 9030 963c
00000340: 7dfe b0bc ddc3 483e b4ee 1d3d 73f3 08be
00000350: c9ba 31be 266c c8bd 877b c9bd 06af 063e
00000360: d2aa e33d 78ca 90bc 1cbc 60bc 1884 d8bd
00000370: 5a06 f03c 4cde 9dbd b55b 1f3d d0ff 753d
00000380: 49f1 d03d e065 293e 4a02 363b a8a3 fdbd
00000390: 25f4 3fbd 33a8 ec3d 029c 643d d796 8e3d
000003a0: 4a43 08bd 1220 b9bc 07ee 44bb 0d46 c5bd
000003b0: e9ec 333c 2b68 bc3c 86a6 bc3d 3bab 11be
000003c0: 13f0 443d fcf0 c7bd 4a1b 54bc 3075 413d
000003d0: 5b9e c1bd 6e01 a83c d330 133d 6e0b 103e
000003e0: 09cb 4bbe b9cf 4b3d 96c2 85bc ce21 12bd
000003f0: d522 fa3b a239 e0bd d0b6 7a3d 5857 98bc
-0.051073715 0.065265805 -0.023121348 0.10754812 0.01011158 -0.16629271 -0.06560408 -0.15850598
-0.042176243 -0.06320992 0.04592313 -0.007733649 -0.19280197 0.15818544 0.13434026 -0.00021108148
0.0010324598 -0.09495295 -0.0007644142 0.028389199 0.029260123 0.04015786 -0.008439859 -0.12041011
-0.01147227 0.01942076 -0.018123573 0.064604566 0.06312322 -0.24629311 0.028995471 -0.13915768
-0.0943538 0.052572764 0.18788292 0.017769286 0.041586213 0.02869056 0.13192423 -0.040302914
0.10456659 -0.22164723 0.019586235 -0.1691979 -0.13982584 -0.10412575 -0.037743527 0.0032582392
0.049812265 -0.16991137 0.079232395 0.0034318597 -0.004153671 -0.052315224 0.017745484 -0.078156546
0.21445116 0.20295925 0.028682237 -0.1785001 -0.25559545 -0.067267075 0.07522305 -0.003973397
0.039275933 -0.06348762 -0.039337773 0.021182775 -0.13539748 -0.009804432 -0.09892331 -0.016753167
-0.05841359 0.17925729 -0.1879322 0.041040137 -0.2910103 -0.094164066 0.053549916 0.22160253
0.12603682 0.09554813 -0.116715886 0.038040966 -0.16061585 0.038491458 -0.1103968 -0.04012205
-0.111595176 0.0034857308 0.105447024 -0.05133098 0.043384753 -0.14074647 -0.0632349 0.0071301037
0.02478466 0.071186066 0.08532322 0.085103296 -0.0049884543 -0.14843073 -0.08258431 -0.036366716
-0.19107404 -0.019286498 -0.020699251 0.014367639 -0.04578487 -0.0014416036 0.060407553 0.041813586
-0.018389722 -0.016279113 0.0040644985 -0.19788477 -0.06610161 -0.071842946 -0.0050258716 -0.012578534
-0.007943349 0.1794838 -0.15977624 -0.002825035 -0.10145428 0.0011174015 0.013306922 0.08303497
-0.08498001 -0.045837834 -0.10972381 0.075654775 -0.06578002 -0.084602535 -0.0510338 0.038564004
0.19176185 -0.11820273 0.082482874 0.0017121871 -0.0900846 -0.26532155 -0.0126110595 0.06758363
0.03717254 -0.06129093 -0.216182 -0.11255705 0.15000594 -0.017675169 -0.04955003 -0.11069523
-0.13206893 -0.003963415 0.09055602 -0.12561366 0.16187705 -0.20214564 -0.15080836 -0.21272418
0.013194466 0.024876831 0.10727442 0.014467591 0.02893313 -0.10846051 0.12116978 -0.1601118
-0.016727304 0.035197977 0.044787668 0.06736978 0.12051122 -0.13532422 0.070889354 0.02474828
-0.06648734 -0.029100364 0.062446196 -0.0924927 0.041175246 0.30288702 -0.0159438 -0.2286888
0.054011486 0.10313616 -0.031113114 0.0075483825 -0.020030165 0.1639224 -0.18131916 0.099040985
-0.021864079 -0.045828193 -0.12690367 0.026877582 0.0075627877 0.0043500005 -0.028917132 -0.08376064
0.043841638 -0.06962803 0.15670907 -0.016098956 0.0142837 -0.10049988 0.15464345 0.018333703
-0.021605724 0.19605966 0.038557723 -0.13374119 -0.17356409 -0.09786253 -0.09838014 0.13152704
0.11116566 -0.01767467 -0.013716724 -0.1057207 0.029299904 -0.077084154 0.038905818 0.060058415
0.102022715 0.16542768 0.002777236 -0.123847306 -0.046863694 0.11555519 0.055812843 0.06962364
-0.033267297 -0.0225983 -0.0030049102 -0.09632502 0.010981777 0.02299889 0.09211449 -0.14225475
0.048080515 -0.09762761 -0.012945959 0.0472309 -0.09454032 0.020508494 0.035935234 0.1406686
-0.1990167 0.049758647 -0.016328137 -0.03567677 0.007633547 -0.109484926 0.0612095 -0.018596336

conv4.bias f4 [32]
00000000: 168d 06be f747 ce3d 12cb 8dbe 738c 3e3e
00000010: f0e8 02be 40ce 3abe db5a b1be c969 ecbb
00000020: bda8 27bd 30aa 6cbe 33c5 94be 5c58 4cbe
00000030: a7e5 18bd e857 b53d d65e 0ebe 5692 6cbe
00000040: 1a41 5ebe 422a 8a3b 7179 6fbd c5b9 cabd
00000050: 278b 76be d51d 8c3e abcf 8d3d 6996 26be
00000060: 9e9d c43d 9cec 87bd 83bd b23d 93f0 cfbe
00000070: b25e 853e ad9e 163e a448 4cbe cb7a 3ebe
-0.13139758 0.1007232 -0.27693993 0.18608265 -0.12784171 -0.1824274 -0.3463963 -0.007214759
-0.040932406 -0.23111796 -0.290567 -0.19955581 -0.03732839 0.088546574 -0.13903365 -0.23102698
-0.21704522 0.0042164633 -0.058465425 -0.09898714 -0.2407652 0.2736651 0.06924375 -0.16268314
0.096003756 -0.066369265 0.08727553 -0.4061323 0.2604881 0.14708968 -0.19949585 -0.1860153

linear.weight f4 [256, 800]
00000000: 629e fbbc 9eae e8bc 1de3 33bd d812 dc3c
00000010: 938c ddbd dcc3 933d f832 2c3d 495e 7cbe
00000020: af89 413e bb8b 2a3d 4e52 47bd cbb7 c4bd
00000030: 9423 8e3d 61b0 363d 2065 a8bd f85c 94bd
00000040: 1f7f 70bd 96ca 913d 9ba5 57bd a500 ca3c
00000050: 9e4d ba3c 953b 8b3d db67 193b ddad edbc
00000060: 3d30 383d 62c0 e03d 7057 203e eaff 82bd
00000070: 41a4 cf3c 6cc7 253d 475c e43b 2038 0f3d
00000080: 92b8 08bd ad7b 2dbe 624b ca3d 5ee2 f0bb
00000090: 4e67 07be 5bd4 c8bd a78b 75bd 001b 483e
000000a0: 8ad7 943c 1746 043e 1995 88bc e024 ff3d
000000b0: 6d38 54bd 4dba 083e e581 c03d 31c0 243e
000000c0: eb36 13bc 31b2 50bc 8b8e 0f3d a4aa 4bbc
000000d0: 3c3e 3cbe ce62 d3bd 0173 433d 7c7a d33c
000000e0: 54b8 e1bd efad 6d3d 64d0 d23d 14ae c8be
000000f0: 84ba bebd 0e7c 2bbd 910c 683d 09d2 c4bd
00000100: e8ac 6abd 09e9 87bd 8a82 62bd dcaa 2ebe
00000110: d112 263d 5c76 87bc 5641 133e a440 36bd
00000120: 04ed 54bd d510 e73c 92ec 0b3e 1f0b aa3c
00000130: 276b 94bb e5e6 2f3e 0109 353d c264 883c
00000140: 9cbc 98bb 2cd5 613d bc43 01be 974b 43be
00000150: e543 4a3d bddb 6cbe c152 373d 6ad0 b93c
00000160: b64b 923c 0c1d 50be 9100 4bbe 2ccf c33c
00000170: 5bf8 603d 6932 663e c3a4 8b3d 0981 23be
00000180: ae21 14be e082 1d3d 760f efbd b2d4 d7bc
00000190: b646 bc3c 0dc2 f43c 976e cf3c c1f0 493c
000001a0: e5a7 acbd a55c babc f570 ccbd 6af1 773d
000001b0: 0a67 cabd b866 43be e9fe 99bd 5f90 9ebc
000001c0: bfc3 1c3e 5086 973d 3263 52be c650 933d
000001d0: 9541 563d 6158 563d ee6d a0bc 2afa f93d
000001e0: 9baf ac3d 4a00 0d3e f0aa 503e 133a 84be
000001f0: a217 263d ba08 afbd e04c 3cbd e518 843d
00000200: 3621 d2bd 3478 48be 5599 523c ed05 9c3d
00000210: c79d 3ebd ccb4 18bd 2355 9e3d c014 c7bd
00000220: 28dd 5dbc 30cc 32bd 06df 58bd 511c 8fbd
00000230: 626a 21be 981c 783d 4f5c 863d fe13 953d
00000240: 7cf4 483c 215e 933d 281b 8e3d 877d 11be
00000250: a12b e5bd 7a06 be3d d92e 9c3d 762e c6bb
00000260: 2026 703c ab75 c83d 0b18 c2bd 6f7e 383e
00000270: faf5 0abe be63 09be f1ff 513d 24d3 0c3e
00000280: 4c79 1f3e 773c 10bd 87af 52bd 124d 0fbd
00000290: 875a 0dbe 9169 d3bd 683b 913d 39c0 043e
000002a0: 9495 673e da08 be3d bb59 fb3d 800c 583e
000002b0: 6aac 183e cf1e e63d 52c7 89bc cff5 b53b
000002c0: a290 8e3d 80e8 d13d 8f5d 333c c908 19bd
000002d0: 4311 04be 53b5 f83d 16f6 9abd c594 5d3c
000002e0: 8bbd bc3c 802a 57bd 0355 653d c276 593e
000002f0: 2efb efbc 49fc 8c3d 291d e3bc 1d2f 6f3d
00000300: 8329 523e 4f49 04be 7525 103b 268f 1a3c
00000310: 0aa0 88b9 ed92 18bd cc6e ffbc 6934 383d
00000320: 6021 9d3c 0f75 2bbd b81b a43d 80a2 643d
00000330: 448b bfbc 1c39 6b3d e02e 88bb 7961 a7bd
00000340: 12ab f6bd 9b2c 933e 0fd5 c83b 9155 1d3d
00000350: 8d52 3f3d a94e 143e aa37 1dbe 8ecd e2bc
00000360: b984 77bc 7b52 97bd 23e7 e9bc 642b 303d
00000370: e66d aa3c df49 16be 81b6 2bbe 41b6 5ebd
00000380: 9de2 953b 79b4 de3c 57e0 383e 6946 a43d
00000390: c608 273e 124b ec3d 6e46 1fbe 69ca 30bd
000003a0: 1fd2 f1bd 6367 f2bd bb7f 7f3d 7167 4cbe
000003b0: b40c 49bb 679b 173e fa62 96bd 711e 11be
000003c0: 781b 13be 0ab8 b7bb 1c59 c83d e8e0 00bd
000003d0: 1db1 16be 94c1 533d 6dfd 93bd 3663 16bd
000003e0: a7d7 cfbd 3a6d 513d 4e83 e83c d461 393d
000003f0: 1d81 7dbd d34c 8fbd c18e be3d 74d0 0abd
-0.030715171 -0.028403576 -0.043917764 0.026864454 -0.10817828 0.072150916 0.042040795 -0.24645342
0.18900178 0.041637164 -0.048662476 -0.09605368 0.0694038 0.0446018 -0.08222413 -0.07244295
-0.058714982 0.07118718 -0.052648168 0.02465851 0.022742089 0.06798474 0.002340785 -0.029013569
0.04496788 0.10974194 0.15658355 -0.06396468 0.025346877 0.040473387 0.006969008 0.034965634
-0.033379145 -0.1694171 0.098776594 -0.007351204 -0.13223001 -0.098061286 -0.059947636 0.1954155
0.018169183 0.12917362 -0.016672658 0.12458205 -0.051811624 0.13352318 0.093997754 0.1608894
-0.008985261 -0.012737797 0.03504805 -0.012430821 -0.18383116 -0.1032158 0.0477171 0.025815241
-0.11021486 0.058027204 0.102936536 -0.3919531 -0.09312919 -0.041866355 0.05665261 -0.096103735
-0.057293802 -0.06636245 -0.055300273 -0.17057365 0.04054529 -0.01653593 0.14380392 -0.04449524
-0.05198385 0.028206268 0.13664463 0.020757256 -0.004529375 0.17177923 0.04419804 0.016649608
-0.004661156 0.055134937 -0.12623495 -0.19071804 0.049381156 -0.23130699 0.044756655 0.022682387
0.017858367 -0.2032358 -0.19824435 0.023902498 0.05492435 0.22480167 0.06818535 -0.15967192
-0.14465973 0.03845489 -0.11672871 -0.026346538 0.022982936 0.029877687 0.025321288 0.012325467
-0.08430461 -0.022749254 -0.09982482 0.060532965 -0.098829344 -0.19082153 -0.075193234 -0.01935595
0.15309046 0.07398665 -0.20545653 0.07193141 0.052308638 0.05233038 -0.019583669 0.12205918
0.084319316 0.13769642 0.20377707 -0.25825557 0.04054988 -0.08546586 -0.04597175 0.06450061
-0.10260241 -0.19577104 0.01285394 0.07618318 -0.046537187 -0.037281796 0.07731082 -0.097207546
-0.013541497 -0.04365176 -0.052947067 -0.06987823 -0.15763238 0.060574144 0.06560575 0.07279204
0.012265321 0.07195688 0.069387734 -0.14208041 -0.11189962 0.09278579 0.07626123 -0.006048019
0.014657527 0.097880684 -0.09477242 0.1801698 -0.13570395 -0.13416955 0.051269475 0.13752419
0.15573615 -0.035213914 -0.051436927 -0.03498561 -0.13804065 -0.103228696 0.07091409 0.12963952
0.22615653 0.09279032 0.12272974 0.21098518 0.14909521 0.11236345 -0.016818676 0.0055529843
0.0696118 0.10249424 0.010947599 -0.037361894 -0.1289721 0.1214396 -0.075664684 0.013524239
0.0230396 -0.052530766 0.055989277 0.21236709 -0.029294576 0.06884057 -0.027723866 0.05839454
0.20523648 -0.1291859 0.0021994982 0.009433543 -0.0002605918 -0.037249494 -0.031180762 0.044971857
0.019180954 -0.041859683 0.080130994 0.055819035 -0.023381837 0.05742751 -0.0041559786 -0.08172888
-0.12044348 0.2874497 0.006128914 0.03841168 0.046709586 0.14483131 -0.15353265 -0.027685907
-0.015107327 -0.07388779 -0.028552597 0.04301013 0.020804357 -0.14676617 -0.16768838 -0.05437303
0.0045741335 0.027185665 0.18054329 0.08021242 0.1631194 0.11537756 -0.1555421 -0.043161783
-0.118076555 -0.11836126 0.062377673 -0.19961335 -0.0030677738 0.14805375 -0.07343097 -0.14171769
-0.14365947 -0.005606656 0.09782621 -0.031464487 -0.14716001 0.051698282 -0.072260715 -0.03671571
-0.10148554 0.051129557 0.028382923 0.04525931 -0.06189071 -0.06997075 0.09304572 -0.033890203

linear.bias f4 [256]
00000000: 52e1 f6bd e4da adbd a257 03bf 28a1 9cbd
00000010: d2d6 cbbd 300e f6bd 1f92 f2bd b63f 02bf
00000020: 2a24 d3bd 054f 72bd 065d 6cbd d8c2 82be
00000030: 21f6 cdbd 8a02 69bd 5127 7ebd db94 19be
00000040: 06b9 4abe 43cb 05be c7d8 84bd 4efc ffbd
00000050: a286 a4bd 7bb7 9abd a971 08be 583e 90bd
00000060: 834d 07be dc09 afbe eba3 d4bd 3a8c 00be
00000070: 293f c9bd 11d5 0cbe d3b5 a6bd 36e6 14be
00000080: 850b bdbd 6dfd afbc ba1f e4bd e775 38be
00000090: 7f0e 09be 4cba bdbd 8454 e4bd 8021 d5bd
000000a0: 5750 a1bd d80d 99bd f988 9bbd ab73 06be
000000b0: b7ab e2bd cb69 82bd 0a9b 163e 29d3 d3bd
000000c0: 33ad 9bbd 62ec c6bd 7164 3fbd 06da 6dbc
000000d0: cea5 82be 626b d6bd f928 42be fc15 dfbd
000000e0: 3a73 d9bd e523 cd3a f057 8fbd 2273 babd
000000f0: 518a 21be 8ac7 98bd 54c3 6d3d 50e8 cbbd
00000100: 0e0b 18be 6154 dcbd 4cb7 09be cfef 5a3d
00000110: b68b aebd a253 e8be 9549 52be cb9c 21bd
00000120: 6400 aebd 715e 2dbd 2522 06be 7b24 2cbe
00000130: a26d 0abe 14a6 abbd 6575 8cbd 151e 0fbe
00000140: 243a 8dbe 013f 8ebd b445 82bd 92c8 7fbd
00000150: 6f2d d9bd ab85 99bd e849 93bd ec2c d9bd
00000160: bb76 acbc 8f5f 23be 03ce b2bd a78d 0fbe
00000170: 12e4 73bd e7e0 e7bd 59cc 65bd ba30 2bbe
00000180: 87d4 26be f5c7 b2bd a76e ffbd ed21 c1bd
00000190: 960c 8dbd 1961 80bd fc94 cebd efeb 87bd
000001a0: fe65 acbe 17f8 27bd 7263 97bd 68f2 9bbd
000001b0: 56d4 debe 9426 febd e2f9 58be 427f a4bd
000001c0: 87df d5bd ee33 1cbe 1a30 dbbd cfde 27be
000001d0: 67e9 b4bd 579b 47be 8472 1ebe 1c28 cabd
000001e0: 2165 f9bd 7ab4 babd 41a4 d2bd 2cc4 a8bd
000001f0: 9501 27bd 8c60 f4bd e188 11be c286 89bd
00000200: 5c14 4fbe 6a6f cabd 543b 81bd 67f0 68be
00000210: 66c4 c33d c833 64bd 0cb9 3c3c 9f5f dbbd
00000220: 38b4 cbbd d345 3bbe 3f3c c0bd 8fea 90bd
00000230: 3436 d5bd c961 d6bd d97f d9bd 37e4 04be
00000240: e528 57bd 02e2 d8bd 1ae9 13bf f41e dbbd
00000250: ac08 b3bd ba2d c8bd e0c6 95bd ee0f 9c3a
00000260: 4b07 bfbd df0a 82bd 033d 98be c2cd 33be
00000270: 82a8 b2bd 9312 dbbe ad5d 3ebe b5a9 b6be
00000280: be41 d0bc b423 dabd 8ad5 09bf cf35 88bd
00000290: 6d29 d5bd edce 54be c9fd a2be 91ba f2bd
000002a0: 88c4 42bd d4ab 2bbe 0d74 9abd 45e2 5ebd
000002b0: 1e80 973b 98e6 ddbd 1db7 ebbe 8f26 d7bd
000002c0: 75b1 d9bd 59b2 10bd c5a7 ecbd f1ed 31be
000002d0: 5266 06be f19f 91bd 06fc 95bd 16a7 edbd
000002e0: 598f c8bd 0741 37bd e305 a3bd 8da2 a2bd
000002f0: d5a2 8dbd b77f febc 67c2 e3be f8bc 8ebe
00000300: 6f69 e8bd aa34 cebd ea74 afbd 2dcd bdbd
00000310: 3306 b7bd ae51 2fbe d372 04be d49c d5bd
00000320: 4039 b3bd 698f b6bd 5c82 9cbd 4d1c 81bd
00000330: e9b1 4dbd d455 56bd 68d5 c4bd e552 b1bd
00000340: a523 f0bd f278 bcbd c0d4 8abd 5ab0 6ebe
00000350: 01bf 03be 80f4 83bd 0e09 8bbd 9346 d0be
00000360: aba4 a5bd 12ee 99bd 7468 6abd eeb6 a1bd
00000370: ac98 bcbd e96e d9bd da52 b1bd 977b adbd
00000380: 2ba9 bdbd 7591 7fbd 2dd8 bbbd cc4b 9fbe
00000390: b9d2 d0bd c1c7 b9bd 7b41 d9bd 9e01 c9bd
000003a0: eb77 a3bd 3faf 43be 65e2 24be 0cdd 77bd
000003b0: c030 44bd b870 a6bd d35e ebbd 429b 7cbd
000003c0: 8647 4abe e330 9f3d 18f3 c2bd 29c1 e3bc
000003d0: 37b0 59bd afbf f2bd f32f 9dbe 834c 5dbd
000003e0: 7f89 aabe c6fe bebd 9116 33be 95de 05be
000003f0: aa5e 92bd 040c 97bb e129 07bf 6146 aebd
-0.12054695 -0.08489016 -0.5130559 -0.076479256 -0.09953083 -0.12014425 -0.11844277 -0.50878465
-0.10309632 -0.05915739 -0.0577059 -0.2553928 -0.10056711 -0.056887187 -0.062049214 -0.1499819
-0.19797143 -0.1306582 -0.064866595 -0.12499295 -0.08033492 -0.07554527 -0.13324608 -0.07043141
-0.13213162 -0.3418721 -0.10382827 -0.12553492 -0.098265 -0.13753153 -0.08140149 -0.14540944
-0.09230713 -0.021483148 -0.11138864 -0.18013726 -0.13384436 -0.09264049 -0.111489326 -0.1040678
-0.07876652 -0.074733436 -0.07594485 -0.13130061 -0.11067908 -0.06367835 0.1470758 -0.1034301
-0.076013945 -0.09713055 -0.046726648 -0.014517313 -0.25517124 -0.104697004 -0.18960942 -0.10892865
-0.10617681 0.0015650956 -0.069991946 -0.09103991 -0.1577542 -0.07459934 0.058047608 -0.099564195
-0.14847967 -0.107582815 -0.13448828 0.053451356 -0.085227415 -0.45376307 -0.20535882 -0.03945617
-0.08496168 -0.042326394 -0.13098963 -0.16810791 -0.13518384 -0.08381286 -0.06858329 -0.13976319
-0.2758342 -0.06945611 -0.06360951 -0.062447138 -0.10604369 -0.07496198 -0.07191831 -0.10604271
-0.021052709 -0.15954421 -0.087307 -0.1401888 -0.059543677 -0.113221936 -0.056103084 -0.16717806
-0.1629201 -0.08729545 -0.12472277 -0.09430299 -0.06887166 -0.0626852 -0.1008701 -0.06636798
-0.33671564 -0.04100808 -0.073920146 -0.07614595 -0.43521374 -0.12409702 -0.21189073 -0.08032085
-0.10443025 -0.15254185 -0.10702534 -0.16393588 -0.088335805 -0.19492851 -0.15473372 -0.098709315
-0.12177492 -0.091164544 -0.10285235 -0.08240542 -0.040772993 -0.11932477 -0.14212371 -0.06715156
-0.2022261 -0.09884532 -0.06310144 -0.22747956 0.095589444 -0.055713445 0.011518728 -0.10711598
-0.099464834 -0.18288355 -0.09386491 -0.070759885 -0.10410729 -0.1046787 -0.10620088 -0.12977682
-0.052529234 -0.105899826 -0.5777756 -0.10699263 -0.087418884 -0.09774347 -0.07313323 0.0011906603
-0.09327563 -0.0634973 -0.29734048 -0.17558959 -0.087235466 -0.42787609 -0.18590422 -0.3567635
-0.025421973 -0.10651341 -0.5384146 -0.06650888 -0.10408292 -0.20782061 -0.31834248 -0.11851991
-0.047550708 -0.16764766 -0.07541666 -0.054415006 0.004623427 -0.10834998 -0.46038142 -0.10505401
-0.1062955 -0.035326336 -0.11555437 -0.17375924 -0.1312497 -0.071105845 -0.0732346 -0.11604135
-0.097929664 -0.04473975 -0.07960107 -0.0794116 -0.06915823 -0.031066759 -0.44484255 -0.27878547
-0.11348235 -0.100686386 -0.085672215 -0.0926765 -0.08936729 -0.17121002 -0.12934427 -0.10430303
-0.08751154 -0.08914072 -0.076420516 -0.06304226 -0.050218496 -0.052327946 -0.096110165 -0.08658389
-0.11725549 -0.09202756 -0.0677886 -0.2330946 -0.12865831 -0.06443119 -0.067888364 -0.40678844
-0.080880485 -0.075161114 -0.05722852 -0.07896219 -0.09208807 -0.106168576 -0.08658381 -0.084708385
-0.09260782 -0.062394578 -0.09172092 -0.31112516 -0.10196442 -0.09071303 -0.106081925 -0.098147616
-0.07981857 -0.1910982 -0.16101988 -0.06051354 -0.047898054 -0.08126968 -0.11492696 -0.061671503
-0.19753847 0.07772996 -0.09519023 -0.027802067 -0.053146567 -0.11852967 -0.30700645 -0.054028045
-0.33308026 -0.09325938 -0.17489077 -0.1307319 -0.07146962 -0.0046095867 -0.5279828 -0.085095175

critic_linear.weight f4 [1, 256]
00000000: c223 06bc fb11 29bd fb7d 90bd aac9 f6b8
00000010: 1471 703b e6aa 9bbb 3cca 6b3a 69bf 06be
00000020: fff1 d7ba f1c6 023b 5f84 c83a 1bbf ec3c
00000030: a533 0e3b 36fd a4ba 02b9 8dbb a596 e5ba
00000040: cdc5 023a dce9 b43a 7cc9 f83a bb80 9d3b
00000050: fc59 c7ba 9e7b bcbb 49c2 c23a dc6e b23a
00000060: 5536 49ba efeb 8b3b a745 133b c297 393b
00000070: 84de b63a ca75 e03c 681b 363a feac fe3a
00000080: 0d85 a53a 65f1 3a3b 477e bd3c 6357 0abd
00000090: b41c 68bb 9d09 423a 8066 a2ba 46dc b839
000000a0: 7a79 02bb 4ef5 8fbb fe62 023b cb8e 213b
000000b0: 83da 48ba a287 813b d739 f03c 1282 ba39
000000c0: 10c1 af3b 6fef 803a e4b9 213b b62e 0b3a
000000d0: 9600 1dbb a915 a13b 95ab 8db9 8b63 8e3b
000000e0: 4355 b2ba b426 bfbb d027 0abb 0213 b73a
000000f0: 318f 22bb a001 32bb 5f04 893e 1472 b83a
00000100: 2b9d f7ba 19af 9e3b dbb0 5d3b 5138 bd3c
00000110: 4bd2 c63a 15c6 25bc 8f0f e03b b076 1b3b
00000120: 52b6 11bc 016a a73c d910 bfba 50a0 833c
00000130: 4fed 38bb 8bf1 5abc f0a3 8bbb f2dc a13c
00000140: b689 e93a ab84 a23b fac5 35bb df6b 4dbd
00000150: 7b5c ab3a a1d9 4dba 0a54 4e3b 83d6 7dba
00000160: 0ef0 d93c 2c4d 723c bacf 123b a083 29b9
00000170: f898 b7bb 1327 203b 93bd b23c ac0c 0c3b
00000180: 5cb7 1d3c 197c e13c 69c1 943a daad 0f3b
00000190: d610 2fbb c5b9 1e3a d1cf 6db9 8b4f 543b
000001a0: 0957 24bb effe 603a bbd5 ec3a f831 c53c
000001b0: 3a07 e3bc 9895 b93c 4a0c 97bb 679e 8a3b
000001c0: f593 363a b63c ee3b 181c 283b 3ac1 9d3b
000001d0: 4e49 6fba f1ed baba 581d 723b 314e bb3b
000001e0: c60a acb9 17fc 763b 2efe a53a 9736 a03b
000001f0: a8cf 48ba 0f9c 823b 8371 0c3b 5769 8e3a
00000200: 57fe 90bc 7d19 8b3b 5847 4eba db04 a43b
00000210: 3e95 1b3d c0b2 d839 9c75 063d 69ca 4abb
00000220: 3f8f 67ba ec87 17bd 93ec 6c3b 1d5b 913a
00000230: c819 c13a 4624 b839 3305 90bb c4e4 683a
00000240: c509 9fbb a055 693b f26e 64bd 774c 8cb9
00000250: 8ded 42ba 7134 7a3a 087f 183b d844 e0b9
00000260: 6328 033b 6aae 513b add7 75bc 2960 f838
00000270: 4f0d 4d3b 503c cabb d1b6 f93a ee7f 10ba
00000280: d97b b8bb 6fb3 683a 8060 66bc 7426 bf39
00000290: 2d48 583b cb52 413b 51f2 14bc cfe7 c23a
000002a0: 02e2 4e3c f53d 743c c523 16bb 0494 1ebb
000002b0: 9036 c4b8 38e2 01ba 89ce 59be 5de9 f43b
000002c0: 92e1 5639 1b83 b93c 4cea cf3a d001 9c3c
000002d0: 3f1c 003b 3914 a63a 74ab cb3a 3254 743b
000002e0: 5814 a33a 86b4 933b 7297 583b 17b5 403b
000002f0: a0c0 873b 2209 953b b120 1abd e677 edbc
00000300: 02a7 b83a 275b d43b f2cb 05ba cf86 153b
00000310: 4380 42ba 7cbe 1bbc 5a9e 433b 4120 863a
00000320: bc0e 2aba 3ebc e13a b1aa 7bb9 0ce1 34b9
00000330: 5506 a93c d206 1639 b2f4 c73a 23c8 0d3b
00000340: 8ad9 10b9 2a55 b63b 6a06 8638 7ca9 863a
00000350: da40 883c fc0a 8c3a 58bd 7dbb cef5 13b9
00000360: 7ee8 913b bab3 283a 6824 dc3a 02e9 f93a
00000370: dc81 e23b aefc 1cbb dcfa 9839 5330 7a3b
00000380: 3ae1 2ebb 873d 893a d541 8cb9 fcfa cbba
00000390: f853 243a 8d36 413a ac3d d93a 7b3e 3fbb
000003a0: cc91 043b 5f59 fbb8 bc4c cd3a a2e2 643a
000003b0: bcbd ab3b f47b bf38 028c f13b 5273 8dba
000003c0: 802d 0b3b 39c4 d93c 8e31 443b 9284 833c
000003d0: d553 46ba 5a14 513b f0e4 14bb 6b75 323b
000003e0: 2dc1 cebc d616 343b f0f7 283c 0bb3 3a3b
000003f0: eafe 5cb8 24c7 b23c 6461 83bd 60ae 403b
-0.008187236 -0.041276913 -0.07055279 -0.00011767757 0.0036688494 -0.0047505973 0.0008994674 -0.13158955
-0.0016475319 0.0019955004 0.0015298239 0.02889972 0.0021698263 -0.001258767 -0.004325033 -0.0017516209
0.0004988581 0.0013802606 0.0018980945 0.0048066056 -0.0015209313 -0.005752041 0.0014858927 0.0013613361
-0.00076756376 0.004270069 0.0022471936 0.0028319214 0.0013951813 0.027399916 0.0006946833 0.0019430218
0.0012628153 0.002852523 0.023131503 -0.033774745 -0.00354175 0.0007401945 -0.0012390167 0.0003525933
-0.0019908831 -0.0043932563 0.001989543 0.0024651762 -0.00076619553 0.0039529363 0.029324455 0.00035573595
0.005363591 0.0009836982 0.002467745 0.00053093897 -0.0023956648 0.004915912 -0.00027021454 0.0043453625
-0.0013605732 -0.005833471 -0.002108086 0.0013967457 -0.0024804587 -0.0027161613 0.26761147 0.0014072084
-0.0018891444 0.0048426506 0.0033827338 0.023098143 0.0015168873 -0.010118027 0.006837792 0.0023721866
-0.008893566 0.020436289 -0.0014577165 0.016067654 -0.0028217619 -0.013363252 -0.004261486 0.019758675
0.001781753 0.004959663 -0.0027736411 -0.050151702 0.0013073826 -0.00078525586 0.0031483197 -0.0009683149
0.026603725 0.014788907 0.0022401647 -0.0001616613 -0.005602952 0.0024437353 0.021818912 0.0021369858
0.009626236 0.027524995 0.0011349145 0.0021923692 -0.0026712916 0.00060549035 -0.00022679499 0.0032396044
-0.002507629 0.000858291 0.0018069068 0.024071679 -0.027713407 0.02265434 -0.0046096193 0.004230309
0.00069647963 0.007270421 0.002565151 0.004814294 -0.000912805 -0.0014261586 0.003694376 0.0057161083
-0.00032814423 0.0037686878 0.0012664252 0.00488932 -0.0007660338 0.003985889 0.0021429963 0.0010865134
-0.017699404 0.004244982 -0.00078689074 0.0050054616 0.037984125 0.0004133191 0.032827005 -0.00309434
-0.0008833296 -0.03699486 0.0036151751 0.0011089776 0.0014732415 0.0003512224 -0.004395151 0.00088841864
-0.0048534595 0.0035604015 -0.05576987 -0.00026759852 -0.00074359105 0.00095445575 0.0023269076 -0.00042775902
0.0020013086 0.0031994828 -0.015005034 0.00011843473 0.003128845 -0.0061717406 0.0019051676 -0.0005512227
-0.005629998 0.00088768353 -0.014061093 0.0003645901 0.0033002004 0.0029498811 -0.009090976 0.001487011
0.012627127 0.01490735 -0.0022909504 -0.002419711 -9.356171e-05 -0.00049546687 -0.21270193 0.007474108
0.00020492662 0.022645524 0.0015862673 0.019043833 0.0019548086 0.0012670822 0.0015538768 0.003728163
0.0012441976 0.004507604 0.0033049253 0.0029404813 0.0041428357 0.004548208 -0.037628833 -0.028987836
0.0014087858 0.006480593 -0.00051039376 0.0022815948 -0.0007419625 -0.009505864 0.0029849024 0.0010233001
-0.0006487181 0.0017222238 -0.00024000813 -0.00017249974 0.020632902 0.00014307656 0.001525542 0.0021634183
-0.0001381395 0.0055643516 6.3908126e-05 0.0010273899 0.016632486 0.0010684426 -0.0038717594 -0.00014110582
0.004452764 0.0006435473 0.0016795518 0.0019066634 0.006912453 -0.002395432 0.00029178604 0.0038175776
-0.0026684538 0.0010470607 -0.0002675193 -0.001556247 0.0006268616 0.00073704944 0.0016574166 -0.0029181528
0.0020228503 -0.00011985259 0.0015663127 0.00087312807 0.005241124 9.130678e-05 0.0073714266 -0.0010791814
0.0021236837 0.026582824 0.0029936763 0.016054425 -0.00075655925 0.0031903 -0.0022719465 0.002723063
-0.025238598 0.0027479432 0.010313019 0.0028488066 -5.2689495e-05 0.021823473 -0.0641506 0.002940081
