A3C-new/A3C-Pong&breakout-new/runs/BreakoutNoFrameskip-v4/2022-11-03_16-23_Second80MSteps_OK/model_sam_BreakoutDeterministic-v4_conv.10.tar (torch, 944955 bytes, 13 tensors)

conv1.weight f4 [32, 4, 3, 3]
000000 dc 3d c7 3d 5d 59 86 be 11 e4 76 3b 49 b2 21 3d
       0.097285956 -0.26240054 0.003767256 0.039476667
000010 fa e3 67 be 26 bb 4c 3e 51 eb 21 bd 21 08 15 3e
       -0.2264556 0.19993266 -0.039531056 0.14553882
000020 00 e6 0d 3e 38 4c 65 3d 2e e8 20 3d cd 32 fa bc
       0.1385727 0.05598089 0.039283924 -0.030541802
000030 b8 94 fe 3d a5 e7 c8 bd 52 be c4 3d fd 61 91 3c
       0.124307096 -0.09809808 0.09606613 0.01774692
000040 5f 36 27 3c 7a a7 ce 3d bc 89 2c 3e a7 c3 a8 3d
       0.010205834 0.10090537 0.16849416 0.08240443
000050 da 47 b6 bd 07 4e 21 be 8a 9f 48 bd 58 5a 9b 3c
       -0.08900423 -0.15752421 -0.048980273 0.018963978
000060 b7 8a 59 3c 51 0d 83 bd f8 af 04 3e de d0 89 3d
       0.013277701 -0.06399024 0.12957752 0.067292914
000070 0a 89 5d be 47 73 9c 3d af 8b f4 bd 69 09 b5 3c
       -0.21634308 0.07639175 -0.11940705 0.022099214
000080 8f 38 1e 3e c2 06 5f be c2 04 62 be 79 25 23 bd
       0.15451263 -0.21779922 -0.22072127 -0.03983066
000090 f3 3a 72 3e ea aa 11 bd 5d 64 74 3d 1a d1 a7 bd
       0.236553 -0.035563387 0.059666026 -0.0819418
0000a0 86 bf b9 3e 93 c7 2a be 1b b9 5c 3e 6b 3e 48 3e
       0.36278933 -0.16677694 0.21554987 0.1955506
0000b0 d3 61 12 be db 3d 01 3e 3d 30 1c be 77 1e 0b bb
       -0.1429513 0.12621252 -0.15252776 -0.0021227875
0000c0 4c 83 dd bd 53 06 18 3e 43 1d 87 be 4a 3c 68 bd
       -0.108160585 0.14846162 -0.26389512 -0.05669812
0000d0 c4 4f 4a 3e 36 8b d7 bd 78 f0 2e 3e ad 86 22 3d
       0.1975699 -0.10524599 0.17083919 0.039679218
0000e0 b8 b1 3f bd 81 20 4b be 04 5d 7b 3e e1 0f 83 bd
       -0.046800345 -0.19836618 0.24547201 -0.06399513
0000f0 25 c6 26 be 31 0b 4a 3e e9 82 09 3d 45 8e c9 3d
       -0.16286524 0.19730832 0.03357211 0.09841589
000100 92 27 3e be c1 56 bc bd 4e 60 1d be f4 26 19 3e
       -0.18569782 -0.091962345 -0.15368769 0.14956266
000110 80 7d 45 be ea f9 61 be a3 50 0e 3e 48 4e 6e bd
       -0.19286156 -0.22067991 0.13897948 -0.058180124
000120 07 11 e7 3d 1f 6b be 3d e3 3b 99 bd 61 5b ec 3d
       0.112825446 0.092977755 -0.074821256 0.11540867
000130 d2 8a 64 3d fc 44 9e bd 13 d4 2b be a8 73 31 3e
       0.055796452 -0.077280015 -0.16780119 0.17329276
000140 e2 d4 14 be 9b 71 35 bd 94 71 67 3d e3 c0 ac bd
       -0.14534333 -0.044297796 0.0565048 -0.08435228
000150 6f c5 48 3e 03 6e 21 be 9a 2e a9 be 05 0b 40 3d
       0.19606565 -0.15764622 -0.33043367 0.04688551
000160 bc ce dd 3a 11 0f 91 3d c2 aa 04 3e 79 8b bc bd
       0.0016922574 0.07082952 0.12955764 -0.0920629
000170 74 21 07 3d 13 3f 32 3e 5a 25 25 be f9 78 65 be
       0.032990888 0.17406873 -0.1612753 -0.22409429
000180 53 7a 15 3c 28 fb b3 3d 62 1e ae bd ca ff 23 3c
       0.009123403 0.08788139 -0.08501889 0.010009715
000190 04 d0 50 3e 7e 41 2f be f0 b0 7a 3e 32 c8 f2 3d
       0.20391852 -0.17114827 0.24481559 0.118545905
0001a0 ea f1 73 be c7 d5 12 be 18 f5 8d 3e 3b 38 ae 3a
       -0.23822752 -0.14339362 0.27726054 0.0013291904
0001b0 8e 4f 80 3e ee 16 59 3c 13 6e 3f 3e 64 44 30 3e
       0.25060695 0.013250096 0.18694334 0.17213589
0001c0 45 e6 bb 3e a8 52 10 bd 0d 95 f2 3c 1f 42 8b 3e
       0.3669912 -0.035235077 0.029612089 0.27198884
0001d0 39 e0 14 3e e3 88 9b 3d 0c 2a 88 be 1e 66 94 bd
       0.14538659 0.075944684 -0.2659458 -0.0724604
0001e0 7b e7 05 be 10 31 aa 3d 3d 31 49 3e 02 8a e8 bd
       -0.13076584 0.08310139 0.19647689 -0.11354448
0001f0 53 9c 84 3d 67 0e 92 bd 70 9c 6a be 63 71 7a be
       0.06475129 -0.07131653 -0.22911239 -0.24457316
000200 62 66 03 3e 50 ca 56 3d f8 f1 e0 bd 69 5c 97 3c
       0.12832025 0.052439034 -0.10983652 0.018476682
000210 5c 7c bc 3d 62 87 9e 3d b3 13 64 3d 11 ea 71 3d
       0.09203407 0.07740666 0.05568285 0.059061114
000220 55 f5 89 bd 3b 62 7d 3d 79 fd 81 be 93 f6 55 be
       -0.067362465 0.061861258 -0.25388697 -0.20894842
000230 75 3e 0c be 40 33 10 be da 39 6e be 43 82 64 bd
       -0.136957 -0.1408205 -0.23264256 -0.05578829
000240 f6 59 a2 3d 70 6a 8e bd be 13 51 bd 3e b9 ff bc
       0.07927315 -0.06953895 -0.05104422 -0.03121626
000250 33 11 53 3e f9 f2 71 3d 98 e2 9b bd be f5 4d 3e
       0.2061203 0.059069607 -0.07611579 0.20113274
000260 7c ee f3 3d 16 73 7e 3d 58 c3 a9 be 13 20 4e be
       0.11910722 0.062121473 -0.33156848 -0.20129423
000270 e5 e5 53 be 6b 60 eb bd 24 32 16 bd 67 6a bb bd
       -0.20693167 -0.11493 -0.03666891 -0.09151154
000280 a2 38 49 be c0 eb 88 3d 69 7b bb 3d 2f 12 c4 3d
       -0.1965051 0.06685591 0.09154398 0.09573781
000290 2f 3e ea bd 5a ab 0f bd 36 bd a6 bd bd 32 ee bd
       -0.11437642 -0.035075523 -0.08141558 -0.11630771
0002a0 8c 16 ed bd 74 bb 3d be 2c 1c 7f bd 19 4a 09 3e
       -0.11576566 -0.18528539 -0.062282726 0.13407172
0002b0 2d 26 15 3e 7a 10 41 3d 1f 6d a5 3d 27 d3 b5 3e
       0.14565344 0.047134854 0.08077454 0.3551266
0002c0 9d ab 24 3e 31 24 3a 3d 81 e0 5f bd 38 4a 49 3e
       0.1608109 0.04544467 -0.054657463 0.19657218
0002d0 86 eb 92 3c b9 d9 5e bd bf 56 4c be 7e ef 23 be
       0.017934572 -0.054406855 -0.19954966 -0.16009328
0002e0 cf 47 a6 bd ee b7 44 3e 58 e7 93 be 01 9a 5f be
       -0.08119165 0.19210789 -0.2888744 -0.21836092
0002f0 8c 0a 30 bc aa 66 b2 3b ae 30 25 bc e7 1a ce bd
       -0.010744702 0.0054443674 -0.010082407 -0.10063725
000300 ce cd e8 bd aa 49 b9 3d 48 3d 0e 3e 32 d4 32 be
       -0.11367379 0.090472534 0.13890564 -0.17463759
000310 19 f8 1f 3d 78 a7 8e 3d 0c 6f 82 3e bf 99 2a be
       0.039054964 0.06965536 0.25475347 -0.16660212
000320 af 6e 9e 3c bc a9 27 be ba ee 32 3e ed 12 d4 bc
       0.019339887 -0.16373342 0.1747388 -0.02588793
000330 0d ab a9 3d b5 37 29 bd 94 8e 70 bd 70 aa a1 3d
       0.082845785 -0.041312892 -0.058729723 0.078938365
000340 5d ff 8b 3d 19 19 a6 3d 8e d7 bf bc 03 95 38 3e
       0.06835816 0.08110256 -0.023418214 0.18025593
000350 51 a6 8b bd a9 48 dd 3d 91 07 5a 3e 86 12 3d 3e
       -0.06818832 0.108048744 0.21291949 0.18464097
000360 ea 9f 43 3e d1 3e 69 bd 25 55 03 bd a1 9e 86 3e
       0.19103971 -0.056944672 -0.032063622 0.262929
000370 7d 4f ae 3c 5c 5f 12 3d 7d 08 17 be 4a 17 98 bd
       0.021278137 0.035735473 -0.14749332 -0.07426317
000380 5a f6 ae bb f9 2c d3 bd 46 33 5a bc e4 7c 0c 3e
       -0.005339426 -0.10311312 -0.013317889 0.13719517
000390 24 46 63 3e f3 e9 a6 3e 65 e1 b8 bd 71 63 09 be
       0.22194725 0.32600364 -0.090273656 -0.1341684
0003a0 45 1d 3c 3e 5d f8 d6 bd 3f b4 c0 bd f3 ea 35 3d
       0.1837054 -0.1049659 -0.09409379 0.04441352
0003b0 c7 4f 0a be 5c 66 27 3e 2a 98 9a 3e 07 13 8e be
       -0.13506995 0.16347641 0.30194217 -0.27748892
0003c0 4a 67 28 be e3 7e 7c 3d ce 18 ed 3c 31 9b 8c bd
       -0.16445652 0.061644446 0.028942492 -0.06865538
0003d0 1b 66 0a be b9 53 8f bd cc ef 32 be 29 52 f0 bd
       -0.13515513 -0.06998391 -0.17474288 -0.11734421
0003e0 06 41 6c be 73 be 04 3e d0 60 11 3e 7b 88 6c bd
       -0.2307168 0.12963276 0.14197087 -0.057747345
0003f0 72 fc 7b 3d 9e d9 7e bc 60 1a bf 3d 7a b7 09 be
       0.061520047 -0.015554814 0.093312025 -0.13448897

conv1.bias f4 [32]
000000 72 52 cc b9 6c 07 25 bd 3f 5a 98 bc 3a 15 f5 bc
       -0.0003897134 -0.04029028 -0.01859772 -0.029917348
000010 ff 0d 9a bc d0 06 95 bc 7c 78 3e bc 1c 89 1e bc
       -0.018805502 -0.018191725 -0.011625405 -0.009676244
000020 5f dd 09 bb 8d d8 20 bd fd 0c 4d 3c af 19 46 3c
       -0.0021036488 -0.03926902 0.012515304 0.012091084
000030 69 aa c4 ba d6 d1 79 3c 28 6c 3c bd b9 cc 45 bb
       -0.00150044 0.015247783 -0.046001583 -0.0030181839
000040 bd 37 e1 3b ec 68 9d bb 02 e2 dd bc 12 5f a3 3c
       0.0068730996 -0.0048037674 -0.027085308 0.019942794
000050 41 14 14 bc 48 87 9e bb 5c 3d 32 bc fb 98 6b 3a
       -0.009038032 -0.004837904 -0.010878887 0.00089873344
000060 92 2b ed bb 55 29 3f 3b f9 1d f4 3b a1 e8 96 bc
       -0.00723786 0.0029168923 0.007449862 -0.018421473
000070 c0 01 ef ba af 59 83 3b b8 b0 22 bc fc da 3a 3d
       -0.0018234774 0.004008494 -0.009929828 0.045618996

conv2.weight f4 [32, 32, 3, 3]
000000 93 d9 80 3d 6c 81 49 3d d6 73 20 bd 13 2d 89 bd
       0.06291499 0.049195692 -0.03917297 -0.0669805
000010 d3 7e 58 3e 32 ec b8 bd 6d 6f 01 bd 5f 51 0c be
       0.2114213 -0.09029426 -0.031600405 -0.13702916
000020 94 7b f1 bd 2a f8 fa bd 93 09 24 be 38 64 3d 3a
       -0.11791149 -0.12254365 -0.16019277 0.00072247116
000030 e6 77 19 3e 64 28 75 bd bf 14 63 3d eb 05 9e bb
       0.14987144 -0.059852973 0.055439707 -0.004822483
000040 f3 45 95 bc 8f 6b 0b bd 01 9d ff 3d f0 07 57 bb
       -0.018221831 -0.034038123 0.12481118 -0.0032811128
000050 3a 19 d4 bc 51 d8 9c bd 24 9e 42 bd 45 3d 02 be
       -0.025890935 -0.076584466 -0.047514096 -0.12718685
000060 98 c6 bc bc fd 36 81 bd 23 19 ad 3e fd 82 c8 bc
       -0.023043916 -0.06309316 0.3380824 -0.024476523
000070 50 bd 83 bd a5 56 0a 3e b8 8e 9b 3d 6e e0 5e 3d
       -0.06432593 0.13509615 0.07595581 0.05441325
000080 8a 0b 06 3d b2 e7 26 3c 9a b6 a4 3d c6 d4 37 be
       0.03272585 0.010187076 0.08042641 -0.1795226
000090 dc 15 1c 3e 08 c8 4b bd 65 54 4a bc 83 fe 71 3b
       0.15242714 -0.04975131 -0.012349223 0.0036925382
0000a0 bf 26 57 3c bc 71 57 bd ab ed ae bd 2f 99 e3 3b
       0.013131796 -0.0525987 -0.08541425 0.006945751
0000b0 ce 11 15 3c 98 0f a9 bd d5 48 13 3c 07 15 9f bc
       0.009098483 -0.082549274 0.0089895325 -0.019419206
0000c0 4f 65 d9 3d cd b4 d3 bc ec 94 b9 3d 0e 83 36 bd
       0.10615026 -0.025843048 0.09061608 -0.044558577
0000d0 5e f4 3d bc fa aa 6e bd 6d 12 4b 3a 55 70 55 bd
       -0.011593906 -0.058268525 0.0007746581 -0.05210908
0000e0 52 7e a1 3d 5d 72 42 bd 3c 9c 1e 3c b5 10 05 bd
       0.07885422 -0.047472347 0.009680804 -0.032486636
0000f0 d3 cd b9 bd e2 ff 4a bd 58 3f 73 bb 04 b8 d9 3d
       -0.09072461 -0.049560435 -0.0037116613 0.10630801
000100 00 f0 20 bc 14 67 6e bc 72 5c 3a 3d 26 02 9c 3c
       -0.009822845 -0.014550943 0.04549832 0.019043993
000110 88 e5 90 3c 68 fe c6 bd 32 bb 8b 3c 80 01 cb bc
       0.017687574 -0.09716493 0.017057035 -0.024780989
000120 6d a5 39 bc ac e9 6c bb 92 37 09 3d e6 f6 a0 bd
       -0.0113309445 -0.0036150021 0.03350026 -0.07859592
000130 1f f3 79 bd d3 c6 ef 3d e8 25 e8 bd 78 7d 65 3d
       -0.061022874 0.117078446 -0.11335355 0.05602786
000140 3f 27 e9 3b 07 77 36 3e 52 62 8c 3d e4 ea d2 bd
       0.007115274 0.17818843 0.068546906 -0.10298708
000150 0e b0 50 be b0 c5 ca bd 49 e6 4c be 66 e1 7d bd
       -0.2037966 -0.09900987 -0.20009722 -0.061982535
000160 64 e1 5d bc 2d af c6 3e 87 5a d6 bd 61 b7 0c be
       -0.013542507 0.38805524 -0.104664855 -0.13741829
000170 50 ea da 3b 1b 74 c9 3d 74 b0 0d 3e 15 1b a5 3d
       0.0066807643 0.098365985 0.13836843 0.08061806
000180 fa 6d 09 be f5 74 11 3d 81 81 bb bd 2f 89 12 3e
       -0.13420859 0.03551193 -0.0915556 0.14310144
000190 b1 f6 d8 3d 60 45 5e bb af 9a 0e bd ff eb e7 bb
       0.10593928 -0.0033915862 -0.034815487 -0.0070776935
0001a0 a1 96 1e be 19 43 30 3c ab c3 57 3d 6b 2b 03 3c
       -0.15487148 0.010758185 0.052676838 0.008005957
0001b0 9b 59 06 be bd 92 b5 bd 32 e6 68 bd 2d de ba 3d
       -0.1312012 -0.08865879 -0.056860156 0.09124408
0001c0 69 86 cf bd 05 79 71 3e 4c ee f4 bd 17 ad 34 3d
       -0.101330586 0.23581322 -0.11959514 0.044110384
0001d0 11 71 83 3c 42 73 17 3d c9 e6 b3 3d 32 8b 05 3e
       0.016045125 0.036975153 0.08784253 0.1304138
0001e0 9c db 2f 3d a4 8b a2 bd d7 67 88 3d 36 a6 17 bd
       0.042934045 -0.079367906 0.06660431 -0.037023745
0001f0 56 24 09 be 49 ad d4 bc b6 3e 44 3d 87 ef 3c 3d
       -0.13392767 -0.025961535 0.04791137 0.04612687
000200 fd 58 3d be d9 b1 cf 3c 6d 34 22 3d 62 3d d3 bd
       -0.18490978 0.025353359 0.03960078 -0.10314442
000210 9b 70 c7 bd b2 02 f4 3b 3d 1b ee ba 92 b7 96 3d
       -0.09738275 0.0074466104 -0.0018166077 0.07359232
000220 30 f7 e7 3b a4 7b 04 3d ff fc df bc 0e 86 1f 3d
       0.0070790276 0.032344475 -0.027342318 0.038946204
000230 cc 25 10 be 7b 5a 21 3e 07 84 ac bd d7 c6 52 3c
       -0.14076918 0.15757172 -0.0842362 0.01286479
000240 60 08 ad bd 3c 7b 37 be 6f 75 6d 3d 42 6e 02 3e
       -0.08448863 -0.17918104 0.05797332 0.12737373
000250 e2 c6 04 be 1c ad 82 3e 7d 9b 4e bd 06 8a 40 3e
       -0.12966493 0.25522697 -0.050441254 0.18802652
000260 c0 11 b1 bd 6a 48 93 3c 2d 12 bc bd ca 44 67 3d
       -0.08645964 0.017978866 -0.09183154 0.056462087
000270 4f ee 16 be ec 04 29 3d 79 99 00 bd 0e 18 a7 bd
       -0.14739345 0.04126446 -0.031396363 -0.08158885
000280 73 a8 d1 bd 87 07 3d 3d 56 b3 87 3d ed e6 bd 3c
       -0.10237207 0.046149757 0.066260025 0.023181403
000290 f9 66 72 bd d8 91 aa 3d 8e 5a f2 bb d2 56 fe bd
       -0.059180234 0.08328599 -0.007396049 -0.124189034
0002a0 2e ac 1e be f7 5e dc bd db f2 46 3d df e0 0c bc
       -0.15495369 -0.107603006 0.04857145 -0.008598535
0002b0 3f 91 f5 ba f9 33 7f bd d5 aa 6e bc 57 42 3f bd
       -0.0018735303 -0.062305424 -0.014567097 -0.046694126
0002c0 10 49 1a bd f6 ba b1 bc 08 2b 23 3d b5 e7 79 3e
       -0.037667334 -0.021695595 0.03983596 0.24404795
0002d0 9c 5d 83 3d 3d 03 a2 bc bb 5a 9e 3d 2a 6d 93 3c
       0.06414339 -0.019776935 0.07732149 0.01799639
0002e0 64 ab 55 3d e1 1b 49 3e 80 e5 9d bd 85 17 96 3c
       0.052165404 0.19639541 -0.07709789 0.018321762
0002f0 a4 90 89 be e7 be 67 3d 06 b6 9c 3d d1 b5 25 bd
       -0.26868165 0.056578543 0.07651906 -0.040456597
000300 5b 1d e0 bd ae 36 50 3d 05 61 04 be 1b 80 5d 3c
       -0.10943099 0.050833397 -0.12927635 0.013519312
000310 af 2a ba bc 3b b9 39 3e f2 6d 54 bd cb e8 32 3b
       -0.022725431 0.18137066 -0.051862665 0.00272994
000320 2c 7d 6a bd d8 08 0e be a9 7a 9e bc 81 70 1c 3e
       -0.05724828 -0.13870561 -0.019345598 0.15277292
000330 9f e7 2a 3d 64 1b 18 3e e6 14 f0 bc 88 55 97 bd
       0.041724797 0.14854199 -0.02930684 -0.07389361
000340 0f 62 40 bc b9 7c 2c 3e fe e3 2b be 65 7d 27 3d
       -0.011742129 0.16844453 -0.16786191 0.04089107
000350 dd a1 24 be 4b a6 6d 3d 8b 54 35 bd 06 f0 09 3e
       -0.16077371 0.058019917 -0.04427008 0.13470468
000360 db 1e 4f bd 1c af 92 3b e0 ab 4c bd 70 73 40 3d
       -0.050566535 0.004476441 -0.0499686 0.04698509
000370 c0 31 cf bc 17 a3 9b 3d 15 22 d2 3d b8 50 63 bd
       -0.025292277 0.07599466 0.10260407 -0.0554969
000380 d3 e1 eb bc 8d 85 9d 3d 9a 85 8f 3e 1a 73 eb bc
       -0.028794205 0.076914884 0.28031617 -0.028741408
000390 9f 34 82 bd b0 d5 96 bb c0 4b ad bd f5 6a 21 bd
       -0.06357693 -0.0046031103 -0.08461714 -0.039408643
0003a0 2b 31 34 bd b8 98 23 bd 44 88 8c bc 4a 86 70 bd
       -0.043992203 -0.039940566 -0.01715482 -0.058721818
0003b0 6a 5b 2f 3d 5e 5d 10 be 0e 0b 63 3d 3c ce 4e 3d
       0.04281179 -0.14098117 0.055430464 0.05048965
0003c0 e1 ff 97 3d 09 fa fc 3d 91 01 0f be a4 42 36 bc
       0.07421852 0.12352378 -0.13965441 -0.011124287
0003d0 c1 08 a9 3b c7 62 90 bd 1d ce 8e bd b6 72 6f 3d
       0.0051585143 -0.0705009 -0.06972907 0.058459006
0003e0 7b c0 d1 3d 3e ae 21 3e 6f b5 fa 3d 3a 78 09 be
       0.10241791 0.15789124 0.12241637 -0.13424769
0003f0 b4 b4 a2 3a 7b b1 ff bd 16 b6 b9 3d e9 45 89 bd
       0.0012413473 -0.124850236 0.09067933 -0.067027874

conv2.bias f4 [32]
000000 b7 1e 52 bd 6e d2 fd bc 2a 63 7a bc 26 7e 0d bd
       -0.051298823 -0.03098413 -0.015282432 -0.034544133
000010 e6 8a a2 bc b0 7b b6 3c 56 cf 37 bc 63 77 a4 bc
       -0.019841623 0.022275776 -0.011218866 -0.02007646
000020 5f e7 d2 bc 29 40 9b bd 11 7f 1a 3a 79 2b e3 bc
       -0.025745092 -0.07580597 0.0005893568 -0.02773069
000030 f2 91 b4 bc 40 a0 68 bc fa 2a e3 bc 5b 56 1a bc
       -0.022042248 -0.014198363 -0.027730454 -0.009420003
000040 54 0c 15 3d 6e 47 b1 3c 20 15 34 bd a9 04 a3 bc
       0.03638871 0.021640506 -0.04396546 -0.019899683
000050 da d0 12 bb 37 25 04 bd c0 0d 06 3c d9 55 22 bd
       -0.0022402317 -0.032262053 0.008181989 -0.039632652
000060 d3 fa b6 3b 76 53 22 3c b1 c7 5a 3c 20 f8 8b bc
       0.0055841 0.009907594 0.013353274 -0.017086089
000070 47 f4 06 bd 75 0d 69 bd fb f8 ba bc 06 e5 62 bd
       -0.032947805 -0.0568976 -0.022823801 -0.055394195

conv3.weight f4 [32, 32, 3, 3]
000000 b3 fb 0e be df 96 2c bc ca 9a 3c be 98 2a 1e bd
       -0.13963203 -0.010534017 -0.18418422 -0.03861484
000010 72 aa 48 bc f5 b8 81 3d c1 57 e5 3b 57 9e e7 3d
       -0.012247669 0.06334106 0.0069989865 0.11309498
000020 5f 96 a1 3b 74 f6 8d 3c 79 34 7b 3c da 4f 0c 3e
       0.0049312557 0.017329432 0.015332335 0.13702336
000030 4d 8e bf bd 7c f7 b1 3d 33 50 27 be 48 21 ab bb
       -0.093533136 0.08689782 -0.16339187 -0.0052224733
000040 b3 67 90 bd c7 ff 0a bc 94 4e 46 bd ee bc c2 3d
       -0.07051029 -0.008483834 -0.04841478 0.09508692
000050 67 1d 8a 3b f2 ff ae bd 6c 88 d1 3c 4e 02 05 be
       0.004214931 -0.085449114 0.025577746 -0.1298916
000060 f7 11 b6 3d 1d 48 86 bd 34 3c 01 3e d1 d3 be 3d
       0.08890145 -0.06556723 0.12620622 0.093177445
000070 bd 3e 10 3e 16 eb ee bc 1d 78 3c bd dd ad 66 3d
       0.14086433 -0.029164832 -0.046012986 0.056318153
000080 b4 24 99 bd ee 24 5a 3d be 19 9f bd fd 35 7e 3c
       -0.07477704 0.053257875 -0.07768582 0.0155158015
000090 59 06 21 3d 79 04 8a bd 11 f7 da bc 40 28 5d bd
       0.039312694 -0.06739134 -0.026729139 -0.053993464
0000a0 e3 54 36 bd 44 14 72 bd d1 28 70 3c 46 f6 6f 3d
       -0.044514548 -0.059101358 0.014658169 0.058584474
0000b0 46 d2 7a 3d 6d 0b 72 bc 49 86 07 bd f7 67 30 bd
       0.06123569 -0.014773232 -0.03308705 -0.0430679
0000c0 2a 9d 23 3d 64 55 ab 3c b9 a3 de bd f2 19 b5 3c
       0.039944805 0.02091474 -0.10871071 0.022107098
0000d0 d7 08 0e bd 88 40 43 3d 1e 82 23 3d b4 94 de 3c
       -0.0346764 0.047668964 0.03991901 0.027170517
0000e0 0e 11 ce 3d 81 d9 e9 bd ae ec 6e 3e 0e 5e 0e 3e
       0.10061847 -0.11418439 0.23332474 0.13903067
0000f0 d6 13 2a bd 94 62 98 bd 72 81 17 bd ae b9 aa 3d
       -0.041522823 -0.07440677 -0.036988683 0.08336197
000100 18 68 3d 3c a7 9a 67 3d ad 4a 03 3e 0e 10 3b be
       0.011560462 0.056543972 0.12821455 -0.18267843
000110 c1 fd 01 3e 83 0c 17 bd ba 98 8a 3d 09 97 24 be
       0.12694456 -0.036877166 0.067674115 -0.1607324
000120 c3 28 81 bd 90 0f de 3b 0a 3b 21 bd 6d 91 30 bd
       -0.06306603 0.0067767575 -0.039362945 -0.04310744
000130 1b c1 16 3e c6 f3 96 3b b5 08 96 bd 05 2c 5e 3d
       0.14722101 0.004606697 -0.073258795 0.0542412
000140 ee 6d 53 bd a3 de 58 bd 3e 64 2d 3e 88 c8 cf 3c
       -0.05161851 -0.052946698 0.1693277 0.025364175
000150 b1 d0 30 3d ea 8e 87 bc 6d 1c 11 3d 5f 03 d3 3d
       0.043167774 -0.016547639 0.0354275 0.10303377
000160 a8 b8 cb 3b 3e fc 52 3d e9 61 c8 3c 68 49 92 bd
       0.006217081 0.05151009 0.02446075 -0.071429074
000170 1a 7c a1 3d 4d 20 05 bd 24 6b 0e 3e 7e 02 14 3d
       0.078849986 -0.032501508 0.13908058 0.03613519
000180 07 7e 0a bc 2e 7e 15 be ec ec 98 bd 29 7c df 3c
       -0.008452899 -0.14598915 -0.07467064 0.027280884
000190 11 89 51 bd f2 7f 15 3e b6 5d 77 bd a0 a8 d4 bd
       -0.051156107 0.14599589 -0.060392104 -0.10383725
0001a0 eb 36 34 bd c9 15 43 bd 5f 3e c2 3d 1c f1 fd bc
       -0.043997686 -0.047628198 0.094845526 -0.030998759
0001b0 a3 b3 97 3d 4c 2e 98 bd 0c bf 27 3e d0 0a 82 bd
       0.0740731 -0.074307054 0.16381472 -0.063497186
0001c0 e6 88 84 bd 9d 19 c9 3d a1 8c 8d bd fa 05 37 3d
       -0.06471424 0.098193385 -0.069115885 0.044683434
0001d0 a0 81 00 be 38 d3 81 3d da c2 64 3d 08 65 db bc
       -0.12549448 0.06339115 0.055849887 -0.026781574
0001e0 a6 a9 91 3d 8a ad d4 bd b6 19 1f 3d aa 1f 8f 3d
       0.07112436 -0.103846624 0.03884288 0.06988461
0001f0 91 65 04 bd 43 33 5d bd 7f 47 ab bc a5 57 63 3d
       -0.032323424 -0.054003965 -0.020908115 0.055503506
000200 0e 4c 79 3c 1f fd 6a 3c f9 54 84 3e e5 48 2a be
       0.015215887 0.014342575 0.2584608 -0.1662937
000210 ad 80 2d bd b2 47 95 bd 76 ad d7 bc 07 ba 29 3d
       -0.042359043 -0.072890654 -0.02632783 0.041437175
000220 3b 66 2b 3c 41 42 ef 3c 57 24 4a 3d 49 61 b4 bd
       0.010461385 0.029206397 0.049351063 -0.08807618
000230 5b bd 00 3e 8d b8 7c 3d 8b 93 48 3b ae 6f 99 bd
       0.12572233 0.06169944 0.003060552 -0.07492004
000240 a0 6a d2 bd 25 af 9d 3c 8f 67 46 3d 77 92 e5 bd
       -0.10274243 0.019248554 0.048438605 -0.112095766
000250 92 ce c4 bc 40 c4 93 3d 96 44 0e 3d 58 10 6d 3d
       -0.024024282 0.07215166 0.034733377 0.057876915
000260 52 7f 38 bd fe 29 4e 3c bf 24 13 be eb 62 c6 3d
       -0.045043297 0.012583254 -0.14369486 0.09686836
000270 c6 96 8c 3d 69 71 0a be 72 27 ce 3c ea ff 45 bc
       0.06864695 -0.13519825 0.025165293 -0.01208494
000280 20 08 7e 3d 85 88 4d bd 9c ec e0 3c 5b fd f8 3d
       0.062019467 -0.050179023 0.027456574 0.12157699
000290 55 e2 53 be 47 f4 c3 bb b8 21 6d bd 2d bf 04 bb
       -0.20691808 -0.005980048 -0.057893485 -0.0020255551
0002a0 5f 2b b9 bd 6c e8 4f 3b e7 87 99 3c f7 cc 53 bd
       -0.090414755 0.0031724228 0.018741561 -0.05170914
0002b0 72 c4 d7 bc f2 8c 00 3d fb 58 d2 bd 3c b2 54 3d
       -0.02633879 0.031384416 -0.10270878 0.05192779
0002c0 36 15 ed bd 78 24 20 3e 7f 7a 03 bd 65 85 b2 3c
       -0.11576311 0.15638912 -0.032099243 0.021792123
0002d0 ea 33 2b bd 30 d8 0d be 81 b9 0e bb a7 a0 28 3d
       -0.041797556 -0.13852 -0.002177805 0.041168835
0002e0 db 4b e5 3d 6f 64 01 3e 08 87 2b 3b a5 d4 19 bd
       0.11196109 0.12635969 0.0026173014 -0.03755631
0002f0 d7 16 e6 3c 3c d6 46 bc 14 a8 32 3e e3 b3 8f 3d
       0.028087063 -0.012136038 0.17446929 0.070167325
000300 b7 7a 1a 3e fd 15 b5 be d5 27 eb 3d 93 4b 3a 3d
       0.15085874 -0.35368338 0.11482207 0.04548223
000310 bd a8 b1 3d 85 66 fb bd ca 72 3a 3e da 43 ea bd
       0.086747624 -0.122754134 0.18207851 -0.11438723
000320 2a a4 16 3d c6 ce c2 bd 1e 6a 5a 3e 22 da 03 3c
       0.036777653 -0.09512095 0.21329543 0.008047612
000330 08 0c b5 bd 87 58 0a 3d 81 cc 94 bc 14 50 38 bd
       -0.088401854 0.033775833 -0.018163921 -0.044998243
000340 64 1b e7 3d aa 47 9f 39 35 ee 0e 3e 4f 19 c6 bd
       0.11284521 0.00030380237 0.13958056 -0.09672796
000350 4d 8d 4c 3d 84 02 57 bd bd d7 64 bd e1 86 a3 3d
       0.049939442 -0.052492633 -0.055869807 0.079847105
000360 5f 53 8b 3d ff 9b 14 bd 5d d2 be 3c 1f 5a bb 3c
       0.06803011 -0.036281582 0.023293668 0.022870122
000370 e9 22 19 3e 7f 31 5a 3d 3d fb e7 bc 4f ac ed 3c
       0.14954723 0.05326986 -0.028318042 0.029012827
000380 5f 92 a3 3d a0 38 95 3b 30 24 29 3d c5 40 e9 bd
       0.079869024 0.0045538694 0.041294277 -0.11389307
000390 25 09 29 bd 52 62 22 be 7e da 43 3e 5c 69 ab 3c
       -0.041268487 -0.15857819 0.19126317 0.020924263
0003a0 c7 b1 28 3e a6 21 37 be 23 fd c5 bb c7 75 c0 3c
       0.16474067 -0.1788393 -0.006042139 0.02349366
0003b0 82 c2 59 3d d8 a5 1f 3e 25 d2 76 be 3c 82 09 bd
       0.053164013 0.15590608 -0.24103601 -0.033571467
0003c0 19 65 70 ba 52 2a 41 3d 91 7c 34 be 0a 3f 91 3d
       -0.0009170338 0.0471595 -0.17625643 0.07092102
0003d0 ed 3c 9b 3d 28 66 cc 3d df 79 89 bd 55 3a 77 3d
       0.0757998 0.09980422 -0.06712698 0.060358364
0003e0 8e ca 7b 3d 7f 46 f7 bc d9 56 8e bc c8 fc 94 3d
       0.061472468 -0.030184982 -0.017375397 0.07274777
0003f0 f6 b5 04 be e1 e9 75 3d ca 7d fa 3d 90 ff 22 bd
       -0.12960038 0.060037497 0.122310236 -0.039794505

conv3.bias f4 [32]
000000 a6 61 14 3d 44 93 a6 3c cb e6 47 39 97 48 db 3c
       0.036225937 0.020333894 0.00019064096 0.026768012
000010 b8 c0 83 3c a1 de 2a bd 32 16 be bb 38 0d 93 3c
       0.016083106 -0.04171622 -0.0058009857 0.01795064
000020 a6 96 8f bd 42 df a1 bb 92 37 35 3d c4 9a 6f 3b
       -0.07011156 -0.0049399445 0.04424245 0.0036560753
000030 ea 83 07 3d 2c 88 3a 3d b6 c2 38 bd 3e 38 70 bd
       0.033084787 0.04554002 -0.045107566 -0.058647387
000040 d5 2e d7 3d de 09 e6 bc 2f 31 f3 3c 7b ee f6 bc
       0.105069794 -0.028080877 0.029686539 -0.030143013
000050 22 67 94 3c 0f 3b 12 3d c2 56 5e bd 46 da f5 b9
       0.018115584 0.035700854 -0.054281957 -0.00046892668
000060 e9 c8 cd 3c 75 25 07 3c 06 ce 5b 3d fa c2 1e 3d
       0.025120215 0.008248677 0.053663276 0.038760163
000070 2c e3 03 3c 78 28 39 3d 31 0c ab 3c a6 76 93 3d
       0.008049767 0.04520461 0.020879837 0.07200365

conv4.weight f4 [32, 32, 3, 3]
000000 c4 b8 10 be d4 e2 49 bd 89 9f 5c 3d 67 88 14 3e
       -0.14132982 -0.049288586 0.053863082 0.14505158
000010 ba 94 fb 3c 04 1a 88 bd 19 30 93 bc 1e 6d 02 bd
       0.030710567 -0.06645587 -0.01796727 -0.031842344
000020 0a 8e ef 3c ac bc 3c bb 53 85 69 bd b2 fd d4 3b
       0.029242534 -0.002879898 -0.057011914 0.0064999694
000030 f0 67 de bc b6 29 83 3e d4 3f 38 bd c6 9e a4 3d
       -0.02714917 0.2561776 -0.044982746 0.08038096
000040 63 5e ec bd ec 9b a7 3c 5b b5 0b 3c 5b 41 fd bd
       -0.1154144 0.020460092 0.008527125 -0.12365981
000050 7f 7d d8 3c 55 81 f2 bc 8e ad 17 bd d1 73 d4 3d
       0.026427029 -0.029602686 -0.03703075 0.10373653
000060 16 44 e0 b9 02 0f a6 3d d2 f1 a2 3d 21 52 81 3d
       -0.00042775337 0.08108331 0.0795628 0.06314493
000070 92 81 8b bc 9c d2 5c 3c 45 e3 83 bd e9 87 07 bd
       -0.017029557 0.013477948 -0.064398326 -0.0330886
000080 ec 29 af 3a f2 7a 58 bd 27 c4 fd 3b 24 70 ab 3d
       0.0013363934 -0.052851625 0.0077443304 0.083709985
000090 d2 48 7c 3d 5c 4f 15 3c 3b 58 20 bb 4c de 43 3b
       0.061592884 0.009113159 -0.0024466652 0.0029887138
0000a0 37 99 99 3d ab 81 b3 3d a0 6c f4 bc 94 04 bf 3c
       0.074999265 0.087649666 -0.029836953 0.023317613
0000b0 47 7e 32 bd 65 a6 44 bc f4 0a 88 bd 4c 16 e9 bc
       -0.04357746 -0.012002562 -0.06642714 -0.028453015
0000c0 ca fd 13 bd b8 92 9d bd 89 ea 03 3e 1b 39 88 ba
       -0.036130704 -0.07694 0.12882437 -0.0010392995
0000d0 c9 63 40 bd ba cb c6 bd f7 e2 82 3d a4 45 43 3d
       -0.046970163 -0.097068265 0.06390946 0.047673836
0000e0 de 5f 9b 3c e6 bb 15 bd 3a d7 25 be 86 00 91 bc
       0.018966611 -0.036556147 -0.16195384 -0.017700445
0000f0 08 62 b7 bd 29 61 0e 3e 5f 6f 11 bd f1 17 d4 bc
       -0.08954245 0.13904251 -0.035506602 -0.025890322
000100 06 50 ab 3d 5c 6b 5e 3d d4 a4 ea bd 32 50 fd 3d
       0.08364873 0.054301605 -0.1145722 0.12368812
000110 07 be e3 3d c3 1e 42 bc e3 f5 02 be 3b 6c d2 bd
       0.11120229 -0.0118481545 -0.12789111 -0.102745496
000120 2c 88 57 bd 97 3b c6 b9 d0 f4 e4 bd 36 58 80 3c
       -0.052620098 -0.000378099 -0.11179507 0.015667062
000130 98 b3 b7 3b a9 0f 55 bb a7 4e f6 bb d1 80 24 3d
       0.005606126 -0.0032510555 -0.0075167003 0.04016191
000140 8d b1 e3 3d 3d 92 eb 3b e4 23 f3 bd e7 d4 1d bc
       0.111178495 0.007189064 -0.1187208 -0.009633279
000150 9e 26 42 bc 33 b2 19 be f4 50 91 3d 32 1b ac 3d
       -0.011850027 -0.15009384 0.07095519 0.084036246
000160 b0 31 4c bc c3 71 ee 3c 75 35 ed bc f4 67 d1 bd
       -0.012463018 0.02910698 -0.028956154 -0.102249056
000170 53 6d 05 bd 33 96 94 3d e6 25 a9 bd 34 d0 82 bb
       -0.032574963 0.07255211 -0.08259182 -0.003992105
000180 4b 29 26 3d 50 2e d2 3c 4d 02 0f bc 5d ae 0a 3d
       0.040566724 0.02565685 -0.008728576 0.033857692
000190 73 27 e4 bd c2 e2 43 bd 87 1e f5 bc a2 76 5e 3e
       -0.11140337 -0.047823675 -0.029921783 0.21724942
0001a0 2a ad 3d 3e a0 7e 8d bd e9 41 0f 3d 19 4c 92 bd
       0.18523088 -0.069089174 0.034974966 -0.07143421
0001b0 84 4e 2c bd 05 ee cb bc 12 19 83 3d 09 b7 ba bd
       -0.042067066 -0.02489377 0.06401266 -0.091169424
0001c0 11 7f 28 be 96 d0 c0 3c 95 42 c2 3d 65 94 62 3c
       -0.16454722 0.023536962 0.09485356 0.013829325
0001d0 c6 29 92 3d 8f 31 5d bd 31 d1 d8 bc 71 c3 aa 3d
       0.07136874 -0.05400234 -0.026466938 0.08338059
0001e0 3d 43 22 bd 49 97 dd 3b 1b 76 f4 bc fb e8 6c 3d
       -0.039614905 0.0067624194 -0.029841473 0.057839375
0001f0 e5 63 ec bc 89 0e c4 bc 0b df f7 3c e2 56 75 3d
       -0.028856227 -0.023932712 0.030257722 0.05989731
000200 b4 b7 ef bc 66 ab 28 be c5 ab 4d 3d a6 01 19 3e
       -0.029262401 -0.16471633 0.05021264 0.14942035
000210 fa 71 85 bd b5 3d 3f bd 48 68 26 3d 90 7f c6 3c
       -0.0651588 -0.046689708 0.040626794 0.024230748
000220 c2 25 6f 3c a6 02 d7 bd 17 e6 d7 3d c4 f9 a1 3d
       0.0145964045 -0.10498552 0.10541933 0.07908967
000230 62 2d ea 3d 14 cb 2e bd b8 51 84 bd bc 63 ad bd
       0.11434437 -0.04267414 -0.06460899 -0.084662884
000240 8e d1 50 bd 0c b3 cd 3b 53 ea 6e bd 1e d1 4a be
       -0.050981097 0.0062774476 -0.058328938 -0.19806334
000250 6d 4f 46 3d b7 8f be 3d b3 84 8e 3c 58 6e 8b bd
       0.04841559 0.09304755 0.01739726 -0.06808156
000260 a2 1e e6 3c 4d df a6 bd 7e 12 b5 bd b8 00 ff bc
       0.028090779 -0.0814806 -0.08841418 -0.031128272
000270 a9 7d 01 3e 57 e7 9b bd cf a4 ab 3c 85 46 0d 3c
       0.12645592 -0.07612484 0.02095261 0.00862277
000280 a4 e2 95 bb 2c cc ed 3d ed 8c 92 3d 06 59 6e 3d
       -0.004574137 0.11611208 0.07155786 0.058190368
000290 11 7e 33 3d 54 2e 8d 3c 0d c3 ea bd 3b c1 30 be
       0.0438214 0.017234005 -0.11462984 -0.17261212
0002a0 14 d3 55 bd e8 e6 ef 3d 12 14 e0 3d 7c 6c c1 3d
       -0.052203253 0.11713964 0.10941328 0.0944452
0002b0 08 5f 7e bd 9a 04 90 bd f0 e5 29 3d 82 d6 00 be
       -0.062102348 -0.07032128 0.04147905 -0.12581828
0002c0 3e 79 28 be d0 7b 4c 3d 1b 31 98 bb 43 10 49 3d
       -0.164525 0.049922764 -0.0046445257 0.049087774
0002d0 d7 00 3d 3d 4b 05 a4 3d 02 05 31 bd 9c 2e 27 3c
       0.04614338 0.08008822 -0.043217666 0.010203984
0002e0 28 8a 24 bc 9d 14 0d 3d 4f 06 c3 ba 45 a0 4c bd
       -0.010042705 0.034443486 -0.00148792 -0.049957532
0002f0 90 a1 4e 3d b3 0c 82 ba da a6 ee 3d 41 99 ad 3d
       0.050447047 -0.0009921998 0.11652918 0.084764965
000300 d8 a7 0c 3e 53 12 94 3d ab ec b0 bd 11 ad 2b 3b
       0.13735902 0.072300576 -0.08638891 0.0026195685
000310 63 3c 8a 3c 2f ad ca bd 4b 98 bc 3c 38 69 c7 3d
       0.016874498 -0.098963134 0.023021838 0.09736866
000320 4a 20 80 bd 9e 17 7d 3d af 83 09 3d 5b 4d 59 bd
       -0.06256159 0.0617901 0.03357285 -0.053052288
000330 7e ae ec 3c ee 76 d3 3c f3 dd 63 bd cd 17 fc bd
       0.028891798 0.025813546 -0.05563159 -0.12309227
000340 c1 eb fb 3d ba 91 67 bd 36 0a 82 3d b2 99 65 be
       0.12300826 -0.05653546 0.06349604 -0.22421911
000350 91 2d 07 3e 88 1f c2 3b c8 cd 00 bd 43 a6 20 3d
       0.13200976 0.005924169 -0.03144625 0.03922106
000360 67 8d c0 bb cd 95 8d 3d bd 8e 9d bd 07 c5 00 be
       -0.0058762315 0.06913338 -0.07693241 -0.1257516
000370 00 94 d6 3d c5 f1 31 3e 4b fd e8 3d 14 e0 b1 bd
       0.104774475 0.17377384 0.11376437 -0.08685318
000380 87 2c c1 bc 46 20 c4 bc 62 ae 81 3d 6f 8a 36 bd
       -0.023580803 -0.02394117 0.06332089 -0.044565614
000390 67 f3 88 bd 74 1e 50 3e 03 b5 3a 3e 0e f2 cc 3c
       -0.0668705 0.20324117 0.18233113 0.025017764
0003a0 05 4e 61 bd 07 b6 a9 bd bb fb a6 bd 4a 6b 11 be
       -0.055006046 -0.08286672 -0.081534825 -0.14201084
0003b0 fb e0 8c 3c 44 d4 d8 bc 18 86 a0 bc cc cf 09 bd
       0.017197123 -0.026468404 -0.01959519 -0.033645436
0003c0 3a 6b ff bc eb 4b 04 3d 40 f3 81 ba 05 ea 9f bd
       -0.03117906 0.032298964 -0.0009914413 -0.078083076
0003d0 36 b9 9b 3d 5a b3 40 3c 2e e0 d8 bd e2 40 52 3d
       0.076036856 0.011761511 -0.10589634 0.05133141
0003e0 37 27 64 3a 9a 8f 2d 3c 47 d9 1d 3e 37 9b f8 3c
       0.0008703353 0.010593319 0.15414916 0.03034745
0003f0 3a 1c 06 3e bd a7 57 be cb 5b c2 bb 3c 9e fa 3b
       0.13096705 -0.21060081 -0.0059313527 0.0076482575

conv4.bias f4 [32]
000000 75 9a e7 3c 67 9f af 3b ec b6 3e bc 90 82 20 3d
       0.028271893 0.0053595784 -0.011640292 0.039187014
000010 af e3 bb 3c 9f db c9 3c e1 4f e8 3b b6 90 b9 bc
       0.022935716 0.024640856 0.0070896004 -0.022652011
000020 55 a6 67 3c ce 55 02 3d 68 34 62 bd 0d 67 a1 3c
       0.014138778 0.03182011 -0.05522576 0.019702459
000030 1f 51 2d bd 09 a3 8b 3c df 42 b7 bb 93 d8 e7 3b
       -0.04231369 0.017045515 -0.0055926885 0.007075378
000040 31 58 14 3c 38 df 32 3d a7 86 2a 3d f8 cb 1a bd
       0.00905423 0.04366991 0.04163232 -0.037792176
000050 01 44 c9 bc d7 e5 68 3d 2b ef 4b bc 78 f0 13 bc
       -0.02456856 0.056859817 -0.012447159 -0.0090295
000060 4a 9b ce 3c ec a9 13 3d 19 79 c6 3b 0e 12 27 bd
       0.025220532 0.036050722 0.0060569164 -0.040788703
000070 80 61 12 3a a3 1d 1d 3c df 56 cf 3a 6d a3 ae 3c
       0.00055839866 0.0095895855 0.0015818736 0.021318162

linear.weight f4 [256, 800]
000000 d2 6f 94 3c c4 8f 4c 3d 7a ab bb 3c cc 5f 3d 3d
       0.018119726 0.049941793 0.022908915 0.046233937
000010 9b dd 61 bc d0 b3 40 3c 16 2f b4 3c d3 9e 6a bd
       -0.013785745 0.011761621 0.021995109 -0.057280373
000020 ad 82 61 3d 9b f0 ab 3c b7 51 21 3d 3c 9b 3f bd
       0.055056263 0.020988753 0.03938457 -0.046778902
000030 f4 b6 c9 3b d1 98 81 3c b3 77 10 bd 1f c4 0e 3d
       0.006155843 0.015819939 -0.035270404 0.034855004
000040 83 e4 5a 3c 00 ca da bd 4f 5d c3 bc 66 1b 81 3c
       0.0133601455 -0.1068306 -0.023848204 0.015760135
000050 db dd 35 bd 06 40 f4 3c 3f b7 12 bc 61 a3 86 bb
       -0.04440103 0.029815685 -0.008954822 -0.0041088318
000060 e3 e3 49 3d 9d 28 d7 bc 80 da 1a 3a 00 a4 09 bc
       0.049289595 -0.026264483 0.0005907193 -0.008400917
000070 43 e5 f6 3c ea 1f ae ba 42 bd af bc 67 1d 5c bc
       0.030138617 -0.0013284658 -0.02145255 -0.013434744
000080 9b dd c7 3c 4c a8 07 bd bd 60 99 3c 60 34 62 3d
       0.024397662 -0.033119485 0.018722886 0.05522573
000090 ff d8 47 bc 94 70 62 bc 1c c9 b6 3c 96 37 16 3d
       -0.012197732 -0.013820786 0.022312693 0.036674105
0000a0 06 5d 59 bd 19 5c 53 bd 0b 37 94 bc 5c c5 0b 3d
       -0.05306723 -0.051601503 -0.018092653 0.034123763
0000b0 5e 42 64 bd f8 73 8b bc 83 e2 a1 bc 48 e1 93 3c
       -0.055727355 -0.017023072 -0.01976133 0.018051758
0000c0 30 91 75 3b 1e ba a5 3c 5b 16 35 3c 63 37 12 3c
       0.0037470572 0.02023035 0.011052693 0.008924338
0000d0 3f 14 f2 3b 0c c1 00 3d ee 33 1d bc 31 db ee bb
       0.0073876674 0.031434104 -0.0095949005 -0.0072893132
0000e0 0a 32 21 bd 75 bd 17 3d e4 0f 65 bc 13 88 5c bd
       -0.03935436 0.037045915 -0.013980839 -0.053840708
0000f0 a4 02 71 3b 04 5f 84 bd 0c ec 4b 3d 3b 07 fe bc
       0.0036775256 -0.06463435 0.04978566 -0.031009307
000100 8a 9c 81 bd bc 2f 2d bd 26 df 79 bd 5e 7c 02 bd
       -0.063286856 -0.04228185 -0.061003827 -0.031856887
000110 3b ec be 3c 00 aa bc 3c a3 33 51 3b 56 98 94 3b
       0.023306003 0.023030281 0.0031921647 0.0045347614
000120 7d c2 3f bc d4 b8 15 3a 8c dc 9f 3c cc 43 3a bc
       -0.011704084 0.00057114405 0.019514345 -0.011368703
000130 c4 41 4a 3d c4 ab 2b 3d 08 10 84 3c 0d a2 3f bd
       0.049379125 0.041911855 0.016120926 -0.046785403
000140 d1 a7 18 3d ee f9 ca 3c db 58 a8 bc e7 dc 43 bd
       0.037269417 0.024777379 -0.020550182 -0.04781809
000150 00 14 24 bc 60 fa 0b 3d cc 56 1c bd 2b 32 a0 3c
       -0.010014534 0.034174323 -0.038168713 0.019555172
000160 75 d8 1a 3d 46 54 e5 bc 34 69 e8 bc f8 11 32 3c
       0.037804086 -0.027994286 -0.028370477 0.010868542
000170 96 89 95 3c 02 ea 36 bb 49 90 04 bd 51 7d 51 3c
       0.018254083 -0.0027910476 -0.032364164 0.012786225
000180 63 9e 64 3d 8a 5b a5 3c 72 1c 90 bc c4 89 80 bb
       0.05581511 0.02018525 -0.017591689 -0.003922673
000190 ed a1 d0 bb 63 a6 7d bc 70 dd 64 3a ca ae fe 3c
       -0.0063669593 -0.015481564 0.00087305065 0.031089205
0001a0 8a 03 57 3c 62 1c 95 bb 0f a3 b5 3c 65 76 2e bd
       0.013123402 -0.0045505026 0.022172479 -0.04259338
0001b0 41 76 cb 3c 48 bf 06 3d 89 9e f0 bc f7 bb be bc
       0.024836661 0.032897264 -0.02937247 -0.023282988
0001c0 95 1b 2c 3c c8 d4 52 bd 95 a8 c5 3c 7b 3c 43 3d
       0.010504623 -0.051472455 0.024128238 0.0476651
0001d0 3d a1 42 3d e1 3d ff 3d b9 fe fb bc 81 07 9e 3d
       0.04751705 0.12462974 -0.03076111 0.07716275
0001e0 30 a5 a0 bc 95 12 a6 bd 37 3d 68 3d b8 fa 7a 3b
       -0.019610018 -0.08109013 0.056699004 0.0038296413
0001f0 96 c8 b6 bd 01 bc 43 3c 0c 6b 96 bc 30 92 22 bd
       -0.089249775 0.011946679 -0.01836159 -0.039690197
000200 fd 6e 69 bd 39 af 0b bd 3b 44 80 3c c1 a6 29 3a
       -0.056990612 -0.034102652 0.015657535 0.00064716866
000210 20 81 58 bb 68 6c 45 bd dc c3 84 3d 20 8c 00 3d
       -0.003303595 -0.048199087 0.0648267 0.031383634
000220 64 8b 46 bc 11 09 84 bd 83 0e 13 3d 5c b3 22 bc
       -0.012118194 -0.06447042 0.03590251 -0.009930458
000230 c4 e1 a7 bc b8 2c 81 3d 49 e3 09 3c 30 85 4e bd
       -0.020493396 0.063073575 0.008416005 -0.050419986
000240 c9 bf 52 3d 45 b8 cb 3d 5f b8 7f 3d e5 22 1f 3b
       0.05145243 0.09947256 0.06243169 0.0024282273
000250 44 c1 d3 bc 50 c2 98 3c 6b 91 4d 3c 3d b1 cb 3c
       -0.025848992 0.018647343 0.012546877 0.024864787
000260 c0 b1 10 bd f5 00 39 3c 10 9b 6c bd 04 00 04 bd
       -0.035325766 0.011291732 -0.057765067 -0.032226577
000270 ab fc b3 bc b2 49 8d bd 90 4a 68 bd 0d 6d ca ba
       -0.021971067 -0.06898822 -0.056711733 -0.0015443877
000280 b0 ff 63 bd 65 69 1e bd 93 19 18 3c 6a 5d c3 bd
       -0.055663764 -0.03867473 0.009283441 -0.09539302
000290 72 1f 09 bd 10 e5 e6 3c dd 41 1c 3c b1 77 59 3d
       -0.033477254 0.028185397 0.009537187 0.053092662
0002a0 52 b0 fe bb 68 e7 06 bd 73 a3 58 3d 0c cf 7f 3d
       -0.007772484 -0.03293553 0.052890252 0.062453315
0002b0 0a 66 57 3c 3e e7 d3 bd 21 43 05 bd 15 ec 5c 3d
       0.013146887 -0.1034684 -0.032534722 0.053936083
0002c0 53 d9 b0 bc de 95 c6 3b 4e aa 9f 3c cb 39 b7 bb
       -0.021588003 0.006060346 0.019490387 -0.0055916063
0002d0 ec 85 6b bc 28 b4 dd 3c 81 ee cd 3c b6 07 36 bd
       -0.014375191 0.027063444 0.025138142 -0.044440947
0002e0 23 35 a1 3c 58 13 da bb 92 c1 9a 3c a8 d6 0b 3d
       0.019678658 -0.006655138 0.01889113 0.03414026
0002f0 37 64 db 3c d8 71 71 3a 9c fa 50 bd d2 bc 56 3c
       0.026781185 0.00092103845 -0.05102025 0.013106542
000300 6c ab 66 3d 04 c1 91 3c 4a 86 2d bd b4 df 5f 3d
       0.056315824 0.017792232 -0.042364396 0.0546567
000310 01 40 f3 3b eb dd dd bb 54 c6 f9 3d 2d de 2b bd
       0.0074234013 -0.0067708394 0.12196031 -0.04195993
000320 53 b0 b7 3c 94 0d c8 3c 19 d7 06 3d 6d b3 2c 3b
       0.022422945 0.024420537 0.032919977 0.0026352063
000330 11 40 3f bc 55 e4 1c 3d 49 f3 4d bd 45 29 14 3d
       -0.011672989 0.038303692 -0.050280843 0.03617217
000340 8d a0 35 bd ce 39 00 3d ce 65 9d 3d f2 e9 54 bd
       -0.044342566 0.031305127 0.07685433 -0.05198092
000350 82 99 13 bd d9 30 d2 bc 7f c9 79 bc 68 a4 18 bd
       -0.03603507 -0.025658058 -0.015245794 -0.037266165
000360 de 11 ff ba f9 34 3a bd b9 cf 43 3b 61 d6 1c bc
       -0.0019460281 -0.045460675 0.002987845 -0.009572596
000370 33 45 10 bc d2 95 38 bd af 31 bb 3c 59 71 3d bd
       -0.008805561 -0.045064755 0.02285084 -0.046250675
000380 2f 7e 20 3d 35 f0 77 3c 5d 62 82 3c ad f2 06 3d
       0.039182838 0.015132953 0.015916044 0.032946277
000390 ee ba 46 3c 39 bb 38 3b a0 3e 3b bd b7 b1 c4 3b
       0.012129528 0.0028187765 -0.04571402 0.0060026306
0003a0 14 16 11 bd b2 af 9e bc f3 78 6c bb eb 97 d1 bc
       -0.035421446 -0.019370887 -0.0036082834 -0.025585135
0003b0 96 1b ed bc 0b 79 be bb ca 69 bd 3b 87 89 63 bd
       -0.028943818 -0.0058127693 0.0057804333 -0.05555108
0003c0 e0 39 5e 3d 47 11 00 3a 21 51 9b 3d 5f 23 a2 bc
       0.054254413 0.0004885387 0.075838335 -0.019792257
0003d0 93 b6 f8 bb f2 7d 61 3b 52 cc 52 3c 1e 20 e4 bc
       -0.007590124 0.0034407345 0.012866097 -0.027847346
0003e0 04 18 ac 3d da 58 c5 3d c6 94 95 bc 49 75 d9 ba
       0.08403018 0.09636088 -0.018259417 -0.001659074
0003f0 b7 5c 9c 3b a7 b6 9c 3b 4e 18 38 3d e1 61 fb bb
       0.0047717947 0.004782516 0.044945054 -0.00767158

linear.bias f4 [256]
000000 1f 1d ca bc 7a 35 57 3d d1 4f 56 be 74 83 a2 bb
       -0.02467209 0.052541234 -0.20928885 -0.004959518
000010 59 2a 45 3a f8 ea 84 bc da 3d 8d 3b ca 8a 38 be
       0.0007521264 -0.016225323 0.004310352 -0.18021694
000020 7f 36 82 bc 9a a6 02 bb ab c9 32 3c f8 22 66 bd
       -0.015895126 -0.0019935728 0.010912339 -0.056185693
000030 54 70 18 3c f0 50 ba 3c 55 18 48 3d 1e 61 6c bc
       0.009304125 0.022743672 0.04885133 -0.014427451
000040 b8 54 42 bc a0 cb 9c bc 1e 18 13 bc e1 e6 41 bc
       -0.011861019 -0.019140065 -0.008977918 -0.011834831
000050 98 95 2e bc 70 75 d7 3c 3d 6e f5 bc 15 b6 f0 3b
       -0.010655783 0.026301116 -0.029959792 0.0073459246
000060 92 ed a1 bc 0c 3d a4 bd 23 6e 54 bc ab e1 3f bc
       -0.019766603 -0.08019456 -0.012965712 -0.011711518
000070 e5 f9 88 bc 72 0f 4c bb 03 77 ce 3b 20 67 c8 bc
       -0.016720721 -0.0031137136 0.0063008084 -0.024463236
000080 ff af f1 3a 85 01 97 3c d7 06 07 ba ea fa 84 3d
       0.0018439292 0.018433342 -0.00051508605 0.064931706
000090 bb 4b d1 bb c1 b7 ba 3b 7c b7 ee 3b 37 48 0e bc
       -0.0063872016 0.0056981747 0.0072850566 -0.00868421
0000a0 d4 91 e1 bc 94 05 7d bc af ec 89 3b 8a 74 03 3c
       -0.027535357 -0.015443224 0.004209123 0.008023391
0000b0 f2 a7 09 bc 5a d4 8b bc 2b f2 61 b9 51 9b c1 ba
       -0.008401858 -0.01706903 -0.00021547887 -0.0014771019
0000c0 cc 41 38 bb fc 0e a9 bc 9f 27 87 bc a9 3e 30 3d
       -0.002811539 -0.020637028 -0.016498385 0.043028507
0000d0 16 73 9a bc c3 a2 6a bc 14 d9 fa bc 27 9e cd ba
       -0.018853705 -0.014321032 -0.030621089 -0.0015687392
0000e0 18 9e 84 bb f4 1d 41 3d bd e3 5b bc 50 c6 f0 3b
       -0.0040471666 0.047147706 -0.013420996 0.0073478594
0000f0 3e 87 2e 3d a2 33 a7 bb 75 d3 4d 3c 47 be 0a bc
       0.042609446 -0.0051025907 0.012562622 -0.008468217
000100 b6 d9 47 bd 16 f0 d3 3c da 3a e5 bc e1 94 59 3d
       -0.04879161 0.025871318 -0.027982164 0.053120498
000110 19 b5 84 3b 8a ea 3a be 1b fc 13 be 5f 79 47 3c
       0.004049909 -0.18253532 -0.1445164 0.012174933
000120 72 01 fa 3c 26 6a 28 bc b0 98 d0 bc 83 47 91 ba
       0.030518267 -0.010279214 -0.025463432 -0.0011083934
000130 eb 62 82 bc a1 6d 7d bb 88 a3 70 3b 40 f8 07 bd
       -0.015916308 -0.003867008 0.0036718566 -0.033195734
000140 d8 81 ca bd 59 86 c8 bb 8c 58 8c 3c eb b5 8f bc
       -0.09888047 -0.006119531 0.017132066 -0.0175428
000150 5d ce 95 bb 93 d3 b4 bb a5 b1 48 bc 34 58 5d bb
       -0.0045717196 -0.0055183857 -0.012249385 -0.0033774497
000160 24 70 87 bd 15 35 3c bd 0e ec 23 3c d7 c8 b5 3b
       -0.06613186 -0.04594906 0.01000501 0.0055476236
000170 80 db 39 3c 14 bf b6 bc 15 d9 8c 3d 34 70 cd bc
       0.011343837 -0.02230791 0.068773426 -0.025077917
000180 d5 9b ad bc a1 25 c7 bc c7 33 fa ba d6 e3 88 3c
       -0.02119247 -0.024309935 -0.0019088917 0.016710203
000190 6e 85 f1 3b 1b 3d bc 3b 3e 2b 9c bb 65 89 d9 3b
       0.0073706424 0.005744589 -0.004765897 0.006638693
0001a0 f8 62 45 be ce 1d e0 3a ed 7b bd 3b e2 d2 55 b7
       -0.19276035 0.0017098726 0.0057825954 -1.2744889e-05
0001b0 8a 49 48 be 8c f6 9f 3d 63 d4 f6 ba 83 1a 1d 3b
       -0.19559303 0.07810697 -0.0018831607 0.00239721
0001c0 c8 8c 4b 3c 03 c8 c0 bc 06 2a 5b bb 1c 1c 91 3c
       0.012423702 -0.023532873 -0.0033441796 0.017713599
0001d0 69 3d b2 bc 13 3c 15 be f3 12 85 bc 9a 13 11 3c
       -0.021757798 -0.14573698 -0.016244387 0.008854771
0001e0 62 0a c6 bc ff a1 d9 3b 07 49 31 bb be dd 4b 39
       -0.024174873 0.006641626 -0.0027051584 0.00019442194
0001f0 c9 75 0a 3c 8d de f6 bb e6 62 fb bb 90 99 24 bc
       0.008450934 -0.0075338543 -0.0076717017 -0.010046378
000200 aa fb 50 3d ef 03 8b bb 50 35 cd 3b c5 7e 0a be
       0.051021256 -0.0042424123 0.006262459 -0.13524921
000210 07 ac a3 3c 5b e8 33 3c 67 3e 70 3d 55 57 ec bc
       0.01997949 0.010980691 0.05865326 -0.028850237
000220 66 12 e6 3b 01 15 6d 3d d0 7e e0 3b 5b 86 9a 3b
       0.0070212362 0.05788136 0.0068510547 0.0047157235
000230 b1 8e 5b 3b 18 11 9a bb f4 09 4f bb f4 75 95 3c
       0.0033501799 -0.0047017448 -0.0031591626 0.018244721
000240 71 e7 83 bb bb 8f 2e 3a d9 84 40 be 19 14 a6 bc
       -0.0040253927 0.0006658991 -0.18800677 -0.020273255
000250 83 65 c7 bb b5 c1 57 bd f9 95 aa 3b 8b 91 08 3d
       -0.006085099 -0.052674968 0.0052058664 0.033341926
000260 fd 93 89 bb 79 0d ad 3c 79 f9 8b 3c 5f a1 3d 3d
       -0.00419855 0.021124588 0.017086731 0.046296474
000270 f4 5a c4 ba 1f ef 1a be 27 6a d8 bd 22 94 aa bc
       -0.001498072 -0.1513028 -0.10567122 -0.020822588
000280 89 cf c9 3b 63 2a 05 3c f3 34 4b be 7c 72 95 bb
       0.0061587733 0.008127782 -0.19844417 -0.0045607667
000290 d9 a9 bf bb 7d 36 18 bc 9b 10 81 bc 49 02 4b bc
       -0.005849105 -0.009290335 -0.015754988 -0.012390682
0002a0 bd 48 8c 3d 64 3a 19 bd d9 fa 9f 3c b0 6d 11 bc
       0.06849811 -0.0374092 0.019528793 -0.008876249
0002b0 68 1b 9b 3d 3c ee 8e bc 14 7b 52 be d7 31 56 b9
       0.07573587 -0.017447583 -0.20554763 -0.00020427197
0002c0 d6 bb 86 3a 6c a2 7f 3b 24 02 2e bb 28 14 61 bd
       0.0010279368 0.0039006723 -0.002655157 -0.054950863
0002d0 d4 7a 80 3c 3b 6f 14 3c 28 91 5b bb 51 34 89 bb
       0.015683569 0.009059723 -0.0033503268 -0.004187145
0002e0 1a 1b 1b 3c 87 9e 08 3c c9 cd 63 3c 4a 90 15 3c
       0.009466911 0.008338577 0.0139040435 0.0091286395
0002f0 48 3f eb bb 52 48 78 3d 96 ed bb bb 29 60 ac bc
       -0.0071791746 0.060615845 -0.0057351096 -0.021041946
000300 94 d6 bd 38 2f 6b 9c b8 a8 20 e9 3a c9 68 87 3a
       9.0521906e-05 -7.458624e-05 0.0017786222 0.0010330911
000310 0a aa 39 38 49 27 51 3d 52 ab 29 bc 13 13 c5 3a
       4.42658e-05 0.051062856 -0.010355787 0.0015035592
000320 71 19 0e bb 5c 5b a6 37 72 13 5d bc 8a cb fa bb
       -0.0021682645 1.9831285e-05 -0.013493406 -0.0076536583
000330 c9 0d 87 bd ec fc 08 3c 25 3c cb bb 9e e4 66 bc
       -0.06594426 0.0083610825 -0.006202238 -0.0140925925
000340 3b e1 6c 3d a2 af a2 3b e3 7a c3 3c 47 32 1f be
       0.057831984 0.0049647847 0.023862308 -0.15546523
000350 03 6f ea bc 8d 71 77 3d c7 6c 86 bc 6d 8c f5 bb
       -0.028617388 0.060411025 -0.016409291 -0.0074935467
000360 49 0a b3 bc 16 0b 8a 3a 34 96 5b 3c b9 47 1e bb
       -0.02185549 0.0010531868 0.01340251 -0.0024151637
000370 7d f2 a8 3b 66 30 3d bc 2e 3e 9f bc f0 87 7c ba
       0.00515586 -0.011547184 -0.01943883 -0.00096332934
000380 4e d9 1f 3a 0e b1 7d bc 4d 92 37 3d 42 5e 4b be
       0.00060977496 -0.015484108 0.044817258 -0.19860175
000390 14 c8 58 3b 60 d2 bb bb 0f 8e 75 bc 09 f0 86 ba
       0.003307824 -0.0057318658 -0.014987483 -0.0010294925
0003a0 72 e6 21 bb 8d 09 15 be 7c af f6 bb 11 00 0b 3c
       -0.0024704007 -0.14554425 -0.0075282436 0.008483903
0003b0 f9 65 4b 3c c3 83 dd bc f6 9c a4 3c ca b0 2a 3c
       0.012414449 -0.027040368 0.020094376 0.010418126
0003c0 18 61 71 3d 41 87 70 3d 03 e2 97 3c 3d 93 43 3d
       0.058930486 0.05872274 0.018540388 0.04774784
0003d0 c6 71 94 b9 6a 37 b0 bc 76 d7 7f bc 07 02 9c 39
       -0.00028313528 -0.021510798 -0.015615335 0.0002975615
0003e0 f8 72 83 bc 89 c5 57 bc 19 6b 58 3d 95 a1 8e bc
       -0.016046032 -0.013169655 0.05283651 -0.017411033
0003f0 92 78 a9 ba 2f 2c 3c 3d 78 dc 53 be a3 b5 16 bd
       -0.001292961 0.045940574 -0.20689571 -0.036794316
