21-A3C-Pong/runs/BreakoutNoFrameskip-v4/2022-11-03_16-23_Second80MSteps_OK/model_sam_BreakoutDeterministic-v4_conv.44.tar (torch, 944955 bytes, 13 tensors)

conv1.weight f4 [32, 4, 3, 3]
0.16779809 -0.48291877 -0.1909053 0.15544073 -0.19214787 0.2820345 0.12604147 0.19860017
0.2164026 0.0715592 0.008757519 -0.021110483 0.16411462 -0.110427245 0.06501023 0.08352107
0.09782785 0.2424574 0.13846786 0.17095254 0.17947881 -0.28338447 -0.018763002 0.16756725
-0.02943556 -0.15616558 0.042668283 -0.014131412 -0.25436428 0.15654746 -0.25641248 -0.13694248
0.17321716 -0.23296043 -0.47454488 -0.18883413 0.18402202 -0.06377968 -0.097792156 0.017371625
0.49341518 -0.29014948 0.35768652 0.3650526 -0.4237933 0.1087229 0.13603082 -0.06963062
0.030980889 0.46298844 -0.3441985 0.04730419 0.44985417 -0.25565645 0.1278482 0.20229797
-0.09230622 -0.18520318 0.46736732 -0.026173867 -0.21544601 0.34208342 -0.026780332 0.008219691
-0.26526657 -0.15328555 -0.27304158 -0.069160126 -0.26151788 -0.2690087 -0.08865155 -0.18439807
0.100044504 0.063079596 -0.026801169 0.11549328 0.038975924 -0.10420252 -0.12236689 0.21142383
-0.077346146 0.1508678 0.037645653 -0.20357955 0.42390376 -0.23314787 -0.56274676 0.099004455
-0.046138793 -0.0031354497 0.25886017 -0.2138953 -0.14858899 0.49775538 -0.23601562 -0.50048274
0.12603506 0.08526619 -0.21917681 0.12626457 0.11252617 -0.18058047 0.29954222 0.1421716
-0.23593579 -0.117667764 0.2592202 -0.05281868 0.36210626 0.16511999 0.19187348 0.32771522
0.55696154 0.039168667 0.16858272 0.4047412 0.147681 0.098513104 -0.18596421 -0.02526375
-0.05249511 0.25049418 0.3255542 -0.07476507 0.20135395 0.00563001 -0.29252136 -0.36281678
0.12364255 -0.08730894 -0.3135949 -0.07136878 0.034602307 -0.0020297514 -0.005580123 0.009888711
-0.16295068 0.0042045778 -0.34622484 -0.46657583 -0.261225 -0.17525308 -0.3802128 -0.17851476
0.053036235 -0.08821935 -0.016762549 0.1667407 0.42750084 0.2572804 -0.032449037 0.2063687
0.15559483 -0.12410443 -0.60683125 -0.3397562 -0.41580963 -0.41951537 -0.35211134 -0.15553789
-0.2731834 -0.031944826 0.14959505 0.18185116 -0.00623827 -0.19080067 -0.28002942 -0.12606059
-0.13591982 -0.2994217 -0.10640039 0.21218638 0.35225335 0.12167869 0.17140944 0.53942275
0.2960835 0.18379956 0.035953123 0.26801533 -0.06247685 -0.2136196 -0.2077673 -0.37554875
-0.38874605 0.058587838 -0.46396065 -0.36806476 -0.048043482 0.07564929 0.10450595 -0.06789366
-0.033261027 0.14797933 0.13807061 -0.2130584 -0.05072143 0.0663556 0.29632372 -0.1581687
-0.077099584 0.09525169 0.35853764 0.06570036 0.24088545 0.11179125 -0.014888753 0.116806194
0.09803275 0.010162905 0.013881179 0.1691032 -0.14565825 0.19744097 0.29573348 0.23261715
0.1698573 -0.025040075 0.025047438 0.2023597 -0.059633143 -0.038704995 -0.14466043 -0.016822424
-0.059551 0.0685693 0.39080203 0.24691987 0.47144338 0.7600888 0.013309476 -0.12628855
0.2915189 -0.14574102 -0.23666336 -0.016769717 -0.23754309 0.2181222 0.3710689 -0.4260927
-0.1454576 0.19965202 -0.032458395 -0.23592114 -0.26892504 -0.12830132 -0.41032258 -0.4345361
-0.37983474 0.07396153 0.06713308 -0.07425772 0.1102593 0.17348152 0.25993308 0.003910489
00000000: 43d3 2b3e 2141 f7be ae7c 43be db2b 1f3e
00000010: 69c2 44be d366 903e 0411 013e d85d 4b3e
00000020: a598 5d3e a18d 923d b27b 0f3c e4ef acbc
00000030: aa0d 283e ae27 e2bd 1524 853d 180d ab3d
00000040: f859 c83d c146 783e 85ca 0d3e 2f0e 2f3e
00000050: 4bc9 373e c517 91be deb4 99bc c096 2b3e
00000060: d822 f1bc dfe9 1fbe f0c4 2e3d 7087 67bc
00000070: 093c 82be fa4d 203e 7f48 83be a63a 0cbe
00000080: d75f 313e 2e8d 6ebe 8cf7 f2be bc5d 41be
00000090: 4570 3c3e ec9e 82bd 4147 c8bd f04e 8e3c
000000a0: eaa0 fc3e 798e 94be b022 b73e 2de8 ba3e
000000b0: 6ffb d8be 1daa de3d aa4b 0b3e 809a 8ebd
000000c0: a2cb fd3c d20c ed3e c93a b0be 0ac2 413d
000000d0: 4953 e63e 67e5 82be a3ea 023e 3327 4f3e
000000e0: 0b0b bdbd e7a5 3dbe c54a ef3e 946a d6bc
000000f0: e19d 5cbe 8f25 af3e 6d62 dbbc e2ab 063c
00000100: 05d1 87be e3f6 1cbe 1bcc 8bbe d3a3 8dbd
00000110: ace5 85be 82bb 89be f28e b5bd d9d2 3cbe
00000120: 22e4 cc3d e02f 813d 208e dbbc be87 ec3d
00000130: 38a5 1f3d 2168 d5bd 7e9b fabd 7d7f 583e
00000140: a867 9ebd 177d 1a3e 5432 1a3d 2877 50be
00000150: ea09 d93e 51be 6ebe 2c10 10bf d9c2 ca3d
00000160: 08fc 3cbd 1e7c 4dbb 5289 843e 5f07 5bbe
00000170: b627 18be cbd9 fe3e 14ae 71be a31f 00bf
00000180: 560f 013e 0aa0 ae3d e36f 60be 804b 013e
00000190: 1f74 e63d 16ea 38be 995d 993e 6f95 113e
000001a0: 2799 71be ccfb f0bd 83b8 843e 6658 58bd
000001b0: fe65 b93e 3715 293e 7b7a 443e 4aca a73e
000001c0: 0895 0e3f 536f 203d f3a0 2c3e 3d3a cf3e
000001d0: b039 173e 3dc1 c93d 676d 3ebe edf5 cebc
000001e0: 1d05 57bd c640 803e 0aaf a63e 6e1e 99bd
000001f0: bb2f 4e3e f27b b83b 5cc5 95be 1fc3 b9be
00000200: 4e38 fd3d 08cf b2bd 838f a0be cc29 92bd
00000210: 26bb 0d3d 9405 05bb 77d9 b6bb 4304 223c
00000220: 8bdc 26be 8ec6 893b 6244 b1be 07e3 eebe
00000230: 48bf 85be 8b75 33be 41ab c2be 93cc 36be
00000240: 863c 593d 59ac b4bd 9d51 89bc 13be 2a3e
00000250: 64e1 da3e 42ba 833e 48e9 04bd 5152 533e
00000260: 4054 1f3e 772a febd 4b59 1bbf 86f4 adbe
00000270: 00e5 d4be b8ca d6be f047 b4be 5345 1fbe
00000280: b2de 8bbe 94d8 02bd 722f 193e 3137 3a3e
00000290: 676a ccbb 4061 43be 0460 8fbe 0716 01be
000002a0: 912e 0bbe cd4d 99be 73e8 d9bd 6347 593e
000002b0: 8d5a b43e ad32 f93d f585 2f3e 9c17 0a3f
000002c0: 4298 973e f435 3c3e 9543 133d 4e39 893e
000002d0: bae7 7fbd 19bf 5abe f3c0 54be ed47 c0be
000002e0: b909 c7be cdf9 6f3d 408c edbe fc72 bcbe
000002f0: 3ec9 44bd 04ee 9a3d 3707 d63d d50b 8bbd
00000300: b73c 08bd e587 173e 6262 0d3e fb2b 5abe
00000310: 46c1 4fbd 72e5 873d beb7 973e faf6 21be
00000320: 63e6 9dbd 5113 c33d 3f92 b73e e98d 863d
00000330: adaa 763e d0f2 e43d f5ef 73bc 1638 ef3d
00000340: 65c5 c83d 5082 263c e26d 633c 6429 2d3e
00000350: 7027 15be f72d 4a3e 616a 973e 3133 6e3e
00000360: 12ef 2d3e d820 cdbc 4930 cd3c 6237 4f3e
00000370: e241 74bd 2189 1ebd dd21 14be 2ecf 89bc
00000380: c0eb 73bd 106e 8c3d 3417 c83e 90d8 7c3e
00000390: 0761 f13e 2e95 423f fd0f 5a3c c951 01be
000003a0: f741 953e 223d 15be e157 72be a560 89bc
000003b0: 7f3e 73be 6d5b 5f3e befc bd3e d328 dabe
000003c0: d6f2 14be 9471 4c3e 18f3 04bd 5095 71be
000003d0: 8bb0 89be 6c61 03be cd15 d2be 847b debe
000003e0: b379 c2be 2579 973d 117d 893d 6e14 98bd
000003f0: a1cf e13d 24a5 313e f315 853e 8f23 803b

conv1.bias f4 [32]
-0.0018630112 0.00035719597 -0.010575718 -0.0035640122 -0.0005450016 -0.005091095 0.004495049 0.00042255584
0.0039969045 -0.0036900372 4.126166e-05 -0.007664167 -0.0018875415 -0.008087636 -0.00089951896 -0.026747866
0.0025478103 0.0024892474 -0.00059151655 -0.0061189956 -0.010046447 -0.0046105264 -0.004554826 0.004268695
0.00034884588 0.005333304 0.00061677524 0.0020100751 0.00022758497 -0.0010590334 0.007316005 -0.0035457748
00000000: 4830 f4ba 0846 bb39 c745 2dbc 3492 69bb
00000010: 70de 0eba 33d3 a6bb 344b 933b 7c8a dd39
00000020: 77f8 823b 8dd4 71bb 5f10 2d38 b123 fbbb
00000030: 6267 f7ba 0182 04bc b2cd 6bba 571e dbbc
00000040: 2af9 263b a422 233b 0110 1bba db81 c8bb
00000050: da99 24bc e613 97bb a640 95bb 69e0 8b3b
00000060: 4de5 b639 ffc2 ae3b 16af 213a 77bb 033b
00000070: e0a3 6e39 44cf 8aba 19bb ef3b 3b60 68bb

conv2.weight f4 [32, 32, 3, 3]
0.24162552 -0.01822522 0.14319201 -0.09448404 0.13282639 0.22316203 0.016666148 0.013138606
-0.2522668 0.18837656 -0.3538465 0.16577692 0.2220934 -0.25094134 0.19409262 -0.10290346
0.13390978 -0.08042904 -0.05467497 0.007843744 -0.111965016 0.09896806 0.002041924 -0.4753827
-0.14627728 -0.010925708 0.33060002 0.13001259 -0.1186015 0.17082535 0.16239475 0.12355252
0.30753782 0.059107766 0.15909013 -0.25769317 -0.10922738 0.09082418 -0.17892894 -0.06946594
-0.1077716 -0.1416828 0.037039578 0.020375978 -0.024764609 -0.28479764 0.1439779 -0.08803871
0.03686438 0.009277331 0.14087094 0.041082915 0.05934578 -0.24727239 0.0785988 -0.2445642
0.10989652 0.2596006 -0.09027504 0.30224204 -0.16761129 -0.029245384 -0.11650176 -0.08793568
0.19678117 0.26633552 -0.23136786 0.2176581 0.20484474 -0.06256507 0.07480514 -0.16071245
-0.0030278398 0.07688249 0.07625714 -0.2319102 -0.120252185 0.27771032 0.02511752 -0.08100114
0.07108688 -0.049993034 0.08525611 -0.31741005 -0.24801067 -0.26996166 -0.4868834 -0.051154457
0.018397968 0.41364396 -0.121548906 -0.121323876 0.045936137 -0.10496944 0.13021737 -0.060285967
-0.04500579 0.19599262 -0.13971277 -0.010670115 0.061236966 0.08775194 0.0766063 0.052230828
-0.4420877 -0.14644875 0.14442082 -0.06628125 0.102921546 -0.08082875 0.14567985 -0.020106588
-0.030823987 0.27659062 -0.029441386 0.018308874 0.060379293 0.22757496 0.21347828 0.2719257
-0.07752373 -0.18639633 0.30256245 0.012404594 -0.22051434 -0.03865519 0.122772716 0.012727339
-0.25682282 0.007977063 -0.0067074816 -0.21200691 -0.12629749 0.09918428 0.054284792 0.120879225
-0.063562505 0.0038727552 0.06896388 0.048497763 -0.15092696 0.099475294 -0.051579222 -0.082963176
-0.17853083 -0.070631854 -0.0066457754 0.06170849 -0.2482191 0.17414385 0.035088383 0.13656619
-0.059906926 0.07384856 0.059759364 0.14726762 -0.08559297 -0.011249246 0.10773701 -0.009452139
-0.25958544 0.07111796 0.24781503 -0.03889554 -0.04585478 0.1135128 -0.1863346 -0.09458392
-0.26625106 0.0178518 -0.072515324 -0.018385623 -0.030793386 -0.28888035 0.03036126 0.0658488
-0.34976065 -0.07199691 0.03965417 0.22280762 0.031378414 0.046317104 0.18318875 -0.15799616
0.11652176 0.59084004 -0.057449427 0.07529623 -0.25267416 0.22030245 0.064881235 0.14077196
0.14762826 0.10571149 -0.074428365 -0.13125852 -0.031045495 0.052060757 0.02849231 0.0113120405
0.01829265 -0.28323182 0.26235777 0.14079191 0.003848816 -0.023573088 0.025764734 -0.010522425
-0.16205165 0.16672952 -0.25816503 0.37733483 -0.42252162 -0.06753431 -0.1427738 0.33573568
-0.13518973 0.0685524 0.009904822 -0.016711934 0.09530486 0.17224467 0.10879898 -0.092230015
-0.0418881 0.17923942 0.390437 -0.07189785 -0.2669417 0.14707327 -0.14634064 0.012800198
-0.049087342 -0.176599 -0.021161783 -0.02413339 -0.14152692 -0.29161647 0.113306046 0.231282
0.047547773 0.08147397 -0.15592748 0.020161668 0.101412185 -0.051404096 -0.12582394 0.2663235
0.39178994 -0.06126869 0.10763819 -0.2037304 0.032215856 -0.13515149 0.09332716 -0.025193125
00000000: ae6c 773e 0e4d 95bc eda0 123e d980 c1bd
00000010: a403 083e 9684 643e 7287 883c 4f43 573c
00000020: 1d29 81be c9e5 403e 5e2b b5be 6dc1 293e
00000030: 746c 633e 627b 80be 37c0 463e 0dbf d2bd
00000040: a51f 093e fbb7 a4bd ddf2 5fbd 0c83 003c
00000050: ea4d e5bd c4af ca3d cdd1 053b 5c65 f3be
00000060: b6c9 15be be01 33bc 6844 a93e 0522 053e
00000070: 58e5 f2bd d7ec 2e3e cf4a 263e 1b09 fd3d
00000080: 9975 9d3e fc1a 723d 86e8 223e 5cf0 83be
00000090: 9bb2 dfbd 0702 ba3d 2639 37be 2944 8ebd
000000a0: 5bb7 dcbd 4c15 11be d0b6 173d 86eb a63c
000000b0: 26df cabc ffd0 91be f16e 133e a44d b4bd
000000c0: 1bff 163d f2ff 173c 7940 103e 8f46 283d
000000d0: 9014 733d f934 7dbe 68f8 a03d 0a6f 7abe
000000e0: 6d11 e13d 5fea 843e 1fe2 b8bd 78bf 9a3e
000000f0: 4ba2 2bbe 0494 efbc 7a98 eebd 9f17 b4bd
00000100: 0181 493e 215d 883e b2eb 6cbe c4e1 5e3e
00000110: d2c2 513e 1e22 80bd 7033 993d ce91 24be
00000120: b96e 46bb 9174 9d3d b42c 9c3d de79 6dbe
00000130: c746 f6bd 0c30 8e3e 42c3 cd3c ede3 a5bd
00000140: 0096 913d 7fc5 4cbd c19a ae3d 9283 a2be
00000150: 82f6 7dbe 6a38 8abe c848 f9be 5687 51bd
00000160: 56b7 963c 24c9 d33e a2ee f8bd a778 f8bd
00000170: 8827 3c3d 38fa d6bd b457 053e 6bee 76bd
00000180: fe57 38bd 4ab2 483e dd10 0fbe b5d1 2ebc
00000190: 9dd3 7a3d 4ab7 b33d c4e3 9c3d feef 553d
000001a0: 5259 e2be a9f6 15be 0de3 133e 77be 87bd
000001b0: 88c8 d23d 8b89 a5bd 192d 153e 92b6 a4bc
000001c0: 9682 fcbc 499d 8d3e 102f f1bc 7efc 953c
000001d0: 4750 773d 6909 693e 0d9a 5a3e d839 8b3e
000001e0: c3c4 9ebd aede 3ebe 77e9 9a3e a33c 4b3c
000001f0: 83ce 61be e854 1ebd 4370 fb3d 5486 503c
00000200: 487e 83be 3ab2 023c 6fca dbbb 5718 59be
00000210: 2154 01be 2121 cb3d bb59 5e3d 878f f73d
00000220: 0f2d 82bd 0dce 7d3b ef3c 8d3d 97a5 463d
00000230: 998c 1abe b4b9 cb3d bc44 53bd 99e8 a9bd
00000240: c9d0 36be 6fa7 90bd cec4 d9bb 0bc2 7c3d
00000250: 262d 7ebe c452 323e d6b8 0f3d 02d8 0b3e
00000260: f760 75bd ea3d 973d 3cc6 743d 53cd 163e
00000270: 5e4b afbd c24e 38bc 39a5 dc3d 25dd 1abc
00000280: 62e8 84be 4ba6 913d 39c3 7d3e ee50 1fbd
00000290: 39d2 3bbd 6679 e83d 7fce 3ebe 37b5 c1bd
000002a0: 0f52 88be f03d 923c ea82 94bd 729d 96bc
000002b0: 6942 fcbc 20e8 93be 2db8 f83c bcdb 863d
000002c0: d413 b3be 1e73 93bd 696c 223d ae27 643e
000002d0: a786 003d 01b7 3d3d d595 3b3e bfc9 21be
000002e0: f6a2 ee3d 4b41 173f 1750 6bbd e934 9a3d
000002f0: 825e 81be f796 613e 74e0 843d 8626 103e
00000300: dd2b 173e 447f d83d e66d 98bd a268 06be
00000310: 1f53 febc a93d 553d b468 e93c 2356 393c
00000320: 78da 953c c303 91be c253 863e c12b 103e
00000330: 6b3c 7c3b 591c c1bc 9010 d33c 4066 2cbc
00000340: def0 25be 25bb 2a3e 352e 84be 0832 c13e
00000350: c154 d8be 6e4f 8abd 4c33 12be 8ce5 ab3e
00000360: 2d6f 0abe 3365 8c3d d647 223c 77e7 88bc
00000370: 322f c33d e860 303e 00d2 de3d 17e3 bcbd
00000380: db92 2bbd 8a8a 373e 5ce7 c73e 2e3f 93bd
00000390: 95ac 88be 609a 163e 52da 15be ecb7 513c
000003a0: cf0f 49bd 5ed6 34be 7a5b adbc 63b3 c5bc
000003b0: 6fec 10be c14e 95be 000d e83d 30d5 6c3e
000003c0: 74c1 423d d3db a63d 74ab 1fbe 152a a53c
000003d0: 31b1 cf3d 1a8d 52bd fed7 00be 8e5b 883e
000003e0: b198 c83e e1f4 7abd 6971 dc3d b49e 50be
000003f0: c6f4 033d 2765 0abe 4f22 bf3d d061 cebc

conv2.bias f4 [32]
0.0046110325 -0.1708796 -0.019927347 -0.05482657 -0.037683893 -0.036629576 -0.009454778 -0.05642197
-0.08244958 -0.15669896 -0.028881619 -0.0054267626 -0.02395441 -0.08650661 -0.030020166 -0.013499359
-0.017144267 -0.01886388 -0.04467683 -0.13959703 -0.26266623 -0.009233127 -0.009887446 -0.07424221
-0.10857934 -0.0038813893 -0.007063177 -0.006506737 -0.04191397 -0.038128648 -0.047041137 -0.19042364
00000000: 2518 973b 10fb 2ebe ad3e a3bc d391 60bd
00000010: 6d5a 1abd e508 16bd 37e8 1abc b91a 67bd
00000020: 53db a8bd b175 20be 2599 ecbc fcd2 b1bb
00000030: 0a3c c4bc 612a b1bd daec f5bc 6a2c 5dbc
00000040: 2272 8cbc 6c88 9abc 0dff 36bd 86f2 0ebe
00000050: 307c 86be 8b46 17bc f4fe 21bc 4d0c 98bd
00000060: d85e debd e85e 7ebb 3972 e7bb 7736 d5bb
00000070: fcad 2bbd c92c 1cbd 35ae 40bd 6afe 42be

conv3.weight f4 [32, 32, 3, 3]
-0.06615131 -0.15092993 -0.1921918 -0.06280639 0.033815123 0.059434433 -0.09704925 0.14457645
-0.05089381 -0.05182954 0.051637363 0.1480834 -0.006383213 -0.2541478 -0.36440796 -0.07110462
-0.07755007 -0.03998556 0.006518486 0.068216905 0.049540866 0.043147847 -0.087294385 -0.19913334
0.047154933 -0.06971751 0.12703973 -0.015292416 -0.077068634 0.026460294 -0.0764127 0.034992013
-0.23820455 0.13699128 -0.08337707 0.17223935 0.1358153 -0.09641245 0.07604963 -0.0132568795
-0.06721274 -0.08100813 0.0018574768 0.12940732 0.11484684 0.043188643 0.021239154 0.19589089
0.106486715 -0.0038647014 -0.062545195 0.0263717 -0.045501493 0.19152561 0.094387285 0.16979572
-0.023162168 -0.08435289 0.18329279 0.14257906 0.07375709 -0.16670865 0.13800278 0.034609493
-0.021453416 0.114190966 0.033795457 0.040256027 0.2481148 -0.054190386 0.2945192 -0.1376082
0.07096313 0.13912372 0.016520338 -0.045661774 0.17670687 0.25468245 -0.2774264 0.033140156
-0.14337371 -0.12207457 0.0653149 -0.015425156 -0.010819756 0.00874017 -0.005876067 0.15062557
-0.07792063 0.3051806 -0.11978277 0.01453287 0.027374841 0.098689236 -0.0640392 -0.002318922
-0.04055006 -0.09778916 -0.08046647 0.14228208 0.13824642 0.19380547 -0.008803931 0.12246007
-0.026455613 -0.14333975 -0.026765341 -0.053268027 -0.090503626 0.11095473 0.058111865 0.15992294
0.06966282 0.36571097 -0.062273897 -0.09901155 -0.10189335 -0.07678253 -0.002361968 -0.024301657
0.21206833 -0.097049475 0.18456997 0.025925845 0.062033836 -0.07509182 -0.114279285 -0.051413383
-0.04051894 0.07003139 0.041806124 -0.14376964 0.13902353 -0.27782193 0.13619147 0.015649308
0.07542584 -0.0722721 -0.0025949213 -0.2794408 0.063277304 -0.040370334 -0.16087598 -0.053106952
-0.08361695 0.23194627 0.08783316 -0.16500488 0.13294692 0.3230078 -0.13029183 -0.096749716
-0.25382456 -0.066663206 -0.18636213 0.016096337 0.08934115 -0.16738972 0.12835331 -0.010994811
0.3438244 -0.00047037628 0.018895475 0.05455443 -0.2325112 -0.08811423 -0.08920943 0.042959537
-0.06397224 0.1584583 0.051962618 0.07399421 0.14637376 0.071153 -0.13805626 0.121123776
-0.0009999216 0.013310927 -0.3738764 -0.10403747 -0.101987615 -0.10414723 -0.19809212 -0.060259312
0.10294724 0.19354202 0.00669343 0.06594619 0.066730715 -0.043797087 0.09502733 0.17116955
-0.08553185 -0.27503693 -0.026649203 0.06594279 0.30893272 -0.14809659 -0.0014505624 -0.10303068
0.029244063 0.039744593 0.23115212 0.22677487 -0.24659762 0.123585805 -0.2041144 -0.08293449
0.0177547 0.059356507 0.09893028 -0.08376305 0.19816938 0.06003714 0.1562221 0.0472028
0.13747245 0.06916209 0.114106715 -0.11662851 -0.055836156 -0.020184746 -0.18538783 -0.10920274
-0.16859207 -0.058824915 0.111442454 0.0038185995 0.040742166 -0.21747737 0.3180245 -0.254631
0.2903944 -0.46268973 0.039622307 0.18128397 0.094256744 0.2040924 -0.0066824905 -0.06399246
-0.1368068 0.19365968 -0.24855115 0.07577726 0.19808812 0.11359963 -0.07302914 -0.07771846
0.15654062 -0.055410005 -0.29570153 -0.04700455 0.13453504 0.29176074 0.2201758 -0.113656186
00000000: 577a 87bd 608d 1abe edcd 44be a3a0 80bd
00000010: ba81 0a3d 8571 733d c2c1 c6bd d90b 143e
00000020: 0776 50bd 364b 54bd b381 533d 2da3 173e
00000030: 462a d1bb a91f 82be ae93 babe 4d9f 91bd
00000040: 92d2 9ebd e6c7 23bd 0699 d53b 4eb5 8b3d
00000050: 5deb 4a3d ccbb 303d 66c7 b2bd 9ce9 4bbe
00000060: 8825 413d 0ec8 8ebd b416 023e 0b8d 7abc
00000070: 29d6 9dbd 42c3 d83c 437e 9cbd c953 0f3d
00000080: e5eb 73be 7147 0c3e 99c1 aabd 835f 303e
00000090: 2a13 0b3e e473 c5bd e9bf 9b3d 6233 59bc
000000a0: d5a6 89bd 97e7 a5bd 9476 f33a 5a83 043e
000000b0: d234 eb3d 93e6 303d bcfd ad3c 9f97 483e
000000c0: b515 da3d ee46 7dbb b217 80bd 7709 d83c
000000d0: c65f 3abd 4a1f 443e 1f4e c13d eede 2d3e
000000e0: 96be bdbc 35c1 acbd 1bb1 3b3e 3f00 123e
000000f0: f50d 973d acb5 2abe 9a50 0d3e afc2 0d3d
00000100: 13bf afbc f4dc e93d 1b6d 0a3d 81e3 243d
00000110: ce11 7e3e bdf6 5dbd 38cb 963e 2ae9 0cbe
00000120: 1e55 913d 7376 0e3e a955 873c d707 3bbd
00000130: a5f2 343e bd65 823e d50a 8ebe f9bd 073d
00000140: 8fd0 12be 3b02 fabd d1c3 853d cbb9 7cbc
00000150: 5945 31bc ee32 0f3c 068c c0bb 973d 1a3e
00000160: da94 9fbd a240 9c3e ab50 f5bd 461b 6e3c
00000170: 3441 e03c 951d ca3d fc26 83bd 0ef9 17bb
00000180: d217 26bd af45 c8bd 9bcb a4bd 65b2 113e
00000190: 7890 0d3e f174 463e 5d3e 10bc 58cc fa3d
000001a0: 71b9 d8bc a8c7 12be fd42 dbbc 932f 5abd
000001b0: f759 b9bd 3c3c e33d b506 6e3d d7c2 233e
000001c0: 61ab 8e3d 783e bb3e ea12 7fbd 91c6 cabd
000001d0: 76ad d0bd 2940 9dbd 3fcb 1abb 4514 c7bc
000001e0: 7128 593e e0c1 c6bd e9ff 3c3e 7062 d43c
000001f0: 3117 7e3d bdc9 99bd 420b eabd d796 52bd
00000200: 30f7 25bd 9e6c 8f3d e63c 2b3d 5938 13be
00000210: 2f5c 0e3e ad3e 8ebe c775 0b3e fa32 803c
00000220: dd78 9a3d 6503 94bd 8e0f 2abb dd12 8fbe
00000230: 8897 813d 5d5b 25bd acbc 24be ad86 59bd
00000240: 5d3f abbd 5383 6d3e dfe1 b33d 0af7 28be
00000250: 3d23 083e 4761 a53e 396b 05be b724 c6bd
00000260: 4bf5 81be b886 88bd b7d5 3ebe 77dc 833c
00000270: 7ef8 b63d 3668 2bbe 0d6f 033e 9423 34bc
00000280: c009 b03e d69c f6b9 afca 9a3c 7774 5f3d
00000290: 6a17 6ebe 3c75 b4bd 6fb3 b6bd 57f6 2f3d
000002a0: e103 83bd e542 223e c1d6 543d 478a 973d
000002b0: 01e3 153e aab8 913d 9f5e 0dbe be0f f83d
000002c0: cd0f 83ba 1316 5a3c ba6c bfbe 9911 d5bd
000002d0: e2de d0bd 254b d5bd a9d8 4abe 78d2 76bd
000002e0: 01d6 d23d e12f 463e 8f54 db3b cc0e 873d
000002f0: 1daa 883d 9364 33bd b09d c23d 1247 2f3e
00000300: 532b afbd a4d1 8cbe 6e4f dabc 030d 873d
00000310: 6e2c 9e3e a2a6 17be cc20 beba c001 d3bd
00000320: 3f91 ef3c 3acb 223d 24b3 6c3e ac37 683e
00000330: 1684 7cbe 8e1a fd3d 5e03 51be 8fd9 a9bd
00000340: 4e72 913c cf1f 733d f59b ca3d f68b abbd
00000350: eaec 4a3e 81e9 753d b0f8 1f3e b957 413d
00000360: 94c5 0c3e dba4 8d3d c8b0 e93d eeda eebd
00000370: 74b4 64bd 7b5a a5bc 4fd6 3dbe b0a5 dfbd
00000380: 66a3 2cbe 65f2 70bd f13b e43d 7841 7a3b
00000390: 42e1 263d 63b2 5ebe 1bd4 a23e ff5e 82be
000003a0: 93ae 943e abe5 ecbe 004b 223d 81a2 393e
000003b0: ae09 c13d 99fd 503e cbf8 dabb 7b0e 83bd
000003c0: 1517 0cbe b94e 463e 3184 7ebe 1c31 9b3d
000003d0: 9dd7 4a3e eca6 e83d 4d90 95bd db2a 9fbd
000003e0: 2f4c 203e 9af5 62bd 3166 97be d887 40bd
000003f0: 8ec3 093e aa61 953e c475 613e 93c4 e8bd

conv3.bias f4 [32]
0.08372643 -0.103506446 0.07047697 0.089098535 0.010036816 -0.11350819 0.1257102 0.03985143
-0.22032593 0.14480212 -0.060198963 0.0911675 0.1284119 0.13248594 -0.19095215 -0.037190862
0.14283682 -0.004410121 0.03833872 -0.033376485 -0.035671785 0.13916448 -0.028734716 0.01875118
-0.04162678 -0.056076538 0.07527695 0.12026577 -0.07793987 -0.07906963 0.062160976 0.15593737
00000000: c378 ab3d 30fb d3bd 3b56 903d 4b79 b63d
00000010: 7571 243c fb76 e8bd 2dba 003e 413b 233d
00000020: 1f9d 61be 0247 143e 3093 76bd 07b6 ba3d
00000030: 697e 033e 65aa 073e f688 43be 7255 18bd
00000040: d143 123e c782 90bb 1009 1d3d c8b5 08bd
00000050: 941c 12bd 2281 0e3e 1165 ebbc 139c 993c
00000060: d880 2abd 83b0 65bd cd2a 9a3d e64d f63d
00000070: f09e 9fbd 42ef a1bd 829c 7e3d 0cae 1f3e

conv4.weight f4 [32, 32, 3, 3]
-0.086417004 0.05332077 0.09861182 -0.0071478896 0.056985658 -0.10695309 -0.07585555 -0.086273566
0.04831725 -0.10042674 0.053853933 -0.10297892 -0.17157708 0.19893207 0.0777313 0.07708431
0.023381734 -0.08555656 -0.012208208 -0.012799185 0.03147161 0.017747765 -0.027002051 -0.11041737
-0.028528335 -0.00423964 0.13540526 0.015918894 0.057519913 -0.14956833 -0.048363753 -0.1450942
0.016901532 -0.038688958 0.2729488 0.108412996 0.009137915 0.113809496 0.11999422 -0.11290337
0.2616561 -0.063816324 0.016850775 -0.20181936 -0.067638956 -0.100773156 0.001907773 -0.013569598
0.13197528 -0.14378434 0.05084788 0.044623673 -0.047965344 -0.13513216 -0.07348094 -0.018975778
0.17135702 0.22497196 0.03871907 -0.16368403 -0.2494275 -0.0068946276 0.032199617 -0.011767491
0.053891968 -0.12857741 0.003589923 0.04225515 -0.044129323 0.0621827 -0.05496457 0.0010293014
0.09167621 0.055735655 -0.12213281 0.08434415 -0.232933 -0.023510953 -0.07102504 0.18348813
0.036683276 0.054858953 -0.040105034 0.09056569 -0.11606072 0.05077465 -0.11218503 -0.03801312
0.028615495 0.080949195 0.116005 -0.14029734 0.10403911 -0.10136405 -0.02988045 0.022303063
-0.007976809 0.02961293 -0.014970512 0.05274434 -0.0072122496 -0.103766754 -0.12693003 -0.03743003
-0.08174586 0.050229117 -0.0027909777 0.000722048 -0.13335691 0.019507991 0.14277765 -0.06025784
-0.04994911 -0.12419109 0.09079145 -0.033020794 0.016559223 -0.038997006 -0.007299449 -0.050987843
-0.16572212 0.20166524 -0.117132254 0.053662945 -0.18145658 0.009411027 -0.0012556409 0.10013671
-0.07470369 0.015732434 -0.21856949 0.08385486 -0.007850005 -0.029289372 -0.080512695 -0.0627507
0.111054726 -0.10104931 0.10107619 -0.0742638 -0.058820568 -0.14082484 -0.09571647 0.042457707
0.030691482 -0.057238247 -0.15127715 -0.12693465 0.18572646 -0.023654416 -0.15333334 -0.103382416
0.012225236 0.009978429 0.063042276 -0.20454644 0.16766945 -0.23146245 -0.02969309 -0.2081497
0.057225734 0.09375786 0.10045227 -0.0043975185 0.08535921 0.018287623 0.057822224 -0.21474467
-0.07251035 0.03853356 0.042321164 0.09223516 0.15697679 -0.016085945 0.074384265 0.05048659
-0.18763417 -0.01796439 0.1700491 0.066076696 0.04480362 0.2847429 -0.039855856 -0.37946606
0.119217314 0.14001435 -0.022907253 -0.12379493 -0.017251292 0.09085412 -0.22014527 0.12091708
0.012760137 -0.15367028 -0.15154506 0.03227952 0.06697721 0.012630658 -0.0116544785 0.001437959
0.06296157 0.014992278 0.10413161 -0.049695026 -0.055870466 -0.13354404 0.12261052 0.036135137
0.09534606 0.100902945 0.21528956 -0.14303355 -0.1917563 -0.14009161 -0.09708816 0.23793004
0.06813308 -0.10168109 0.030036839 -0.21422328 0.0670607 0.05407785 0.053315297 0.019833976
0.018665053 0.13098723 0.052281223 -0.13680279 -0.115128785 0.21087697 0.11353096 0.0309674
-0.10428745 0.0070309364 0.053608093 -0.14675894 0.059841864 -0.05740752 0.058373485 -0.17669462
-0.04276276 -0.090847105 0.05895693 0.014929162 -0.12330307 0.039945092 0.07988451 0.102617666
-0.16981147 0.03618898 -0.019108737 -0.010560199 0.031757116 -0.08090241 0.03898657 -0.014720661
00000000: 66fb b0bd e166 5a3d fef4 c93d d838 eabb
00000010: cb69 693d 390a dbbd 285a 9bbd 32b0 b0bd
00000020: 4fe8 453d 89ac cdbd f195 5c3d 9de6 d2bd
00000030: e7b1 2fbe d9b4 4b3e 9631 9f3d 61de 9d3d
00000040: 0d8b bf3c 4738 afbd f004 48bc acb3 51bc
00000050: 60e8 003d c363 913c 6833 ddbc 8122 e2bd
00000060: 41b4 e9bc aeec 8abb ada7 0a3e 5768 823c
00000070: 009a 6b3d 7128 19be 1219 46bd 9393 14be
00000080: 1575 8a3c 5078 1ebd f2bf 8b3e a207 de3d
00000090: 32b7 153c f414 e93d 88bf f53d e239 e7bd
000000a0: caf7 853e 22b2 82bd a30a 8a3c bca9 4ebe
000000b0: 4b86 8abd 2862 cebd 3d0e fa3a 0553 5ebc
000000c0: 8724 073e 343c 13be de45 503d 50c7 363d
000000d0: 4f77 44bd 1660 0abe 2d7d 96bd 1773 9bbc
000000e0: 3778 2f3e 0d5f 663e e397 1e3d c99c 27be
000000f0: ec69 7fbe 54ec e1bb bfe3 033d 6fcc 40bc
00000100: d3bd 5c3d cca9 03be ea44 6b3b bc13 2d3d
00000110: f3c0 34bd 49b3 7e3d 8722 61bd a0e9 863a
00000120: bdc0 bb3d 124b 643d c420 fabd a0bc ac3d
00000130: fd85 6ebe 0b9a c0bc 9375 91bd 50e4 3b3e
00000140: 3441 163d c8b3 603d 2d45 24bd 817a b93d
00000150: 3eb1 edbd 14f9 4f3d 44c1 e5bd a5b3 1bbd
00000160: 0b6b ea3c b1c8 a53d 0894 ed3d 1baa 0fbe
00000170: 7512 d53d f497 cfbd d8c7 f4bc eab4 b63c
00000180: 29b1 02bc d196 f23c e146 75bc 730a 583d
00000190: bc54 ecbb aa83 d4bd f2f9 01be 3b50 19bd
000001a0: 606a a7bd 0cbd 4d3d d6e8 36bb d247 3d3a
000001b0: b78e 08be 39cf 9f3c 4e34 123e edd0 76bd
000001c0: 7097 4cbd e657 febd def0 b93d d040 07bd
000001d0: 35a7 873c 53bb 1fbd 3730 efbb a1d8 50bd
000001e0: 0fb3 29be 5581 4e3e 09e3 efbd adcd 5b3d
000001f0: c1cf 39be b530 1a3c 5194 a4ba 7a14 cd3d
00000200: 40fe 98bd 4ee1 803c aed0 5fbe 19bc ab3d
00000210: 4f9d 00bc 44f0 efbc d7e3 a4bd 7083 80bd
00000220: a970 e33d f1f2 cebd 0901 cf3d 9f17 98bd
00000230: d6ed 70bd 6334 10be ff06 c4bd 22e8 2d3d
00000240: b46c fb3c a772 6abd 66e8 1abe 28fb 01be
00000250: 142f 3e3e e8c6 c1bc 6a03 1dbe 29ba d3bd
00000260: 5b4c 483c 917c 233c 4f1c 813d 9f74 51be
00000270: 8ab1 2b3e 7e04 6dbe ec3e f3bc 3225 55be
00000280: 8865 6a3d 1f04 c03d ebb9 cd3d 0f19 90bb
00000290: cfd0 ae3d edcf 953c ffd6 6c3d 07e6 5bbe
000002a0: 4e80 94bd 5ed5 1d3d f558 2d3d cae5 bc3d
000002b0: 86be 203e acc6 83bc c756 983d 07cb 4e3d
000002c0: 2c23 40be 0e2a 93bc 5a21 2e3e 3853 873d
000002d0: 0084 373d d2c9 913e e53f 23bd 6049 c2be
000002e0: 3528 f43d ec5f 0f3e fea7 bbbc 3288 fdbd
000002f0: 9552 8dbc ba11 ba3d c36d 61be 60a3 f73d
00000300: e50f 513c be5b 1dbe a12e 1bbe 8837 043d
00000310: 592b 893d d2f0 4e3c 6df2 3ebc e679 bc3a
00000320: fff1 803d 2ca2 753c f442 d53d 038d 4bbd
00000330: 6ed8 64bd c5bf 08be 391b fb3d 7002 143d
00000340: cc44 c33d 34a6 ce3d de74 5c3e 6377 12be
00000350: c35b 44be 2d74 0fbe 28d6 c6bd efa3 733e
00000360: 5b89 8b3d 2d3e d0bd d10f f63c 595d 5bbe
00000370: 1f57 893d bc80 5d3d 2461 5a3d dd7a a23c
00000380: 74e7 983c 8421 063e d624 563d 0816 0cbe
00000390: a4c8 ebbd 22f0 573e ec82 e83d 58af fd3c
000003a0: a994 d5bd c563 e63b 2994 5b3d fa47 16be
000003b0: be1c 753d 2624 6bbd 0919 6f3d 6fef 34be
000003c0: 0128 2fbd 0c0e babd d27c 713d 7299 743c
000003d0: 5286 fcbd 779d 233d 7d9a a33d 3629 d23d
000003e0: 0fe3 2dbe e53a 143d ed89 9cbc af04 2dbc
000003f0: c013 023d 2ab0 a5bd 62b0 1f3d ed2e 71bc

conv4.bias f4 [32]
-0.014706382 0.20621677 -0.21556981 0.062852874 -0.025878543 -0.108835384 -0.15290476 -0.0124237025
0.11055815 -0.1609148 -0.2763867 -0.104588024 -0.013302753 0.06817496 -0.016572515 -0.11206987
-0.19502574 0.09018381 0.04198438 -0.06683177 -0.19153266 0.18630256 0.10231706 -0.07328388
0.14709543 0.046539396 0.12620671 -0.34769458 0.2203892 -0.030038578 -0.122384585 -0.08544895
00000000: 09f3 70bc 7d2a 533e 55be 5cbe 02b9 803d
00000010: 3dff d3bc 16e5 debd 1193 1cbe c98c 4bbc
00000020: 506c e23d d9c6 24be 8f82 8dbe 3f32 d6bd
00000030: caf3 59bc 509f 8b3d 15c3 87bc e384 e5bd
00000040: d4b4 47be 4ab2 b83d d0f7 2b3d 18df 88bd
00000050: 2321 44be 19c6 3e3e 9b8b d13d dc15 96bd
00000060: 2fa0 163e 18a0 3e3d 553c 013e 0605 b2be
00000070: b5ad 613e 7713 f6bc c5a4 fabd dcff aebd

linear.weight f4 [256, 800]
0.05914721 -0.06271808 0.012365409 -0.03573791 -0.045882296 0.003961056 0.046655606 -0.091098756
-0.046327267 -0.09787946 0.011470096 -0.08771914 -0.06383854 0.014211075 -0.099020414 -0.010526102
0.03670526 -0.14588128 -0.056708258 0.052540746 -0.06769131 -0.032098986 0.026774833 -0.036884263
0.078059 0.03788385 -0.042190563 -0.029860158 -0.05557476 0.03258221 -0.16763955 0.06283413
0.097705096 -0.12402815 -0.044944804 -0.041830413 -0.11968923 -0.19335778 -0.07488923 0.010691507
-0.06667402 -0.032487195 -0.009188566 0.07200571 -0.12411968 0.03811698 -0.086419374 0.054455753
-0.027934369 -0.035266228 -0.0029057902 0.05871227 -0.066412374 -0.02981283 -0.007815361 0.010377551
-0.05043654 -0.032464214 0.14882241 -0.23782125 -0.051766917 -0.04784776 -0.068956755 -0.034789007
0.03498235 -0.15643522 -0.048153102 -0.041431352 0.0258741 0.08876881 -0.058702875 0.067806356
-0.031317595 0.0039138654 0.022341253 -0.0051929955 -0.06993282 0.073272 0.013054397 0.012506715
0.09065898 0.031386647 -0.017879063 -0.0986585 0.08808654 -0.09322377 -0.004461291 -0.036090966
0.07332182 0.025224676 -0.089861505 -0.0340505 0.10429819 0.27140597 0.06440742 0.012891237
-0.12152945 0.08285486 -0.1193162 -0.069303416 -0.049927585 0.03292801 0.048343275 0.043074016
-0.07860965 0.047108598 -0.020337656 -0.0067497217 -0.008174162 -0.082195714 -0.038843486 -0.07573398
0.08744358 -0.11143531 -0.026122602 0.06525428 0.021593217 0.015146368 0.11773149 0.030259106
-0.055488892 0.023741098 0.10620109 -0.12767805 -0.017171705 0.00036078063 0.11651854 0.08495125
0.09293782 -0.07051318 0.03276262 0.09023741 -0.101077534 0.015966434 0.10753906 0.03880643
-0.17914687 -0.03399251 -0.038636096 -0.08931602 -0.12614176 0.06537934 0.024975993 0.107119255
0.05128047 0.0699453 0.11171799 -0.18479188 0.118279636 0.1159877 -0.0021000095 -0.00522614
-0.03147183 0.020600902 -0.085599095 0.049508408 0.017673567 -0.09067699 -0.13740444 0.04497772
0.14237608 -0.045695297 -0.01847214 0.02112442 -0.02940838 0.01634633 -0.035050698 0.07057742
0.0885417 0.027990146 0.100626394 0.035803344 -0.03319585 0.1433071 -0.04786392 -0.055054057
-0.05751924 0.032352194 -0.07290218 -0.049104504 -0.121948846 0.063718736 0.012263924 0.006064668
0.014540331 -0.060621485 -0.07967107 0.090178184 0.014639119 -0.0737827 -0.04525094 0.09139039
0.07931308 -0.023472648 -0.072147645 0.12833467 -0.010211499 -0.029008737 -0.042038806 0.029249538
0.05875496 -0.07672862 0.06433832 0.01115266 -0.017862495 -0.08312004 -0.005830066 0.037976395
-0.08657576 0.021892501 -0.04007558 0.043394744 -0.053208277 -0.029775992 0.07166957 -0.037395
0.025804901 0.002615408 0.037890937 -0.05856793 0.04318041 -0.10231059 0.019470321 -0.011589346
0.03785653 0.034298442 0.04808865 0.1081232 0.09568533 0.08396956 -0.102210626 0.04199106
-0.06778249 -0.08465381 0.11518176 -0.025440432 -0.119426936 0.02291355 -0.00083079893 -0.060643528
-0.00341936 0.063582525 0.0028704917 0.03087018 -0.1314116 0.028463157 -0.036221102 0.022285819
-0.027918266 0.018374583 -0.05770673 -0.029490337 0.029798144 0.022294529 -0.024922565 0.08595717
00000000: 5844 723d 5672 80bd 4998 4a3c ea61 12bd
00000010: 13ef 3bbd bfcb 813b f319 3f3d fc91 babd
00000020: a9c1 3dbd 0775 c8bd 12ed 3b3c 18a6 b3bd
00000030: c8bd 82bd 92d5 683c 37cb cabd ac75 2cbc
00000040: 4158 163d e761 15be eb46 68bd f734 573d
00000050: bea1 8abd 3a7a 03bd e556 db3c f413 17bd
00000060: 66dd 9f3d 192c 1b3d 03d0 2cbd 4a9d f4bc
00000070: 5ca2 63bd ec74 053d b4a9 2bbe 2eaf 803d
00000080: 9c19 c83d 7902 febd 0b18 38bd 5e56 2bbd
00000090: a11f f5bd 95ff 45be 865f 99bd 6e2b 2f3c
000000a0: 638c 88bd 4b11 05bd a48b 16bc bb77 933d
000000b0: 7532 febd 8d20 1c3d a4fc b0bd ff0c 5f3d
000000c0: 9ed6 e4bc 5273 10bd 126f 3ebb 477c 703d
000000d0: 3603 88bd 093a f4bc 000c 00bc 9b06 2a3c
000000e0: 8c96 4ebd 32f9 04bd e764 183e 6a87 73be
000000f0: 8c09 54bd 03fc 43bd 3339 8dbd eb7e 0ebd
00000100: a749 0f3d 8e30 20be 303c 45bd ecb3 29bd
00000110: ecf5 d33c 6ccc b53d 6d72 70bd 0fde 8a3d
00000120: e146 00bd e23f 803b 0105 b73c 012a aabb
00000130: f038 8fbd a10f 963d 1ce2 553c f7e8 4c3c
00000140: 6aab b93d 498f 003d 1d77 92bc 780d cabd
00000150: b766 b43d 1bec bebd 0530 92bb 1fd4 13bd
00000160: c029 963d fba3 ce3c 4f09 b8bd 8978 0bbd
00000170: 4a9a d53d b9f5 8a3e 0ae8 833d c435 533c
00000180: 6fe4 f8bd cfaf a93d 0d5c f4bd f3ee 8dbd
00000190: de80 4cbd 85df 063d 9903 463d 616e 303d
000001a0: 19fe a0bd f2f4 403d 289b a6bc c52c ddbb
000001b0: ecec 05bc 3a56 a8bd 591a 1fbd 6b1a 9bbd
000001c0: 9f15 b33d 3238 e4bd 11ff d5bc 09a4 853d
000001d0: 42e4 b03c 7928 783c 351d f13d f2e1 f73c
000001e0: 5248 63bd b17c c23c f57f d93d 09be 02be
000001f0: adab 8cbc 2827 bd39 46a1 ee3d ecfa ad3d
00000200: 2f56 be3d 3769 90bd 1932 063d 64ce b83d
00000210: bd01 cfbd 0acc 823c 703d dc3d 7ef3 1e3d
00000220: 4772 37be bb3b 0bbd e240 1ebd 51eb b6bd
00000230: 4e2b 01be 9ae5 853d 749a cc3c 5761 db3d
00000240: 780b 523d 7b3f 8f3d 67cc e43d 153a 3dbe
00000250: 983c f23d f68a ed3d 50a0 09bb 0a40 abbb
00000260: 9be8 00bd 39c3 a83c 944e afbd 54c9 4a3d
00000270: 28c8 903c dcb4 b9bd c0b3 0cbe 8f3a 383d
00000280: 09cb 113e fe2a 3bbd e352 97bc 1f0d ad3c
00000290: d8e9 f0bc bde8 853c 5291 0fbd e58a 903d
000002a0: 5a55 b53d 974b e53c 3615 ce3d 87a6 123d
000002b0: 5ff8 07bd 19bf 123e f50c 44bd 5d80 61bd
000002c0: 4b99 6bbd bc83 043d bd4d 95bd ce21 49bd
000002d0: 51c0 f9bd f87e 823d a0ee 483c 1fba c63b
000002e0: 923a 6e3c 3c4e 78bd 962a a3bd 57af b83d
000002f0: ead8 6f3c 621b 97bd 0d59 39bd e32a bb3d
00000300: e56e a23d b649 c0bc 25c2 93bd 2a6a 033e
00000310: 224e 27bc bba3 edbc e230 2cbd ba9c ef3c
00000320: 0aa9 703d e523 9dbd cfc3 833d a5b9 363c
00000330: 5e54 92bc d73a aabd 230a bfbb 238d 1b3d
00000340: a24e b1bd e757 b33c 4b26 24bd b0be 313d
00000350: ecf0 59bd c8ec f3bc 7fc7 923d 802b 19bd
00000360: cd64 d33c 4467 2b3b 8733 1b3d ede4 6fbd
00000370: f1dd 303d 3788 d1bd 3980 9f3c 3ee1 3dbc
00000380: 730f 1b3d 867c 0c3d 9bf8 443d b26f dd3d
00000390: acf6 c33d 3cf8 ab3d ce53 d1bd d1fe 2b3d
000003a0: 8cd1 8abd fa5e adbd 6ae4 eb3d 7468 d0bc
000003b0: 1c96 f4bd 32b5 bb3c f9c9 59ba 5965 78bd
000003c0: 5717 60bb 8e37 823d dc1e 3c3b 76e3 fc3c
000003d0: c390 06be 912b e93c 945c 14bd c090 b63c
000003e0: d9b4 e4bc 4b86 963c e45d 6cbd b895 f1bc
000003f0: 3d1b f43c 04a3 b63c 682a ccbc 500a b03d

linear.bias f4 [256]
-0.065828726 -0.08074499 -0.4593694 -0.051168572 -0.065726705 -0.06865935 -0.0840593 -0.4548728
-0.069828406 -0.018982036 -0.014720643 -0.1720833 -0.046180084 -0.0006152774 -0.011803547 -0.0984812
-0.1831042 -0.09759334 -0.02659183 -0.08589956 -0.05202939 -0.036574524 -0.06823636 -0.045530923
-0.06385747 -0.30080956 -0.038503945 -0.068264194 -0.05686392 -0.087115996 -0.04346866 -0.11556655
-0.027969217 0.00599664 -0.06685582 -0.17374362 -0.06678452 -0.052230775 -0.031698648 -0.052163642
-0.056597408 -0.054573186 -0.019305507 -0.053813875 -0.05459677 -0.037025068 0.105364844 -0.041985985
-0.038922828 -0.06130419 -0.040728614 -0.0062011736 -0.15492555 -0.06115644 -0.13268633 -0.044667963
-0.06624364 -0.009346147 -0.047228277 -0.02276092 -0.11665526 -0.03619538 -0.054390963 -0.03850457
-0.093846574 -0.046774007 -0.096172415 0.104978755 -0.038494676 -0.3836982 -0.14851756 0.0030116832
-0.03343969 -0.026861252 -0.06821102 -0.08622598 -0.0728934 -0.029000457 -0.059182417 -0.119974524
-0.17589667 -0.04105373 -0.05224354 -0.064477086 -0.05799392 -0.058121637 -0.05185163 -0.045238018
-0.030561527 -0.089761235 -0.030128289 -0.075589396 -0.01114607 -0.051846802 0.04707604 -0.08396927
-0.06836993 -0.10076399 -0.06104529 -0.038988102 -0.033977963 -0.023845294 -0.06499122 -0.013269625
-0.29939157 -0.018528778 -0.025371332 -0.023701072 -0.37407866 0.009108522 -0.13558972 -0.034833502
-0.0407111 -0.07656713 -0.044429127 -0.10794333 -0.058274224 -0.17183432 -0.07615585 -0.030513631
-0.09002016 -0.04065324 -0.068069376 -0.03893858 0.0042373533 -0.056540526 -0.0670507 -0.041558094
-0.08877759 -0.049672354 -0.005500211 -0.15719862 0.030247416 -0.024668891 0.061269175 -0.04258703
-0.069554165 -0.18664835 -0.04188689 -0.04885272 -0.052011143 -0.06063537 -0.050309286 -0.057924956
-0.009240628 -0.02955859 -0.48427543 -0.04630819 -0.053822137 -0.07746887 -0.02198247 0.052177873
-0.055549335 -0.009483281 -0.22153176 -0.13581109 -0.046605207 -0.36443782 -0.14758043 -0.24153091
-0.0015199529 -0.03130204 -0.45943853 -0.026266612 -0.036526978 -0.12542842 -0.28510866 -0.057649903
0.029230254 -0.08575319 -0.014520371 -0.029565755 0.02843633 -0.066209495 -0.4605281 -0.044522416
-0.07138865 -0.0025906228 -0.065254636 -0.11892633 -0.072096236 -0.036839698 -0.012073018 -0.07975126
-0.02682574 -0.021884749 -0.02009734 -0.052089747 -0.04903052 -0.008119587 -0.3592472 -0.17089278
-0.017462075 -0.030871533 -0.051749833 -0.044243377 -0.03511254 -0.12711665 -0.071223356 -0.036774557
-0.049985576 -0.041127138 -0.04900837 -0.020561136 -0.08215286 -0.022595331 -0.040527295 -0.065187216
-0.097816415 -0.040002335 -0.017914714 -0.18289258 -0.031480063 -0.003494144 -0.013912744 -0.31686985
-0.025772382 -0.026373586 -0.0057413974 -0.041412957 -0.03557699 -0.046095543 -0.038818724 -0.056648374
-0.03640089 -0.01476532 -0.07945531 -0.32212135 -0.03576665 -0.030864883 -0.06083102 -0.049819015
-0.048546 -0.17832248 -0.06881116 -0.0073635112 -0.028623946 -0.05366829 -0.06184622 -0.04488804
-0.15895483 0.09793476 -0.021925041 0.020818707 -0.01785594 -0.06043844 -0.22265531 -0.0047844513
-0.2832757 -0.024790697 -0.11367972 -0.08481315 -0.01616331 0.08509684 -0.522279 -0.07555128
00000000: 36d1 86bd a15d a5bd 7732 ebbe 2396 51bd
00000010: b99b 86bd 469d 8cbd 4827 acbd 16e5 e8be
00000020: 3202 8fbd 3780 9bbc da2e 71bc 9b36 30be
00000030: 5427 3dbd 914a 21ba aa63 41bc 83b0 c9bd
00000040: ab7f 3bbe 04df c7bd 1cd7 d9bc 1cec afbd
00000050: c51c 55bd 2bcf 15bd 81bf 8bbd a27e 3abd
00000060: b5c7 82bd b603 9abe 50b6 1dbd 19ce 8bbd
00000070: 24ea 68bd df69 b2bd 320c 32bd 28ae ecbd
00000080: b31f e5bc 767f c43b b4eb 88bd d9e9 31be
00000090: 53c6 88bd f0ef 55bd 71d6 01bd 8ba9 55bd
000000a0: afd2 67bd 2288 5fbd 9526 9ebc f06b 5cbd
000000b0: dda0 5fbd 99a7 17bd 86c9 d73d 7ff9 2bbd
000000c0: 8b6d 1fbd 1a1a 7bbd 0cd3 26bd 3733 cbbb
000000d0: cea4 1ebe 2d7f 7abd edde 07be c1f5 36bd
000000e0: bfaa 87bd 9520 19bc 7072 41bd 1c75 babc
000000f0: f4e8 eebd 9b41 14bd 0fc9 5ebd f8b6 1dbd
00000100: a232 c0bd 1a96 3fbd 0bf6 c4bd 1aff d63d
00000110: 98ac 1dbd 1774 c4be fd14 18be a95f 453b
00000120: 0ef8 08bd 210c dcbc 38b2 8bbd 3f97 b0bd
00000130: 2349 95bd 5e92 edbc 4369 72bd 34b5 f5bd
00000140: 421e 34be f527 28bd 52fd 55bd 900c 84bd
00000150: 088b 6dbd f410 6ebd 6062 54bd 804b 39bd
00000160: 2b5c fabc bdd4 b7bd 9acf f6bc 9dce 9abd
00000170: 029e 36bc 505d 54bd ced2 403d 15f8 abbd
00000180: 8905 8cbd 5a5d cebd a00a 7abd fdb1 1fbd
00000190: 7a2c 0bbd 3557 c3bc 1e1a 85bd d768 59bc
000001a0: da49 99be aac9 97bc 8ad7 cfbc c028 c2bc
000001b0: 3d87 bfbe e93b 153c 08d8 0abe 93ad 0ebd
000001c0: afc0 26bd 3acf 9cbd 51fb 35bd 6511 ddbd
000001d0: f4b0 6ebd 56f5 2fbe 99f7 9bbd b9f7 f9bc
000001e0: 7d5c b8bd 0384 26bd f567 8bbd 0f7e 1fbd
000001f0: 7fd9 8a3b 0a97 67bd e151 89bd d238 2abd
00000200: 06d1 b5bd 3d75 4bbd 1d3b b4bb adf8 20be
00000210: 6ec9 f73c 6a16 cabc 63f5 7a3d bd6f 2ebd
00000220: 6a72 8ebd bf20 3fbe 9691 2bbd ca19 48bd
00000230: a309 55bd cb5c 78bd 1c11 4ebd b842 6dbd
00000240: 0166 17bc db24 f2bc f3f2 f7be a8ad 3dbd
00000250: 9a74 5cbd 00a8 9ebd 9514 b4bc 77b8 553d
00000260: b387 63bd c35f 1bbc 39d9 62be 1012 0bbe
00000270: 1ae5 3ebd 9897 babe 531f 17be e153 77be
00000280: 2839 c7ba 9136 00bd 873b ebbe 142d d7bc
00000290: 509d 15bd 4f70 00be c3f9 91be 4e22 6cbd
000002a0: 4974 ef3c 5e9f afbd dae6 6dbc e233 f2bc
000002b0: 4ef3 e83c d898 87bd 57ca ebbe 235d 36bd
000002c0: 3634 92bd 70c7 29bb 39a4 85bd a68f f3bd
000002d0: 31a7 93bd 39e5 16bd e8cd 45bc a154 a3bd
000002e0: a7c1 dbbc a547 b3bc 2da3 a4bc 0f5c 55bd
000002f0: 3ad4 48bd 0408 05bc 40ef b7be 84fe 2ebe
00000300: a00c 8fbc 4ce6 fcbc a2f7 53bd 8b38 35bd
00000310: 2bd2 0fbd de2a 02be 8ddd 91bd eba0 16bd
00000320: adbd 4cbd ee74 28bd 00bd 48bd d46f a8bc
00000330: c23f a8bd d819 b9bc f3ff 25bd e080 85bd
00000340: f953 c8bd 7dd9 23bd e1c1 92bc 3148 3bbe
00000350: 3df1 00bd 02fe 64bb 47f2 63bc c43c a2be
00000360: 9a20 d3bc 6b0d d8bc 5522 bcbb a2a0 29bd
00000370: 2eb9 11bd aece 3cbd 6200 1fbd 2008 68bd
00000380: 1a19 15bd 3eea 71bc 77b9 a2bd 17ed a4be
00000390: 0d80 12bd 5ad8 fcbc f329 79bd 060f 4cbd
000003a0: 2cd8 46bd 2b9a 36be deec 8cbd 9c49 f1bb
000003b0: c47c eabc 48d3 5bbd 7652 7dbd 85dc 37bd
000003c0: 0ec5 22be 0592 c83d 259c b3bc fe8b aa3c
000003d0: 9f46 92bc 4c8e 77bd c1ff 63be e3c6 9cbb
000003e0: 8309 91be dc15 cbbc ead0 e8bd 84b2 adbd
000003f0: eb68 84bc 4147 ae3d 14b4 05bf a1ba 9abd

critic_linear.weight f4 [1, 256]
-0.0051228837 -0.047274515 -0.08528287 0.0004660664 0.001967817 0.0033469242 0.0005004967 -0.062312387
0.0005278809 -0.0009313122 0.00051755086 0.0392813 -0.0015952125 -0.0013457397 -0.001964167 -0.0016770117
-0.0035504964 0.003919779 0.00014575693 0.0023020613 -0.0014716934 0.00043983397 0.0018464713 -0.0006492334
-0.00059240387 -0.008652656 0.0030089081 -0.0009941976 0.001603193 0.033385348 -0.0037820565 0.002621326
0.0018443061 -0.0038923272 0.021847308 -0.03046121 -0.0010870907 0.0021471314 0.0018525233 0.002486482
0.0020904448 -0.004590241 0.00052611897 -0.0017403179 0.002901902 -0.0016104678 0.036768135 0.0027245737
0.00079475064 -0.00125594 -0.0030671079 0.0030021372 -0.010636637 0.0018845841 -0.00019517523 -0.00037370872
0.0011254135 -0.0026102806 -0.0019962108 -0.00042609178 -0.00964281 0.00085859303 0.14543545 0.0018715842
0.0011445315 -0.0003971 0.0057834336 0.015680999 0.0013891354 -0.0031069503 0.004613673 0.00029394377
-0.00053041335 0.023792252 -0.00021864107 0.019320311 0.00037112753 -0.0017538139 -4.1394313e-05 0.022536967
-0.0013598092 0.0001804007 0.0052864896 -0.006189425 -0.0022512488 -0.0035399715 0.0026744113 -0.0006797618
0.028425578 0.015170034 -0.0024102114 0.002152435 -0.0028482391 -0.004773292 0.016265804 0.0007386925
0.00041217922 0.0352488 0.002761672 0.0012825003 0.00019986642 6.334513e-05 0.002123331 -0.00064795447
-0.0059996536 -0.004632451 -0.0020253633 0.017836263 -0.026846752 0.028560353 0.001310167 -0.0014526627
0.00013787762 -0.0005293321 0.00057854556 0.0014604605 -0.004735962 -0.003710664 0.0017137117 -0.0003073649
0.007916622 -0.00021611174 0.001734312 -0.00016505786 -0.001995346 0.0028470412 -0.0032933804 0.0010275657
-0.014370753 0.0025643897 0.0041809105 0.0026157885 0.030830598 -0.004024973 0.040203355 -0.0033831277
0.000131161 -0.045651414 -0.00084387325 -0.0059587723 0.0018553196 -0.0034711424 -0.00088941224 0.0024806394
-0.0012931175 0.001900114 -0.08006392 0.0035343817 -0.0035546944 0.0057252795 0.00020636745 -0.00359302
0.0017782924 -0.00011702182 -0.00510069 -0.0032186443 0.0012310648 -0.0061170743 0.0007299946 0.003495621
-0.00085369824 -0.0024774524 -0.016065368 0.00059188093 -0.003373921 -0.0026656946 -0.018851556 0.0005461382
0.0020594446 0.023335228 -0.0017879233 -0.0027289535 -0.0012664133 -0.0014015699 -0.08337341 0.0009314434
0.0007908325 0.022758527 -0.003191624 0.023626698 0.00019932678 0.0017116079 0.0060002594 0.0009454221
0.0036641993 0.00021123547 0.0046442864 0.0008764637 0.0010282334 0.00046781646 -0.04295894 -0.013841912
-0.001718054 0.0022117295 0.00019259137 0.0039980714 -0.0026222127 -0.009213154 0.0057540177 0.0019902538
0.004236689 0.004638757 -0.0016049575 -4.8093236e-05 0.027697423 0.0021432326 0.004122806 0.0009076582
-0.008103084 -0.0016843067 -0.00014900173 -0.0033437314 0.01700635 6.191874e-05 5.6552744e-05 0.0007679709
0.00034662313 -0.0010200664 0.002001767 0.0047139158 0.002120832 -0.0017673097 0.00028495525 -0.0006830036
-0.0006588844 0.00033119626 -0.003128949 -0.00761237 -0.00060854957 0.0016650831 0.00047602432 -0.0017976303
0.0064736223 -5.273088e-05 -0.00062139885 -0.003493859 0.00050967705 0.002105447 0.0022510446 -0.0024759262
0.012368211 0.027282216 0.003504865 0.012330971 -7.468833e-05 0.0060585365 0.014788722 -0.00032903263
-0.028921297 -0.006472069 0.000623438 0.0020679052 0.00074650807 0.020909965 -0.073457725 -0.0019871667
00000000: dddd a7bb eca2 41bd c9a8 aebd 605a f439
00000010: 7ef6 003b 1258 5b3b c433 033a 463b 7fbd
00000020: 7d61 0a3a 4e23 74ba 40ac 073a 6ee5 203d
00000030: 7316 d1ba 8863 b0ba 41b9 00bb 2dcf dbba
00000040: 72af 68bb 7d71 803b 54d6 1839 2ede 163b
00000050: d6e5 c0ba 8499 e639 4c05 f23a 5131 2aba
00000060: 8d4b 1bba dfc3 0dbc 1a31 453b bc4f 82ba
00000070: 3b22 d23a 13bf 083d 61dc 77bb 8dca 2b3b
00000080: a5bc f13a 6a16 7fbb 20f9 b23c ca89 f9bc
00000090: b67c 8eba e3b6 0c3b 5ed0 f23a 3ff4 223b
000000a0: d8ff 083b bb69 96bb 3feb 093a 611b e4ba
000000b0: d62d 3e3b 5516 d3ba 2f9a 163d c38e 323b
000000c0: d056 503a 5a9e a4ba 8801 49bb 81bf 443b
000000d0: 4a45 2ebc 2604 f73a f4a7 4cb9 56ee c3b9
000000e0: 9c82 933a 3e11 2bbb dcd2 02bb 1265 dfb9
000000f0: e0fc 1dbc 3413 613a 08ed 143e f24f f53a
00000100: 1b04 963a dc31 d0b9 f582 bd3b 7075 803c
00000110: a613 b63a fa9d 4bbb 4b2e 973b 771c 9a39
00000120: 700b 0bba f8e7 c23c 0443 65b9 a145 9e3c
00000130: e593 c239 3be0 e5ba ce9e 2db8 729f b83c
00000140: a03b b2ba f229 3d39 4a3a ad3b a9d0 cabb
00000150: b089 13bb defe 67bb 2d45 2f3b 0b32 32ba
00000160: c2dc e83c bc8b 783c a3f4 1dbb de0f 0d3b
00000170: 86a9 3abb 4769 9cbb dd3f 853c d1a4 413a
00000180: c219 d839 0c61 103d 2bfd 343b 9219 a83a
00000190: 3c93 5139 28d8 8438 9527 0b3b 7ddb 29ba
000001a0: be98 c4bb d1cb 97bb f5bb 04bb 5b1d 923c
000001b0: b8ed dbbc 67f7 e93c e9b9 ab3a 4667 beba
000001c0: 3e93 1039 e0c2 0aba 89a9 173a ec6c bf3a
000001d0: 2130 9bbb 9d2e 73bb 9f9e e03a d225 a1b9
000001e0: b8b4 013c 0e9c 62b9 db51 e33a 6213 2db9
000001f0: 5ac4 02bb 6d95 3a3b c1d5 57bb 62af 863a
00000200: 4f73 6bbc 520f 283b 0500 893b a66d 2b3b
00000210: 7390 fc3c ece3 83bb 46ac 243d 77b7 5dbb
00000220: 4388 0939 fafc 3abd 6037 5dba ce41 c3bb
00000230: 322e f33a 1b7c 63bb 7227 69ba 3992 223b
00000240: d37d a9ba 3f0d f93a 8df8 a3bd 16a1 673b
00000250: e0f5 68bb 209b bb3b 5764 5839 df78 6bbb
00000260: 9715 e93a 9c69 f5b8 b023 a7bb e4ef 52bb
00000270: ae5b a13a bd71 c8bb 1c5d 3f3a ca16 653b
00000280: b8ca 5fba c15c 22bb 859b 83bc 7528 1b3a
00000290: 001d 5dbb efb2 2ebb 946e 9abc b72a 0f3a
000002a0: bff7 063b 8529 bf3c c058 eaba 3ed8 32bb
000002b0: c7fd a5ba e2b4 b7ba aebf aabd 1c2c 743a
000002c0: df4f 4f3a 1770 ba3c 912a 51bb c78c c13c
000002d0: 6002 5139 0858 e03a d39d c43b 34d6 773a
000002e0: 1023 703b 177f 5d39 192f 983b 7cc2 653a
000002f0: cac5 863a 4345 f539 b7f5 2fbd 30c9 62bc
00000300: 5330 e1ba aaf2 103b 5af2 4939 4102 833b
00000310: 6ed9 2bbb c5f2 16bc 338c bc3b eb6e 023b
00000320: ecd3 8a3b b700 983b 705d d2ba b8b7 49b8
00000330: b5e5 e23c 7a75 0c3b 9a18 873b e9ef 6d3a
00000340: ccc2 04bc f4c3 dcba 593d 1cb9 8122 5bbb
00000350: e750 8b3c 5fda 8138 0c33 6d38 a851 493a
00000360: f8ba b539 c0b3 85ba 1430 033b 3177 9a3b
00000370: a8fd 0a3b 13a5 e7ba 0c66 9539 990b 33ba
00000380: fcb8 2cba 69a4 ad39 0e0f 4dbb 3071 f9bb
00000390: 1287 1fba eb3e da3a e792 f939 779e ebba
000003a0: ae20 d43b 5a2b 5db8 5fe5 22ba 3af9 64bb
000003b0: d99b 053a 8afb 093b 4386 133b 2643 22bb
000003c0: 09a4 4a3c f47e df3c e1b1 653b d707 4a3c
000003d0: fea1 9cb8 b086 c63b 654c 723c 0382 acb9
000003e0: 5bec ecbc a613 d4bb 376e 233a b185 073b
000003f0: 4fb1 433a 604b ab3c 0171 96bd 203b 02bb
