21-A3C-Pong/runs/BreakoutNoFrameskip-v4/2022-11-03_16-23_Second80MSteps_OK/model_sam_BreakoutDeterministic-v4_conv.60.tar (torch, 944955 bytes, 13 tensors)

conv1.weight f4 [32, 4, 3, 3]
0.135842 -0.5221714 -0.22175033 0.17519431 -0.18793873 0.28182182 0.15173154 0.18887627
0.17849742 0.08859277 0.051246926 0.007889602 0.18547216 -0.0680176 0.108501054 0.13188119
0.12819687 0.24995111 0.12967375 0.21067365 0.22120625 -0.30868006 -0.011126344 0.19648372
-0.017042473 -0.16374679 0.02860731 -0.026911076 -0.26972103 0.13344109 -0.27927837 -0.1526795
0.15631117 -0.22793674 -0.48022944 -0.21172956 0.15556031 -0.111357406 -0.11406048 0.042689368
0.51154333 -0.25986165 0.34769484 0.3616294 -0.45092905 0.10798081 0.1607469 -0.084331036
0.059438374 0.5131169 -0.32242846 0.071293175 0.46263987 -0.28172433 0.09908654 0.22793643
-0.08258569 -0.21307674 0.51143223 0.010689947 -0.24426411 0.35389826 -0.030314114 -0.028956186
-0.33332068 -0.17384963 -0.31750083 -0.13985583 -0.2567525 -0.2873946 -0.14521709 -0.2096053
0.08788087 0.07738528 -0.023202235 0.12385171 0.06459662 -0.092347905 -0.10453078 0.22570392
-0.071442634 0.13060825 0.040247582 -0.1881497 0.43480733 -0.23573892 -0.5601248 0.10019859
-0.06533136 -0.0052259327 0.24499734 -0.2011037 -0.16362281 0.51619124 -0.2194227 -0.5190252
0.116913736 0.07524861 -0.24104528 0.1041978 0.10700409 -0.16512273 0.28412756 0.13309264
-0.21966885 -0.13604721 0.24581942 -0.052108716 0.37013894 0.18306781 0.20741384 0.35993418
0.61552244 0.0758575 0.18481444 0.43535656 0.14450282 0.1124954 -0.15166758 -0.010554469
-0.030573605 0.30983725 0.37254378 -0.065537155 0.21391706 0.013499362 -0.29967597 -0.36228904
0.12038047 -0.13252161 -0.36903647 -0.1034611 0.001957149 -0.055274032 -0.04391364 0.0052771284
-0.19335568 -0.016233874 -0.36412263 -0.5088421 -0.2829129 -0.19214073 -0.4052413 -0.21171992
0.053031195 -0.02517415 0.0024025592 0.19669895 0.49633914 0.29052976 0.01209046 0.2355847
0.18554078 -0.17854774 -0.64963406 -0.35132083 -0.46404558 -0.48755762 -0.39489666 -0.15167545
-0.31513482 -0.069613636 0.12958725 0.15647876 -0.023614198 -0.17708394 -0.29285026 -0.14570658
-0.11972908 -0.32052988 -0.12495747 0.22348058 0.39012885 0.13253441 0.2137557 0.6024691
0.32076457 0.22866856 0.092808396 0.2943835 -0.09552399 -0.21865693 -0.16789407 -0.39185277
-0.48120433 0.004797709 -0.45872888 -0.40894768 -0.06844821 0.053648002 0.12397882 -0.03714611
-0.019032398 0.13876714 0.12304305 -0.18360008 -0.033275537 0.056513995 0.27264285 -0.13719599
-0.040747426 0.13433935 0.35867468 0.034429 0.29835895 0.1774105 0.005088374 0.09638444
0.12678704 0.038632892 0.018096652 0.13224255 -0.17866193 0.21741685 0.2678916 0.22927934
0.15536648 -0.061128125 0.035890482 0.19189164 -0.103326365 -0.04320674 -0.107914776 -0.012523093
-0.060944647 0.09501465 0.46062765 0.2838846 0.52397066 0.8449745 0.049293842 -0.07058842
0.33229947 -0.13834704 -0.21865295 0.0102902595 -0.21105981 0.19937469 0.3499039 -0.45156452
-0.11832603 0.22566661 -0.040069018 -0.26772985 -0.30482602 -0.14100055 -0.46631488 -0.5208284
-0.4234479 0.084610544 0.028045872 -0.100565925 0.101294056 0.21619569 0.2693138 0.028084435
00000000: 2a1a 0b3e 06ad 05bf 8512 63be 2366 333e
00000010: 0373 40be f34a 903e 835f 1b3e c868 413e
00000020: 07c8 363e 2070 b53d 4ce8 513d 6443 013c
00000030: 6aec 3d3e d04c 8bbd cd35 de3d dd0b 073e
00000040: 0a46 033e 2ff3 7f3e 32c9 043e d5ba 573e
00000050: e483 623e 500b 9ebe 454b 36bc 0733 493e
00000060: a89c 8bbc 3dad 27be e159 ea3c 9e74 dcbc
00000070: e018 8abe c8a4 083e 93fd 8ebe 0458 1cbe
00000080: 0910 203e 4068 69be a2e0 f5be a2cf 58be
00000090: 344b 1f3e 5a0f e4bd 8a98 e9bd 0cdb 2e3d
000000a0: 81f4 023f 960c 85be 0f05 b23e 7d27 b93e
000000b0: 2ce0 e6be 0b25 dd3d d69a 243e c0b5 acbd
000000c0: a775 733d a15b 033f 5815 a5be 2802 923d
000000d0: 22df ec3e 2c3e 90be e2ed ca3d 2b68 693e
000000e0: b022 a9bd ca30 5abe 39ed 023f e324 2f3c
000000f0: 5f20 7abe 2732 b53e 4e55 f8bc 8635 edbc
00000100: 02a9 aabe a305 32be 788f a2be 5e36 0fbe
00000110: 1075 83be 6325 93be cab3 14be c6a2 56be
00000120: e3fa b33d 2c7c 9e3d 9d12 bebc f7a5 fd3d
00000130: 3c4b 843d e620 bdbd 3c14 d6bd ee1e 673e
00000140: 8450 92bd 2bbe 053e a6da 243d 51aa 40be
00000150: 119f de3e 8b65 71be 5764 0fbf eb34 cd3d
00000160: 73cc 85bd 4d3e abbb 95e0 7a3e 21ee 4dbe
00000170: bd8c 27be 1c25 043f 58b0 60be d6de 04bf
00000180: 7870 ef3d f11b 9a3d 93d4 76be a865 d53d
00000190: f624 db3d ef15 29be 2b79 913e 7049 083e
000001a0: dff0 60be f64f 0bbe 16b8 7b3e f36f 55bd
000001b0: da82 bd3e 2176 3b3e 4b64 543e 4b49 b83e
000001c0: e192 1d3f 2d5b 9b3d ff3f 3d3e 0ee7 de3e
000001d0: 8cf8 133e fd63 e63d bf4e 1bbe a7ec 2cbc
000001e0: 7f75 fabc fda2 9e3e 0fbe be3e 5838 86bd
000001f0: 130d 5b3e 6e2c 5d3c 216f 99be f37d b9be
00000200: 098a f63d bfb3 07be 59f2 bcbe 6ae3 d3bd
00000210: 8343 003b 0667 62bd cade 33bd c3eb ac3b
00000220: 08ff 45be e7fc 84bc 486e babe 7a43 02bf
00000230: f6d9 90be 8ac0 44be ca7b cfbe 1bcd 58be
00000240: 3d37 593d 053a cebc 4174 1d3b 736b 493e
00000250: 2a20 fe3e 51c0 943e 1117 463c 1e3d 713e
00000260: 67fe 3d3e 38d5 36be 6b4e 26bf 53e0 b3be
00000270: 6297 edbe 27a1 f9be e52f cabe cf50 1bbe
00000280: 5a59 a1be 9891 8ebd 85b2 043e f83b 203e
00000290: 9072 c1bc 7e55 35be 78f0 95be 1b34 15be
000002a0: 8534 f5bd 7e1c a4be b4e9 ffbd 18d8 643e
000002b0: f8be c73e 1ab7 073e c6e2 5a3e 6a3b 1a3f
000002c0: 413b a43e 1728 6a3e 5412 be3d 6fb9 963e
000002d0: 15a2 c3bd 9ae7 5fbe 6cec 2bbe eda0 c8be
000002e0: 6a60 f6be 1a36 9d3b 83de eabe 9761 d1be
000002f0: 932e 8cbd 02be 5b3d 9ce8 fd3d 8526 18bd
00000300: d5e9 9bbc f918 0e3e fffd fb3d a901 3cbe
00000310: ee4b 08bd 387b 673d d897 8b3e 1b7d 0cbe
00000320: c6e6 26bd 4190 093e 35a4 b73e 6c05 0d3d
00000330: 81c2 983e 19ab 353e 60bc a63b 3565 c53d
00000340: 76d4 013e 863d 1e3d 6e3f 943c 976a 073e
00000350: 27f3 36be 86a2 5e3e 1629 893e 34c8 6a3e
00000360: 6418 1f3e 7c61 7abd e601 133d 3e7f 443e
00000370: c69c d3bd 8df9 30bd 6c02 ddbd a92d 4dbc
00000380: 18a1 79bd 0a97 c23d 63d7 eb3e 5359 913e
00000390: f122 063f 4050 583f 57e8 493d a990 90bd
000003a0: 2823 aa3e d9aa 0dbe 8fe6 5fbe 7a98 283c
000003b0: 1020 58be e128 4c3e 9b26 b33e 7733 e7be
000003c0: eb54 f2bd 2615 673e 691f 24bd e313 89be
000003d0: 2812 9cbe 7362 10be d3c0 eebe 0355 05bf
000003e0: 2ace d8be 4b48 ad3d 75c0 e53c 82f5 cdbd
000003f0: 4273 cf3d 6762 5d3e 80e3 893e 5411 e63c

conv1.bias f4 [32]
0.0046667624 -0.007318697 0.0015128315 0.0022075782 -0.0034511911 -0.0011571138 0.00310633 0.0014990045
0.00064162875 0.0048832535 0.0012453891 0.0007345194 0.0019659323 0.0007711086 -0.0004130989 0.012043686
0.0011634041 0.003971295 -0.0004792511 0.009788896 -0.00819078 0.00035324934 0.0038352406 -0.0038173802
-0.0008625581 0.0047705076 0.0013399728 0.0034482079 0.002041498 0.010129218 -0.0060132626 0.006262976
00000000: a4eb 983b aed1 efbb 344a c63a 04ad 103b
00000010: 612d 62bb 4caa 97ba 9293 4b3b 3f7a c43a
00000020: fa32 283a b303 a03b 533c a33a c38c 403a
00000030: dfd6 003b 3924 4a3a 3295 d8b9 e152 453c
00000040: 5d7d 983a a321 823b fe43 fbb9 9b61 203c
00000050: 9f32 06bc 5334 b939 a958 7b3b 032d 7abb
00000060: 4b1d 62ba eb51 9c3b 07a2 af3a 54fb 613b
00000070: a7ca 053b 05f5 253c e70a c5bb a739 cd3b

conv2.weight f4 [32, 32, 3, 3]
0.14172122 -0.11205472 0.07653052 -0.116612546 0.095134914 0.2479174 0.063515715 0.11663206
-0.20300674 0.18254542 -0.31684333 0.14192337 0.18979569 -0.22315276 0.1402566 -0.13182256
0.18710157 -0.013366255 -0.029157087 0.044976182 -0.040274646 0.14994562 0.06835908 -0.5606282
-0.12394029 -0.005597216 0.3457519 0.20012978 -0.10631836 0.14026856 0.15774558 0.086962044
0.32109156 0.08055714 0.21329126 -0.2681077 -0.018676555 -0.068438314 -0.26727012 -0.004694584
-0.21595193 -0.16313313 -0.0118746795 0.030863196 -0.10138838 -0.3212977 0.25048676 -0.09573544
0.03290598 0.04927058 0.10039492 0.09183696 0.10138264 -0.20021418 0.008077981 -0.14711726
0.1524107 0.24126297 -0.0176675 0.17209484 -0.1927692 -0.07027732 -0.08064361 -0.1444615
0.07554759 0.21499968 -0.24091 0.21298899 0.22553252 -0.03503583 0.15204261 -0.17941353
0.018097768 -0.051390983 -0.004545639 -0.18490957 -0.17071508 0.18190773 0.021940382 -0.063202195
0.0316236 0.017411998 0.12197444 -0.27939656 -0.2715934 -0.23852319 -0.468744 0.035055406
0.028875832 0.44831383 -0.09389291 -0.1303672 0.04980627 -0.096131384 0.1036609 -0.050218076
-0.019993497 0.18256538 -0.0872797 -0.15374202 0.064972185 0.08695751 0.118242525 0.10721895
-0.47993556 -0.09471245 0.12099797 -0.0003209609 0.05269887 0.002969414 0.23460643 0.0032617417
0.05712119 0.23370273 -0.07584974 -0.046560705 0.05894683 0.189407 0.22305626 0.27387854
-0.08413423 -0.1749604 0.29329562 0.0011292868 -0.15453005 -0.03761096 0.19441432 0.054973092
-0.2689019 0.055356704 0.017260194 -0.20693007 -0.10242246 0.09360019 0.07699081 0.16811582
-0.030907534 0.041627917 0.059622694 0.07747567 -0.18511388 0.13341433 -0.049270302 -0.09340661
-0.18059339 0.043292806 0.026370415 0.07066548 -0.22041932 0.07643165 -0.009083386 0.17201586
-0.09175892 0.075937 -0.00038465692 0.11853089 -0.04421725 -0.0055630966 0.05399264 -0.027738616
-0.2282175 0.026162298 0.26916733 0.08050528 -0.004207384 0.074163646 -0.08300531 -0.053289913
-0.26210788 0.034932952 -0.0142373545 -0.004857004 0.013092307 -0.26804474 0.028563194 0.07323653
-0.3692498 -0.037838463 0.022551313 0.2504485 0.034340482 0.059538577 0.17409217 -0.22502825
0.17087527 0.62080294 -0.07124964 0.108404815 -0.28845215 0.13503471 0.08708441 0.23667097
0.14696194 0.1333787 0.006468662 -0.06933641 -0.039387356 0.06717844 0.12836953 -0.06487572
0.06659103 -0.39692837 0.13559733 0.14512117 0.067088135 -0.07122067 -0.04864859 0.10594285
-0.22045822 0.14865205 -0.19575591 0.4425504 -0.22149175 -0.07853091 -0.24676697 0.3137156
-0.213536 0.027517073 -0.09006988 0.08667534 0.13816889 0.15594772 0.12142743 -0.103655785
-0.08553911 0.18832923 0.50567186 0.03359625 -0.27741018 0.18917824 -0.07292317 0.05726732
-0.066348046 -0.2142667 0.014148032 -0.16014521 -0.23099448 -0.24518344 -0.04159167 0.21526378
0.07641955 0.07448387 -0.17174469 0.09347402 0.11475085 0.008958629 -0.22848712 0.22812034
0.4221242 -0.0068828426 0.21046275 -0.21053928 0.08176136 -0.21561748 -0.0033948862 -0.041807145
00000000: 5e1f 113e f27c e5bd 09bc 9c3d 8fd2 eebd
00000010: 18d6 c23d 0fde 7d3e 8714 823d cadc ee3d
00000020: 00e1 4fbe 30ed 3a3e 4a39 a2be 5c54 113e
00000030: cd59 423e 2882 64be 6d9f 0f3e 7efc 06be
00000040: 8e97 3f3e 23fe 5abc d8da eebc f238 383d
00000050: 07f7 24bd 588b 193e d8ff 8b3d 5485 0fbf
00000060: 68d4 fdbd da68 b7bb 6506 b13e d2ee 4c3e
00000070: 71bd d9bd 90a2 0f3e 0f88 213e 2819 b23d
00000080: 1d66 a43e 24fb a43d 0669 5a3e 6a45 89be
00000090: 93ff 98bc 6329 8cbd a1d7 88be 06d5 99bb
000000a0: 8122 5dbe 5f0c 27be 048e 42bc d0d4 fc3c
000000b0: b6a4 cfbd 2281 a4be cd3f 803e f110 c4bd
000000c0: 6cc8 063d f3cf 493d da9b cd3d 0415 bc3d
000000d0: b4a1 cf3d f204 4dbe 8259 043c e8a5 16be
000000e0: 8d11 1c3e a40d 773e 6fbb 90bc a139 303e
000000f0: 4a65 45be 8eed 8fbd 7a28 a5bd b7ed 13be
00000100: b2b8 9a3d e028 5c3e 1cb1 76be c919 5a3e
00000110: fff1 663e bb81 0fbd 0fb1 1b3e 2eb8 37be
00000120: c541 943c 5a7f 52bd 95f3 94bb ef58 3dbe
00000130: efcf 2ebe 0546 3a3e 51bc b33c 2770 81bd
00000140: bf87 013d 9ba3 8e3c bccd f93d 110d 8fbe
00000150: 4a0e 8bbe 6c3f 74be 37ff efbe 4296 0f3d
00000160: 028d ec3c 6489 e53e ed4a c0bd fb7e 05be
00000170: a901 4c3d 88e0 c4bd 2a4c d43d 78b1 4dbd
00000180: 67c9 a3bc 6bf2 3a3e b3bf b2bd 8c6e 1dbe
00000190: 2310 853d c716 b23d 2329 f23d 9c95 db3d
000001a0: 1dba f5be 9af8 c1bd c9cd f73d a546 a8b9
000001b0: c5da 573d 809a 423b ab3c 703e f2c2 553b
000001c0: e9f7 693d c54f 6f3e 1c57 9bbd 70b6 3ebd
000001d0: 3b72 713d e9f3 413e dc68 643e cf39 8c3e
000001e0: 914e acbd d228 33be d82a 963e 9404 943a
000001f0: 203d 1ebe f30d 1abd 8c14 473e 772b 613d
00000200: 83ad 89be b6bd 623d 4065 8d3c 7ae5 53be
00000210: dec2 d1bd 75b1 bf3d 5cad 9d3d 8e26 2c3e
00000220: cc31 fdbc 0982 2a3d ed36 743d 90ab 9e3d
00000230: 7e8e 3dbe c49d 083e a8cf 49bd f74b bfbd
00000240: 79ed 38be cc53 313d c506 d83c 10b9 903d
00000250: 9ab5 61be 3288 9c3d 7bd2 14bc ed24 303e
00000260: 1aec bbbd dc84 9b3d c7ab c9b9 53c0 f23d
00000270: 261d 35bd a34a b6bb 6327 5d3d 183c e3bc
00000280: d9b1 69be 5152 d63c 4dd0 893e f4df a43d
00000290: 18de 89bb 1ce3 973d b0fe a9bd 8646 5abd
000002a0: 0133 86be db15 0f3d cb43 69bc 8127 9fbb
000002b0: 1e81 563c 293d 89be 5cfd e93c 09fd 953d
000002c0: 4f0e bdbe 81fc 1abd 88bd b83c c93a 803e
000002d0: 9ba8 0c3d b9de 733d 3845 323e ce6d 66be
000002e0: edf9 2e3e f1ec 1e3f 55eb 91bd 5803 de3d
000002f0: 00b0 93be 8a46 0a3e 5059 b23d e059 723e
00000300: 317d 163e 6d94 083e 12f7 d33b 3f00 8ebd
00000310: a354 21bd da94 893d 4d73 033e 90dd 84bd
00000320: e160 883d 323a cbbe 07da 0a3e a59a 143e
00000330: 8165 893d 25dc 91bd be43 47bd 91f8 d83d
00000340: cdbf 61be 3e38 183e 3d74 48be f795 e23e
00000350: bcce 62be d0d4 a0bd 7bb0 7cbe 559f a03e
00000360: 2ea9 5abe 7c6b e13c 8f76 b8bd d782 b13d
00000370: 257c 0d3e c2b0 1f3e f2ae f83d 7c49 d4bd
00000380: 212f afbd 61d9 403e b673 013f 399c 093d
00000390: b508 8ebe f1b7 413e be58 95bd 2391 6a3d
000003a0: 7ce1 87bd bb68 5bbe 26cd 673c 1bfd 23be
000003b0: d189 6cbe 5e11 7bbe 075c 2abd 1c6e 5c3e
000003c0: da81 9c3d 008b 983d d7dd 2fbe 4f6f bf3d
000003d0: 7e02 eb3d 37c7 123c 87f8 69be 6198 693e
000003e0: aa20 d83e 7889 e1bb 8c83 573e 9c97 57be
000003f0: 8072 a73d d4ca 5cbe bd7c 5ebb f83d 2bbd

conv2.bias f4 [32]
-0.033103574 -0.16329502 -0.005785823 -0.0235487 -0.054448027 -0.028590076 -0.014794784 -0.075726025
-0.09580578 -0.123330414 0.0017300261 0.010252197 -0.016789306 -0.11676244 -0.021725556 0.007895414
0.027392788 -0.024147855 -0.061197314 -0.100093514 -0.20107645 0.0011368166 0.0028221381 -0.045153122
-0.108405024 0.02070914 -0.022338048 0.0040914067 0.009822494 -0.060092438 -0.06680454 -0.15651156
00000000: 9d97 07bd cf36 27be 0097 bdbb 34e9 c0bc
00000010: e504 5fbd bc35 eabc d265 72bc 3f16 9bbd
00000020: d235 c4bd a894 fcbd 0bc2 e23a d5f8 273c
00000030: ba89 89bc 2521 efbd cbf9 b1bc c45b 013c
00000040: d766 e03c b9d1 c5bc 09aa 7abd d4fd ccbd
00000050: fce6 4dbe 3c01 953a 9ff3 383b 7bf2 38bd
00000060: 7403 debd 37a6 a93c 48fe b6bc 3511 863b
00000070: 87ee 203c 7d23 76bd d2d0 88bd 9144 20be

conv3.weight f4 [32, 32, 3, 3]
-0.051944982 -0.18479027 -0.2790145 -0.06880955 0.029246222 0.059801776 -0.020913031 0.11779571
0.048861615 -0.055959485 0.0769334 0.12333368 0.06257072 -0.26438972 -0.3636804 -0.051246654
-0.07053124 -0.029573565 -0.03627702 0.060398214 0.020006908 0.16308488 -0.088366084 -0.12141848
0.041301634 -0.10601427 0.11133716 0.00618712 0.012758978 0.045377336 -0.06500359 7.042888e-05
-0.14505073 0.1864441 -0.080236785 0.15400018 0.15486567 -0.072456375 0.07996511 0.049322464
0.06505846 0.0020717392 0.06620041 0.12579364 0.18497913 0.0789413 0.024084156 0.19784378
0.11142491 0.15214954 -0.01930026 -0.041924622 -0.030653728 0.08636165 0.10820678 0.10139896
0.002621711 0.0031198605 0.30339295 0.15325838 -0.022760201 -0.21610679 0.035733476 0.091065824
0.003188024 0.06924131 0.025450863 0.11742783 0.25590408 -0.040512525 0.10040093 -0.1503904
0.105286784 0.15666847 -0.052447855 -0.031467702 0.21131924 0.2321718 -0.3316812 -0.01860285
-0.1620858 -0.14473076 0.054691344 0.0024783826 -0.12278262 -0.10818361 -0.08447784 0.12839033
-0.08204268 0.2578581 -0.07356917 0.035806946 -0.007021922 0.10815045 -0.05104387 -0.049970616
-0.11630538 -0.105652295 -0.12512441 0.121734664 0.14736769 0.25346777 0.033332698 0.17238556
-0.028940804 -0.17093527 -0.16572295 -0.03652121 -0.12033495 0.10072164 0.03921707 0.15773404
0.12946717 0.3464537 -0.10344848 -0.17945376 -0.121509574 -0.113972895 -0.029997963 -0.05145964
0.17145042 -0.01897523 0.20300122 0.01578562 0.09388685 -0.083855264 -0.02628938 -0.06784225
-0.00081334455 0.16134621 0.07427217 -0.0912288 0.026071178 -0.18777135 0.09491117 0.03257462
0.11927433 -0.0024875542 -0.009358725 -0.36994213 0.04241009 -0.10948775 -0.28564665 -0.08847291
-0.06705133 0.1690628 0.094948545 -0.11918726 0.14131373 0.3869375 -0.055104423 -0.01132677
-0.19023333 -0.037343007 -0.17272368 0.05940619 0.03898771 -0.12781541 0.088333294 0.042146396
0.3255854 0.085672386 0.070801035 0.08192254 -0.2431078 -0.12281048 -0.21183066 0.0022507226
4.302994e-05 0.20821565 0.13178913 0.09682374 0.15433277 0.096671686 -0.093288735 0.13423587
0.0406899 -0.07588483 -0.4299044 -0.15950918 -0.0128589375 -0.08219424 -0.16788627 -0.12022455
0.05328518 0.13081686 0.04008564 0.045260333 0.043791022 -0.09346406 -0.042928815 0.13128741
0.044112965 -0.15522066 0.043268323 0.106663436 0.24311875 -0.11346032 -0.069674045 -0.12548311
0.03090825 0.05742297 0.38831043 0.14853047 -0.19178702 0.034367926 -0.21191226 -0.09995775
-0.06920606 0.09470135 0.06151622 -0.1328504 0.18631345 0.13441712 0.22651902 0.17228013
0.15436165 0.044874456 0.15168165 -0.10800155 -0.025230609 0.0037721125 -0.2679312 -0.17302398
-0.2018819 -0.069483615 0.123208486 -0.010826828 0.12636606 -0.043210305 0.4051399 -0.30939624
0.11318041 -0.45107415 0.0060864077 0.07236182 0.037453596 0.17115125 -0.027174473 -0.12956132
-0.005175294 0.13975807 -0.115543894 0.08603807 0.13068432 0.17335749 -0.10724311 0.06763324
0.04440154 -0.022154076 -0.33449256 -0.040275387 0.15491256 0.32388434 0.36038816 -0.13550952
00000000: 43c4 54bd a939 3dbe fdda 8ebe 05ec 8cbd
00000010: c695 ef3c b5f2 743d ce51 abbc e13e f13d
00000020: 1e23 483d c635 65bd 428f 9d3d 5e96 fc3d
00000030: 1425 803d 175e 87be 5134 babe 03e8 51bd
00000040: af72 90bd 4344 f2bc 3697 14bd 1e64 773d
00000050: 87e5 a33c b9ff 263e 47f9 b4bd 41aa f8bd
00000060: e72b 293d 021e d9bd bd04 e43d 53bd ca3b
00000070: 080b 513c 96dd 393d 9a20 85bd 38b3 9338
00000080: 2e88 14be 34eb 3e3e 2f53 a4bd 39b2 1d3e
00000090: 1b95 1e3e 0264 94bd bfc4 a33d 5a06 4a3d
000000a0: 5f3d 853d 04c6 073b 1594 873d 0cd0 003e
000000b0: 2b6b 3d3e faab a13d 234c c53c 8f97 4a3e
000000c0: be32 e43d 17cd 1b3e 941b 9ebc 27b9 2bbd
000000d0: 871d fbbc 60de b03d 849b dd3d 42aa cf3d
000000e0: 03d1 2b3b 9376 4c3b 5256 9b3e c4ef 1c3e
000000f0: 9a73 babc 194b 5dbe 445d 123d b880 ba3d
00000100: 2bee 503b 63ce 8d3d 547e d03c 017e f03d
00000110: dc05 833e 76f0 25bd 019f cd3d f1ff 19be
00000120: 99a0 d73d b36d 203e 90d3 56bd 47e4 00bd
00000130: 1264 583e 72be 6d3e 1ed2 a9be 0165 98bc
00000140: d2f9 25be 4d34 14be 0804 603d 5c6c 223b
00000150: 7475 fbbd 5e8f ddbd b802 adbd c178 033e
00000160: fe05 a8bd fa05 843e 6fab 96bd 4eaa 123d
00000170: 2718 e6bb fc7d dd3d 6113 51bd fdad 4cbd
00000180: 8431 eebd 3b60 d8bd 9d20 00be 0650 f93d
00000190: 8ee7 163e 87c6 813e de87 083d d785 303e
000001a0: 4415 edbc a809 2fbe 47b3 29be 4497 15bd
000001b0: 2c72 f6bd 2647 ce3d 14a2 203d 0885 213e
000001c0: 0b93 043e 6162 b13e ccdc d3bd bac2 37be
000001d0: 03da f8bd 9f6a e9bd 4abe f5bc 58c7 52bd
000001e0: b390 2f3e f171 9bbc 8ddf 4f3e d850 813c
000001f0: c047 c03d 4fbc abbd d35c d7bc e1f0 8abd
00000200: a136 55ba f137 253e 021c 983d 2ad6 babd
00000210: 3993 d53c 2247 40be ca60 c23d f76c 053d
00000220: 1a46 f43d 3c06 23bb 5655 19bc 0e69 bdbe
00000230: 34b6 2d3d 1d3b e0bd 4740 92be 4931 b5bd
00000240: 3552 89bd cc1e 2d3e 6274 c23d 7318 f4bd
00000250: 8cb4 103e ac1c c63e 2db5 61bd eb93 39bc
00000260: 87cc 42be fbf4 18bd 7ade 30be e853 733d
00000270: 94b1 1f3d 0be2 02be 16e8 b43d b3a1 2c3d
00000280: 21b3 a63e 0175 af3d 2200 913d 01c7 a73d
00000290: 40f1 78be 1084 fbbd 23ea 58be dc80 133b
000002a0: 0c7b 3438 7c36 553e bbf3 063e 864b c63d
000002b0: 6909 1e3e cefb c53d 2a0e bfbd 2175 093e
000002c0: 74aa 263d 8169 9bbd 6e1c dcbe 6056 23be
000002d0: 4bae 52bc 7455 a8bd 61ea 2bbe 4a38 f6bd
000002e0: 9041 5a3d dbf4 053e d730 243d e662 393d
000002f0: 375e 333d 166a bfbd 20d6 2fbd 3570 063e
00000300: ccaf 343d 2af2 1ebe 203a 313d 5c72 da3d
00000310: 1ff4 783e e25d e8bd 44b1 8ebd a57e 00be
00000320: 4c33 fd3c 5934 6b3d a0d0 c63e 5f18 183e
00000330: d163 44be 62c5 0c3d 87ff 58be a6b6 ccbd
00000340: e8bb 8dbd c8f2 c13d 6ff8 7b3d ef09 08be
00000350: f4c8 3e3e a4a4 093e 9af4 673e 346a 303e
00000360: fb10 1e3e 47ce 373d 6f52 1b3e eb2f ddbd
00000370: 6cb0 cebc 8c35 773b 472e 89be 332d 31be
00000380: 21ba 4ebe 6d4d 8ebd bb54 fc3d 0263 31bc
00000390: 1b66 013e 4afd 30bd 7f6e cf3e 2f69 9ebe
000003a0: 21cb e73d 31f3 e6be 7d70 c73b 6f32 943d
000003b0: f168 193d 4642 2f3e 009d debc b9ab 04be
000003c0: 8395 a9bb bd1c 0f3e 47a2 ecbd ba34 b03d
000003d0: 1cd2 053e a084 313e 47a2 dbbd 4c83 8a3d
000003e0: 64de 353d 777c b5bc 9c42 abbe cef7 24bd
000003f0: 66a1 1e3e 2bd4 a53e cc84 b83e 02c3 0abe

conv3.bias f4 [32]
-0.030803343 -0.110595606 0.0392543 0.047206037 -0.018030785 -0.09787811 0.15118663 -0.030401045
-0.20435634 0.12063349 -0.1304592 0.06875113 0.03498016 0.08076163 -0.22556198 -0.042744946
0.16313706 -0.014137602 -0.011626014 -0.04543372 -0.054081857 0.1102873 -0.12139325 0.06926011
-0.09589677 -0.11309706 -0.008600469 0.14521813 -0.10059288 -0.11418974 0.07472479 0.056663685
00000000: 4b57 fcbc f37f e2bd 1ec9 203d 1e5b 413d
00000010: 4cb5 93bc 5274 c8bd abd0 1a3e 9d0b f9bc
00000020: ca42 51be b10e f73d 1997 05be 64cd 8c3d
00000030: 5b47 0f3d 5a66 a53d b8f9 66be 5315 2fbd
00000040: 670d 273e 67a1 67bc 097b 3ebc b518 3abd
00000050: f084 5dbd 4fde e13d 069d f8bd 3fd8 8d3d
00000060: 8765 c4bd 6e9f e7bd fbe8 0cbc 10b4 143e
00000070: a403 cebd 4fdc e9bd 5009 993d 2e18 683d

conv4.weight f4 [32, 32, 3, 3]
-0.08823023 0.07258195 0.03931343 0.07574107 0.06226088 -0.12649924 -0.028443523 -0.11609945
-0.018384557 -0.08495295 0.046750788 0.00789131 -0.18393615 0.19068371 0.08544005 0.027057268
0.037292827 -0.08869927 -0.037236866 0.040325064 0.020388683 -0.016840834 -0.041891582 -0.117306255
0.0080770375 0.01767566 0.016049989 0.033710003 0.028784467 -0.23877889 0.033127576 -0.1657255
-0.050806727 0.028764581 0.21068658 0.042953454 0.02388597 0.066633694 0.12745184 -0.05062858
0.14293599 -0.1486437 0.012748801 -0.21352741 -0.08252941 -0.11527715 -0.0070705735 -0.018992105
0.08035275 -0.13694689 0.037956238 0.037482455 -0.0107592875 -0.113712914 -0.011783175 -0.04755313
0.16694781 0.15916032 0.0076116896 -0.21016216 -0.32280535 -0.09126947 0.0108716255 -0.028695982
0.056741882 -0.0959846 -0.027829746 0.060077805 -0.13090308 0.009247536 -0.087629594 -0.03602627
-0.05542616 0.166372 -0.14512889 0.045638666 -0.2381635 -0.048205644 0.024742646 0.14755309
0.09372425 0.072775416 -0.085505694 0.027686086 -0.12728246 0.08417111 -0.104460336 -0.04565216
-0.071807 -0.0091935275 0.09658039 -0.09518214 0.03041678 -0.13724153 -0.07468404 0.005411743
-0.028714031 0.115663104 0.08046644 0.07573983 0.032719802 -0.09848093 -0.08162064 -0.04449321
-0.22196849 0.0383743 -0.024736166 0.028352551 -0.09109103 -0.027456565 0.10985113 0.0037579231
-0.037519243 -0.08500383 -0.031139016 -0.09341075 -0.034299932 -0.11265505 -0.018247956 -0.013623878
-0.032540616 0.20388153 -0.15551575 0.025051575 -0.057704616 0.012728492 -0.014131411 0.11566483
-0.10753249 -0.04621268 -0.13694985 0.08375145 -0.018095229 -0.09940669 -0.05046421 0.00030960605
0.18865909 -0.13364291 0.11009678 -0.029419752 -0.084564194 -0.22582442 -0.0061406326 0.08225487
0.01067793 -0.05327774 -0.20180735 -0.1233879 0.17206988 -0.058805138 -0.093395814 -0.11240725
-0.0905193 -0.0038519402 0.07465029 -0.16353512 0.1410065 -0.20094915 -0.057779193 -0.23181506
0.02986224 0.020496286 0.10106037 0.08010494 0.0361765 -0.085656136 0.07742467 -0.13014823
-0.03934819 0.022301188 0.048809525 0.04124205 0.100610875 -0.078197375 0.0821517 -0.02311616
-0.08610286 -0.025341813 0.11035447 -0.038365297 0.050434913 0.32249057 -0.018164651 -0.22940624
0.07903801 0.13310763 -0.03530739 -0.014858496 -0.01316016 0.10057523 -0.2153628 0.1364313
-0.002602368 -0.10718701 -0.15651967 0.04301369 0.050218865 -0.025594667 0.005537945 -0.07192501
0.057644006 -0.037798613 0.13040808 -0.039087083 -0.004601787 -0.113413684 0.13358136 0.022947274
-0.009590161 0.19071358 0.114828385 -0.1255117 -0.18689401 -0.123205006 -0.07624238 0.16458389
0.055872142 -0.06515891 0.02306719 -0.117856815 0.086953126 -0.035303026 0.0066287257 0.039372686
0.045577228 0.13159761 0.021699198 -0.1401474 -0.054132268 0.18590693 0.055366278 0.084136344
-0.088087305 0.013042793 -0.01306941 -0.13251577 0.05280528 0.0012248654 0.08036611 -0.13974151
0.021814493 -0.06985321 0.055446155 0.036627196 -0.10747639 -0.007875644 0.06354841 0.14216088
-0.20977844 0.07566118 -0.0144361295 0.03689455 -0.01364988 -0.06952707 0.0232339 -0.032879982
00000000: 0db2 b4bd d8a5 943d 1f07 213d 221e 9b3d
00000010: 4405 7f3d 0489 01be 6402 e9bc 8cc5 edbd
00000020: 369b 96bc d0fb adbd c17d 3f3d 8e4a 013c
00000030: c259 3cbe 9742 433e 31fb ae3d 34a7 dd3c
00000040: 5dc0 183d f6a7 b5bd af85 18bd e52b 253d
00000050: 2b06 a73c caf5 89bc 8296 2bbd 433e f0bd
00000060: 8d55 043c 8ccc 903c 447b 833c 8013 0a3d
00000070: 67cd eb3c 7482 74be c8b0 073d f2b3 29be
00000080: b71a 50bd b3a3 eb3c 39be 573e f6ef 2f3d
00000090: 82ac c33c 3f77 883d bc82 023e ea5f 4fbd
000000a0: d05d 123e 0e36 18be 59e0 503c eea6 5abe
000000b0: 2e05 a9bd 6d16 ecbd 45b0 e7bb 5595 9bbc
000000c0: fc8f a43d ce3b 0cbe 0078 1b3d 3487 193d
000000d0: b947 30bc 51e2 e8bd 380e 41bc 12c7 42bd
000000e0: 5ef4 2a3e ecfa 223e 7b6b f93b c034 57be
000000f0: be46 a5be 7deb babd e71e 323c d613 ebbc
00000100: 2d6a 683d 9393 c4bd 35fb e3bc 2514 763d
00000110: 750b 06be fa82 173c 2577 b3bd 4890 13bd
00000120: 8b06 63bd 6c5d 2a3e ab9c 14be 9cef 3a3d
00000130: 22e1 73be 4873 45bd 17b1 ca3c 2818 173e
00000140: 80f2 bf3d 470b 953d 9c1d afbd eecd e23c
00000150: 5556 02be e761 ac3d 4def d5bd c2fd 3abd
00000160: 8c0f 93bd 73a0 16bc f1cb c53d dbee c2bd
00000170: 9c2c f93c 0b89 0cbe f2f3 98bd fe54 b13b
00000180: b039 ebbc c7e0 ec3d 97cb a43d 7c1d 9b3d
00000190: 3305 063d 5fb0 c9bd b928 a7bd 833e 36bd
000001a0: b54b 63be 5f2e 1d3d 80a3 cabc 9c43 e83c
000001b0: ef8d babd 97ec e0bc a1f9 e03d 7d47 763b
000001c0: c7ad 19bd 7d16 aebd 4017 ffbc 234e bfbd
000001d0: 167e 0cbd b1b7 e6bd bd7c 95bc b036 5fbc
000001e0: 4f49 05bd 52c6 503e 853f 1fbe f638 cd3c
000001f0: ad5b 6cbd 2a8b 503c 6f87 67bc afe1 ec3d
00000200: fe39 dcbd 8249 3dbd 953c 0cbe e185 ab3d
00000210: 723c 94bc bc95 cbbd 8fb3 4ebd 9f52 a239
00000220: d92f 413e b0d9 08be 6c7a e13d b101 f1bc
00000230: fe2f adbd 843e 67be 5c37 c9bb 3e75 a83d
00000240: 7cf2 2e3c c239 5abd 96a6 4ebe ccb2 fcbd
00000250: 1633 303e a8dd 70bd 4e46 bfbd c635 e6bd
00000260: 2f62 b9bd d570 7cbb 40e2 983d c075 27be
00000270: 0264 103e 9dc5 4dbe e0a9 6cbd ed60 6dbe
00000280: a8a1 f43c d4e7 a73c bdf8 ce3d 0f0e a43d
00000290: cf2d 143d 7c6c afbd d390 9e3d 9445 05be
000002a0: 912b 21bd fbb0 b63c 7fec 473d 6ced 283d
000002b0: 130d ce3d f225 a0bd 273f a83d 1a5e bdbc
000002c0: b256 b0bd a299 cfbc 8601 e23d ee24 1dbd
000002d0: d794 4e3d 7c1d a53e 09ce 94bc 78e9 6abe
000002e0: aede a13d 5e4d 083e 7b9e 10bd 0d71 73bc
000002f0: b69d 57bc 63fa cd3d 1188 5cbe a6b4 0b3e
00000300: 7d8c 2abb dd84 dbbd b146 20be 1f2f 303d
00000310: 4cb2 4d3d e8ab d1bc a677 b53b 6b4d 93bd
00000320: 1f1c 6c3d b8d2 1abd b289 053e c719 20bd
00000330: 96ca 96bb 6f45 e8bd 8dc9 083e ecfb bb3c
00000340: 0d20 1dbc 6c4a 433e 252b eb3d 2486 00be
00000350: 2561 3fbe e852 fcbd f724 9cbd ae88 283e
00000360: 30da 643d 0972 85bd 67f7 bc3c ea5e f1bd
00000370: 7b14 b23d e899 10bd c835 d93b 4145 213d
00000380: 30af 3a3d 86c1 063e 84c2 b13c cd82 0fbe
00000390: ccb9 5dbd 635e 3e3e c0c7 623d ad4f ac3d
000003a0: 1e67 b4bd 70b1 553c 1421 56bc 37b2 07be
000003b0: 594a 583d aa8b a03a fd96 a43d 6618 0fbe
000003c0: 4fb4 b23c 330f 8fbd 821b 633d 6606 163d
000003d0: 951c dcbd d808 01bc ab25 823d 9f92 113e
000003e0: 29d0 56be 40f4 9a3d 8485 6cbc bd1e 173d
000003f0: bfa3 5fbc 3564 8ebd 0555 be3c 29ad 06bd

conv4.bias f4 [32]
-0.11779518 0.11171149 -0.25752455 0.13136719 -0.09660493 -0.1634642 -0.27196816 -0.012456533
0.005352155 -0.22359757 -0.29031745 -0.15902138 -0.019095847 0.07280156 -0.10718106 -0.17803596
-0.21690567 0.05048657 -0.032327358 -0.07335261 -0.22535434 0.24077782 0.101898834 -0.14286196
0.09356269 -0.0062300796 0.084444575 -0.41151997 0.19401589 0.06121057 -0.16101004 -0.14525186
00000000: 993e f1bd fec8 e43d 42da 83be 1f85 063e
00000010: ced8 c5bd 2963 27be 693f 8bbe 7c16 4cbc
00000020: 2161 af3b c3f6 64be 7da4 94be 80d6 22be
00000030: e56e 9cbc fc18 953d be81 dbbd 0f4f 36be
00000040: 851c 5ebe 01cb 4e3d b169 04bd e539 96bd
00000050: 4ac3 66be 768e 763e 56b0 d03d 684a 12be
00000060: cc9d bf3d b225 ccbb 47f1 ac3d bfb2 d2be
00000070: 1aac 463e efb7 7a3d d1df 24be e7bc 14be

linear.weight f4 [256, 800]
0.032909576 -0.058613196 -0.022136595 0.056655187 -0.052620426 0.05271958 -0.032382634 -0.14266315
0.066457026 0.08978598 -0.08717262 -0.10469896 -0.067530185 0.017776182 -0.039945986 -0.026274148
0.026413633 0.0015132531 -0.055536438 0.050066736 -0.025164362 -0.034930337 0.017740801 -0.02258637
-0.0136282 0.10088238 0.08750156 -0.062166084 -0.018799286 -0.024557248 -0.069006965 0.0041843844
0.023798648 -0.22410779 0.03463708 0.006979366 -0.16547878 -0.08606805 -0.12584712 0.18775739
-0.031834222 0.11347508 -0.028120354 0.1406944 -0.032146502 0.03131763 0.0047603585 0.12501031
0.010172308 -0.07936322 0.037710976 0.012456544 -0.13839 0.0015908257 0.014408891 0.016286153
-0.07625138 -0.03249644 0.19725728 -0.35682163 -0.16691229 -0.13699834 -0.026681429 -0.14206283
-0.051433172 -0.10444396 -0.085921064 -0.06092578 0.06638555 -0.00955725 0.0858153 0.009288525
-0.019329684 0.071103774 0.031033864 -0.007348346 0.002058274 0.14402395 -0.014749705 -0.025560977
0.004870445 0.010675312 -0.010044201 -0.20889342 0.086329386 -0.16428483 0.006742088 0.080065444
0.04386836 -0.18561617 -0.2525459 0.07992017 0.17770621 0.2899221 -0.00929908 -0.06768238
-0.16393279 0.028350137 -0.17582726 -0.033948284 -0.06599687 -0.059609566 -0.001210557 -0.055444185
-0.13497595 -0.024018077 -0.10241872 0.08755392 -0.0011982305 -0.037430525 -0.0754344 -0.11323598
0.13543057 0.020777527 -0.14644143 0.08618554 0.03532272 0.04050953 0.019724462 0.078855306
-0.020958541 0.11946078 0.19078669 -0.22673759 -0.027063379 -0.05768852 0.009887431 0.14552417
-0.023187341 -0.083155036 0.044381358 0.07116006 0.018387245 -0.046806537 0.07481326 -0.06507137
-0.06883018 -0.115531355 -0.10352961 -0.102144234 -0.13462617 0.069719315 0.15735084 0.062337548
0.0042762854 0.01935293 0.18401007 -0.12161464 -0.06165121 0.15318924 0.026135214 -0.050892025
-0.07321369 0.009433357 -0.13228461 0.10205354 -0.08706566 -0.14440735 -0.050229527 0.08792312
0.13509233 -0.13556659 -0.15273507 -0.03438587 -0.1266166 -0.059292953 0.051877763 0.117980376
0.107962035 0.071071 0.14435375 0.1525389 0.047528908 0.045738574 -0.0126079265 -0.024927761
-0.014703332 0.045938086 -0.080853775 -0.094148055 -0.13225295 0.097777486 -0.08629405 0.05478961
0.05089302 -0.0730512 -0.04327892 0.08659062 0.007797088 -0.038570125 -0.05552158 0.19708811
0.19852613 -0.1198657 -0.0057419287 0.07866263 -0.06741954 -0.05421264 -0.020018538 0.020500636
0.025201121 -0.025953572 0.07748079 0.03139166 -0.02456424 -0.0008790662 -0.04305513 -0.14126514
-0.10189684 0.20905526 -0.06528959 -0.044132195 0.026968941 0.090893015 -0.09264702 -0.07840632
-0.00402782 -0.029081801 0.009730235 0.0047886083 -0.0016096068 -0.15646458 -0.17379563 -0.03290687
0.021849811 0.057586975 0.15051131 0.055505835 0.11176777 0.09002256 -0.18494835 -0.039278433
-0.107685104 -0.12812926 0.0683602 -0.16174793 -0.078665145 0.06752738 -0.04715718 -0.052415133
-0.049292244 0.04525177 0.13150735 0.024060518 -0.15319417 -0.034506697 0.08095618 -0.03476382
-0.14694086 0.022168636 0.038609173 0.014918576 -0.08838732 0.041050065 0.021071943 0.08507244
00000000: 31cc 063d 6414 70bd ce57 b5bc 450f 683d
00000010: 8488 57bd 7cf0 573d a7a3 04bd 4a16 12be
00000020: 9f1a 883d b6e1 b73d 8f87 b2bd 696c d6bd
00000030: 444d 8abd 5b9f 913c 679e 23bd e23c d7bc
00000040: 6761 d83c 5958 c63a 2d7a 63bd c712 4d3d
00000050: 7e25 cebc 1d13 0fbd 2855 913c 0d07 b9bc
00000060: d048 5fbc 6c9b ce3d 0534 b33d dda1 7ebd
00000070: f600 9abc 482c c9bc 8653 8dbd 291d 893b
00000080: 62f5 c23c 837c 65be 9cdf 0d3d 2ab3 e43b
00000090: 4573 29be 7244 b0bd 11de 00be 7943 403e
000000a0: 9a64 02bd 9f65 e83d a85c e6bc 3112 103e
000000b0: 0dac 03bd ea46 003d c8fc 9b3b b402 003e
000000c0: c1a9 263c 2f89 a2bd d376 1a3d 8816 4c3c
000000d0: 1cb6 0dbe 4183 d03a 4513 6c3c 8a6a 853c
000000e0: af29 9cbd fd1a 05bd d0fd 493e 53b1 b6be
000000f0: 0eeb 2abe 4b49 0cbe 0393 dabc eb78 11be
00000100: 97ab 52bd b7e6 d5bd 62f7 afbd 508d 79bd
00000110: 26f5 873d 0396 1cbc efbf af3d e62e 183c
00000120: 4959 9ebc db9e 913d bb3a fe3c 65ca f0bb
00000130: 1ce4 063b 047b 133e bfa8 71bc 4165 d1bc
00000140: 4198 9f3b 81e7 2e3c 6f90 24bc 28e8 55be
00000150: 76cd b03d 483a 28be bcec dc3b 5af9 a33d
00000160: 4faf 333d 2a12 3ebe b24d 81be 30ad a33d
00000170: 9ef8 353e ab70 943e 2b5b 18bc 0f9d 8abd
00000180: ffdd 27be 8c3e e83c 100c 34be 5b0d 0bbd
00000190: 5e29 87bd 2929 74bd 8dab 9eba 7119 63bd
000001a0: 2337 0abe 8fc1 c4bc e8c0 d1bd 784f b33d
000001b0: f20d 9dba c050 19bd 5a7d 9abd 44e8 e7bd
000001c0: 50ae 0a3e a235 aa3c bef4 15be 0b82 b03d
000001d0: 8eae 103d 52ed 253d 3295 a13c e47e a13d
000001e0: 3fb1 abbc daa7 f43d 965d 433e e62d 68be
000001f0: 05b4 ddbc cc4a 6cbd e4fe 213c 4a04 153e
00000200: 61f3 bdbc 304d aabd 3ac9 353d 5ebc 913d
00000210: d9a0 963c 36b8 3fbd b237 993d 2344 85bd
00000220: d6f6 8cbd b49b ecbd 5507 d4bd ff30 d1bd
00000230: 71db 09be 00c9 8e3d 9420 213e a855 7f3d
00000240: 1520 8c3b 098a 9e3c 236d 3c3e 1911 f9bd
00000250: fb85 7cbd a4dd 1c3e 8419 d63c 2874 50bd
00000260: 0ff1 95bd 5e8e 1a3c 9e75 07be 7201 d13d
00000270: 7b4f b2bd 85df 13be 7abd 4dbd 0911 b43d
00000280: a555 0a3e f8d1 0abe 9566 1cbe 33d8 0cbd
00000290: c8a7 01be 2bdd 72bd c77d 543d b29f f13d
000002a0: 331b dd3d ac8d 913d 78d1 133e 2833 1c3e
000002b0: acad 423d 5f58 3b3d 7a91 4ebc 4e35 ccbc
000002c0: 3fe6 70bc 9329 3c3d aa96 a5bd b2d0 c0bd
000002d0: 516d 07be 903f c83d efba b0bd 126b 603d
000002e0: 3375 503d de9b 95bd 3d45 31bd 6c56 b13d
000002f0: b77e ff3b b5fb 1dbd 996a 63bd 77d1 493e
00000300: 6f4a 4b3e 267c f5bd ca26 bcbb df19 a13d
00000310: 4113 8abd 130e 5ebd ebfd a3bc f3f0 a73c
00000320: 9572 ce3c 969c d4bc 40ae 9e3d 8b94 003d
00000330: f23a c9bc 2271 66ba 935a 30bd cfa7 10be
00000340: 4aaf d0bd 9512 563e 8cb6 85bd f6c3 34bd
00000350: f8ed dc3c 1e26 ba3d b9bd bdbd 7e93 a0bd
00000360: cefb 83bb f53c eebc 906b 1f3c c2e9 9c3b
00000370: 71f9 d2ba 4038 20be 7bf7 31be 5bc9 06bd
00000380: 60fe b23c 52e0 6b3d a31f 1a3e 165a 633d
00000390: 80e6 e43d bf5d b83d 1a63 3dbe 6ce2 20bd
000003a0: 028a dcbd 5134 03be 6f00 8c3d 40a1 25be
000003b0: 311b a1bd cc4b 8a3d e327 41bd 40b1 56bd
000003c0: aae6 49bd ec59 393d dda9 063e 901a c53c
000003d0: efde 1cbe e556 0dbd 5bcc a53d 8264 0ebd
000003e0: aa77 16be 009b b53c a724 1e3d 0b6d 743c
000003f0: 6904 b5bd 1d24 283d 119f ac3c 763a ae3d

linear.bias f4 [256]
-0.110710666 -0.1167671 -0.50740516 -0.06657778 -0.09318333 -0.10175127 -0.11142424 -0.512126
-0.08091379 -0.07143566 -0.012992908 -0.21282728 -0.0767223 -0.04508854 -0.06701397 -0.13371108
-0.2035057 -0.11914247 -0.06698627 -0.10180303 -0.054841116 -0.059832428 -0.093369134 -0.059798334
-0.10379866 -0.35154587 -0.057701018 -0.09318703 -0.06951046 -0.10282345 -0.057654466 -0.1417495
-0.0694673 -0.029464131 -0.07174067 -0.15858576 -0.11468447 -0.081350856 -0.0982212 -0.07314439
-0.064324625 -0.07157657 -0.059028827 -0.09867057 -0.07819516 -0.042530306 0.14918616 -0.06922775
-0.05457147 -0.08490401 -0.042122945 -0.0029706254 -0.22427891 -0.06028571 -0.15880509 -0.08246609
-0.10824931 0.007233151 -0.0684704 -0.0665306 -0.118436016 -0.07231808 0.015060742 -0.06946078
-0.13130407 -0.08528736 -0.123412214 0.08860761 -0.058310103 -0.40798914 -0.1747716 -0.01716537
-0.052178003 -0.024454309 -0.09117222 -0.14395766 -0.12530926 -0.07461712 -0.047459338 -0.119182914
-0.23599537 -0.054808717 -0.074648835 -0.08651991 -0.08044697 -0.07022131 -0.06454952 -0.076564796
-0.015564875 -0.11954934 -0.07092182 -0.12712918 -0.038521726 -0.11809381 -0.012887911 -0.14144817
-0.12322104 -0.07384357 -0.09765825 -0.07692262 -0.04825079 -0.062195607 -0.082706295 -0.044799846
-0.3360492 -0.049859103 -0.067087136 -0.06013063 -0.43053374 -0.070628114 -0.19912484 -0.056469258
-0.09102605 -0.11772866 -0.086897045 -0.1331903 -0.08972137 -0.1967724 -0.1152499 -0.052624904
-0.11197555 -0.055551216 -0.103837445 -0.07049066 -0.026942497 -0.09757562 -0.10662547 -0.052933257
-0.1650564 -0.09098443 -0.046368927 -0.19589931 0.09149196 -0.030849481 0.051427845 -0.089562
-0.08774214 -0.17813744 -0.078701936 -0.05557555 -0.07110579 -0.079152726 -0.08638319 -0.105602235
-0.04824753 -0.0701865 -0.5678419 -0.07950974 -0.076453984 -0.071766175 -0.033749394 0.01579725
-0.07423687 -0.03533941 -0.26669922 -0.18944634 -0.053102173 -0.4106306 -0.15370929 -0.35764977
-0.03376853 -0.073064394 -0.5069419 -0.06589886 -0.06703791 -0.17584099 -0.31345546 -0.107927725
-0.031915 -0.12498069 -0.07840369 -0.046365924 0.0023834615 -0.08861462 -0.4589777 -0.08696184
-0.078189634 -0.0073219864 -0.0890055 -0.12924449 -0.13106035 -0.03623976 -0.033231586 -0.09550732
-0.08506762 -0.034474567 -0.04863068 -0.05685215 -0.04952217 -0.019389866 -0.399288 -0.25140002
-0.07309721 -0.061096244 -0.089204565 -0.06432175 -0.07721414 -0.15020502 -0.08022886 -0.06750278
-0.07178631 -0.072378084 -0.06897838 -0.04531827 -0.048546832 -0.04679021 -0.07004338 -0.07792643
-0.08323565 -0.060606122 -0.0724632 -0.19315837 -0.07158105 -0.037509948 -0.047814842 -0.40040755
-0.07540327 -0.05649712 -0.033763826 -0.04819527 -0.069474116 -0.083394505 -0.068282336 -0.06755761
-0.061003163 -0.03712807 -0.10226899 -0.32160738 -0.08502593 -0.06802959 -0.09385588 -0.07980379
-0.06717245 -0.1920425 -0.09616523 -0.036222916 -0.034437165 -0.06653232 -0.08858019 -0.07084506
-0.16323242 0.11294283 -0.06655475 -0.011019383 -0.067057736 -0.10987761 -0.27312446 -0.040548332
-0.30439544 -0.082879774 -0.13169864 -0.1288573 -0.053290904 0.03744947 -0.53070897 -0.09015639
00000000: 46bc e2bd 9723 efbd 4ee5 01bf ee59 88bd
00000010: e7d6 bebd f862 d0bd 6432 e4bd b11a 03bf
00000020: 21b6 a5bd dc4c 92bd 35e0 54bc 65ef 59be
00000030: 9520 9dbd c3ae 38bd 9f3e 89bd 8feb 08be
00000040: cc63 50be f800 f4bd 1930 89bd 1b7e d0bd
00000050: 14a1 60bd d912 75bd 5138 bfbd 19ef 74bd
00000060: 6494 d4bd d2fd b3be e757 6cbd d7d8 bebd
00000070: 805b 8ebd 1a95 d2bd 1727 6cbd c826 11be
00000080: df44 8ebd c35e f1bc c6ec 92bd 4e64 22be
00000090: b1df eabd 479b a6bd 3228 c9bd bacc 95bd
000000a0: a1bc 83bd bd96 92bd 36c8 71bd cc13 cabd
000000b0: c924 a0bd 4234 2ebd 42c4 183e 47c7 8dbd
000000c0: 5586 5fbd 27e2 adbd 1c89 2cbd d3ae 42bb
000000d0: 5fa9 65be 26ee 76bd cd9d 22be fbe3 a8bd
000000e0: d0b1 ddbd 1104 ed3b 363a 8cbd 3241 88bd
000000f0: 958e f2bd 801b 94bd 55c1 763c 7441 8ebd
00000100: 9374 06be 24ab aebd 8bbf fcbd e877 b53d
00000110: 93d6 6ebd f4e3 d0be 54f7 32be 649e 8cbc
00000120: 9ab8 55bd 6754 c8bc 80b8 babd a369 13be
00000130: 1251 00be dcd0 98bd b964 42bd 2c16 f4bd
00000140: c5a8 71be 1b7f 60bd 7de1 98bd 5a31 b1bd
00000150: 62c1 a4bd 31d0 8fbd 8a32 84bd 01ce 9cbd
00000160: d103 7fbc 49d6 f4bd 763f 91bd 272e 02be
00000170: f5c8 1dbd 2bdb f1bd d127 53bc cad7 10be
00000180: 505b fcbd 4c3b 97bd 0c01 c8bd 9b89 9dbd
00000190: 9fa2 45bd d2c0 7ebd eb61 a9bd 0b80 37bd
000001a0: a40e acbe 0f39 4cbd fb64 89bd 894b 76bd
000001b0: eb6e dcbe 79a5 90bd 62e7 4bbe 4f4c 67bd
000001c0: de6b babd b91b f1bd 14f7 b1bd 0a63 08be
000001d0: d6bf b7bd b47e 49be 2408 ecbd 368d 57bd
000001e0: 7053 e5bd ac89 63bd baa8 d4bd 685d 90bd
000001f0: 83b6 dcbc bad5 c7bd 745e dabd 8bd0 58bd
00000200: 8b04 29be 0b56 babd 58ed 3dbd d499 48be
00000210: 2360 bb3d 0db8 fcbc 01a6 523d 486c b7bd
00000220: 27b2 b3bd a969 36be 7b2e a1bd 30a3 63bd
00000230: ea9f 91bd d31a a2bd abe9 b0bd fc45 d8bd
00000240: 349f 45bd f1bd 8fbd 165e 11bf 01d6 a2bd
00000250: e893 9cbd 25fa 92bd ce3c 0abd 3c69 813c
00000260: 8009 98bd 0fc0 10bd cd8c 88be 39fe 41be
00000270: aa81 59bd 2d3e d2be f865 1dbe df1d b7be
00000280: df50 0abd c9a2 95bd f2c6 01bf fbf5 86bd
00000290: 2c4b 89bd a90f 34be 3c7d a0be 3609 ddbd
000002a0: 4eb9 02bd e0f5 ffbd 1d92 a0bd 32ea 3dbd
000002b0: d933 1c3b 957b b5bd 20ff eabe 0d19 b2bd
000002c0: e321 a0bd 46ed efbb 8448 b6bd ab58 04be
000002d0: af34 06be 2570 14bd d81d 08bd 5799 c3bd
000002e0: ef37 aebd 3435 0dbd f730 47bd cddd 68bd
000002f0: c2d7 4abd 7fd7 9ebc 7a6f ccbe 81b7 80be
00000300: fdb3 95bd 0e40 7abd e2b0 b6bd 1fbb 83bd
00000310: 7222 9ebd 58cf 19be 074f a4bd e63e 8abd
00000320: b304 93bd f63a 94bd 8944 8dbd a69f 39bd
00000330: 0bd9 46bd 17a7 3fbd e772 8fbd e497 9fbd
00000340: 7477 aabd 203e 78bd 9667 94bd 4fcb 45be
00000350: 1699 92bd 08a4 19bd 7fd9 43bd 3802 cdbe
00000360: 086d 9abd 8669 67bd f04b 0abd 6768 45bd
00000370: 7248 8ebd bdca aabd 9cd7 8bbd a55b 8abd
00000380: 74de 79bd 9a13 18bd 6772 d1bd b9a9 a4be
00000390: 1322 aebd 1953 8bbd 8337 c0bd 2b70 a3bd
000003a0: b691 89bd caa6 44be 47f2 c4bd 7b5e 14bd
000003b0: fc0d 0dbd 1942 88bd 8869 b5bd 3717 91bd
000003c0: 6626 27be 924e e73d db4d 88bd a48a 34bc
000003d0: 9155 89bd 8307 e1bd f8d6 8bbe 0216 26bd
000003e0: b8d9 9bbe dfbc a9bd 02dc 06be 2bf3 03be
000003f0: 9047 5abd 9e64 193d 8bdc 07bf eaa3 b8bd

critic_linear.weight f4 [1, 256]
-0.0017093937 -0.0440859 -0.086874194 0.0038214047 0.0005129913 0.0014592037 -0.00067665934 -0.12189083
0.0028077394 -0.0005875464 0.0032529132 0.029193487 -0.00018167321 -0.0021043185 -0.0027010292 -0.0008041431
-0.0027659573 0.0024487595 0.0005753533 0.0035154228 0.0032181505 0.0012271623 0.0005078144 9.770793e-05
0.00013371167 -0.004310244 0.0015856182 0.002941409 0.0012023039 0.03042759 0.0043031317 0.009777529
0.0022677754 -0.0001618317 0.028776402 -0.038750414 -0.0018335115 0.0019359512 0.00062159984 0.0032500937
-0.0006157824 0.001965953 -0.0010838886 0.0012774896 -0.00052959356 -0.0025262125 0.03326338 0.001724897
0.00053864083 0.0015889265 0.0020271875 0.002429899 -0.008814633 0.0043253987 0.005071817 -0.0010563548
0.0003878255 -0.0015084546 0.0014805609 0.0020200945 -0.0018417574 -0.0014126559 0.24462564 0.0014431414
-0.003381084 -0.0033752238 -0.004464436 0.025729498 0.0018599845 -0.008164545 0.0013491109 0.004468703
-0.0028975385 0.020333309 -0.005149923 0.01878272 -0.00019357735 -0.0016387241 0.002302261 0.01952527
-0.00020088823 -0.0012241215 0.0039906343 -0.02134259 -0.0033369483 -0.001540926 0.00068974483 -0.00045760046
0.026610676 0.020471025 0.0011208629 0.003953737 -0.00028769323 -0.001673687 0.02146262 -0.00051798986
0.0007240333 0.027240505 0.0023892485 0.0015146023 0.0067832917 -0.0022477258 0.0005054411 -0.0014260222
0.0032849554 -0.00083068514 0.0006943108 0.020147923 -0.023351235 0.023443976 -0.0018532213 0.0014634118
-0.0014919596 0.0010290858 0.00019511007 0.0071451864 0.0012693504 -0.000117968935 -0.0016481038 0.0018722806
-0.0007923263 0.0017030602 -0.003684807 0.0014895758 0.002959452 0.0020473679 -0.0011404883 0.0010166195
-0.007421185 0.00082828046 -0.0028024316 -0.0003528483 0.03802057 0.0006606589 0.038233124 -8.332037e-05
0.00064175186 -0.038334135 -0.000496482 -0.0006026547 0.001466511 0.001273787 -0.0051654154 0.002466827
-0.0068846503 -0.0027270417 -0.06416237 0.00069778564 -0.0021634302 -0.0023158717 0.005098559 -0.0003262471
0.0005728209 0.00058416533 -0.0073566413 -0.00055791443 0.0026264212 -0.0054909433 3.4560588e-05 -0.00024403454
-0.0011973685 0.00193354 -0.010070074 -0.004517872 0.0024549023 0.0010446366 -0.026113192 0.0035279328
0.0043271887 0.020215673 0.00063030084 0.00081538217 0.004716086 -0.0021493963 -0.14014277 -0.0005825484
-0.0007591774 0.020651683 4.668773e-05 0.02187971 -0.00078010536 0.0024766934 -0.00067973975 0.00015998028
-0.0011386053 -0.003723981 -0.00037853318 -0.004694488 0.0036302868 0.0034380173 -0.042339616 -0.024434097
-0.00087839086 -0.00117495 -0.005251975 0.0033278558 -0.0015123461 -0.015355245 0.0023971333 0.0027759976
-0.0015361598 0.0016482257 -0.0033538544 -0.0029293497 0.022749636 -0.0007049124 0.00092312344 0.0010283354
-0.0042897635 -0.0030645023 -0.00338608 0.00277909 0.015770484 0.00130925 -0.0007918211 0.005334704
0.0018681062 0.0031093475 0.0014732542 -0.0047647436 0.0013582705 0.0026160365 -0.0022659875 0.00020190979
0.001959591 -0.0015319245 0.0014450087 -0.002863722 -0.002724388 0.0014022817 -0.00026694738 -0.001358476
-0.001883129 0.0019341026 -0.0015069916 0.0007879832 -0.0023629416 0.0030511394 0.0013978522 0.0010493377
0.0011609187 0.029630132 0.0016747109 0.021211192 -0.0025985832 -0.0009219008 0.0056907027 0.002200006
-0.028049083 0.0039024842 0.0066595194 0.0046570627 0.00024704635 0.018616892 -0.082711786 0.0020269586
00000000: bc0d e0ba 6b93 34bd 19eb b1bd 8870 7a3b
00000010: 437a 063a c042 bf3a d761 31ba e6a1 f9bd
00000020: 0d02 383b 9205 1aba d42e 553b 2e27 ef3c
00000030: 887f 3eb9 9be8 09bb c003 31bb 21cd 52ba
00000040: 1045 35bb 5e7b 203b 4ed3 163a 0263 663b
00000050: 9be7 523b bcd8 a03a d91e 053a 8ce8 cc38
00000060: f434 0c39 f33c 8dbb 85d4 cf3a a7c4 403b
00000070: a096 9d3a 4843 f93c 4901 8d3b ee31 203c
00000080: f59e 143b 5eb1 29b9 7dbc eb3c c1b8 1ebd
00000090: 7052 f0ba bebf fd3a dcf2 223a 86ff 543b
000000a0: 756c 21ba 38d7 003b 4411 8eba 7071 a73a
000000b0: 6cd4 0aba d08e 25bb 2f3f 083d f015 e23a
000000c0: 9333 0d3a 8743 d03a 90da 043b f13e 1f3b
000000d0: 406b 10bc 13bc 8d3b 7c31 a63b 6375 8aba
000000e0: 0f55 cb39 56b7 c5ba 610f c23a 9063 043b
000000f0: 2067 f1ba de28 b9ba 257f 7a3e ca27 bd3a
00000100: 2d95 5dbb dc32 5dbb 674a 92bb abc6 d23c
00000110: b9ca f33a 95c4 05bc a6d4 b03a 336e 923b
00000120: a1e4 3dbb 0a92 a63c afc0 a8bb 38de 993c
00000130: 06fb 4ab9 75ca d6ba 88e1 163b 76f3 9f3c
00000140: 86a5 52b9 b472 a0ba dec3 823b a8d6 aebc
00000150: b4b0 5abb e6f8 c9ba fecf 343a 18ea efb9
00000160: a2fe d93c dab2 a73c ebe9 923a 5a8e 813b
00000170: 88d5 96b9 9e5f dbba 60d2 af3c b6c9 07ba
00000180: 0dcd 3d3a 7b27 df3c f094 1c3b 9f85 c63a
00000190: 6046 de3b 954e 13bb 947f 043a 5de9 baba
000001a0: 6848 573b 56c2 59ba 6902 363a 420d a53c
000001b0: 174b bfbc 950d c03c cae7 f2ba f4cf bf3a
000001c0: db8d c3ba 64e2 863a 7696 4c39 2b22 ea3b
000001d0: 5560 a63a 1766 f7b8 3005 d8ba 5067 f53a
000001e0: 1eb4 4fba 3839 df3a ce7c 71bb df3d c33a
000001f0: 5ef3 413b 222d 063b 707c 95ba 1740 853a
00000200: 692d f3bb f620 593a 00a9 37bb 7ffe b8b9
00000210: 75bb 1b3d 1130 2d3a 569a 1c3d 48bc aeb8
00000220: 3d3b 283a 4104 1dbd 5826 02ba 79fb 1dba
00000230: f237 c03a 33f5 a63a a542 a9bb 7daa 213b
00000240: a298 e1bb 2bb8 32bb 9067 83bd 9aeb 363a
00000250: 56c8 0dbb e1c5 17bb d011 a73b 250c abb9
00000260: 5c29 163a ac22 193a fb0f f1bb 0141 12ba
00000270: 0920 2c3b 5fed b3bb 26f5 1038 86e3 7fb9
00000280: 05f1 9cba d66e fd3a f4fc 24bc a80a 94bb
00000290: 6de2 203b 30ec 883a 55eb d5bc e434 673b
000002a0: 17cb 8d3b 579b a53c c63a 253a 5fbf 553a
000002b0: 6689 9a3b e3dc 0cbb 9681 0fbe 29b6 18ba
000002c0: 8803 47ba b82d a93c 92d2 4338 143d b33c
000002d0: fc7f 4cba 0550 223b 9030 32ba 61c0 2739
000002e0: 413d 95ba 090e 74bb dd75 c6b9 38d4 99bb
000002f0: 1bea 6d3b 5c50 613b 4e6c 2dbd 042a c8bc
00000300: d043 66ba c800 9aba c218 acbb 2818 5a3b
00000310: ea39 c6ba 9194 7bbc 3919 1d3b 83ed 353b
00000320: f858 c9ba 4709 d83a 57cc 5bbb 55fa 3fbb
00000330: 725d ba3c dfc9 38ba c4fd 713a 36c9 863a
00000340: 2591 8cbb d1d5 48bb ffe8 5dbb 6521 363b
00000350: 1a31 813c 249b ab3a 3792 4fba bece ae3b
00000360: 3edb f43a 32c6 4b3b 351a c13a 9121 9cbb
00000370: ff07 b23a cf71 2b3b f680 14bb bfb7 5339
00000380: 7b6c 003b dbca c8ba 7266 bd3a 48ad 3bbb
00000390: a58b 32bb c4cc b73a 12f5 8bb9 e40e b2ba
000003a0: 53d3 f6ba b781 fd3a 3f86 c5ba a890 4e3a
000003b0: 95db 1abb a0f5 473b 2338 b73a ee89 893a
000003c0: f829 983a e4ba f23c f981 db3a 18c3 ad3c
000003d0: fe4c 2abb b7ab 71ba 1379 ba3b fa2d 103b
000003e0: 31c7 e5bc d2c0 7f3b 1938 da3b 469a 983b
000003f0: 0086 8139 7482 983c cc64 a9bd b9d6 043b
