21-A3C-Pong/runs/BreakoutNoFrameskip-v4/2022-11-03_16-23_Second80MSteps_OK/model_sam_BreakoutDeterministic-v4_conv.64.tar (torch, 944955 bytes, 13 tensors)

conv1.weight f4 [32, 4, 3, 3]
0	0x3dfb7c25	0.12279538
1	0xbf073043	-0.52808017
2	0xbe6d0e03	-0.23149876
3	0x3e34080d	0.17581196
4	0xbe48775f	-0.19576786
5	0x3e8c96c1	0.27458766
6	0x3e1f2b7e	0.15543935
7	0x3e3a0041	0.1816416
8	0x3e33659e	0.17519233
9	0x3db13292	0.08652224
10	0x3d788b65	0.060679812
11	0x3c595b5d	0.013266412
12	0x3e46094c	0.19339484
13	0xbd79b9c1	-0.060968164
14	0x3de64e46	0.11245398
15	0x3e0b058b	0.13576333
16	0x3e0e50ed	0.13898058
17	0x3e81c2c8	0.2534392
18	0x3df72d8b	0.120692335
19	0x3e5cbf36	0.21557316
20	0x3e68ca15	0.22733338
21	0xbea0ef2b	-0.3143247
22	0xbc7a128b	-0.01526321
23	0x3e4ca401	0.19984438
24	0xbce1d863	-0.027569002
25	0xbe2ac546	-0.16676816
26	0x3cf2a3f2	0.02961919
27	0xbd168bc6	-0.036754392
28	0xbe8b57b5	-0.27215353
29	0x3e05edf6	0.13079056
30	0xbe8e493d	-0.2779025
31	0xbe1ecdf2	-0.1550825
32	0x3e227f71	0.15868928
33	0xbe6ed450	-0.23323178
34	0xbef7a9a0	-0.483716
35	0xbe60e767	-0.21963273
36	0x3e1a001f	0.15039109
37	0xbe00c0f6	-0.12573609
38	0xbe0138dc	-0.12619346
39	0x3d2011a6	0.03907933
40	0x3f012e61	0.50461394
41	0xbe87c3bc	-0.2651652
42	0x3eb19de7	0.34690782
43	0x3ebaea23	0.36506757
44	0xbee8061e	-0.45317167
45	0x3df054c7	0.1173492
46	0x3e284819	0.16433753
47	0xbdaf3e9f	-0.08556866
48	0x3d836e04	0.06417468
49	0x3f03f51f	0.515459
50	0xbea6dda2	-0.32590967
51	0x3da0cce9	0.078515835
52	0x3ef5a8bb	0.47980294
53	0xbe8e8ead	-0.27843228
54	0x3dc7e2b4	0.09760037
55	0x3e67f888	0.22653401
56	0xbdae71c4	-0.08517793
57	0xbe613fbf	-0.21996973
58	0x3f03552c	0.51301837
59	0x3c85fbe7	0.016355468
60	0xbe800e7d	-0.25011054
61	0x3eb86ab8	0.3601892
62	0xbc9fc9bc	-0.019505374
63	0xbce3a150	-0.02778688
64	0xbeb2d069	-0.3492463
65	0xbe346b95	-0.17619164
66	0xbea85b90	-0.32882357
67	0xbe24e660	-0.16103506
68	0xbe875369	-0.26430824
69	0xbe95483b	-0.2915667
70	0xbe1759f6	-0.14780411
71	0xbe5f0f55	-0.21783192
72	0x3d8f63a5	0.070014276
73	0x3d9c8e7b	0.076443635
74	0xbcb5e229	-0.022202568
75	0x3e013c6a	0.12620702
76	0x3d9906cb	0.07471999
77	0xbda9dcff	-0.08294105
78	0xbde3ecdb	-0.11129161
79	0x3e67722a	0.22602144
80	0xbd8f42c1	-0.06995154
81	0x3df86aa1	0.12129713
82	0x3cff0ea1	0.031134905
83	0xbe429279	-0.19001187
84	0x3edfc805	0.4370729
85	0xbe740802	-0.2383118
86	0xbf0e3167	-0.5554413
87	0x3dc5f394	0.096655995
88	0xbd9efc9c	-0.07763025
89	0xbb1de55f	-0.0024093015
90	0x3e6b7f40	0.22997761
91	0xbe52eee1	-0.20598938
92	0xbe2edba9	-0.17075981
93	0x3f060d89	0.52364403
94	0xbe5a21a8	-0.21301901
95	0xbf050274	-0.5195687
96	0x3def2f72	0.11678971
97	0x3d968d03	0.073511146
98	0xbe7bc3c2	-0.24586394
99	0x3db629aa	0.088946655
100	0x3dd2ab8a	0.10286625
101	0xbe2ce999	-0.16885985
102	0x3e8eb21e	0.27870268
103	0x3e05c0e3	0.13061862
104	0xbe6288ed	-0.22122546
105	0xbe1bc4ec	-0.15211838
106	0x3e721365	0.23640211
107	0xbd66f6a3	-0.056387555
108	0x3ebd1cac	0.36935937
109	0x3e3aabb3	0.1822956
110	0x3e521291	0.20514895
111	0x3ebb24b1	0.3655143
112	0x3f1faf86	0.623772
113	0x3da11acd	0.0786644
114	0x3e4d2da1	0.20036937
115	0x3ee1fd0e	0.44138378
116	0x3e16b808	0.1471864
117	0x3de8c4b5	0.11365644
118	0xbe180139	-0.14844216
119	0xbc0ade82	-0.008475902
120	0xbcff720a	-0.031182308
121	0x3ea25e69	0.31712654
122	0x3ec0fb8b	0.37691912
123	0xbd72d376	-0.059283696
124	0x3e6056ff	0.21908186
125	0x3c736b95	0.0148571925
126	0xbe9d2ece	-0.30699772
127	0xbebac1a3	-0.36475858
128	0x3def8c02	0.11696626
129	0xbe155afb	-0.14585488
130	0xbec5e892	-0.38654
131	0xbde823e5	-0.11334971
132	0x3b5a3d86	0.003330083
133	0xbd80d771	-0.06291092
134	0xbd331610	-0.043722212
135	0xbafc0ddd	-0.0019230206
136	0xbe4efcaa	-0.20213571
137	0xbcc47d79	-0.023985611
138	0xbebe8004	-0.37207043
139	0xbf05f820	-0.52331734
140	0xbe9575b5	-0.29191366
141	0xbe408046	-0.18798932
142	0xbed1f632	-0.41008145
143	0xbe5e070f	-0.2168238
144	0x3d773a90	0.060358584
145	0xbbb1fee4	-0.0054319967
146	0x3c9c8dd7	0.019110603
147	0x3e4eb77c	0.20187181
148	0x3f040167	0.5156464
149	0x3e9bfd59	0.30466726
150	0x3c998bbc	0.018743388
151	0x3e7be594	0.24599296
152	0x3e45795f	0.1928458
153	0xbe3b444d	-0.18287773
154	0xbf261485	-0.6487506
155	0xbeb1e33a	-0.34743673
156	0xbef457e8	-0.47723317
157	0xbefe009c	-0.4960984
158	0xbecf8bc6	-0.40536326
159	0xbe224dbf	-0.1584997
160	0xbea6891e	-0.32526487
161	0xbd9ddcee	-0.077081546
162	0x3e0ca869	0.13736118
163	0x3e226429	0.1585852
164	0xbc7d82d4	-0.015473086
165	0xbe33a02b	-0.17541568
166	0xbe9658ee	-0.29364723
167	0xbe18f8f8	-0.14938724
168	0xbdf301b0	-0.11865556
169	0xbea6de96	-0.32591695
170	0xbe077347	-0.13227569
171	0x3e6e8879	0.23294248
172	0x3ed0df54	0.40795386
173	0x3e17bca5	0.14818056
174	0x3e582f6b	0.21111839
175	0x3f1ca064	0.61182237
176	0x3ea662a2	0.32497126
177	0x3e6f3cfa	0.23363104
178	0x3dcf8d15	0.10134331
179	0x3e97683b	0.2957171
180	0xbdd781dc	-0.105228156
181	0xbe674d57	-0.22588097
182	0xbe2d7806	-0.16940317
183	0xbec8b82e	-0.39203018
184	0xbefb523f	-0.49086186
185	0x398ba4c4	0.00026634906
186	0xbef1103e	-0.47082704
187	0xbed79064	-0.4210235
188	0xbda92538	-0.08259052
189	0x3d3f89c7	0.046762254
190	0x3dfcf273	0.12350931
191	0xbd0b2cb1	-0.033978168
192	0xbbc8296e	-0.0061084544
193	0x3e1436f8	0.14474094
194	0x3e069277	0.1314181
195	0xbe3e5d09	-0.18590178
196	0xbcf20405	-0.029542932
197	0x3d6af890	0.057365954
198	0x3e8b7e56	0.27244824
199	0xbe0bf75a	-0.13668576
200	0xbd3007be	-0.042976134
201	0x3e1b253c	0.15150923
202	0x3eba5517	0.36393043
203	0x3cc39a2a	0.023877222
204	0x3e987606	0.29777545
205	0x3e3723e7	0.1788479
206	0xbbf52051	-0.007480659
207	0x3dc4d52f	0.09610974
208	0x3dfa780c	0.122299284
209	0x3d39d422	0.04536832
210	0x3cf1eb11	0.029531034
211	0x3e0442e1	0.12916137
212	0xbe335063	-0.17511134
213	0x3e5a8c67	0.21342622
214	0x3e8736e4	0.26409066
215	0x3e6b7e5e	0.22997424
216	0x3e0e150f	0.1387522
217	0xbda797e8	-0.08183271
218	0x3caa1702	0.020762924
219	0x3e3e0abd	0.18558784
220	0xbde61a6d	-0.11235509
221	0xbd401637	-0.046896186
222	0xbde4f519	-0.11179561
223	0xbc9e8c71	-0.019354077
224	0xbd8f5b05	-0.069997825
225	0x3dc5f362	0.09665562
226	0x3eec1367	0.46108553
227	0x3e90dcde	0.28293508
228	0x3f0a8eac	0.5412395
229	0x3f5c6f1d	0.86107045
230	0x3d81cffb	0.06338497
231	0xbd89116a	-0.066927746
232	0x3eaaf244	0.3338796
233	0xbe0e5e9c	-0.13903278
234	0xbe6cbf0b	-0.23119752
235	0x3b679b7e	0.0035340483
236	0xbe6165ec	-0.22011536
237	0x3e4946e6	0.19655952
238	0x3eb0b787	0.3451502
239	0xbee8664b	-0.45390543
240	0xbdf5653f	-0.11982202
241	0x3e6419a7	0.2227541
242	0xbd37483d	-0.044746626
243	0xbe92b663	-0.28654775
244	0xbea6e394	-0.32595503
245	0xbe1fde3a	-0.15612116
246	0xbef18ef2	-0.4717937
247	0xbf083d80	-0.5321884
248	0xbed98405	-0.42483535
249	0x3d9fdb45	0.07805494
250	0x3c539585	0.012914066
251	0xbdea0976	-0.11427586
252	0x3de3fdfc	0.11132428
253	0x3e76f796	0.24117884
254	0x3e959f88	0.29223275
255	0x3d272438	0.040806025

conv1.bias f4 [32]
0	0xb9dd42a4	-0.00042202056
1	0xbb7b2f5e	-0.0038327794
2	0x3b15d42f	0.0022862067
3	0x3ac71669	0.0015189174
4	0xbb8ca55d	-0.004292174
5	0x39f34056	0.00046396506
6	0x3b5c184d	0.003358382
7	0x3b67ee6c	0.0035389913
8	0xbae1e2ab	-0.001723369
9	0xbb1a0add	-0.002350501
10	0x3b80b91e	0.0039283177
11	0x3b1117f9	0.0022139533
12	0x3b8b4d80	0.004251182
13	0xb98d879a	-0.00026994647
14	0x3a17ddbb	0.0005793233
15	0x3c764398	0.015030764
16	0x3bc112c3	0.005892129
17	0x3ab88165	0.0014076649
18	0x3b76d626	0.0037664264
19	0x3c21b3f4	0.009869564
20	0xbbbe4102	-0.0058060894
21	0x3bcca66a	0.006245424
22	0x3b260147	0.0025330351
23	0xbb2cfd09	-0.0026395938
24	0xbba1b7b3	-0.0049352287
25	0x3b5c7589	0.0033639392
26	0xba8d8499	-0.0010796963
27	0x3acedc3d	0.0015782189
28	0xba5094aa	-0.0007956723
29	0x3b65a49c	0.0035040742
30	0xbbb47650	-0.005507268
31	0x3b5070e1	0.0031805562

conv2.weight f4 [32, 32, 3, 3]
0	0x3e3fc1dc	0.18726295
1	0xbe0de42a	-0.13856569
2	0x3d3375ed	0.043813635
3	0xbe0b0e36	-0.1357964
4	0x3d44b270	0.048021734
5	0x3e695d4f	0.227895
6	0x3dae3005	0.08505253
7	0x3df83f1f	0.121214144
8	0xbe65901b	-0.22418253
9	0x3e2d2b82	0.16911128
10	0xbebe489b	-0.3716477
11	0x3e251773	0.16122226
12	0x3e3005a9	0.17189659
13	0xbe8f0d56	-0.27939862
14	0x3e004f08	0.12530148
15	0xbdd79619	-0.10526676
16	0x3e4edaff	0.20200728
17	0xbc97bd24	-0.018522806
18	0xbd526bcf	-0.051372346
19	0x3ca5a77e	0.020221468
20	0xbd4d79c6	-0.05016496
21	0x3e0d0c72	0.13774279
22	0x3db9ab8c	0.09065923
23	0xbf0ee2f8	-0.55815077
24	0xbe119f63	-0.14220957
25	0x3cb34f4a	0.021888394
26	0x3eac4fd8	0.33654666
27	0x3e6325cc	0.22182387
28	0xbe12f36c	-0.1435067
29	0x3dd05207	0.101718955
30	0x3e2b2603	0.16713719
31	0x3d7a7fe5	0.061157126
32	0x3ea1751d	0.31534663
33	0x3da7352c	0.081644386
34	0x3e624397	0.22096096
35	0xbe83cf72	-0.25744206
36	0x3b0a1eec	0.002107556
37	0xbd68b739	-0.05681536
38	0xbe9c200f	-0.3049321
39	0xbbb741e1	-0.00559257
40	0xbe597a85	-0.21238144
41	0xbe23e7c9	-0.16006388
42	0xbd34f98c	-0.0441833
43	0x3d141f22	0.036162503
44	0xbdcc322a	-0.099705055
45	0xbeb1027f	-0.34572217
46	0x3e8750ce	0.26428837
47	0xbdae8553	-0.08521523
48	0x3cf5f761	0.030025186
49	0x3c28f28c	0.010311734
50	0x3dbc3e94	0.09191623
51	0x3daddd39	0.084894605
52	0x3ddb8ec5	0.107205905
53	0xbe4d1f9b	-0.20031588
54	0x3bf4f647	0.0074756476
55	0xbe190ce2	-0.1494632
56	0x3e447dd3	0.19188623
57	0x3e8ab6ce	0.27092594
58	0xbcdb209a	-0.026748944
59	0x3e4e050a	0.2011911
60	0xbe400af8	-0.18754184
61	0xbd690c19	-0.056896303
62	0xbdcd8cdc	-0.100366324
63	0xbe15d978	-0.14633739
64	0x3d89bb34	0.06725159
65	0x3e141c53	0.1446393
66	0xbe65c8da	-0.224399
67	0x3e4c6c95	0.19963296
68	0x3e64d282	0.22345927
69	0xbcd1d01c	-0.02561193
70	0x3e18def5	0.14928801
71	0xbe3bb55b	-0.183309
72	0x3cb63200	0.022240639
73	0xbd7c97af	-0.061668094
74	0xbcb23972	-0.021755908
75	0xbe2e016f	-0.16992734
76	0xbdfc8a83	-0.123311065
77	0x3e321245	0.17389782
78	0x3c16edd1	0.009211973
79	0xbd845895	-0.06462208
80	0x3cc5621c	0.024094634
81	0x3af7997d	0.0018890348
82	0x3df76198	0.120791614
83	0xbe8ed3f3	-0.2789608
84	0xbe9c4357	-0.30520126
85	0xbe82b63c	-0.2552966
86	0xbee4d5f3	-0.4469448
87	0x3d1319e9	0.03591338
88	0x3d06c8dc	0.0329064
89	0x3ef415ad	0.47672787
90	0xbdf2ffdc	-0.118652076
91	0xbdeef7ef	-0.11668383
92	0x3d44c6b3	0.048041057
93	0xbde4b902	-0.111681
94	0x3d5b0963	0.05347575
95	0xbd815793	-0.063155316
96	0xbd111e8f	-0.035429534
97	0x3e31ce87	0.1736394
98	0xbda14c31	-0.078758605
99	0xbe508fe9	-0.20367397
100	0x3d1141d9	0.035463188
101	0x3da5944e	0.080849275
102	0x3dd4fa3a	0.103992894
103	0x3e08ab0b	0.13346498
104	0xbef53a32	-0.47895962
105	0xbe0393f0	-0.12849402
106	0x3e1724a3	0.1476007
107	0xbc967a01	-0.018368723
108	0x3cce1f42	0.02516139
109	0x3a519623	0.00079950894
110	0x3e9b29b6	0.3030526
111	0x3c6a789e	0.014310984
112	0x3dc99cc6	0.09844355
113	0x3e340594	0.17580253
114	0xbd8b6de2	-0.06808068
115	0xbdc32bab	-0.095298134
116	0x3d277f81	0.04089308
117	0x3e45f90e	0.19333288
118	0x3e42da56	0.19028601
119	0x3e8703b3	0.2637001
120	0xbda44aee	-0.08022104
121	0xbe3800ec	-0.17969102
122	0x3e8fa803	0.2805787
123	0x3c61b2f4	0.013775576
124	0xbe1b849b	-0.15187304
125	0xbce2d86b	-0.027691087
126	0x3e5117fa	0.20419303
127	0x3d93fb48	0.072256625
128	0xbe7ae77f	-0.24502371
129	0x3d737aec	0.0594434
130	0x3c9bfb1a	0.019040633
131	0xbe6e2a0d	-0.23258229
132	0xbde86b9a	-0.11348648
133	0x3dae45de	0.0850942
134	0x3d95f093	0.073212765
135	0x3e321892	0.17392185
136	0xbd58ca71	-0.05292744
137	0x3cb80e57	0.022467775
138	0x3d668cde	0.056286685
139	0x3d9bf63c	0.07615325
140	0xbe435bbd	-0.19077964
141	0x3dff7942	0.124743
142	0xbcc8fb2b	-0.024533829
143	0xbdaeb24d	-0.08530102
144	0xbe3df6bd	-0.18551154
145	0x3cc72fce	0.024314787
146	0x3da3ff98	0.08007735
147	0x3d867ba3	0.065665506
148	0xbe7799ac	-0.24179715
149	0x3de4753d	0.11155174
150	0xbcab5c67	-0.020918084
151	0x3e2453da	0.16047612
152	0xbdbdced4	-0.09267965
153	0x3dca6056	0.09881656
154	0xbce08a6e	-0.027409758
155	0x3de3d8a7	0.111253075
156	0xbd087cef	-0.03332227
157	0x3c975f3e	0.018478032
158	0x3d7505aa	0.059819855
159	0xbd1f5689	-0.038900886
160	0xbe6b3f00	-0.22973251
161	0x3c46da80	0.012137055
162	0x3e8d78e9	0.2763131
163	0x3da1f1c3	0.079074405
164	0x3cb81de1	0.022475185
165	0x3d7ed046	0.062210344
166	0xbe0e728f	-0.13910888
167	0xbd3a6844	-0.04550959
168	0xbe887131	-0.26648858
169	0x3d38b33f	0.045092817
170	0xbd4b139c	-0.049579248
171	0xbcc6ca4f	-0.02426639
172	0xbc1cfccd	-0.009581757
173	0xbe881628	-0.26579404
174	0x3c8e976f	0.017406194
175	0x3ddc1f17	0.107481174
176	0xbec4d00e	-0.38439983
177	0xbd396f5e	-0.045272224
178	0x3d0e5b0e	0.034754805
179	0x3e8cd27c	0.27504337
180	0x3d33b5a4	0.043874398
181	0x3dcc0168	0.09961206
182	0x3e096638	0.134179
183	0xbe672485	-0.22572525
184	0x3e3ad38a	0.18244758
185	0x3f1e8c9b	0.61933297
186	0xbdab4361	-0.08362461
187	0x3db1108d	0.08645735
188	0xbe8a95de	-0.27067465
189	0x3e1d4933	0.15359955
190	0x3d2065e4	0.03915967
191	0x3e5b3b10	0.2140925
192	0x3e21d9b1	0.15805699
193	0x3dd95269	0.106114216
194	0x3bd40e1b	0.006471408
195	0xbd7a60fc	-0.061127648
196	0xbd18c5b2	-0.037297912
197	0x3d29ffc5	0.041503686
198	0x3e09427d	0.1340427
199	0xbd686c11	-0.056743685
200	0x3c90b995	0.017666617
201	0xbebbe9b4	-0.3670174
202	0x3e2f546e	0.17122051
203	0x3e2469e5	0.1605602
204	0x3d90321b	0.07040807
205	0xbd96d7dc	-0.07365391
206	0xbc5471b1	-0.012966559
207	0x3e0521b5	0.1300114
208	0xbe562da5	-0.2091585
209	0x3db8aad8	0.09016961
210	0xbe459d6d	-0.19298334
211	0x3eeda27a	0.46413022
212	0xbe5fb52c	-0.21846455
213	0xbdcb88cf	-0.099382035
214	0xbe908921	-0.2822962
215	0x3ea42b20	0.32064152
216	0xbe75f826	-0.24020442
217	0x3ca803fd	0.020509714
218	0xbdc7c883	-0.097550415
219	0x3dc66a78	0.09688276
220	0x3e1d16fa	0.15340796
221	0x3ded676d	0.115919925
222	0x3e04c5e8	0.1296612
223	0xbdf0ef8a	-0.117644385
224	0xbdb143ad	-0.08655486
225	0x3e491eb3	0.19640617
226	0x3f0bc08a	0.54590666
227	0x3cf5bccf	0.029997258
228	0xbe932ad1	-0.28743604
229	0x3e13c0a4	0.14428955
230	0xbd8995da	-0.06718035
231	0x3d444185	0.047914047
232	0xbdcbe77f	-0.09956264
233	0xbe6be898	-0.23037946
234	0x3c403f19	0.011733794
235	0xbe0d3208	-0.13788617
236	0xbe8a020c	-0.26954687
237	0xbe79fe42	-0.24413398
238	0x3d489019	0.048965547
239	0x3e6b3ca1	0.22972347
240	0x3d662ddd	0.056196082
241	0x3d9a2b10	0.07527745
242	0xbe1dcf16	-0.15411028
243	0x3db77d70	0.08959472
244	0x3dc247dd	0.09486363
245	0x3ba4104e	0.0050068265
246	0xbe775d45	-0.24156673
247	0x3e7cbaa2	0.2468057
248	0x3ee5dcc3	0.4489499
249	0x3ce03bc6	0.027372252
250	0x3e542551	0.2071736
251	0xbe33fec0	-0.17577648
252	0x3ddb87eb	0.10719284
253	0xbe681087	-0.22662555
254	0xbc42c263	-0.011887166
255	0xbd0dbf6e	-0.03460639

conv2.bias f4 [32]
0	0xbcfb8198	-0.030701444
1	0xbe2c24d4	-0.16810924
2	0x3b83f830	0.004027389
3	0xbc74e059	-0.014946067
4	0xbd4b7f61	-0.049682025
5	0xbcef4219	-0.029206323
6	0xbc14a84c	-0.009073328
7	0xbd8dda94	-0.06926456
8	0xbd9492ac	-0.07254538
9	0xbdf4abdb	-0.11946841
10	0xbbffacc7	-0.007802579
11	0x3c84af2b	0.016196808
12	0xbc473414	-0.0121584125
13	0xbde55e35	-0.11199609
14	0xbcaab5b3	-0.020838594
15	0x3af5288a	0.0018704098
16	0x3c8d4b65	0.017247865
17	0xbc9694c6	-0.018381488
18	0xbd4e8186	-0.050416492
19	0xbdc596a3	-0.09647872
20	0xbe3e78c7	-0.1860076
21	0xbbe112ab	-0.0068686805
22	0xbbf643b8	-0.007515397
23	0xbd1fc355	-0.039004643
24	0xbdd431d8	-0.103610694
25	0x3bc54d38	0.006021168
26	0xbcac9ec0	-0.021071792
27	0x3bbfc3dc	0.0058522057
28	0x3c1b5fc0	0.009483278
29	0xbd55fc7c	-0.05224274
30	0xbd9204c1	-0.07129813
31	0xbe1f586d	-0.15561076

conv3.weight f4 [32, 32, 3, 3]
0	0xbd5c0bad	-0.053722072
1	0xbe3eb657	-0.18624245
2	0xbe8d77fb	-0.276306
3	0xbd83fc81	-0.06444646
4	0xbb8f3e3f	-0.004371434
5	0x3d57a248	0.052644998
6	0xbbf42998	-0.0074512474
7	0x3db71498	0.08939475
8	0x3db0c3fa	0.086311296
9	0xbd118b8a	-0.035533465
10	0x3d77a1c8	0.06045702
11	0x3e02f2b5	0.12787898
12	0x3dcdf841	0.10057116
13	0xbe88dbfd	-0.26730338
14	0xbeba67c2	-0.36407286
15	0xbd895f1d	-0.067075945
16	0xbd0b4754	-0.03400357
17	0xbcd8eba9	-0.026479559
18	0xbd541918	-0.051781744
19	0x3cc93679	0.024562107
20	0x3d5afd24	0.05346407
21	0x3e287e9e	0.1645455
22	0xbdb8a3b7	-0.09015601
23	0xbddfa2e7	-0.10919743
24	0x3d87985a	0.06620856
25	0xbdb9253c	-0.09040305
26	0x3dd50384	0.10401061
27	0x3ca209dd	0.019780094
28	0x3d0f8988	0.03504327
29	0x3dbe0cb5	0.092797674
30	0xbd4dee93	-0.05027635
31	0xbd56a6d5	-0.052405197
32	0xbe0daf77	-0.13836466
33	0x3e35e42f	0.17762826
34	0xbd88c130	-0.066774726
35	0x3e11eef4	0.1425131
36	0x3e265ac8	0.16245568
37	0xbd953d7d	-0.072871186
38	0x3d60fbc2	0.054927595
39	0x3d6be043	0.05758692
40	0x3db3dbbf	0.087821476
41	0x3bccd89b	0.0062514073
42	0x3da2d5b7	0.07950919
43	0x3df268ed	0.11836419
44	0x3e418ce2	0.18901399
45	0x3da15556	0.07877605
46	0x3bc8fcca	0.0061336504
47	0x3e5134c4	0.20430285
48	0x3db2987b	0.087204896
49	0x3e18f7c1	0.1493826
50	0xbc911227	-0.017708851
51	0xbc97bac2	-0.01852167
52	0xbcd39c7a	-0.02583145
53	0x3d9df752	0.07713188
54	0x3e12d8ad	0.14340468
55	0x3d28fd5c	0.041257247
56	0xbc2dac13	-0.010600108
57	0x3d7aacb8	0.061199874
58	0x3eaccccc	0.33749998
59	0x3e2e79c1	0.17038633
60	0xbd682bc4	-0.056682363
61	0xbe75482d	-0.23953314
62	0xbd1d8688	-0.038458377
63	0x3e0f8246	0.14014539
64	0xbb5e86d0	-0.0033954866
65	0x3d69c412	0.057071753
66	0x3d4ba590	0.04971844
67	0x3df0b00f	0.117523305
68	0x3e838418	0.25686717
69	0xbd358227	-0.044313576
70	0x3d9694c9	0.07352597
71	0xbe078dc6	-0.13237676
72	0x3df422ca	0.11920698
73	0x3e0c707b	0.13714783
74	0xbd60b28a	-0.054857768
75	0xbcd85475	-0.02640746
76	0x3e548d12	0.20756939
77	0x3e75a7cc	0.2398979
78	0xbea10574	-0.31449473
79	0xbd1333b7	-0.03593799
80	0xbe30e161	-0.17273475
81	0xbe153b3b	-0.14573376
82	0x3d5ca33f	0.05386662
83	0x3cdf241a	0.027238894
84	0xbe11bb59	-0.14231624
85	0xbe0414be	-0.12898538
86	0xbdb619ac	-0.08891615
87	0x3e13c45c	0.14430374
88	0xbda01b5b	-0.07817718
89	0x3e75c84a	0.24002185
90	0xbdb7fe86	-0.08984093
91	0x3d3b007f	0.04565477
92	0x3b629e29	0.0034579134
93	0x3e19c427	0.15016232
94	0xbda4cb31	-0.08046568
95	0xbd245f02	-0.04012967
96	0xbdbca073	-0.09210291
97	0xbdf0f80e	-0.11766063
98	0xbde8d3ac	-0.11368498
99	0x3dd60d91	0.10451806
100	0x3e390d36	0.18071446
101	0x3e4ca40f	0.19984458
102	0x3c67e343	0.0141533045
103	0x3e477e3b	0.19481747
104	0xbcc4e646	-0.024035584
105	0xbe12ffbf	-0.14355372
106	0xbe401e13	-0.18761472
107	0xbcdfa0bb	-0.027298322
108	0xbdefa4a5	-0.11701325
109	0x3e05d42c	0.13069218
110	0x3cfb43f1	0.030672045
111	0x3e1e22c2	0.15442947
112	0x3e14678d	0.14492626
113	0x3ea9e1bd	0.33180037
114	0xbdb2c98f	-0.087298505
115	0xbe14f941	-0.14548208
116	0xbe0140a9	-0.12622322
117	0xbdf31549	-0.11869294
118	0xbd308c64	-0.043102637
119	0xbd84427a	-0.06457992
120	0x3e186c20	0.14884996
121	0xbbc13f40	-0.0058974326
122	0x3e4b9685	0.19881637
123	0x3d1bc582	0.038030155
124	0x3dd083c6	0.10181384
125	0xbda21fda	-0.079162315
126	0xbd038d6b	-0.03211729
127	0xbdb830d9	-0.08993692
128	0x3c97d352	0.018533383
129	0x3e2da4ca	0.16957393
130	0x3db6a3f2	0.08917989
131	0xbd9e12ff	-0.07718467
132	0x3cae00a9	0.02124055
133	0xbe4720fb	-0.19446175
134	0x3d8e40e9	0.069459744
135	0x3d407f7a	0.04699657
136	0x3e03f13f	0.12884997
137	0xbc506632	-0.012719678
138	0x3cdd6d05	0.027029524
139	0xbeb7d17a	-0.35902005
140	0x3d603c62	0.054745086
141	0xbdf09119	-0.11746425
142	0xbe9140f6	-0.28369874
143	0xbe06f5a6	-0.13179645
144	0xbcde6c27	-0.02715118
145	0x3e2bcc08	0.1677705
146	0x3dced36b	0.100989185
147	0xbdc7498f	-0.09730827
148	0x3df06c48	0.11739403
149	0x3ebd15f3	0.36930808
150	0xbce561a0	-0.028000653
151	0x3d26088f	0.040535506
152	0xbe242d42	-0.1603289
153	0xbd0f310e	-0.03495889
154	0xbe2c87d3	-0.16848688
155	0x3d139787	0.03603318
156	0x3d41c5f2	0.047307916
157	0xbddaec1d	-0.10689566
158	0x3da0544c	0.07828578
159	0x3cdc325c	0.026879482
160	0x3e9b2e57	0.30308792
161	0x3da3959c	0.0798752
162	0x3d663503	0.0562029
163	0x3da145c9	0.078746386
164	0xbe6a3aac	-0.22873944
165	0xbde076cd	-0.109601595
166	0xbe7a00e0	-0.24414396
167	0xbcc630e8	-0.024193242
168	0xbc7070b6	-0.01467531
169	0x3e55c951	0.20877577
170	0x3e114c8f	0.14189361
171	0x3d9d6563	0.076853536
172	0x3e1c862d	0.15285559
173	0x3dde4fd5	0.108550705
174	0xbdd317f4	-0.10307303
175	0x3e14250b	0.14467256
176	0x3d36be85	0.044615287
177	0xbd8d4d8a	-0.06899555
178	0xbed811ef	-0.42201182
179	0xbe24e4ae	-0.1610286
180	0x3a1b56cc	0.00059257145
181	0xbdc00ed4	-0.09377828
182	0xbe2823d7	-0.16419922
183	0xbdedf3db	-0.11618777
184	0x3cfd0d83	0.030890232
185	0x3dcd96a1	0.10038496
186	0x3d234d28	0.039868504
187	0x3d89b9b1	0.06724871
188	0x3d26b62e	0.040701084
189	0xbde79138	-0.11306995
190	0xbd04f48f	-0.03245979
191	0x3df35f0a	0.11883362
192	0x3d0cd14e	0.034379296
193	0xbe359aba	-0.17734805
194	0x3d803f57	0.06262081
195	0x3dfc8241	0.123295315
196	0x3e4e5063	0.20147853
197	0xbe10050d	-0.14064427
198	0xbdd32fed	-0.103118755
199	0xbdd09142	-0.10183956
200	0xbbf89206	-0.0075857667
201	0x3d815c6f	0.063164584
202	0x3ee3c3f3	0.44485435
203	0x3e278753	0.16360216
204	0xbe3f78e3	-0.18698458
205	0x3c564cbc	0.013079818
206	0xbe8015a0	-0.250165
207	0xbde4ff3f	-0.11181497
208	0xbdaa15b7	-0.08304923
209	0x3dca6346	0.09882216
210	0x3d44a211	0.04800612
211	0xbdd76685	-0.10517601
212	0x3e41669a	0.18886796
213	0x3e153011	0.14569117
214	0x3e8a825e	0.27052587
215	0x3e45f6f1	0.19332482
216	0x3e21a35d	0.15784974
217	0x3d3570dc	0.044297084
218	0x3e1f4d42	0.15556815
219	0xbde0f927	-0.10985022
220	0x3b9d6dee	0.0048043644
221	0x3cf34d08	0.029699817
222	0xbe8823c4	-0.26589787
223	0xbe378215	-0.17920716
224	0xbe55f560	-0.20894384
225	0xbd5fc766	-0.05463352
226	0x3e013254	0.12616855
227	0xbd0f4f99	-0.03498802
228	0x3e1e67e7	0.15469323
229	0xbce1a930	-0.027546495
230	0x3ed08f76	0.40734452
231	0xbe9d0d16	-0.30674046
232	0x3d39061f	0.045171853
233	0xbeefde62	-0.46849352
234	0x3b8e4a19	0.004342329
235	0x3dc80d99	0.097682185
236	0x3c8be4ef	0.017076937
237	0x3e1f6d82	0.15569118
238	0xbdc28655	-0.09498278
239	0xbe1884bf	-0.14894389
240	0x3d2bf994	0.041986063
241	0x3e2af5f4	0.16695386
242	0xbdbfc9b2	-0.09364642
243	0x3dd49543	0.10380032
244	0x3e12b479	0.14326657
245	0x3e1b2979	0.1515254
246	0xbde1ffbc	-0.110351056
247	0x3d4f534d	0.05061655
248	0x3d1937a1	0.037406567
249	0xbce56975	-0.028004387
250	0xbeaafec3	-0.33397493
251	0xbc90a624	-0.017657347
252	0x3e173419	0.14765967
253	0x3eb00912	0.3438192
254	0x3eb55c37	0.35421917
255	0xbdf8a25c	-0.121403426

conv3.bias f4 [32]
0	0xbd78e726	-0.060767315
1	0xbde761ab	-0.112979256
2	0x3d03d746	0.032187723
3	0x3d11eb0d	0.035624553
4	0xbc8f6e4d	-0.01750865
5	0xbdac9d47	-0.08428436
6	0x3e0554be	0.13020608
7	0xbd5b9707	-0.053610828
8	0xbe4de673	-0.2010744
9	0x3e02fc10	0.12791467
10	0xbe09ca41	-0.1345606
11	0x3d5246de	0.051337115
12	0x3cb5c23f	0.02218735
13	0x3d58ac12	0.052898474
14	0xbe6f931a	-0.23395959
15	0xbd5cb643	-0.053884756
16	0x3e314d15	0.1731456
17	0xbcef9160	-0.029244125
18	0xbc86e15a	-0.016464878
19	0xbd32bf40	-0.04363942
20	0xbd8d22f8	-0.068914354
21	0x3dd2ed5a	0.102991775
22	0xbe119824	-0.14218193
23	0x3d9499ab	0.07255872
24	0xbdd250b4	-0.10269299
25	0xbdf39b99	-0.11894912
26	0xbd0b2679	-0.033972237
27	0x3e2a66e3	0.1664081
28	0xbdcc10a2	-0.0996411
29	0xbe03e8ce	-0.12881777
30	0x3d9cf656	0.07664172
31	0x3d293c9d	0.04131757

conv4.weight f4 [32, 32, 3, 3]
0	0xbdc30250	-0.095219254
1	0x3d9cf680	0.07664204
2	0x3ab34da4	0.0013679755
3	0x3db9bb9f	0.09068989
4	0x3d1eb9fd	0.03875159
5	0xbe2c18e6	-0.16806373
6	0xbcec2595	-0.028826514
7	0xbe045577	-0.12923227
8	0xbcae95f1	-0.021311732
9	0xbdd52c00	-0.10408783
10	0x3cc99f39	0.024612056
11	0x3c5a06bc	0.01330727
12	0xbe549442	-0.20759681
13	0x3e3abd28	0.1823622
14	0x3e1bf58c	0.15230387
15	0xbc5ccf9a	-0.01347723
16	0x3c4c7a96	0.012480399
17	0xbdca486f	-0.09877097
18	0x3c8741fa	0.016510952
19	0x3d3186c5	0.043341417
20	0x3c22f064	0.009945009
21	0xbb98bcea	-0.004661192
22	0xbd2c40bc	-0.042053923
23	0xbe0ed8a5	-0.13949831
24	0xbbcbb98c	-0.0062171873
25	0x3d24661e	0.04013645
26	0xba99cbc1	-0.0011733697
27	0x3d462102	0.048371322
28	0x3d8b6072	0.06805505
29	0xbe716bba	-0.2357625
30	0x3cfb5a21	0.030682625
31	0xbe1c9f8b	-0.15295236
32	0xbd94fb3f	-0.07274484
33	0x3d896e00	0.06710434
34	0x3e5763ab	0.21034114
35	0x3ca5f652	0.020259056
36	0x3cfd885c	0.03094881
37	0x3da5e4e1	0.08100296
38	0x3df44542	0.119272724
39	0xbd35cf62	-0.04438723
40	0x3e087750	0.13326764
41	0xbe1aa4df	-0.15101956
42	0x3bc807df	0.006104454
43	0xbe51baa8	-0.2048136
44	0xbdff591b	-0.124681674
45	0xbdb88338	-0.09009403
46	0xbcfa2da2	-0.030539338
47	0xbc3e6c60	-0.011622518
48	0x3d036513	0.032078814
49	0xbe1eaecd	-0.15496369
50	0x3d422731	0.047400657
51	0x3ca55fda	0.020187307
52	0xbbcc7559	-0.006239575
53	0xbdb2b212	-0.087253705
54	0x3ca5ec23	0.0202542
55	0xbd73ae24	-0.059492245
56	0x3e2f3158	0.17108667
57	0x3e2fff29	0.1718718
58	0x3ca3cedf	0.019996105
59	0xbe3e32f7	-0.18574129
60	0xbe9a3a58	-0.30122638
61	0xbd47d5de	-0.048787944
62	0x3d4e3149	0.05033997
63	0xbce32dff	-0.027731894
64	0x3bef819b	0.0073091513
65	0xbdc4c1a0	-0.096072435
66	0xbd259135	-0.040421683
67	0x3c64a86f	0.013956173
68	0xbe183be4	-0.14866596
69	0x37878e46	1.6159505e-05
70	0xbdaffe89	-0.085934706
71	0xbbdeb8cb	-0.0067969314
72	0xbc27334f	-0.010205104
73	0x3e527501	0.20552446
74	0xbe4b1ed0	-0.19835973
75	0x3d3b3972	0.04570908
76	0xbe86185d	-0.26190463
77	0xbdaf8290	-0.08569825
78	0x3c9b5d17	0.018965287
79	0x3e37065d	0.17873521
80	0x3d99c4df	0.07508253
81	0x3dcc2cb3	0.09969463
82	0xbdcb3175	-0.099215426
83	0x3c92bf7d	0.017913574
84	0xbe157396	-0.14594874
85	0x3d419296	0.047258936
86	0xbdda0b9e	-0.10646747
87	0xbd81570d	-0.06315432
88	0xbd931145	-0.07181028
89	0xbbb651e9	-0.0055639637
90	0x3e0a960c	0.13533801
91	0xbd7ed3ad	-0.06221359
92	0x3cd92cb6	0.026510578
93	0xbe1a651e	-0.15077636
94	0xbd8f5b20	-0.069998026
95	0xbc20eaec	-0.009821635
96	0x3ba9cf76	0.005182202
97	0x3da3ad83	0.07992079
98	0x3d9901b1	0.07471026
99	0x3dbbd64a	0.09171732
100	0x3be2428d	0.006904906
101	0xbdcac3f7	-0.099006586
102	0xbd9c36c8	-0.07627636
103	0xbd46e19f	-0.048555013
104	0xbe544a2b	-0.20731418
105	0x3be0d13b	0.0068608797
106	0xbcc0a027	-0.023513867
107	0x3c6b60e4	0.014366362
108	0xbd7e7de8	-0.062131792
109	0xbd0f2a77	-0.034952607
110	0x3e19d50f	0.15022682
111	0x3d613d0a	0.054989852
112	0xbd20de0f	-0.03927427
113	0xbd750a91	-0.05982453
114	0xbce1995c	-0.027538948
115	0xbe075137	-0.13214575
116	0xbd3540a2	-0.04425109
117	0xbdeae242	-0.114689365
118	0x3caded57	0.021231337
119	0xbb8acf87	-0.004236165
120	0xbcaa0c54	-0.020757832
121	0x3e34e4a0	0.17665339
122	0xbe220f35	-0.15826114
123	0x3d1b1216	0.037859045
124	0xbda7da16	-0.081958935
125	0x3c12ac5c	0.0089522265
126	0x3be51339	0.006990817
127	0x3db0d4dc	0.0863435
128	0xbde3f161	-0.11130024
129	0xbd16ddb2	-0.03683252
130	0xbdd14bc6	-0.10219531
131	0x3d231a19	0.03981981
132	0xbd29037c	-0.04126309
133	0xbded43a9	-0.11585171
134	0xbd483ed6	-0.04888805
135	0x3d4d31ff	0.050096508
136	0x3e3a8f99	0.1821884
137	0xbe032566	-0.12807235
138	0x3dcc5fdf	0.099792235
139	0xbaf10475	-0.0018388169
140	0xbd98922e	-0.074497566
141	0xbe78e17d	-0.24304767
142	0xbce1eb52	-0.02757803
143	0x3d8df604	0.069316894
144	0x3c39c3b3	0.011338162
145	0xbdc06bbb	-0.09395548
146	0xbe658bd7	-0.22416626
147	0xbdbe7a33	-0.093006514
148	0x3e0e1066	0.13873443
149	0xbd526f47	-0.051375654
150	0xbd4ba2f2	-0.049715944
151	0xbdc82b76	-0.097739145
152	0xbde7847b	-0.113045655
153	0x3b7b7869	0.003837133
154	0x3da4c690	0.08045685
155	0xbe058baf	-0.13041566
156	0x3e03bd18	0.12865102
157	0xbe532719	-0.20620383
158	0xbdb50ae1	-0.088399656
159	0xbe4f5710	-0.20248055
160	0x3ca90f51	0.020637186
161	0x3d0f22be	0.034945242
162	0x3de7d87f	0.1132059
163	0x3d544ee8	0.051833063
164	0xbc44aa00	-0.012003422
165	0xbde84d2f	-0.113428466
166	0x3e046754	0.12930042
167	0xbe2d6a54	-0.16935092
168	0xbc8199d5	-0.015820423
169	0x3cc714a0	0.024301827
170	0x3d3b17e0	0.045677066
171	0x3cd75a24	0.0262881
172	0x3e066b1f	0.13126801
173	0xbe0b347b	-0.13594238
174	0x3dab13b3	0.08353367
175	0x3a32c77f	0.00068198884
176	0xbdc1d6a0	-0.094647646
177	0xbcec34f3	-0.028833842
178	0x3daf96f5	0.08573715
179	0xbd9c746a	-0.07639392
180	0x3d9296ef	0.071576945
181	0x3e967cf1	0.29392198
182	0xbcbcf7f1	-0.023067446
183	0xbe63b0ee	-0.22235462
184	0x3da58f7c	0.08084008
185	0x3dee6f18	0.11642283
186	0xbd56c55c	-0.05243431
187	0xbc73fc31	-0.01489167
188	0xbcaf2213	-0.021378553
189	0x3e210072	0.15722826
190	0xbe4209b6	-0.18949017
191	0x3da02221	0.078190096
192	0xbd18c317	-0.037295427
193	0xbdc8a5cd	-0.09797249
194	0xbe2e50e1	-0.1702304
195	0x3d46ceaf	0.048536953
196	0x3d49c469	0.049259577
197	0xbd0a8708	-0.033820182
198	0x3c85b797	0.016322894
199	0xbd309c4a	-0.0431178
200	0x3d3b96e2	0.04579819
201	0xbd856d4d	-0.06514988
202	0x3e021390	0.12702775
203	0xbc79d9fc	-0.015249725
204	0xbc01b5f1	-0.007916913
205	0xbdca6f17	-0.0988447
206	0x3dfb59ba	0.12272973
207	0x3ba8dd3c	0.0051533263
208	0xbce4167d	-0.027842754
209	0x3e4041eb	0.18775146
210	0x3d6db14b	0.058030408
211	0xbe27d9ae	-0.16391632
212	0xbe344d71	-0.17607667
213	0xbdd7197f	-0.1050291
214	0xbdb26485	-0.08710579
215	0x3e1d9efa	0.15392676
216	0x3dc45614	0.095867306
217	0xbcad9b93	-0.021192348
218	0xbbd425b6	-0.006474222
219	0xbdd2bfe2	-0.10290505
220	0x3d68b086	0.05680897
221	0xbdb0d9b4	-0.086352736
222	0x3d0d005a	0.034424163
223	0x3d5ad92b	0.053429764
224	0x3d3b936f	0.0457949
225	0x3dd331c5	0.10312227
226	0x3cf48f2f	0.029853432
227	0xbe03004a	-0.12793079
228	0xbd5b0379	-0.05347011
229	0x3e222f06	0.1583825
230	0x3d7f8725	0.062384743
231	0x3d9f38da	0.077745155
232	0xbd8c6714	-0.06855598
233	0x3c8b8b83	0.017034298
234	0xbc670578	-0.014100425
235	0xbdc358f5	-0.095384516
236	0x3d163868	0.036674887
237	0xbb924bdf	-0.004464611
238	0x3dead68c	0.11466703
239	0xbe12761a	-0.14302865
240	0x3d3d25d7	0.046178665
241	0xbd9c33df	-0.07627081
242	0x3d46f976	0.04857775
243	0x3d14984f	0.036278065
244	0xbddbdbc9	-0.1073528
245	0x3c37d45a	0.011220062
246	0x3d371a95	0.044703085
247	0x3e20327d	0.1564426
248	0xbe5eb9c0	-0.21750546
249	0x3d4acc03	0.049510967
250	0x3bf70aec	0.007539144
251	0x3c4bf9b9	0.012449675
252	0x3d1ed85a	0.038780548
253	0xbd9b2507	-0.07575422
254	0x3d3fa70e	0.046790175
255	0xbd0c3a6e	-0.03423541

conv4.bias f4 [32]
0	0xbdeef0a7	-0.116669945
1	0x3db2c366	0.087286755
2	0xbe87e42f	-0.26541278
3	0x3e1b87f4	0.15188581
4	0xbdd2f3e4	-0.10300425
5	0xbe2f8709	-0.17141356
6	0xbe9c7cdd	-0.30564013
7	0xba6375a4	-0.00086768926
8	0xbc0c0ef9	-0.008548492
9	0xbe66bdfe	-0.22533414
10	0xbe9417ea	-0.28924495
11	0xbe3eadad	-0.1862094
12	0xbd33e9a4	-0.04392399
13	0x3da33ea7	0.07970934
14	0xbe08fd65	-0.13377912
15	0xbe52d225	-0.20587976
16	0xbe624177	-0.22095285
17	0x3cc8c6d0	0.024508864
18	0xbd2fc6cc	-0.042914197
19	0xbdaf36a7	-0.08555346
20	0xbe75ea71	-0.24015214
21	0x3e8071e0	0.2508688
22	0x3dd43e18	0.10363406
23	0xbe07c7e7	-0.1325985
24	0x3daa6a1e	0.083210215
25	0xbcec0f29	-0.028815823
26	0x3da55982	0.08073713
27	0xbed1aa87	-0.40950415
28	0x3e676a5b	0.22599165
29	0x3dd50669	0.10401613
30	0xbe3fe244	-0.18738657
31	0xbe2f7ddb	-0.17137854

linear.weight f4 [256, 800]
0	0xbc52b8b0	-0.012861416
1	0xbd58620f	-0.05282789
2	0xbd40de1e	-0.047086827
3	0x3dcabad5	0.09898917
4	0xbdd1a51c	-0.1023657
5	0x3da34f0d	0.07974062
6	0xbccd9059	-0.025093244
7	0xbe400225	-0.18750818
8	0x3e29ec82	0.16594127
9	0x3dce6d98	0.10079497
10	0xbd87195c	-0.06596634
11	0xbdcfb5d7	-0.10142105
12	0x3bdc0798	0.0067147724
13	0x3c9b8ae2	0.018987123
14	0xbda06cf9	-0.07833285
15	0xbcadb0c4	-0.021202452
16	0xbd13616f	-0.03598159
17	0x3d7a8b90	0.061168253
18	0xbd7d4035	-0.06182881
19	0x3d05c494	0.032658175
20	0xbc7798da	-0.015112126
21	0x3a923edf	0.0011157653
22	0xbd06d0a5	-0.032913823
23	0xbc6018c1	-0.013677777
24	0x3b206593	0.0024474605
25	0x3df3e697	0.11909216
26	0x3def4f40	0.116850376
27	0xbd723393	-0.059131216
28	0xbc87c050	-0.016571194
29	0xbc3526e4	-0.0110566355
30	0xbdb64596	-0.08899991
31	0xbd058e47	-0.03260639
32	0xbd027319	-0.031848047
33	0xbe4d74b3	-0.20064048
34	0x3dc63a0d	0.09679041
35	0xbc96e65f	-0.018420396
36	0xbdeb000a	-0.11474617
37	0xbd9fc0a1	-0.07800413
38	0xbdae0765	-0.08497504
39	0x3e540e07	0.20708476
40	0xbb427026	-0.0029668896
41	0x3e0bce0a	0.13652816
42	0xbd163b71	-0.03667778
43	0x3e10d335	0.14143069
44	0xbd651e75	-0.05593725
45	0x3e22caa6	0.15897617
46	0x3d9d90d9	0.07693643
47	0x3e281495	0.16414101
48	0x3cdc67a3	0.026904887
49	0xbd8b563b	-0.068035565
50	0x3c654177	0.013992659
51	0xbb8fe7eb	-0.0043916604
52	0xbe2b4829	-0.16726746
53	0xbd28c713	-0.041205477
54	0xbb1566bf	-0.0022796837
55	0x3bb2448a	0.0054402994
56	0xbdc976a2	-0.098370805
57	0x3cb4ba24	0.022061415
58	0x3e285e4c	0.16442221
59	0xbedbd791	-0.42937902
60	0xbe262f2a	-0.16228929
61	0xbda4a546	-0.08039336
62	0x3d04b7d5	0.03240188
63	0xbdd20389	-0.102545805
64	0xbd957dce	-0.07299386
65	0xbda799fd	-0.08183668
66	0xbdd52a4d	-0.10408459
67	0xbdcaa1e0	-0.098941565
68	0x3d96b2f5	0.07358352
69	0xbd48bef3	-0.04901023
70	0x3deffd6e	0.1171826
71	0xbd335ad2	-0.043787785
72	0xbcfb0f00	-0.030646801
73	0x3cf837b0	0.030299991
74	0x3d90dd97	0.07073515
75	0x3ce554e0	0.027994573
76	0xbca1c745	-0.01974834
77	0x3e0b067a	0.1357669
78	0x3c24c9d1	0.010057882
79	0xbcbb8964	-0.022892661
80	0xbc24d904	-0.010061506
81	0x3d83fddd	0.06444905
82	0xbcf04944	-0.02933181
83	0xbe3fc8c0	-0.18728924
84	0x3dbe3017	0.09286516
85	0xbe682f37	-0.22674261
86	0x3bd6e7e4	0.0065584052
87	0x3d1fbd64	0.038998976
88	0x3cfa5bcb	0.030561348
89	0xbe389880	-0.18026924
90	0xbe5982b1	-0.21241261
91	0x3d4dd3f1	0.05025095
92	0x3e0bddef	0.1365888
93	0x3e8d09eb	0.2754663
94	0x3d0cdb25	0.03438868
95	0xbdb1600e	-0.08660899
96	0xbdea0340	-0.11426401
97	0x3c8d4495	0.017244617
98	0xbe0a9103	-0.1353188
99	0xbd156da8	-0.03648153
100	0xbcb1afb1	-0.021690222
101	0x3a6d9aac	0.00090638804
102	0x3cb50acb	0.022099873
103	0xbcd49503	-0.02594996
104	0xbd2833bb	-0.04106496
105	0x3c87e017	0.016586347
106	0xbdb66abe	-0.08907078
107	0x3d51034c	0.051028535
108	0xbd8c13f4	-0.06839743
109	0xbdd294c2	-0.102822796
110	0xbda8a44b	-0.082344614
111	0xbd979ce4	-0.074029714
112	0x3e3eebc2	0.18644622
113	0x3cefe244	0.029282697
114	0xbe47c6ab	-0.1950938
115	0x3dd46710	0.1037122
116	0x3d8e9d5e	0.06963609
117	0x3db24aed	0.08705697
118	0x3bdb187c	0.0066862684
119	0x3dec6f24	0.11544636
120	0xbb7dedb4	-0.0038746418
121	0x3e005cb0	0.12535357
122	0x3e3dd83d	0.1853952
123	0xbe61712a	-0.22015825
124	0x3d1a8448	0.03772381
125	0xbdaaec0f	-0.08345806
126	0x3c5fead6	0.013666829
127	0x3ddbec8e	0.107384786
128	0xbdac26c3	-0.08405831
129	0xbde34ff5	-0.11099235
130	0x3cc28d19	0.023748921
131	0x3d22c373	0.039737176
132	0xbd2ddc51	-0.04244644
133	0xbd405034	-0.046951488
134	0x3d67ad9b	0.056562047
135	0xbd9e6100	-0.07733345
136	0xbd931362	-0.07181431
137	0xbd9670a2	-0.07345702
138	0xbe04fb8a	-0.1298658
139	0xbd9c1b59	-0.07622404
140	0xbe178db8	-0.14800155
141	0x3d65d4f7	0.056111302
142	0x3dfb1a78	0.12260908
143	0x3d3cf841	0.04613519
144	0x3c25e762	0.010125967
145	0x3cfd436c	0.030915938
146	0x3e20e7ea	0.15713468
147	0xbe2ea4ca	-0.1705505
148	0xbdb3dff2	-0.087829486
149	0x3e04e7a5	0.1297899
150	0x3d8b4055	0.0679938
151	0xbc7a5b1f	-0.015280514
152	0x3c80abf6	0.015706997
153	0x3d500baf	0.050792392
154	0xbdd6e62b	-0.1049312
155	0x3e23c711	0.15993907
156	0xbdb82e3c	-0.089931935
157	0xbe2f05cf	-0.1709206
158	0x3d224ec7	0.03962591
159	0x3dcd9c92	0.10039629
160	0x3e2b62e3	0.16736941
161	0xbd7cdabf	-0.06173205
162	0xbdd52d80	-0.10409069
163	0xbd164ec3	-0.036696207
164	0xbda76f67	-0.08175545
165	0xbd87f8b1	-0.06639231
166	0x3d97e632	0.07416953
167	0x3e007df9	0.12548055
168	0x3e1dd776	0.15414223
169	0x3da957c0	0.0826869
170	0x3df35aa2	0.11882521
171	0x3e4aec71	0.19816758
172	0x3dbbb6a7	0.091656975
173	0x3d966cd5	0.07344977
174	0xbb89c3d8	-0.0042042546
175	0xbcdc3978	-0.026882872
176	0x3d409442	0.04701639
177	0x3d4dcd1c	0.050244436
178	0xbcd2e591	-0.025744231
179	0xbd9e0b7f	-0.077170365
180	0xbe2023ad	-0.15638609
181	0x3dbfc4ab	0.09363683
182	0xbd829991	-0.06376947
183	0x3d64eec2	0.05589176
184	0x3d5a5281	0.053301338
185	0xbd751a5c	-0.05983959
186	0xbb80e340	-0.0039333403
187	0x3de82243	0.1133466
188	0xbc0d2877	-0.008615605
189	0x3d10b1a2	0.035325654
190	0xbc7d35ca	-0.015454719
191	0x3df54e1e	0.1197779
192	0x3e4aab95	0.19792016
193	0xbe075fa9	-0.13220085
194	0x3cb85132	0.022499654
195	0x3d8dacb2	0.06917705
196	0xbd0dad4a	-0.03458909
197	0xbd24d533	-0.040242385
198	0xbbc4de22	-0.0060079256
199	0x3b8710cb	0.004121875
200	0x3d19640b	0.037448924
201	0xbd1e5008	-0.038650542
202	0x3dd19dc7	0.10235172
203	0x3d8fec57	0.070275
204	0xbcff0908	-0.031132236
205	0x3d092ffa	0.03349302
206	0xbc17e8a8	-0.009271778
207	0xbdf05667	-0.1173523
208	0xbdfa7f39	-0.12231297
209	0x3e7171d7	0.23578583
210	0xbd072634	-0.032995418
211	0xbcbd210b	-0.023087045
212	0x3cf13a0a	0.02944662
213	0x3e21d7d0	0.15804982
214	0xbe127a35	-0.14304431
215	0xbd1fc086	-0.039001964
216	0xbb287218	-0.002570277
217	0xbd82b645	-0.063824214
218	0x3c61bcec	0.013777953
219	0x3cbaad08	0.022787586
220	0x3d42bfdf	0.047546264
221	0xbe4dd68d	-0.20101376
222	0xbe2ae31f	-0.16688202
223	0xbd2e7633	-0.042593192
224	0xbc7f4433	-0.015580225
225	0x3d7a3cfc	0.061093315
226	0x3e0325d9	0.12807406
227	0x3d852a83	0.06502249
228	0x3e49743d	0.19673248
229	0x3dafd114	0.085848
230	0xbe0d9c1f	-0.13829087
231	0xbcc94ab4	-0.024571754
232	0xbde14d20	-0.110010386
233	0xbe0cdc95	-0.1375602
234	0x3dcfa487	0.10138803
235	0xbe31a1b3	-0.1734684
236	0xbd58d653	-0.05293877
237	0x3df2811d	0.11841033
238	0xbd9dc17c	-0.0770292
239	0xbdc5c57f	-0.0965681
240	0xbdc2e75e	-0.09516786
241	0x3cd90602	0.026492123
242	0x3e0040e4	0.12524754
243	0x3cc13c07	0.023588194
244	0xbe47d2a3	-0.19513945
245	0xbcb8b5ff	-0.02254772
246	0x3bf87990	0.0075828508
247	0xbd15e7ec	-0.03659813
248	0xbe2f73e9	-0.1713406
249	0x3d48c517	0.049016085
250	0xbb7e3fae	-0.003879528
251	0x3d9180c4	0.07104638
252	0xbd5f6ffd	-0.05455016
253	0x3d4bf477	0.049793687
254	0x3c66eb01	0.014094115
255	0x3d15b0b8	0.036545485

linear.bias f4 [256]
0	0xbdfd3aa0	-0.123646975
1	0xbdc8d715	-0.09806649
2	0xbf02a1f0	-0.51028347
3	0xbd893f4b	-0.06701525
4	0xbdbd944c	-0.09256801
5	0xbdde3d77	-0.10851567
6	0xbde2213d	-0.11041496
7	0xbf0359df	-0.5130901
8	0xbdd190aa	-0.102326706
9	0xbda06112	-0.07831015
10	0xbd22adaf	-0.03971642
11	0xbe6cda7d	-0.23130222
12	0xbdb60d5f	-0.08889269
13	0xbd4fc9b3	-0.050729465
14	0xbd6ad725	-0.057334084
15	0xbe0f14a7	-0.13972722
16	0xbe41dd53	-0.18932085
17	0xbe00cd94	-0.12578422
18	0xbd69a798	-0.057044595
19	0xbde58825	-0.11207608
20	0xbd632b98	-0.055461496
21	0xbdb99aa6	-0.090627
22	0xbdceea0b	-0.10103234
23	0xbd99c354	-0.07507959
24	0xbde63841	-0.11241198
25	0xbeabd78b	-0.33562884
26	0xbd944c67	-0.07241135
27	0xbddaf793	-0.10691752
28	0xbd97e4bb	-0.07416674
29	0xbdfb64b6	-0.122750685
30	0xbda05825	-0.07829312
31	0xbe1b2f16	-0.1515468
32	0xbdb37399	-0.08762283
33	0xbc406fff	-0.011745452
34	0xbdbd242d	-0.092354156
35	0xbe311279	-0.17292203
36	0xbe0b0c5f	-0.13578938
37	0xbdb87eeb	-0.09008583
38	0xbdc54d46	-0.09633879
39	0xbdaa1d90	-0.0830642
40	0xbd96e637	-0.07368129
41	0xbd9a34f7	-0.075296335
42	0xbd97adb0	-0.07406175
43	0xbdf15a40	-0.11784792
44	0xbde0cf42	-0.10977031
45	0xbd5c8119	-0.053834055
46	0x3e192b86	0.14958009
47	0xbd9c4ff0	-0.07632434
48	0xbd811f5f	-0.06304812
49	0xbdb77363	-0.08957555
50	0xbd7db58f	-0.061940726
51	0xbc6112b1	-0.013737367
52	0xbe778e63	-0.2417541
53	0xbdc8d362	-0.09805943
54	0xbe33f3e6	-0.17573509
55	0xbdbc01b2	-0.09180011
56	0xbdd55cb5	-0.10418073
57	0xba8bcd03	-0.0010665957
58	0xbd9a2f40	-0.075285435
59	0xbd61e352	-0.05514843
60	0xbe14fef7	-0.14550386
61	0xbd809c30	-0.062797904
62	0x3d28c35e	0.04120194
63	0xbda096c0	-0.07841253
64	0xbe15acb8	-0.14616668
65	0xbdae77a3	-0.08518913
66	0xbdfd5a5c	-0.1237075
67	0x3d95f753	0.07322564
68	0xbd8b719b	-0.06808778
69	0xbee6cb6a	-0.45077068
70	0xbe3b6fad	-0.1830432
71	0xbb5e806f	-0.0033951064
72	0xbd84d19d	-0.06485293
73	0xbd067894	-0.032829836
74	0xbdf0e4c1	-0.11762381
75	0xbe193eec	-0.14965409
76	0xbe06e442	-0.13173011
77	0xbd92c218	-0.07165927
78	0xbd6ad4e0	-0.05733192
79	0xbe05c361	-0.13062812
80	0xbe7a31d6	-0.24433073
81	0xbd7bd4db	-0.06148229
82	0xbd9ed4b3	-0.07755413
83	0xbdb7f136	-0.08981554
84	0xbdb3fc19	-0.08788318
85	0xbd839207	-0.06424337
86	0xbd7feec0	-0.06248355
87	0xbda4d600	-0.0804863
88	0xbcaed124	-0.02133996
89	0xbe158129	-0.14600052
90	0xbda9940c	-0.08280191
91	0xbdf45bdb	-0.119315825
92	0xbd803ab5	-0.062611975
93	0xbdefd78c	-0.11711034
94	0xbd0863f9	-0.033298466
95	0xbe19f56f	-0.15035032
96	0xbe11a3ca	-0.14222637
97	0xbd99fb43	-0.075186275
98	0xbdd7f71c	-0.10545179
99	0xbdc22002	-0.09478761
100	0xbd87a450	-0.06623137
101	0xbd6ea724	-0.058264866
102	0xbdac0809	-0.0839997
103	0xbd57b04c	-0.052658364
104	0xbeae0726	-0.3398983
105	0xbd2fd463	-0.042927157
106	0xbd7d96a7	-0.06191125
107	0xbd8ea5fc	-0.06965253
108	0xbee1cda8	-0.44102216
109	0xbdd4666d	-0.10371099
110	0xbe525e8d	-0.20543881
111	0xbd955587	-0.07291704
112	0xbddbdaa8	-0.10735065
113	0xbe0c9f1e	-0.13732573
114	0xbdb37bc2	-0.08763839
115	0xbe15f48a	-0.14644065
116	0xbdb13eaa	-0.0865453
117	0xbe4998da	-0.19687214
118	0xbe01ec01	-0.12687685
119	0xbd76b056	-0.06022676
120	0xbdf73ca2	-0.12072112
121	0xbd956063	-0.07293775
122	0xbde56676	-0.112011835
123	0xbd9abee1	-0.075559385
124	0xbd0f7232	-0.035021015
125	0xbdd6dbea	-0.10491164
126	0xbdfb36f1	-0.122663386
127	0xbd900256	-0.070316955
128	0xbe1c65ea	-0.15273252
129	0xbdae77c6	-0.08518939
130	0xbd1aeca7	-0.037823346
131	0xbe4d587c	-0.20053285
132	0x3dccaeb4	0.099942595
133	0xbd27ec3e	-0.040996782
134	0x3cf6dcd6	0.0301346
135	0xbdd03033	-0.10165443
136	0xbda22b0a	-0.07918365
137	0xbe23b71f	-0.15987824
138	0xbdca8528	-0.09888679
139	0xbd6fed8c	-0.05857615
140	0xbdba16bf	-0.0908637
141	0xbda73aaf	-0.0816549
142	0xbdd049b5	-0.101703085
143	0xbdf9ad5c	-0.12191269
144	0xbd732f6d	-0.0593714
145	0xbda4bdc6	-0.08044009
146	0xbf102edb	-0.56321496
147	0xbdbc0973	-0.0918149
148	0xbd99a417	-0.07502001
149	0xbdc2e76a	-0.09516795
150	0xbd8a0db4	-0.06740895
151	0xbc24968a	-0.010045657
152	0xbda53c1f	-0.08068108
153	0xbd4489a0	-0.047982812
154	0xbe95abca	-0.29232627
155	0xbe359290	-0.1773169
156	0xbd68f0e1	-0.056870345
157	0xbec8eed5	-0.39244714
158	0xbe2f5b34	-0.17124635
159	0xbeb99edb	-0.3625401
160	0xbcfc8755	-0.03082625
161	0xbdb453a2	-0.08805014
162	0xbf045368	-0.5168977
163	0xbd8814dc	-0.066446036
164	0xbda7591b	-0.081712924
165	0xbe3caaac	-0.18424481
166	0xbe9c0cf1	-0.30478624
167	0xbdf1c517	-0.1180517
168	0xbd526553	-0.05136616
169	0xbe14dbaf	-0.14536928
170	0xbd8b68c2	-0.0680709
171	0xbd58e3bf	-0.05295157
172	0xbc07e03e	-0.00829321
173	0xbdb212f5	-0.08695022
174	0xbeecdb64	-0.46261132
175	0xbdd4277f	-0.10359096
176	0xbda6e18d	-0.08148489
177	0xbc9e03eb	-0.019288978
178	0xbdd4404a	-0.10363825
179	0xbe1edabd	-0.1551313
180	0xbe00c469	-0.12574925
181	0xbd1b6a3f	-0.03794312
182	0xbd6e9dfa	-0.058256127
183	0xbdca3c7b	-0.09874817
184	0xbdb6f98e	-0.089343175
185	0xbd3ecca0	-0.046581864
186	0xbd8ddd09	-0.06926925
187	0xbd8d9027	-0.069122605
188	0xbd62c821	-0.05536664
189	0xbcc61822	-0.02418143
190	0xbed87ed2	-0.42284256
191	0xbe860458	-0.2617519
192	0xbdbbe67e	-0.09174822
193	0xbdae0b11	-0.084982045
194	0xbdc00bfe	-0.09377287
195	0xbdb9d2b8	-0.090733945
196	0xbd82433b	-0.063604794
197	0xbe149581	-0.14510156
198	0xbdc124b2	-0.09430827
199	0xbdc3c1ec	-0.09558472
200	0xbd9e86a2	-0.07740523
201	0xbda9d08b	-0.082917295
202	0xbd800041	-0.062500484
203	0xbd89d539	-0.06730122
204	0xbd5403d5	-0.051761467
205	0xbd4cd9da	-0.050012447
206	0xbdb156cf	-0.086591356
207	0xbd96c6cd	-0.07362137
208	0xbda4a82e	-0.0803989
209	0xbdc79fc7	-0.09747272
210	0xbd924a9c	-0.07143137
211	0xbe60b47b	-0.21943848
212	0xbdca806e	-0.09887777
213	0xbd2d9bb2	-0.04238481
214	0xbd85acc1	-0.06527091
215	0xbed515fb	-0.41618332
216	0xbda27b90	-0.07933724
217	0xbd7993da	-0.060932018
218	0xbd30a1a4	-0.043122903
219	0xbd913be0	-0.070914984
220	0xbda4aa5e	-0.080403075
221	0xbdc00d58	-0.09377545
222	0xbd9a6623	-0.07539012
223	0xbdaef525	-0.08542851
224	0xbda798e6	-0.0818346
225	0xbd30f73d	-0.043204535
226	0xbdc249d9	-0.094867416
227	0xbea0c92f	-0.3140349
228	0xbdb86553	-0.09003701
229	0xbd7f1814	-0.062278822
230	0xbdc32eda	-0.095304206
231	0xbdaeb463	-0.085305
232	0xbdab3d2b	-0.08361276
233	0xbe46119c	-0.19342655
234	0xbdffdef4	-0.12493697
235	0xbd2d3f23	-0.04229654
236	0xbd21c778	-0.03949687
237	0xbd817726	-0.06321554
238	0xbdd87a1a	-0.10570164
239	0xbd888bdd	-0.06667302
240	0xbe35bcdd	-0.17747827
241	0x3db8355c	0.089945525
242	0xbda7e110	-0.08197224
243	0xbc351c17	-0.01105406
244	0xbd7ed2dc	-0.06221281
245	0xbde35805	-0.11100773
246	0xbe945dc8	-0.289778
247	0xbd541703	-0.05177976
248	0xbeb06512	-0.3445211
249	0xbdbc42f0	-0.09192455
250	0xbe257055	-0.16156133
251	0xbe044d8a	-0.12920204
252	0xbd8ba729	-0.06818993
253	0x3c2b73ba	0.010464603
254	0xbf0637a4	-0.5242865
255	0xbdb15836	-0.08659403
