21-A3C-Pong/runs/BreakoutNoFrameskip-v4/2022-11-03_16-23_Second80MSteps_OK/model_sam_BreakoutDeterministic-v4_conv.76.tar (torch, 944955 bytes, 13 tensors)

conv1.weight f4 [32, 4, 3, 3]
000000 2b fc b5 3d c5 ed 0c bf e2 14 6d be 95 fe 3a 3e
       0.08885988 -0.5505031 -0.23152497 0.18261178
000010 c3 ab 71 be 31 f8 80 3e 2d 99 29 3e 37 fa 31 3e
       -0.23600678 0.25189355 0.16562338 0.17380606
000020 4c a2 21 3e a5 73 c7 3d 28 d1 b2 3d 59 18 f5 3b
       0.15784568 0.09738854 0.087313 0.007479709
000030 ee f8 67 3e 6f 9e 1f bd 04 ba ee 3d d0 8d 34 3e
       0.22653553 -0.038969453 0.116565734 0.17632222
000040 aa 5a 3c 3e f9 22 8f 3e 2b 43 f5 3d 64 b4 84 3e
       0.1839396 0.2795637 0.11975702 0.25918877
000050 ce 10 84 3e 48 64 ab be e9 87 d6 bc 5c a4 5b 3e
       0.2579407 -0.33474946 -0.026187854 0.21449417
000060 96 ed 02 bd 66 d8 22 be 9a 0d 03 3d b2 36 6a bd
       -0.03196486 -0.15902862 0.031995393 -0.057181068
000070 b7 cf 81 be c3 d6 05 3e 9e a8 90 be 47 89 2b be
       -0.25353786 0.13070206 -0.28253645 -0.16751586
000080 ff 68 13 3e da 6e 78 be 85 ed f7 be e9 df 6e be
       0.14395522 -0.24261037 -0.484234 -0.23327602
000090 f3 fa 09 3e 8d 57 0a be 01 ce ee bd 64 16 5b 3d
       0.13474636 -0.1350996 -0.11660386 0.05348815
0000a0 f5 25 02 3f c7 77 84 be 0c f7 b3 3e 55 17 c0 3e
       0.5083917 -0.25872633 0.3514942 0.375178
0000b0 ea 5f ee be d3 64 0a 3e 02 bf 33 3e a0 4f b7 bd
       -0.46557552 0.13515024 0.17553332 -0.08950734
0000c0 bf 26 bc 3d e9 03 0a 3f 0f 64 a6 be cc 22 bb 3d
       0.09187078 0.53912216 -0.32498214 0.09137496
0000d0 3f ea 00 3f e6 e6 8b be a1 9e bc 3d 07 06 80 3e
       0.5035743 -0.273246 0.092099436 0.25004598
0000e0 d5 24 4e bd e3 3f 5e be 0d 34 08 3f 5d 61 6f 3d
       -0.050328095 -0.21704058 0.53204423 0.058442462
0000f0 69 89 85 be 8d b0 b4 3e 17 e1 dc bb 57 d6 00 bd
       -0.26081398 0.35290948 -0.0067407 -0.03145441
000100 4f 39 ad be b3 e0 22 be ca c7 b2 be 4e af 4a be
       -0.33832785 -0.15906028 -0.34918052 -0.19793436
000110 d0 e3 8a be 16 91 9c be 0f cd 31 be da 16 5d be
       -0.27126932 -0.30579442 -0.1736338 -0.21590748
000120 11 56 90 3d 14 ec bd 3d c4 14 08 bc dd 27 05 3e
       0.07047666 0.09273544 -0.008305732 0.13003488
000130 05 a1 b9 3d a3 48 a9 bd fc 41 d3 bd 2a 2a 74 3e
       0.09063915 -0.082658075 -0.1031532 0.2384421
000140 3c b7 6e bd b4 1a f9 3d d5 b0 b9 3c 22 4b 2f be
       -0.058280215 0.12163296 0.022667328 -0.17118505
000150 f4 74 e0 3e 3e a5 80 be 4f 1d 0e bf a8 5d c2 3d
       0.43839228 -0.2512607 -0.5551347 0.0949052
000160 b5 c2 cf bd 34 22 6b bc a0 07 63 3e 7c fe 4f be
       -0.10144559 -0.014351416 0.22170877 -0.20311922
000170 13 9d 2d be f6 4c 0a 3f d6 82 4e be 5f 8b 09 bf
       -0.1695445 0.54023683 -0.20167097 -0.5372829
000180 f4 6a c3 3d 34 c6 5e 3d 2f 67 89 be 04 78 ae 3d
       0.09541884 0.05438824 -0.26836535 0.08518985
000190 0c 31 c6 3d 39 de 20 be 74 9b 86 3e 05 af e6 3d
       0.09677324 -0.15709771 0.26290476 0.11263851
0001a0 f5 a5 64 be 36 dc 2d be e6 8d 63 3e 61 95 7e bd
       -0.22328933 -0.16978535 0.22222099 -0.062154178
0001b0 1f 05 b8 3e dd da 3b 3e d5 8f 59 3e 82 15 c8 3e
       0.35941407 0.18345208 0.21246274 0.3907891
0001c0 e2 a9 2a 3f e8 6f ec 3d a9 a3 6d 3e 3e 72 ef 3e
       0.6666547 0.11544782 0.23206963 0.46766847
0001d0 45 b7 1d 3e 00 4a f3 3d 7a e1 07 be 10 97 d3 ba
       0.15401943 0.11879349 -0.13269606 -0.0016143043
0001e0 8f a8 92 bc 20 b6 b6 3e 34 93 d2 3e 35 1a 23 bd
       -0.01790264 0.35685825 0.41127932 -0.039819915
0001f0 f6 a9 71 3e 04 b1 86 3c 1a 29 a2 be 4b 81 bb be
       0.23599991 0.01644183 -0.31671983 -0.3662208
000200 d3 58 e7 3d 3f 35 27 be 9f 93 d1 be fd ff f4 bd
       0.11296239 -0.16328906 -0.40932938 -0.119628884
000210 a6 f1 a3 b9 0b b0 ab bd 18 8d 5d bd 8b 06 3d bc
       -0.00031269825 -0.08383187 -0.054089636 -0.0115372045
000220 84 c2 54 be 01 5a 0d bd 20 27 c4 be a4 d9 09 bf
       -0.20777327 -0.034509663 -0.383111 -0.5384772
000230 f3 40 98 be bf 88 42 be 9d 14 d8 be a5 aa 70 be
       -0.29737052 -0.18997477 -0.42203227 -0.23502596
000240 42 dd 6a 3d 89 53 9f 3c b6 60 c7 3c 35 80 5b 3e
       0.057339914 0.019449012 0.024338108 0.21435626
000250 e7 f0 0b 3f 06 73 a1 3e 9a 8c 44 3d 8b 67 8b 3e
       0.5466446 0.31533068 0.04798565 0.27227435
000260 14 e3 56 3e 9d 74 5d be fc 07 2b bf 98 f9 b5 be
       0.20985061 -0.21626516 -0.6680906 -0.35541987
000270 45 9c 00 bf 62 4d 0a bf 86 5b e2 be 45 dd 23 be
       -0.5023845 -0.54024327 -0.44210452 -0.16002376
000280 4b 53 b9 be 4f 92 d2 bd 77 8b dd 3d d6 d1 0c 3e
       -0.3619636 -0.102818124 0.108176164 0.13751921
000290 82 c2 ef bc f6 e6 34 be c8 33 a2 be a8 cb 2b be
       -0.029267553 -0.1766623 -0.3168013 -0.16776907
0002a0 49 60 ea bd b1 53 b1 be 2d 99 14 be 9a b0 77 3e
       -0.11444146 -0.34634164 -0.14511557 0.24188462
0002b0 62 51 df 3e 1c 62 28 3e a1 e2 66 3e 04 fa 21 3f
       0.43616778 0.16443676 0.2254739 0.6327212
0002c0 b4 74 a4 3e f4 40 85 3e c2 b0 05 3e ee e5 9b 3e
       0.32120287 0.26026118 0.13055709 0.3044886
0002d0 af 86 00 be 9f 22 64 be 9c 9f 15 be 36 72 cc be
       -0.12551378 -0.22278832 -0.14611667 -0.39930886
0002e0 03 0a 06 bf 14 8f b2 bb de f8 ee be 78 36 ef be
       -0.52359027 -0.005449185 -0.46674246 -0.46721244
0002f0 20 67 f2 bd a9 3f 74 3c a0 de 0f 3e b4 17 36 bc
       -0.11836076 0.014907756 0.14049768 -0.01111405
000300 4e 06 83 3b 6b 0b 31 3e 0a 73 1f 3e 86 d1 38 be
       0.0039985543 0.17289512 0.15571228 -0.18048677
000310 ee 5b fe bc de 52 93 3d 0f d7 84 3e 9e 2e f8 bd
       -0.031049695 0.0719354 0.25945327 -0.121182665
000320 49 9f 87 bc 24 6f 36 3e a4 9d ca 3e 41 f1 b7 3c
       -0.016555445 0.17815834 0.39573395 0.022453906
000330 98 50 ac 3e 44 82 4f 3e 93 ed c5 bc 5f 25 b3 3d
       0.33655238 0.20264536 -0.024161136 0.08747362
000340 4f 57 f6 3d af f0 56 3d d1 8b 6b 3d 26 1d 05 3e
       0.120283715 0.052475628 0.057506386 0.129994
000350 c5 d6 2e be 2d ca 62 3e ed fb 6f 3e 6b 32 68 3e
       -0.17074116 0.22147436 0.23435946 0.22675483
000360 a2 c1 14 3e de 18 ae bd ba a6 21 3d a3 9e 3d 3e
       0.1452699 -0.08500837 0.039465643 0.18517546
000370 72 24 0b be ca e1 2f bd 78 a5 f6 bd 74 6e c7 bc
       -0.13588122 -0.04293994 -0.120432794 -0.02434466
000380 22 54 a5 bd 2a c2 0c 3e a9 7f 02 3f 63 ac 9f 3e
       -0.08072688 0.13745943 0.50976044 0.31186208
000390 aa f2 11 3f da c0 6a 3f 99 53 d3 3d 93 3f 72 bd
       0.570109 0.9170052 0.10318679 -0.05914266
0003a0 68 e1 c0 3e 93 e1 d4 bd 60 74 50 be d9 08 bd 3c
       0.3767197 -0.10394587 -0.20356894 0.023075508
0003b0 a6 ad 4b be a3 4c 40 3e 2e 08 aa 3e 55 c9 ea be
       -0.1989046 0.18779235 0.33209366 -0.4585673
0003c0 a9 83 f0 bd 56 07 79 3e 29 c7 22 bd 2a 3d 97 be
       -0.11743862 0.24319205 -0.039740715 -0.29538852
0003d0 2f 52 ae be cb 0b 2c be 6f 42 fd be d3 18 12 bf
       -0.34047076 -0.16801374 -0.49464747 -0.5706913
0003e0 ef 8e df be cd d4 62 3d 02 3d 54 bc b3 b0 de bd
       -0.43663737 0.055378724 -0.0129539985 -0.108735465
0003f0 49 1c c1 3d 8b 86 7e 3e e2 32 96 3e 62 a5 72 3d
       0.09429223 0.24856012 0.29335696 0.059239753

conv1.bias f4 [32]
000000 ac 85 c6 3a 44 97 f6 b8 1e 50 18 3c c7 0c 82 3b
       0.0015146038 -0.000117583695 0.009296445 0.0039688083
000010 31 11 24 3b 03 96 81 bb b6 94 4c ba f2 2e 06 3b
       0.002503466 -0.0039546504 -0.0007804142 0.002047476
000020 15 69 83 3a d7 90 07 bc 43 79 9a ba 72 26 ef 3b
       0.0010025824 -0.008274279 -0.0011785406 0.007298284
000030 d3 44 37 3b 7e 3d a5 3a c7 b3 1c ba aa c4 8e 3c
       0.0027964606 0.0012606827 -0.00059777166 0.017427761
000040 da d2 ef 3a 88 41 1e 3a 14 58 5c ba 8f 8e a0 3a
       0.0018297092 0.00060369866 -0.00084054586 0.0012249517
000050 8c d1 d1 bb ed a3 4d 3b 35 3c dc 3a 80 61 1b ba
       -0.0064031538 0.0031378225 0.0016802611 -0.00059273094
000060 a2 91 65 bb 3a 33 66 ba b9 14 ab 38 69 32 5b 3b
       -0.003502943 -0.0008781437 8.157775e-05 0.0033446795
000070 10 f3 2b 3b 62 bc ac 3a 38 d9 82 ba 11 d2 07 bb
       0.0026237406 0.0013178701 -0.0009982949 -0.0020724575

conv2.weight f4 [32, 32, 3, 3]
000000 19 60 34 3e 3f db da bd e2 83 c2 3d 53 d5 6d be
       0.17614783 -0.10686349 0.09497811 -0.23225908
000010 26 c0 2c 3d 13 c9 42 3e b8 13 db 3d 48 73 39 3e
       0.042175435 0.19022016 0.106971204 0.18110383
000020 50 9d 94 be fa 83 4a 3e 4b f5 a8 be 2f 9f 82 3e
       -0.2902627 0.19776908 -0.32999644 0.25512072
000030 7e 25 01 3e 11 d7 7b be 07 f1 0f 3e 30 72 e6 bd
       0.12611958 -0.2459376 0.14056788 -0.11252248
000040 a5 4c 6b 3e ee 0d f4 3b f9 88 d4 bc 6e 9b dc 3c
       0.22978456 0.0074479496 -0.02594422 0.026929583
000050 47 87 ba bd 1f 42 2d 3e 26 d5 b1 3d 05 d9 08 bf
       -0.09107833 0.16919754 0.08683233 -0.53456146
000060 24 ab 2f be f7 68 8c 3c 99 c2 c2 3e cc 7b 83 3e
       -0.17155129 0.017139895 0.3803909 0.25680387
000070 13 44 38 be 04 10 af 3d 6c 67 df 3d 10 1a 8d 3d
       -0.17994718 0.085479766 0.10908398 0.06889737
000080 4b 86 9b 3e b9 92 71 3d c3 67 60 3e 61 a0 76 be
       0.30375895 0.058977816 0.21914582 -0.24084617
000090 7a 22 68 3c 45 55 d3 bd 81 11 a3 be 8b 58 9a 3c
       0.014168376 -0.10318998 -0.31849292 0.018841049
0000a0 a5 b2 47 be 12 57 52 be 37 7f 28 bd af 0a 61 bd
       -0.19501741 -0.20541027 -0.041136947 -0.05494183
0000b0 9a a9 81 bd eb 9d bd be 55 90 97 3e 4d 03 07 be
       -0.06331177 -0.37034544 0.29602304 -0.13184853
0000c0 20 fd ba 3d ff 15 4d 3d 62 d0 bc 3d cb 6e e4 3d
       0.09130311 0.050069805 0.09219433 0.111539446
0000d0 8f 92 d7 3d ef 63 53 be 23 a3 05 3d bb 56 d3 bd
       0.10526001 -0.2064359 0.032626282 -0.10319277
0000e0 c2 e1 2b 3e e6 cb 68 3e 57 23 a7 bd 78 b9 40 3e
       0.16785339 0.22734031 -0.081610374 0.1882075
0000f0 9c b3 51 be 57 a4 30 bc a8 b7 c7 bd 08 2f 4c be
       -0.20478672 -0.010781369 -0.097518265 -0.19939816
000100 68 78 12 3d d0 ed f3 3c a8 eb 81 be 6a 52 6e 3e
       0.03575936 0.029776484 -0.25375104 0.23273626
000110 9b 7d 19 3e 98 45 63 bc 56 45 1f 3e b8 5c fd bd
       0.14989321 -0.013871573 0.15553793 -0.123712
000120 d8 43 5a 3b 92 0e a8 bd 84 a4 5f bd e2 93 35 be
       0.0033304598 -0.08205904 -0.054600254 -0.17732194
000130 15 66 df bd 9d fc cb 3d 80 0d 3e bc 6c 56 8d bd
       -0.109081425 0.099602915 -0.011599898 -0.06901249
000140 f1 af 5e 3d 6a 60 dc bc 37 7f c1 3d 1a b1 a2 be
       0.05436701 -0.026901443 0.094480924 -0.31775743
000150 a9 dd 82 be 5d aa a2 be 09 5e f6 be a3 83 88 3d
       -0.25559738 -0.31770602 -0.48118618 0.06665733
000160 18 01 ac 3c 95 0e fb 3e 6c ca 21 be a3 3e 05 be
       0.020996615 0.49034563 -0.15799874 -0.13012175
000170 8d ac 61 3d 7a 42 f1 bd 2b f4 8f 3d 53 f3 59 bd
       0.055096198 -0.117802575 0.07028993 -0.053210568
000180 5c a4 65 ba 07 b4 11 3e 08 c5 a9 bd c6 c4 2c be
       -0.0008760148 0.14228831 -0.08289534 -0.16871938
000190 4d 6e 2f 3d a7 ed b2 3d 14 d3 9c 3d fa a4 0a 3e
       0.0428298 0.08736735 0.076574475 0.13539496
0001a0 c8 1d f0 be 5d 2a 53 be 68 c2 0b 3e 4f 17 5d bb
       -0.4689772 -0.20621629 0.13648379 -0.0033735817
0001b0 c3 72 28 bd 00 09 2d 3d 2e 8c 90 3e 80 10 b7 3c
       -0.04112507 0.04224491 0.2823195 0.022346735
0001c0 38 6f c0 3d f4 c9 12 3e 5f 3c 30 bd c3 2b c1 bd
       0.09396213 0.14334852 -0.043026324 -0.09432175
0001d0 b0 9a a2 3c 42 97 46 3e 27 8c 43 3e db d9 94 3e
       0.019849151 0.19393638 0.19096433 0.2907246
0001e0 14 98 ef bd 52 b6 24 be 63 d3 8a 3e b5 5c fd 3c
       -0.116989285 -0.16085175 0.271144 0.030927995
0001f0 59 54 e3 bd e3 fa d4 3c aa 45 4b 3e 9f 2d e3 3d
       -0.111000724 0.025998538 0.19850793 0.11092686
000200 07 de 62 be f9 40 67 3d ac 4d 2b 3d 94 43 72 be
       -0.22155009 0.056458447 0.04182212 -0.23658592
000210 42 75 ef bd 58 b1 b6 3c a5 3e 31 3d 14 e0 3d 3e
       -0.11692287 0.022301361 0.043272633 0.1854251
000220 08 95 3b bd 84 0b 8b 3c 9e 59 a0 3d ce d7 ba 3d
       -0.045796424 0.016973265 0.07829593 0.09123193
000230 15 34 38 be ff 2c 19 3e 1e 0d 92 bc e6 ba 8c bd
       -0.17988618 0.14958571 -0.01782852 -0.068715855
000240 57 3e 49 be 81 4e f7 3c d6 c7 58 3d 08 71 80 3d
       -0.19652687 0.0301888 0.052924953 0.06271559
000250 5b 9e 70 be 72 07 ef 3d 11 8b 13 bc c9 23 31 3e
       -0.23497908 0.11671342 -0.009005324 0.17298807
000260 94 d7 98 bd 21 10 bd 3d 9b c5 3f bd 9a 56 e0 3d
       -0.07462993 0.09231592 -0.04681931 0.10954018
000270 ee 6c f7 bc 74 18 10 3d 31 49 8a 3d 58 a6 82 bd
       -0.030203309 0.03517957 0.067522414 -0.06379384
000280 69 20 53 be 7d 22 02 3d d0 09 86 3e ed c9 f1 3d
       -0.20617832 0.03177117 0.2617936 0.118060924
000290 c6 2c 74 3d 9e 6f 87 3d 13 c8 d3 bd 95 82 2b bc
       0.05961301 0.06613086 -0.103408955 -0.010468145
0002a0 92 8a 6d be f7 ca 61 3d 5c fe a7 bd 55 83 f3 bc
       -0.23197392 0.055125203 -0.08202812 -0.02972571
0002b0 7b 91 ff bb 34 f6 85 be 5b fb 75 3c 1d 0d ab 3d
       -0.007799325 -0.261644 0.015013541 0.083521105
0002c0 68 29 b9 be eb 17 f6 bc e2 27 33 3d 22 8c 89 3e
       -0.36164403 -0.030040702 0.043739207 0.26864725
0002d0 d3 e3 d1 3b 00 87 06 3d 79 45 1e 3e a9 b4 65 be
       0.0064053326 0.03284359 0.15456189 -0.22432198
0002e0 88 2e 64 3e 7a e1 21 3f 37 4d 5f bd c5 22 8a 3d
       0.22283375 0.63234675 -0.054516997 0.06744913
0002f0 86 87 88 be 1d c9 b8 3d 59 fb 8a 3c a8 12 31 3e
       -0.26665896 0.09022734 0.016965555 0.17292273
000300 94 b5 23 3e a0 35 04 3e 0a 97 b0 3d 7c 73 c8 bd
       0.15987235 0.12911081 0.086225584 -0.09787652
000310 74 46 cf bc 92 a7 40 3d 6a a9 12 3e 9c 5f f3 bd
       -0.02530215 0.047034808 0.14322439 -0.118834704
000320 50 fe 2d bc 42 1a cc be 62 96 54 3e 6f 42 37 3e
       -0.010619715 -0.39863783 0.20760491 0.17896436
000330 80 53 41 3d e0 fa 84 bd 61 3a 5d bc 67 ad 1d 3e
       0.047198772 -0.06493163 -0.013502688 0.15398179
000340 9a 98 8b be 6a 57 8d 3d 56 82 5c be f5 ab bc 3e
       -0.27264863 0.069014385 -0.21534094 0.36849943
000350 be 68 2f be b7 3a cf bd c7 7b 9e be d0 36 ac 3e
       -0.171298 -0.10118621 -0.3095381 0.3363557
000360 5d 1c 97 be 2e 0d 70 3d 03 45 17 be 2b ee f7 3d
       -0.29513827 0.05860632 -0.1477242 0.12105974
000370 3a 3b 58 3e b3 0c 25 bd a3 e0 02 3e 3c 8d 20 be
       0.21116343 -0.040295314 0.12781005 -0.15678877
000380 43 7c e6 bd c6 eb 1b 3e 01 0e 0d 3f 19 f8 9c 3d
       -0.1125417 0.15226659 0.55099493 0.076645084
000390 6f 67 92 be df af 49 3e ca 26 18 bd 1c 17 c1 3d
       -0.2859454 0.19695996 -0.037146367 0.09428236
0003a0 c3 c8 54 bb 85 a7 5e be 6d ba a1 3d ae 31 00 be
       -0.0032468296 -0.21743591 0.07896886 -0.12518951
0003b0 89 10 7d be 7b 70 82 be 05 56 23 bd 82 70 49 3e
       -0.24713339 -0.2547644 -0.039876956 0.19671825
0003c0 14 e8 74 3d d7 31 49 3d 3b 44 35 be 81 7c 0a 3d
       0.05979164 0.049119797 -0.17701809 0.033810142
0003d0 6a 9c 5a 3d ba 02 83 bd 55 44 94 be 17 c0 89 3e
       0.053371824 -0.063970044 -0.28958383 0.26904365
0003e0 87 8a e3 3e 5f 58 47 bb 9d 46 72 3e 35 47 17 be
       0.44441625 -0.0030417664 0.2365975 -0.14773257
0003f0 c6 07 1e 3e 95 37 58 be f5 74 52 bc 3f 6d 37 bd
       0.15432653 -0.21114953 -0.012845268 -0.04478192

conv2.bias f4 [32]
000000 51 69 ed bc d1 27 24 be 07 c0 29 bc d2 06 b6 bc
       -0.028980883 -0.16030814 -0.010360724 -0.022220049
000010 91 23 34 bd f0 e0 01 bd d9 67 d6 bc 68 a0 8c bd
       -0.04397923 -0.031708658 -0.026172565 -0.068665326
000020 0b 3e 34 bd a1 7d a8 bd 52 ca 8a 3b 28 9c 19 3c
       -0.04400448 -0.08227087 0.0042355442 0.009375609
000030 9d 15 3f bc 13 28 04 be 05 3c 29 bc 40 30 a3 3b
       -0.011662868 -0.12905912 -0.010329251 0.004980117
000040 dc e3 a1 3c 7c e3 89 bc cc 2a 59 bd e7 57 79 bd
       0.019761972 -0.016832106 -0.05301933 -0.060874846
000050 24 c6 f9 bd 01 88 4d 3b 8e 59 75 bb ca 1b f6 bc
       -0.121959955 0.0031361582 -0.0037437412 -0.030042548
000060 9e a1 99 bd 25 fe 83 ba e5 73 14 bc d6 e0 94 3b
       -0.07501529 -0.0010070248 -0.009060835 0.004543404
000070 bb 4c 99 3c 50 56 4a bd 00 9e 87 bd 6f 0b 04 be
       0.018713346 -0.04939872 -0.06621933 -0.12894987

conv3.weight f4 [32, 32, 3, 3]
000000 f9 72 88 bc f4 ff 12 be 2d 9a 81 be 1f 6c 99 bd
       -0.016656386 -0.14355451 -0.2531294 -0.074913256
000010 f3 04 1d 39 e0 7e 3c 3d fd 6d 18 bd 31 de 1b 3e
       0.0001497453 0.046019435 -0.037214268 0.15221478
000020 f1 f9 c0 3d 99 9c 1d bd 81 6a 9b 3c f7 07 ff 3d
       0.094226725 -0.03847942 0.018971683 0.12452691
000030 61 80 cd 3d e7 02 83 be 7b 77 d0 be 30 12 e6 bc
       0.10034252 -0.25588152 -0.40716156 -0.028084844
000040 5c 51 d8 bb 5e 3b fd bb 59 a1 81 bd 5f ee 56 3d
       -0.0066014957 -0.0077280244 -0.06329603 0.052473422
000050 c7 bb 92 bb ff 9d 45 3e 19 d7 d4 bd a9 3a b2 bd
       -0.004477951 0.19298552 -0.10392589 -0.08702595
000060 9c fc b5 3d 35 3c 85 bd 2d 10 a3 3d 1e b9 1c 3d
       0.08886072 -0.06505624 0.0796207 0.03826248
000070 26 cd ae 3d f5 7b f4 3d 74 58 06 be 70 6f 6f bd
       0.08535223 0.119377054 -0.1311968 -0.058455884
000080 61 27 03 be 1b a3 23 3e c1 0d 01 3d 68 39 97 3d
       -0.1280799 0.15980189 0.031507257 0.07383996
000090 15 19 42 3e f1 5d 97 bd 0d bd 0e 3d 46 b8 aa bb
       0.1895488 -0.07390965 0.03484826 -0.0052099554
0000a0 08 1b fd 3d 56 1d 90 3d 68 81 f4 3d a0 4c 17 3e
       0.123586714 0.070368454 0.11938745 0.14775324
0000b0 75 ab 79 3e b1 2b 3b 3d 1e e2 aa bb 0b 3a 53 3e
       0.24381812 0.045695964 -0.0052149436 0.2062761
0000c0 a9 41 8a 3d 8c 5b 82 3e c1 fa 21 3d c2 a7 5f bd
       0.06750805 0.2546047 0.03954578 -0.054603346
0000d0 7c 25 d3 3b 25 11 1c 3d e6 25 aa 3d 60 81 35 3d
       0.0064436775 0.038102288 0.0830801 0.044312835
0000e0 5d b9 b4 3c 0c 35 87 3d f8 ec 88 3e 83 7e 3e 3e
       0.022061044 0.06601915 0.26743293 0.18602948
0000f0 c1 a9 a1 bd 38 80 6e be 81 b6 71 bc 90 01 09 3e
       -0.07893706 -0.23291099 -0.014752985 0.13379502
000100 17 e6 df 3c cb 38 b3 3d e8 57 0e 3d ec 9e bb 3d
       0.027331395 0.08751067 0.034751803 0.09161171
000110 65 1f 6c 3e a9 b5 d9 bd 8e b6 88 3d 1f f8 10 be
       0.23058851 -0.10630352 0.066754445 -0.1415715
000120 c6 43 04 3e 63 e6 07 3e 80 f4 9a bc 09 f4 bc bc
       0.12916479 0.1327148 -0.018915415 -0.023065584
000130 c7 5d 23 3e f5 b7 57 3e ea dd a0 be 3b eb 91 bd
       0.15953742 0.21066268 -0.31419307 -0.07124945
000140 c1 22 55 be 33 2c e4 bd 5a e0 55 3d ac 64 b5 bc
       -0.20814039 -0.11141243 0.05221591 -0.02214273
000150 37 7a 29 be b9 aa d2 bd 6e c3 9c bd a2 77 11 3e
       -0.16550528 -0.10286469 -0.07654463 0.14205793
000160 31 df a4 bd 6d 87 61 3e 08 3d a6 bd f3 39 94 3d
       -0.08050383 0.22024317 -0.081171095 0.072376154
000170 98 4b 24 3c 9f 74 1c 3e 33 56 3d bd fe 11 11 bd
       0.010027789 0.15278862 -0.046224784 -0.03541755
000180 c5 df e2 bd 41 96 15 bd b9 a6 17 be 59 da a3 3d
       -0.11077837 -0.036520246 -0.14809693 0.08000631
000190 e7 1d 72 3e e9 3c 89 3e 2b 94 89 3d 67 8b 54 3e
       0.2364422 0.26804283 0.06717714 0.20756303
0001a0 a7 bb 95 bc d8 e0 3c be 6d 3d 6c be 8d ae 5a bb
       -0.018277956 -0.18445146 -0.23070307 -0.00333682
0001b0 e8 72 b6 bd 72 fc 21 3e a7 ac 20 3d 8d f7 09 3e
       -0.089086354 0.15818956 0.039227154 0.1347334
0001c0 da 9c 9a 3d 88 e6 ab 3e de 4b 02 be a5 d3 33 be
       0.07549448 0.3357432 -0.12724254 -0.17561205
0001d0 69 d8 e5 bd b7 4d ea bd 8a c5 a6 bd b6 0e b0 bd
       -0.112229176 -0.11440604 -0.08143146 -0.08596556
0001e0 c1 95 31 3e ec e9 44 3d 41 1b 7a 3e 21 40 dd 3c
       0.17342283 0.048074648 0.24424459 0.027008118
0001f0 b4 21 02 3e a9 40 51 bd af 7e a0 bd 3d fb 43 bd
       0.12708169 -0.051087055 -0.07836663 -0.04784702
000200 91 c6 76 3d 79 2a 45 3e 80 e9 c2 3d 62 68 07 bd
       0.06024796 0.19254483 0.09517193 -0.03305853
000210 8e 9f d1 3c 81 ee 4a be 1d e5 be 3d c3 5d fd 3d
       0.025588777 -0.19817545 0.09321044 0.12371399
000220 40 dd 17 3e 7a fd f0 bb 1d 58 55 3d ed cb b9 be
       0.14830494 -0.0073544355 0.052085984 -0.36288396
000230 1a d2 a9 3c 93 06 44 be 23 b4 8f be 58 a6 05 be
       0.020730067 -0.19143133 -0.2806712 -0.13051736
000240 bc a8 84 bd 91 22 fe 3d fb f8 20 3e bf 23 eb bd
       -0.06477496 0.12408937 0.15719979 -0.114814274
000250 12 fd b5 3d a9 a8 89 3e d7 8e 5d bd 77 8c 5b 3d
       0.0888616 0.2688649 -0.0540913 0.053600755
000260 6a ec 03 be a9 11 c8 3c 18 f0 16 be 12 6a 06 3d
       -0.12883154 0.024422484 -0.14740026 0.032816
000270 ca 33 4a 3d 53 59 b8 bd 07 0e 89 3d 84 9a 76 3c
       0.049365796 -0.09001412 0.06692129 0.015051488
000280 3b 29 8e 3e b8 45 e2 3d 32 eb dd 3d 16 8e a6 3d
       0.2776583 0.11048454 0.108358756 0.081325695
000290 03 ac 6d be 95 82 d5 bd 6b 78 73 be d7 73 b1 bd
       -0.23210149 -0.10425297 -0.23776405 -0.08664673
0002a0 10 d3 fb bc 6d 0a 57 3e e8 08 22 3e fd 9c 7e 3d
       -0.03074029 0.21000071 0.1582371 0.062161434
0002b0 88 10 0a 3e 5f 0d bb 3d 3b 0d 8d bd 59 25 36 3e
       0.13482869 0.0913341 -0.06887289 0.17787685
0002c0 b1 a1 d8 3c 20 36 6e bd 21 17 f7 be 64 04 16 be
       0.026444288 -0.058157086 -0.48259833 -0.14650112
0002d0 06 77 2c 3c 4e 05 af bd 90 42 41 be 67 ce 19 be
       0.010526424 -0.08545934 -0.18873048 -0.15020142
0002e0 ce fb cb 3c 6f ca 4f 3d a8 34 1f 3d 0c 10 18 3d
       0.024900343 0.050730165 0.038868576 0.03712468
0002f0 f4 e6 fe 3c df d8 9b bd cf 89 e1 bd 2e 89 c9 3d
       0.031115986 -0.07609724 -0.11012613 0.09840618
000300 69 ac dd bc e8 66 21 be 3b 1e 47 3d 50 15 a6 3d
       -0.02705975 -0.15761912 0.048612814 0.08109534
000310 3a 00 60 3e 6a ee 42 be b0 ea a9 bd 2e 9a 40 be
       0.21875086 -0.1903626 -0.08296716 -0.18808815
000320 7e 2d 6e 3d 2f 56 b7 3c cb b7 e8 3e de 3c 10 3e
       0.058148853 0.022379963 0.45452723 0.14085719
000330 30 84 35 be 8a b7 19 3b 27 4f 64 be 1c 45 d3 bd
       -0.17726207 0.0023455345 -0.22295819 -0.10315916
000340 1b 2c 97 bd 38 47 b3 3d f4 f8 6f 3c 7b bb 00 be
       -0.07381459 0.08753818 0.014646757 -0.12571518
000350 17 56 35 3e 2d 39 f2 3d 25 48 90 3e 1b 29 48 3e
       0.17708622 0.11827312 0.28180042 0.1954693
000360 b2 07 2c 3e e4 fd 54 3d f4 f5 1a 3e 10 8d 85 bd
       0.1679981 0.05199994 0.15132886 -0.06521046
000370 83 cc cb 3c 95 2a f2 3c 45 d0 8f be 80 b1 60 be
       0.024877792 0.02956132 -0.28088585 -0.21942711
000380 70 22 51 be 16 38 95 bd ed 9e 25 3e c0 7f 60 3c
       -0.20423293 -0.07286088 0.16173907 0.013702333
000390 bc fe 0b 3e 96 71 8d 3d 49 19 b0 3e a1 91 9f be
       0.13671392 0.069064304 0.3439429 -0.31165794
0003a0 9a 62 80 3a dd 93 de be c1 18 46 3d 57 19 fe 3c
       0.000979501 -0.43472186 0.04836345 0.031017942
0003b0 cc 6c b6 3b f2 84 e1 3d 5f f5 52 bd f2 17 7a be
       0.005567169 0.110116854 -0.051503535 -0.24423197
0003c0 e6 6c 14 3d b6 d8 1c 3e cf f1 6c bc 57 38 de 3d
       0.036236666 0.15317044 -0.014461949 0.1085059
0003d0 9f ce ac 3d 8a dd 38 3e a0 a0 d7 bd f1 60 83 3d
       0.08437847 0.1805326 -0.10528684 0.064149745
0003e0 b2 6b db bc 24 e6 99 bd a3 4c bb be d7 f4 21 3d
       -0.026784752 -0.07514599 -0.36581907 0.039540138
0003f0 21 a1 21 3e e1 60 be 3e ec f3 b2 3e 2d bb ac bd
       0.15784122 0.37183288 0.34951723 -0.084341384

conv3.bias f4 [32]
000000 09 c5 a7 bd b7 ab fb bd 83 16 3b 3c a9 df cf 3c
       -0.08191878 -0.122886114 0.011418941 0.025375204
000010 87 59 41 bc 94 50 93 bd a8 ab a9 3d c9 9d 96 bd
       -0.01180113 -0.071931034 0.08284694 -0.07354314
000020 45 99 64 be ff f9 1a 3e c4 af 10 be 57 93 5a 3d
       -0.22324093 0.15134428 -0.1412955 0.05336317
000030 cc 7c ca bc bd 49 eb 3b 18 d2 6f be e1 c5 62 bd
       -0.02471771 0.007180421 -0.23419988 -0.055364493
000040 49 e4 4d 3e f9 b8 02 bd 0f 2f 86 bd f9 af 7f bc
       0.20106615 -0.031914685 -0.065519445 -0.01560592
000050 aa 52 6f bd fa 0c 8f 3d 90 c6 31 be 30 c1 e2 3d
       -0.058428444 0.06984897 -0.17360902 0.11072004
000060 5d cf f8 bd c2 e2 12 be c6 7b 85 bd 48 aa 42 3e
       -0.121489264 -0.14344314 -0.065177485 0.1901027
000070 54 39 f9 bd 80 5a 1e be 30 d4 7a 3d f5 7f 25 3c
       -0.121691376 -0.1546421 0.061237514 0.010101308

conv4.weight f4 [32, 32, 3, 3]
000000 ad ec 0c 3a 69 d8 2d 3d 5b 38 6f 3b 4a 28 b3 3d
       0.00053758436 0.042442713 0.0036502096 0.08747919
000010 0c 10 c8 3a a6 ef 39 be 40 a3 72 bd ea df 05 be
       0.0015263571 -0.18157825 -0.05923772 -0.13073698
000020 e2 4d 20 bd 6f dc 5f bd ca b7 06 3d c2 ce 81 bc
       -0.039136775 -0.05465358 0.03289012 -0.01584566
000030 fe 57 3e be 3e c6 f0 3d c1 1d 29 3e 7b 96 da 3b
       -0.18588254 0.11756562 0.16515256 0.0066707707
000040 21 09 b7 3c 3c 6f c6 bd df 10 84 bc f8 f0 a2 3c
       0.02234322 -0.09689185 -0.016121326 0.019890293
000050 59 15 34 bd ae 25 e2 bc a1 60 c6 3c 18 f8 b9 bd
       -0.04396567 -0.027605858 0.024215998 -0.09080523
000060 e4 53 e5 3b 50 8c 25 3c 8c 14 e1 bb 9d 27 bc 3d
       0.006998526 0.010104254 -0.0068689045 0.09187243
000070 6f e9 b7 3d 24 5e 70 be 51 9b b5 3c c3 c3 09 be
       0.08980071 -0.23473412 0.022168787 -0.13453583
000080 a2 0a e4 bd 68 d6 1a 3d f0 67 4d 3e e5 f2 a7 3d
       -0.111348405 0.03780213 0.2005918 0.08200625
000090 6e 61 e6 3c 7f 3b 6b 3d c6 7d b2 3d d5 af 2a bd
       0.02812263 0.057429787 0.08715396 -0.041671593
0000a0 a0 7f 78 3d e4 68 35 be c9 ce e1 3c 0c 6f 2f be
       0.060668588 -0.17715794 0.027564423 -0.17132205
0000b0 d8 1a f6 bd 2d 4f c4 bd 23 0d 4b bd 72 a7 b4 3b
       -0.12016839 -0.09585414 -0.049573075 0.005513125
0000c0 b5 ea f5 bc ab 6b 15 be 8b 35 b9 3d 3b b4 c0 bc
       -0.030019144 -0.14591853 0.09043416 -0.02352344
0000d0 58 93 59 bc 14 70 34 bd 96 d5 d6 3c d2 0e a3 bd
       -0.013279758 -0.0440522 0.026224893 -0.07961811
0000e0 8a 03 55 3e e3 6e cc 3d 7d 5e ce 3c 99 8a 35 be
       0.20802131 0.099820875 0.02519154 -0.17728652
0000f0 1f e4 8b be 2f 9d 18 bd da 31 a5 3d 4a a0 92 3c
       -0.2732248 -0.037259277 0.08066149 0.017898697
000100 cc d4 46 3d 37 be b2 bc 65 9f 35 bc 98 68 48 3a
       0.048542783 -0.021819217 -0.011085366 0.000764498
000110 c3 3d fe bd eb 1e 7a bc 41 72 ab bd 66 a1 6e bb
       -0.12414124 -0.0152661605 -0.083714016 -0.003641212
000120 e3 8f 96 bd eb 85 58 3e b6 51 68 be 82 5c 9a 3c
       -0.07351663 0.21144836 -0.2268742 0.01884294
000130 3d d3 a4 be 3a e5 93 bd 2e e5 36 3d 6b 42 23 3e
       -0.32192412 -0.07221456 0.044652157 0.15943305
000140 ba c4 07 3e 3e 0a d9 3d 08 06 ba bd 8d 2c 05 3d
       0.13258639 0.10597657 -0.090831816 0.03251319
000150 12 87 38 be 3a de 14 3d cb d9 ea bd e7 99 6c bc
       -0.18020275 0.036344744 -0.11467322 -0.01444099
000160 6e a4 df bd 9d 85 0f 3d 6b 91 a2 3d ea d8 42 bc
       -0.10920034 0.035039533 0.079378925 -0.011892537
000170 57 3c 5c 3d 49 d9 0b be 20 9d 00 bd 4d c3 39 bc
       0.053768482 -0.13657106 -0.031399846 -0.011338067
000180 fc 57 a7 3a 1e 32 91 3d 3f ff 8f 3d 66 1c f2 3d
       0.001276731 0.07089637 0.07031106 0.11821823
000190 a0 29 96 3c 72 c5 0a be e6 4f 9b bd 4f 4f cf 3b
       0.018330395 -0.13551882 -0.07583599 0.006326593
0001a0 92 93 68 be cd 76 40 bd 61 ab 1e bc 80 b6 e0 3b
       -0.22712544 -0.046988297 -0.009684415 0.006857693
0001b0 93 d9 3e bd 89 57 81 bd fc 01 a3 3d c2 65 b3 3a
       -0.046594214 -0.06315524 0.07959363 0.0013686942
0001c0 be 19 8a bd 46 d6 4e bd 4c 1e b1 bc a0 dc 3b be
       -0.06743191 -0.050497316 -0.021620892 -0.1834588
0001d0 8b 2b 9c bd a3 98 c5 bd 2e f5 76 bb c0 e8 06 3d
       -0.07625493 -0.09648254 -0.003768276 0.03293681
0001e0 86 b9 8d bd b5 dc 1d 3e a3 a5 15 be 21 9e 26 3d
       -0.069201514 0.15416224 -0.14613967 0.040678147
0001f0 46 3f e5 bd 34 45 af 3c 9f f7 19 3d e5 88 f6 3d
       -0.11193709 0.021395303 0.037589666 0.12037829
000200 5b bc c0 bd f0 87 3d bc d5 8c 27 bd 35 e0 1c 3d
       -0.09410926 -0.011568055 -0.040905792 0.038299758
000210 cd e0 63 bd 39 fe 6c bd 0c 00 cf bc e7 4b 9a 3d
       -0.05563431 -0.057859633 -0.025268577 0.075340085
000220 cb 82 5d 3e dd 29 e8 bd f5 f4 a8 3d 59 01 9b bc
       0.21631925 -0.1133611 0.08249847 -0.018921541
000230 b4 2d f9 bd b2 0f 84 be d5 6e 14 bd e4 e2 d1 3d
       -0.1216692 -0.25793225 -0.03623851 0.10248354
000240 48 29 b1 3c 86 7b bd bd 34 04 80 be de b5 22 be
       0.02162613 -0.09252076 -0.25003207 -0.1588969
000250 c8 1c dd 3d c4 94 24 bd c4 dc 3f bd 90 1e ce bd
       0.10796505 -0.040180936 -0.046841398 -0.10064423
000260 74 af e8 bd c3 d1 07 bc eb 32 c9 3d 85 5a 9d bd
       -0.1136159 -0.008289757 0.09824165 -0.07683281
000270 63 c1 17 3e 97 c6 6f be 6e 17 59 be a6 49 25 be
       0.14819865 -0.234156 -0.21200344 -0.16141376
000280 aa 54 59 bc db 1d 45 3d b7 9c b8 3d 6e df 6f 3b
       -0.013264814 0.048124176 0.09014266 0.003660168
000290 4b fd fc bc 23 b5 cd bd e8 2b 08 3e 97 4c f1 bd
       -0.030882498 -0.10044315 0.13297999 -0.117821865
0002a0 04 97 cb bc ef ce 65 bb 95 41 10 3c 2f a8 dd 3c
       -0.024852283 -0.003506597 0.0088046985 0.027057735
0002b0 d4 32 10 3e bb 19 18 be 1c be 99 3d 23 7b 79 3c
       0.1408189 -0.14853565 0.075069636 0.015227112
0002c0 40 e3 06 3d 21 ab 32 bd 72 bc 0d 3d b6 0d 47 bd
       0.032931566 -0.043620232 0.034603544 -0.04859706
0002d0 e8 9c 96 3c 37 67 83 3e a2 56 87 bd 1b 5e 2d be
       0.018385366 0.25664684 -0.06608321 -0.1693043
0002e0 a1 3f 8b 3d b0 5c 64 3d 4b 7e 30 bc 0e 49 a7 3c
       0.067992456 0.055752456 -0.010772298 0.020420577
0002f0 90 e8 51 bd 6e 1d 06 3e 05 13 60 be d7 73 2d 3c
       -0.05124718 0.13097164 -0.21882255 0.0105867
000300 77 06 53 bd 25 48 49 bc 2f 03 d6 bd d7 33 5a 3d
       -0.051519837 -0.012285267 -0.10449826 0.053272095
000310 42 e0 89 bc 99 6b dd bc 59 d6 79 bd 0d 0e c0 bd
       -0.016830567 -0.027028846 -0.060995433 -0.0937768
000320 4e c9 86 3c 1b 58 77 bd a8 c4 11 3e 84 10 e0 3c
       0.016453411 -0.06038676 0.14235175 0.027351625
000330 30 1f a3 3c 62 21 d3 bd 11 ca 36 3e 4f 99 fe 3c
       0.019912332 -0.10309102 0.1785052 0.031078963
000340 27 88 65 3c e1 38 40 3e 58 91 1c 3c 2e f2 2f be
       0.014009512 0.18771698 0.009556137 -0.17182228
000350 3f 72 40 be 68 0c 8e bd 07 c9 1b be b0 cb 0a 3e
       -0.18793581 -0.0693596 -0.15213405 0.13554263
000360 c5 31 11 3e 02 da 9a bd 6e 41 dc bc fb f2 05 be
       0.14179142 -0.07561113 -0.026886668 -0.13080971
000370 ef 10 54 ba ce d3 b4 bd 80 5e 9c 3d 2a 7c de 3d
       -0.00080896815 -0.08829461 0.07635212 0.10863526
000380 4d b7 09 3e 73 76 5b 3e 6b 25 f4 3b ca e0 02 be
       0.1344883 0.21431904 0.0074507496 -0.12781063
000390 2f 6b 2f 3c d6 0e 01 3e 6c 54 92 3d 72 63 eb 3d
       0.010706707 0.12603316 0.071450084 0.11493577
0003a0 f7 e5 4b bd e7 bf 5f 3d dd a6 ac bb a8 c1 2a bd
       -0.04977986 0.05462637 -0.005268915 -0.04168859
0003b0 f3 10 e2 bb 24 dc 96 3d 05 e7 12 3e bc 16 36 be
       -0.006898993 0.07366207 0.1434594 -0.1778211
0003c0 4a 7b bc 3d 19 2c 0c be 11 7b da 3c 52 07 8e 3b
       0.09203203 -0.13688697 0.02667001 0.0043343687
0003d0 6e bd 21 be 47 49 0a 3d da 97 c1 3b 5a 36 0b 3e
       -0.15794918 0.03376129 0.0059079947 0.13594952
0003e0 0c 3d 1a be 37 f8 7f 3c d6 2c 34 bd e1 37 5c bc
       -0.1506235 0.015623144 -0.04398807 -0.013441057
0003f0 57 07 5a bc 48 b2 ba bd 64 4d 97 3d 81 15 00 bd
       -0.013307414 -0.09116036 0.07387808 -0.031270508

conv4.bias f4 [32]
000000 43 a0 03 be 06 0a d5 3d 3a f2 8b be 5c c7 59 3e
       -0.12854104 0.104023024 -0.27333242 0.21267456
000010 9d fe 12 be a1 90 52 be 3c 5d ca be 1b f5 57 3a
       -0.1435494 -0.20562984 -0.39524257 0.00082381227
000020 c2 b0 87 bd 90 db 63 be 6d e2 94 be 12 df 6b be
       -0.06625511 -0.22251725 -0.29079 -0.23034313
000030 86 02 3e bd 2b f7 de 3d 16 06 24 be 7d 5e 9b be
       -0.046389125 0.10886987 -0.16017947 -0.30345526
000040 fd 9e 5c be 78 ec ff b9 ba 0b 90 bd ff af e4 bd
       -0.21545024 -0.00048813573 -0.07033487 -0.11166381
000050 1e 4f 85 be 3f 6e aa 3e e7 9f 38 3d 88 67 1a be
       -0.26036924 0.33287236 0.04507437 -0.15078557
000060 fd 05 fe 3d a5 50 b9 bd d3 67 e9 3d a4 d4 d1 be
       0.12403486 -0.09048585 0.11396756 -0.40982544
000070 77 5b 95 3e 13 b3 5c 3e 7a 05 4f be bc bd 4f be
       0.29171345 0.21552686 -0.20216933 -0.20287222

linear.weight f4 [256, 800]
000000 36 44 d6 bd 2b ea 1a bd a1 4f e9 bc 71 ba a6 3d
       -0.10462229 -0.037820976 -0.028480353 0.081410296
000010 23 3c 16 be dd 97 de 3d a9 bb 75 3d f1 c0 91 be
       -0.14671378 0.10868809 0.05999342 -0.28467515
000020 39 0e fc 3d c8 6f 29 3d 63 08 1d bd e3 a5 e8 bd
       0.123074 0.04136637 -0.038338076 -0.113597654
000030 df 6a d0 3d bd b1 84 bd 18 22 5f bc d0 e0 f7 bd
       0.10176634 -0.064792134 -0.013618968 -0.121034265
000040 58 37 9d bd ea bf 68 3c 24 8a be bd 5f 8f 2c 3b
       -0.076765716 0.014205912 -0.09303692 0.0026330573
000050 02 8d 10 3d 57 19 8e 3d 86 6e e8 bc 52 07 97 3b
       0.035290726 0.06938427 -0.028373014 0.004609027
000060 58 15 4a 3d 42 c8 ef 3d 69 9a 1e 3e c5 b6 a5 bd
       0.04933676 0.11708118 0.1548859 -0.08091501
000070 40 70 35 bd 1a 5c 20 3d 05 e6 2d bc 50 4f 58 3b
       -0.044296503 0.039150335 -0.010613923 0.0033006258
000080 5e 39 92 bd 7c 6c 5b be 75 8d 97 3d 47 3d 38 bd
       -0.07139848 -0.21428102 0.07400028 -0.044980314
000090 bf bc c1 bd b2 64 74 bd d8 0f 0b be 21 28 85 3e
       -0.094598286 -0.059666343 -0.13580263 0.26007178
0000a0 a3 70 21 3d 99 3e b1 3d 13 d1 ef bb 17 44 d4 3d
       0.03941406 0.08654518 -0.0073186248 0.103645496
0000b0 29 d3 26 3b 15 3f 39 3e ea 7e 0a 3d 54 c8 bf 3d
       0.002545545 0.1809047 0.03381244 0.093643814
0000c0 dc 9a 2e bd a7 29 ab 3d ad 14 94 3d a4 28 bc bc
       -0.042628154 0.08357554 0.07230506 -0.022968598
0000d0 ab fc 59 be a6 59 c6 bd 19 bc 3f 3d fa 50 cb bb
       -0.21287791 -0.09685068 0.046810243 -0.0062047215
0000e0 d1 9f 59 bd a3 35 0a 3e 49 4a ef 3d 10 3c d8 be
       -0.05313093 0.13497023 0.11684091 -0.42233324
0000f0 67 ba 87 bd c8 d8 19 bd 98 8f d6 3d 81 a5 ea bd
       -0.0662735 -0.037560254 0.10476607 -0.114573486
000100 50 cf 4a bd 59 11 77 bd b0 32 49 bd c5 ca 31 be
       -0.049514115 -0.06031928 -0.049120605 -0.17362507
000110 b3 43 30 3c e4 02 85 bd f1 75 01 3e 3a 5f 15 3c
       0.010758328 -0.06494692 0.12642647 0.009116942
000120 df d2 34 bc 8e 44 95 bd 66 9e f6 3d 27 59 02 3d
       -0.011036604 -0.072884664 0.12041931 0.031823304
000130 7a 89 c3 3d cc 43 3e 3e a6 e6 a0 3d 9d 04 89 3c
       0.09547706 0.1858055 0.07856493 0.016725833
000140 a8 cf 43 bd a3 f8 75 3d 34 3c d0 bd a6 ab d2 bd
       -0.04780546 0.06005157 -0.10167733 -0.102866456
000150 42 24 02 3e b5 a9 57 be 18 14 66 bd 33 00 4a bd
       0.12709144 -0.21060832 -0.056171507 -0.049316596
000160 33 ad c1 bc 74 7f 5d be 98 89 d6 bd 57 72 d4 3b
       -0.023642158 -0.21630651 -0.10475463 0.006483357
000170 27 ca 8e 3d 4f 61 64 3e 3e 42 f8 3d 73 eb cc bd
       0.06972151 0.22302745 0.1212201 -0.10005846
000180 4d 6b 3c be 18 a5 ea bc f5 b9 e4 bd 74 4a bd 3a
       -0.18400307 -0.028643176 -0.11168281 0.0014441744
000190 8c 1e e2 3d 28 3a 79 3d 93 1b 15 3e 1e 82 12 3d
       0.110409826 0.060846478 0.145613 0.03576862
0001a0 e5 64 eb ba 06 cb 44 bd 22 11 0a be c4 51 43 3d
       -0.0017959146 -0.04804518 -0.13483098 0.0476854
0001b0 44 f3 43 be d7 ec 28 be 7f 75 c0 bd 10 e1 02 bd
       -0.19135767 -0.16496597 -0.093974106 -0.031952918
0001c0 83 5c df 3d 59 57 2f 3d 1a 51 23 be 8b 62 23 3d
       0.10906317 0.04280791 -0.15948907 0.0398889
0001d0 59 75 ff 3c 0a be 18 bc 12 d9 a3 bc 6e 59 12 3d
       0.031183885 -0.009322653 -0.020000968 0.035729818
0001e0 9f da ad 3d 38 96 e8 3d b3 27 2c 3e f4 4a 63 be
       0.08488964 0.11356777 0.16812019 -0.22196561
0001f0 1b 8f d5 3b 85 96 9f bd f6 92 1d bd 1c 46 0a 3e
       0.0065173036 -0.07792381 -0.03847023 0.13503307
000200 43 8e 8c bd 5a 10 50 be 35 54 e2 3c 1b 54 b4 3d
       -0.06863072 -0.20318738 0.027628044 0.08805104
000210 f3 fd 21 bc 88 77 56 bd b9 fe 5b 3d fc cd de bd
       -0.009887206 -0.052360088 0.05370972 -0.10879132
000220 42 e9 86 3d fd 61 89 bd c7 7a e2 bb a4 bf c2 bd
       0.06587459 -0.06708143 -0.006911609 -0.09509209
000230 13 c1 25 be 03 91 f0 3a e9 2b 82 3b fa 10 88 3d
       -0.16186933 0.0018353764 0.0039725197 0.06643863
000240 5c 96 c2 3c 9c 21 cb 3b a7 82 07 3d ba 4e fd bd
       0.023753338 0.006199075 0.033083584 -0.123685315
000250 2f 4f ca bd 44 ef 6d 3d 18 50 e9 3d 1f f3 7d 3d
       -0.09878384 0.05808951 0.1139223 0.061999436
000260 a2 fa 42 3d 03 a6 2d 3e dd 5b 73 bd 30 44 4e 3e
       0.047602303 0.1695786 -0.05941378 0.20143199
000270 f1 7e 5e be c5 62 39 be 96 b9 c7 3d f4 25 7c 3e
       -0.21728112 -0.18104084 0.097521946 0.24623853
000280 76 b3 b7 3d eb ad d2 3c 84 fd af bc e3 6e 54 bd
       0.08969776 0.025717696 -0.02148319 -0.051863562
000290 7c 9c 23 be 82 7e c9 bd 3a ce b1 3d d6 2d 0a 3e
       -0.15977663 -0.098385826 0.08681913 0.13494048
0002a0 87 2b 5d 3e 15 54 a1 3d 68 92 94 3d 29 89 00 3e
       0.21598636 0.078773655 0.07254487 0.12552322
0002b0 08 6a bf 3d 76 4f 49 3e c1 7c 6c 3d 23 5e 44 3d
       0.09346396 0.19659218 0.057736162 0.04794134
0002c0 18 4d 18 3e e1 01 06 3e 4c 13 65 3c 5e fd 96 bc
       0.14873159 0.13086654 0.0139816515 -0.018431362
0002d0 9e 07 ce bd a2 26 33 3e e9 a0 d8 3a b0 75 74 bc
       -0.100600466 0.17495206 0.0016527447 -0.014920637
0002e0 ed e1 5b 3d e6 fb ec bc 55 7a f9 bc ce 69 65 3e
       0.053682256 -0.028928708 -0.03045384 0.22403643
0002f0 f6 35 83 bd 11 36 4d 3d 7b 82 02 bd cb 24 3a 3d
       -0.064067766 0.05010039 -0.031862717 0.045445245
000300 99 d7 42 3e 9a f1 04 be a1 97 a4 bc d9 35 a4 bb
       0.19027556 -0.12982789 -0.020091834 -0.005011302
000310 03 e4 1a bc cc ca 0d bd fd fb 4e 3b 2a d4 d6 bb
       -0.009453776 -0.03461723 0.0031583302 -0.0065560536
000320 24 93 d5 3c 76 c5 39 bd 0e 60 87 3d 22 82 56 3d
       0.026071139 -0.04535433 0.06610118 0.052370198
000330 b9 5e 81 bc 4b 75 04 3c d7 a1 2f 3d 3f 2a 86 bd
       -0.015792238 0.008084605 0.042878952 -0.065510266
000340 f0 61 06 be 0a 41 a6 3e 96 6c bc 3c fa bf 47 3d
       -0.13123298 0.32471496 0.023000997 0.048767067
000350 a9 40 11 3e a0 7c 38 3e 65 59 cc bd 08 ec 17 bd
       0.14184822 0.1801629 -0.09977988 -0.03709033
000360 86 d1 f2 3c 2e f1 e5 bd c6 26 52 3c 5e f8 6c 3d
       0.029640924 -0.11227642 0.012826627 0.05785405
000370 80 8b 5d bd 71 67 4c be f0 3d 12 be 58 fb cc bd
       -0.054088116 -0.19961335 -0.1428144 -0.100088775
000380 7a 1d aa bc 2d 0c ab bc 4b 42 67 3e bc f6 49 3e
       -0.020766009 -0.02087983 0.22583883 0.19723028
000390 f8 6e 4b 3e 8a 51 c3 3d 36 03 20 be d3 a0 03 3a
       0.1986655 0.09537037 -0.15626225 0.0005021218
0003a0 74 e2 c6 bd 50 2e 2a be 3f 88 fd 3c dc 4d 71 be
       -0.09711161 -0.1661923 0.030948756 -0.23564857
0003b0 45 b6 c1 3c a3 5e 46 3e 24 03 01 be 89 12 68 be
       0.023646483 0.19372039 -0.12598854 -0.2266332
0003c0 87 60 e5 bd ca 93 58 bd 8e 1a 30 3b 62 01 07 be
       -0.11200052 -0.052875318 0.0026871297 -0.13184121
0003d0 2c 7e 46 be fa d5 b6 3d e5 0d 3f bd 42 27 82 3c
       -0.19384068 0.089275315 -0.04664411 0.01588786
0003e0 55 a4 3a be 4a 60 16 3d cf 81 b6 bc 70 f3 97 3d
       -0.1822675 0.036712922 -0.022278694 0.07419479
0003f0 e1 be 99 bd d7 c3 86 bd 51 36 5c 3d 23 3d 66 bd
       -0.075071104 -0.06580322 0.053762738 -0.05621065

linear.bias f4 [256]
000000 71 45 1a be 42 ff 8a bd 7d 1e 03 bf 94 d0 cb bd
       -0.15065552 -0.06786968 -0.51218396 -0.099518925
000010 0e b2 ef bd 7f 37 14 be 85 99 04 be ff 36 02 bf
       -0.11703883 -0.14474295 -0.12949188 -0.5086517
000020 1c 51 fe bd 85 4c 8b bd 84 b0 8d bd fb 7a 95 be
       -0.12417814 -0.06801704 -0.06918433 -0.2919539
000030 a8 ad dc bd 5c 49 4f bd 65 1c bd bd f7 c7 41 be
       -0.1077531 -0.05060707 -0.092339315 -0.18923937
000040 bf f3 71 be dd be 0f be 3a e6 62 bd 27 fe fe bd
       -0.23628138 -0.14037652 -0.055395342 -0.124508195
000050 23 e6 99 bd 8c 07 c9 bd c3 6d 07 be 5e c5 bf bd
       -0.07514598 -0.098158926 -0.13225465 -0.09363817
000060 02 66 20 be 6d ff c5 be 5d 21 bc bd fa 46 17 be
       -0.15663913 -0.38671437 -0.09186051 -0.14773169
000070 5f 65 d5 bd 22 42 3d be 92 d5 07 be 71 f4 15 be
       -0.104197256 -0.18482259 -0.13265064 -0.14644028
000080 42 e1 d0 bd 5f 18 1d bd 09 bd 25 be a3 cb 53 be
       -0.101992145 -0.03835332 -0.16185392 -0.2068315
000090 41 55 11 be 1e 18 0a be 30 32 09 be d6 50 f5 bd
       -0.14192678 -0.13485762 -0.13398051 -0.11978309
0000a0 c9 37 c7 bd 70 52 b0 bd 9d 04 b0 bd 05 b8 0e be
       -0.09727437 -0.08609474 -0.0859463 -0.13937385
0000b0 f1 4d d7 bd 6a a7 92 bd 08 89 04 3e 86 7a 00 be
       -0.10512913 -0.07160838 0.12942898 -0.12546739
0000c0 e3 df c3 bd c8 12 e4 bd 09 81 a9 bd d1 12 f3 bb
       -0.095641874 -0.11136395 -0.08276565 -0.0074180146
0000d0 03 79 89 be 75 5b 03 be b7 c5 42 be e7 c9 e4 bd
       -0.26850137 -0.12827857 -0.19020735 -0.11171322
0000e0 9f 5f eb bd 23 49 19 bc 0f ff 8d bd 6e 6e ca bd
       -0.11492848 -0.009355816 -0.06933414 -0.09884344
0000f0 65 37 22 be 16 94 aa bd ed a6 c2 3d 87 98 c6 bd
       -0.15841444 -0.083290264 0.09504495 -0.09697061
000100 c9 87 1c be a7 2c d6 bd a5 c3 08 be b5 31 19 3d
       -0.15286173 -0.104577355 -0.13355882 0.03740092
000110 92 47 9f bd 22 21 ff be 78 bf 68 be 8f 1e 64 bd
       -0.07777323 -0.49829966 -0.2272929 -0.055693205
000120 2a b3 f8 bd 45 d0 88 bd 26 7c 26 be 8e 61 4d be
       -0.12143548 -0.06680349 -0.16258296 -0.20056745
000130 d2 e5 12 be 34 2c a9 bd ac 77 ab bd 7f e3 32 be
       -0.14345482 -0.08260384 -0.08372435 -0.17469595
000140 06 e8 96 be 2d 8b 96 bd 5e c1 b7 bd c8 a0 81 bd
       -0.29473895 -0.073507644 -0.08972429 -0.06329495
000150 e3 52 cd bd f7 ab b7 bd b6 73 bc bd cc 64 fa bd
       -0.10025575 -0.089683466 -0.092017576 -0.12226257
000160 21 18 49 bd 50 29 40 be 9a 32 e5 bd 71 d6 06 be
       -0.049095277 -0.1876576 -0.11191292 -0.1316774
000170 e0 18 69 bd c6 c5 fc bd 62 13 b3 bd 22 1a 55 be
       -0.05690849 -0.1234241 -0.08743931 -0.2081075
000180 fb ee 26 be fe b1 eb bd 59 19 fe bd c1 fc c2 bd
       -0.16302101 -0.11508559 -0.124071784 -0.09520865
000190 eb 74 e0 bd 7c c0 a5 bd 16 55 eb bd a8 bd 90 bd
       -0.109598 -0.08093354 -0.11490838 -0.07067424
0001a0 6d 1f aa be ce f3 42 bd 51 e9 6f bd c7 57 b9 bd
       -0.332271 -0.04759579 -0.058572117 -0.09049945
0001b0 21 78 dd be db a4 28 be c7 63 62 be 81 d8 96 bd
       -0.43255714 -0.16469137 -0.22108375 -0.073655136
0001c0 9b 89 02 be a8 27 3f be c8 79 a4 bd e6 cb 3a be
       -0.12747805 -0.18667471 -0.080310404 -0.18241844
0001d0 97 b3 e6 bd ec 08 55 be c3 5a 16 be 77 03 c2 bd
       -0.11264723 -0.20804185 -0.1468306 -0.09473317
0001e0 7c f8 eb bd 72 e8 c6 bd fd 83 b8 bd 10 1c 90 bd
       -0.11522004 -0.09712304 -0.0900955 -0.070366025
0001f0 af 6a 37 bd b8 8d 0d be 32 5a 03 be 89 87 93 bd
       -0.044779476 -0.13823593 -0.12827376 -0.07203586
000200 88 15 61 be 4c c3 e9 bd 48 7a 9f bd 06 db 66 be
       -0.2198087 -0.11414203 -0.07786995 -0.22544488
000210 cb 94 eb 3d 8a 01 72 bd 89 c4 99 bb ca c9 b7 bd
       0.115029894 -0.0590835 -0.0046926183 -0.08974035
000220 56 c1 d1 bd 21 d9 45 be 94 67 e3 bd d5 66 d2 bd
       -0.10241954 -0.1932111 -0.1110374 -0.1027352
000230 4b 79 d6 bd b2 01 ce bd ae 42 08 be e1 53 18 be
       -0.104723535 -0.10058917 -0.13306686 -0.14875747
000240 b2 bc 83 bd b7 45 e6 bd 0a c4 17 bf 96 4d ee bd
       -0.06432475 -0.11243766 -0.59283507 -0.11635892
000250 70 6d ae bd 10 d7 d3 bd 5f 41 bc bd 9e 12 d9 bc
       -0.08516967 -0.10343754 -0.09192156 -0.026498135
000260 d9 f9 ce bd ca e1 95 bd 3f 30 ab be 1a fc 40 be
       -0.101062484 -0.073184565 -0.33435246 -0.18846169
000270 19 0a a7 bd 48 11 eb be 8a ac 3a be 9f 68 d4 be
       -0.08156223 -0.45911622 -0.18229881 -0.4148607
000280 1a c6 d6 bc b8 6c cf bd 5b fb 13 bf 6e a9 b8 bd
       -0.026217509 -0.10128158 -0.57805413 -0.09016691
000290 a9 e1 df bd 7e 85 86 be d3 ae ab be f7 68 fc bd
       -0.10931713 -0.2627372 -0.33531818 -0.12324708
0002a0 a5 f7 7d bd 20 54 4e be da b8 a2 bd ed ca 8e bd
       -0.06200375 -0.20149279 -0.07945414 -0.06972299
0002b0 51 d2 e0 bc 30 75 de bd 2f d8 ef be 59 e0 02 be
       -0.027444037 -0.108621955 -0.46844622 -0.12780894
0002c0 de e4 eb bd 98 d9 80 bd 72 62 fa bd 6f e7 52 be
       -0.11518262 -0.06291503 -0.12225808 -0.20596097
0002d0 54 bc 10 be 86 98 9a bd 18 75 e3 bd 21 fa f0 bd
       -0.14134341 -0.07548623 -0.11106318 -0.11766458
0002e0 f5 05 d3 bd 0d 63 7c bd 41 ad 5f bd 62 e7 b2 bd
       -0.103038706 -0.0616179 -0.054608587 -0.08735539
0002f0 e2 20 ad bd 6a 6b 25 3c be 56 f7 be 57 2d a9 be
       -0.084535375 0.01009641 -0.48308367 -0.33042404
000300 a4 9c 07 be 06 4b 00 be 47 82 d9 bd ce 1b f1 bd
       -0.13243347 -0.12528619 -0.106205516 -0.117728814
000310 b1 44 a2 bd 2b 45 39 be ef b9 03 be 98 06 d4 bd
       -0.07923258 -0.18092792 -0.12863897 -0.1035282
000320 7e 79 da bd ca 8b b4 bd 19 d1 94 bd 19 67 b7 bd
       -0.10667704 -0.08815725 -0.07266445 -0.08955211
000330 35 00 6c bd 9c 5f 88 bd a0 9b db bd c0 de c2 bd
       -0.057617385 -0.06658861 -0.107230425 -0.095151424
000340 50 02 0b be 40 1d c2 bd f9 77 95 bd cd 75 65 be
       -0.13575101 -0.09478235 -0.072982736 -0.22408219
000350 de 84 25 be 38 90 38 bd 11 ec a4 bd 98 9f e6 be
       -0.16163966 -0.045059413 -0.080528386 -0.45043635
000360 59 7f d0 bd 28 0a c9 bd 7b a7 32 bd 41 d7 87 bd
       -0.1018054 -0.0981639 -0.043616753 -0.06632853
000370 0a c9 ec bd 29 6c f1 bd 8d 4c ba bd e5 b9 b4 bd
       -0.11561783 -0.11788208 -0.09096632 -0.08824519
000380 aa 1d e3 bd fd 4e 6c bd 1a d0 c4 bd e9 07 a1 be
       -0.11089642 -0.057692517 -0.09610005 -0.31451347
000390 88 3a ca bd 91 fc ef bd f8 3e 00 be b6 c9 b1 bd
       -0.09874445 -0.11718095 -0.1252402 -0.086810514
0003a0 a6 99 c7 bd 4f 7e 73 be 69 e3 0c be 47 36 82 bd
       -0.09746103 -0.23778652 -0.13758625 -0.06358009
0003b0 d5 56 20 bd f5 f8 b2 bd 29 49 fe bd ad 9f 93 bd
       -0.03914531 -0.08738891 -0.12416298 -0.0720819
0003c0 29 72 4d be 8b c9 1d 3d d7 96 b7 bd b4 66 3d bd
       -0.2006308 0.038522284 -0.08964317 -0.046240523
0003d0 bd ac 85 bd 9c 29 0f be a6 ef a4 be e9 c3 15 bd
       -0.06527088 -0.13980716 -0.32214087 -0.036563788
0003e0 59 0b cd be a2 99 eb bd 57 6b 1b be 17 59 07 be
       -0.4004772 -0.115039125 -0.15177666 -0.13217579
0003f0 02 03 7f bd 77 75 44 bd dc a4 0a bf 48 a3 d4 bd
       -0.062258728 -0.047963586 -0.54157805 -0.10382706
