21-A3C-Pong/runs/BreakoutNoFrameskip-v4/2022-11-03_16-23_Second80MSteps_OK/model_sam_BreakoutDeterministic-v4_conv.26.tar (torch, 944955 bytes, 13 tensors)

conv1.weight f4 [32, 4, 3, 3]
0.20888789 -0.43965736 -0.10326232 0.118562 -0.19327366 0.30772838 0.019864768 0.23499154
0.2808791 0.055285852 -0.038886476 -0.04491883 0.14777952 -0.07862712 0.07096238 -0.009812508
0.10766071 0.24839273 0.1097541 0.120655276 0.10974026 -0.2876627 -0.023846462 0.14434594
-0.03971475 -0.12780924 0.080393516 0.014641023 -0.20429353 0.21866436 -0.26801926 -0.05344658
0.23818938 -0.30870345 -0.45243195 -0.14645986 0.25708067 -0.046060596 -0.066868156 -0.010646503
0.4407232 -0.31930614 0.35710815 0.3806474 -0.36825943 0.09901262 0.0055234106 -0.05452314
-0.066999964 0.35835558 -0.33268917 -0.0129777705 0.4255908 -0.19336705 0.11463379 0.1173858
-0.09114278 -0.22738639 0.3961613 -0.039491404 -0.18169211 0.28601187 -0.022692483 0.058136612
-0.16011883 -0.09027988 -0.29056752 0.039443314 -0.20886515 -0.29276782 -0.06757311 -0.13172877
0.118076995 0.071696304 -0.07168154 0.10156687 0.02414728 -0.106025055 -0.09675322 0.17096958
-0.12671997 0.11920437 0.036045495 -0.1792445 0.37867096 -0.20722602 -0.52435744 0.12350626
-0.036312208 0.005687279 0.23137428 -0.21377651 -0.104722075 0.43056536 -0.23633794 -0.45134455
0.12074099 0.08618818 -0.20806941 0.13995437 0.1361268 -0.18421115 0.314668 0.15706933
-0.2707825 -0.07304027 0.27551416 -0.05301848 0.3205827 0.08612306 0.17395273 0.2689037
0.47089368 0.02076515 0.123338506 0.392596 0.1879063 0.055449698 -0.22247852 -0.05863347
-0.112979054 0.19395983 0.26288167 -0.08959902 0.20818195 0.020554926 -0.30421484 -0.3487468
0.118697084 -0.043274555 -0.2347429 -0.016620224 0.07266141 0.06812616 0.06103995 0.033784866
-0.107242525 0.042457353 -0.32930022 -0.402348 -0.23600566 -0.17077108 -0.36149818 -0.13915232
0.07503221 -0.13465507 -0.043335848 0.04624785 0.34623352 0.17451808 -0.07788526 0.2343159
0.15279636 0.022213275 -0.49783316 -0.2875426 -0.33480963 -0.3127373 -0.22658646 -0.13162056
-0.22432612 0.03964208 0.12878485 0.15406375 -0.061544884 -0.18160422 -0.23764764 -0.10701758
-0.09386795 -0.23674406 -0.050297808 0.20878941 0.32387963 0.109020494 0.08804735 0.48481387
0.27561337 0.12251975 -0.017944274 0.21782015 -0.032763343 -0.15097266 -0.20624523 -0.34952968
-0.26222357 0.11055989 -0.46001583 -0.2977763 0.0066331136 0.043706294 0.06012198 -0.096893914
-0.06938779 0.14248411 0.15935548 -0.23350854 -0.03396874 0.06496336 0.30950642 -0.13513444
-0.05044821 -0.00055862014 0.32763058 0.0846351 0.14941064 0.02368971 -0.041166145 0.080602616
0.054923166 -0.027199684 -0.012857157 0.1872984 -0.10145557 0.17992076 0.32477942 0.25036034
0.1977893 0.0028897093 -0.020762265 0.2546798 -0.022455867 -0.013374333 -0.14603111 -0.020921137
-0.042370517 -0.060663573 0.22502165 0.1594934 0.38048327 0.5964804 -0.038810033 -0.1444047
0.26800668 -0.12839815 -0.22315675 -0.03945002 -0.22388463 0.26094902 0.4093721 -0.3389381
-0.15888232 0.18525045 -0.013606001 -0.22431502 -0.24239379 -0.12573542 -0.2978071 -0.2953031
-0.2940154 0.113305315 0.09334803 -0.024785561 0.1314811 0.07850304 0.24378769 -0.058056284
00000000: b5e6 553e c51a e1be 327b d3bd a2d0 f23d
00000010: 88e9 45be 938e 9d3e 70bb a23c 9fa1 703e
00000020: 63cf 8f3e 6b73 623d 6d47 1fbd cffc 37bd
00000030: 8453 173e 4107 a1bd b954 913d a4c4 20bc
00000040: 387d dc3d aa5a 7e3e c2c6 e03d 1d1a f73d
00000050: 80bf e03d 8748 93be a859 c3bc 6ccf 133e
00000060: efab 22bd 6de0 02be 5ba5 a43d e7e0 6f3c
00000070: 5332 51be 8de9 5f3e d239 89be cdea 5abd
00000080: ebe7 733e 610e 9ebe 29a5 e7be 93f9 15be
00000090: 14a0 833e 09aa 3cbd 2cf2 88bd ac6e 2ebc
000000a0: 79a6 e13e 187c a3be e1d6 b63e 37e4 c23e
000000b0: 808c bcbe 21c7 ca3d bafd b43b a853 5fbd
000000c0: 4737 89bd 627a b73e 3c56 aabe b7a0 54bc
000000d0: 0ae7 d93e 0302 46be 1fc5 ea3d f767 f03d
000000e0: 11a9 babd fad7 68be a7d5 ca3e bdc1 21bd
000000f0: 7f0d 3abe 2670 923e 96e5 b9bc a820 6e3d
00000100: 31f6 23be a8e4 b8bd 44c5 94be 508f 213d
00000110: bfe0 55be aae5 95be c563 8abd e8e3 06be
00000120: 5ad2 f13d 83d5 923d c5cd 92bd 4b02 d03d
00000130: 84d0 c53c aa23 d9bd 8d26 c6bd a612 2f3e
00000140: e1c2 01be 6c21 f43d 71a4 133d df8b 37be
00000150: 29e1 c13e 0f33 54be 4a3c 06bf daf0 fc3d
00000160: 1cbc 14bd 5b5c ba3b 61ed 6c3e 3be8 5abe
00000170: 8778 d6bd 1073 dc3e 9302 72be a216 e7be
00000180: 0d47 f73d 6e83 b03d 2610 55be 3350 0f3e
00000190: d364 0b3e d9a1 3cbe 2a1c a13e c8d6 203e
000001a0: 01a4 8abe 2396 95bd 3110 8d3e e829 59bd
000001b0: 6a23 a43e 4961 b03d aa20 323e bfad 893e
000001c0: fa18 f13e ad1b aa3c e698 fc3d 5802 c93e
000001d0: 826a 403e 391f 633d 69d1 63be a629 70bd
000001e0: 9061 e7bd 689d 463e 6d98 863e b17f b7bd
000001f0: a62d 553e ce62 a83c 0cc2 9bbe f18e b2be
00000200: 7517 f33d a940 31bd 7160 70be 2327 88bc
00000210: 81cf 943d ba85 8b3d 0705 7a3d 0062 0a3d
00000220: f8a1 dbbd c3e7 2d3d 0a9a a8be 8f00 cebe
00000230: 78ab 71be 9dde 2ebe 4a16 b9be f27d 0ebe
00000240: 7daa 993d 05e3 09be ee80 31bd 636e 3d3d
00000250: 8545 b13e deb4 323e 4f82 9fbd 82f0 6f3e
00000260: a676 1c3e 9df8 b53c fde3 febe c938 93be
00000270: 2b6c abbe 1a1f a0be 4806 68be 8ac7 06be
00000280: bfb5 65be bc5f 223d 2de0 033e e3c2 1d3e
00000290: 7d16 7cbd 75f6 39be e759 73be 082c dbbd
000002a0: d73d c0bd 096d 72be 1305 4ebd e4cc 553e
000002b0: 8dd3 a53e 2346 df3d 2b52 b43d 8639 f83e
000002c0: 321d 8d3e a2eb fa3d dfff 92bc 3f0c 5f3e
000002d0: db32 06bd 9498 1abe f331 53be 8ef5 b2be
000002e0: 2b42 86be 396d e23d 3287 ebbe 2376 98be
000002f0: 975a d93b 5f05 333d 7742 763d 5170 c6bd
00000300: 301b 8ebd 5be7 113e 152e 233e dd1c 6fbe
00000310: ce22 0bbd 830b 853d a077 9e3e af60 0abe
00000320: c8a2 4ebd 5d70 12ba 32bf a73e 2b55 ad3d
00000330: 1aff 183e ec10 c23c d59d 28bd fc12 a53d
00000340: 1df7 603d dfd1 debc d3a6 52bc 27cb 3f3e
00000350: f0c7 cfbd 263d 383e 7d49 a63e 3b2f 803e
00000360: 4789 4a3e 4761 3d3b a015 aabc 6465 823e
00000370: 5ef5 b7bc 0520 5bbc 2e89 15be ce62 abbc
00000380: b58c 2dbd 5e7a 78bd 136c 663e 3d52 233e
00000390: b4ce c23e f1b2 183f 45f7 1ebd d3de 13be
000003a0: 2c38 893e ce7a 03be 3483 64be 5896 21bd
000003b0: 0342 65be 1c9b 853e 3899 d13e 4b89 adbe
000003c0: 0cb2 22be 4bb2 3d3e b4eb 5ebc d6b2 65be
000003d0: 1436 78be c9c0 00be 2c7a 98be f831 97be
000003e0: 3089 96be 9e0c e83d 402d bf3d 170b cbbc
000003f0: fba2 063e 34c6 a03d 7ba3 793e 6dcc 6dbd

conv1.bias f4 [32]
-0.0020545747 -0.007327237 -0.015292138 -0.03273767 -0.0010997199 0.0071918312 0.0020900557 0.0030211841
0.0046068723 -0.0189175 0.007318626 -0.0032356216 0.0059781806 -0.00957494 -0.011008433 -0.032233253
0.009610142 0.00024171846 0.009720607 0.010567047 0.0077111437 -0.0071111554 -0.0079771085 -0.008060313
-0.007826696 0.006548874 -0.006622568 -0.010484365 0.0045347856 -0.006925077 0.017800808 0.007858954
00000000: 0ba6 06bb 5219 f0bb e08b 7abc ef17 06bd
00000010: 7a24 90ba 74a9 eb3b 51f9 083b 0fff 453b
00000020: 3ff5 963b dff8 9abc 16d1 ef3b b90c 54bb
00000030: 9de4 c33b 36e0 1cbc b75c 34bc 0407 04bd
00000040: db73 1d3c ce75 7d39 2e43 1f3c 6821 2d3c
00000050: c3ad fc3b b204 e9bb 6bb2 02bc 670f 04bc
00000060: 8b3b 00bc f097 d63b 2002 d9bb 9dc6 2bbc
00000070: 8a98 943b c2eb e2bb 00d3 913c d8c2 003c

conv2.weight f4 [32, 32, 3, 3]
0.22930041 0.07275026 0.17033055 -0.14283174 0.21414119 0.12865657 -0.12019022 -0.03386262
-0.23981658 0.09478474 -0.38859504 0.13315955 0.20699832 -0.30162483 0.20413165 -0.049169514
0.06700406 -0.056716487 -0.014157671 -0.02767919 -0.20683992 0.028066898 -0.037914224 -0.34829473
-0.08635966 -0.026496984 0.3602952 0.085663386 -0.16832736 0.21615928 0.1468085 0.05150353
0.23478289 0.036362443 0.14863022 -0.27747536 -0.030262036 -0.0025513656 -0.014720842 -0.04807034
-0.07240516 -0.082888044 0.09223399 0.10630952 -0.04888098 -0.35651135 0.048597254 -0.16297665
0.079646766 -0.005187848 0.17783341 -0.035570826 0.015742818 -0.25364846 0.09402608 -0.14954083
0.037834905 0.14389452 -0.08387909 0.27854967 -0.14504981 -0.081863835 -0.066664964 0.064994745
0.22315809 0.2271547 -0.12232238 0.21181193 0.17746894 -0.08538321 0.11514984 -0.19083896
0.12485059 0.16811067 0.076789066 -0.14559256 -0.05762067 0.33621043 0.01698213 -0.07570802
0.08412532 -0.04388701 0.012236528 -0.26351494 -0.22994976 -0.22661749 -0.4249433 -0.020833591
0.00864856 0.42973527 -0.22332142 -0.19737743 0.017588487 -0.03684865 0.16356187 -0.025241677
-0.083231054 0.19011495 -0.20667163 0.0573158 0.085312 0.015835902 0.04478067 0.006238054
-0.32619277 -0.14587678 0.12057182 -0.03714354 0.044826683 -0.094922476 -0.024662076 -0.1307291
-0.0703124 0.22941975 0.036655493 -0.10208192 0.09998619 0.30888358 0.23212567 0.33356926
-0.10190373 -0.18139912 0.26497856 0.027298203 -0.24726316 -0.0104246875 0.02878353 -0.05722167
-0.29109192 -0.022579668 0.001964684 -0.21395054 -0.11062892 0.05188642 0.05189958 0.12086057
-0.045185853 0.032008454 0.07350903 0.041579943 -0.099759966 0.13541979 -0.004598279 -0.021585962
-0.1210574 -0.20100132 0.070824705 0.08379625 -0.17093417 0.26253346 0.06972992 0.14529479
-0.066495776 0.18343182 0.096768916 0.16758601 -0.13574918 0.057209663 0.14581284 0.0021130443
-0.2493204 0.11026889 0.097996704 -0.07354596 -0.1043149 0.123089485 -0.15431221 -0.06781604
-0.28956896 -0.04039427 -0.0631232 -0.05087364 -0.04130751 -0.24398266 0.0053539556 0.028594807
-0.32095265 -0.031924643 0.03529151 0.2839199 -0.012816984 -0.043468606 0.21115004 -0.015314759
0.0912547 0.5401504 -0.058711335 0.07257434 -0.31783316 0.17817444 0.07830903 -0.06079729
0.059771895 0.10746735 -0.15776648 -0.124450035 -0.06938784 0.115361266 -0.07873599 0.061559174
-0.08173551 -0.115286976 0.22922558 0.11022463 -0.030702222 0.10055524 0.032712843 -0.024251413
-0.10589287 0.17865331 -0.26627588 0.2789847 -0.37929443 -0.01657889 -0.050836276 0.28799275
-0.17995803 0.057984404 -0.123233296 -0.07816142 -0.02470097 0.07248117 0.116973475 -0.09324263
0.003815672 0.0697137 0.3626439 -0.09027167 -0.25000995 0.20492864 -0.1592915 -0.06912852
-0.048233643 -0.1866827 -0.011333552 -0.040677354 -0.0131156435 -0.23783366 0.15164863 0.20314465
0.011208196 0.19233662 -0.19856274 -0.002832141 0.022044975 -0.14114696 -0.08673324 0.31233466
0.20445155 -0.014629797 0.1573338 -0.20327173 0.105492555 -0.07057965 0.14986151 -0.014544026
00000000: bacd 6a3e 17fe 943d 226b 2e3e 7c42 12be
00000010: d447 5b3e 8cbe 033e 4a26 f6bd 88b3 0abd
00000020: 7a92 75be 801e c23d eef5 c6be fa5a 083e
00000030: 5ef7 533e 926e 9abe e307 513e f965 49bd
00000040: 6d39 893d 8c4f 68bd 93f5 67bc 78bf e2bc
00000050: d8cd 53be 8dec e53c f24b 1bbd b053 b2be
00000060: 55dd b0bd 3410 d9bc 9d78 b83e 4970 af3d
00000070: 025e 2cbe dc58 5d3e f854 163e 5ef5 523d
00000080: ed6a 703e c9f0 143d 8532 183e 4011 8ebe
00000090: 17e8 f7bc d034 27bb b02f 71bc 68e5 44bd
000000a0: 2849 94bd 35c1 a9bd 2de5 bc3d ceb8 d93d
000000b0: 6c37 48bd a888 b6be ea0d 473d 5ae3 26be
000000c0: d81d a33d d3fe a9bb f619 363e b7b2 11bd
000000d0: 15f7 803c 36de 81be bf90 c03d 3b21 19be
000000e0: c6f8 1a3d 1659 133e cdc8 abbd 109e 8e3e
000000f0: f087 14be 3aa8 a7bd a487 88bd f71b 853d
00000100: 8e83 643e 3e9b 683e 2884 fabd 3ae5 583e
00000110: 6bba 353e 64dd aebd aed3 eb3d 4a6b 43be
00000120: abb1 ff3d 3425 2c3e 9643 9d3d 3716 15be
00000130: a703 6cbd c623 ac3e 1c1e 8b3c ce0c 9bbd
00000140: e549 ac3d dec2 33bd b87b 483c 6eeb 86be
00000150: f377 6bbe 6a0e 68be 2b92 d9be 35ab aabc
00000160: b1b2 0d3c 4306 dc3e 5fae 64be 4f1d 4abe
00000170: bb15 903c 9cee 16bd c37c 273e a2c7 cebc
00000180: 0b75 aabd 7ead 423e baa1 53be f9c3 6a3d
00000190: 0fb8 ae3d 4bba 813c f06b 373d 9768 cc3b
000001a0: bd02 a7be b960 15be 5cee f63d d323 18bd
000001b0: 2f9c 373d b766 c2bd 1f08 cabc d9dd 05be
000001c0: f3ff 8fbd 03ed 6a3e 1224 163d 5310 d1bd
000001d0: 8fc5 cc3d fd25 9e3e 5ab2 6d3e 97c9 aa3e
000001e0: e7b2 d0bd b1c0 39be 45ab 873e 7ba0 df3c
000001f0: 8e32 7dbe 4fcc 2abc 70cb eb3c 4561 6abd
00000200: 000a 95be fff8 b8bc eec1 003b da15 5bbe
00000210: 6a91 e2bd db86 543d a794 543d bf85 f73d
00000220: cd14 39bd 4c1b 033d e78b 963d bb4f 2a3d
00000230: f44e ccbd 7cab 0a3e 29ad 96bb 0bd5 b0bc
00000240: f1ec f7bd 4ad3 4dbe 8b0c 913d 5e9d ab3d
00000250: 5e09 2fbe c96a 863e 8fce 8e3d 28c8 143e
00000260: f02e 88bd 8dd5 3b3e c82e c63d ab9b 2b3e
00000270: d501 0bbe ae54 6a3d f64f 153e 007b 0a3b
00000280: d94d 7fbe a8d4 e13d 7fb2 c83d 449f 96bd
00000290: 0da3 d5bd 5716 fc3d 0504 1ebe 23e3 8abd
000002a0: 6242 94be 7674 25bd bc46 81bd e160 50bd
000002b0: 1032 29bd 97d6 79be 3c70 af3b a83f ea3c
000002c0: e853 a4be 6ac3 02bd d58d 103d f35d 913e
000002d0: 54fe 51bc 230c 32bd b737 583e c1ea 7abc
000002e0: bfe3 ba3d 4c47 0a3f 4c7b 70bd dba1 943d
000002f0: 07bb a2be 5c73 363e 7c60 a03d 9406 79bd
00000300: 60d3 743d d817 dc3d 898d 21be a9df febd
00000310: 361b 8ebd 8742 ec3d 5640 a1bd 7925 7c3d
00000320: f264 a7bd 941b ecbd 1cba 6a3e 73bd e13d
00000330: 3a83 fbbc e8ef cd3d e7fd 053d e6aa c6bc
00000340: 5cde d8bd e5f0 363e 5055 88be 15d7 8e3e
00000350: e132 c2be 74d0 87bc b339 50bd c973 933e
00000360: eb46 38be 0e81 6d3d bd61 fcbd 1813 a0bd
00000370: b059 cabc 0271 943d ca8f ef3d fef5 bebd
00000380: 5a10 7a3b 0ec6 8e3d 76ac b93e 5ae0 b8bd
00000390: 4e01 80be d0d8 513e 501d 23be 4193 8dbd
000003a0: a490 45bd c029 3fbe 5db0 39bc 4c9d 26bd
000003b0: ffe2 56bc ab8a 73be c749 1b3e 2705 503e
000003c0: 95a2 373c e4f3 443e 0854 4bbe 719b 39bb
000003d0: aa97 b43c d488 10be 32a1 b1bd 54ea 9f3e
000003e0: bf5b 513e d1b1 6fbc 1d1c 213e 7726 50be
000003f0: 7b0c d83d 108c 90bd 4c75 193e 114a 6ebc

conv2.bias f4 [32]
-0.035561293 -0.13821426 -0.066789635 -0.028064273 -0.008558618 -0.0034630853 0.023817113 0.0051824367
0.0021169952 -0.21771878 -0.059821952 0.021757776 -0.04866746 -0.019376293 -0.0668802 -0.048908994
-0.032886975 0.0056834747 -0.032129835 -0.06659127 -0.23407806 -0.009891683 -0.05307559 -0.06577554
-0.12863515 0.029424626 0.015790397 -0.018514356 -0.08239895 -0.009052553 -0.043408353 -0.19852394
00000000: b8a8 11bd 0a88 0dbe 01c9 88bd 0ce7 e5bc
00000010: 7239 0cbc eef4 62bb 1b1c c33c 6ed1 a93b
00000020: 49bd 0a3b acf1 5ebe dd07 75bd 5d3d b23c
00000030: 8857 47bd 08bb 9ebc 7cf8 88bd cc54 48bd
00000040: 7eb4 06bd 713c ba3b 939a 03bd 0161 88bd
00000050: 29b2 6fbe ba10 22bc ca65 59bd 54b5 86bd
00000060: efb8 03be ea0b f13c dd5a 813c 6bab 97bc
00000070: c8c0 a8bd 2951 14bc f5cc 31bd dc49 4bbe

conv3.weight f4 [32, 32, 3, 3]
-0.08716482 -0.073784016 -0.19318327 -0.059332058 -0.03476336 0.07445348 -0.02120767 0.1538479
-0.075972915 0.0017802808 0.16822936 0.08293656 -0.09321506 -0.13766913 -0.2759683 -0.06016922
-0.066423826 0.031020647 -0.0061040367 0.092813395 0.013666213 0.076981366 -0.05335383 -0.16574024
0.06785751 -0.032980476 0.018753007 0.014000775 0.0935596 -0.035233747 -0.002965346 0.041765857
-0.13152276 0.063536376 -0.12399402 0.12326764 -0.0026658594 -0.0797045 0.03230753 0.0017058015
-0.09046294 -0.05397836 0.014855646 0.18684588 0.20789647 -0.0003380488 0.04512878 0.2319078
0.15847208 0.09583941 -0.024348347 0.04818373 -0.018744918 0.10921283 0.1339072 0.17451812
-0.01901723 -0.1133084 0.16624022 0.2434137 0.038222007 -0.13339753 0.03659449 0.10347167
0.016219683 -0.016842704 0.07944532 -0.09939475 0.22266826 -0.12216119 0.31481236 -0.21966468
0.0070699216 0.19922993 0.008308172 -0.085585795 0.15508574 0.20866382 -0.21112382 0.08223225
-0.020567788 -0.09597961 0.06243473 0.03878546 0.02316459 0.04084609 0.051719595 0.1636147
-0.027851086 0.2984981 -0.050610125 -0.04853341 0.030918358 0.039607882 0.006367653 -0.061515894
-0.053515147 -0.09355359 -0.018699493 0.075141914 0.04984937 0.1865706 -0.03751475 0.09113883
-0.024112057 -0.1361035 0.011521441 -0.0055044275 -0.03520095 0.060185388 0.15178064 -0.001976767
0.015365826 0.23858586 -0.06627737 0.031127878 -0.06884775 -0.04094932 -0.009797842 0.01921009
0.15903558 -0.117059946 0.13822426 0.011209394 0.014488003 -0.041570745 -0.09822639 -0.09662354
0.01772651 0.02995035 0.25780392 -0.22961764 0.084626794 -0.18521364 0.11634584 -0.016798867
0.040218 -0.05403936 0.05945444 -0.3073509 0.088927954 0.12181068 -0.12238066 -0.06571198
-0.039684653 0.1917585 0.07838483 -0.2000356 0.12379871 0.2409959 -0.045167338 -0.0941286
-0.2166026 -0.09297619 -0.1802201 -0.05768847 0.15531686 -0.20693454 0.067073025 -0.07288641
0.24667163 0.0070474837 -0.018081794 -0.014111108 -0.25969228 0.013184332 -0.083886884 0.13763435
-0.14918719 0.043052122 0.08293666 0.030409241 -0.005471238 0.07025646 -0.17994484 0.07175968
-0.09532082 0.13289373 -0.17064674 -0.010867771 -0.080389686 -0.14431432 -0.20111024 0.026703676
0.17263487 0.17039588 0.03340095 0.066778965 0.052506506 -0.055915646 0.1644027 0.11612725
-0.0024576518 -0.44714552 0.11838338 0.034893077 0.028913166 -0.14871581 0.038114578 -0.037650794
-0.085337974 -0.045379095 0.117518775 0.11826816 -0.14677839 0.05461012 -0.03264202 -0.055100832
0.0770843 0.040087637 0.16583873 -0.045923326 0.29500508 -0.037406895 0.13155778 0.1492602
0.15850219 -0.012834316 0.0736012 -0.06880524 0.05600853 0.016560955 -0.09093307 -0.044409484
-0.12501971 -0.06949091 0.13804798 -0.09753282 -0.060833935 -0.29619914 0.20556922 -0.055838928
0.32101515 -0.28789812 0.042642877 0.1192965 0.14200832 0.20518833 -0.15137668 -0.020756122
-0.121220864 0.10977795 -0.23689179 0.1189682 0.26015627 0.15126984 -0.07513386 -0.029201353
0.17343612 0.019318776 -0.12331864 0.0007805057 0.12293947 0.21762182 0.10958857 -0.027880827
00000000: 7883 b2bd 131c 97bd d6d1 45be 2c06 73bd
00000010: 0664 0ebd 117b 983d b5bb adbc 4e8a 1d3e
00000020: b097 9bbd 5058 e93a 5144 2c3e a5da a93d
00000030: 8ae7 bebd 23f9 0cbe b84b 8dbe 0074 76bd
00000040: 3709 88bd 031f fe3c 5f04 c8bb f314 be3d
00000050: 40e8 5f3c 68a8 9d3d 8c89 5abd cfb7 29be
00000060: e1f8 8a3d 8916 07bd e89f 993c 8263 653c
00000070: 2d9c bf3d 4351 10bd 4056 42bb ad12 2b3d
00000080: e7ad 06be 5c1f 823d 94f0 fdbd bf73 fc3d
00000090: b3b5 2ebb 1d3c a3bd e754 043d 3395 df3a
000000a0: a244 b9bd 6a18 5dbd 1865 733c 8754 3f3e
000000b0: d0e2 543e 243c b1b9 f5d8 383d 3d79 6d3e
000000c0: 8146 223e 7447 c43d 2f76 c7bc 4e5c 453d
000000d0: f18e 99bc faaa df3d f81e 093e e1b4 323e
000000e0: 06ca 9bbc 3c0e e8bd e03a 2a3e 7141 793e
000000f0: ae8e 1c3d 5d99 08be 1be4 153d f4e8 d33d
00000100: 24df 843c b6f9 89bc 3ab4 a23d 7a8f cbbd
00000110: 2603 643e a52f fabd 162f a13e c7ef 60be
00000120: cdaa e73b ee02 4c3e 001f 083c 9b47 afbd
00000130: ccce 1e3e f8ab 553e d830 58be 6269 a83d
00000140: c77d a8bc f590 c4bd 8fbb 7f3d 81dd 1e3d
00000150: abc3 bd3c 3b4e 273d edd7 533d 9d8a 273e
00000160: f627 e4bc bed4 983e 904c 4fbd f8ca 46bd
00000170: 7f48 fd3c e03b 223d bfa7 d03b 17f8 7bbd
00000180: b332 5bbd 0699 bfbd ae2f 99bc 01e4 993d
00000190: da2e 4c3d 5d0c 3f3e 11a9 19bd ffa6 ba3d
000001a0: a686 c5bc b75e 0bbe 6dc4 3c3c 7c5e b4bb
000001b0: df2e 10bd f484 763d 626c 1b3e a68c 01bb
000001c0: f2c0 7b3c da4f 743e 6ebc 87bd e4ff fe3c
000001d0: 0d00 8dbd 79ba 27bd 2187 20bc 7b5e 9d3c
000001e0: 39da 223e 20bd efbd a98a 0d3e 9ba7 373c
000001f0: 175f 6d3c 1646 2abd eb2a c9bd 90e2 c5bd
00000200: 3037 913c 705a f53c e0fe 833e e320 6bbe
00000210: d050 ad3d a5a8 3dbe ba46 ee3d c79d 89bc
00000220: a1bb 243d 6058 5dbd 8086 733d 195d 9dbe
00000230: dc1f b63d e177 f93d b6a2 fabd 0194 86bd
00000240: 608c 22bd 575c 443e 3a88 a03d 22d6 4cbe
00000250: 2e8a fd3d a1c7 763e 6301 39bd 7fc6 c0bd
00000260: 12cd 5dbe 4d6a bebd 9e8b 38be bf4a 6cbd
00000270: 620b 1f3e a6e6 53be 955d 893d 7845 95bd
00000280: 7d97 7c3e 94ee e63b 4520 94bc 4732 67bc
00000290: 63f6 84be 1903 583c e3cc abbd 05f0 0c3e
000002a0: 87c4 18be 6c57 303d b2da a93d cd1c f93c
000002b0: 1248 b3bb 9ee2 8f3d 7643 38be bdf6 923d
000002c0: 9037 c3bd 4b15 083e 05be 2ebe bc0e 32bc
000002d0: 59a3 a4bd 22c7 13be d8ef 4dbe abc1 da3c
000002e0: 32c7 303e 427c 2e3e 6fcf 083d 69c3 883d
000002f0: 1011 573d ce07 65bd 2e59 283e 20d4 ed3d
00000300: 8e10 21bb 42f0 e4be fc72 f23d 0bec 0e3d
00000310: 4edb ec3c f548 18be 081e 1c3d b837 1abd
00000320: adc5 aebd 6edf 39bd afad f03d 9436 f23d
00000330: 134d 16be dcae 5f3d a4b3 05bd 69b1 61bd
00000340: 60de 9d3d ef32 243d a1d1 293e 191a 3cbd
00000350: e80a 973e f937 19bd 15b7 063e aad7 183e
00000360: 664e 223e 0647 52bc 3abc 963d c3e9 8cbd
00000370: 3369 653d d7aa 873c 1e3b babd b8e6 35bd
00000380: 2b05 00be 4051 8ebd 735c 0d3e 4abf c7bd
00000390: 012d 79bd 6aa7 97be bd80 523e 5cb7 64bd
000003a0: 195c a43e 6267 93be 4caa 2e3d b951 f43d
000003b0: a16a 113e e41c 523e 7d02 1bbe be08 aabc
000003c0: a542 f8bd 43d3 e03d c393 72be 9aa5 f33d
000003d0: 3433 853e 7be6 1a3e c8df 99bd ad37 efbc
000003e0: 3d99 313e 6942 9e3c 7c8e fcbd da9a 4c3a
000003f0: b0c7 fb3d 41d8 5e3e f96f e03d 5566 e4bc

conv3.bias f4 [32]
0.14029127 -0.016887061 0.10529418 0.13526885 0.09832356 -0.05195236 0.11942873 0.09554236
-0.12564626 0.11963146 0.04448234 0.1347836 0.20259024 0.165461 -0.1488289 -0.0032667029
0.16834849 -0.01731359 0.09282621 -0.00662598 0.026793074 0.17380576 0.017679712 0.010154405
-0.003287945 0.016624238 0.12924702 0.16348922 0.047449946 0.067685075 0.06071512 0.18650813
00000000: 84a8 0f3e bc56 8abc 7aa4 d73d eb83 0a3e
00000010: dd5d c93d ffcb 54bd 0d97 f43d b6ab c33d
00000020: 6aa9 00be 5701 f53d 1d33 363d b604 0a3e
00000030: d173 4f3e 9c6e 293e 9a66 18be 2e16 56bb
00000040: 8c63 2c3e 3bd5 8dbc ab1b be3d c01e d9bb
00000050: 267d db3c 23fa 313e 0bd5 903c a95e 263c
00000060: 907a 57bb 8e2f 883c 5559 043e b869 273e
00000070: e05a 423d 799e 8a3d 6bb0 783d fdfb 3e3e

conv4.weight f4 [32, 32, 3, 3]
-0.06312756 -0.026455196 0.15508942 -0.059946004 0.093823284 -0.17557448 -0.0142052965 -0.03509624
0.106059514 -0.108677074 0.07467199 0.0074323015 -0.11584292 0.28397802 -0.1106322 0.015541456
0.0026345288 -0.09522877 -0.00023592154 -0.045502707 0.008410888 -0.12020565 0.032573625 -0.01685215
-0.027817914 0.05607909 0.2619712 -0.03225301 0.17960219 -0.036923107 -0.08337341 -0.083186015
0.05555 0.016047489 0.21715976 0.12053103 -0.036229108 0.14213821 0.002312719 0.03170203
0.26390636 -0.03461194 0.0028599037 -0.10671584 0.014606395 -0.096464425 -0.024137894 -0.043583125
0.10203297 -0.11390115 0.16516565 0.0468733 -0.0409897 -0.085918516 -0.027706586 0.05592769
0.028785253 0.2355231 -0.041682582 -0.20315033 -0.18047796 0.0083573125 0.044903997 -0.015678596
0.1153286 -0.027588736 0.007998455 0.14161648 0.058994077 0.06669794 -0.06083937 0.011977815
0.091591604 0.026825415 -0.120385036 0.15993471 -0.13186184 0.06729148 -0.16353086 0.18790409
0.15883182 0.16210212 -0.08248052 0.031709068 -0.055045113 0.0018320642 0.048617058 -0.040956374
-0.10241004 0.12311866 0.010430698 -0.16227545 0.021362133 -0.0012610989 -0.060118873 0.09770338
-0.049193427 0.17482199 0.09406308 0.0014626846 -0.09748472 -0.08717821 -0.22828393 0.092983365
0.11292786 -0.07256594 -0.028588792 -0.01189506 -0.056602675 -0.008590065 0.059130643 -0.041817576
-0.035231557 -0.1187569 0.12092545 -0.01359023 0.05258041 -0.15510225 0.0060047368 0.090995416
-0.14235911 0.21283096 -0.12264129 0.13344385 -0.10104814 0.05188266 -0.03133556 0.09480428
-0.06163658 0.07683898 -0.31965575 0.19878867 0.016919782 -0.010183047 -0.025743112 0.005513385
-0.003981444 -0.07613633 0.13284205 -0.07352805 0.011113086 -0.18340358 -0.13799421 0.10828287
-0.01782785 -0.018984782 -0.05970358 -0.122340426 0.07451633 0.05520327 -0.06896056 -0.07602497
0.090356536 -0.05009492 -0.037657358 -0.018207572 0.15039329 -0.18258491 0.020024527 -0.13871478
0.07743495 0.19631587 0.017081017 -0.0070923115 -0.014277708 0.02606948 0.022199653 -0.18116634
-0.0346081 0.072285764 0.1802458 0.025237923 0.15745445 -0.07297138 0.093324415 0.1734564
-0.23801285 0.0019416086 0.070857584 0.09836564 0.032621525 0.07037676 -0.03839179 -0.24552454
0.052557297 0.049862914 0.060912658 -0.14535984 0.015100943 0.08017009 0.05620678 0.0449887
-0.0017138066 -0.024008453 -0.20292963 0.026150564 0.1172473 0.1569778 -0.007833984 0.104962565
0.0049351263 0.114400744 0.12549879 -0.11958173 -0.001021605 -0.14149114 0.12617867 0.07601242
0.06812658 0.030740742 0.1725602 -0.18413714 -0.018890582 -0.11851668 -0.24930376 0.27184737
0.10708917 -0.065558836 -0.04052906 -0.28784457 0.09559348 0.1484165 0.17124191 -0.115548894
-0.095766254 0.10040865 0.010200434 -0.044358037 -0.10137167 0.24424767 0.16195524 0.022527345
-0.21593969 0.049685903 -0.03808163 -0.079982325 0.0752589 0.034405623 0.018647922 -0.15310782
-0.05790059 -0.06556766 0.038251344 -0.069547154 0.080890484 -0.06358369 0.062385917 0.14080623
-0.07334822 0.016375553 -0.017973583 0.025629058 0.028497923 -0.1241646 -0.015178531 -0.06549287
00000000: 0649 81bd 91b8 d8bc c3cf 1e3e f189 75bd
00000010: 6c26 c03d ccc9 33be 55bd 68bc 13c1 0fbd
00000020: bb35 d93d 1692 debd a1ed 983d aa8a f33b
00000030: 0e3f edbd 9165 913e 2393 e2bd 97a1 7e3c
00000040: 0fa8 2c3b 4d07 c3bd b561 77b9 0c61 3abd
00000050: d2cd 093c 612e f6bd ec6b 053d 850d 8abc
00000060: 65e2 e3bc 30b3 653d 1721 863e bb1b 04bd
00000070: a3e9 373e af3c 17bd aebf aabd 6e5d aabd
00000080: 6688 633d 0676 833c 215f 5e3e f9d8 f63d
00000090: f964 14bd ae8c 113e fc90 173b fdd9 013d
000000a0: bc1e 873e 40c5 0dbd 396d 3b3b d68d dabd
000000b0: a94f 6f3c 248f c5bd d5bc c5bc 3884 32bd
000000c0: a9f6 d03d 0245 e9bd 2f21 293e 38fe 3f3d
000000d0: d1e4 27bd 0cf6 afbd ecf8 e2bc 6f14 653d
000000e0: 0dcf eb3c f82c 713e 5bbb 2abd a406 50be
000000f0: 37cf 38be 1ced 083c 41ed 373d 6670 80bc
00000100: 6731 ec3d c601 e2bc f40b 033c e903 113e
00000110: c6a3 713d ee98 883d b432 79bd 993e 443c
00000120: 6194 bb3d f9c0 db3c 6e8c f6bd edc5 233e
00000130: ca06 07be 1ed0 893d a274 27be ee69 403e
00000140: cfa4 223e 19fe 253e 8ceb a8bd 5ee1 013d
00000150: fc76 61bd e021 f03a ae22 473d dfc1 27bd
00000160: 5bbc d1bd a325 fc3d 85e5 2a3c 892b 26be
00000170: a4ff ae3c 754b a5ba 353f 76bd b618 c83d
00000180: 0c7f 49bd 8904 333e 25a4 c03d 8db7 bf3a
00000190: 12a6 c7bd 7d8a b2bd 43c3 69be 106e be3d
000001a0: b946 e73d 749d 94bd 0b33 eabc 7fe3 42bc
000001b0: 35d8 67bd 58bd 0cbc f932 723d e848 2bbd
000001c0: f74e 10bd d136 f3bd c3a7 f73d 8ea9 5ebc
000001d0: 8e5e 573d 20d3 1ebe 62c3 c43b ce5b ba3d
000001e0: 96c6 11be 5cf0 593e 5b2b fbbd 81a5 083e
000001f0: 54f2 cebd e982 543d b759 00bd bf28 c23d
00000200: a376 7cbd c15d 9d3d eba9 a3be 428f 4b3e
00000210: 5b9b 8a3c cbd6 26bc 38e3 d2bc a0a9 b43b
00000220: c676 82bb 5ded 9bbd bf07 083e e095 96bd
00000230: a913 363c 26ce 3bbe 5b4e 0dbe 69c3 dd3d
00000240: b60b 92bc f985 9bbc be8b 74bd 9e8d fabd
00000250: 059c 983d d31c 623d 323b 8dbd fbb2 9bbd
00000260: d90c b93d 5530 4dbd 9a3e 1abd 0c28 95bc
00000270: b300 1a3e 8af7 3abe 7a0a a43c 3f0b 0ebe
00000280: 3796 9e3d 0707 493e 7ded 8b3c 9f66 e8bb
00000290: 0ced 69bc aa8f d53c 0cdc b53c ab83 39be
000002a0: 39c1 0dbd 8f0a 943d 5b92 383e c3bf ce3c
000002b0: bd3b 213e 0572 95bd df20 bf3d 8e9e 313e
000002c0: a4b9 73be 937d fe3a c81d 913d ed73 c93d
000002d0: 269e 053d b121 903d b640 1dbd c96a 7bbe
000002e0: 5246 573d 0e3d 4c3d 8d7f 793d 36d9 14be
000002f0: f269 773c 3730 a43d 1539 663d 1246 383d
00000300: cfa1 e0ba 60ad c4bc c9cc 4fbe b539 d63c
00000310: 5a1f f03d cabe 203e 1c5a 00bc 9df6 d63d
00000320: d7b6 a13b f04a ea3d c182 003e 44e7 f4bd
00000330: 60e7 85ba 0ee3 10be fb34 013e 66ac 9b3d
00000340: f385 8b3d 02d4 fb3c 9fb3 303e 728e 3cbe
00000350: 6cc0 9abc e0b8 f2bd 7c49 7fbe 942f 8b3e
00000360: 9151 db3d b643 86bd cd01 26bd 5d60 93be
00000370: 84c6 c33d 7ffa 173e 0a5a 2f3e e6a4 ecbd
00000380: 1921 c4bd 0da3 cd3d b91f 273c c6b0 35bd
00000390: f39b cfbd 101c 7a3e 98d7 253e 448b b83c
000003a0: 4b1f 5dbe 7283 4b3d 7cfb 1bbd c6cd a3bd
000003b0: 5721 9a3d e9ec 0c3d 87c3 983c 4cc8 1cbe
000003c0: 2b29 6dbd 5648 86bd 71ad 1c3d bd6e 8ebd
000003d0: e9a9 a53d 2a38 82bd 6088 7f3d 822f 103e
000003e0: 9737 96bd 0626 863c 563d 93bc 08f4 d13c
000003f0: 7a74 e93c 034a febd 60af 78bc 2021 86bd

conv4.bias f4 [32]
0.060464706 0.1394773 -0.13123785 0.010706879 0.03047055 0.018095363 -0.103285976 -0.055036265
0.111681014 -0.0616747 -0.18294673 -0.016948396 -0.025471173 0.07855067 0.04150552 -0.09495471
-0.103332005 0.04503615 0.049103364 -0.09521183 -0.066326186 0.12765375 0.044383742 -0.04263503
0.121835 0.07103293 0.09007649 -0.22888711 0.19183627 0.023474539 -0.08669147 -0.024594931
00000000: d7a9 773d 23d3 0e3e 3763 06be e86b 2f3c
00000010: 609d f93c ba3c 943c 9987 d3bd b56d 61bd
00000020: 04b9 e43d 9c9e 7cbd 6356 3bbe 5dd7 8abc
00000030: eca8 d0bc 2cdf a03d b101 2a3d 9d77 c2bd
00000040: bb9f d3bd d377 383d 9c20 493d 6cfe c2bd
00000050: 06d6 87bd aab7 023e bacb 353d 12a2 2ebd
00000060: a184 f93d b679 913d 067a b83d 6261 6abe
00000070: ba70 443e ad4d c03c 4c8b b1bd 4f7b c9bc

linear.weight f4 [256, 800]
0.051864106 0.034636725 -0.001214949 0.022086432 -0.00086391775 -0.07515685 -0.026457306 0.06265714
0.017770031 0.010431675 0.04958133 -0.039786644 0.023219308 0.015011557 -0.0030187222 0.082443126
0.031120008 -0.13011058 -0.036817707 0.06395326 -0.053009555 0.08636816 -0.07489506 -0.029671362
-0.06252563 0.072552145 -0.0015191347 -0.01618901 0.022343868 0.055813335 -0.057999108 -0.04070171
0.08362397 -0.06342326 -0.05778541 -0.050425123 -0.015235691 -0.049677078 -0.031584088 -0.014976724
-0.0015145568 -0.032916818 -0.04485177 0.09720043 -0.108601905 0.010063691 0.061482996 0.038882587
0.040427472 -0.107179284 0.014867276 0.024671052 -0.06071605 -0.03665327 -0.0457542 -0.0025658484
-0.05225984 -0.003913509 0.01797656 -0.1297485 0.043708708 0.007844931 0.031850345 0.027974911
-0.028666243 0.00010361123 -0.036547672 -0.103907764 0.06343538 0.016968535 -0.010053042 -0.014308671
-0.027946081 0.023601625 0.08576303 -0.033378255 0.044413522 0.0672155 0.041356266 -0.01978052
0.023822462 0.05276743 0.019845555 -0.049249623 0.027285757 0.009815309 0.02755819 0.013455386
-0.032490738 -0.04528945 -0.1762607 -0.06776303 0.12643203 0.10633625 -0.07151739 0.03275016
0.11981987 0.07419724 -0.12396408 -0.12518933 -0.07759671 -0.013575511 0.01257619 0.042788647
-0.046182074 0.015109701 -0.008965431 -0.062356975 0.076785885 -0.04306495 -0.019043379 0.01159753
-0.0070063984 -0.07297243 -0.027695693 0.015719075 0.017584417 -0.002969775 0.1296568 -0.0028801952
-0.024599213 -0.15180175 0.09439411 -0.030743686 -0.06785747 -0.007277292 0.01120085 0.019566294
0.0015998872 0.03157644 0.008480067 -0.008361597 -0.040424876 0.04989584 0.13627332 0.032333303
-0.096769385 -0.023546714 0.04566864 -0.07477274 -0.09883403 0.039109174 -0.0006185886 0.01766946
0.09417886 0.021131089 0.08836938 -0.05810195 -0.036294952 0.029307516 -0.031071294 -0.033442777
-0.031335343 0.015195878 -0.0045899926 0.05353623 0.021581473 -0.050232213 -0.042806726 0.04476705
0.031864718 -0.03265773 0.05246662 -0.019221988 0.015286059 0.028725382 -0.0679437 0.075040884
0.002562417 -0.03621637 -0.027559757 0.0651353 0.031968676 0.006475221 -0.060194384 0.054720975
0.0037072701 0.03591498 0.04935894 -0.01797524 -0.041803233 -0.0028793872 0.015489454 0.014029989
-0.08149188 -0.011970198 -0.1078653 0.054403607 -0.020711614 -0.018220784 0.06348439 0.027021108
-0.00617496 0.05805866 -0.0876621 0.17451103 0.02058218 -0.022348063 -0.04910975 -0.0011404174
0.043070793 0.030502006 0.024936816 -0.0053530075 -0.011339554 -0.03640204 -0.035916667 0.04733665
-0.10074887 -0.031313416 0.029257655 0.037726056 0.0020948586 -0.0018510664 0.0010507426 -0.089163214
0.014251238 -0.081402816 0.07480689 -0.06340065 0.080526374 -0.03882413 0.009817184 0.0044407193
-0.07271037 0.026803913 0.08479769 0.028595567 0.0077902605 0.045310337 -0.044876706 0.01311146
0.00018418804 -0.055212144 0.09947766 -0.020267852 -0.037533723 0.012665693 -0.041848656 -0.0048435316
0.037797082 0.014409213 0.058277037 0.010100464 -0.01731481 0.06677787 -0.009448262 0.029914904
0.01234931 -0.07336144 -0.0012068881 0.0009983073 0.023788176 0.023758505 0.032462094 -0.038511887
00000000: 756f 543d 3ddf 0d3d ec3e 9fba 9bee b43c
00000010: 8a78 62ba d6eb 99bd febc d8bc 6352 803d
00000020: 7592 913c 9ee9 2a3c cb15 4b3d 52f7 22bd
00000030: 6b36 be3c 09f3 753c c1d5 45bb f1d7 a83d
00000040: 63ef fe3c b53b 05be 2ace 16bd edf9 823d
00000050: 8c20 59bd cae1 b03d 9562 99bd 5b11 f3bc
00000060: 700d 80bd 3896 943d b41d c7ba d19e 84bc
00000070: 7d0a b73c 869c 643d 7990 6dbd d6b6 26bd
00000080: 0b43 ab3d 0ee4 81bd 65b0 6cbd 938a 4ebd
00000090: 1f9f 79bc 317a 4bbd 515e 01bd ef60 75bc
000000a0: 1884 c6ba c9d3 06bd 7db6 37bd 0511 c73d
000000b0: ad6a debd 2ee2 243c 98d5 7b3d 5943 1f3d
000000c0: 4797 253d d080 dbbd e095 733c f21a ca3c
000000d0: 65b1 78bd bd21 16bd c268 3bbd cb27 28bb
000000e0: 6a0e 56bd e53c 80bb 9443 933c cadc 04be
000000f0: e707 333d 0788 003c 8275 023d a42b e53c
00000100: 78d5 eabc db49 d938 03b3 15bd 98cd d4bd
00000110: 69ea 813d 9901 8b3c 84b5 24bc ea6e 6abc
00000120: 2eef e4bc 3258 c13c 87a4 af3d a3b7 08bd
00000130: f4ea 353d 48a8 893d 3065 293d c20a a2bc
00000140: 5327 c33c a922 583d 2593 a23c f9b9 49bd
00000150: 6186 df3c 64d0 203c b7c1 e13c fb73 5c3c
00000160: 0215 05bd 6e81 39bd af7d 34be 58c7 8abd
00000170: 6677 013e d2c6 d93d b677 92bd 0825 063d
00000180: 1f64 f53d b9f4 973d e1e0 fdbd a231 00be
00000190: 06eb 9ebd d26b 5ebc 5d0c 4e3c 2643 2f3d
000001a0: 6a29 3dbd ae8e 773c bee3 12bc 076a 7fbd
000001b0: eb41 9d3d df64 30bd dc00 9cbc 9103 3e3c
000001c0: ee95 e5bb 9272 95bd 14e2 e2bc 4ac5 803c
000001d0: 320d 903c 8fa0 42bb c1c4 043e a8c1 3cbb
000001e0: 4a84 c9bc eb71 1bbe b351 c13d 2fda fbbc
000001f0: dbf8 8abd 5a76 eebb c583 373c 7e49 a03c
00000200: 4eb3 d13a 4c56 013d fbef 0a3c 14ff 08bc
00000210: 8e94 25bd 955f 4c3d 3c8b 0b3e ed6f 043d
00000220: 072f c6bd 0ae5 c0bc 0a0f 3b3d 7322 99bd
00000230: 7f69 cabd f130 203d c728 22ba 8bbf 903c
00000240: d9e0 c03d 1b1b ad3c 01fb b43d 4ffc 6dbd
00000250: 04aa 14bd 5116 f03c 3a89 febc 4bfb 08bd
00000260: 7d59 00bd 22f8 783c a667 96bb ce48 5b3d
00000270: a1cb b03c 4bc0 4dbd 1b56 2fbd a75d 373d
00000280: 9484 023d 1dc4 05bd 3de7 563d 6e77 9dbc
00000290: 6172 7a3c 7e51 eb3c 1126 8bbd 09af 993d
000002a0: 39ee 273b 9e57 14bd 00c5 e1bc a865 853d
000002b0: 96f1 023d 172e d43b 638e 76bd 1a23 603d
000002c0: acf5 723b 961b 133d 9a2c 4a3d cf40 93bc
000002d0: de39 2bbd 1ab4 3cbb 7bc7 7d3c 0ade 653c
000002e0: 37e5 a6bd a61e 44bc 7be8 dcbd 51d6 5e3d
000002f0: 67ab a9bc c143 95bc 1b04 823d 5f5b dd3c
00000300: 5257 cabb ebce 6d3d 3088 b3bd 05b3 323e
00000310: f69b a83c 4913 b7bc 4e27 49bd 0f7a 95ba
00000320: 006b 303d 58df f93c 4b48 cc3c 4868 afbb
00000330: 89c9 39bc 4e1a 15bd 5b1d 13bd 13e4 413d
00000340: 6c55 cebd 7f42 00bd c0ad ef3c a386 1a3d
00000350: e549 093b 7b9f f2ba 12b9 893a 349b b6bd
00000360: 067e 693c 85b6 a6bd 5b34 993d 33d8 81bd
00000370: 03eb a43d 0d06 1fbd 41d8 203c 7483 913b
00000380: 2de9 94bd e193 db3c 69aa ad3d 4041 ea3c
00000390: 7145 ff3b 5597 393d a3d0 37bd 73d1 563c
000003a0: 9a22 4139 2126 62bd f2ba cb3d c408 a6bc
000003b0: f6bc 19bd c483 4f3c 7f69 2bbd 7db6 9ebb
000003c0: 1dd1 1a3d 9f14 6c3c e7b3 6e3d 6b7c 253c
000003d0: cad7 8dbc d6c2 883d e2cc 1abc 1a10 f53c
000003e0: c354 4a3c 863e 96bd 7230 9eba a2d9 823a
000003f0: 6cdf c23c 32a1 c23c f9f6 043d a4be 1dbd

linear.bias f4 [256]
-0.06530477 -0.027281571 -0.35501182 -0.038565792 -0.0149990935 -0.0372485 -0.029226637 -0.35435534
-0.057213396 -0.0085095195 0.0045996257 -0.16472016 -0.0111284945 -0.006066364 -0.0064269616 -0.07065997
-0.16735831 -0.04888595 -0.01225083 -0.039886877 -0.03010576 -0.011589113 -0.04867145 -0.018590821
-0.047134224 -0.19532415 -0.014243811 -0.027251858 -0.025658978 -0.1069589 -0.020315377 -0.13939476
-0.0028788834 0.023271484 -0.07164552 0.012573418 -0.04394735 -0.021088967 -0.024996044 -0.021144297
-0.039574735 -0.038080204 -0.00606431 -0.031506572 -0.018414155 -0.028355585 0.020927439 -0.02085931
0.0015773647 -0.04377289 -0.021481296 0.004390683 -0.097533196 -0.020935306 -0.065454535 -0.010116101
-0.029462513 0.0069413423 0.002483646 -0.005866785 -0.04273762 -0.016576918 0.010074192 -0.03057368
-0.050028626 -0.0006761621 -0.0657922 0.08394775 -0.00011491133 -0.2506166 -0.13894552 0.014172397
0.0071552247 -0.072800756 -0.039426852 -0.11503398 -0.03456232 -0.021878827 -0.032011583 -0.12772398
-0.13820028 -0.022886924 -0.01264074 -0.04110699 -0.0240904 -0.021496551 -0.028124915 -0.034736298
-0.064910896 -0.10638898 -0.006485193 -0.0280603 0.023223577 -0.039806083 0.100738816 -0.054838985
-0.027007239 -0.116967306 -0.037727304 -0.0060112765 -0.0014888524 0.00036974953 -0.045646556 -0.0031672313
-0.27339515 0.0079018725 -0.007037351 -0.060381196 -0.3163745 0.038046777 -0.09550289 -0.01570132
-0.020079743 -0.0389168 -0.024823124 -0.08129192 -0.04401826 -0.122477606 -0.05454269 -0.017356245
-0.058869053 -0.0017955141 -0.043721385 -0.009633399 0.02193676 -0.058274698 -0.035860255 -0.026487589
-0.060106754 -0.014315363 -0.018794738 -0.1288358 -0.01704228 -0.0014610364 0.01755168 -0.041026656
-0.040870152 -0.06869928 -0.0098580755 -0.0077265613 -0.023596976 -0.007898644 -0.018879546 -0.049069833
0.00043731518 -0.017464422 -0.35397184 -0.048849065 -0.052649684 -0.066203825 -0.023036232 0.037503473
-0.03065091 0.01039171 -0.086935654 -0.10728753 -0.035082567 -0.20066318 -0.13725676 -0.13421743
-0.010794872 -0.00071168103 -0.3180461 -0.029402403 -0.009407832 -0.06810266 -0.083224475 -0.048932377
0.045117874 -0.11665921 -0.01441661 -0.01791602 0.03493478 -0.05653656 -0.33904025 -0.024360007
-0.032432284 -0.049952764 -0.062215567 -0.12557012 -0.033661045 -0.021931207 0.0006918253 -0.06623219
-0.0034838596 -0.015410777 -0.00048364408 -0.0021636449 -0.018363072 -0.054726932 -0.097138025 -0.06520604
-0.011770567 -0.009378262 -0.03138392 -0.026164569 -0.021748334 -0.074965954 -0.039375916 -0.019512957
-0.031104015 -0.023100633 -0.036350757 -0.017432885 -0.14311592 -0.0071790386 -0.015047921 -0.03826153
-0.07617948 -0.034412924 0.008501089 -0.15182294 -0.06372101 0.010193118 -0.0034135515 -0.11991356
-0.012642882 -0.02831677 0.008400137 0.006499415 -0.025080957 -0.013842022 -0.04411505 -0.033803422
-0.0041952897 -0.012082198 -0.08619798 -0.29975078 -0.0030938867 -0.017901711 -0.049698766 -0.022411734
-0.015470784 -0.14418976 -0.041406088 0.011489839 0.00013244986 -0.013221542 -0.011564334 -0.0075166933
-0.114763595 0.054219976 0.0036657534 0.044557158 -0.01585022 -0.038061105 -0.11202646 0.009991832
-0.18266617 -0.02433487 -0.096454106 -0.073037945 0.0032448054 0.053410348 -0.42659277 -0.0750346
00000000: 82be 85bd 9a7d dfbc 1cc4 b5be 2af7 1dbd
00000010: c2be 75bc e291 18bd b36c efbc 106e b5be
00000020: 9858 6abd 836b 0bbc 75b8 963b 67ac 28be
00000030: 4a54 36bc 59c8 c6bb 4399 d2bb 2db6 90bd
00000040: fa5f 2bbe a23c 48bd b5b7 48bc 6c60 23bd
00000050: 5ba0 f6bc 43e0 3dbc b75b 47bd c74b 98bc
00000060: d10f 41bd 0e03 48be e05e 69bc 4a3f dfbc
00000070: c732 d2bc 450d dbbd 6f6c a6bc 80bd 0ebe
00000080: a6ab 3cbb d7a3 be3c e3ba 92bd bd00 4e3c
00000090: 2302 34bd c5c2 acbc 81c4 ccbc ce36 adbc
000000a0: 1e19 22bd fdf9 1bbd 1fb7 c6bb 090d 01bd
000000b0: 48d9 96bc f949 e8bc 0570 ab3c 25e1 aabc
000000c0: 94bf ce3a 344b 33bd 8bf9 afbc b8df 8f3b
000000d0: 7cbf c7bd 8580 abbc 070d 86bd 01be 25bc
000000e0: 5e5b f1bc 3374 e33b aac4 223b 293e c0bb
000000f0: a50d 2fbd 51cc 87bc 390e 253c a775 fabc
00000100: d1ea 4cbd 7840 31ba 10be 86bd ccec ab3d
00000110: 8dfc f0b8 d250 80be bc47 0ebe 5733 683c
00000120: 6076 ea3b 9018 95bd 0d7e 21bd ef96 ebbd
00000130: 3891 0dbd 3a3b b3bc 941e 03bd 13ca 02be
00000140: 6084 0dbe 5c7d bbbc 1b1b 4fbc ce5f 28bd
00000150: 3b59 c5bc 8919 b0bc 3966 e6bc a647 0ebd
00000160: 01f0 84bd 77e2 d9bd be81 d4bb b7de e5bc
00000170: 5f3f be3c b40b 23bd 2750 ce3d d89e 60bd
00000180: 493e ddbc 8e8c efbd f287 1abd 3efa c4bb
00000190: 9925 c3ba f1da c139 e2f7 3abd 5391 4fbb
000001a0: 73fa 8bbe db76 013c 9499 e6bb 4652 77bd
000001b0: d7fb a1be f0d6 1b3d 0597 c3bd 0ea0 80bc
000001c0: 467e a4bc 3967 1fbd dd59 cbbc 617c a6bd
000001d0: 7e4c 34bd 8ad5 fabd 2868 5fbd af2e 8ebc
000001e0: ad20 71bd 7557 ebba 3215 33bd 67d5 1dbc
000001f0: b8b4 b33c 73b1 6ebd 34e2 12bd 80fc d8bc
00000200: 8032 76bd fc8a 6abc 6cf7 99bc 88ed 03be
00000210: 409c 8bbc 3f80 bfba 8ac8 8f3c 910b 28bd
00000220: 7667 27bd 35b2 8cbd c483 21bc 182f fdbb
00000230: 724e c1bc 5069 01bc 47a9 9abc 73fd 48bd
00000240: 7347 e539 8c11 8fbc cc3b b5be f515 48bd
00000250: 32a7 57bd df95 87bd 7bb6 bcbc 3e9d 193d
00000260: 9e17 fbbc fe41 2a3c 520b b2bd 91b9 dbbd
00000270: bdb2 0fbd a67a 4dbe 098d 0cbe 4b70 09be
00000280: fadc 30bc 1b90 3aba f0d6 a2be 4fdd f0bc
00000290: 4f23 1abc 6879 8bbd 9871 aabd 516d 48bd
000002a0: 85cd 383d 06eb eebd a533 6cbc 9ec4 92bc
000002b0: c617 0f3d e192 67bd af96 adbe a38e c7bc
000002c0: b7d7 04bd 459b 4cbd c0d5 7ebd 7495 00be
000002d0: 2ae0 09bd 13a9 b3bc 9c5b 353a bea4 87bd
000002e0: 7751 64bb 7c7d 7cbc 9c91 fdb9 f0cb 0dbb
000002f0: 276e 96bc 5929 60bd 4df0 c6bd bf8a 85bd
00000300: 56d9 40bc 48a7 19bc 6d8c 00bd 1457 d6bc
00000310: 9029 b2bc c087 99bd a448 21bd a3d9 9fbc
00000320: d9cd febc 8a3d bdbc 88e4 14bd 69cf 8ebc
00000330: fb8c 12be 243e ebbb 8e8b 76bc 1fb8 1cbd
00000340: fd03 9cbd 91f4 0cbd 2748 0b3c 7977 1bbe
00000350: 2980 82bd 0901 273c e4b5 5fbb 3e95 f5bd
00000360: 1724 4fbc 92f8 e7bc baa0 093c 0bf9 d43b
00000370: 9476 cdbc a6c9 62bc fcb1 34bd 7575 0abd
00000380: a478 89bb 69f4 45bc 9188 b0bd ef78 99be
00000390: cec2 4abb 9ca6 92bc ef90 4bbd d098 b7bc
000003a0: 2c79 7dbc 7ba6 13be 6e99 29bd e13f 3c3c
000003b0: 3de2 0a39 2b9f 58bc 5578 3dbc 984e f6bb
000003c0: 2d09 ebbd c415 5e3d 233d 703b 9181 363d
000003d0: 52d8 81bc f6e5 1bbd 216e e5bd c8b4 233c
000003e0: d70c 3bbe ec59 c7bc bb89 c5bd eb94 95bd
000003f0: cda6 543b cfc4 5a3d 5e6a dabe beab 99bd

critic_linear.weight f4 [1, 256]
-3.558241e-05 -0.08605298 -0.10669852 -0.001654922 -6.1792365e-05 0.0012342458 -0.0015223715 -0.04747207
-0.00040823035 -0.00071839296 0.0014529446 0.06633488 -0.0026741493 0.0018995575 0.00062623847 0.0010109107
0.0052075586 0.0015696001 -0.0010050446 -0.00091646274 4.473829e-05 -0.0011989662 -0.0005493575 -0.0021240918
-0.00314137 0.0046026125 -0.0022945856 -0.0014235359 0.00077784696 0.04141491 0.0014600069 0.01089736
-0.00044371124 0.0006964046 0.016567335 -0.009045894 -0.0012416077 -0.00068915496 -0.0004790784 -0.00019457647
3.3928845e-05 -0.0005895653 -0.0012099205 0.0004794288 0.0010902266 -0.0010635782 0.039841827 -0.0024645107
0.0018964729 -0.00045986302 -0.0009349584 -0.00056791893 -0.003936608 0.00025653315 0.0010691335 0.001037095
-0.0016234034 -0.0012312726 -0.0005837047 -0.0022813124 -0.0013987392 0.00068545685 -0.0006116408 -0.0009533432
-0.0011734506 0.00028061983 -0.00017670322 0.01890048 -2.9672403e-05 -0.013764986 -0.0005726802 -0.0014683274
0.0011925368 0.038164526 -0.0013484933 0.015484159 -0.00012470045 -0.00018075231 0.0038410884 0.028642552
0.0013597717 0.0005887481 -0.0029854798 -0.00173899 0.00012791189 0.0020659252 0.00020329011 5.5115124e-06
0.026843306 0.017498098 0.00023881669 0.0028869598 0.0011243973 8.3127175e-05 0.013294402 0.0023888848
-0.00024213726 0.05697013 -0.0011638099 0.0017503302 0.004216296 0.00063112297 0.001814708 -0.0008761947
-0.012201617 0.00015501642 -0.00020900668 0.023033226 -0.037102282 0.036648344 -0.0004951907 0.0014817928
0.00041513323 0.0011151319 -0.00048693042 0.0042329384 0.0001834586 -0.0012909306 -0.001183494 2.3787463e-05
-4.5895675e-05 0.00028406427 0.00040620225 0.00047514748 -0.001810999 0.0010229814 0.0013142632 -0.0007014096
-0.009088502 -0.00046233597 0.000508994 0.0012543371 0.0136400545 2.3954093e-05 0.05096519 1.90693e-05
0.0021139735 -0.017288709 0.0016460438 -0.00060713844 -0.0015634348 0.00073261815 -0.0030587516 -0.0012518186
-8.127019e-06 0.00056119286 -0.08036314 0.00013675852 0.00019890499 0.0009270766 -0.0007278697 -0.000914021
-0.00036218486 0.0019521788 -0.0019613195 0.006391249 -0.0011839012 -0.008465773 2.3873306e-05 0.008386265
-0.000817866 -0.0005948645 -0.025761263 -0.0011215755 0.00069316756 0.0074884184 -0.0010365815 -0.0008964716
-0.0010088024 0.017006565 -0.0029025592 -0.00041210384 -0.0013238966 0.0008130401 -0.06404194 0.00034108546
0.0017835262 0.028792115 -0.0010444906 0.026781151 0.0016619958 -0.00047450452 -0.00052585074 0.00077392306
0.0008504514 -6.327083e-05 -0.0016955052 0.0027151676 2.2289789e-05 0.0088956375 -0.0077886134 -0.00039411584
0.002360064 -0.00035335362 -0.0008665521 -0.0014092634 -0.00077493 -0.018226493 0.001041233 0.0010127046
0.0001236865 0.003303426 0.0015060946 -0.001750552 0.029481148 -0.001474035 0.00076429744 -0.0012988719
-0.0048009446 -0.00013781006 -0.0012100552 -0.0006131422 0.027241733 -0.0007874378 -0.00025452193 0.00073381717
-0.0031509886 -3.4629684e-05 0.0001690775 0.0038524044 -0.002643873 -0.003181533 -0.0023658737 0.001578112
-0.00029186817 -0.0007144759 0.0024288886 -0.025937947 -0.0011489555 8.679578e-05 0.00063727284 0.0009693768
-0.00043729364 0.00033187625 -0.0003262756 -0.0011432962 0.000101673155 0.00049723807 -0.00023448232 0.0010982545
-0.0073238118 0.03012659 0.000483001 0.014980156 -0.00061168283 0.0009276844 0.0016303547 0.0001208983
-0.015535513 -0.0007464566 0.0013862487 -0.0014662306 -0.0011369007 0.018416854 -0.09368949 -0.0021660654
00000000: 523e 15b8 8b3c b0bd c184 dabd f8e9 d8ba
00000010: 8696 81b8 6bc6 a13a 508a c7ba 1372 42bd
00000020: c007 d6b9 8952 3cba bb70 be3a 95da 873d
00000030: c840 2fbb 93fa f83a 272a 243a 8980 843a
00000040: 2ba4 aa3b 0abb cd3a b3bb 83ba c63e 70ba
00000050: 60a5 3b38 a126 9dba c202 10ba 5934 0bbb
00000060: 71df 4dbb 83d1 963b c260 16bb f095 baba
00000070: 6de8 4b3a aea2 293d b45d bf3a d78a 323c
00000080: eaa1 e8b9 ec8e 363a 38b8 873c 3b35 14bc
00000090: 71bd a2ba 68a8 34ba d02c fbb9 3907 4cb9
000000a0: d24e 0e38 0f8d 1aba 3296 9eba d85b fb39
000000b0: efe5 8e3a c367 8bba 2f31 233d a183 21bb
000000c0: 1293 f83a c519 f1b9 ff17 75ba 65e0 14ba
000000d0: a9fe 80bb 4c7f 8639 2b22 8c3a 22ef 873a
000000e0: 61c8 d4ba a762 a1ba c203 19ba 1282 15bb
000000f0: e655 b7ba 3bb0 333a 8556 20ba c7e9 79ba
00000100: 78ce 99ba 2820 9339 6949 39b9 2ed5 9a3c
00000110: 00e9 f8b7 8986 61bc eb1f 16ba e474 c0ba
00000120: e54e 9c3a 6852 1c3d edbf b0ba 45b1 7d3c
00000130: 06c2 02b9 5488 3db9 c5ba 7b3b c9a3 ea3c
00000140: 5e3a b23a 3756 1a3a 0aa8 43bb d2ee e3ba
00000150: 1620 0639 7964 073b 462a 5539 88ef b836
00000160: 7ee6 db3c 2c58 8f3c de6a 7a39 2633 3d3b
00000170: 8360 933a 9054 ae38 c3d0 593c d68e 1c3b
00000180: 3ae6 7db9 8359 693d fb8a 98ba 566b e53a
00000190: db28 8a3b f271 253a 7fdb ed3a 6eb0 65ba
000001a0: 4ae9 47bc e78b 2239 ce28 5bb9 2db0 bc3c
000001b0: 90f8 17bd 931c 163d afcf 01ba b738 c23a
000001c0: 3da6 d939 9e29 923a b24a ffb9 76b4 8a3b
000001d0: cb5e 4039 7134 a9ba 781f 9bba 308b c737
000001e0: 1b80 40b8 76ee 9439 8bf7 d439 371d f939
000001f0: 0b5f edba 8f15 863a 5b43 ac3a cdde 37ba
00000200: f1e7 14bc af65 f2b9 026e 053a 9268 a43a
00000210: 897a 5f3c 06f1 c837 e0c0 503d 03f7 9f37
00000220: 978a 0a3b 0da1 8dbc 11c0 d73a 5f28 1fba
00000230: 2bec ccba 2c0d 403a 5675 48bb 1014 a4ba
00000240: 4859 08b7 041d 133a 6e95 a4bd d666 0f39
00000250: 2791 5039 0f07 733a 82ce 3eba e99a 6fba
00000260: a1e3 bdb9 40e0 ff3a 7b89 00bb af6d d13b
00000270: 222d 9bba 07b4 0abc 8943 c837 8b66 093c
00000280: 0f66 56ba aef0 1bba 4909 d3bc d401 93ba
00000290: b0b5 353a 6861 f53b e7dd 87ba 3101 6bba
000002a0: cb39 84ba 5a51 8b3c dd38 3ebb a40f d8b9
000002b0: 9986 adba 3322 553a 6c28 83bd b7d3 b239
000002c0: 35c5 e93a 71dd eb3c 4ae7 88ba 2564 db3c
000002d0: 53d7 d93a ebc6 f8b9 3fd9 09ba 19e1 4a3a
000002e0: d4f0 5e3a 45b0 84b8 b73b deba f4f0 313b
000002f0: f5fa ba37 02bf 113c a037 ffbb 55a1 ceb9
00000300: 4eab 1a3b 5242 b9b9 5429 63ba 08b7 b8ba
00000310: ac24 4bba ba4f 95bc fb79 883a babc 843a
00000320: d8b1 0139 4b7e 583b 2668 c53a c772 e5ba
00000330: 7382 f13c 6834 c1ba 225b 483a e93e aaba
00000340: 3e51 9dbb 1b81 10b9 b79a 9eba 47bb 20ba
00000350: 0e2a df3c 0e6c 4eba 5b71 85b9 a35d 403a
00000360: d180 4ebb 573f 11b8 654a 3139 9f78 7c3b
00000370: d444 2dbb 4481 50bb c60c 1bbb a7d8 ce3a
00000380: e205 99b9 aa4b 3bba fd2d 1f3b d17b d4bc
00000390: 8d98 96ba 2106 b638 a80e 273a c71d 7e3a
000003a0: 8f44 e5b9 adff ad39 f80f abb9 a8da 95ba
000003b0: 5c39 d538 1559 023a 5edf 75b9 4ef3 8f3a
000003c0: 96fc efbb 0acc f63c 4c3b fd39 546f 753c
000003d0: 5759 20ba d92f 733a a0b1 d53a c88a fd38
000003e0: aa88 7ebc dbad 43ba cab2 b53a 892e c0ba
000003f0: 0f04 95ba f1de 963c 46e0 bfbd 8cf4 0dbb
