21-A3C-Pong/runs/BreakoutNoFrameskip-v4/2022-11-03_16-23_Second80MSteps_OK/model_sam_BreakoutDeterministic-v4_conv.34.tar (torch, 944955 bytes, 13 tensors)

conv1.weight f4 [32, 4, 3, 3]
0.20103537 -0.45687503 -0.14605676 0.13288645 -0.19552441 0.31490797 0.05260622 0.2175403
0.26350388 0.05701383 -0.03528779 -0.053897753 0.16565548 -0.10623702 0.05233739 0.023919681
0.118015796 0.2611743 0.13437688 0.134939 0.1245785 -0.2668097 -0.023198253 0.15024209
-0.04596462 -0.14035207 0.0739798 -0.00017183015 -0.23959608 0.18142883 -0.24702711 -0.099229395
0.20667562 -0.26537582 -0.457274 -0.15157475 0.2260166 -0.026006792 -0.07504585 -0.0146591505
0.46616936 -0.2982662 0.35106555 0.3629977 -0.40113923 0.1174128 0.079663396 -0.07387976
-0.02118409 0.40898234 -0.3549217 0.022186754 0.4429447 -0.24027656 0.12354298 0.15831305
-0.10320821 -0.2099603 0.44250745 -0.04478444 -0.19469704 0.3289036 -0.033224314 0.035162
-0.2165442 -0.117628485 -0.29063353 -0.032764416 -0.24364075 -0.2829496 -0.08855247 -0.16122264
0.10797244 0.06205087 -0.043280076 0.106068954 0.022385985 -0.11440373 -0.09298143 0.19279303
-0.09575564 0.14755744 0.029157862 -0.2012035 0.40990728 -0.22478788 -0.5456853 0.123753734
-0.050466273 -0.005267432 0.24803557 -0.2189237 -0.12815031 0.46514133 -0.23696673 -0.48194376
0.13807105 0.08915296 -0.22270799 0.13937803 0.12111198 -0.19327559 0.30563435 0.14159119
-0.26471615 -0.083340816 0.26241016 -0.06633067 0.3502293 0.14218472 0.19389819 0.28454393
0.5077398 0.026802143 0.13954394 0.38759 0.15771975 0.085179985 -0.19944504 -0.03733376
-0.09164178 0.21026993 0.2866543 -0.07889169 0.20299101 0.01485009 -0.29534814 -0.35431516
0.12154806 -0.07780441 -0.27477825 -0.052625697 0.049715593 0.03877784 0.022119777 0.021492219
-0.13496381 0.027273314 -0.34815824 -0.44725117 -0.25517845 -0.17069687 -0.37403235 -0.1605479
0.07463679 -0.11455059 -0.017272627 0.11477577 0.3827925 0.22993317 -0.053533975 0.2216446
0.14132917 -0.056545135 -0.5566687 -0.31394023 -0.36977324 -0.3601385 -0.29564658 -0.1424253
-0.24676713 0.008585324 0.15012065 0.18137348 -0.019944187 -0.18211587 -0.26801026 -0.11855924
-0.119726636 -0.27149552 -0.07537926 0.21740979 0.344048 0.12108274 0.1413724 0.50355303
0.27553838 0.16484486 0.0062332023 0.2462261 -0.052075062 -0.1864235 -0.20686203 -0.36344576
-0.32503116 0.07786273 -0.45459133 -0.32173204 -0.02575726 0.057790037 0.08708565 -0.07066059
-0.07048591 0.12903525 0.15269502 -0.23465253 -0.037123304 0.08076979 0.2951074 -0.1409443
-0.06200425 0.036895853 0.33735824 0.06592803 0.2030169 0.07700519 -0.020758074 0.1057785
0.097529806 0.006877581 0.0030823587 0.18081841 -0.12805586 0.20395775 0.31960097 0.24543951
0.18156093 0.006115908 0.007896522 0.21515799 -0.032389555 -0.0281739 -0.13943207 -0.01838377
-0.0493155 0.019111337 0.32185587 0.20816539 0.418957 0.66777855 -0.013952465 -0.13248017
0.28436106 -0.1332025 -0.23689006 -0.026050806 -0.23580435 0.21929644 0.39155585 -0.39583972
-0.14735122 0.20037235 -0.025774581 -0.23353319 -0.25729868 -0.12479518 -0.3678034 -0.38227522
-0.3468793 0.10084556 0.085938744 -0.047712307 0.13714334 0.13032945 0.25407338 -0.022172043
00000000: 37dc 4d3e 86eb e9be e78f 15be 6313 083e
00000010: 8d37 48be 9e3b a13e 9f79 573d e2c2 5e3e
00000020: fbe9 863e 5587 693d ee89 10bd e4c3 5cbd
00000030: 97a1 293e cb92 d9bd bb5f 563d 35f3 c33c
00000040: 44b2 f13d a3b8 853e 189a 093e 732d 0a3e
00000050: 0323 ff3d 489b 88be 430a bebc 10d9 193e
00000060: 6645 3cbd 74b8 0fbe b982 973d 4e2d 34b9
00000070: ad58 75be 7bc8 393e adf4 7cbe c838 cbbd
00000080: c6a2 533e 57df 87be d11f eabe 6936 1bbe
00000090: e570 673e 320c d5bc a3b1 99bd ef2c 70bc
000000a0: c0ad ee3e 59b6 98be ddbe b33e d6da b93e
000000b0: 1f62 cdbe 1f76 f03d 9026 a33d 464e 97bd
000000c0: 428a adbc 2266 d13e 4cb8 b5be ffc0 b53c
000000d0: a6c9 e23e 0f0b 76be 1a04 fd3d d11c 223e
000000e0: d35e d3bd d5ff 56be 5690 e23e e46f 37bd
000000f0: a95e 47be 0d66 a83e 3816 08bd 0806 103d
00000100: c3bd 5dbe 34e7 f0bd ebcd 94be fb33 06bd
00000110: f67c 79be c5de 90be ff5a b5bd 8c17 25be
00000120: a820 dd3d 0e29 7e3d 7346 31bd ae3a d93d
00000130: d062 b73c 814c eabd 0c6d bebd 896b 453e
00000140: 881b c4bd 4c19 173e 78dc ee3c 4a08 4ebe
00000150: 5edf d13e cb2e 66be 08b2 0bbf 9972 fd3d
00000160: b9b5 4ebd 6c9a acbb 09fd 7d3e 892d 60be
00000170: d639 03be 0127 ee3e 68a7 72be 55c1 f6be
00000180: 7f62 0d3e d495 b63d 900d 64be 1db9 0e3e
00000190: 8f09 f83d 09ea 45be 1b7c 9c3e 48fd 103e
000001a0: e088 87be 97ae aabd a05a 863e 60d8 87bd
000001b0: 4151 b33e df98 113e 3f8d 463e beaf 913e
000001c0: 3cfb 013f 2b90 db3c 9be4 0e3e 3272 c63e
000001d0: 4981 213e d872 ae3d 523b 4cbe 49eb 18bd
000001e0: b0ae bbbd 0051 573e 5ac4 923e f791 a1bd
000001f0: e0dc 4f3e cb4d 733c df37 97be cc68 b5be
00000200: 30ee f83d eb57 9fbd bcaf 8cbe 0b8e 57bd
00000210: 94a2 4b3d 83d5 1e3d 8934 b53c 7310 b03c
00000220: f433 0abe 496c df3c cc41 b2be 1bfe e4be
00000230: c0a6 82be 29cb 2ebe 2b81 bfbe ab66 24be
00000240: 2cdb 983d 8099 eabd 537f 8dbc 8f0f eb3d
00000250: 61fd c33e 9a73 6b3e 7146 5bbd cdf6 623e
00000260: 98b8 103e df9b 67bd d781 0ebf c6bc a0be
00000270: eb52 bdbe 1364 b8be fd5e 97be f0d7 11be
00000280: 86b0 7cbe 75a9 0c3c 3ab9 193e f8b9 393e
00000290: fe61 a3bc 957c 3abe a438 89be 30cf f2bd
000002a0: 3d33 f5bd 7601 8bbe 7160 9abd aca0 5e3e
000002b0: 0f27 b03e 3afa f73d edc3 103e dae8 003f
000002c0: 5e13 8d3e 17cd 283e e43f cc3b b222 7c3e
000002d0: a94c 55bd cde5 3ebe a4d3 53be 9015 babe
000002e0: 7c6a a6be 7f76 9f3d 32c0 e8be 10ba a4be
000002f0: e400 d3bc 3fb5 6c3d f659 b23d 80b6 90bd
00000300: eb5a 90bd d121 043e 155c 1c3e c148 70be
00000310: 9b0e 18bd a26a a53d 5118 973e b453 10be
00000320: 2bf8 7dbd 1b20 173d 38ba ac3e 4605 873d
00000330: aae3 4f3e e6b4 9d3d d60c aabc 66a2 d83d
00000340: b5bd c73d 555d e13b 6601 4a3b 7628 393e
00000350: 1321 03be 4dda 503e bda2 a33e 7f54 7b3e
00000360: 1ceb 393e f467 c83b 6a60 013c 6052 5c3e
00000370: e9aa 04bd f3cc e6bc 48c7 0ebe 8f99 96bc
00000380: 0dff 49bd 618f 9c3c 4bca a43e 4f29 553e
00000390: 8881 d63e 89f3 2a3f e198 64bc e2a8 07be
000003a0: c697 913e 3c66 08be 4f93 72be 8068 d5bc
000003b0: b276 71be 3f8f 603e 027a c83e 81ab cabe
000003c0: 3de3 16be 692e 4d3e 3725 d3bc 5323 6fbe
000003d0: a7bc 83be 9e94 ffbd ba50 bcbe 94b9 c3be
000003e0: 2a9a b1be 1e88 ce3d a700 b03d fb6d 43bd
000003f0: 4e6f 0c3e 1575 053e e815 823e 25a2 b5bc

conv1.bias f4 [32]
-0.008146124 0.00073717366 -0.014822545 -0.019164408 -0.0048965896 0.00043787342 0.0053386176 -0.0038898545
0.0017876368 -0.013536839 -0.0021189202 0.0020592036 -0.00096547196 -0.012856196 -0.004324924 -0.03602491
0.0015156665 0.001545449 0.003610995 -0.0033498209 -0.002247444 0.0031284587 0.00028413878 -0.0010505404
-0.0027758526 0.0032614758 -0.006420615 -0.0026029672 -0.0021843314 -0.006575032 0.0005380772 -0.009032242
00000000: 5277 05bc e33e 413a 43da 72bc adfe 9cbc
00000010: 9273 a0bb 6092 e539 92ef ae3b eeec 7ebb
00000020: 234f ea3a 9ec9 5dbc 95dd 0abb b4f3 063b
00000030: ba17 7dba cba2 52bc 18b8 8dbb db8e 13bd
00000040: 54a9 c63a aa90 ca3a 71a6 6c3b ab88 5bbb
00000050: da49 13bb d406 4d3b 76f8 9439 49b2 89ba
00000060: 14eb 35bb 7cbe 553b 0664 d2bb 8b96 2abb
00000070: 0027 0fbb 5e73 d7bb c00d 0d3a f8fb 13bc

conv2.weight f4 [32, 32, 3, 3]
0.24141744 0.07053346 0.092501104 -0.13820125 0.15848565 0.15167508 -0.044072755 -0.038442947
-0.20133981 0.18798564 -0.34993 0.18030535 0.24468692 -0.32074448 0.2285434 -0.06479593
0.072584234 -0.065412275 -0.023063648 -0.026995836 -0.14463116 0.08251329 -0.030674053 -0.39730695
-0.12983926 -0.020296177 0.33269736 0.08130627 -0.15036096 0.1830036 0.1706043 0.08495589
0.25636443 0.048011005 0.1464839 -0.2535806 -0.121115044 0.05259648 -0.12682155 -0.04101029
-0.05692494 -0.11734058 0.09999326 0.03266113 -0.06174242 -0.34245285 0.112421915 -0.08926676
0.02679119 0.0025364307 0.16129583 0.0053677983 0.03960205 -0.24520689 0.07898789 -0.2100642
0.082905926 0.23430131 -0.121361576 0.30597195 -0.14202107 -0.028057542 -0.109792225 0.019081442
0.23045975 0.21903154 -0.17434463 0.24682668 0.19733244 -0.07138115 0.1045819 -0.18500447
0.072476506 0.08308605 0.08452116 -0.1688907 -0.10877591 0.34779024 0.03181238 -0.07453534
0.06058335 -0.072068326 0.0484616 -0.28178018 -0.25501752 -0.19950359 -0.45009378 -0.035536613
0.0011703476 0.4253955 -0.19991691 -0.11157045 0.030690541 -0.09647993 0.12401212 -0.078104205
-0.053907704 0.18043236 -0.17482367 0.04773974 0.061126605 0.0342077 0.051378686 0.012998094
-0.38047698 -0.12996598 0.14323029 -0.07177212 0.13416967 -0.12326775 0.10656568 -0.103643164
-0.08742679 0.2616766 -0.018362887 -0.051197454 0.07255761 0.32248312 0.18569672 0.33666447
-0.0905418 -0.19709875 0.31023717 0.018939303 -0.24739075 -0.029729083 0.08414898 -0.05082473
-0.26363695 -0.010192171 -0.03883415 -0.21559305 -0.10899482 0.035643436 0.046017185 0.10534758
-0.053149175 0.038339574 0.08730384 0.0389887 -0.12532566 0.12634099 -0.025578793 -0.05322727
-0.2161874 -0.1479767 0.043972425 0.054491043 -0.22469257 0.18000029 0.07812286 0.15574507
-0.06526829 0.1552651 0.05616903 0.17769061 -0.06586074 0.0050180713 0.14826906 0.002569626
-0.25944096 0.08006477 0.16978003 -0.017650202 -0.039770316 0.10001897 -0.20923878 -0.12178629
-0.24996501 -0.016032476 -0.055311423 -0.04721302 -0.04489733 -0.24164246 0.014250406 0.043172378
-0.35249662 -0.05265774 0.039740603 0.2590657 0.0038417815 -0.01128387 0.22139445 -0.09877847
0.10646029 0.5625051 -0.04869432 0.073693454 -0.29395518 0.25122878 0.08594374 -0.0040695765
0.13637382 0.08726589 -0.1443374 -0.15453674 -0.05439185 0.10083073 -0.04124405 0.029207703
-0.05732804 -0.17712317 0.26497492 0.1411594 -0.041403454 0.0685109 0.04681503 -0.024136687
-0.13463035 0.121741116 -0.20854676 0.3823817 -0.42044112 -0.045497738 -0.064587556 0.30024523
-0.13075547 0.08545739 -0.04018181 -0.111976795 0.02600039 0.13268395 0.09992056 -0.07859656
-0.021765424 0.11200473 0.4470434 -0.09094074 -0.29927045 0.1807574 -0.18897282 -0.006827901
0.0022461931 -0.15227272 -0.03879744 -0.015710065 -0.09944461 -0.2638187 0.1960272 0.20803574
0.021310449 0.1580704 -0.18658152 -0.008431817 0.08405451 -0.19618598 -0.085532084 0.3050558
0.31663343 -0.07326127 0.102016754 -0.21022114 0.054224387 -0.12085047 0.101070136 0.033845134
00000000: 2236 773e d973 903d 3871 bd3d a184 0dbe
00000010: 104a 223e b650 1b3e a285 34bd 5a76 1dbd
00000020: 062c 4ebe 4f7f 403e 062a b3be f7a1 383e
00000030: 358f 7a3e 9f38 a4be 4807 6a3e bbb3 84bd
00000040: 0ba7 943d dff6 85bd faef bcbc 5f26 ddbc
00000050: 311a 14be bafc a83d 2748 fbbc d16b cbbe
00000060: 95f4 04be 2b44 a6bc 4f57 aa3e e783 a63d
00000070: 39f8 19be 4c65 3b3e e5b2 2e3e 5bfd ad3d
00000080: 3342 833e 30a7 443d e0ff 153e 51d5 81be
00000090: 2a0b f8bd 686f 573d 82dd 01be 68fa 27bd
000000a0: 202a 69bd 4250 f0bd 44c9 cc3d adc7 053d
000000b0: 9fe5 7cbd fb55 afbe 763d e63d 7ed1 b6bd
000000c0: 3379 db3c 3f3a 263b bc2a 253e 5be4 af3b
000000d0: c235 223d 8417 7bbe 67c4 a13d 121b 57be
000000e0: 95ca a93d afec 6f3e 6b8c f8bd 5ba8 9c3e
000000f0: f96d 11be eed8 e5bc bfda e0bd af50 9c3c
00000100: a4fd 6b3e ce49 603e 6687 32be 22c0 7c3e
00000110: 8411 4a3e 4830 92bd 092f d63d d071 3dbe
00000120: 906e 943d 0529 aa3d 6e19 ad3d aff1 2cbe
00000130: e8c5 debd 9011 b23e b34d 023d fca5 98bd
00000140: 3f26 783d 8f98 93bd ac7f 463d 7e45 90be
00000150: a891 82be ab4a 4cbe b172 e6be d78e 11bd
00000160: 5966 993a 70cd d93e 05b7 4cbe 0c7f e4bd
00000170: bb6a fb3c 4597 c5bd 11fa fd3d 19f5 9fbd
00000180: 53ce 5cbd 43c3 383e fa04 33be bf8a 433d
00000190: e45f 7a3d 601d 0c3d 7572 523d f5f5 543c
000001a0: e1cd c2be cd15 05be f6aa 123e 43fd 92bd
000001b0: c663 093e cd73 fcbd 1b3f da3d de42 d4bd
000001c0: d10c b3bd 7afa 853e c46d 96bc 6cb4 51bd
000001d0: 1699 943d 821c a53e 4827 3e3e 495f ac3e
000001e0: fb6d b9bd 41d4 49be 68d7 9e3e 9926 9b3c
000001f0: 0054 7dbe 688a f3bc 4d56 ac3d 982d 50bd
00000200: 6cfb 86be 10fd 26bc 8f10 1fbd 6dc4 5cbe
00000210: ad38 dfbd dafe 113d 847c 3c3d 79c0 d73d
00000220: f3b2 59bd f509 1d3d 5bcc b23d 9db2 1f3d
00000230: 5f55 00be 885f 013e 9e8a d1bc d604 5abd
00000240: 3b60 5dbe 3487 17be 6e1c 343d 0032 5f3d
00000250: cf15 66be ff51 383e e1fe 9f3d a37b 1f3e
00000260: 62ab 85bd d0fd 1e3e 7f11 663d 87f4 353e
00000270: ffe1 86bd a26e a43b d8d3 173e 2c67 283b
00000280: 72d5 84be 00f9 a33d d1da 2d3e 2897 90bc
00000290: 33e6 22bd bfd6 cc3d b142 56be 176b f9bd
000002a0: d4f6 7fbe 8a56 83bc 3b8e 62bd 7162 41bd
000002b0: 43e6 37bd 1f71 77be 897a 693c 85d5 303d
000002c0: 707a b4be a4af 57bd 0bc7 223d 42a4 843e
000002d0: 66c6 7b3b fbdf 38bc 3ab5 623e 5e4c cabd
000002e0: da07 da3d 5600 103f b273 47bd 98ec 963d
000002f0: 4b81 96be 0fa1 803e 4603 b03d 155a 85bb
00000300: 94a5 0b3e 75b8 b23d 2fcd 13be e13e 1ebe
00000310: fdc9 5ebd 5780 ce3d 85ef 28bd fe44 ef3c
00000320: cfd0 6abd c75f 35be cbaa 873e 178c 103e
00000330: ab96 29bd 714f 8c3d 1ec1 3f3d 4dba c5bc
00000340: 8adc 09be 6853 f93d 488d 55be 89c7 c33e
00000350: 0f44 d7be d65b 3abd 7b46 84bd beb9 993e
00000360: c3e4 05be 4904 af3d ae95 24bd 1754 e5bd
00000370: c5fe d43c 4dde 073e 27a3 cc3d 3cf7 a0bd
00000380: 674d b2bc bc62 e53d dfe2 e43e 243f babd
00000390: fa39 99be 7818 393e 1782 41be 96bc dfbb
000003a0: de34 133b 61ed 1bbe 10ea 1ebd 65b2 80bc
000003b0: 9ea9 cbbd 3f13 87be 5bbb 483e 5207 553e
000003c0: 4093 ae3c 35dd 213e 3a0f 3fbe 9b25 0abc
000003d0: c524 ac3d fae4 48be 722b afbd 4630 9c3e
000003e0: c71d a23e 010a 96bd 29ee d03d 3644 57be
000003f0: 641a 5e3d 7480 f7bd dcfd ce3d 32a1 0a3d

conv2.bias f4 [32]
-0.011386404 -0.16118528 -0.042456117 -0.028429203 -0.01991755 -0.02564912 0.011017265 -0.020499548
-0.021294296 -0.21450177 -0.04679507 -0.008994332 -0.059277225 -0.038209647 -0.045603283 -0.041230142
-0.028670039 -0.0031792575 -0.03132899 -0.117522016 -0.26038635 -0.00023335175 -0.062100425 -0.06592329
-0.13331074 0.01058296 -0.00093304884 -0.0297763 -0.06596072 -0.020028412 -0.06401462 -0.21264987
00000000: 0a8e 3abc c10d 25be 77e6 2dbd 5ce4 e8bc
00000010: 212a a3bc 1a1e d2bc c281 343c abee a7bc
00000020: 6071 aebc 5aa6 5bbe 30ac 3fbd f65c 13bc
00000030: adcc 72bd b881 1cbd 82ca 3abd f0e0 28bd
00000040: 6edd eabc 175b 50bb d452 00bd 62af f0bd
00000050: 5c51 85be e2af 74b9 045d 7ebd ca02 87bd
00000060: 9c82 08be 2764 2d3c d997 74ba 6ded f3bc
00000070: 6a16 87bd a012 a4bc 191a 83bd e3c0 59be

conv3.weight f4 [32, 32, 3, 3]
-0.07487041 -0.08128226 -0.17851993 -0.06933355 -0.020890744 0.054526266 -0.036757264 0.16645107
-0.03173436 -0.014931389 0.12569292 0.12805817 -0.1132078 -0.18505043 -0.3306403 -0.08819381
-0.08039157 -0.040771633 -0.030840158 0.062520996 0.05426735 0.053535342 -0.08874208 -0.20311633
0.038912136 -0.0327307 0.09225627 0.03204098 -0.009130485 0.01482514 -0.048208255 0.07276161
-0.21260841 0.06570512 -0.100066826 0.14424847 0.075863846 -0.06212147 0.08381934 -0.0035590937
-0.098267116 -0.09621845 -0.031784553 0.14892998 0.15586498 0.017592348 0.04591265 0.24355194
0.11570615 0.002901907 -0.07461589 0.039874103 -0.030262543 0.13576165 0.10731202 0.17054749
0.001776147 -0.11499299 0.19030195 0.19171746 0.09597329 -0.16596068 0.13188371 0.061470482
-0.023184502 0.054219656 0.056452498 -0.048066445 0.18636344 -0.069029175 0.34225255 -0.16868371
0.011173446 0.1707912 -0.004863105 -0.07579683 0.17635809 0.21779937 -0.23764016 0.06251297
-0.08619366 -0.102501586 0.07399004 0.02494411 0.03249886 0.034399256 0.03109394 0.17474382
-0.090774454 0.29095528 -0.101964004 0.0025862458 0.031597182 0.07912843 -0.04089707 -0.019687302
-0.06441812 -0.09305816 -0.013041332 0.106993236 0.104299255 0.17859666 -0.027321896 0.0852363
-0.035776068 -0.14726937 0.027306853 -0.022968067 -0.067170806 0.103941575 0.11611778 0.10664057
0.031318575 0.30011877 -0.08289818 0.007303666 -0.056857366 -0.060464583 -0.005706473 -0.0022173699
0.20978943 -0.12136514 0.15648861 0.0284178 0.022116205 -0.05183882 -0.16212001 -0.09857767
0.028904378 0.04876205 0.13357995 -0.16412564 0.107549876 -0.24077518 0.13451189 -0.01742093
0.05581971 -0.065244876 0.047346618 -0.30936655 0.06463905 0.016227547 -0.1703143 -0.06499211
-0.075494744 0.20388106 0.07054467 -0.19948055 0.09241692 0.26487225 -0.0768276 -0.095807895
-0.24174619 -0.08529878 -0.18319684 -0.017318018 0.13483916 -0.17475368 0.088707246 -0.06766185
0.27782014 -0.022311881 -0.0333104 -0.0045192875 -0.21976432 -0.019907434 -0.057792097 0.10466043
-0.12778862 0.053169888 0.055455744 0.07118199 0.08557907 0.0929984 -0.16452585 0.08122116
-0.05541457 0.08024588 -0.28864378 -0.100972824 -0.10066339 -0.13720958 -0.19242056 -0.0395643
0.14856589 0.18329643 0.004945466 0.05185802 0.062014814 -0.048664346 0.13068749 0.13753456
-0.061219472 -0.35970482 0.01828732 0.083018094 0.18363865 -0.1454745 0.07766944 -0.047245167
-0.050706416 -0.027893819 0.18730944 0.14222501 -0.18092552 0.09811577 -0.116155244 -0.072648086
0.053103298 0.056860235 0.11868871 -0.09945971 0.22215231 -0.0020702737 0.12193241 0.07292618
0.12723312 0.01850513 0.11038935 -0.1091568 -0.013810296 -0.01190557 -0.14965335 -0.09281966
-0.15867898 -0.088370614 0.13320471 -0.08786961 -0.013694431 -0.26514107 0.25244924 -0.15338878
0.33948678 -0.31349152 0.037553262 0.14356427 0.09580768 0.23975153 -0.08108072 -0.017492933
-0.09444894 0.120139234 -0.26299793 0.10616182 0.30267414 0.14132135 -0.09021475 -0.077292204
0.13069266 -0.025222624 -0.21480125 -0.027027866 0.12262168 0.23903112 0.16614679 -0.097012624
00000000: a855 99bd 5077 a6bd eecd 36be c0fe 8dbd
00000010: 1123 abbc ef56 5f3d c98e 16bd 2672 2a3e
00000020: e3fb 01bd c9a2 74bc a5b5 003e ae21 033e
00000030: 7ed9 e7bd dc7d 3dbe af49 a9be f59e b4bd
00000040: 56a4 a4bd 2800 27bd 80a4 fcbc 020b 803d
00000050: 7147 5e3d e047 5b3d 68be b5bd bafd 4fbe
00000060: 5562 1f3d a010 06bd dbf0 bc3d 673d 033d
00000070: 0898 15bc 25e5 723c 0576 45bd 0a04 953d
00000080: 05b6 59be 6890 863d d6ef ccbd dfb5 133e
00000090: 815e 9b3d 1573 7ebd 79a9 ab3d af3f 69bb
000000a0: 4540 c9bd 2e0e c5bd 8530 02bd 1a81 183e
000000b0: 129b 1f3e d41d 903c e70e 3c3d ae65 793e
000000c0: 59f7 ec3d ec2d 3e3b 37d0 98bd 0753 233d
000000d0: 27e9 f7bc 1a05 0b3e 68c6 db3d 00a4 2e3e
000000e0: 9bcd e83a 7281 ebbd 84de 423e 9551 443e
000000f0: a58d c43d 99f1 29be 860c 073e 79c8 7b3d
00000100: 6ded bdbc 6e15 5e3d bc3a 673d 52e1 44bd
00000110: 0fd6 3e3e 2b5f 8dbd ba3b af3e 6cbb 2cbe
00000120: d410 373c e3e3 2e3e ae5a 9fbb 5e3b 9bbd
00000130: 3797 343e cc06 5f3e f157 73be cd06 803d
00000140: 4d86 b0bd 5aec d1bd 1788 973d 9757 cc3c
00000150: 861d 053d 3ce6 0c3d b8b8 fe3c 0bf0 323e
00000160: f5e7 b9bd 17f8 943e 81d2 d0bd 017e 293b
00000170: 0c6c 013d 160e a23d b083 27bd 4447 a1bc
00000180: a6ed 83bd 4795 bebd 50ab 55bc 451f db3d
00000190: d99a d53d 0be2 363e 2bd2 dfbc 5f90 ae3d
000001a0: ed89 12bd c8cd 16be 9fb2 df3c 8727 bcbc
000001b0: d990 89bd 52df d43d 29cf ed3d 5f66 da3d
000001c0: e847 003d 2ba9 993e 85c6 a9bd 9753 ef3b
000001d0: 45e3 68bd b6a9 77bd 5dfd babb 4b51 11bb
000001e0: 0ad3 563e 498e f8bd 8d3e 203e 72cc e83c
000001f0: 0b2d b53c f154 54bd ca02 26be 17e3 c9bd
00000200: e0c8 ec3c b7ba 473d 2fc9 083e 8d10 28be
00000210: 1c43 dc3d c58d 76be 7cbd 093e 57b6 8ebc
00000220: 35a3 643d 1b9f 85bd 87ee 413d 4b65 9ebe
00000230: 7a61 843d a2ef 843c df66 2ebe 951a 85bd
00000240: fd9c 9abd 32c6 503e b979 903d a144 4cbe
00000250: 1545 bd3d 569d 873e ca57 9dbd ee36 c4bd
00000260: 508c 77be 20b1 aebd f497 3bbe 84de 8dbc
00000270: 4713 0a3e a1f2 32be 25ac b53d 4c92 8abd
00000280: 713e 8e3e 68c7 b6bc 7c70 08bd 8816 94bb
00000290: e609 61be ea14 a3bc 68b7 6cbd 3558 d63d
000002a0: 05db 02be abc8 593d 9025 633d ddc7 913d
000002b0: 1444 af3d f275 be3d 7779 28be 4857 a63d
000002c0: 63fa 62bd f457 a43d 1ec9 93be d7ca cebd
000002d0: 9b28 cebd ab80 0cbe e509 45be 2d0e 22bd
000002e0: a821 183e 0fb2 3b3e 930d a23b 1369 543d
000002f0: 3f03 7e3d 4454 47bd f1d2 053e dcd5 0c3e
00000300: 45c1 7abd 3b2b b8be 4acf 953c 6405 aa3d
00000310: c50b 3c3e 44f7 14be 2811 9f3d 2684 41bd
00000320: 88b1 4fbd 9481 e4bc 0cce 3f3e 6fa3 113e
00000330: 8a44 39be ecf0 c83d cde2 edbd 85c8 94bd
00000340: d882 593d 47e6 683d 1113 f33d 88b1 cbbd
00000350: e57b 633e 6ead 07bb b3b7 f93d 525a 953d
00000360: 6649 023e 1298 973c d013 e23d 9a8d dfbd
00000370: 9444 62bc 940f 43bc ba3e 19be 3c18 bebd
00000380: be7c 22be a7fb b4bd d166 083e fbf4 b3bd
00000390: 9b5e 60bc 92c0 87be 0741 813e f311 1dbe
000003a0: 36d1 ad3e f681 a0be 73d1 193d 8302 133e
000003b0: d136 c43d 6d81 753e a60d a6bd 574d 8fbc
000003c0: 726e c1bd 8f0b f63d aaa7 86be 5e6b d93d
000003d0: 1bf8 9a3e 8bb6 103e 83c2 b8bd 604b 9ebd
000003e0: 4cd4 053e ad9f cebc dcf4 5bbe 8b69 ddbc
000003f0: 1321 fb3d 93c4 743e 6222 2a3e 8eae c6bd

conv3.bias f4 [32]
0.13671117 -0.044435814 0.124453716 0.116067424 0.04104767 -0.08113036 0.13898802 0.090067685
-0.17588678 0.13423292 -0.013965041 0.14181411 0.19153523 0.14387141 -0.16474243 -0.013880157
0.1703744 -0.0043027243 0.09264536 -0.02532719 -0.017288761 0.16903923 -0.009138492 0.010416421
-0.018504322 -0.0067685754 0.11213554 0.14579931 -0.002903817 -0.016682196 0.057783958 0.19417287
00000000: 03fe 0b3e 5402 36bd 97e1 fe3d c2b4 ed3d
00000010: 9a21 283d ad27 a6bd e052 0e3e 6875 b83d
00000020: aa1b 34be 5b74 093e a1cd 64bc b837 113e
00000030: d021 443e 0753 133e 3db2 28be 9969 63bc
00000040: a076 2e3e defd 8cbb dabc bd3d f87a cfbc
00000050: 29a1 8dbc 9f18 2d3e 9db9 15bc a3a9 2a3c
00000060: 6096 97bc edca ddbb 51a7 e53d 6a4c 153e
00000070: f74d 3ebb 1aa9 88bc dfae 6c3d 41d5 463e

conv4.weight f4 [32, 32, 3, 3]
-0.07374395 0.027444968 0.17679648 -0.005830831 0.045664422 -0.16276522 -0.05084643 -0.061583057
0.06835776 -0.085668 0.071831085 -0.06624969 -0.14348362 0.25650415 -0.020943232 0.051988937
-0.0030104774 -0.08091116 -0.019119164 -0.028455792 0.043264676 -0.046102718 -0.0118857045 -0.097775094
-0.03883937 0.026458953 0.22305395 0.006888817 0.0961199 -0.07831971 -0.07264789 -0.15876044
0.022846077 -0.06678459 0.26713085 0.13699791 0.0023869956 0.14973952 0.121466406 -0.042303897
0.2718688 -0.045931976 0.028497497 -0.1342251 -0.038069826 -0.10049208 -0.011420105 -0.04787089
0.08647577 -0.1308429 0.07128358 0.033256687 -0.06194583 -0.13201402 -0.04500404 0.06570393
0.15149283 0.24028201 -0.03462835 -0.1857979 -0.21392961 0.004655753 0.045351494 -0.004543894
0.11302946 -0.12843673 -0.0059010577 0.08826548 -0.05381602 0.037694704 -0.05200231 0.036754612
0.06321974 0.056257516 -0.11395477 0.1064082 -0.21820205 0.028388612 -0.11253612 0.23975132
0.094521604 0.08565076 0.010137242 0.09952218 -0.10398838 0.013484178 -0.018613663 -0.039686542
-0.004027781 0.104350135 0.039891336 -0.1685679 0.089007944 -0.053903632 -0.09663382 0.008673086
-0.00039621338 0.11019297 -0.01177881 0.040989254 -0.068396375 -0.1271922 -0.23171157 -0.003099911
0.024721947 -0.035546232 -0.0014885936 0.039799783 -0.07801668 -0.015235265 0.080095194 -0.08136303
-0.05713546 -0.15125157 0.09154446 -0.025723187 0.03423904 -0.07041639 -0.018862672 -0.021522814
-0.13523562 0.22255374 -0.08832987 0.085161105 -0.14549325 0.04793997 0.011065998 0.12021647
-0.040363193 0.018393788 -0.2596287 0.13567112 0.017431805 0.00081129646 -0.107254446 -0.050033078
0.096782446 -0.092507005 0.13983311 -0.12455612 -0.02681546 -0.14959653 -0.12758607 0.06812857
-0.0075431108 -0.071921244 -0.13225366 -0.14241551 0.1341197 0.00230857 -0.07362628 -0.078142084
0.07410013 -0.01610638 0.043454163 -0.14556971 0.16031824 -0.26739797 0.025478337 -0.1649981
0.08301248 0.14162865 0.012295226 0.024179924 0.003476049 -0.024632432 0.021501405 -0.2122995
-0.018470816 0.04757032 0.07888209 0.11602528 0.23477954 -0.07843161 0.060458753 0.1796833
-0.21943116 0.0003776263 0.11798964 0.15347476 0.004331592 0.2676706 -0.012330313 -0.27023688
0.0970656 0.105073474 0.01024508 -0.15094993 0.050835695 0.14015354 -0.1324582 0.06743839
-0.021977581 -0.12126885 -0.13512038 -0.013938723 0.092506744 0.04035706 -0.031180924 0.05517734
0.10147483 0.072968856 0.059389506 -0.12159872 -0.039246783 -0.14733604 0.10345943 0.045713842
0.119079724 0.054836232 0.20196114 -0.20200163 -0.10308187 -0.12191648 -0.19297656 0.25667995
0.12545368 -0.10111273 -0.024475655 -0.26452088 0.024417654 0.056361344 0.14600761 -0.07560272
-0.0035416363 0.12400397 0.045286387 -0.10065745 -0.09074944 0.19988796 0.13270903 0.039657008
-0.1531467 0.038472958 0.05569586 -0.15203032 0.07636603 -0.015529002 0.045926005 -0.17784008
-0.017895302 -0.06015782 0.07677608 -0.035665292 -0.049598336 0.021389207 0.086061396 0.1307128
-0.097408526 0.032160427 -0.049411718 -0.027252082 0.080600545 -0.11819784 -0.025197629 -0.06861419
00000000: 1107 97bd 45d4 e03c 230a 353e 8e10 bfbb
00000010: 9e0a 3b3d edab 26be 5944 50bd 843e 7cbd
00000020: 27ff 8b3d b472 afbd 2d1c 933d ebad 87bd
00000030: 5fed 12be 8354 833e 2491 abbc 5af2 543d
00000040: 6e4b 45bb c0b4 a5bd cb9f 9cbc 1f1c e9bc
00000050: 4d36 313d 34d6 3cbd 42bc 42bc 4f3e c8bd
00000060: 0816 1fbd 72c0 d83c 4168 643e 96bb e13b
00000070: 83da c43d 1666 a0bd 6bc8 94bd 1992 22be
00000080: b227 bb3c 5cc6 88bd 60c5 883e 2e49 0c3e
00000090: 246f 1c3b 5155 193e 61c3 f83d da46 2dbd
000000a0: 6332 8b3e 2b23 3cbd 9573 e93c 4e72 09be
000000b0: 1bef 1bbd cbce cdbd 641b 3bbc 4414 44bd
000000c0: 351a b13d aefb 05be 20fd 913d 2a38 083d
000000d0: e9ba 7dbd af2e 07be 2856 38bd c88f 863d
000000e0: f020 1b3e 7d0c 763e 75d6 0dbd ce41 3ebe
000000f0: 5d10 5bbe 498f 983b 7dc2 393d f2e4 94bb
00000100: fd7b e73d eb84 03be a95d c1bb 88c4 b43d
00000110: 306e 5cbd c365 1a3d 6000 55bd 018c 163d
00000120: 5a79 813d 486e 663d 1e61 e9bd 8bec d93d
00000130: 5c70 5fbe 3c8f e83c 5679 e6bd 5f81 753e
00000140: 8b94 c13d aa69 af3d ad16 263c 49d2 cb3d
00000150: dcf7 d4bd beec 5c3c ae7b 98bc 5b8e 22bd
00000160: 7afb 83bb 86b5 d53d 1965 233d 109d 2cbe
00000170: cc49 b63d 0eca 5cbd f4e7 c5bd 8f19 0e3c
00000180: dcba cfb9 daac e13d e9fb 40bc 59e4 273d
00000190: 6613 8cbd ac3e 02be cc45 6dbe e027 4bbb
000001a0: ae85 ca3c ed98 11bd ea1c c3ba 1905 233d
000001b0: 36c7 9fbd 559d 79bc f308 a43d a9a1 a6bd
000001c0: df06 6abd b1e1 1abe a97b bb3d 6fb9 d2bc
000001d0: 3c3e 0c3d 7836 90bd e485 9abc 9d50 b0bc
000001e0: 357b 0abe 21e5 633e 4ae6 b4bd f268 ae3d
000001f0: 2ffc 14be b45c 443d 294e 353c 0d34 f63d
00000200: e053 25bd 92ae 963c 0eee 84be 5fed 0a3e
00000210: 25cd 8e3c 2fad 543a 38a8 dbbd 7cef 4cbd
00000220: e035 c63d 5074 bdbd 6930 0f3e 4717 ffbd
00000230: 18ac dbbc d52f 19be eca5 02be fe86 8b3d
00000240: 332c f7bb 724b 93bd 816d 07be 5fd5 11be
00000250: ad56 093e 614b 173b 60c9 96bd f508 a0bd
00000260: cfc1 973d 87f1 83bc fefc 313d 3a10 15be
00000270: 772a 243e 63e8 88be f2b7 d03c 43f5 28be
00000280: 7202 aa3d 1a07 113e ea71 493c fa14 c63c
00000290: 6dce 633b f4c9 c9bc b723 b03c 0a65 59be
000002a0: 1c50 97bc 19d9 423d ef8c a13d a99e ed3d
000002b0: 0c6a 703e c0a0 a0bd 99a3 773d e6fe 373e
000002c0: 90b2 60be 25fc c539 8da4 f13d 7d28 1d3e
000002d0: 07f0 8d3b 1f0c 893e 1505 4abc 7d5c 8abe
000002e0: 54ca c63d c330 d73d fbda 273c 9e92 1abe
000002f0: 1739 503d 6984 0f3e 1fa3 07be 231d 8a3d
00000300: 540a b4bc ce5b f8bd ff5c 0abe 3e5f 64bc
00000310: 2d74 bd3d 724d 253d 236f ffbc a201 623d
00000320: 09d2 cf3d b270 953d 6942 733d c008 f9bd
00000330: 3cc1 20bd 42df 16be 8ae2 d33d 703e 3b3d
00000340: 12e0 f33d f59b 603d e7ce 4e3e 84d9 4ebe
00000350: 961c d3bd 59af f9bd a69b 45be 8e6b 833e
00000360: ee76 003e 3114 cfbd 2b81 c8bc 486f 87be
00000370: 8807 c83c 27db 663d 0583 153e 99d5 9abd
00000380: cc1a 68bb cbf5 fd3d 387e 393d 7e25 cebd
00000390: d8da b9bd 6eaf 4c3e e0e4 073e 636f 223d
000003a0: 7dd2 1cbe d295 1d3d 5821 643d d6ad 1bbe
000003b0: cb65 9c3d 5b6d 7ebc e81c 3c3d b61b 36be
000003c0: 2b99 92bc 0c68 76bd c73c 9d3d c515 12bd
000003d0: a027 4bbd 6b38 af3c f540 b03d 94d9 053e
000003e0: 1f7e c7bd a7ba 033d f163 4abd c23f dfbc
000003f0: e611 a53d b611 f2bd 426b cebc 9985 8cbd

conv4.bias f4 [32]
0.040666513 0.19457206 -0.16464885 0.034879986 -0.0039300593 -0.03790233 -0.13416219 -0.03760477
0.15137789 -0.12461536 -0.22280043 -0.044681497 -0.012921584 0.08391104 0.021321258 -0.113558434
-0.15271193 0.08329376 0.043474812 -0.07812738 -0.11348106 0.1534356 0.10280395 -0.022886217
0.1530301 0.055739377 0.1383423 -0.28601655 0.23443606 0.017516198 -0.10591837 -0.0534124
00000000: ee91 263d e63d 473e b599 28be 51de 0e3d
00000010: bac7 80bb 793f 1bbd d061 09be 7607 1abd
00000020: ce02 1b3e 5636 ffbd cc25 64be f203 37bd
00000030: 0db5 53bc 8dd9 ab3d eba9 ae3c 5391 e8bd
00000040: 8460 1cbe eb95 aa3d a512 323d 3f01 a0bd
00000050: c268 e8bd 391e 1d3e e18a d23d e07b bbbc
00000060: ecb3 1c3e f94e 643d 9ba9 0d3e c370 92be
00000070: 0210 703e 217e 8f3c bbeb d8bd f6c6 5abd

linear.weight f4 [256, 800]
0.03473861 -0.030742286 -0.032263156 -0.01620579 -0.020251583 -0.06356648 0.049853124 0.025846133
0.010101335 -0.07432464 0.020558346 -0.09380572 -0.05187332 -0.010873502 -0.022640588 0.036391404
0.017061472 -0.11697479 -0.08129543 0.05080271 -0.12770133 0.014417843 -0.009969099 -0.103115134
0.071676664 0.06525433 -0.03288432 -0.029987056 0.017695105 0.03877813 -0.13951476 -0.0061701233
0.091107614 -0.08764187 -0.07687579 -0.12721051 -0.035376873 -0.13420297 -0.03469173 -0.06299049
-0.011872255 -0.01685496 -0.06788664 0.023581231 -0.107235074 0.0029682403 -0.061519045 -0.01786764
-0.041485436 -0.075373866 0.050818752 -0.012211399 -0.061623756 -0.046990734 -0.056736153 0.047585763
-0.03882492 -0.0794525 0.07057068 -0.13696305 0.040592562 -0.075777985 0.04374198 0.05240178
0.013406652 -0.035100985 -0.02322906 -0.072476976 0.041196607 -0.01742992 -0.07640039 0.05159641
0.01728747 0.020854238 0.037283227 -0.0120897405 0.042363003 0.087128185 0.06273832 0.029426109
-0.009742625 0.016662328 0.03387579 -0.07220761 0.06802884 -0.0339126 0.025912046 0.014121287
-0.024067724 0.0204577 -0.193665 -0.06118529 0.13963786 0.13044533 0.0040279008 0.042955894
-0.0040323758 0.06372858 -0.14402048 -0.08448838 -0.050723534 -0.043795723 -0.009123371 0.017049989
-0.07578921 0.08288814 -0.084015355 -0.0010053964 0.07512328 -0.10509091 0.016476631 -0.009583162
0.02420779 -0.11805457 -0.0045280885 0.038733978 -0.0072197034 0.0031391627 0.16962366 0.00840893
0.034422148 -0.052386437 0.111992545 -0.06563256 -0.03367221 -0.038366277 0.01087911 0.028584825
-0.006100231 -0.0032735376 -0.022570722 -0.01641307 -0.070483975 0.06529402 0.13435747 0.02189818
-0.07910392 -0.011937056 0.0018364274 -0.02244662 -0.10247175 0.045646917 0.025773171 0.043475512
0.13503888 0.05635254 0.16538428 -0.14823909 0.0014803037 0.11186533 -0.015231252 0.04980419
0.0067871306 0.046387915 -0.017605351 0.0014085083 0.057762075 -0.11643626 -0.13084558 -0.02858057
0.05470309 -0.08280149 0.07091524 -0.03772151 0.018637279 0.02889289 -0.10330954 0.0712239
0.0034476924 0.04149643 0.060468875 -1.2808963e-05 -0.013398613 0.09836068 -0.0066817906 -0.002001143
-0.036550727 0.007422468 0.025131162 -0.03479015 -0.07080113 -0.011684851 -0.01563471 0.02994358
-0.066302575 -0.06465654 -0.11675288 0.049258146 -0.01270051 -0.01600034 0.03791748 0.0027304052
0.022812216 -0.0055444837 -0.15694189 0.08687173 -0.01466002 -0.059118725 -0.038358215 0.0076109413
0.049114782 -0.002229668 0.0109547535 -0.009402733 -0.008051493 -0.097882204 -0.009099841 0.027183762
-0.122993216 -0.024445826 0.0120782275 0.04964452 -0.097581334 -0.03747539 0.028484663 -0.07682747
0.036961548 -0.07874499 0.019364784 -0.096627176 0.07442228 -0.06642117 0.027958514 -0.049436387
0.009709857 0.0060256724 0.063654475 0.060371287 0.013078829 0.052432045 -0.08633454 0.05263004
0.0009419665 -0.006960037 0.10476504 -0.0046882736 -0.09121945 0.0046604145 0.008130611 0.053872608
0.024816997 0.07579203 0.085602745 -0.00024431705 -0.028643329 0.10181168 -0.047487397 0.005343226
-0.013412933 0.018276434 -0.027401242 -0.07755099 -0.013049738 -0.013420178 -0.012924488 0.0021058219
00000000: 134a 0e3d 3fd7 fbbc 5f26 04bd 01c2 84bc
00000010: a6e6 a5bc 252f 82bd ca32 4c3d 45bb d33c
00000020: 1280 253c 8437 98bd fa69 a83c 371d c0bd
00000030: 1e79 54bd c626 32bc c178 b9bc 270f 153d
00000040: 80c4 8b3c 7b90 efbd 387e a6bd 8116 503d
00000050: 23c4 02be d138 6c3c 6f55 23bc 072e d3bd
00000060: 37cb 923d 10a4 853d b5b1 06bd 6aa7 f5bc
00000070: 53f5 903c d1d5 1e3d f5dc 0ebe bf2e cabb
00000080: a196 ba3d 957d b3bd 0e71 9dbd 7943 02be
00000090: 57e7 10bd 816c 09be ea18 0ebd 2801 81bd
000000a0: d983 42bc 6a13 8abc 2708 8bbd 6d2d c13c
000000b0: 109e dbbd cf86 423b 65fb 7bbd 285f 92bc
000000c0: a2ec 29bd 9d5d 9abd 5327 503d 5212 48bc
000000d0: 3169 7cbd 5b79 40bd 2b64 68bd 4ae9 423d
000000e0: e106 1fbd feb7 a2bd 5c87 903d 0b40 0cbe
000000f0: 6344 263d 7d31 9bbd ca2a 333d 40a3 563d
00000100: 93a7 5b3c 0dc6 0fbd df4a bebc cf6e 94bd
00000110: c6bd 283d 31c9 8ebc cf77 9cbd c256 533d
00000120: 749e 8d3c 82d6 aa3c 4cb6 183d 0c14 46bc
00000130: d484 2d3d 4370 b23d f37c 803d 060f f13c
00000140: 889f 1fbc 6f7f 883c 57c1 0a3d 95e1 93bd
00000150: b452 8b3d f0e7 0abd 8045 d43c f85c 673c
00000160: ad29 c5bc e896 a73c 1e50 46be 6d9d 7abd
00000170: 3afd 0e3e 7693 053e 7bfc 833b 85f2 2f3d
00000180: 0522 84bb 2184 823d 1b7a 13be 3e08 adbd
00000190: 7bc3 4fbd 2563 33bd 317a 15bc 6bac 8b3c
000001a0: 6037 9bbd 42c1 a93d 3e10 acbd 81c7 83ba
000001b0: 3cda 993d e739 d7bd 00fa 863c b202 1dbc
000001c0: 6a4f c63c 98c6 f1bd 5c60 94bb 85a7 1e3d
000001d0: 4393 ecbb 69ba 4d3b d3b1 2d3e 9cc5 093c
000001e0: 3dfe 0c3d 2993 56bd 595c e53d 5d6a 86bd
000001f0: dfeb 09bd f525 1dbd 4b3e 323c b92a ea3c
00000200: 72e4 c7bb d988 56bb 3ce6 b8bc b474 86bc
00000210: e759 90bd dfb8 853d 0195 093e d063 b33c
00000220: 3c01 a2bd a493 43bc 47b4 f03a f9e1 b7bc
00000230: b5dc d1bd 43f8 3a3d 4222 d33c 6113 323d
00000240: a247 0a3e ecd1 663d 7f5a 293e fdcb 17be
00000250: c006 c23a a619 e53d 808c 79bc 7aff 4b3d
00000260: 9466 de3b 4101 3e3d 1939 90bc b29d b83a
00000270: ed97 6c3d 2276 eebd 62fc 05be cd21 eabc
00000280: 5910 603d d493 a9bd 023c 913d df81 1abd
00000290: 35ad 983c c8b0 ec3c f493 d3bd d6dd 913d
000002a0: aef2 613b 29f8 293d 36ae 773d 14e6 56b7
000002b0: db85 5bbc 5371 c93d ecf2 dabb 9c25 03bb
000002c0: 37b6 15bd 2d38 f33b dedf cd3c 1e80 0ebd
000002d0: 2f00 91bd d171 3fbc 5d14 80bc 3d4c f53c
000002e0: a5c9 87bd a66a 84bd 221c efbd e9c2 493d
000002f0: cd15 50bc 2513 83bc 5c4f 1b3d 99f0 323b
00000300: afe0 ba3c 80ae b5bb 60b5 20be cee9 b13d
00000310: 9530 70bc 7a26 72bd 811d 1dbd 3465 f93b
00000320: 952c 493d 9f1f 12bb 917b 333c ec0d 1abc
00000330: 69ea 03bc 7776 c8bd 8017 15bc 7bb0 de3c
00000340: dee3 fbbd 9d42 c8bc c2e3 453c 0d58 4b3d
00000350: b9d8 c7bd cb7f 19bd ab58 e93c b857 9dbd
00000360: fe64 173d 0e45 a1bd e5a2 9e3c 78e4 c5bd
00000370: b56a 983d d307 88bd 4109 e53c cf7d 4abd
00000380: 1816 1f3c 0173 c53b 475d 823d e247 773d
00000390: 9648 563c fcc2 563d 2ad0 b0bd 9992 573d
000003a0: 4dee 763a 0611 e4bb 0e8f d63d 17a0 99bb
000003b0: 43d1 babd 64b6 983b 4136 053c 86a9 5c3d
000003c0: 044d cb3c da38 9b3d 7e50 af3d ae17 80b9
000003d0: 6aa5 eabc a482 d03d 2582 42bd 3a16 af3b
000003e0: ebc1 5bbc 76b8 953c 9278 e0bc 0ed3 9ebd
000003f0: 91ce 55bc 4ee0 5bbc 3bc1 53bc d401 0a3b

linear.bias f4 [256]
-0.058959097 -0.03982906 -0.39483705 -0.034454238 -0.031185115 -0.03527726 -0.041239824 -0.39428452
-0.053719457 -0.012655106 0.019714575 -0.17259493 -0.016285608 -0.012273648 -0.016721454 -0.10794785
-0.1673573 -0.073256016 -0.011884737 -0.059791684 -0.04521678 -0.025254397 -0.057892125 -0.038982272
-0.044081718 -0.25190303 -0.022151561 -0.042449437 -0.042594787 -0.117087826 -0.028053934 -0.14720282
-0.015975604 0.023923043 -0.08443149 -0.048895407 -0.062955365 -0.043617476 -0.032782175 -0.032968678
-0.050394535 -0.04618804 -0.010227208 -0.049214687 -0.045948446 -0.038602296 0.02733802 -0.035605125
-0.019611344 -0.04434391 -0.030663656 -0.00010528838 -0.11031125 -0.034460828 -0.09752832 -0.027431026
-0.047218528 0.0059258067 -0.0028086195 -0.0137779685 -0.12124631 -0.02845524 0.0005020238 -0.031140575
-0.0698063 -0.022795724 -0.08507822 0.07559648 -0.017073574 -0.3315094 -0.15309379 0.012384266
0.0049762446 -0.06972689 -0.061494045 -0.112397514 -0.060237568 -0.020939218 -0.05286899 -0.16054004
-0.15675637 -0.02509761 -0.029152304 -0.051068563 -0.04397107 -0.044200312 -0.03558994 -0.03868407
-0.07506296 -0.10880303 -0.011969606 -0.05126259 -0.0046570837 -0.05555601 0.09921313 -0.07266584
-0.031302404 -0.14915372 -0.045945194 -0.025597552 -0.028671313 -0.02140016 -0.06294746 -0.008551032
-0.30608606 0.0026317735 -0.020359352 -0.05941661 -0.3281278 0.019798772 -0.12809888 -0.016364796
-0.018092262 -0.06497325 -0.035318267 -0.103050984 -0.03744679 -0.1315323 -0.07588909 -0.027791122
-0.07763638 -0.010941549 -0.0540197 -0.028011445 0.02677451 -0.06030318 -0.05336325 -0.034560647
-0.09557073 -0.035817664 -0.024612615 -0.13177966 -0.0035374772 -0.0010173289 0.021602828 -0.0315709
-0.041233286 -0.13095294 -0.029804835 -0.024930144 -0.034993593 -0.03659071 -0.02606866 -0.05117321
-0.008841924 -0.031140862 -0.405498 -0.04054154 -0.054661687 -0.07145043 -0.020582555 0.04509771
-0.04032435 0.005424825 -0.15544578 -0.111504935 -0.022911921 -0.2732107 -0.13404803 -0.17902285
-0.0090143485 -0.013831771 -0.38919583 -0.03787393 -0.012509101 -0.10386141 -0.17655763 -0.045513522
0.03526313 -0.11104154 -0.011580085 -0.029819582 0.03706225 -0.078794196 -0.38500464 -0.03087368
-0.054844674 -0.057239924 -0.051165048 -0.15844744 -0.055818375 -0.025095727 -0.008178138 -0.069693476
-0.0067887916 -0.016660152 -0.018215748 -0.027938092 -0.02843796 -0.04113543 -0.21058708 -0.085406244
-0.029336791 -0.015615126 -0.046151385 -0.031965237 -0.02966966 -0.07751414 -0.05528588 -0.025544785
-0.03470059 -0.034743253 -0.054500367 -0.03046779 -0.14155513 -0.009642522 -0.02407565 -0.049270246
-0.08376823 -0.028899731 -0.012975367 -0.15902227 -0.04580181 -0.0057162135 -0.014840417 -0.21878415
-0.014645711 -0.03703957 -0.012395044 -0.0060476623 -0.04122668 -0.031453144 -0.04276214 -0.048711233
-0.007124384 -0.008875128 -0.09340338 -0.32545158 -0.026418526 -0.032189675 -0.04411827 -0.04285753
-0.03491858 -0.14093779 -0.06326185 -0.004435845 -0.0017933457 -0.024237983 -0.022434067 -0.0114029255
-0.14217675 0.04928759 -0.0077418825 0.028084932 -0.0096535 -0.052822817 -0.1767913 -0.002239316
-0.20947194 -0.025942026 -0.08919073 -0.07384072 -0.0045176335 0.07634857 -0.46901846 -0.07155087
00000000: 187f 71bd cc23 23bd 1528 cabe e31f 0dbd
00000010: ed77 ffbc e37e 10bd 17eb 28bd a9df c9be
00000020: ef08 5cbd 5d57 4fbc 7680 a13c babc 30be
00000030: 6569 85bc 6917 49bc 6efb 88bc c313 ddbd
00000040: b65f 2bbe 4007 96bd 33b8 42bc 20e8 74bd
00000050: 3b35 39bd 4fe2 cebc 4b20 6dbd e0ab 1fbd
00000060: 088f 34bd 6ff9 80be 3177 b5bc 76df 2dbd
00000070: df77 2ebd becb efbd 5dd1 e5bc 56bc 16be
00000080: 45df 82bc 42fa c33c 6bea acbd 8d46 48bd
00000090: beee 80bd 3da8 32bd 9a46 06bd 2a0a 07bd
000000a0: 806a 4ebd ac2f 3dbd 0590 27bc 5795 49bd
000000b0: 7034 3cbd 711d 1ebd fcf3 df3c aed6 11bd
000000c0: f8a7 a0bc f6a1 35bd 5932 fbbc 45ce dcb8
000000d0: ddea e1bd cc26 0dbd eebc c7bd 08b7 e0bc
000000e0: 3768 41bd 452d c23b d110 38bb fdbc 61bc
000000f0: fc4f f8bd f71a e9bc 3f9a 033a 851a ffbc
00000100: 9bf6 8ebd 19be babc 7d3d aebd 54d2 9a3d
00000110: e1dd 8bbc 9abb a9be 9ec4 1cbe 60e7 4a3c
00000120: c40f a33b f9cc 8ebd 2ee1 7bbd ab30 e6bd
00000130: abbb 76bd b988 abbc 278d 58bd 9c64 24be
00000140: be84 20be 8199 cdbc d0d0 eebc 452d 51bd
00000150: 021b 34bd 630b 35bd c2c6 11bd 3073 1ebd
00000160: 9cba 99bd 1fd4 debd 2b1c 44bc b9f8 51bd
00000170: 739a 98bb b38e 63bd 4130 cb3d d4d1 94bd
00000180: f336 00bd c1bb 18be 0731 3cbd f5b1 d1bc
00000190: 1ae0 eabc 634f afbc 99ea 80bd a119 0cbc
000001a0: 50b7 9cbe d579 2c3b a8c8 a6bc d55e 73bd
000001b0: 5e00 a8be 0931 a23c 5a2c 03be 770f 86bc
000001c0: 3936 94bc b210 85bd e3a9 10bd 650c d3bd
000001d0: ce61 19bd 67b0 06be bd6b 9bbd 35aa e3bc
000001e0: d3ff 9ebd 2f44 33bc c343 5dbd 4278 e5bc
000001f0: 3856 db3c 7800 77bd 6c93 5abd 778f 0dbd
00000200: 96ba c3bd 8bb5 12bd 65a0 c9bc 3ff1 06be
00000210: 05d5 67bb e557 85ba 6af8 b03c 7d50 01bd
00000220: 3ce4 28bd 8718 06be 4529 f4bc 4d3a ccbc
00000230: 7155 0fbd 24e0 15bd f18d d5bc 009b 51bd
00000240: b8dd 10bc 1f1b ffbc 6f9d cfbe e30e 26bd
00000250: efe4 5fbd 9a54 92bd bf9c a8bc 60b8 383d
00000260: 252b 25bd bbc2 b13b 2e2d 1fbe b35c e4bd
00000270: c8b1 bbbc 46e2 8bbe e343 09be c451 37be
00000280: ebb0 13bc a79e 62bc ad44 c7be b221 1bbd
00000290: f9f2 4cbc 4ab5 d4bd 86cb 34be 636c 3abd
000002a0: 1270 103d bf69 e3bd 66ba 3dbc 3248 f4bc
000002b0: 96ce 173d da5e a1bd 541f c5be cdea fcbc
000002c0: cfa4 60bd 6974 6abd 7192 51bd 0c40 22be
000002d0: cfa1 64bd 8e95 cdbc 99fd 05bc 74bb 8ebd
000002e0: 8374 debb df7a 88bc 3139 95bc 6dde e4bc
000002f0: baf6 e8bc a07d 28bd 24a4 57be 78e9 aebd
00000300: b653 f0bc 96d6 7fbc 3c09 3dbd fbed 02bd
00000310: c90d f3bc bcbf 9ebd 7273 62bd 4c43 d1bc
00000320: 3522 0ebd f14e 0ebd c73b 5fbd 9697 f9bc
00000330: d4f3 10be abfb 1dbc 4c3a c5bc 99cf 49bd
00000340: ae8e abbd 21bf ecbc a296 54bc bcd6 22be
00000350: ae9a 3bbd 134f bbbb 3825 73bc f408 60be
00000360: 90f4 6fbc ceb6 17bd 9514 4bbc 782b c6bb
00000370: 4fdd 28bd 03d5 00bd 5b27 2fbd 6e85 47bd
00000380: aa73 e9bb fc68 11bc 454a bfbd 97a1 a6be
00000390: aa6b d8bc 52d9 03bd 5cb5 34bd 618b 2fbd
000003a0: c906 0fbd ff51 10be 6e8f 81bd 915a 91bb
000003b0: b20e ebba bc8e c6bc a6c7 b7bc 56d3 3abc
000003c0: c896 11be c9e1 493d 9eaf fdbb 5f12 e63c
000003d0: b729 1ebc bd5c 58bd c708 35be 7dc1 12bb
000003e0: d07f 56be 5f84 d4bc a1a9 b6bd ce39 97bd
000003f0: a808 94bb a45c 9c3d 3023 f0be 4389 92bd

critic_linear.weight f4 [1, 256]
-0.0011155765 -0.065939814 -0.11136161 -0.00049590395 0.0030378094 -0.0011499649 0.0030001402 -0.061002303
-0.0014721354 -7.7188546e-05 0.00047488953 0.04669424 -0.0008661548 -0.000104868675 0.0015053444 -0.0012869788
0.0072263987 0.002809309 -0.0005235119 0.00069579354 0.0015753548 0.0010995468 0.0025320386 -0.00074638095
0.00043701168 -0.0051655234 0.0011286496 0.00047604716 0.001759849 0.0317923 -0.0014895231 0.009776719
0.00070127135 0.0014371075 0.022155292 -0.015145939 8.014987e-05 0.0005765097 0.003551322 -0.00081152754
0.0022423028 0.00042778405 -0.0012796212 0.000817761 0.0015923779 0.0015932188 0.03934633 0.0028158298
0.00035137217 -0.0010575625 0.0024076584 0.0020597174 -0.002832943 0.0025577766 0.0016711722 0.00025818698
0.0021660877 0.00012829485 -6.0858594e-05 0.00049588195 -0.006731054 0.0026497205 0.0062712943 0.0023744649
0.0016496787 0.002742836 0.0014368384 0.017051835 0.0014882677 -0.0020407424 -0.0007786162 0.00010961757
0.0016870031 0.029141147 0.0011822092 0.020787463 0.0012708764 -0.000923736 -0.0014862656 0.026963208
0.0014581576 -0.000768368 0.0012731851 0.0016709488 -0.0026743067 0.00079651154 -0.0015504758 0.0010554382
0.025319206 0.021723686 0.0037133072 0.0013351997 0.0028342928 -0.0027273032 0.010484922 0.003210906
0.00024209335 0.04750726 -0.003716412 0.001478555 0.0023801252 0.0021602355 -0.002534286 0.0014513568
-0.011496984 0.0016007363 -0.000331909 0.023779867 -0.029250944 0.0326794 0.00021174332 0.002367071
0.0015900631 0.003858511 -0.0005868191 0.006204097 -0.002256853 0.00046748953 0.0012853368 0.00072183437
-0.0011645779 -0.00049925724 -0.0035006832 0.0010819945 -0.00050919125 0.0029415856 -0.0014392628 0.0004370605
-0.011566584 -0.0005817736 0.00042403798 -0.002638489 0.01884035 -0.00051184115 0.043705113 -0.00015907083
0.0034387033 -0.039606523 0.0015185805 0.0031295917 0.0008583562 0.0013283008 -0.002902051 -0.0031341652
0.003556073 0.001799535 -0.086598285 7.948394e-05 -0.00042221192 -0.00021909337 -0.0017367469 -0.00040735956
0.0022180572 0.0012996333 -0.0106326165 0.004291369 -0.0012448443 -0.003625099 0.0033793228 -0.0010991071
0.0010790015 -0.0009744993 -0.013694995 0.0038915006 -0.002084064 0.0035162433 -0.0120026115 -0.00039825743
0.0028936402 0.020307073 -0.00011497992 0.001656337 -0.0020298592 0.0009750601 -0.057691496 0.0001147172
-0.00032976357 0.02370061 -0.0017870264 0.029017104 0.0002927207 0.0011963068 0.0022039495 0.0023182523
-0.002106359 -0.0012899571 0.00030882086 0.0010628457 0.00053179974 0.014639989 -0.01780014 -0.007349225
0.005081893 -0.00063477806 0.0048600887 8.130116e-05 -0.0018729798 -0.006290654 0.0013924182 0.0019798393
0.00014873974 -0.0008484628 -0.00011054572 -0.00039807364 0.022896687 -0.00064177625 -0.0011060345 0.00027873594
-0.007026861 0.00035299791 0.00040388328 0.002598331 0.019733833 0.0011038026 0.0024972172 -0.0062038098
0.00040521997 -0.0014800169 -0.00022648508 0.0027242368 0.00029389455 -0.00015137171 -0.0021725106 0.0018306222
-0.00015771967 0.0016590593 -0.006985903 -0.00705752 0.002618786 0.0024654227 0.0015461253 -0.0007538128
0.00053643336 0.00089683814 0.0015093955 -0.0010978949 -0.00319673 -6.0311046e-05 0.001861915 -0.00081396906
-0.0051424345 0.024845567 0.0011671622 0.013267392 0.0025448666 0.001127101 0.016944794 0.0030709265
-0.022835463 -0.0020664998 0.0035370174 0.001977569 -0.00058316195 0.018804448 -0.08843106 -0.00070242514
00000000: 8938 92ba 740b 87bd 8e11 e4bd 8dff 01ba
00000010: fc15 473b 6bba 96ba 009e 443b 8ddd 79bd
00000020: abf4 c0ba 49e0 a1b8 98fa f839 7642 3f3d
00000030: aa0e 63ba f1ec dbb8 fa4e c53a d8af a8ba
00000040: 6dcb ec3b 621c 383b 4a3c 09ba ea65 363a
00000050: 237c ce3a ab1e 903a 8ff0 253b c7a8 43ba
00000060: b71e e539 8d43 a9bb 32ef 933a f895 f939
00000070: bcaa e63a a538 023d 1a3c c3ba 882e 203c
00000080: 86d5 373a 535d bc3a 047f b53c ac26 78bc
00000090: 2216 a838 e920 173a 4cbd 683b b1bc 54ba
000000a0: 99f3 123b 3448 e039 f6b8 a7ba 035f 563a
000000b0: 56b7 d03a 8dd3 d03a 9e29 213d c989 383b
000000c0: 6038 b839 e99d 8aba cec9 1d3b 53fc 063b
000000d0: e6a8 39bb 5fa0 273b 3c0b db3a 455d 8739
000000e0: ecf4 0d3b e386 0639 6b42 7fb8 13fe 013a
000000f0: 2c90 dcbb efa6 2d3b 6e7f cd3b e99c 1b3b
00000100: 083a d83a 27c1 333b 4c54 bc3a 4ab0 8b3c
00000110: fa11 c33a fabd 05bb 0c1c 4cba 7ce2 e538
00000120: 6e1e dd3a 6ab9 ee3c 5cf4 9a3a 784a aa3c
00000130: 8993 a63a e026 72ba ccce c2ba f2e1 dc3c
00000140: a61f bf3a 4e6c 49ba 01e1 a63a bd03 db3a
00000150: 6c43 2fbb fccc 503a 5639 cbba a156 8a3a
00000160: 396a cf3c dff5 b13c f55a 733b de01 af3a
00000170: 8bbf 393b 8ebc 32bb f3c8 2b3c 106e 523b
00000180: 70da 7d39 f996 423d 0c8f 73bb 13cc c13a
00000190: e0fb 1b3b bd92 0d3b 4316 26bb 743b be3a
000001a0: d95d 3cbc cccf d13a 1204 aeb9 ffcd c23c
000001b0: ad9f efbc d6da 053d 6a07 5e39 dd20 1b3b
000001c0: aa69 d03a 13df 7c3b c3d4 19ba bd4b cb3b
000001d0: b6e7 13bb 6219 f539 bf78 a83a 7c39 3d3a
000001e0: c0a4 98ba 96e0 02ba b86b 65bb b6d1 8d3a
000001f0: 3f7b 05ba 9ec7 403b a5a5 bcba 4425 e539
00000200: c581 3dbc 2a82 18ba 6a51 de39 80ea 2cbb
00000210: 1457 9a3c 142d 06ba 2204 333d 40cc 26b9
00000220: de5b 613b 733a 22bd 1b0b c73a d619 4d3b
00000230: 4f03 613a 611a ae3a 5630 3ebb 9166 4dbb
00000240: 010d 693b 60de eb3a 715a b1bd 9eb0 a638
00000250: 535c ddb9 6ebc 65b9 8ea3 e3ba e092 d5b9
00000260: d35c 113b 7558 aa3a 6d34 2ebc 9d9e 8c3b
00000270: 0b2a a3ba 1293 6dbb a177 5d3b ea0f 90ba
00000280: 486d 8d3a 8a75 7fba f960 60bc 8c08 7f3b
00000290: cb94 08bb c670 663b 9aa6 44bc 35cd d0b9
000002a0: 3aa3 3d3b 055b a63c 6021 f1b8 7219 d93a
000002b0: 6307 05bb 2d9b 7f3a eb4d 6cbd 5494 f038
000002c0: 1ee4 acb9 c827 c23c a83a eaba 47b5 ed3c
000002d0: 4f78 9939 65cd 9c3a 2370 103b d2ed 173b
000002e0: d70a 0abb c713 a9ba 3ce9 a139 2f4f 8b3a
000002f0: 7a68 0b3a 90dc 6f3c 99d1 91bc c5d1 f0bb
00000300: 0286 a63b 3c67 26ba 6141 9f3b 3a80 aa38
00000310: c67e f5ba d521 cebb cd81 b63a 31c0 013b
00000320: 05f7 1b39 606b 5eba c8d4 e7b8 8ab4 d0b9
00000330: d591 bb3c e03c 28ba 5cf8 90ba 4e23 9239
00000340: 9541 e6bb 9412 b939 4cc0 d339 c348 2a3b
00000350: d9a8 a13c 78ad 903a 5aa8 233b 5449 cbbb
00000360: b473 d439 20fd c1ba a07c 6db9 1c89 323b
00000370: dc15 9a39 89b9 1eb9 ae60 0ebb 7df1 ef3a
00000380: 8d61 25b9 cb74 d93a 00ea e4bb c542 e7bb
00000390: f09f 2b3b ee92 213b 5ba7 ca3a 859b 45ba
000003a0: 6f9f 0c3a ca19 6b3a e9d6 c53a 3de7 8fba
000003b0: 3b80 51bb 7ef6 7cb8 800b f43a 8a60 55ba
000003c0: de81 a8bb ee88 cb3c 77fb 983a 7a5f 593c
000003d0: c7c7 263b 3cbb 933a cfcf 8a3c 9941 493b
000003e0: 7011 bbbc 1d6e 07bb 4ecd 673b 1a9a 013b
000003f0: 56df 18ba c90b 9a3c 581b b5bd f422 38ba
