21-A3C-Pong/runs/BreakoutNoFrameskip-v4/2022-11-03_16-23_Second80MSteps_OK/model_sam_BreakoutDeterministic-v4_conv.78.tar (torch, 944955 bytes, 13 tensors)

conv1.weight f4 [32, 4, 3, 3]
000000 47 44 b9 3d cf d2 0e bf 5f cb 77 be 4d ba 3c 3e
       0.09046226 -0.5579042 -0.24198674 0.18430443
000010 4d bc 7b be 7c 15 78 3e 77 88 27 3e 23 8d 31 3e
       -0.2458355 0.24226946 0.16360651 0.17338996
000020 e3 4f 29 3e 3f dd d0 3d 6c f4 af 3d 84 03 68 3b
       0.1653438 0.10198449 0.08591542 0.0035402486
000030 52 3b 65 3e 8c d7 1c bd 05 cd e9 3d e1 dc 34 3e
       0.2238591 -0.0382915 0.114160575 0.17662384
000040 e7 ae 46 3e 7a 94 92 3e d5 9b fc 3d b3 21 85 3e
       0.19402657 0.28628904 0.1233441 0.26002273
000050 c9 40 80 3e 23 66 af be 09 88 03 bd 22 d0 55 3e
       0.25049427 -0.34257612 -0.032112155 0.20880178
000060 d7 6c 13 bd c9 09 1f be 0c 64 1d 3d 9a 45 64 bd
       -0.03599247 -0.15531076 0.03842549 -0.05573044
000070 c7 30 85 be 29 66 01 3e 26 23 92 be 27 d8 33 be
       -0.26013777 0.12636627 -0.2854244 -0.17562924
000080 f5 90 0c 3e c0 4a 7b be f6 97 f9 be 40 82 6e be
       0.13727172 -0.24540234 -0.4874875 -0.23291874
000090 81 d4 0b 3e c2 cd 14 be fd b8 fe bd 36 c1 7c 3d
       0.13655283 -0.14531615 -0.124376275 0.061707698
0000a0 19 c4 01 3f 5f 46 87 be f6 22 b3 3e c3 21 c2 3e
       0.50689846 -0.26420876 0.3498761 0.37916383
0000b0 c5 f6 eb be 43 e2 16 3e 9a 75 2b 3e 2d 60 d5 bd
       -0.46086708 0.1473475 0.1674408 -0.10418735
0000c0 e9 c3 d5 3d 15 93 09 3f ed f8 aa be fc c4 bd 3d
       0.104377575 0.53740054 -0.3339304 0.092660874
0000d0 ab 73 00 3f 06 ef 8e be 72 24 c3 3d 6e 3d 73 3e
       0.50176495 -0.27916735 0.09528436 0.23753902
0000e0 4e 48 7c bd 5a 2c 5a be fb 12 07 3f fb b7 6b 3d
       -0.061592393 -0.21305981 0.52763337 0.057548504
0000f0 57 10 89 be e7 54 b4 3e ce c9 46 bb 9a fd c6 bc
       -0.2677028 0.35221025 -0.0030332687 -0.024290849
000100 65 7a b4 be f8 04 2a be 78 9b b1 be 9e 52 58 be
       -0.3524963 -0.16603458 -0.34688926 -0.21125266
000110 08 c9 8c be 26 93 9f be 4d 6c 3b be 3f 0f 5e be
       -0.27497125 -0.31166953 -0.18303032 -0.21685503
000120 e1 e8 78 3d 57 7e b2 3d 16 b4 3b bc 5f bc fe 3d
       0.060768966 0.08715504 -0.01145651 0.12438273
000130 8d e7 b7 3d 9d fc b1 bd 26 c9 c6 bd d3 91 7c 3e
       0.08979712 -0.0869076 -0.09706335 0.24665003
000140 fa b2 51 bd e5 78 d2 3d b8 d9 77 3c f7 cc 36 be
       -0.051196076 0.10276965 0.015127592 -0.17851625
000150 19 3f dc 3e 7c 6b 81 be 49 c2 0f bf fb 4b ca 3d
       0.4301689 -0.25277317 -0.5615583 0.098777734
000160 1c c2 c4 bd 01 3e 96 bb 8d 58 4e 3e a2 b9 53 be
       -0.09607336 -0.004585028 0.20150967 -0.20676282
000170 ec 5c 30 be 26 36 09 3f 37 d5 4e be 1c e7 09 bf
       -0.17222947 0.5359825 -0.20198523 -0.5386827
000180 3d 7f d1 3d 0f a3 75 3d af 83 85 be 6d e3 8a 3d
       0.10229347 0.059969958 -0.2607703 0.06781659
000190 a3 d3 b1 3d 37 82 28 be 6c 21 82 3e b2 69 d4 3d
       0.086829446 -0.16455923 0.25416124 0.10371722
0001a0 31 8e 6b be c6 4b 28 be a8 9a 6c 3e 59 7d 51 bd
       -0.2300346 -0.16435155 0.23105872 -0.05114493
0001b0 fc ab b5 3e 85 bd 38 3e 29 9b 59 3e 0d ef cc 3e
       0.35482776 0.18041046 0.21250595 0.4002613
0001c0 48 68 2c 3f 5e b1 f8 3d 82 63 6f 3e 14 6b ee 3e
       0.6734662 0.12143205 0.23377803 0.4656607
0001d0 85 d0 18 3e 9d 4a ea 3d 38 53 07 be fa 10 79 38
       0.14923294 0.114400126 -0.13215339 5.9382037e-05
0001e0 33 f1 74 bc d8 f1 b9 3e 76 b1 d5 3e e1 d5 36 bd
       -0.0149500845 0.36317325 0.41736954 -0.044637565
0001f0 3e 8d 6e 3e 1a 0b 05 3c 9e d3 a4 be 96 17 bd be
       0.23296067 0.008120323 -0.321927 -0.36932057
000200 b7 f9 e0 3d 19 ab 25 be 1e f0 d1 be 4b 49 f5 bd
       0.10985129 -0.1617855 -0.41003507 -0.1197687
000210 bf 00 eb bb 2c 93 ba bd dc 92 81 bd 54 cd 92 bc
       -0.00717172 -0.09110102 -0.06326839 -0.017920174
000220 1c 93 5a be 60 d9 0f bd ad 6b c2 be 4d 3f 0a bf
       -0.2134518 -0.035119414 -0.37972775 -0.5400284
000230 f9 4f 96 be eb c1 43 be de c7 da be 70 12 75 be
       -0.2935789 -0.19116943 -0.42730612 -0.23932815
000240 18 aa 58 3d 69 65 85 3c 3a 48 9a 3c c6 7e 5b 3e
       0.05289659 0.016283708 0.018833268 0.21435079
000250 fd 08 0c 3f 88 82 a0 3e 66 06 51 3d 25 cd 8a 3e
       0.54701215 0.31349587 0.051031493 0.27109638
000260 35 21 52 3e f3 e4 63 be 7e 27 2d bf 7f eb b8 be
       0.2052048 -0.22255306 -0.67638385 -0.3611717
000270 27 77 01 bf e2 d4 0c bf eb da e5 be de 9c 23 be
       -0.5057244 -0.55012333 -0.44893584 -0.15977809
000280 8c 6d c1 be 33 3f e6 bd d6 12 cf 3d 44 15 05 3e
       -0.3777889 -0.11242523 0.101110145 0.12996393
000290 20 1d 13 bd 93 11 36 be be 62 a5 be 2f 9e 2f be
       -0.035916448 -0.17780142 -0.32301897 -0.17150186
0002a0 3b c9 ec bd b5 4a b7 be ba 08 1d be a0 bc 72 3e
       -0.11561819 -0.35799184 -0.1533536 0.23704767
0002b0 42 6b e1 3e f2 36 26 3e a7 46 66 3e d1 a8 22 3f
       0.44027144 0.16231897 0.22487889 0.63538843
0002c0 34 09 a4 3e 78 f1 86 3e 29 ad 03 3e 86 47 98 3e
       0.3203827 0.263561 0.12859024 0.29742068
0002d0 a8 e5 03 be 7c 29 62 be e1 2f 10 be 2a bf cb be
       -0.12880576 -0.22086138 -0.14080764 -0.39794284
0002e0 49 ff 05 bf 7c 65 9c bb 05 63 f1 be 6e c5 ee be
       -0.5234266 -0.00477284 -0.47145858 -0.46635002
0002f0 f9 9a f6 bd cc e8 1b 3c 85 85 10 3e c8 06 11 bc
       -0.120412774 0.009515952 0.14113434 -0.008851714
000300 5f 57 3b 3c f1 56 37 3e a2 11 29 3e d5 ea 2f be
       0.011434405 0.1790426 0.16510633 -0.17179425
000310 77 e6 ac bc 1d f1 9a 3d 3c a7 85 3e 3a a4 f8 bd
       -0.021105988 0.0756552 0.26104152 -0.12140699
000320 50 ff 86 bc 2d fa 40 3e 23 fa cd 3e 4e 03 aa 3c
       -0.016479164 0.18845434 0.40229902 0.020753529
000330 df 50 b0 3e d7 a2 58 3e f3 6e d2 bc 61 91 aa 3d
       0.344367 0.21155868 -0.02568767 0.0832851
000340 f4 93 f5 3d 9c 79 5c 3d cb 49 85 3d f5 2b 07 3e
       0.119911104 0.053826913 0.065082155 0.13200362
000350 b0 d2 2f be 98 e0 65 3e 69 ec 6f 3e ac 8b 64 3e
       -0.17170215 0.22448957 0.23430027 0.22318906
000360 f6 1f 19 3e ab 71 a3 bd 82 b6 4c 3d e5 88 3f 3e
       0.14953598 -0.07980665 0.04997874 0.18704565
000370 44 06 0f be f8 ab 30 bd c2 6a f6 bd b4 01 d2 bc
       -0.13967234 -0.043132752 -0.12032081 -0.025635578
000380 5b 3f aa bd 5a 6c 13 3e 7d 21 06 3f 59 1d a5 3e
       -0.08312865 0.14396802 0.5239485 0.32248953
000390 11 23 13 3f a0 91 6c 3f 93 0b d7 3d 66 f2 67 bd
       0.5747538 0.92409706 0.105002545 -0.056627654
0003a0 23 ed c4 3e de 6c d6 bd 36 de 4a be 53 81 f9 3c
       0.3846217 -0.104699835 -0.19811329 0.030457174
0003b0 85 87 44 be 8d 05 3e 3e dd 00 a8 3e ee d7 ec be
       -0.19192322 0.18556805 0.3281316 -0.4625849
0003c0 28 3c f0 bd 57 00 7d 3e 3d 9c 1b bd 2b f4 96 be
       -0.11730224 0.24707161 -0.037990797 -0.2948316
0003d0 12 c2 ae be b3 fe 25 be 36 ae ff be 19 86 14 bf
       -0.3413244 -0.16210441 -0.499376 -0.58017117
0003e0 d6 af e1 be d6 10 5d 3d d9 25 7f bc 4a 93 db bd
       -0.44079465 0.053971134 -0.015572988 -0.107214525
0003f0 cd bb b0 3d 5f dd 79 3e d0 91 94 3e b6 3f 7f 3d
       0.0862957 0.24400853 0.29017496 0.06231662

conv1.bias f4 [32]
000000 84 c3 80 3b 9c ba 58 3b f6 4d 41 3c 54 7d d3 3a
       0.0039295573 0.0033070212 0.0117983725 0.0016135373
000010 ac 3d e8 3a 7e 79 31 bb dd b9 d0 3a b0 e2 af 38
       0.0017718575 -0.0027080472 0.0015924532 8.386874e-05
000020 70 2a b2 ba 15 e3 1a bc 96 1c f8 39 6c 78 f3 3b
       -0.001359297 -0.009453555 0.00047323544 0.007430127
000030 9b 6d 8a 3b 2b a4 cd 3a 10 49 a6 39 84 32 9b 3c
       0.004224492 0.0015689185 0.00031716423 0.018944986
000040 e4 10 85 3a 46 11 0f b9 4e e8 a3 38 4d fb b7 3b
       0.0010152129 -0.00013643978 7.815716e-05 0.005614674
000050 2d 7d 5f bb c3 d2 1d 3b 2c 07 0f bb b6 7c fb ba
       -0.003410171 0.0024081923 -0.0021824343 -0.0019186947
000060 59 3a 99 ba 72 92 f4 ba 01 79 27 bb 58 08 01 3a
       -0.0011690363 -0.0018659367 -0.0025554302 0.0004922203
000070 57 a1 13 39 b4 1e d7 3a 1e cd 4e ba 05 05 43 3b
       0.00014079116 0.0016412348 -0.0007888841 0.002975763

conv2.weight f4 [32, 32, 3, 3]
000000 b2 23 4f 3e 18 4b 12 be a1 87 50 3d 6f 26 65 be
       0.2022846 -0.14286458 0.050910596 -0.22377943
000010 c9 bb 11 3d 4a 66 1b 3e 6d 3e fa 3d 1a 47 4e 3e
       0.035579477 0.15175739 0.12218938 0.2014431
000020 3d a1 8a be 5d 8a 5a 3e 2e 25 bc be e4 84 90 3e
       -0.2707614 0.21341844 -0.36747116 0.28226388
000030 2d 0e f2 3d cf 8c 83 be 6b cd 09 3e a7 4c e4 bd
       0.1181911 -0.25693366 0.13457267 -0.11147433
000040 82 c9 79 3e 9f fb fa bb f7 ae 21 bd 3a f1 9d 3b
       0.24393275 -0.00765939 -0.0394735 0.004820016
000050 a5 49 db bd 2b f9 29 3e 9f 76 b0 3d 68 51 06 bf
       -0.10707406 0.16598956 0.08616375 -0.52467966
000060 77 4e 2e be 7f 0e 89 3c b5 0b c6 3e 85 46 8e 3e
       -0.1702212 0.016730545 0.38680807 0.27788177
000070 f0 09 52 be e5 41 96 3d d6 20 f4 3d 98 57 87 3d
       -0.20511603 0.07336787 0.119203255 0.06608504
000080 e8 c8 92 3e d3 d8 a1 3d fb d2 5f 3e 9f 74 82 be
       0.28668904 0.07902684 0.21857826 -0.254796
000090 82 ee 80 bc c3 e2 ea bd 8e 24 9b be da 8f 7a 3c
       -0.01573873 -0.114690326 -0.30301327 0.015293086
0000a0 31 7e 4c be b8 9e 60 be 38 b9 40 bd 9e 63 9a bd
       -0.19970013 -0.21935546 -0.04705164 -0.07538532
0000b0 9a 38 72 bd e4 02 ba be 9e cf 98 3e 81 9b f4 bd
       -0.05913601 -0.3633033 0.298459 -0.119437225
0000c0 b2 ea af 3d 93 fa 38 3d 1c fa bf 3d 97 1e b0 3d
       0.085896865 0.04516084 0.093738765 0.085995845
0000d0 90 aa d6 3d 86 91 5d be 1e f0 71 3d 97 53 04 be
       0.10481751 -0.21637544 0.059066884 -0.12922512
0000e0 fd c0 3c 3e 6b eb 76 3e 9a 89 93 bd d2 24 38 3e
       0.18432994 0.24113242 -0.0720398 0.17982796
0000f0 7e 00 4a be c9 af 3b bc a5 e9 e8 bd 48 40 4f be
       -0.1972675 -0.011455485 -0.11372689 -0.20239365
000100 b6 c7 32 3c 35 4d 8a 3c a7 65 85 be 12 1c 66 3e
       0.010911873 0.016882518 -0.26054117 0.22471645
000110 bd c3 f1 3d c6 0f f8 bb 24 c6 05 3e 05 80 0b be
       0.11804912 -0.0075702397 0.13063866 -0.13623054
000120 a5 1d 42 bc 48 92 ac bd 98 96 4f bd 69 2f 29 be
       -0.011847888 -0.084263384 -0.050680727 -0.16521992
000130 04 55 e0 bd 7c 28 b3 3d c6 dc 9a bb 8d 77 92 bd
       -0.109537154 0.08747956 -0.0047260253 -0.07151709
000140 ca 6b 23 3d cd 24 22 bd 57 76 b2 3d 0a b0 98 be
       0.039897718 -0.039585877 0.08713978 -0.29821807
000150 fa 40 83 be 44 e8 a0 be 9d f9 f0 be 27 82 8a 3d
       -0.2563551 -0.31427205 -0.4706544 0.06763106
000160 1b 2b d7 3b 99 9b f8 3e bd 70 19 be f4 1f 0b be
       0.006566418 0.48556212 -0.14984412 -0.13586408
000170 6f eb 5f 3d d1 c7 01 be c3 60 61 3d 31 59 5a bd
       0.054667886 -0.1267388 0.05502392 -0.053307716
000180 6b 96 95 bc 49 92 0e 3e 26 5b a4 bd c5 2a 45 be
       -0.018260201 0.13922991 -0.08025198 -0.19254597
000190 3f 20 e6 3c 0d 90 c6 3d f2 e2 df 3d f2 f2 0c 3e
       0.028091548 0.09695444 0.10931958 0.13764551
0001a0 f9 40 db be b9 18 51 be 60 ca 0f 3e 69 12 96 3c
       -0.42823008 -0.20419587 0.14042044 0.018319326
0001b0 e1 2e 95 bc 7f 2a 7c 3d e8 4c 8a 3e 23 73 ee bc
       -0.01821083 0.061563965 0.270118 -0.029107636
0001c0 c3 c0 79 3d 83 c8 fa 3d 22 7f 9e bd 81 74 b7 bd
       0.060974848 0.12245276 -0.077390924 -0.08957768
0001d0 46 b8 85 ba a4 b5 44 3e 36 a5 31 3e 9c bf 98 3e
       -0.0010202012 0.19209915 0.17348179 0.29833686
0001e0 5d 54 df bd 71 57 1e be a5 25 84 3e eb 5f 51 3d
       -0.10904763 -0.15463044 0.2580997 0.051116865
0001f0 d4 33 d4 bd 41 ec 75 3c 40 1c 56 3e 00 b7 f6 3d
       -0.10361448 0.015009941 0.20909214 0.12046623
000200 a7 2e 45 be 0e a9 58 3d 7d 58 43 3d 92 c1 66 be
       -0.19256078 0.052895598 0.04769181 -0.22534779
000210 51 2b 0a be 94 d4 c6 3c b2 6a 4f 3d 10 e6 39 3e
       -0.13493086 0.024271287 0.050638862 0.18154168
000220 c0 87 a0 bd 05 b6 68 bc d1 34 92 3d e0 cf b7 3d
       -0.07838392 -0.014203553 0.0713898 0.08975196
000230 5a 15 3d be d5 2f 19 3e 02 99 8f bc f1 d5 89 bd
       -0.18465176 0.14959653 -0.017529014 -0.06730259
000240 a8 46 5a be 8f 5f 2b bd d6 58 80 3d 32 6d 73 3d
       -0.21316016 -0.04183918 0.06266944 0.05943031
000250 a3 36 6e be 7d 48 db 3d 64 eb 0a 3c dc 3e 3c 3e
       -0.2326303 0.107071854 0.008478973 0.18383354
000260 0b 38 a0 bd b4 10 b0 3d 11 49 9f bd 14 95 f2 3d
       -0.07823189 0.08596936 -0.07777608 0.11844841
000270 81 75 b1 bc 30 23 46 3d 71 6a 55 3d c5 ea 40 bd
       -0.021662476 0.0483734 0.052103464 -0.047098894
000280 cf 10 50 be 23 d3 b5 3c ea af 8d 3e 76 d9 c9 3d
       -0.20318912 0.022195404 0.27673274 0.098559305
000290 a1 6d 72 3d 23 51 3e 3d 13 92 e2 bd fa 75 55 bc
       0.05918658 0.046464097 -0.11063018 -0.013028616
0002a0 fa 60 84 be ea a3 83 3d 97 c7 c7 bd b0 c2 a5 bc
       -0.25855237 0.064277485 -0.097548656 -0.020234436
0002b0 80 ae 35 bb 6e 2d 8f be 5f b1 8d 3b 80 a9 b8 3d
       -0.0027722418 -0.27964348 0.004324123 0.090167046
0002c0 3f e2 b1 be a3 98 23 bd 2b e0 70 3d 79 88 8b 3e
       -0.34742925 -0.039940488 0.058807533 0.27252558
0002d0 ec 81 36 bb bc 40 2f 3d d8 46 0a 3e 5d 44 7b be
       -0.0027848436 0.042786345 0.13503587 -0.24537797
0002e0 a0 b1 56 3e 93 72 1f 3f 6a 60 94 bd a7 8e 7f 3d
       0.20966196 0.622842 -0.07244952 0.062391903
0002f0 da 3f 89 be b2 f1 09 3e ed 1e 50 bb e1 6b 17 3e
       -0.26806527 0.13471106 -0.0031756714 0.14787246
000300 42 2d 1f 3e 32 ea e8 3d 10 51 88 3d ac bb e1 bd
       0.15544608 0.11372794 0.066560864 -0.11022124
000310 de 2e 8f bc b6 57 3c 3d f3 42 24 3e e7 92 c0 bd
       -0.017478403 0.045982085 0.16041164 -0.094030194
000320 a5 ff b8 bc 86 3c cc be bd 62 3d 3e 0a 6b 48 3e
       -0.022582838 -0.39889926 0.18494697 0.19572082
000330 73 8f 62 3d 39 88 53 bd 91 21 06 bd d9 87 25 3e
       0.055312585 -0.051643584 -0.032746855 0.16165103
000340 89 a4 8a be 25 ff 26 3d 05 af 58 be 1c 35 bf 3e
       -0.27078655 0.04077067 -0.21160515 0.37345207
000350 a2 d6 24 be 33 53 d8 bd 23 55 b9 be 5b 32 ab 3e
       -0.16097501 -0.10562744 -0.36197767 0.33436856
000360 5e 68 8d be 23 5d ac 3d 81 ea 0f be ed c6 cd 3d
       -0.27618688 0.08416202 -0.140543 0.10047708
000370 50 4e 45 3e 0e fe 3e bd 03 3e c9 3d 91 b0 0e be
       0.19268155 -0.046629004 0.09826281 -0.13934542
000380 ec 64 ab bd cf 94 35 3e 42 e6 15 3f 67 de 3a 3d
       -0.08368859 0.17732547 0.5855447 0.045622256
000390 4f c9 8f be 98 78 4e 3e ed d4 f8 bc 92 44 a7 3d
       -0.28083274 0.2016319 -0.030374968 0.081673756
0003a0 39 c0 cf 3b ab a7 54 be 1a 15 8d 3d 44 a3 d2 bd
       0.0063400534 -0.20767085 0.068887904 -0.10285047
0003b0 eb b8 8b be 31 56 6c be 91 4e d8 bc b3 0a 34 3e
       -0.2728952 -0.23079754 -0.02640465 0.17582206
0003c0 97 fb 71 3d c9 2b 18 3d d4 e3 44 be 3e d8 63 3d
       0.059077825 0.03715113 -0.19227535 0.055626146
0003d0 86 c0 0a 3d d7 06 bf bd b2 1b 93 be 0e 83 86 3e
       0.03387501 -0.093274765 -0.28732067 0.26271862
0003e0 eb 68 d8 3e 44 78 fb bb d5 73 60 3e c5 3c 33 be
       0.42267546 -0.007674249 0.21919186 -0.1750365
0003f0 29 dd 1e 3e 77 09 62 be dd 42 ae 3b f3 12 1b bd
       0.15514053 -0.22073923 0.0053180293 -0.03785987

conv2.bias f4 [32]
000000 d3 6c c4 bc 3e 98 21 be 67 93 35 bc 46 b9 ad bc
       -0.023977673 -0.15780732 -0.011082507 -0.02120651
000010 13 15 0d bd 9d 62 da bc 1d 48 f4 bc 2d 6f 87 bd
       -0.034443926 -0.02665835 -0.029819543 -0.06613002
000020 15 8f 25 bd d0 0a 99 bd c0 49 54 3b b3 3c 65 3c
       -0.040419657 -0.074727654 0.0032392591 0.013991523
000030 92 1e 68 bc 94 72 06 be e0 f8 02 bc f4 13 37 3b
       -0.014167445 -0.13129646 -0.007993907 0.0027935477
000040 62 cc 56 3c 27 e1 6f bc b3 d4 56 bd 9c f0 58 bd
       0.013110252 -0.014641083 -0.05244894 -0.052963838
000050 87 9d ec bd 7f f1 ca 3b 01 f1 2f 3b 68 0d ea bc
       -0.115534835 0.0061933394 0.002684653 -0.028570846
000060 7e 54 8e bd cb a4 1b 3b ce d9 37 bc 31 01 8e 3b
       -0.06949709 0.0023749347 -0.011221362 0.004333638
000070 5e da a0 3c 04 04 4c bd fd 24 85 bd 9c 3c fc bd
       0.019635376 -0.049808517 -0.065011956 -0.12316248

conv3.weight f4 [32, 32, 3, 3]
000000 08 df d1 bc bc 15 11 be 5a 5b 72 be 8e bc 4c bd
       -0.025619045 -0.14168447 -0.2366766 -0.049984507
000010 8d b8 85 bc 5d c0 92 3d 20 45 4e bd 5d 71 16 3e
       -0.016323352 0.07165597 -0.05035889 0.14691682
000020 e6 61 d7 3d 3d 59 c7 bc f6 b4 13 39 36 e6 f4 3d
       0.105167195 -0.024334544 0.00014086426 0.11957972
000030 ee 95 e9 3d 0d 24 82 be a7 9e cf be db 8a b6 bc
       0.1140555 -0.2541813 -0.4055073 -0.022283008
000040 71 4f 04 bc b0 32 0b 39 1f 20 88 bd 08 c5 85 3d
       -0.008075581 0.00013274956 -0.066467516 0.06531721
000050 db 58 c4 3b bc 35 31 3e 15 0d ca bd 9b c9 a3 bd
       0.0059920377 0.17305654 -0.098657764 -0.079974376
000060 b3 c0 b9 3d 56 46 73 bd 84 8b 83 3d 86 57 db 3c
       0.090699576 -0.05939325 0.06423095 0.026775133
000070 d2 46 5d 3d 68 57 0a 3e d6 3d f4 bd d7 a1 8c bd
       0.054022618 0.13509905 -0.11925857 -0.06866806
000080 4b 4f c2 bd 2c a2 1b 3e 85 0c 15 3d 2f aa 8f 3d
       -0.0948778 0.15198582 0.036388893 0.07014882
000090 a6 01 3c 3e be f2 d8 bd 02 6d 23 3d c5 62 74 bb
       0.18360004 -0.105931744 0.03989888 -0.0037290317
0000a0 de 9d fc 3d 5f 99 7c 3d ba 5a ff 3d ec b8 26 3e
       0.12334798 0.061669704 0.124684766 0.1628148
0000b0 88 63 73 3e cd 61 8c 3d f4 5e be 3c 70 38 5e 3e
       0.23768437 0.068545915 0.023238637 0.21701217
0000c0 07 83 72 3d 3b d6 80 3e 79 3c 25 3d 87 dc 62 bd
       0.05920699 0.25163445 0.040340874 -0.055386093
0000d0 c5 89 b5 3c 32 fe 99 3c 45 da 95 3d df b5 eb 3c
       0.02216042 0.018797968 0.07317022 0.028773246
0000e0 0d d9 80 3b 2d a9 6a 3d 5d f9 92 3e 18 2b 3e 3e
       0.0039321245 0.057290245 0.28705874 0.18571126
0000f0 83 a5 9f bd b9 50 80 be 29 ae 2c bd fc b8 15 3e
       -0.07795241 -0.25061586 -0.04215828 0.14621347
000100 1b f8 22 3d 3d 7e b6 3d c2 37 d5 3c 55 92 c9 3d
       0.039787393 0.08910797 0.026027564 0.09842364
000110 e5 a8 66 3e ca 73 a3 bd 58 78 34 3d 37 84 f9 bd
       0.22525366 -0.079810694 0.04406008 -0.12183421
000120 c9 52 f5 3d 09 d4 0b 3e 33 60 fc 3b 51 d9 86 bc
       0.11978681 0.13655104 0.0077018975 -0.016461046
000130 af 05 35 3e db a4 4d 3e 4a 07 9d be bc 51 71 bd
       0.1767795 0.20082419 -0.30669624 -0.05891584
000140 94 a7 5e be 2a c5 d0 bd 2d e3 28 3d 33 6d 1a bd
       -0.21743613 -0.10193856 0.041232277 -0.037701797
000150 65 fc 2c be 36 c9 de bd ff 0b b5 bd 60 0f 10 3e
       -0.16893156 -0.10878222 -0.08840179 0.14068365
000160 09 58 a8 bd 31 3f 5e 3e e0 d4 8d bd c2 2a b6 3d
       -0.082199164 0.21703793 -0.06925368 0.08894874
000170 3d 54 01 3d ba b0 29 3e eb a3 44 bd 67 7a e7 bc
       0.031574477 0.16571322 -0.048007887 -0.028256608
000180 4c c6 da bd 32 3b 0e bd 1b 08 0e be 6a 6a c4 3d
       -0.106823534 -0.03472442 -0.1387028 0.09590609
000190 f2 c6 6d 3e ec 75 78 3e dd 3c 89 3d 58 33 69 3e
       0.23220423 0.24263734 0.06701062 0.22773492
0001a0 0e 47 92 bc 15 7f 3f be f8 67 71 be 46 eb f5 bb
       -0.017856147 -0.18700822 -0.23574817 -0.0075048534
0001b0 a5 fa a9 bd f4 d6 15 3e 90 48 58 3d 72 ba 15 3e
       -0.0829976 0.1463278 0.052803576 0.14621904
0001c0 73 14 98 3d 66 ed ab 3e c9 07 d5 bd e1 39 40 be
       0.074257754 0.33579558 -0.104018755 -0.18772079
0001d0 bf 96 e9 bd 93 a3 ff bd 1d 70 c3 bd cb dd b5 bd
       -0.11405706 -0.12482371 -0.09542868 -0.08880194
0001e0 a5 59 36 3e c7 8d 88 3d 9c 76 6b 3e a0 c6 e2 3c
       0.17807634 0.06667667 0.22994465 0.027682602
0001f0 bd cc ff 3d eb 35 51 bd 0c 88 c1 bd 08 66 9e bc
       0.124902226 -0.05107681 -0.09449777 -0.019335762
000200 43 6f 7e 3d ee 3f 2f 3e 5e a2 eb 3d 4b 16 90 bc
       0.062117826 0.17114231 0.115055785 -0.017588755
000210 1d 66 0c 3d f6 0f 3e be af 66 c3 3d 13 95 02 3e
       0.03427707 -0.18560776 0.0954107 0.1275218
000220 5f 9e 1e 3e 94 2f 65 bc 03 f8 86 3d 53 dc c7 be
       0.15490101 -0.013988394 0.06590273 -0.39035282
000230 47 f4 80 3c 35 58 2d be 88 f7 99 be 62 a5 f4 bd
       0.01574148 -0.1692818 -0.30071664 -0.11945607
000240 61 24 53 bd 63 03 00 3e 21 c0 16 3e e3 4e e2 bd
       -0.051548366 0.12501292 0.14721729 -0.11050203
000250 2e eb c4 3d 0e 52 87 3e 64 72 8c bd 61 ce 84 3d
       0.096151695 0.2642979 -0.06857756 0.06484676
000260 84 12 1e be d4 f5 93 3c 5c 6e 19 be 41 e2 5c 3d
       -0.1543675 0.018061556 -0.14983505 0.05392671
000270 f5 d4 6c 3d d7 3a be bd 43 ef 71 3d 70 e0 c1 3c
       0.05782028 -0.092885666 0.05906607 0.02366659
000280 71 f9 91 3e c5 a8 ca 3d 11 fe aa 3d eb 90 91 3d
       0.2851062 0.098954715 0.083492406 0.07107719
000290 f6 2e 58 be dd 4e f4 bd 9a 0b 7b be 0d 92 a9 bd
       -0.21111664 -0.119291045 -0.24516144 -0.0827981
0002a0 a9 a6 38 bd 06 96 67 3e 8d 2e 2a 3e 90 93 8a 3d
       -0.045080815 0.22615823 0.1661932 0.067664266
0002b0 05 68 17 3e 92 46 b6 3d 6c 63 9d bd 72 41 36 3e
       0.14785774 0.08900179 -0.07684979 0.17798403
0002c0 35 4f 26 3d 6a ec 99 bd e2 72 ef be 42 a9 19 be
       0.04060288 -0.075157955 -0.46767336 -0.15005973
0002d0 88 63 35 3c 3f 21 98 bd eb 66 3b be c1 36 20 be
       0.011071093 -0.07428216 -0.18300979 -0.15645887
0002e0 a0 f1 a3 3c 78 c9 2b 3d 0c b3 51 3d c5 16 14 3d
       0.020012677 0.041940182 0.051196143 0.036154527
0002f0 ff ef 57 3d 4a d1 ad bd 5b 05 de bd 85 dd cf 3d
       0.052719112 -0.08487184 -0.10840865 0.10149673
000300 39 b2 33 bd 9f 5b 16 be 6a de 96 3c 1a ef 8f 3d
       -0.04387114 -0.14683388 0.018416602 0.07028027
000310 5f e6 58 3e 6e 3e 37 be 16 70 b0 bd 5d 10 50 be
       0.2118163 -0.17894909 -0.08615129 -0.20318742
000320 52 33 55 3d 3f b1 f6 3b 6f 82 ea 3e 2c 3d 03 3e
       0.052050896 0.0075284536 0.45802638 0.12816304
000330 03 c5 42 be 9c 73 b9 bb bc bc 89 be 8d cb ce bd
       -0.19020467 -0.0056595337 -0.26901805 -0.10097418
000340 0a 83 87 bd 11 36 93 3d 95 bc dc bc d4 1e 09 be
       -0.066167906 0.07188047 -0.026945392 -0.13390666
000350 7c 80 29 3e ef e1 1f 3e 94 1a 7b 3e 95 93 40 3e
       0.16552919 0.1561353 0.24521858 0.18806298
000360 07 09 31 3e 5b 4d 65 3d 89 a0 1f 3e 17 0b 94 bd
       0.172886 0.055981975 0.15588583 -0.07228678
000370 79 76 22 3d 8f 1b 26 3d d9 12 8a be 50 d3 66 be
       0.039663766 0.040553626 -0.26967505 -0.22541547
000380 00 39 52 be 93 25 49 bd cd fb 22 3e f0 f2 16 3c
       -0.20529556 -0.0491081 0.15916367 0.009213194
000390 80 df 16 3e cf 2b bc 3d a7 3e a2 3e 49 17 9b be
       0.14733696 0.09188043 0.31688425 -0.30291203
0003a0 67 18 1d bd c5 09 e1 be 84 52 0d 3d 99 fe 02 3d
       -0.03835335 -0.43952766 0.03450252 0.031981084
0003b0 82 86 47 3c 54 60 ba 3d bc 2d 95 bd f4 8b 85 be
       0.012178065 0.091004044 -0.07284114 -0.26083338
0003c0 07 98 2d 3d 33 15 23 3e e2 64 2c bc 17 08 fd 3d
       0.042381313 0.15926056 -0.010522099 0.12355059
0003d0 86 13 9d 3d d0 21 40 3e 37 50 21 be 3d a7 89 3d
       0.076697394 0.18762898 -0.15753256 0.06721351
0003e0 8a 20 1b bd 8b 5f d4 bc d3 eb c7 be 47 45 37 3d
       -0.03787283 -0.025924465 -0.39047107 0.044743802
0003f0 6d 50 32 3e ac 54 c6 3e 08 f1 ac 3e b0 b4 b6 bd
       0.17413493 0.38736475 0.33777642 -0.08921182

conv3.bias f4 [32]
000000 5c 86 b0 bd a3 91 f2 bd 48 0a 45 3c b7 d7 a3 3c
       -0.08619377 -0.11844184 0.012026377 0.020000322
000010 d7 81 35 bc 9b e8 91 bd e5 90 a6 3d b0 71 a4 bd
       -0.0110783195 -0.07124444 0.08133105 -0.08029497
000020 d7 5a 66 be 6c 7d 1f 3e 07 8d 0c be 45 b5 40 3d
       -0.2249559 0.15575188 -0.13725673 0.047047872
000030 b5 99 15 bd d7 12 de 3a 87 14 77 be d1 4b 51 bd
       -0.03652354 0.001694287 -0.24128924 -0.051097695
000040 75 ef 56 3e 38 13 07 bd 02 ba 7f bd bb cf 2e bc
       0.20989783 -0.032977313 -0.06243325 -0.010669644
000050 d4 01 3e bd bf 21 9b 3d ea 64 36 be 70 8e f2 3d
       -0.046388462 0.07574796 -0.17811933 0.11843574
000060 73 19 0f be 71 f1 19 be 70 59 7f bd d7 5c 43 3e
       -0.13974552 -0.15033509 -0.062341154 0.19078384
000070 20 b7 f9 bd d3 a1 1a be db 7b 83 3d c4 29 91 3b
       -0.121931314 -0.15100794 0.06420108 0.0044300277

conv4.weight f4 [32, 32, 3, 3]
000000 c6 dc cd bc a1 a2 50 3d d6 13 5b bb 50 02 bc 3d
       -0.025129687 0.050936345 -0.0033428571 0.091801286
000010 fe 17 c7 bb 3f 46 41 be eb dd 2c bd bd 8a fc bd
       -0.006075858 -0.18874453 -0.042203825 -0.1233115
000020 6d 42 11 bd 8d fd 83 bd c0 ab 4d 3d 6b f8 29 bc
       -0.03546374 -0.06444845 0.05021262 -0.010374169
000030 ce 9c 1f be fb 2b d5 3d 26 4d 2d 3e 9f 0d d1 3c
       -0.1558716 0.10408779 0.16923961 0.02551919
000040 0d b4 2c 3d 3a 34 c6 bd 72 be 77 bc e4 5b 0b 3c
       0.042163897 -0.0967793 -0.015121089 0.008505795
000050 07 19 82 bd 86 c7 55 bd 56 c7 d6 ba fd 3b bb bd
       -0.0635243 -0.052192234 -0.0016386311 -0.09142301
000060 6a ae fb 3c a1 be ed ba 2b 67 3d bb 6b 60 de 3d
       0.030722816 -0.0018138477 -0.0028900604 0.10858234
000070 51 a4 81 3d c9 11 6c be 99 08 db 3c 78 49 07 be
       0.06330169 -0.2305366 0.026737498 -0.1321162
000080 c5 2b e1 bd af b4 54 3c 48 64 4d 3e c2 f9 33 3d
       -0.109946765 0.012982531 0.20057786 0.04393936
000090 4f af 12 3d 8d 07 dd 3c e0 b1 b8 3d d9 b0 31 bd
       0.03581172 0.02698114 0.09018302 -0.043381546
0000a0 7e 5a e9 3b 54 dd 35 be a4 40 2a 3c 01 0c 1f be
       0.007121383 -0.17760211 0.010391388 -0.15531923
0000b0 a2 2b 14 be bd d9 b0 bd 11 26 79 bd c8 11 84 3c
       -0.1446977 -0.0863528 -0.06082732 0.01612176
0000c0 83 f1 74 bc b3 ea 0a be ff 35 b6 3d 59 3f 1b bd
       -0.014950159 -0.13566093 0.08897018 -0.03790221
0000d0 ca 71 b2 bc 09 bb 88 bd 66 3e 24 3d a1 8a d2 bd
       -0.021782774 -0.06676299 0.04009857 -0.102803476
0000e0 87 71 64 3e cc e4 b9 3d c7 cc d0 bb 5c 80 38 be
       0.22308932 0.09076843 -0.0063720676 -0.18017715
0000f0 d2 9d 85 be f7 d2 0e bd a0 1c 81 3d 8b 33 0d 3d
       -0.2609697 -0.03486916 0.06304288 0.034472983
000100 1a ca 3f 3d 9c 30 26 bd 50 59 b6 3b 11 6e 6b 3c
       0.0468236 -0.0405737 0.005564846 0.014369504
000110 d9 b7 0e be 83 0a 28 bc 66 87 9f bd df e8 d3 3b
       -0.1393732 -0.010256412 -0.07789497 0.0064669694
000120 de 74 83 bd b2 71 68 3e 81 74 5c be 82 7b 19 3d
       -0.06418775 0.22699621 -0.21528818 0.0374713
000130 55 5f a7 be 1f 54 8e bd 93 d1 79 3d f8 ce 37 3e
       -0.3268992 -0.069496386 0.06099088 0.17950046
000140 04 36 0b 3e 9b bb bb 3d 41 65 c6 bd ec c0 ac 3c
       0.13594824 0.09166642 -0.096872814 0.021088086
000150 77 42 4d be d5 18 e9 3c ce 33 ff bd 5f 69 ff bc
       -0.20044886 0.028454224 -0.12461053 -0.031178175
000160 73 af bc bd e6 8b cf 39 f8 48 98 3d 06 87 eb bc
       -0.09213152 0.0003958635 0.07435793 -0.028750908
000170 3a 28 6d 3d ee dd b9 bd 5b 6d ff bc 42 33 2f bb
       0.05789969 -0.09075533 -0.031180074 -0.0026733433
000180 20 1f c6 3c 60 f9 79 3d 7b d8 99 3d 16 b3 df 3d
       0.024184763 0.06102884 0.075119935 0.1092283
000190 fd 62 09 3d 84 d2 04 be 11 83 82 bd 83 31 e4 3c
       0.03354167 -0.1297093 -0.06372655 0.02785564
0001a0 9f f7 77 be b6 1c d9 bc 76 fc ba bc 6b e0 57 3d
       -0.24215554 -0.026502948 -0.02282546 0.052704256
0001b0 cc 96 92 bd 3e 37 b4 bd a1 67 b1 3d 5d 9e 0c 3a
       -0.071576685 -0.08799599 0.08662344 0.0005364174
0001c0 97 0a 8f bd e4 d3 8f bc b3 6a b3 bc fb 51 4e be
       -0.06984442 -0.017557092 -0.021901464 -0.2014846
0001d0 f1 4d 8f bd de de a5 bd ec f4 f1 bc 96 e8 e8 3c
       -0.06997288 -0.08099149 -0.029535733 0.028431218
0001e0 3d 1b 43 bd 59 7d 25 3e ce 01 22 be 95 4f 60 3d
       -0.0476334 0.16161098 -0.15821001 0.054763395
0001f0 ce 61 02 be 58 14 65 3d 40 cc 14 3d 90 2f fd 3d
       -0.12732622 0.055927604 0.0363276 0.123625875
000200 16 cf 86 bd ef 45 ef b9 25 57 33 bc 7d 65 a1 3c
       -0.06582467 -0.00045637737 -0.01094607 0.019701714
000210 02 ae 1d bd ab f4 63 bd a7 2b 58 3b 61 ca b2 3d
       -0.038496025 -0.055653255 0.0032985003 0.08730007
000220 65 0e 5a 3e 5e 8f cb bd 7c 81 98 3d b5 77 0b bc
       0.21294554 -0.099394545 0.07446572 -0.008512427
000230 65 23 e2 bd f4 c3 7e be 07 d0 10 bd ec 7a b1 3d
       -0.11041907 -0.24879438 -0.03535464 0.086660236
000240 18 61 e1 3c 7a 4f c0 bd 46 be 87 be 73 f3 24 be
       0.027512118 -0.09390159 -0.26512355 -0.16108494
000250 38 ed 05 3e 7c d3 f3 bc e0 4c 5b bd a1 9b ea bd
       0.13078773 -0.02976393 -0.05354011 -0.11455465
000260 b4 2c de bd 3d ab 84 38 38 07 cc 3d 1f fa 70 bd
       -0.1084837 6.326146e-05 0.09962314 -0.058832284
000270 bc 4d 0c 3e 53 54 62 be af 35 4f be b8 fd 43 be
       0.13701528 -0.2210248 -0.20235322 -0.19139755
000280 fd d7 00 bd 09 0c 05 3d 80 36 eb 3d ed 71 2d 3a
       -0.031455982 0.03248218 0.114850044 0.00066164025
000290 de b1 36 bc ba 2b 9a bd 45 61 13 3e 94 56 fd bd
       -0.011150805 -0.075278714 0.14392574 -0.12370029
0002a0 c3 cc 90 3b ef d3 75 bc 97 6b e2 3a 91 49 dd 3c
       0.0044189407 -0.015004142 0.0017274496 0.027012618
0002b0 11 4a 0d 3e ab 98 03 be 94 08 d8 3d a8 ca 9c 3c
       0.13797785 -0.12851207 0.10548511 0.019139603
0002c0 ad 3b 07 3d 0a 14 32 bc 1a 63 6a 3d ca 84 9d bd
       0.033015896 -0.0108690355 0.057223417 -0.07691343
0002d0 cc da 36 3d 89 44 6d 3e e6 44 90 bd 1e 21 33 be
       0.044642255 0.23170675 -0.07044391 -0.17493102
0002e0 34 f9 ab 3d 4f 19 a6 3d f4 ee e2 bb af 67 23 bc
       0.08397141 0.08110296 -0.006925458 -0.009973451
0002f0 0e 75 b3 bd 40 5c f8 3d dd ac 7d be 7f 6e 05 3d
       -0.08762561 0.1212697 -0.24772973 0.03257608
000300 db d9 2e bd 24 82 6e bc 40 06 12 be 28 78 42 3d
       -0.042688232 -0.014557395 -0.14260197 0.04747787
000310 7b b4 86 3c 50 d4 42 bc 3b 64 6e bd 01 44 db bd
       0.016443482 -0.01189144 -0.058201056 -0.1070633
000320 ab 9b ed 3c 05 f2 fa bc 30 84 16 3e c3 dc a4 3c
       0.029004892 -0.030632982 0.14698863 0.020124799
000330 ee e8 c3 3b c0 a0 04 be 9a 59 25 3e fd 39 45 3b
       0.005978695 -0.12951946 0.16147462 0.0030094378
000340 c2 b8 f1 3b e1 c6 51 3e a9 3a 79 3b 1a 9d 1b be
       0.007376761 0.20486023 0.003802935 -0.15196648
000350 b1 c2 3d be 2d 69 b3 bd fc 1f 09 be cc 16 e1 3d
       -0.185313 -0.08760295 -0.13391107 0.10990676
000360 5f 2b 0c 3e 22 8d 8e bd 68 58 29 bd 4d 8c e9 bd
       0.1368842 -0.06960513 -0.041344076 -0.114037134
000370 f0 77 4f ba 80 2e e7 bd 8e 9d 99 3d 37 b4 e9 3d
       -0.00079142954 -0.11288166 0.07500754 0.114113264
000380 43 93 f5 3d f1 d3 59 3e 4d ab 8e 3b c4 bb 11 be
       0.119909786 0.21272255 0.0043539167 -0.14231783
000390 a2 7e 89 3a c0 24 d1 3d ad 2d 36 3d 8a 6d da 3d
       0.001049001 0.10212088 0.044477154 0.10665424
0003a0 e9 dc cc bc e3 0f ab 3d ca ec 74 bc 8a 19 5e bd
       -0.025007682 0.083526395 -0.014949033 -0.054223575
0003b0 bf 6b 6b bc 29 54 cd 3d d9 d0 03 3e 73 d5 1a be
       -0.01436895 0.10025818 0.12872638 -0.15120487
0003c0 2c f9 d5 3d d4 37 0d be 0a 57 35 3d 0a 38 e5 3c
       0.104479164 -0.13790828 0.04427246 0.027980823
0003d0 e8 f9 35 be 4c 37 f5 3c be f2 ef 3b 36 95 ee 3d
       -0.17771113 0.029933594 0.0073226383 0.116495535
0003e0 ea 9d 1d be 82 33 43 3d 43 dd da bd 0e a1 35 3c
       -0.1539227 0.047656544 -0.106867336 0.011085762
0003f0 c1 e2 e2 3c b2 5e b0 bd d3 c2 c6 3d 4f 17 87 bc
       0.027696015 -0.08611812 0.097051285 -0.016490607

conv4.bias f4 [32]
000000 95 b1 00 be 30 b3 ca 3d 96 49 90 be 4b 0d 57 3e
       -0.12567742 0.098974586 -0.28181142 0.21001165
000010 70 71 10 be f5 b4 51 be 3a 20 d1 be 71 4e 99 3c
       -0.14105773 -0.20479186 -0.408449 0.018714162
000020 3b cb 9f bd 6c 2d 68 be 80 33 8a be 39 87 6e be
       -0.07802435 -0.22673577 -0.26992416 -0.23293771
000030 db dd 41 bd 95 7e cf 3d 21 ac 2f be fa 1b a3 be
       -0.04733072 0.101315655 -0.17155506 -0.31857282
000040 1a 79 59 be ec 5d b1 ba 2e 4a 9f bd 26 f1 f0 bd
       -0.21237603 -0.0013532019 -0.077778205 -0.117647454
000050 7d b3 8a be 3c 0e ae 3e c5 59 ce 3c 92 95 17 be
       -0.27090064 0.33995235 0.02518929 -0.1480315
000060 25 ea fd 3d a7 85 cd bd d4 74 e8 3d 10 c6 ce be
       0.12398175 -0.10035258 0.11350408 -0.40385485
000070 62 55 9a 3e 66 e1 65 3e 0d 29 5a be 93 62 57 be
       0.30143267 0.22449264 -0.21304722 -0.21033697

linear.weight f4 [256, 800]
000000 ab e7 00 be 46 1c 70 bd b0 c9 53 bc ef 6d 9d 3d
       -0.12588374 -0.058620714 -0.012926504 0.07686984
000010 1b d3 17 be fa e9 f4 3d 33 11 90 3c da e7 99 be
       -0.14826624 0.1195869 0.017586326 -0.300597
000020 2b fe 0c 3e b9 0b e1 3c 5f 8e 98 bc 09 a1 ef bd
       0.13768832 0.02747141 -0.018622575 -0.11700637
000030 57 24 03 3e dc e9 e9 bc 76 22 83 ba b1 70 e9 bd
       0.12806831 -0.028553896 -0.0010004777 -0.11398447
000040 2e 12 77 bd ba 50 cd 3c a4 ea 35 bd 00 73 00 3b
       -0.060320072 0.025062907 -0.044413224 0.0019599795
000050 95 54 de 3c 6a 0b a3 3d da e8 78 3c 92 5f 1d 3d
       0.027139941 0.079611614 0.015192235 0.03842122
000060 4c 9f 48 3d 4b 1a ff 3d 49 25 f7 3d 6c 8a da bd
       0.048980042 0.12456187 0.120676585 -0.10670933
000070 f5 7c e0 bc 3b a5 0f 3d 1a 02 c2 bb 59 9d 8d 3c
       -0.027403334 0.035069685 -0.0059206607 0.017286943
000080 58 9a 96 bd d1 10 52 be 03 bf aa 3d c5 14 23 bd
       -0.073536575 -0.20514227 0.08337214 -0.03981473
000090 28 52 99 bd 8f 33 78 bd 38 db 21 be f3 47 70 3e
       -0.07486373 -0.060596045 -0.15806282 0.23464946
0000a0 cf cf 35 3d 48 ec ee 3c 81 d0 b5 bc fc e0 b5 3d
       0.044387635 0.029165402 -0.022194149 0.08880803
0000b0 65 05 e0 3c 8b 78 31 3e ad e9 63 3d 46 b9 b5 3d
       0.027346322 0.1733114 0.055642772 0.08873229
0000c0 b6 c7 27 bd 30 d9 94 3d 67 d7 b7 3d f7 24 54 3c
       -0.040961944 0.07267988 0.089766316 0.012948266
0000d0 4f 8e 47 be bd 6e e9 bd 6f 0c d0 3c b7 8f e8 bb
       -0.1948788 -0.11398075 0.025396554 -0.0070972103
0000e0 7b 93 b5 bc f9 d8 19 3e 0f bf 11 3e fd c1 d0 be
       -0.02216505 0.15024175 0.1423304 -0.40773
0000f0 94 ff 53 bd 1a 5d 5e bd 6f ec c4 3d c9 a6 03 be
       -0.05175741 -0.054288007 0.09615409 -0.12856592
000100 0a 28 18 bd 07 08 2c bd c5 88 88 bd 82 e6 3e be
       -0.03714756 -0.041999843 -0.06666712 -0.18642619
000110 a4 77 11 3b a2 46 33 bd 2d d9 ba 3d 66 6b 11 bd
       0.0022196556 -0.043768533 0.09123454 -0.035502814
000120 fe 00 61 bd b5 e1 83 bd 45 9a 05 3e 26 5f 1b 3d
       -0.054932587 -0.064395346 0.1304713 0.037932537
000130 4b 74 7e 3d ac 59 37 3e a6 50 ad 3d 74 e2 04 3c
       0.062122624 0.17905301 0.08462648 0.008110631
000140 49 11 56 bd 7c 1d f9 3c 5d a5 c9 bd 20 27 d7 bd
       -0.05226258 0.030409567 -0.09845994 -0.105055094
000150 94 60 d5 3d 5b ba 3c be 2d fb 5e bc b4 76 81 bd
       0.104188114 -0.18430464 -0.01360969 -0.06321469
000160 e3 26 df bc 3b 14 35 be 11 d6 d3 bd a4 1e ea bb
       -0.027240222 -0.17683499 -0.10343564 -0.007144766
000170 88 7f 8e 3d 05 77 61 3e 6f 41 d9 3d 28 bc 93 bd
       0.069579184 0.22018059 0.106081836 -0.07213622
000180 c6 a4 16 be 17 7d 0e 3c da f1 c2 bd c0 16 95 3c
       -0.14711294 0.008696816 -0.09518786 0.018199325
000190 39 48 ea 3d 91 6d 9b 3d 95 c4 35 3e 63 0d ab 3d
       0.11439557 0.075892575 0.17750771 0.08352163
0001a0 92 50 7c 3c 59 e5 4b bd e9 7b e8 bd c4 ea 8c 3c
       0.015400069 -0.04977927 -0.11351759 0.017201789
0001b0 82 a6 5d be eb a5 2d be 68 6f c7 bd 34 c2 83 bc
       -0.21645549 -0.16957824 -0.09738046 -0.016083814
0001c0 73 4c 00 3e 3a e6 55 3d 7c 07 09 be 0b f5 93 3c
       0.12529163 0.052221514 -0.13381761 0.018061182
0001d0 3d 46 b3 3d 8a 53 42 bd cd ef 7f bd 86 6b 83 3c
       0.08753631 -0.04744295 -0.06248455 0.016042482
0001e0 eb 2c 90 3d e8 b0 d2 3d 5a dc 13 3e f6 ee 6f be
       0.070398174 0.102876484 0.14439526 -0.23431
0001f0 75 d3 b0 3c e9 e9 a5 bd 5e 26 09 bd 7b 4f 0a 3e
       0.021585206 -0.081012554 -0.033483855 0.13506882
000200 5f 40 94 bd 06 db 5d be cf 78 09 3d 25 2a 9f 3d
       -0.0723884 -0.21665582 0.033562478 0.0777171
000210 1e a5 92 bb 56 f6 1f bd ce 4a 61 3d b2 cd f3 bd
       -0.00447525 -0.039053284 0.05500298 -0.11904468
000220 75 39 97 3d ab fd 09 bd f4 9c 30 bc c0 77 fc bd
       0.07384006 -0.033689182 -0.010779608 -0.12327528
000230 74 ab 1a be c6 ec 7a ba 21 9d a3 bc 5b cd 73 3d
       -0.15104467 -0.0009572025 -0.019972386 0.059522014
000240 f7 fd c1 3c dd 92 01 bc 83 25 f4 3a 9a bb f1 bd
       0.02368067 -0.00790855 0.0018626902 -0.1180336
000250 48 cd fa bd c6 88 ad 3c fc 4d 01 3e b9 93 92 3d
       -0.122461855 0.021183383 0.12627405 0.07157082
000260 69 09 3c 3d 9a 8b 43 3e 33 e5 2b bd 91 e4 5c 3e
       0.04590741 0.19096223 -0.04196663 0.21571566
000270 e6 6d 3d be 0f 72 4f be 60 09 8f 3d d5 8e 84 3e
       -0.18498954 -0.20258354 0.0698421 0.25890222
000280 44 6f a6 3d 12 be 22 3d 27 18 11 bd 69 ce 6e bd
       0.08126691 0.039732046 -0.035423424 -0.058302317
000290 17 87 13 be 59 b3 bb bd f6 bb c5 3d cf 06 03 3e
       -0.14407001 -0.09165067 0.09654991 0.12795566
0002a0 f6 97 5a 3e 85 f0 95 3d 16 46 8c 3d be cb f0 3d
       0.21347031 0.07321266 0.06849305 0.11757611
0002b0 17 9a be 3d 42 fa 6d 3e 0b 49 8b 3d 8c 4c dc 3c
       0.09306734 0.23239997 0.06801041 0.02689197
0002c0 f4 4d 04 3e ae 89 10 3e e4 7c 2f 3d c7 4a de bb
       0.12920362 0.1411502 0.042843714 -0.0067838165
0002d0 f4 c3 c0 bd ac 0b 30 3e 3c 33 24 3d fd d4 a3 3c
       -0.09412375 0.17191952 0.040087923 0.019999022
0002e0 68 31 86 3d 05 16 3a bd b9 e8 28 bd dd 93 5f 3e
       0.06552392 -0.045431156 -0.041237567 0.21833749
0002f0 ba 6b 58 bd 50 ae 46 3d 50 91 c4 bc 9d 22 2a 3d
       -0.05283711 0.04850608 -0.023995072 0.041536916
000300 46 b2 3e 3e cc 2e 17 be ce a5 2e bd 23 5b ab 3c
       0.18622693 -0.14763945 -0.042638592 0.02091748
000310 ef de 3c 3c d5 9d b7 bc a8 c2 b8 ba 56 dc 52 bd
       0.011527761 -0.022414127 -0.0014096098 -0.05147966
000320 c1 b0 1e 3c 61 4d 4e bd 17 78 c2 3d 85 f0 80 3d
       0.009685696 -0.050366763 0.094955616 0.062958755
000330 19 cd 15 bd da df 70 bb 6c 08 22 3d b0 e1 11 bd
       -0.03657255 -0.003675452 0.039558813 -0.035615623
000340 e7 55 b6 bd 6d 57 a3 3e 27 86 b7 3c c7 c4 de 3c
       -0.08903103 0.31902638 0.022402836 0.02719344
000350 4b ea 2e 3e f6 cd 32 3e 30 f6 b0 bd b5 9a 37 3c
       0.17081563 0.1746138 -0.086407065 0.011206319
000360 83 dd c7 3b d4 5a 0c be 73 51 a4 3c 96 04 19 3d
       0.0060994043 -0.13706523 0.02005837 0.03735789
000370 9a 45 ad bd d1 2a 4d be b4 ec 11 be f8 a2 01 be
       -0.08460541 -0.20035864 -0.14250451 -0.12659824
000380 d4 ee 9e 3b 64 95 75 39 03 90 6a 3e 70 21 5b 3e
       0.004850248 0.00023420673 0.22906499 0.21399474
000390 ca 9c 48 3e e5 f6 a2 3d c7 ae 19 be 73 82 8f 3c
       0.1959106 0.07957248 -0.15008079 0.017518258
0003a0 5a 08 b7 bd 3a d9 35 be 62 bc f0 3b 3d 08 83 be
       -0.0893714 -0.17758647 0.0073466757 -0.25592223
0003b0 6e 75 8b 3c b5 6d 4b 3e dc d7 eb bd 25 07 7b be
       0.017023768 0.19866069 -0.11515781 -0.24514444
0003c0 99 b5 ff bd f1 7c 23 bd b7 8f 83 bc 72 33 05 be
       -0.12485809 -0.039914075 -0.01605974 -0.13007906
0003d0 21 3c 53 be f8 09 a9 3d ef 16 8e bd 07 b6 4e bc
       -0.20628406 0.082538545 -0.06937968 -0.012616641
0003e0 a8 19 39 be 55 a6 da 3c 60 44 72 bd 58 f6 e6 3d
       -0.18076193 0.026690641 -0.05914724 0.11277455
0003f0 e1 14 2c bd 00 77 7a bd 67 2a 57 3d 02 76 c5 bd
       -0.0420121 -0.061148643 0.052530672 -0.09641649

linear.bias f4 [256]
000000 75 8b 21 be a9 9a 86 bd c9 b1 02 bf 62 9d bf bd
       -0.15775855 -0.06572468 -0.5105253 -0.0935619
000010 57 e1 ec bd a6 99 12 be ff cc 03 be 63 1d 01 bf
       -0.11566418 -0.14316425 -0.12871169 -0.50435466
000020 5e 76 00 be 8a 25 85 bd 8d bf 94 bd e0 15 92 be
       -0.12545153 -0.06501301 -0.07263098 -0.28532314
000030 f4 d9 f0 bd e6 fc 40 bd 7f d8 ae bd a9 9f 4b be
       -0.11760321 -0.047116183 -0.08537387 -0.19885124
000040 31 9b 6d be f4 0b 1a be 38 89 75 bd 61 26 05 be
       -0.23203732 -0.15043622 -0.059945315 -0.13002922
000050 49 fe a1 bd 44 40 d6 bd 0c 8c 08 be 92 4d e2 bd
       -0.07909829 -0.104614764 -0.13334674 -0.110499516
000060 b3 6b 1b be 81 7e c4 be 26 d9 ca bd fe 41 31 be
       -0.15177803 -0.38377765 -0.09904699 -0.1731033
000070 f3 30 d3 bd c4 fd 4a be f5 9c f3 bd 32 ff 10 be
       -0.10312071 -0.19823366 -0.118951716 -0.1415985
000080 84 e2 e5 bd 41 93 28 bd 81 3b 39 be af 1a 53 be
       -0.11224845 -0.041156057 -0.18089105 -0.20615648
000090 03 99 24 be 08 9f 04 be 64 fd 0d be 92 ce f4 bd
       -0.16073994 -0.1295129 -0.13866192 -0.11953463
0000a0 dd d4 cd bd 54 9a a3 bd 00 9d b6 bd 7a e5 0c be
       -0.10050366 -0.0798842 -0.08916664 -0.13759413
0000b0 ff df db bd 4c 0d a7 bd e3 fc f3 3d 5f d2 f9 bd
       -0.10736083 -0.08156833 0.11913469 -0.12198328
0000c0 c0 18 b1 bd 27 c2 02 be 85 01 b9 bd 57 8b 9a bb
       -0.08647299 -0.12769376 -0.09033493 -0.0047163176
0000d0 86 11 8a be 0f ff 04 be e8 32 3c be 79 20 f6 bd
       -0.26966494 -0.12987922 -0.18378794 -0.120179124
0000e0 73 7a e4 bd 00 af ba bc d0 17 9f bd 15 5f cc bd
       -0.11156168 -0.022788525 -0.07768214 -0.09979073
0000f0 bf 73 31 be 28 3e bc bd 56 fe c9 3d fe aa d7 bd
       -0.1732931 -0.09191543 0.09862964 -0.10530661
000100 09 0d 25 be 6a ec d8 bd 1e 95 0d be 83 a6 c2 3c
       -0.16118254 -0.105919674 -0.13826415 0.02376104
000110 7f e8 a1 bd 91 74 01 bf 1f 5f 71 be f1 a3 8c bd
       -0.07905673 -0.5056849 -0.23571442 -0.06867207
000120 57 83 ed bd a6 72 9b bd dd ac 31 be fc 35 58 be
       -0.11597317 -0.07590227 -0.17351098 -0.21114343
000130 1c be 16 be 68 52 c8 bd 74 72 9e bd 6e 06 47 be
       -0.14720958 -0.09781343 -0.07736674 -0.19436046
000140 52 a4 9a be fb dd 77 bd 68 ee 85 bd 53 ad 5d bd
       -0.3020349 -0.06051443 -0.06539613 -0.054120373
000150 9b 74 cb bd 0b cb c3 bd b6 0b bf bd 69 5e f8 bd
       -0.0993435 -0.09560212 -0.093284056 -0.12127382
000160 12 0d 73 bd 83 bf 55 be 4f ce e8 bd 15 56 12 be
       -0.059338637 -0.20873837 -0.11367475 -0.1429065
000170 e8 07 85 bd 01 4c 10 be 13 4c c2 bd 06 fa 4f be
       -0.064956486 -0.14091493 -0.09487166 -0.2031022
000180 06 e5 30 be bc 93 ec bd 42 97 fb bd b9 90 c9 bd
       -0.17274866 -0.115516156 -0.122847095 -0.09842057
000190 73 45 dd bd 04 ec 8f bd 1e 6a 0e be 44 0d 97 bd
       -0.10804262 -0.07027438 -0.13907668 -0.07375577
0001a0 15 bf a8 be a1 b4 1d bd 3e 52 95 bd fd 81 c8 bd
       -0.32958284 -0.03850234 -0.07291077 -0.09790418
0001b0 ec c8 e3 be 69 37 2d be 84 68 68 be 3f e9 93 bd
       -0.4448923 -0.16915669 -0.2269612 -0.072222225
0001c0 e0 32 f9 bd c4 1c 3e be 7e 17 c7 bd df b1 42 be
       -0.12167907 -0.1856566 -0.09721278 -0.19013165
0001d0 9e ef fb bd c4 56 56 be 24 9e 20 be a0 4c d9 bd
       -0.12301563 -0.20931536 -0.15685326 -0.10610318
0001e0 0f b0 06 be 9f 1e b9 bd 55 b0 c1 bd e0 49 9b bd
       -0.13153099 -0.09039044 -0.09457461 -0.0758245
0001f0 6b 98 78 bd 16 64 0c be 09 08 0d be f0 29 ae bd
       -0.060692232 -0.13710055 -0.13772596 -0.08504093
000200 db f6 50 be 4c 7a 17 be 77 26 99 bd 88 79 64 be
       -0.20406668 -0.14792746 -0.0747804 -0.22311985
000210 8d ea f1 3d 46 45 b9 bd 68 69 aa ba 18 84 f2 bd
       0.11812315 -0.09046416 -0.0013001384 -0.11841601
000220 ee cf d9 bd e0 04 54 be f1 8e f1 bd 4f 8d e2 bd
       -0.106353626 -0.20704985 -0.11794842 -0.11062109
000230 fe 30 d4 bd 29 bd 05 be c4 da 08 be 5a db 1c be
       -0.10360907 -0.1306044 -0.13364702 -0.15318051
000240 49 45 9e bd 32 0c 05 be da c9 18 bf cf 39 eb bd
       -0.07728059 -0.12992933 -0.59683 -0.114856355
000250 f0 cd ce bd cf 1b ce bd da 4e c2 bd 5c 17 bb bc
       -0.10097873 -0.10063898 -0.09487696 -0.022838287
000260 f4 45 cd bd 69 47 9e bd 34 c1 ac be 85 5f 42 be
       -0.10023108 -0.07728464 -0.33741152 -0.1898175
000270 17 58 b7 bd 39 b8 e8 be 4e 54 36 be da 8f da be
       -0.08952349 -0.4545305 -0.17805597 -0.42687875
000280 ad bb be bc 35 9d d4 bd 14 c6 14 bf 1b c3 bb bd
       -0.02328285 -0.10381547 -0.58114743 -0.09168073
000290 bd 0d f4 bd ed c2 73 be 96 e7 a5 be 4f a8 fc bd
       -0.11916683 -0.23804827 -0.3240325 -0.1233679
0002a0 3f 1b 7f bd 45 ae 53 be 6b 7d ac bd d7 54 9b bd
       -0.062281843 -0.20671947 -0.08422359 -0.07584541
0002b0 7a 39 03 bd 96 fa ce bd a3 29 ee be a9 42 06 be
       -0.032037236 -0.10106389 -0.4651614 -0.13111366
0002c0 7d 53 f4 bd 8f 1d a1 bd 12 5c 07 be 6c 9e 5f be
       -0.119299866 -0.07866966 -0.13218716 -0.21837777
0002d0 be 46 1b be a3 1d ae bd 46 43 05 be 01 38 07 be
       -0.15163705 -0.085017465 -0.13013944 -0.13204958
0002e0 2b 8d cf bd 5c 36 86 bd 2e 44 87 bd 75 46 ab bd
       -0.101343475 -0.06553337 -0.06604801 -0.08363048
0002f0 00 6f 9f bd 8c fa f0 3c cf 85 f9 be 05 f2 af be
       -0.077848434 0.029416345 -0.487349 -0.34364334
000300 32 b9 08 be 6b b6 0f be 30 f8 e2 bd 8d 89 f2 bd
       -0.13351896 -0.1403443 -0.11082494 -0.11842642
000310 35 24 b8 bd 20 22 47 be ab 09 03 be 88 d8 c9 bd
       -0.08991281 -0.19446611 -0.12796657 -0.09855753
000320 ee 31 d0 bd a8 8d ce bd e0 a6 aa bd 5a a6 c0 bd
       -0.10165773 -0.100856125 -0.0833261 -0.09406729
000330 40 a4 60 bd 76 2e b5 bd 88 af fd bd 20 c1 cf bd
       -0.05484414 -0.08846752 -0.123869956 -0.101442575
000340 83 ae 09 be c4 0d ca bd 04 94 b8 bd 0a 60 62 be
       -0.13445477 -0.09865907 -0.09012607 -0.22106948
000350 1d 10 29 be 3c 58 52 bd 8d 06 c9 bd 00 2a e9 be
       -0.16510053 -0.051353678 -0.098157026 -0.45539856
000360 d6 a2 d5 bd 6b d7 c6 bd 95 af 57 bd 27 45 a9 bd
       -0.10431449 -0.097090565 -0.052657682 -0.08265143
000370 72 53 ec bd d1 4c 00 be 40 9a de bd 9f fa b7 bd
       -0.115393534 -0.12529303 -0.108692646 -0.08983349
000380 6b b6 e2 bd 1c 7d 81 bd 1d b7 d7 bd 6f 97 a1 be
       -0.1106995 -0.06322691 -0.10532973 -0.31560847
000390 01 73 ed bd ec 35 f8 bd 36 57 10 be 78 ac a6 bd
       -0.11594201 -0.1211966 -0.14095768 -0.081383646
0003a0 dd 41 c6 bd 03 63 6a be 0b e9 0c be 63 18 92 bd
       -0.09680531 -0.22889332 -0.13760774 -0.07133558
0003b0 69 f4 4d bd 09 2f c8 bd ea 86 01 be 41 e3 be bd
       -0.050281916 -0.09774596 -0.12649122 -0.09320689
0003c0 0c e4 55 be 11 e4 03 3d 2a cb cb bd d0 f4 4c bd
       -0.20887774 0.032199923 -0.0995086 -0.05003816
0003d0 24 fe 7d bd 69 36 16 be dc bd a2 be b6 bb 2a bd
       -0.062009946 -0.14669193 -0.31785476 -0.04168292
0003e0 cb 9f ca be d4 a3 ec bd 11 23 19 be 31 c0 0b be
       -0.39575037 -0.11554685 -0.14954783 -0.13647534
0003f0 1b 30 9d bd 74 a5 42 bd bd 9c 08 bf 93 9f ca bd
       -0.07675191 -0.04752107 -0.53364164 -0.098937176
