21-A3C-Pong/runs/BreakoutNoFrameskip-v4/2022-11-03_16-23_Second80MSteps_OK/model_sam_BreakoutDeterministic-v4_conv.54.tar (torch, 944955 bytes, 13 tensors)

conv1.weight f4 [32, 4, 3, 3]
000000 a5 c4 2b 3e 1e ee 02 bf 4a 6e 5e be 0c 25 2b 3e
       0.16774233 -0.5114459 -0.2172176 0.16713351
000010 cd 5d 4b be 7a 2c 8a 3e e8 95 11 3e 69 f6 45 3e
       -0.19860001 0.26987058 0.14217341 0.1933228
000020 75 52 43 3e fb 45 c2 3d 86 05 13 3d 62 2b 3e 3b
       0.19074424 0.09486004 0.03589394 0.0029017557
000030 ea c5 35 3e b9 b6 b6 bd 37 22 c4 3d d3 97 e2 3d
       0.1775128 -0.0892157 0.095768385 0.110641144
000040 72 35 eb 3d 1b 42 80 3e 99 5f 09 3e fd 9b 4c 3e
       0.11484803 0.25050434 0.13415374 0.1998138
000050 a9 f2 57 3e de 4a 9f be 51 11 2e bc 5b 07 3c 3e
       0.21088661 -0.31111807 -0.010624246 0.18362181
000060 37 09 cb bc 8e 07 1f be 53 ea 1c 3d 15 fc d8 bb
       -0.024784667 -0.15530226 0.038309406 -0.0066218474
000070 90 72 86 be 08 1f 13 3e 3f 60 8b be 69 c5 1f be
       -0.2625928 0.14367306 -0.27221867 -0.1560265
000080 25 bf 1f 3e 68 c0 63 be 88 29 f3 be ad 98 4b be
       0.1560026 -0.22241366 -0.47492623 -0.1988246
000090 9b eb 30 3e 14 f8 cd bd 51 55 e6 bd a0 5d f6 3c
       0.17277376 -0.10057083 -0.112467416 0.03007394
0000a0 12 d8 fd 3e eb a9 8f be 74 ff b1 3e 24 1c be 3e
       0.4957891 -0.28059325 0.34765208 0.37130845
0000b0 d1 de de be 68 64 ec 3d 73 89 24 3e f0 2b 9e bd
       -0.4352937 0.115425885 0.16068058 -0.07723224
0000c0 fb ee 4d 3d 8a 32 fe 3e bf 14 a9 be 3c ba 6e 3d
       0.050276738 0.49647933 -0.3302364 0.058283076
0000d0 22 72 ec 3e e9 f6 87 be 04 f3 f4 3d 8a ef 65 3e
       0.46180826 -0.26555565 0.11960414 0.22454658
0000e0 0b 4c c8 bd e0 d8 4d be 81 ff fa 3e e4 a3 c4 bc
       -0.09780129 -0.20102262 0.4902306 -0.02400393
0000f0 3f 98 6e be 8b 97 b9 3e bc 20 e7 bc 18 1f 56 bb
       -0.23300265 0.3624843 -0.028213851 -0.0032672342
000100 0e 74 9e be 98 15 31 be 00 e1 99 be 93 3f fd bd
       -0.30947918 -0.17293394 -0.30054474 -0.123656414
000110 da fd 8b be 89 d2 8f be dd 2a ec bd 95 ba 4a be
       -0.2734211 -0.28090313 -0.11531613 -0.19797738
000120 25 0d a5 3d 17 ce 74 3d 1c ee 06 bd df 59 dc 3d
       0.08059148 0.059766855 -0.032941923 0.10759329
000130 32 a6 52 3d 2e e2 c4 bd b9 b1 d6 bd de 04 6a 3e
       0.051428027 -0.09613453 -0.10483117 0.22853419
000140 f7 6f 8e bd fc 9e 00 3e 26 d4 e5 3c 89 2d 53 be
       -0.06954949 0.12560648 0.028055262 -0.20622839
000150 ff 9a d8 3e 64 ca 79 be 20 6c 12 bf c6 34 e0 3d
       0.42305753 -0.24393612 -0.57196236 0.10947566
000160 6b 30 54 bd 40 63 79 ba 3f 54 77 3e 82 3d 61 be
       -0.051803987 -0.00095133856 0.24153231 -0.2199612
000170 24 1d 2f be ae 70 ff 3e d3 34 70 be 59 38 04 bf
       -0.1710096 0.49890655 -0.23457651 -0.5164848
000180 95 3b 02 3e 79 69 b4 3d bc f9 6a be 78 1c d4 3d
       0.12718041 0.0880918 -0.22946829 0.103569925
000190 eb 4d bc 3d 6d bf 39 be 5d c8 8f 3e 78 5b 03 3e
       0.09194549 -0.1813943 0.28082553 0.12827861
0001a0 46 fc 6a be e2 1d 05 be f7 04 80 3e 14 51 58 bd
       -0.22947797 -0.1299968 0.25003788 -0.052811697
0001b0 b7 60 bb 3e 46 23 35 3e aa 25 4d 3e 6e 2b b4 3e
       0.36597225 0.17689237 0.20033899 0.35189384
0001c0 11 93 19 3f 8d e6 85 3d 64 5b 3c 3e 0c 89 d9 3e
       0.5999003 0.06538115 0.18394238 0.4248737
0001d0 66 50 15 3e cc 89 e2 3d a8 61 24 be 2c a3 28 bc
       0.14581451 0.11061439 -0.16052878 -0.010292809
0001e0 94 89 fb bc 67 a7 96 3e ef 7c ba 3e d9 3e 75 bd
       -0.03070525 0.29424593 0.36423442 -0.05987439
0001f0 1e 06 53 3e b5 01 50 3c 48 f0 97 be 36 1a b7 be
       0.20607802 0.0126957195 -0.29675508 -0.35762185
000200 61 31 fc 3d 95 b4 e8 bd da 02 b0 be 33 7d bc bd
       0.12314106 -0.11362568 -0.34377176 -0.09203567
000210 a7 96 8f 3c 4d 50 2b bd 54 ff 06 bd ab f6 21 3c
       0.017527891 -0.041824628 -0.032958344 0.00988547
000220 11 ed 39 be ae 39 9f bb 29 c5 b4 be a1 f1 fb be
       -0.1815684 -0.004859171 -0.3530667 -0.49207786
000230 6a 94 8a be df 4b 38 be 76 ff cb be cd ed 4d be
       -0.27066356 -0.17997693 -0.3984334 -0.20110245
000240 54 4b 82 3d 21 8d 1c bd f1 5b b8 b8 7f 03 48 3e
       0.06362024 -0.03822053 -8.790929e-05 0.19532584
000250 74 3c f3 3e b7 c3 8f 3e cb 47 1b bc 83 f4 60 3e
       0.4750706 0.28079006 -0.009477566 0.21968274
000260 ac 9a 36 3e 2e d5 1e be 7c ba 20 bf d6 63 ae be
       0.1783244 -0.15511009 -0.6278455 -0.34060544
000270 78 7e e7 be 31 b7 f1 be 50 77 c5 be 76 f3 1d be
       -0.45213675 -0.47210076 -0.3856759 -0.15424904
000280 af 3f 9a be e0 6b 61 bd 25 2b 19 3e 01 2f 32 3e
       -0.30126712 -0.05503452 0.14957865 0.17400743
000290 8e 6f c5 bb ab 6a 32 be 46 5f 95 be 4c 67 11 be
       -0.0060252612 -0.17423503 -0.2917425 -0.14199561
0002a0 65 f6 fd bd 4b e2 9e be 3d c5 f3 bd 8d 97 67 3e
       -0.12400512 -0.31032023 -0.119028546 0.22616406
0002b0 17 12 c3 3e f6 0f 09 3e a2 d2 50 3e 7f 4e 14 3f
       0.3809974 0.13384995 0.2039285 0.57932276
0002c0 13 fb a0 3e b5 9a 58 3e 71 07 9d 3d f6 22 93 3e
       0.31441554 0.21152766 0.07667435 0.2873761
0002d0 15 25 9a bd a3 c7 5f be 86 26 46 be 8d df c5 be
       -0.07526604 -0.21853499 -0.19350633 -0.38647118
0002e0 98 84 e5 be a4 58 a7 3c 2c e3 eb be 7d 4e ce be
       -0.44827724 0.02042801 -0.46071756 -0.40294257
0002f0 43 3e 89 bd 2a 45 8e 3d e5 a7 ed 3d 80 48 59 bd
       -0.067013286 0.06946786 0.11604289 -0.053047657
000300 17 4d d2 bc 83 c5 16 3e 63 e6 03 3e e5 2b 4c be
       -0.025671525 0.14723782 0.12880854 -0.1993862
000310 a1 c4 3d bd b8 55 47 3d 7a 78 91 3e e2 16 20 be
       -0.046330098 0.048665732 0.2841223 -0.15633729
000320 04 3b 7f bd d1 52 f8 3d c8 12 b8 3e 04 8b 53 3d
       -0.06231214 0.12125171 0.3595183 0.051646248
000330 57 c3 8d 3e 66 c2 19 3e 6b 67 09 bc 74 d5 e0 3d
       0.27688095 0.15015563 -0.008386473 0.10978213
000340 67 7e fb 3d 7c 7a d0 3c 54 7c 76 3c 8c b8 19 3e
       0.12279969 0.02544903 0.015044291 0.15011805
000350 ea bd 2b be 72 06 53 3e e5 6c 89 3e 95 e3 5e 3e
       -0.16771665 0.20607927 0.26840892 0.21766503
000360 4e 41 21 3e 95 ed 5f bd 62 dd c7 3c b2 06 44 3e
       0.15747568 -0.054669935 0.024397556 0.19143179
000370 08 45 bd bd a5 51 42 bd ff 34 e5 bd e2 25 66 bc
       -0.09241682 -0.047441144 -0.11191749 -0.014047118
000380 6a 29 81 bd 44 95 b2 3d 65 fe e0 3e 4c 89 89 3e
       -0.06306727 0.087198764 0.43944088 0.26862562
000390 32 57 02 3f 38 ff 52 3f 6c 90 20 3d d5 65 ac bd
       0.509143 0.8242068 0.03920023 -0.084178604
0003a0 c5 0f a1 3e cb 91 13 be c2 7d 6b be 70 f2 23 bb
       0.31457344 -0.14411084 -0.22997192 -0.002501633
0003b0 25 98 66 be 39 af 4f 3e 1d 44 b7 3e aa 27 e4 be
       -0.22518976 0.20281686 0.35794154 -0.4456151
0003c0 bd ff f4 bd 15 8d 5e 3e 23 74 24 bd 29 dc 84 be
       -0.11962841 0.21733506 -0.04014982 -0.2594922
0003d0 e0 02 98 be b6 21 11 be 74 7e e7 be fd cc fe be
       -0.29689693 -0.14173016 -0.45213664 -0.4976577
0003e0 d3 d6 d5 be 10 28 b2 3d e2 47 15 3d da 70 ca bd
       -0.4176546 0.086990476 0.036445506 -0.09884806
0003f0 56 ca f1 3d c6 e5 51 3e 4f 29 87 3e c5 93 f4 3c
       0.11806171 0.20497808 0.26398703 0.029855618

conv1.bias f4 [32]
000000 f0 28 2e 3c a5 3d 59 3b 0c 82 5a 3a 90 e0 40 3b
       0.010629877 0.0033148315 0.00083354185 0.0029430725
000010 60 b0 2c bb c1 0e 00 3a 75 51 ef 3b 34 da a1 3b
       -0.0026350245 0.0004885011 0.0073034116 0.004939342
000020 f2 56 80 3b ba 25 f3 3b fd 5c e1 38 e6 6b b0 bb
       0.0039166147 0.007420269 0.000107461565 -0.0053839562
000030 4e df 07 3a 68 95 93 ba 02 c3 41 b8 32 00 8b 3b
       0.00051831163 -0.0011259736 -4.61964e-05 0.0042419666
000040 8d 67 ad 3a 2e cf f1 3b 80 b7 b6 3b 36 e2 05 3b
       0.0013229713 0.007379434 0.005576074 0.0020429022
000050 c9 d6 22 bc a9 0f d6 39 71 ab 15 bb 25 68 a7 bb
       -0.009938904 0.00040828928 -0.0022837783 -0.0051088505
000060 16 9b 01 3b 95 95 98 3b 7c c1 8f b8 3e 66 df 3b
       0.0019776276 0.0046565034 -6.8548106e-05 0.006817608
000070 7e e2 e9 3b 91 d9 79 3c 7e ae a1 ba 73 6c 77 39
       0.0071375957 0.015249626 -0.0012335328 0.00023596156

conv2.weight f4 [32, 32, 3, 3]
000000 53 be 5b 3e 57 cc ad bd 42 fd 18 3e d0 93 e4 bd
       0.21459322 -0.0848624 0.1494036 -0.111610055
000010 50 54 f2 3d f2 18 81 3e 4d a6 35 bd a1 8d a6 3d
       0.118324876 0.25214344 -0.04434805 0.08132482
000020 78 df 65 be f7 ab 54 3e 44 45 b8 be 7c 0c 1b 3e
       -0.22448528 0.20768724 -0.35990345 0.15141481
000030 41 42 46 3e 65 c9 54 be 0d b6 29 3e f9 37 d8 bd
       0.19361211 -0.20779951 0.16573353 -0.10557551
000040 91 e4 03 3e 92 6e 1b bd b5 d7 5c bd a0 6a 31 3d
       0.1288016 -0.037947245 -0.05391665 0.043314576
000050 a6 01 24 bd be cb 21 3e 41 fd 36 3d c7 e5 0d bf
       -0.040040635 0.15800378 0.044675115 -0.5542874
000060 04 5d fe bd 50 d8 01 3c 3a f4 a6 3e 04 64 4d 3e
       -0.12420085 0.007925108 0.32608205 0.20057684
000070 ad 44 aa bd af fb 21 3e b5 09 3b 3e b9 21 ea 3d
       -0.0831388 0.15818666 0.18265422 0.11432213
000080 e9 b6 ab 3e aa 28 b8 3d c8 d7 45 3e 61 6d 8d be
       0.33537987 0.08992131 0.19320595 -0.27622512
000090 36 e0 bf bd e8 4f 02 bd c5 6b 63 be 68 c0 49 bd
       -0.09368937 -0.031814486 -0.2220908 -0.04925576
0000a0 00 05 37 be d4 9e 42 be 9a 25 85 3c d1 af f0 3c
       -0.17873001 -0.190059 0.016253281 0.02938071
0000b0 ea 04 b2 bd 87 31 9e be 2b 11 34 3e 9c b6 f3 bd
       -0.086923435 -0.3089716 0.17584674 -0.11900064
0000c0 9e 1d e6 3c ac 8f 9e 3c 1a 58 fd 3d 0d cb 8b 3d
       0.028090294 0.019355617 0.1237032 0.06825838
0000d0 7b b9 89 3d cc cf 45 be c8 c9 79 3d c3 e0 19 be
       0.06724831 -0.1931755 0.06098345 -0.15027146
0000e0 81 dd 15 3e e3 5d 80 3e 94 74 18 bd 74 a1 6e 3e
       0.14635278 0.2507163 -0.037220553 0.23303777
0000f0 d5 1d 23 be 9c 73 91 bd dd d0 b4 bd 00 c4 30 be
       -0.15929349 -0.07102129 -0.088289 -0.17262268
000100 fe 4e 05 3e db 98 7e 3e 0c 80 5a be 01 93 61 3e
       0.13018414 0.24862997 -0.21337909 0.22028734
000110 73 48 54 3e 0c 3e 43 bd 47 ee c2 3d a6 cc 49 be
       0.20730762 -0.047666594 0.09518104 -0.19706973
000120 dc d0 52 bd 9e 36 49 bb a0 f3 ba 3c d0 9f 71 be
       -0.051468715 -0.003070272 0.022821248 -0.2359612
000130 14 46 f1 bd 5c e6 62 3e 2d ce 37 3d bc 6a 6b bd
       -0.117809445 0.22158188 0.04487436 -0.057474837
000140 9b ef d4 3c 6d 65 d8 bc 65 9e c3 3d 34 91 95 be
       0.025993159 -0.026415551 0.09551696 -0.29212344
000150 ce d7 78 be 7a a8 7f be 0b 23 fd be 2e a6 bc bc
       -0.24301073 -0.24966612 -0.49440798 -0.02302846
000160 1c f4 09 3c 98 73 d9 3e ff 52 93 bd f1 47 20 be
       0.008420017 0.42471004 -0.071935646 -0.15652443
000170 25 fa 86 3d 7b 1e 09 be c9 55 c7 3d 2b 45 8b bd
       0.0659068 -0.13390534 0.09733159 -0.06800302
000180 c7 dc e3 bc fe 0d 45 3e 8a 3e b8 bd cd c1 e5 bd
       -0.027815236 0.19243619 -0.089963034 -0.11218605
000190 af bd 9d 3d 26 4d fc 3d c8 59 44 3d 87 f7 b8 3d
       0.07702195 0.123194024 0.047937185 0.09031587
0001a0 67 22 f2 be 78 98 83 bd 4f 60 23 3e 10 97 ac bc
       -0.47291872 -0.064255655 0.15954708 -0.021068126
0001b0 0a 67 c5 3d 53 a1 8c bc 09 73 1b 3e 60 8d 20 3d
       0.09638794 -0.01716677 0.15180601 0.039197326
0001c0 dd 8e 36 3d a6 76 8a 3e 7b 7a 9f bd 6b 1e 0a bc
       0.04456984 0.27043647 -0.07787033 -0.008430104
0001d0 bd f2 ae 3d 2a dc 4b 3e 1c bc 85 3e 8a 9f 8c 3e
       0.085423924 0.19908205 0.2612008 0.2746547
0001e0 55 b7 55 bd 7c ea 27 be 86 d8 9a 3e 4a 8f 96 3b
       -0.052176792 -0.16398042 0.3024332 0.004594718
0001f0 54 40 39 be e2 18 73 bd 79 06 50 3e 93 42 ec 3c
       -0.18090945 -0.059349902 0.20314969 0.028840339
000200 3a 81 70 be 2f 35 72 3d 04 84 f8 3c e1 df 57 be
       -0.23486796 0.05913275 0.030336387 -0.21081497
000210 f1 03 c2 bd 8a e8 ea 3d e0 9e b0 3d 6b 5b 20 3e
       -0.09473408 0.114701346 0.08624053 0.15659873
000220 d2 77 2c bd b2 1a 0d 3d 19 0c 89 3d 42 8e 86 3d
       -0.042106457 0.034449287 0.066917606 0.06570102
000230 df ce 32 be 8d 47 ec 3d ec 59 53 bd 1f 8b cf bd
       -0.17461728 0.11537085 -0.051599428 -0.10133957
000240 4c 7f 36 be 14 c0 0e 3c 7c d1 23 bc 9c c3 9d 3d
       -0.17821997 0.008712787 -0.009998675 0.07703325
000250 66 d4 77 be f2 15 ec 3d 06 fb 42 3c 2b 3d 11 3e
       -0.24202117 0.11527623 0.011900669 0.1418349
000260 05 51 9f bd 51 fd 42 3d 18 1e 0f 3d cc ce 0e 3e
       -0.07779125 0.047604863 0.03494081 0.13946074
000270 5b 04 5b bd ec 5a bf 3c 93 5c 6f 3d 46 41 92 bc
       -0.05347095 0.023358785 0.058437895 -0.01785339
000280 82 b7 7d be 40 76 83 3c 1e 5e a1 3e 2b 1e 04 bc
       -0.24777034 0.016047597 0.31517118 -0.008063833
000290 49 a7 00 bd 25 9c 9b 3d 04 73 e3 bd d2 11 89 bd
       -0.031409536 0.075981416 -0.11105922 -0.06692852
0002a0 5f 84 91 be ca 1b 8b 3c c5 0f 71 ba c1 b1 c5 3b
       -0.28421304 0.016981024 -0.000919577 0.006033153
0002b0 b8 f6 16 3c ed 42 8c be a4 dd a1 3c 2a 13 91 3d
       0.009214096 -0.2739481 0.019759007 0.070837334
0002c0 a9 4d b5 be 08 6f 46 bd e2 15 7b 3d 69 9d 76 3e
       -0.35410812 -0.04844573 0.061300166 0.24083485
0002d0 72 92 4a 3d e9 91 74 3d 15 d3 2f 3e 63 59 54 be
       0.049456067 0.059709463 0.17170365 -0.20737223
0002e0 3e b9 17 3e 81 95 1d 3f ad eb 84 bd cc 9c a8 3d
       0.14816758 0.6155625 -0.06490264 0.08233032
0002f0 85 5f 8a be 06 24 38 3e 45 ae a1 3d 74 2c 59 3e
       -0.27026 0.17982492 0.078945674 0.21208364
000300 11 b2 42 3e 3e 76 24 3e e2 71 9f 3c 85 38 d1 bd
       0.1901324 0.16060731 0.019463483 -0.10215858
000310 4a a7 d8 bc 05 e6 a0 3d 78 a8 d7 3d 5a ce b6 bc
       -0.026446957 0.07856373 0.1053018 -0.022315193
000320 b2 bc 7d 3d 29 4d c3 be 5e ec 58 3e 23 12 32 3e
       0.061947532 -0.38144806 0.21183917 0.17389731
000330 90 0e 92 3d 81 77 61 bc 58 10 81 bc 36 ae 32 3d
       0.07131684 -0.013761402 -0.015754864 0.04362317
000340 bd 8d 34 be b1 55 28 3e c3 15 5e be 02 85 d3 3e
       -0.17632194 0.16438939 -0.21687989 0.41312414
000350 a3 64 ad be 90 9a 54 bd c9 1f 38 be 5b 5b ac 3e
       -0.33865842 -0.051905215 -0.17980875 0.3366345
000360 da d4 2e be 5e 77 0a 3d 05 7f b0 bd ae f2 6b 3d
       -0.17073384 0.033805244 -0.08617977 0.057604484
000370 c8 2d e3 3d 25 e1 19 3e 4b f4 04 3e ac 1e 9e bd
       0.110927165 0.15027292 0.12983815 -0.07720694
000380 84 f8 71 bd 1a 89 85 3e 21 26 ef 3e 22 22 a8 bc
       -0.059074894 0.26081163 0.46708778 -0.020524088
000390 22 5c 97 be cc a5 33 3e 93 e5 b5 bd 61 60 be bc
       -0.2956248 0.17543715 -0.088816784 -0.023239316
0003a0 98 65 f2 bc 24 19 24 be 03 25 65 bd a3 0e 01 be
       -0.02958946 -0.16025215 -0.0559435 -0.1260324
0003b0 d0 89 46 be 7e b7 9e be 36 94 cc bc 95 58 42 3e
       -0.19388509 -0.30999368 -0.024973016 0.18979104
0003c0 44 39 ac 3d d5 da e4 3d 7d 8a 44 be b7 2c 2d 3d
       0.0840936 0.111745514 -0.19193454 0.04227897
0003d0 d6 cd b8 3d 05 99 15 bd af bb 27 be d1 37 8f 3e
       0.09023635 -0.036522884 -0.1638019 0.27972272
0003e0 bd f6 d2 3e d7 ef 95 bc 69 b4 3d 3e a1 c8 56 be
       0.4120387 -0.018302841 0.18525852 -0.20974971
0003f0 86 da 2f 3c 31 af 43 be 45 7d fe 3c 89 9d 51 bd
       0.010733252 -0.19109799 0.031065593 -0.051175628

conv2.bias f4 [32]
000000 b8 b6 3e bc ff f1 2f be 37 88 33 bc 3d 32 15 bd
       -0.011640243 -0.17182158 -0.010957769 -0.036424864
000010 a3 7d 44 bd 13 40 ec bc 95 67 d7 bc b8 b4 8b bd
       -0.04797138 -0.028839147 -0.026294509 -0.06821579
000020 06 7d d9 bd 1d 30 17 be d1 b1 d9 bb 4a 4f 46 3c
       -0.106195495 -0.14764448 -0.006643512 0.012103865
000030 91 16 2c bc 72 53 df bd 9e 3e b4 bc dc b7 4c 3c
       -0.010503427 -0.10904588 -0.022002514 0.012495007
000040 77 74 49 3c da 29 ce bc a7 76 1d bd 7c 5d de bd
       0.012295834 -0.02516644 -0.038443234 -0.108576745
000050 6f 1c 6b be ee ec 0b bc 71 c3 d9 3b a4 7e 60 bd
       -0.22960065 -0.008540375 0.006645613 -0.054808274
000060 b9 8f d5 bd 75 d3 8f 3c 91 d7 68 bc b7 70 57 3b
       -0.104278035 0.017556885 -0.014211551 0.003287358
000070 c6 90 50 bb 43 69 66 bd 11 44 58 bd a9 c2 30 be
       -0.0031824573 -0.05625273 -0.05279929 -0.17261757

conv3.weight f4 [32, 32, 3, 3]
000000 4b 51 7d bd bd a4 28 be 1d b9 7d be 2a 8c 3f bd
       -0.061845105 -0.16469093 -0.24777646 -0.04676453
000010 ef 85 48 3d c7 f6 a2 3d f4 0c 70 bd d3 8c 0a 3e
       0.048955854 0.07957225 -0.058606103 0.13530283
000020 66 b5 68 bb 79 01 59 bd ee 7a 84 3d a2 9f 10 3e
       -0.0035508513 -0.05297992 0.064687595 0.14123395
000030 ac 15 6a 3d 7d 95 8e be 86 fc b8 be 00 60 76 bd
       0.057149574 -0.27848426 -0.3613016 -0.060150146
000040 81 77 81 bd a5 d3 3c bd df df ac 3c 2b 04 96 3d
       -0.06321622 -0.046100277 0.021102844 0.07325014
000050 06 54 18 3d 29 43 a6 3d 58 ec 83 bd e4 af 34 be
       0.037189506 0.081182785 -0.06441563 -0.17645222
000060 b2 5b 70 3d 20 d6 da bd c7 74 ab 3d 6d f9 d2 3c
       0.058681197 -0.10685372 0.08371883 0.025753701
000070 bb 2d bc bc aa f8 c6 3c ea 0a 84 bd 64 24 11 3d
       -0.022971025 0.024288494 -0.06447394 0.035435095
000080 b8 83 1d be e3 0e 3c 3e 2c 7f e0 bd d5 b8 21 3e
       -0.15382278 0.18365054 -0.10961756 0.15793164
000090 2d f1 14 3e dc 6e 8d bd 42 f8 9a 3d a9 5e 8d 3d
       0.14545126 -0.069059104 0.07566883 0.069028206
0000a0 b8 fb dc 3c 5b 8f c6 bc 49 95 42 3d 6c 1e 11 3e
       0.026975498 -0.02423828 0.04750565 0.14171761
0000b0 df e8 30 3e a0 5f c0 3d 3d e2 a7 3b 8b 37 37 3e
       0.17276333 0.09393239 0.0051234053 0.17892282
0000c0 3e ff e8 3d c6 8f 08 3e c0 bd 8e bc 31 34 64 bc
       0.113768086 0.13336095 -0.017424464 -0.013928459
0000d0 76 31 1a bd 18 fb e9 3d b7 4e c5 3d 49 12 2f 3e
       -0.037644826 0.114248455 0.09634154 0.17096819
0000e0 25 3e f1 bc 3b 4d 90 bd 84 ed 94 3e 59 7b 16 3e
       -0.029448578 -0.070459805 0.2908746 0.14695491
0000f0 12 60 8f 3c 13 e0 73 be 44 c1 83 3d 54 cc 97 3d
       0.017501865 -0.23815946 0.06433347 0.07412019
000100 12 60 c5 37 ae 03 c2 3d ac 21 06 3d 86 fe be 3d
       2.3528966e-05 0.09473358 0.032746956 0.0932589
000110 af 02 8a 3e 7d 96 8a bd f9 09 f9 3d 51 d8 05 be
       0.26955172 -0.067669846 0.12160105 -0.130708
000120 d6 b4 52 3d 7a 64 09 3e f4 73 52 bd a4 f7 00 bd
       0.05144199 0.13417235 -0.051380113 -0.03148617
000130 d1 6d 59 3e 24 6d 82 3e 5f b3 9c be 01 79 3f bc
       0.21233298 0.25473893 -0.306056 -0.011686564
000140 8c 25 2d be 8c 20 12 be de a8 38 3d fb 62 b7 3b
       -0.16908854 -0.14270228 0.04508292 0.005596516
000150 35 6f c5 bd 9b 51 b1 bd 5b d9 b1 bd 57 9e 00 3e
       -0.09640352 -0.08658143 -0.086840354 0.12560402
000160 fa dc 8b bd 41 c1 8f 3e cb c3 8b bd 8c e3 09 3d
       -0.06829257 0.2807713 -0.06824454 0.03366427
000170 9e a9 a9 3c f7 03 c2 3d 39 b9 ab bd 2d ae 6a bd
       0.020710763 0.094734125 -0.08384938 -0.057295013
000180 02 b9 cc bd de 13 ef bd 4d 3a 18 be 28 d0 eb 3d
       -0.09996225 -0.11673711 -0.1486599 0.11514312
000190 6f f2 e9 3d 1b ec 56 3e f8 b7 ec 3c 2a 35 30 3e
       0.11423194 0.20988505 0.028896317 0.1720778
0001a0 dd 7c c5 3b 59 1e 44 be a4 af 16 be 7d 5e 0a bd
       0.0060268478 -0.19152202 -0.14715439 -0.033781517
0001b0 9e 3d 2f be 33 07 cc 3d 8d c9 a6 3c 8a 8f 3c 3e
       -0.17113349 0.09962311 0.020359779 0.18414131
0001c0 c0 06 0e 3e 2b 56 b0 3e d7 96 e3 bd 48 32 06 be
       0.13869762 0.3444074 -0.11112755 -0.13105118
0001d0 69 3a ec bd 54 e5 f7 bd 3c b8 26 bd 2e c6 86 bd
       -0.11534578 -0.12104288 -0.040703043 -0.065807685
0001e0 c4 58 38 3e b7 5b 10 bd 1a 16 53 3e 2e 96 aa 3c
       0.18002611 -0.035243716 0.206139 0.020823564
0001f0 f2 ba ce 3d 76 a7 7f bd 9f 19 a4 bd b4 e1 88 bd
       0.10094251 -0.062415563 -0.08012699 -0.066836745
000200 7a 66 7b bc cb b6 01 3e d7 9f 86 3d 59 1e 02 be
       -0.015344257 0.12667386 0.06573456 -0.12706889
000210 85 50 90 3d 24 4d 56 be df 5c b7 3d e5 89 96 3c
       0.07046608 -0.20927864 0.08953261 0.0183763
000220 d1 8e 13 3e 9b 32 07 bd ac 8f ce bc 97 85 b1 be
       0.14409949 -0.033007246 -0.025214992 -0.34672233
000230 22 40 cf 3c 2f ec 91 bd 42 d6 8c be 17 fe 02 be
       0.025299136 -0.071251266 -0.27507216 -0.1279224
000240 85 fd c9 bc e0 4b 1d 3e 72 67 af 3d 6d 26 23 be
       -0.02465702 0.15360975 0.085646525 -0.15932627
000250 21 fe 02 3e ce e5 b6 3e 51 0d d7 bd 9e 30 8e bd
       0.12792255 0.35722202 -0.10500587 -0.06942867
000260 07 77 51 be 13 16 84 bd f5 18 36 be 06 45 8b 3d
       -0.20455562 -0.06449523 -0.17782958 0.068002746
000270 2b 5b 77 3d 11 07 0e be 6c 1c 03 3e 9f 3c dc 3c
       0.06038968 -0.13869883 0.12803811 0.026884375
000280 a2 a7 b9 3e 1b e6 90 3d eb 57 7b 3d 68 d7 c2 3d
       0.36260706 0.07075139 0.061363142 0.09513742
000290 5b 40 74 be 3a 45 e9 bd 4e 60 2c be b5 78 02 3a
       -0.23852675 -0.11390157 -0.16833612 0.0004977093
0002a0 c2 67 02 bc fd 60 4f 3e f0 85 e4 3d f7 58 aa 3d
       -0.007959308 0.20251842 0.11158359 0.0831775
0002b0 42 32 1a 3e 42 24 f4 3d 5d 4e eb bd 8b 71 f2 3d
       0.15058234 0.11920978 -0.11489556 0.11838063
0002c0 5f 31 46 3c 6c 8f 5c bd 6e 85 dd be 26 4b 16 be
       0.012096732 -0.053847715 -0.4326586 -0.14677104
0002d0 1d 32 23 bd ce 9b a7 bd 95 c6 32 be de 23 eb bd
       -0.039842714 -0.08184014 -0.17458566 -0.114814505
0002e0 0a dd 92 3d 3a 83 09 3e 81 45 db 3c 41 8c 8f 3d
       0.07171066 0.13428965 0.02676654 0.07009173
0002f0 8e 39 73 3d 32 c9 19 bd eb d5 a4 bb fc 52 0b 3e
       0.05938106 -0.03754539 -0.005030384 0.13605875
000300 14 23 5d 3c 54 e3 1c be c0 ca e4 3c 7c a6 c0 3d
       0.013497133 -0.15321094 0.02792871 0.094067544
000310 f2 07 82 3e fd 70 25 be 9e 5b 9c bd 44 31 df bd
       0.25396687 -0.16156383 -0.07634662 -0.108980685
000320 d2 f9 3d 3d 92 1e eb 3d 0b 7a a5 3e ba df 30 3e
       0.046380825 0.1148044 0.32319674 0.17272845
000330 73 ae 63 be a0 6c 4e 3d 2a ee 3a be 70 d6 a1 bd
       -0.22234516 0.05039656 -0.18254915 -0.07902229
000340 5f 8a 1a bd 9b d7 95 3d c6 55 c4 3d 2f f2 bf bd
       -0.037729617 0.07316514 0.095866725 -0.09372365
000350 0b 70 36 3e cc 90 d9 3d 30 17 63 3e 74 08 e3 3d
       0.17816179 0.10623321 0.22176814 0.11085597
000360 bf aa 21 3e e3 59 81 3d 16 57 17 3e c2 a1 0a be
       0.1578779 0.06315973 0.14779314 -0.13538268
000370 41 1c 14 bd 7c c9 6b bc 79 8f 52 be 3a 93 2d be
       -0.036159758 -0.014391299 -0.20562543 -0.16950694
000380 4d 7d 53 be 52 79 89 bd 15 63 fb 3d 6c 2e 78 3c
       -0.20653267 -0.06712593 0.12274758 0.015147787
000390 58 59 09 3e 35 97 e6 bd 72 a7 c7 3e a7 67 a0 be
       0.13412988 -0.11259309 0.38994938 -0.3132908
0003a0 f1 94 2b 3e db d1 f2 be ca be 34 3b e3 87 9a 3d
       0.16756035 -0.47425732 0.002757954 0.075454496
0003b0 86 c6 a5 3c 3c 8e 66 3e e6 f1 a3 3c 92 a2 d0 bd
       0.020236265 0.22515196 0.020012807 -0.10187258
0003c0 96 5e a9 bd eb 18 22 3e e9 36 1b be 26 5b 96 3d
       -0.08269994 0.15829818 -0.15157665 0.07341604
0003d0 ec 74 00 3e 56 0c 06 3e 62 02 c2 bd c3 40 31 3d
       0.12544602 0.13090643 -0.09473111 0.043274652
0003e0 05 aa d7 3d 97 83 94 bd 5c bd b2 be 1d a1 43 bd
       0.105304755 -0.07251661 -0.34910095 -0.04776107
0003f0 9e 6d 15 3e 89 05 9c 3e 2b 84 a6 3e cd a0 14 be
       0.14592597 0.30472973 0.3252271 -0.14514466

conv3.bias f4 [32]
000000 8d 0b 1d 3c 4e f4 d1 bd cc 3e 61 3d 30 f9 7a 3d
       0.009585273 -0.102516755 0.05499153 0.0612728
000010 cf 87 17 3a 07 a3 e3 bd ae ec 1f 3e 66 71 8a bb
       0.000578043 -0.111150794 0.1561763 -0.004224944
000020 52 b6 4d be 65 2b 0d 3e ae 95 e7 bd cb 12 8e 3d
       -0.20089081 0.13786085 -0.11307846 0.06937178
000030 89 18 76 3d 14 25 b1 3d 94 6f 50 be 67 af 0f bd
       0.060081992 0.0864965 -0.20355064 -0.035079386
000040 b0 17 18 3e f4 79 0a bc 76 0a c2 3c 06 fe 72 bd
       0.14852786 -0.008451927 0.023686629 -0.059324287
000050 58 4e 52 bd 58 df 04 3e 7a a6 a5 bd c5 bb 60 3d
       -0.051344246 0.12975824 -0.080883935 0.05486657
000060 95 56 aa bd cd 58 b0 bd be 8c d6 3c 10 51 06 3e
       -0.083172955 -0.086106874 0.026190158 0.1311686
000070 98 12 cf bd 81 0d ee bd 31 c4 80 3d fe 62 bc 3d
       -0.10110968 -0.116236694 0.062874205 0.09198569

conv4.weight f4 [32, 32, 3, 3]
000000 3f 7e b2 bd c3 c8 76 3d de 56 cb 3c 11 af c0 3c
       -0.08715486 0.060250055 0.024821695 0.023520978
000010 87 41 b3 3c 18 6f e1 bd 1f 4a 5e bd 4a 37 f6 bd
       0.021881832 -0.110075176 -0.054269906 -0.12022264
000020 d9 44 b4 3b 67 07 a9 bd cd d5 05 3d cc 4d 8a bd
       0.0055013713 -0.08253365 0.0326746 -0.0675312
000030 78 d1 e4 bd 6a 53 37 3e 6d 93 e0 3d de e4 92 3d
       -0.111727655 0.17902914 0.10965619 0.07172559
000040 d5 dd de 3c f9 08 e6 bd e9 c7 a7 bc db b7 08 3c
       0.027205387 -0.1123218 -0.020481067 0.008344616
000050 a8 1d b7 3c b3 ed 0f bd f9 b0 85 bd c4 62 b7 bd
       0.022353008 -0.035138797 -0.065278955 -0.08954385
000060 c3 e1 fc bb 41 94 9f bc 5f 9c 80 3d ff f9 9d 3c
       -0.0077173426 -0.019479873 0.062798254 0.019284246
000070 65 72 50 3d 87 ca 51 be 21 3d 80 3c 02 3e 19 be
       0.050890345 -0.20487414 0.015654149 -0.1496506
000080 b3 4b 04 bc be b0 2f 3b 17 95 61 3e ec d9 8a 3d
       -0.008074689 0.0026808227 0.2202953 0.067798465
000090 52 bd 69 3d 9a a6 e3 3d 4c c8 f5 3d 12 b2 98 bd
       0.057065316 0.11115761 0.12001094 -0.07455839
0000a0 a2 af 59 3e c6 51 1b be a0 a6 3f 3d 2b f8 5a be
       0.21258405 -0.15167913 0.046789765 -0.21383731
0000b0 61 d0 cf bd 52 e5 e7 bd be 18 14 3a 7b df 8d bb
       -0.10147167 -0.11323036 0.0005649439 -0.0043296195
0000c0 a1 d8 cb 3d 5b 63 e4 bd a1 b0 2a 3d 0f d5 21 3d
       0.09953428 -0.11151763 0.041672353 0.03950983
0000d0 54 2d b5 bc 75 ac c0 bd d8 b8 69 bd 81 ba 7a bd
       -0.02211634 -0.094078936 -0.057061046 -0.06121302
0000e0 79 88 47 3e 19 d2 63 3e f9 98 8f 3c 26 8c 63 be
       0.19485654 0.22248115 0.017528998 -0.22221431
0000f0 49 ad 9d be 92 2f 9a bd 4a b5 74 3d 81 ba 8d bd
       -0.3079627 -0.075286046 0.059743203 -0.069203384
000100 69 ee 85 3d f2 43 e6 bd c5 2d 87 bd 80 0c ba 3c
       0.06539614 -0.11243428 -0.06600527 0.022711039
000110 39 a2 a3 bd a5 96 76 bc ad a7 88 bd 1d 40 ef 3c
       -0.07989926 -0.015050565 -0.066726066 0.029205376
000120 39 02 6b 3c dd 7e 19 3e 30 7e 08 be 0e 04 5f 3d
       0.014343792 0.14989801 -0.13329387 0.054447226
000130 c4 30 69 be 96 90 72 bd 10 d1 fd ba e9 7c 19 3e
       -0.22772509 -0.05921992 -0.0019364674 0.14989056
000140 07 e1 b9 3d d5 48 e5 3d b6 26 ca bd ba c4 34 3d
       0.09076124 0.11195532 -0.09870665 0.044132926
000150 d5 9c b0 bd 41 11 90 3d 22 ca 8d bd b9 59 4b bd
       -0.08623663 0.07034541 -0.069233194 -0.049646113
000160 53 5e 72 bb c2 cb 43 3d 5a d9 0d 3e cd be ae bd
       -0.003698249 0.04780174 0.13852444 -0.08532486
000170 f4 2d 8b 3d 7e 45 15 be cc a8 65 3c dc 83 79 3d
       0.06795874 -0.1457729 0.014017295 0.060916767
000180 c7 13 7c bd 85 46 b6 3d 65 0b 48 3d 48 af db 3d
       -0.0615423 0.08900169 0.04883899 0.107267916
000190 6f 90 0f 3d 39 b6 08 be b4 b4 bd bd ed c1 84 bd
       0.035049852 -0.13350762 -0.09262982 -0.06482301
0001a0 a5 67 05 be 1e 5d 00 3d e9 34 24 bd e4 7f 13 bc
       -0.13027819 0.031338803 -0.04008952 -0.0090026595
0001b0 73 77 c0 bd 87 31 88 3b 02 64 34 3e 1a ad 6b bc
       -0.09397783 0.0041562947 0.17616275 -0.014384532
0001c0 08 71 83 bd 29 a1 a1 bd 45 cb d2 bb 23 2a 64 bc
       -0.064180434 -0.07892067 -0.006432923 -0.013926062
0001d0 2e b3 26 bd 1c 9a f3 bc ae b4 18 3c 24 fe 89 bd
       -0.040698223 -0.029736571 0.009320421 -0.067379266
0001e0 5a 7b c3 bd 84 4b 26 3e db ba 1d be 01 2a 88 3c
       -0.09545012 0.16239744 -0.15403311 0.016621592
0001f0 f1 e2 e9 bd 4e ec 2e bc f5 1c 9f bb 74 3d cd 3d
       -0.11420239 -0.010676457 -0.004855747 0.10021487
000200 00 b9 d1 bd bc 29 a0 bd db 8e 12 be b8 5d b1 3d
       -0.10240364 -0.0782046 -0.14312308 0.086604536
000210 86 4b c2 bc a7 cc 9a bd bd 04 6c bd b5 e3 57 bc
       -0.023717653 -0.075585656 -0.057621706 -0.013176848
000220 48 26 29 3e 40 b7 02 be e2 e4 da 3d a7 10 23 bd
       0.1651851 -0.12765217 0.10688187 -0.039810803
000230 ad 9c 0d bd 25 41 5d be 5c ee 9d bc 70 36 8a 3d
       -0.034573246 -0.21606882 -0.019278698 0.067486644
000240 25 9a c1 3d 8d 73 94 bd 03 52 3d be 44 c8 a3 bd
       0.09453229 -0.07248602 -0.18488316 -0.07997182
000250 f5 e2 13 3e 53 55 c4 bd 23 69 fe bd d1 d5 e4 bd
       0.14442046 -0.09586587 -0.12422397 -0.11173595
000260 63 04 af bc 2b c2 1c bb c7 57 c2 3d 66 b6 52 be
       -0.021364396 -0.0023919444 0.094893984 -0.20577392
000270 8f 00 35 3e 1d 2c 35 be 11 5b 27 bd 25 06 80 be
       0.17675994 -0.17692609 -0.040858332 -0.25004688
000280 15 75 37 3d 44 c3 19 3d 7a ac ac 3d ef ba 62 3d
       0.044789393 0.037539735 0.08431335 0.055354055
000290 0a bb 1a 3d 0c bc ad bd 80 e9 c5 3d 89 c8 0f be
       0.03777603 -0.08483133 0.09663677 -0.14041342
0002a0 f8 ef b7 bd 60 75 d4 3b dc 94 a4 3d e5 77 84 3d
       -0.08981317 0.0064837188 0.08036205 0.064681806
0002b0 e9 94 dd 3d bb d4 3b bd 96 0c ab 3d 85 ea af bb
       0.10819418 -0.045857172 0.0835201 -0.005368533
0002c0 9a 6a 0b be a7 d0 3b ba 35 cb f0 3d bd f4 43 bc
       -0.13614884 -0.00071645755 0.11757509 -0.011960206
0002d0 6c 1d 83 3d a8 ef a5 3e 2e 03 82 bd 43 19 96 be
       0.06402096 0.32409406 -0.06348263 -0.29316148
0002e0 25 3c bc 3d 49 65 0e 3e 8c 94 86 bd 0e 7c 34 bd
       0.09191159 0.13905825 -0.06571302 -0.04406362
0002f0 4e c0 01 bd bc 15 d1 3d 6e cf 4d be 37 52 05 3e
       -0.031677537 0.10209224 -0.2009866 0.13019644
000300 e3 66 d0 3c 56 94 1e be 5e 6d 3a be 93 9c 46 3d
       0.025439685 -0.15486273 -0.18205783 0.048489165
000310 32 31 4e 3d c9 57 25 3d 59 c7 9f bc 90 01 43 3c
       0.050339885 0.04036692 -0.019504236 0.011902228
000320 c4 14 8c 3d db 37 6a bc 12 cf 0e 3e 89 21 60 3b
       0.06839898 -0.014295544 0.13946179 0.0034199676
000330 17 af 0a bc 29 65 f7 bd 09 e9 fe 3d 00 54 14 3d
       -0.008464596 -0.12079842 0.12446792 0.03621292
000340 9e 52 9a 3c 58 31 2c 3e e6 c3 16 3e 01 83 ed bd
       0.018838223 0.16815698 0.14723167 -0.11597253
000350 11 1d 44 be 3f ef e8 bd 0f 49 62 bd 5a 78 56 3e
       -0.19151713 -0.113737576 -0.055245455 0.20944348
000360 e9 54 ee 3d 13 93 b8 bd 41 3e 4c bc 36 ba 22 be
       0.11637289 -0.09012427 -0.012466014 -0.15891346
000370 4a 11 9d 3d 95 25 ff 3c d8 2b 4b bb 4b 24 0f 3d
       0.07669313 0.03114585 -0.0031001475 0.03494672
000380 62 34 31 bc d3 1b 19 3e d9 9a 40 3d 59 ce 23 be
       -0.010815712 0.1495202 0.047022674 -0.15996684
000390 b3 62 88 bd 5b 59 74 3e d3 41 a4 3d 94 83 c7 3c
       -0.066594504 0.23862211 0.080203675 0.024354734
0003a0 9b 08 e6 bd 15 68 0a bc 48 20 99 3c eb 42 1c be
       -0.1123211 -0.008447667 0.01869215 -0.15259902
0003b0 fc b1 26 3d 35 c4 f7 bc 5d 87 65 3d d8 83 31 be
       0.040697083 -0.030244926 0.056037296 -0.1733545
0003c0 c2 f4 a1 3b 9d 28 8e bd 69 fe 33 3d e5 c0 42 3d
       0.0049425075 -0.0694134 0.043943796 0.04754724
0003d0 51 76 fd bd 01 15 cc bb f3 58 4b 3d 1c 7a 0b 3e
       -0.12376083 -0.00622809 0.049645375 0.136208
0003e0 ad f9 65 be 97 26 ac 3d 30 ea d1 bb f3 e9 2f 3d
       -0.22458525 0.08405798 -0.006406091 0.04294772
0003f0 50 b4 64 3c 81 c2 df bc 56 73 96 3b f2 c3 5c bd
       0.0139590055 -0.027314426 0.004591386 -0.053897806

conv4.bias f4 [32]
000000 4b 04 9e bd d3 e5 24 3e 29 1b 7d be 7a 2e e0 3d
       -0.077156626 0.16103296 -0.24717392 0.10946365
000010 f5 d1 61 bd fd 3a 26 be b4 be 71 be a5 f2 4d bc
       -0.05513187 -0.1623344 -0.23607904 -0.012570058
000020 7c 07 6b 3d 16 bf 61 be cb 50 9a be 6c cb 14 be
       0.057380185 -0.2204555 -0.30139765 -0.14530724
000030 f5 ca 53 bb 13 38 6d 3d fb 7b 6e bd 7e ab 1b be
       -0.0032317017 0.057914805 -0.058223706 -0.15202138
000040 35 b8 5a be eb 24 77 3d 73 69 9c bb b7 24 8f bd
       -0.21359332 0.060337942 -0.0047733127 -0.06989425
000050 a9 8a 5e be ab 37 4f 3e 7c 8d ca 3d f2 37 00 be
       -0.21732582 0.2023608 0.09890267 -0.12521341
000060 7f 55 d4 3d 8e 6c 54 3c 20 d5 c6 3d 13 86 ce be
       0.103678696 0.012965335 0.09708619 -0.40336666
000070 95 ac 46 3e 31 14 70 bb d9 37 24 be 0d f5 0d be
       0.19401772 -0.0036633129 -0.16036929 -0.1386301

linear.weight f4 [256, 800]
000000 ab 70 59 bc b0 6f 86 bd 1f 3c 50 bd ab 1f 25 bc
       -0.013271491 -0.065642715 -0.050838586 -0.010078351
000010 9a 9e 6c bc 12 f7 a0 3c 94 3a bd bc 22 ed d2 bd
       -0.01444211 0.019649062 -0.023099221 -0.10299136
000020 20 32 e9 3b 31 7c db 3d ee e4 1c bd a2 85 a1 bd
       0.007116571 0.10717047 -0.038304262 -0.078868166
000030 ea 97 00 bd 70 ed 7a 3d 3e 33 ca bd 02 c0 66 bc
       -0.031394877 0.061261594 -0.09873055 -0.014083864
000040 a8 25 35 3c 82 0a e2 bd ad 84 c7 bd 51 52 82 3d
       0.011056341 -0.110371605 -0.09742103 0.06363357
000050 c8 f4 dd bd fe 9c 50 3c 16 8f 05 bd 02 ce 04 ba
       -0.10837704 0.012732742 -0.03260716 -0.0005066098
000060 72 6a 63 bc 0a 23 33 3d 0a 9a 3d 3b ad 4d ab bb
       -0.013880359 0.043734588 0.0028930926 -0.0052277655
000070 27 d8 a9 3b d8 f5 1e bc b8 f8 30 be 86 d2 9d 3d
       0.005183238 -0.009702168 -0.17282379 0.0770617
000080 bb dd ec 3c 2a bb 2a be 71 58 14 bd fd 21 65 bd
       0.028914323 -0.1667296 -0.036217157 -0.055940617
000090 ac 24 17 be 1e d2 16 be 19 e1 e4 bd 01 8f 0a 3e
       -0.14760083 -0.14728591 -0.111757465 0.13531114
0000a0 89 2e 8a bc 9d 0a e5 3d 15 38 18 3d a5 7d 8c 3d
       -0.016867893 0.11183665 0.03716286 0.06859902
0000b0 2d 35 27 bd 63 d8 31 3d 11 8e 60 3b 37 83 57 3d
       -0.040822197 0.043419253 0.0034264366 0.05261537
0000c0 e5 50 3f bc 74 7a 33 bd d2 68 83 3d b6 30 a5 3c
       -0.011677002 -0.043817952 0.06416477 0.020164829
0000d0 cf 99 0b be 6c 09 fb bc 7f 47 d8 3c 38 73 98 3c
       -0.13632892 -0.030644141 0.02640128 0.018609628
0000e0 e4 46 b5 bd bc e0 38 bc d7 87 75 3e 9c 08 9c be
       -0.08851412 -0.01128405 0.239776 -0.30475318
0000f0 2a 13 a5 bd 18 62 ce bd 1b cd 0a bd 23 b0 ec bd
       -0.08060296 -0.10077304 -0.03388701 -0.11557033
000100 c9 80 bb bd bc 1e cd bd ad 3d b1 bd 82 d9 d0 bc
       -0.09155423 -0.10015628 -0.08654342 -0.02549434
000110 0c 2d 8a 3c ee e0 16 bd 81 f7 f2 3b 22 62 f6 3c
       0.016867183 -0.036835603 0.0074147587 0.03007609
000120 99 eb 29 bc 32 bf f9 bb c0 0e 2a 3c 48 83 28 bd
       -0.010371112 -0.007621669 0.010379493 -0.041140825
000130 17 0e a2 bc 7c 82 2c 3e a8 58 b3 3c 9a c2 61 3c
       -0.01978211 0.16846651 0.02189286 0.013779307
000140 7e dc 98 bb e1 59 59 3c 92 65 18 bb 2c e1 4c be
       -0.0046649566 0.013266058 -0.00232539 -0.20007771
000150 de 1c b5 3d 70 18 e2 bd 7c a7 bc 3d dd 14 48 3d
       0.088433966 -0.11039817 0.092116326 0.04884802
000160 37 31 61 38 87 f7 d9 bd 2f 5b 78 be f7 5e a5 bb
       5.3690015e-05 -0.10642915 -0.24253534 -0.005046721
000170 ad d5 0c 3e 8f fa 4f 3e f3 72 24 3d f8 92 92 bd
       0.13753386 0.20310424 0.040148687 -0.07156938
000180 da 8f 10 be 87 d0 d9 3c 7c e4 30 be 4e aa 81 bd
       -0.14117375 0.026588691 -0.1727466 -0.06331311
000190 2b d5 5a bd 9d f0 d7 bc 7c ca 93 3c 8c 11 ed bc
       -0.05342595 -0.02635985 0.018040888 -0.028939031
0001a0 44 ce 0c be 2e 98 d3 3c bf 0d 08 bd 78 2a 9f 3c
       -0.13750559 0.0258294 -0.033216234 0.01942943
0001b0 6e 91 85 3c 70 25 1d be 8d 63 76 bd 6d a0 8d bc
       0.016304698 -0.15346313 -0.060153533 -0.017288411
0001c0 be 36 a7 3d d9 f6 91 3c 36 c1 85 bd ca e2 2b 3d
       0.08164738 0.017817901 -0.06530993 0.04196433
0001d0 98 af 07 3d b4 84 4d 3d f3 54 3c 3d c2 7e 62 3d
       0.033126444 0.050175384 0.04597945 0.055296667
0001e0 3e f6 9d bd 65 d8 b2 3d 43 bb 45 3e c7 ea 46 be
       -0.077129826 0.0873268 0.19309716 -0.19425498
0001f0 2f 15 d3 bd 4f 3f 0f bd f9 fa 96 3d ae c2 0c 3e
       -0.10306775 -0.034972485 0.07372088 0.1374614
000200 a0 b0 59 3d 22 af 65 bd 5d 2c c3 3d 91 0a f4 3d
       0.05314696 -0.056075223 0.09529946 0.11916078
000210 72 a6 be 3c 3c 9b d7 3c ec fb 86 3d 78 7b d3 3c
       0.023272727 0.026319139 0.06591019 0.02581571
000220 bb 9c b1 bd 87 10 9d bd 8b be e4 bc e5 2d e0 bd
       -0.08672472 -0.07669168 -0.02792289 -0.10946254
000230 12 66 ba bd f8 39 b1 3d a0 0f 6a 3d 78 69 1f 3d
       -0.091014996 0.08653635 0.057143807 0.038918942
000240 f0 84 24 3d b5 fa 1e 3d cb 51 37 3e ea 86 57 be
       0.04016584 0.03881331 0.17902295 -0.2104756
000250 89 c6 b0 bc ca c0 b0 3d 74 d9 eb 3c c1 5a 8f bd
       -0.021579044 0.086305216 0.028790213 -0.06999732
000260 6e 92 88 bd 01 20 80 3c c3 e9 ba bd 3e ea 94 3d
       -0.06668554 0.01564026 -0.09126618 0.07271241
000270 bc 76 c4 bd 35 5c 1b be ca e6 0c be 87 47 b6 3d
       -0.09592959 -0.15171893 -0.13759914 0.089003615
000280 34 a6 13 3e 10 30 11 be 81 0f d7 bd a7 34 9d bd
       0.1441887 -0.1417849 -0.10501004 -0.07676058
000290 5a 0e ff bd b8 1d 67 bd 80 6f e7 bc 5d eb 06 3e
       -0.12453909 -0.056424826 -0.02825141 0.13175721
0002a0 34 77 91 3d 82 c6 ee 3d 3f a7 d0 3d 64 b8 39 3d
       0.07102814 0.11658956 0.1018815 0.045341864
0002b0 16 64 19 bd fa 75 67 3d 08 31 82 bd eb 05 8f bd
       -0.037448965 0.056508996 -0.06357008 -0.06983551
0002c0 24 89 bb bc 7a 8e 98 3d 8c 6d 11 bd 52 df a6 bd
       -0.022892542 0.0744905 -0.035504863 -0.08148064
0002d0 24 67 50 be c6 1b 6c 3d a9 1a ba bd ec 8f 00 3b
       -0.20351845 0.057643674 -0.09087116 0.0019617034
0002e0 18 4b be 3d 67 69 f3 bd da 23 38 bd 36 71 bf 3d
       0.09291667 -0.11885338 -0.044956066 0.09347765
0002f0 29 6e 8e 3a 1f 05 fd bd f8 33 ac bc f0 82 40 3e
       0.001086657 -0.123544924 -0.021020874 0.18799949
000300 5a 88 30 3e c0 5e 78 bd 69 9b 8c ba 70 bc f6 3c
       0.17239514 -0.060637236 -0.0010727468 0.03011915
000310 77 d6 97 ba 6c 5b 23 bd 7f 23 26 bc cd 1c 05 bc
       -0.0011584301 -0.03988211 -0.010140299 -0.008124542
000320 10 9a b0 3d 1e 0e 83 bd d6 51 b3 3d 25 94 a8 3b
       0.08623135 -0.06399177 0.08755843 0.0051446133
000330 85 dd 8e bd 74 e3 a6 bd fa 59 c9 bd 9e cb 1e bd
       -0.06975845 -0.08148852 -0.09831615 -0.038768403
000340 db 14 06 be 96 07 41 3e 6c a7 a1 bb 6f 0f d7 3c
       -0.13093893 0.1885055 -0.0049332883 0.026252476
000350 6c 4d 8b 3c 89 c5 a4 3d 42 eb 93 bb 5c 00 bd ba
       0.017004691 0.08045489 -0.004514129 -0.0014419663
000360 65 02 46 bd 28 66 98 bd 54 6d 1b bc a7 f1 6c bc
       -0.048342127 -0.0744136 -0.009486515 -0.014461911
000370 45 1b a5 3d 7e f3 13 be a3 5a a9 bd 53 65 b9 bd
       0.08061842 -0.14448354 -0.08269241 -0.09052529
000380 4e 67 4e 3d ed 2a 15 3d a7 59 0a 3e ce d2 59 3d
       0.050391488 0.03641789 0.13510762 0.053179555
000390 36 1c c6 3d 39 34 f6 3d 9a ee 05 be de 38 3f bb
       0.096733496 0.120216794 -0.130793 -0.0029178183
0003a0 da 57 99 bd 74 fa d6 bd 8c 16 5d 3d b3 c0 89 bd
       -0.074874595 -0.10496989 0.05397658 -0.067262076
0003b0 37 5c dd bd 03 2c 87 3d 51 b5 48 3b 7e fc ad bd
       -0.10808604 0.066001914 0.003062565 -0.08495425
0003c0 70 c6 44 bd 1e e3 a2 3d 22 d8 65 bb e4 4c 74 3c
       -0.048040807 0.079534754 -0.0035071452 0.01491091
0003d0 3f 4a 07 be d8 88 8b 3c 06 4e 72 3c 21 89 f1 bb
       -0.13211916 0.017033026 0.01478911 -0.0073710834
0003e0 07 59 ad bd 4c b7 21 bd c5 28 06 3c fb 6b 07 bc
       -0.08464246 -0.039481446 0.008188431 -0.008265491
0003f0 59 6c ff bc 8d 77 b8 3c d8 19 f4 3c 5f cb bf 3d
       -0.031179594 0.022517944 0.02979748 0.09364962

linear.bias f4 [256]
000000 de 51 02 be fb eb 04 be 5b 80 03 bf a6 cd 33 bd
       -0.12726542 -0.12980644 -0.5136773 -0.043897294
000010 af c3 8a bd 36 7b c2 bd 76 45 d0 bd 05 a4 02 bf
       -0.06775605 -0.09496157 -0.101694986 -0.51031524
000020 b0 79 97 bd bd d4 37 bd 0c d1 79 bc 54 bd 31 be
       -0.07396257 -0.044880617 -0.015247595 -0.17357379
000030 50 d3 4f bd be 00 8e bc 0a 67 18 bd b4 e9 17 be
       -0.050738633 -0.017334338 -0.03720764 -0.14835244
000040 03 86 39 be a6 ef bf bd 06 51 32 bd 32 85 d8 bd
       -0.18117528 -0.09371881 -0.0435343 -0.1057228
000050 50 7e 68 bd 68 1e 3e bd c2 37 9d bd 05 69 43 bd
       -0.056761086 -0.046415716 -0.076766506 -0.047707576
000060 27 02 a3 bd 0c 08 b0 be 2c ca 71 bd f5 6f 88 bd
       -0.07959395 -0.3438114 -0.059030697 -0.06661979
000070 77 19 93 bd 6f 11 73 bd a5 a8 10 bd 6f 05 ec bd
       -0.071825914 -0.059342798 -0.035317082 -0.11524474
000080 5d 62 85 bd fb cf 98 bc 2e b6 1b bd a2 21 3f be
       -0.06512902 -0.01865386 -0.038015537 -0.18665174
000090 ee 62 c4 bd ed 8e 49 bd 2f 1d 85 bd 6b 5b 8c bd
       -0.09589182 -0.04920857 -0.06499707 -0.06853374
0000a0 e2 c0 85 bd ea cd a4 bd b0 fd 6f bd b9 b1 ac bd
       -0.0653093 -0.080470875 -0.058591545 -0.084323354
0000b0 8f e5 a5 bd e3 75 08 bd f4 40 26 3e 89 39 4f bd
       -0.081004255 -0.03331555 0.16235715 -0.05059198
0000c0 32 bf 45 bd 6a 90 9c bd 99 37 79 bd bf 35 88 bb
       -0.04827804 -0.07644732 -0.060844038 -0.0041567977
0000d0 08 f8 2b be 0d 17 61 bd 57 3d 20 be 51 fe 95 bd
       -0.16793835 -0.054953624 -0.156484 -0.07323898
0000e0 5f 96 c1 bd 85 61 e5 bc 8c 48 2e bd 1a 23 1a bd
       -0.09452509 -0.028000602 -0.042549655 -0.03763113
0000f0 74 ac 17 be 3a 04 32 bd 63 5a 06 bb f5 20 80 bd
       -0.1481188 -0.043461062 -0.0020500652 -0.06256286
000100 29 c3 0c be 50 ac 8e bd 76 b8 ee bd d0 a1 03 3e
       -0.13746323 -0.0696646 -0.11656277 0.12854695
000110 77 e9 5f bd fd 57 d7 be 21 d9 15 be 33 93 07 b9
       -0.05466601 -0.42059317 -0.1463361 -0.00012929439
000120 9a 3b 47 bd 51 cd b4 3a 7f a1 cc bd 00 62 c8 bd
       -0.048640825 0.0013794099 -0.099917404 -0.09784317
000130 73 39 b5 bd b5 e0 32 bd c3 e0 95 bd 8f fc ba bd
       -0.08848848 -0.04367133 -0.073182605 -0.09130203
000140 57 a3 50 be 24 57 80 bd e1 42 4e bd a5 19 b6 bd
       -0.20374809 -0.06266621 -0.05035675 -0.0889161
000150 8e 08 73 bd 29 b7 91 bd ec 09 5a bd 77 08 9a bd
       -0.05933433 -0.07115013 -0.05323212 -0.07521146
000160 05 9a d5 3b b7 34 a9 bd e3 a6 2b bd a0 9c ef bd
       0.0065186047 -0.08262008 -0.041907202 -0.11699796
000170 47 4a 13 bd c3 dd a7 bd 7d 57 fd 3c 5c 96 ed bd
       -0.03595951 -0.081965946 0.030925507 -0.116009444
000180 fb 25 bb bd 77 32 53 bd cc cd c6 bd 25 e2 7a bd
       -0.091381036 -0.0515618 -0.097072214 -0.061250824
000190 54 62 2a bd 9c 33 11 bd 0e 90 b9 bd c1 45 0c bd
       -0.04159768 -0.03544961 -0.090606794 -0.03424621
0001a0 d2 11 b0 be 99 a1 07 bd 22 41 25 bd 3e fb 50 bc
       -0.34388596 -0.033113096 -0.04034532 -0.012755213
0001b0 dc 50 df be 69 41 e4 bc 9b c7 43 be 3b 4c 28 bd
       -0.43616378 -0.027863221 -0.19119112 -0.041088324
0001c0 bf 53 91 bd c4 39 d1 bd 46 e2 68 bd 21 84 1e be
       -0.070960514 -0.10216096 -0.056856416 -0.1548009
0001d0 e7 d4 b9 bd 27 c9 48 be 12 d7 b3 bd 36 09 fb bc
       -0.09073811 -0.19607984 -0.08781256 -0.03064404
0001e0 e1 12 08 be 3b 0d f4 bc 64 d7 b3 bd c8 e8 17 bd
       -0.13288452 -0.029791465 -0.08781317 -0.037087232
0001f0 e1 bd 10 bc ca 95 9c bd 8d 96 b5 bd 60 06 3a bd
       -0.008834333 -0.076457575 -0.08866606 -0.045416236
000200 8c ee f2 bd f0 d1 90 bd 50 78 28 bc 19 04 31 be
       -0.118619055 -0.070712924 -0.010282591 -0.1728672
000210 23 5e b7 3d e9 a7 48 bc 29 ac a0 3d b6 c8 a2 bd
       0.08953502 -0.012247064 0.07845337 -0.07948439
000220 79 df b4 bd 92 1a 64 be a8 c9 aa bd 3e 5c 6c bd
       -0.088316865 -0.22275761 -0.08339244 -0.057705157
000230 ff fa 50 bd a9 16 8e bd cc d2 ce bd e2 8b d7 bd
       -0.05102062 -0.06937916 -0.100988 -0.105247274
000240 01 17 17 bc e8 e9 70 bd 9b 47 11 bf c5 39 74 bd
       -0.009221793 -0.05881682 -0.56749886 -0.059625406
000250 a1 31 70 bd b3 bc b1 bd e6 cc 23 bd ff 16 17 3d
       -0.05864108 -0.0867857 -0.03999033 0.036887165
000260 13 f8 79 bd 15 5c 3f b7 1c 8c 7c be e8 5f 20 be
       -0.061027598 -1.1405927e-05 -0.24662822 -0.15661585
000270 79 bd 4c bd bf c3 bd be 3d 90 22 be c8 89 96 be
       -0.049985383 -0.37063405 -0.15875335 -0.29401994
000280 38 78 b8 bc 4b c5 4c bd d4 f8 f6 be 82 bb 3f bd
       -0.022518262 -0.04999284 -0.48236716 -0.04680968
000290 2f dc 81 bd 10 81 40 be 7d a7 9c be ca 24 a2 bd
       -0.06340825 -0.18799233 -0.30596533 -0.07917173
0002a0 29 4b 21 bc 34 f0 bb bd d6 09 43 bd 7e 35 a3 bc
       -0.00984458 -0.091766745 -0.047616802 -0.019922968
0002b0 4c 2c c8 bb e4 35 87 bd 98 35 f5 be e9 ac 73 bd
       -0.006108796 -0.06602076 -0.4789245 -0.05949107
0002c0 ed 90 a4 bd ae aa 98 3c 0f 39 bb bd 1e 11 c9 bd
       -0.08035455 0.018636074 -0.091417424 -0.09817718
0002d0 45 2d f8 bd 29 0b 0d bd 36 1f cc bc 68 a4 be bd
       -0.121180095 -0.03443447 -0.024917226 -0.09308702
0002e0 48 55 07 bd 90 84 a5 bc 12 6c 31 bd fc b4 4e bd
       -0.033040315 -0.020204812 -0.043315955 -0.05046557
0002f0 d8 a8 38 bd 61 13 74 bd 95 64 ce be c7 e9 83 be
       -0.045082897 -0.059588794 -0.40311113 -0.25764295
000300 1a 23 23 bd d3 4b 48 bd 6f d8 58 bd 74 8a 80 bd
       -0.039828397 -0.048900437 -0.052940782 -0.06276408
000310 39 06 8a bd 72 f5 b3 bd 34 78 b0 bd 8d 50 62 bd
       -0.06739468 -0.08787049 -0.08616677 -0.0552526
000320 89 66 77 bd 77 b0 79 bd 17 7f 7e bd 62 ed 03 bd
       -0.06040052 -0.060959306 -0.06213292 -0.032208808
000330 f8 1d 1f bd 51 65 2c bd 3a 62 95 bd 54 83 7f bd
       -0.03884694 -0.04208881 -0.07294126 -0.062381104
000340 f7 20 8e bd 61 47 41 bd e8 59 10 bd fa 3a 46 be
       -0.06939881 -0.047187213 -0.03524199 -0.19358435
000350 4e 9e d4 bc cb b3 e3 bc 2a 77 cf bc cd af b2 be
       -0.025954392 -0.027795693 -0.025325377 -0.3489975
000360 3b 16 19 bd 1a 00 35 bd 5d 4e c2 bc 02 0f 2f bd
       -0.037374716 -0.04418955 -0.023719007 -0.042738922
000370 69 41 3e bd 43 f7 9a bd b5 da 6e bd 22 9d 95 bd
       -0.0464491 -0.07566693 -0.058314044 -0.07305361
000380 83 73 2c bd 7a 5c f5 bc bd 21 c1 bd e3 e6 b1 be
       -0.042102348 -0.029951323 -0.09430263 -0.34746465
000390 32 a7 21 bd 82 14 3e bd a0 75 90 bd 80 2e 8a bd
       -0.03946609 -0.046406277 -0.07053685 -0.067471504
0003a0 ba 36 7f bd a8 67 2f be 45 2e 9f bd ef 39 ae bc
       -0.06230805 -0.17129385 -0.07772497 -0.02126786
0003b0 59 dc 50 bd 6f 90 6d bd 33 0c 86 bd d5 06 71 bd
       -0.05099139 -0.05799907 -0.065452956 -0.058844406
0003c0 e4 2b fb bd cf 4b 15 3e 4b 61 30 bd 5a fc 55 3c
       -0.12264231 0.145797 -0.043061536 0.013060654
0003d0 99 3a 4b bd 10 c3 a9 bd 85 08 6f be aa 35 f6 bc
       -0.04961643 -0.08289158 -0.23343094 -0.030054886
0003e0 42 d1 84 be 44 d3 8a bd a1 21 eb bd e5 7e ce bd
       -0.259409 -0.06778577 -0.114810236 -0.10082797
0003f0 11 ca 2c bd f1 6c 97 3d 77 9b 0e bf 11 19 ce bd
       -0.042184893 0.07393826 -0.5570597 -0.10063375
