21-A3C-Pong/runs/PongNoFrameskip-v4/2022-11-02_20-10_Second80MSteps_OK/model_sam_BreakoutDeterministic-v4_conv.80.tar (torch, 947003 bytes, 13 tensors)

conv1.weight f4 [32, 4, 3, 3]
0.12023737 -0.45742655 -0.020764057 -0.03578642 -0.5107712 0.08022497 -0.20173168 -0.029634023
0.16842422 0.20132682 0.39574596 0.10717365 0.29670563 0.26569575 0.2690938 -0.059407756
0.18897444 0.40121874 0.11398375 -0.047782864 -0.14632517 0.02156143 -0.11017589 0.039359838
-0.063628554 -0.10556386 0.2419172 0.030711202 -0.27503517 0.00547683 0.03511541 0.06995413
0.057596046 -0.2874707 -0.22250926 0.004215447 0.3411083 0.12763968 -0.12681457 0.14288954
0.72039616 -0.3429611 0.16575044 0.3876653 -0.07659002 0.13791855 -0.23528515 -0.0595708
-0.09791516 0.041623257 -0.29749978 -0.23315942 0.14146464 0.07483553 0.16369544 0.24299453
-0.20036067 -0.14172241 0.32667625 -0.044028386 -0.32671916 0.23877466 0.06365746 0.16072536
-0.26050243 -0.22271034 -0.011974065 0.07509499 -0.3074272 -0.33187178 0.16191351 -0.22539671
-0.0077422936 0.37203696 0.00983202 0.19379129 0.69443464 -0.2936666 -0.10940083 0.492281
-0.18451697 -0.24282593 -0.06260282 -0.39452383 0.15026984 -0.0060590194 -0.98845065 0.12957788
-0.08052945 -0.4137672 -0.05267438 -0.096705996 0.022631822 0.09264801 -0.098376945 -0.48910078
-0.00963109 0.010631586 -0.22057708 0.029265488 0.45046452 -0.021676304 0.27219778 0.38141695
-0.14475061 -0.10704696 0.40010425 0.068589 0.39487448 0.2830043 0.22387609 0.47574282
0.9149485 0.17430438 0.17411536 0.6440425 0.36508304 0.15650947 -0.27411652 -0.13630348
-0.06679452 -0.03491443 0.13229103 -0.14570358 0.117851116 -0.25538284 -0.3168775 -0.29352248
0.05237129 -0.12958875 -0.2824804 0.032753114 -0.08941672 -0.13060041 -0.081297964 -0.02731089
-0.07479585 0.038212564 -0.42016646 -0.30342335 0.0084429355 -0.24152768 -0.23184371 -0.043264654
0.19873574 0.18739687 -0.06511279 0.12209164 0.47328895 0.2151161 -0.10528328 0.30820727
0.2978838 -0.17214835 -0.5188722 -0.2350287 -0.3991035 -0.51602626 0.01385287 -0.28848916
-0.581425 0.3356744 0.22197634 0.32297516 -0.34868813 0.036580946 -0.060428847 -0.102846116
-0.109349735 -0.16700691 -0.0020261642 0.18971933 0.25157395 -0.022869674 0.24581632 0.3300651
0.13431285 0.10906546 -0.07936659 0.20613584 -0.051928848 -0.329636 -0.23940432 -0.30892757
-0.4592645 0.22010428 -0.37767375 -0.5096666 -0.055405717 -0.1456691 0.08716861 0.08844253
-0.22990492 0.19349997 0.44194102 -0.1551484 0.11553943 0.19757988 0.31305104 -0.038107775
0.05632743 0.17324935 0.4089411 0.026000204 0.34900808 0.04374431 -0.06281538 0.18902656
0.06497543 0.025463616 0.04170898 0.16380392 -0.14889792 0.2628246 0.16399491 0.10695948
0.15031326 -0.3659825 0.014455573 0.07547197 -0.12471669 0.25371346 -0.2898128 -0.097781636
0.36881512 0.023777878 0.19340597 0.022215227 0.2898621 0.8072454 -0.37721214 -0.12796663
0.5651326 -0.2813266 -0.12642871 0.08913727 -0.19454165 0.31673896 0.23194562 -0.54779154
-0.1720874 0.14216767 -0.18495102 0.041054796 -0.021744758 0.08481465 -0.2629184 -0.06840181
-0.21458845 0.11770597 0.18177523 -0.18776779 -0.041031133 -0.24424867 0.43889865 -0.12363171
00000000: 033f f63d d033 eabe 6219 aabc c894 12bd
00000010: e7c1 02bf fd4c a43d c092 4ebe 0dc3 f2bc
00000020: 6677 2c3e 9e28 4e3e 379f ca3e dc7d db3d
00000030: cde9 973e 4609 883e aac6 893e 8c55 73bd
00000040: 8482 413e 8b6c cd3e 5070 e93d f7b7 43bd
00000050: 44d6 15be 99a1 b03c e6a3 e1bd c837 213d
00000060: b04f 82bd dd31 d8bd 24b9 773e 0f96 fb3c
00000070: 69d1 8cbe fb76 b33b 2dd5 0f3d 1c44 8f3d
00000080: d5e9 6b3d 5c2f 93be 78d9 63be bc21 8a3b
00000090: bfa5 ae3e fab3 023e aedb 01be a351 123e
000000a0: e26b 383f 9998 afbe 7cba 293e 117c c63e
000000b0: 3adb 9cbd 853a 0d3e 97ee 70be 8300 74bd
000000c0: be87 c8bd 267d 2a3d e451 98be 58c1 6ebe
000000d0: 1bdc 103e 5f43 993d c79f 273e 8fd3 783e
000000e0: 592b 4dbe ae1f 11be 1c42 a73e 1c57 34bd
000000f0: bc47 a7be 5881 743e d85e 823d 3095 243e
00000100: 9360 85be 2e0e 64be de2e 44bc 67cb 993d
00000110: 1967 9dbe 19eb a9be a8cc 253e 65ce 66be
00000120: 11b3 fdbb a17b be3e 7b16 213c 3971 463e
00000130: 78c6 313f 785b 96be 8b0d e0bd 410c fc3e
00000140: 04f2 3cbe 5ca7 78be e835 80bd 07ff c9be
00000150: 56e0 193e bd8a c6bb 1a0b 7dbf 10b0 043e
00000160: a0ec a4bd 4bd9 d3be 17c1 57bd cb0d c6bd
00000170: 5f66 b93c 3dbe bd3d da79 c9bd 6b6b fabe
00000180: b8cb 1dbc 1b30 2e3c f5de 61be 2dbe ef3c
00000190: 49a3 e63e 8192 b1bc 825d 8b3e 1549 c33e
000001a0: 8139 14be 703b dbbd 77da cc3e 6478 8c3d
000001b0: fd2c ca3e f1e5 903e c63f 653e 9094 f33e
000001c0: 113a 6a3f d97c 323e 4c4b 323e f8df 243f
000001d0: 2aec ba3e 0544 203e 0059 8cbe 2493 0bbe
000001e0: 91cb 88bd 6f02 0fbd 4d77 073e 5233 15be
000001f0: ed5b f13d 8ac1 82be c53d a2be 9448 96be
00000200: 4783 563d eab2 04be 45a1 90be 2128 063d
00000210: 1d20 b7bd 1dbc 05be 8c7f a6bd 16bb dfbc
00000220: 912e 99bd c784 1c3d 0f20 d7be 4e5a 9bbe
00000230: 3d54 0a3c 0853 77be 7068 6dbe 4736 31bd
00000240: 6281 4b3e f7e4 3f3e db59 85bd 2f0b fa3d
00000250: ee52 f23e 6547 5c3e c39e d7bd 58cd 9d3e
00000260: 3a84 983e a847 30be cfd4 04bf 5dab 70be
00000270: 4b57 ccbe 4c1a 04bf 26f7 623c dab4 93be
00000280: 45d8 14bf 84dd ab3e c44d 633e 005d a53e
00000290: 4087 b2be e7d5 153d 3d84 77bd fca0 d2bd
000002a0: c1f2 dfbd dc03 2bbe 65c9 04bb c945 423e
000002b0: 4dce 803e 2f59 bbbc 46b7 7b3e 4bfe a83e
000002c0: 4f89 093e b65d df3d f38a a2bd 4615 533e
000002d0: 58b3 54bd 0dc6 a8be 6826 75be c12b 9ebe
000002e0: b724 ebbe 0463 613e 745e c1be 8379 02bf
000002f0: 1bf1 62bd 482a 15be 7585 b23d 5b21 b53d
00000300: 326c 6bbe db24 463e 1846 e23e 39df 1ebe
00000310: f09f ec3d 6152 4a3e 3a48 a03e e616 1cbd
00000320: 97b7 663d 4768 313e ba60 d13e 61fe d43c
00000330: 30b1 b23e 3c2d 333d 5aa5 80bd 2e90 413e
00000340: d711 853d 1399 d03c 09d7 2a3d 37bc 273e
00000350: b278 18be f290 863e 48ee 273e 920d db3d
00000360: b8eb 193e 0f62 bbbe 11d7 6c3c 0c91 9a3d
00000370: 776b ffbd bbe6 813e 5862 94be bd41 c8bd
00000380: 56d5 bc3e d3c9 c23c 370c 463e b5fc b53c
00000390: ce68 943e a2a7 4e3f f321 c1be af09 03be
000003a0: 88ac 103f 0a0a 90be 8776 01be 9a8d b63d
000003b0: ed35 47be 9c2b a23e 2783 6d3e 113c 0cbf
000003c0: ae37 30be 6794 113e cd63 3dbe 1329 283d
000003d0: 1022 b2bc 4eb3 ad3d 3e9d 86be 4016 8cbd
000003e0: 13bd 5bbe d40f f13d 4923 3a3e 3346 40be
000003f0: 4310 28bd 531c 7abe 53b7 e03e 9f32 fdbd

conv1.bias f4 [32]
-0.14995027 -0.0469145 0.075869024 -0.1679198 -0.11472608 -0.17655131 -0.11823212 -0.10177272
-0.2570693 0.033085518 -0.032104626 -0.12297643 -0.2306624 0.23806432 -0.1506525 0.2665715
-0.32864332 -0.31349167 -0.04488161 -0.28106913 -0.030796738 0.031524915 -0.06894718 -0.053096365
0.090640225 -0.06394909 -0.13605486 0.36031735 -0.106923334 0.661052 -0.063331135 -0.008986176
00000000: 908c 19be 6b29 40bd 3861 9b3d 2bf3 2bbe
00000010: 82f5 eabd dec9 34be af23 f2bd 376e d0bd
00000020: 969e 83be ae84 073d 2480 03bd 11db fbbd
00000030: c432 6cbe 22c7 733e a644 1abe 0f7c 883e
00000040: f043 a8be fb81 a0be c7d5 37bd 4be8 8fbe
00000050: 7149 fcbc 4520 013d 2e34 8dbd 937b 59bd
00000060: 95a1 b93d bef7 82bd f751 0bbe 847b b83e
00000070: 9ffa dabd b43a 293f c1b3 81bd c13a 13bc

conv2.weight f4 [32, 32, 3, 3]
0.28181082 -0.006426868 0.118107386 -0.07868956 -0.20412505 -0.14830306 -0.10462064 0.10374268
0.023171678 0.038163498 0.079533994 0.22196269 -0.04772291 -0.3082134 0.08848249 -0.30059478
0.33528474 -0.07522053 0.16913876 0.26553956 -0.17941086 0.39368087 -0.09502685 -0.32833147
-0.11453017 0.06598421 -0.16434032 0.04170465 -0.12759317 0.076345764 -0.14030178 -0.12510397
0.3125703 -0.3677235 0.32992253 0.05654045 0.14435266 0.17556405 -0.21348913 0.096416585
-0.098782755 -0.2571277 0.04999324 0.1848851 -0.15318102 0.09751512 0.081447035 -0.048104998
0.060497336 -0.466615 0.124860406 -0.044383496 -0.03524863 0.1495453 0.31525445 0.22627857
0.030158862 0.088640146 -0.6030511 -0.045248594 -0.2083152 0.05315411 0.17022921 0.09553867
-0.014868519 0.05723283 -0.05039367 -0.10062471 -0.18998338 -0.0035402533 0.08405229 0.01601388
-0.24038865 0.23717295 0.009833964 -0.15919882 -0.034674663 -0.16488262 0.11876721 -0.023614736
0.22548808 0.02599925 0.0006765699 -0.012919164 -0.042297345 0.27506098 -0.30842426 0.053770706
-0.024122644 0.07564663 0.04407492 0.057409763 -0.06528713 -0.12589538 -0.24259578 0.14025392
0.0035438726 0.106161915 -0.020340487 0.24012856 8.3326384e-05 -0.021467192 0.035946522 0.0020228745
-0.20069183 0.026971206 -0.06070905 0.0029865117 -0.08118629 0.27602953 -0.00984391 -0.28796652
-0.08469956 0.07262972 -0.017961439 0.105888076 0.002595043 -0.18260385 0.032249518 0.19184063
0.09579983 0.26431763 0.046888072 -0.09252101 -0.2946962 0.03578912 0.117484175 -0.20479657
0.0873359 -0.017627701 -0.09659841 -0.084988385 -0.033260874 0.29959238 -0.01883444 0.29689738
-0.11958583 0.020729946 0.13756791 0.107581705 -0.025753578 -0.16466984 0.10078834 -0.25594234
-0.14261028 0.022588741 0.06123154 -0.1890654 -0.18021017 0.23975404 -0.15659438 0.17516206
0.17671092 -0.20343862 -0.047168367 0.1500821 0.054686833 0.010730922 -0.061790075 -0.07031234
0.022125045 0.1722516 0.029012946 0.22517277 -0.048362654 0.032048456 -0.36842176 0.16903701
-0.32847926 -0.0032820024 0.23577364 -0.16981108 0.06532783 0.07575179 -0.3817233 0.08493903
0.066200316 0.07559069 -0.16425906 0.21869507 0.31452185 -0.13036795 -0.107221074 -0.156737
0.16727242 -0.19409546 0.19382463 0.056265224 -0.23682567 -0.1705384 -0.120980054 0.3049516
0.02439578 0.010616036 -0.03904423 0.042004306 0.016427085 -0.038118474 0.055824447 -0.004219148
-0.13989751 -0.009609524 0.1364342 -0.12585141 0.31483382 -0.13465354 -0.1404719 -0.15953626
-0.21441928 0.2593805 -0.13389814 0.1315528 -0.046999715 0.13681297 0.022782397 -0.023263574
-0.1210653 0.2464267 0.06903421 -0.021971626 -0.04430058 -0.09543279 0.070506774 -0.096700676
0.010640871 0.23490156 0.17887628 -0.28126514 -0.1283402 0.12114547 0.18740608 -0.05316135
-8.281622e-06 -0.077532195 0.3191813 0.010626763 -0.3408485 0.018406514 0.10754941 -0.18199217
0.20683219 -0.020850081 -0.08188176 -0.0032897089 -0.30888504 0.08584266 -0.357153 0.47361922
0.15887003 0.23629919 -0.07985609 -0.13439056 0.046757203 -0.31502447 0.18659467 0.06542115
00000000: 8249 903e 7a98 d2bb 49e2 f13d fe27 a1bd
00000010: 2806 51be c2dc 17be 5943 d6bd 0b77 d43d
00000020: 88d2 bd3c 5451 1c3d b8e2 a23d 304a 633e
00000030: 1979 43bd 26ce 9dbe 4f36 b53d 8fe7 99be
00000040: 71aa ab3e 390d 9abd b632 2d3e cdf4 873e
00000050: 7bb7 37be 8a90 c93e 709d c2bd 101b a8be
00000060: cb8e eabd bb22 873d d448 28be 7fd2 2a3d
00000070: c9a7 02be 2b5b 9c3d 45ab 0fbe 411b 00be
00000080: 3709 a03e 4146 bcbe 9beb a83e f596 673d
00000090: 2fd1 133e 10c7 333e e59c 5abe 0f76 c53d
000000a0: 9d4e cabd 3ea6 83be b6c5 4c3d 8552 3d3e
000000b0: 7cdb 1cbe 02b6 c73d b4cd a63d bf09 45bd
000000c0: 0ecc 773d 29e8 eebe d0b6 ff3d 78cb 35bd
000000d0: de60 10bd 6722 193e 0869 a13e 92b5 673e
000000e0: b80f f73c f788 b53d 8f61 1abf 9756 39bd
000000f0: 9450 55be 20b8 593d 9150 2e3e c7a9 c33d
00000100: 179b 73bc f96c 6a3d 9869 4ebd 5414 cebd
00000110: 018b 42be 9803 68bb 9b23 ac3d 8a2f 833c
00000120: 7128 76be 77dd 723e a21e 213c 0405 23be
00000130: 0507 0ebd fdd6 28be 393c f33d b173 c1bc
00000140: 59e6 663e 61fc d43c d65b 313a e7aa 53bc
00000150: fb3f 2dbd cbd4 8c3e c9e9 9dbe ac3e 5c3d
00000160: da9c c5bc 9fec 9a3d e787 343d 8026 6b3d
00000170: 42b5 85bd b8ea 00be 076b 78be b99e 0f3e
00000180: 5140 683b 6b6b d93d 18a1 a6bc 43e4 753e
00000190: 83bf ae38 f7db afbc a93c 133d 3492 043b
000001a0: 2982 4dbe b8f2 dc3c 0eaa 78bd 5ab9 433b
000001b0: ff44 a6bd be53 8d3e 5a48 21bc 5970 93be
000001c0: f776 adbd e4be 943d de23 93bc d9db d83d
000001d0: 9911 2a3b 81fc 3abe 1218 043d df71 443e
000001e0: b432 c43d a454 873e b50d 403d a87b bdbd
000001f0: 6ce2 96be 9d97 123d 8b9b f03d 31b6 51be
00000200: 2add b23d f867 90bc 63d5 c5bd 640e aebd
00000210: 8e3c 08bd 2c64 993e af4a 9abc ef02 983e
00000220: 6ae9 f4bd d9d1 a93c 9ade 0c3e cc53 dc3d
00000230: 2bf9 d2bc 369f 28be 1e6a ce3d e00a 83be
00000240: 6e08 12be 060c b93c eccd 7a3d 5c9a 41be
00000250: 0489 38be 1582 753e 475a 20be af5d 333e
00000260: b5f3 343e 3752 50be 9e33 41bd 1faf 193e
00000270: 4dff 5f3d c0d0 2f3c 9717 7dbd ebff 8fbd
00000280: 953f b53c b962 303e 8fac ed3c b193 663e
00000290: eb17 46bd 3e45 033d c7a1 bcbe 0a18 2d3e
000002a0: 6f2e a8be dd16 57bb a56e 713e f5e2 2dbe
000002b0: 99ca 853d c123 9b3d 3d71 c3be 84f4 ad3d
000002c0: 0894 873d 4bcf 9a3d 8733 28be 9af1 5f3e
000002d0: 0209 a13e 2d7f 05be b996 dbbd aa7f 20be
000002e0: 7649 2b3e f6c0 46be f779 463e 5d76 663d
000002f0: 6e82 72be 9ea1 2ebe 64c4 f7bd 9e22 9c3e
00000300: a9d9 c73c e2ee 2d3c d8ec 1fbd b50c 2c3d
00000310: 1892 863c 1e22 1cbd 2da8 643d c740 8abb
00000320: 4b41 0fbe 4471 1dbc 68b5 0b3e 31df 00be
00000330: e631 a13e 9ee2 09be ded7 0fbe 795d 23be
00000340: ba90 5bbe 85cd 843e 981c 09be c7b5 063e
00000350: c682 40bd b318 0c3e 26a2 ba3c 4093 bebc
00000360: 16f1 f7bd 4857 7c3e cf61 8d3d d7fd b3bc
00000370: 8674 35bd 4472 c3bd db65 903d 010b c6bd
00000380: 0c57 2e3c 098a 703e 582b 373e fc01 90be
00000390: 9d6b 03be 1e1b f83d 61e7 3f3e b7bf 59bd
000003a0: 4cf1 0ab7 33c9 9ebd bb6b a33e e01b 2e3c
000003b0: b283 aebe 42c9 963c dd42 dc3d 285c 3abe
000003c0: d1cb 533e cacd aabc a0b1 a7bd 2898 57bb
000003d0: 2e26 9ebe 47ce af3d c2dc b6be 387e f23e
000003e0: d3ae 223e 6af8 713e 978b a3bd ae9d 09be
000003f0: 7b84 3f3d e34a a1be ac12 3f3e 86fb 853d

conv2.bias f4 [32]
-0.00055033277 -0.013583867 -0.0060588075 -0.017769836 -0.0062573035 -0.0034353372 -0.01042705 0.0005278408
-0.0029939332 -0.0043444117 -0.0066755014 -0.008107633 -0.008644808 0.0006838012 -0.021134058 -0.0101715615
-0.01392005 -0.0044732257 -0.0007783007 -0.004749384 -0.0021984957 -0.0072562434 0.0021287608 0.002678919
0.00036464244 -0.00019369001 -0.0048205974 -0.0012576666 4.452687e-05 -0.0022759496 -0.0039222385 0.0038348606
00000000: 3544 10ba de8e 5ebc f688 c6bb 0c92 91bc
00000010: 110a cdbb 6523 61bb 38d6 2abc cc5e 0a3a
00000020: dd35 44bb 915b 8ebb 2abe dabb e1d5 04bc
00000030: f4a2 0dbc 1f41 333a 5521 adbc 9fa6 26bc
00000040: ec10 64bc 2394 92bb e006 4cba b8a0 9bbb
00000050: a314 10bb c8c5 edbb ae82 0b3b cd90 2f3b
00000060: 7b2d bf39 4419 4bb9 1af6 9dbb 4ad8 a4ba
00000070: 5dc2 3a38 1928 15bb 1f86 80bb 4952 7b3b

conv3.weight f4 [32, 32, 3, 3]
0.19008747 0.12582676 -0.0045176405 0.122029215 -0.09756686 0.012356258 -0.18931022 0.17321594
-0.007583583 -0.26298106 0.093720116 -0.082826294 -0.41910386 0.09821309 0.22115867 -0.19751285
-0.1568331 -0.07260969 -0.40516683 0.0017413984 -0.05897254 -0.23442976 0.22083965 0.11672552
-0.26322016 0.16836022 -0.1753844 -0.37350604 0.26797166 0.12901016 -0.042502567 -0.0051132534
0.09157635 -0.28856543 0.19802274 0.022841187 0.0058931704 0.16383645 -0.37185377 -0.4096634
0.08022655 -0.36018085 -0.17458372 0.12433635 -0.05077921 0.19686843 -0.21084826 0.039297465
-0.16664699 0.21647711 0.033157628 -0.14416194 -0.104903966 0.19267017 0.18765533 -0.14753157
0.13507272 0.010764305 0.25936985 0.16069993 0.206068 -0.20076567 0.39120194 0.19140308
-0.03596072 -0.04191817 -0.047270045 0.31858876 -0.49688518 -0.48926467 0.25435665 -0.13429637
0.04922129 -0.23278591 0.31936046 0.015123243 0.021356868 0.1260314 -0.06372551 -0.12905434
0.23183206 -0.12876819 -0.06384627 0.07837571 0.105964385 -0.32354015 0.1166663 -0.063928895
-0.19858178 0.23826405 -0.24666086 -0.03970331 0.031239746 -0.014068161 0.016995022 0.3849171
-0.053021982 0.086016946 0.049595967 -0.13315536 0.15934125 0.019798687 -0.4987643 0.0837146
0.24791688 -0.09513813 0.041693445 0.21171682 0.32678324 -0.04658134 -0.06934173 0.25563356
0.14367451 -0.33230174 0.061624665 -0.11060799 0.17428446 -0.08727436 0.28412795 -0.22561441
-0.34138575 -0.23466621 0.377052 -0.22507824 0.21168812 0.1255868 0.13366798 -0.12168526
0.07185564 -0.05403051 0.064640425 0.06549601 -0.10623811 -0.06907313 0.07266753 -0.06580949
0.15882885 -0.07458904 0.43171087 -0.7392408 0.3638339 0.008480658 0.07217305 -0.10615346
-0.14454657 -0.058451775 0.106473185 0.27554417 -0.3035105 0.27280998 0.2849808 -0.064123474
-0.2739262 0.11600318 0.013526892 0.21174797 0.12570088 0.22490995 0.03990976 -0.24497654
0.18675373 -0.08619673 0.10829333 -0.21338241 -0.05708504 0.06707889 0.04325982 0.17763096
0.14911492 -0.10134208 0.17540237 -0.07577176 -0.03318851 -0.3956393 -0.28273362 0.096701786
-0.4555103 -0.16161552 -0.0694249 -0.044274192 -0.058115255 0.045991547 -0.0643043 0.12430906
0.18147543 0.09880338 -0.04986364 -0.12937745 -0.14346409 -0.07163995 -0.036605775 -0.0027063175
0.33422863 -0.39312035 0.5331548 0.08916993 0.031001326 -0.3831973 0.19154926 -0.123957254
0.08743651 -0.42424843 0.2769368 -0.2684919 -0.10409424 -0.21638983 0.28629208 -0.13290435
0.35273322 0.17017819 0.12478699 -0.015338643 0.17885946 -0.022913767 0.004553202 0.086017855
-0.09140291 0.19160688 0.13853097 -0.22756568 0.30642086 -0.019263668 -0.28316507 -0.080796205
0.18285735 -0.1107812 0.31223333 -0.0783929 0.032141525 -0.63395303 0.42632815 -0.14529832
0.26934296 -0.036853977 -0.33103243 0.03610331 0.3849344 0.051942904 -0.5094028 0.2316163
-0.17832616 0.079278685 0.014818609 0.11728851 0.23207378 -0.124573275 0.21551381 -0.12920684
0.017027408 0.16568382 0.020999083 0.053131804 0.02497694 -0.12024676 0.099096835 -0.09147487
00000000: 4aa6 423e bbd8 003e b708 94bb 74ea f93d
00000010: 22d1 c7bd e771 4a3c 8ada 41be 855f 313e
00000020: b47f f8bb 74a5 86be 55f0 bf3d d5a0 a9bd
00000030: c894 d6be f223 c93d 6b77 623e cf40 4abe
00000040: db98 20be 64b4 94bd 0772 cfbe a23f e43a
00000050: 318d 71bd 5b0e 70be ca23 623e ca0d ef3d
00000060: cbc4 86be 9f66 2c3e f897 33be 2f3c bfbe
00000070: 9533 893e 3d1b 043e 2c17 2ebd 148d a7bb
00000080: 628c bb3d d9be 93be 79c6 4a3e 711d bb3c
00000090: 7f1b c13b bec4 273e 9e63 bebe 67bf d1be
000000a0: d14d a43d a069 b8be 13c6 32be 0ea4 fe3d
000000b0: dcfd 4fbd e197 493e 9be8 57be 61f6 203d
000000c0: 82a5 2abe 2dac 5d3e 4bd0 073d 309f 13be
000000d0: e4d7 d6bd 544b 453e b828 403e 8412 17be
000000e0: 8150 0a3e c45c 303c 20cc 843e 868e 243e
000000f0: 7d03 533e 8495 4dbe 9f4b c83e 2bff 433e
00000100: 8c4b 13bd 63b2 2bbd 3c9e 41bd 111e a33e
00000110: bc67 febe e680 fabe 093b 823e fd84 09be
00000120: 439c 493d 6e5f 6ebe 3783 a33e 7bc7 773c
00000130: 99f4 ae3c 600e 013e 8582 82bd d226 04be
00000140: 6265 6d3e cfdb 03be d5c1 82bd 7283 a03d
00000150: db03 d93d 0ea7 a5be beee ee3d 27ed 82bd
00000160: 0659 4bbe 7efb 733e aa94 7cbe f09f 22bd
00000170: 7fea ff3c 257e 66bc 2539 8b3c db13 c53e
00000180: 942d 59bd a729 b03d 2425 4b3d e159 08be
00000190: 5a2a 233e db30 a23c 095e ffbe 8f72 ab3d
000001a0: ecdd 7d3e c8d7 c2bd bfc6 2a3d 4bcc 583e
000001b0: 2250 a73e 13cc 3ebd 0903 8ebd 67e2 823e
000001c0: 691f 133e 7423 aabe 256a 7c3d 7186 e2bd
000001d0: a077 323e e6bc b2bd 3879 913e 7707 67be
000001e0: 1dca aebe 574c 70be f60c c13e e97a 66be
000001f0: c5c4 583e d399 003e 42e0 083e 1f36 f9bd
00000200: 0d29 933d 194f 5dbd 3362 843d c622 863d
00000210: 5e93 d9bd 3776 8dbd b7d2 943d 20c7 86bd
00000220: 08a4 223e 23c2 98bd 3509 dd3e e33e 3dbf
00000230: 7048 ba3e 75f2 0a3c 77cf 933d fc66 d9bd
00000240: 0404 14be 216b 6fbd 9d0e da3d 2014 8d3e
00000250: ba65 9bbe c0ad 8b3e 01e9 913e 2b53 83bd
00000260: 0e40 8cbe 1393 ed3d e69f 5d3c 76d4 583e
00000270: bbb7 003e cb4e 663e 6b78 233d 21db 7abe
00000280: 5f3c 3f3e e987 b0bd e5c8 dd3d eb80 5abe
00000290: 01d2 69bd a860 893d 3631 313d e4e4 353e
000002a0: 95b1 183e 708c cfbd ae9c 333e 392e 9bbd
000002b0: adf0 07bd 3c91 cabe 76c2 90be 960b c63d
000002c0: a538 e9be 8a7e 25be a42e 8ebd db58 35bd
000002d0: 430a 6ebd a261 3c3d f9b1 83bd c095 fe3d
000002e0: b2d4 393e 6d59 ca3d d13d 4cbd 867b 04be
000002f0: 40e8 12be f7b7 92bd f0ef 15bd 795c 31bb
00000300: 0420 ab3e 1247 c9be d57c 083f b99e b63d
00000310: 7ef6 fd3c 7032 c4be 7d25 443e 4ddd fdbd
00000320: ea11 b33d 1737 d9be a9ca 8d3e c577 89be
00000330: 5c2f d5bd 4c95 5dbe e094 923e 1418 08be
00000340: 7399 b43e 3143 2e3e 5290 ff3d ef4e 7bbc
00000350: ef26 373e a7b5 bbbc 0733 953b 212a b03d
00000360: 7331 bbbd 9834 443e 10db 0d3e fa06 69be
00000370: 32e3 9c3e d7ce 9dbc 03fb 90be 7b78 a5bd
00000380: f53e 3b3e 41e1 e2bd 0cdd 9f3e 758c a0bd
00000390: d5a6 033d bf4a 22bf af47 da3e 15c9 14be
000003a0: 52e7 893e 32f4 16bd 157d a9be 10e1 133d
000003b0: 1f16 c53e 15c2 543d 3968 02bf d32c 6d3e
000003c0: 229b 36be dd5c a23d c0c9 723c f534 f03d
000003d0: c0a4 6d3e 4620 ffbd a7af 5c3e cc4e 04be
000003e0: 107d 8b3c 05a9 293e 4506 ac3c bca0 593d
000003f0: 719c cc3c ef43 f6bd 48f3 ca3d 2d57 bbbd

conv3.bias f4 [32]
-0.026279835 -0.017625151 -0.020964028 -0.010720953 -0.01637422 -0.031358816 -0.033149723 -0.03164821
-0.0010059326 -0.004542153 -0.012488857 -0.020495217 0.014013708 -0.012936814 -0.005137445 -0.0078098266
-0.047800202 -0.07192092 -0.012399224 -0.019648701 -0.003601963 -0.035831098 -0.0013215252 -0.017199812
-0.042587575 -0.041042592 -0.010903448 -0.044234894 0.009919412 -0.035059303 -0.054850455 -0.0014844072
00000000: cf48 d7bc 9f62 90bc c1bc abbc f0a6 2fbc
00000010: 3a23 86bc 1a72 00bd 01c8 07bd 8ea1 01bd
00000020: 7fd9 83ba 57d6 94bb 109e 4cbc 96e5 a7bc
00000030: c099 653c eef4 53bc 0358 a8bb 93e9 ffbb
00000040: 25ca 43bd 464b 93bd 1d26 4bbc 50f6 a0bc
00000050: e90e 6cbb a1c3 12bd 0737 adba 9fe6 8cbc
00000060: 4f70 2ebd 471c 28bd 60a4 32bc a62f 35bd
00000070: 0885 223c 589a 0fbd dfaa 60bd 7190 c2ba

conv4.weight f4 [32, 32, 3, 3]
0.01674122 -0.08243373 -0.060497764 0.14879109 0.20956987 -0.10225873 0.14525285 0.17040795
-0.10063633 0.006448176 -0.07990878 -0.038677894 0.02862843 -0.052441083 0.020885285 0.05513925
-0.053038105 0.08528685 -0.027335487 0.10459769 0.01019689 -0.03702678 0.102435745 -0.09869112
0.071794204 0.11862687 -0.071862146 0.017438268 -0.19262874 0.0828715 -0.20146602 -0.09627429
0.19576645 -0.18292883 0.014722905 0.13001639 0.0454169 0.20394568 -0.15089299 0.08619227
0.13370845 -0.046532232 0.13704251 -0.04037131 -0.08160932 0.089593254 -0.031203607 -0.15710008
0.014060879 -0.009946271 -0.08742863 0.06613068 -0.04016801 0.020645939 0.07876682 0.12647009
-0.30512962 0.06211535 0.277279 -0.018326595 0.087049074 0.22587965 -0.004466635 0.14739385
0.05327448 -0.33958775 0.18438442 0.30362362 -0.37012514 0.2502533 0.029209996 -0.109496765
-0.07112368 0.04903044 -0.14665666 -0.07229608 0.38317254 0.034878362 0.043961458 0.024653343
-0.04389445 0.0066798064 0.05286819 -0.16167161 -0.08443513 0.028627329 -0.18857262 -0.08310883
-0.055351716 -0.17185521 -0.13005775 -0.042584974 -0.11743638 -0.12833141 -0.20983775 -0.12870471
0.25962177 -0.11629369 -0.22845833 -0.05357309 -0.13721828 0.10560273 -0.04013234 -0.12163175
-0.049871776 -0.049491595 -0.117209285 0.08265457 -0.090713054 -0.0704833 -0.07591454 -0.3426078
0.07556798 0.03196899 -0.23653507 0.12797366 0.07296488 -0.017119445 0.05799392 0.2860355
-0.091230564 0.021249494 0.26773107 0.16333766 -0.172779 -0.03059902 0.03650091 -0.1317919
-0.12816177 -0.15464076 0.009300717 -0.17401707 0.08188681 0.042987738 -0.02461753 0.061651986
0.041750066 -0.04516427 0.19589429 0.19228622 -0.11215917 0.07970381 0.26577556 -0.072656095
0.056346774 0.15004084 -0.0018007344 0.10962692 0.1399682 -0.25652215 0.02201594 0.16809663
-0.18331514 -0.19850776 -0.0080848085 -0.09807339 -0.20304288 -0.06332608 0.065008074 -0.009672093
-0.05890144 -0.028290365 -0.035357367 0.026772024 -0.102938436 -0.015783168 0.24091946 -0.13941135
-0.020112146 0.2343713 -0.15318269 -0.24643756 0.012032835 0.077425785 -0.1962878 -0.04465305
0.09214112 -0.40352532 -0.0816566 0.043110788 -0.084631056 -0.065757826 -0.017574769 -0.031486303
-0.07956011 -0.043382134 0.03525178 -0.08028717 -0.08820183 -0.2201048 -0.07389155 -0.008302603
-0.16616593 -0.14774933 0.21613 -0.10822222 -0.0068950853 -0.15817618 -0.11589814 0.06847279
0.050329912 0.064105585 0.022064062 0.124373674 -0.021096088 -0.048330817 -0.05760137 0.040612593
0.09516573 -0.12060411 -0.0177641 0.30938065 0.013226846 -0.019430427 0.1052397 -0.057748437
0.039931886 -0.16487306 -0.32458934 0.050102346 -0.09505022 0.008796342 0.10533121 0.06411447
0.17426805 0.024482803 -0.0385844 -0.056404818 0.15827963 0.079998635 -0.038835973 0.108893074
0.15155573 -0.08233973 -0.005594103 -0.07236176 -0.06632702 -0.033237286 0.15773422 0.014900439
-0.1247289 0.026425574 -0.00633695 0.11358662 0.015848603 -0.012226227 0.15860921 -0.13170741
-0.3289621 0.29810992 -0.23584805 -0.22319295 -0.019245893 -0.07557761 0.036084503 0.1198901
00000000: e224 893c 04d3 a8bd 81cc 77bd b15c 183e
00000010: 7c99 563e 066d d1bd 2abd 143e 6c7f 2e3e
00000020: 6c1a cebd 394b d33b 37a7 a3bd b66c 1ebd
00000030: 2b86 ea3c 76cc 56bd 9e17 ab3c b2d9 613d
00000040: 7c3e 59bd dfaa ae3d acee dfbc 5037 d63d
00000050: db10 273c 65a9 17bd d5c9 d13d 921e cabd
00000060: d708 933d a5f2 f23d 762c 93bd b3da 8e3c
00000070: 7840 45be 88b8 a93d 1c4d 4ebe 742b c5bd
00000080: 0077 483e b251 3bbe 5738 713c 0423 053e
00000090: 1207 3a3d 23d7 503e b183 1abe 9385 b03d
000000a0: deea 083e 9598 3ebd df54 0c3e 635c 25bd
000000b0: ca22 a7bd ab7c b73d b59e ffbc d8de 20be
000000c0: 9a5f 663c aff5 22bc c80d b3bd 866f 873d
000000d0: 3687 24bd ac21 a93c 8050 a13d 6081 013e
000000e0: f339 9cbe aa6c 7e3d 83f7 8d3e a821 96bc
000000f0: c946 b23d ff4c 673e da5c 92bb 6aee 163e
00000100: 5736 5a3d 72de adbe 45cf 3c3e 8e74 9b3e
00000110: 0b81 bdbe 3321 803e cd49 ef3c d73f e0bd
00000120: 4ba9 91bd 25d4 483d 2a2d 16be f80f 94bd
00000130: 312f c43e 9ddc 0e3d ee10 343d cff5 c93c
00000140: abca 33bd 47e2 da3b 518c 583d 3e8d 25be
00000150: 53ec acbd dc83 ea3c 2e19 41be f634 aabd
00000160: 7bb8 62bd d0fa 2fbe dc2d 05be 956d 2ebd
00000170: 7c82 f0bd 4f69 03be b5df 56be 2bcb 03be
00000180: 25ed 843e 632b eebd fbf0 69be 756f 5bbd
00000190: f382 0cbe 3e46 d83d cf61 24bd 111a f9bd
000001a0: 5946 4cbd b3b7 4abd 6c0b f0bd cd46 a93d
000001b0: c4c7 b9bd 8c59 90bd 1579 9bbd 4a6a afbe
000001c0: 63c3 9a3d eaf1 023d 4036 72be 870b 033e
000001d0: 9c6e 953d 143e 8cbc 088b 6d3d 3f73 923e
000001e0: 17d7 babd 6b13 ae3c 0c14 893e fd41 273e
000001f0: faec 30be ccaa fabc fa81 153d 75f4 06be
00000200: d73c 03be 265a 1ebe 0962 183c 8831 32be
00000210: 46b4 a73d e913 303d b4aa c9bc cb86 7c3d
00000220: 1e02 2b3d 2bfe 38bd 8398 483e aee6 443e
00000230: b5b3 e5bd c03b a33d bc13 883e b8cc 94bd
00000240: e0cb 663d 4ea4 193e 9f06 ecba 1484 e03d
00000250: d353 0f3e df56 83be c65a b43c 8621 2c3e
00000260: f7b6 3bbe 9e45 4bbe 2576 04bc b4da c8bd
00000270: 79ea 4fbe 1bb1 81bd f422 853d b377 1ebc
00000280: a342 71bd 32c1 e7bc e3d2 10bd 0151 db3c
00000290: 63d1 d2bd b44b 81bc 97b3 763e d9c1 0ebe
000002a0: 3ac2 a4bc 08ff 6f3e ecdb 1cbe 215a 7cbe
000002b0: 5e25 453c 6991 9e3d abff 48be 1ee6 36bd
000002c0: 7cb4 bc3d df9a cebe 933b a7bd f094 303d
000002d0: 0c53 adbd 0aac 86bd f6f8 8fbc c8f7 00bd
000002e0: 69f0 a2bd 77b1 31bd 2c64 103d 9a6d a4bd
000002f0: 29a3 b4bd 2763 61be 7454 97bd a407 08bc
00000300: 6727 2abe 9a4b 17be 2f51 5d3e 9ca3 ddbd
00000310: 2bf0 e1bb f0f8 21be 015c edbd 763b 8c3d
00000320: bd26 4e3d ca49 833d b1bf b43c a0b7 fe3d
00000330: b4d1 acbc 89f6 45bd 6aef 6bbd 6459 263d
00000340: 40e6 c23d 4aff f6bd 0586 91bc 2467 9e3e
00000350: 6ab5 583c 8f2c 9fbc e987 d73d a089 6cbd
00000360: 9e8f 233d 7cd4 28be 9330 a6be 1e38 4d3d
00000370: b1a9 c2bd 881e 103c e4b7 d73d 724e 833d
00000380: 5373 323e 2990 c83c ad0a 1ebd bd08 67bd
00000390: 0e14 223e 53d6 a33d 7812 1fbd 5503 df3d
000003a0: 6d31 1b3e bba1 a8bd bd4e b7bb 6732 94bd
000003b0: 76d6 87bd d223 08bd 1485 213e f920 743c
000003c0: de71 ffbd 727a d83c 31a6 cfbb 1aa0 e83d
000003d0: eed4 813c 8350 48bc 746a 223e 4fde 06be
000003e0: b86d a8be dda1 983e 2782 71be b18c 64be
000003f0: 90a9 9dbc 6fc8 9abd 58cd 133d f188 f53d

conv4.bias f4 [32]
0.015603688 -0.06613875 0.0029177994 0.05259065 0.007790813 -0.059767697 0.04948276 0.048506547
0.14310081 0.00978057 -0.085528746 -0.04273804 -0.023482198 0.0054281843 -0.0036935713 -0.06863231
0.081228964 0.08307622 -0.055700622 0.1331459 -0.009836863 -0.13008139 0.044486992 -0.02782529
-0.028295215 -0.09388844 -0.016460871 0.016419398 -0.014107537 -0.06905695 -0.037743993 0.036506627
00000000: 9ca6 7f3c c173 87bd 8d38 3f3b 4b69 573d
00000010: 144a ff3b f9ce 74bd 6fae 4a3d cdae 463d
00000020: 0589 123e af3e 203c b229 afbd 150e 2fbd
00000030: bd5d c0bc e9de b13b d80f 72bb 198f 8cbd
00000040: 5f5b a63d dd23 aa3d 5626 64bd 6657 083e
00000050: cb2a 21bc 0e34 05be fe37 363d ddf1 e3bc
00000060: 5ecb e7bc 9548 c0bd f3d8 86bc f981 863c
00000070: 4d23 67bc bb6d 8dbd 7299 1abd f987 153d

linear.weight f4 [256, 800]
0.17123084 0.06983515 -0.09588969 0.028494798 -0.4421677 0.04915603 -0.074103974 -0.027252145
0.051758304 -0.1887622 0.011558874 -0.30261585 -0.03519806 -0.0015998003 -0.113269754 -0.055011198
-0.049768966 -0.050321095 -0.093683936 -0.11663279 0.23826347 -0.036116328 -0.20675866 -0.5254719
-0.13362734 -0.09656769 -0.08360942 -0.053358026 0.016928436 0.503547 0.07131541 -0.13791035
0.0024771297 0.06742012 0.1495146 -0.051212575 -0.013777299 -0.01943948 0.015094005 0.3811952
-0.08006443 -0.08913486 -0.13181329 0.08536997 0.09659086 0.11367257 -0.048471123 -0.09962535
0.1648546 0.027298892 -0.07820287 -0.20701572 0.027817791 -0.25535932 0.58512294 0.1654993
0.022511162 -0.14537573 -0.0813623 0.3151069 -0.12747894 0.14432183 -0.17484075 -0.016718512
0.16596942 -0.05283124 0.14617603 0.06273901 0.04532592 -0.0121071115 0.106073745 0.28281924
-0.223616 -0.098779924 -0.39350548 0.39006647 0.258142 -0.050061174 0.0047200955 -0.14894126
-0.014145393 0.24031837 0.047605082 -0.01992102 -0.11777188 -0.28338382 0.15270033 0.03150452
-0.075131774 -0.051548086 0.060360197 0.38007256 0.19367072 -0.124416254 -0.12612094 -0.12494715
0.17229469 -0.06757999 -0.017360909 -0.15053369 -0.112299584 0.09211983 -0.06971652 0.03100395
0.017762702 0.107582554 -0.1610563 -0.1280462 -0.19895664 0.2184113 0.14214799 0.036980238
-0.12839673 0.0494498 -0.037536256 0.009245156 0.21197796 0.27857322 0.2193666 -0.16131648
0.08400323 -0.3384777 0.06957235 -0.13178799 0.06418327 -0.16344462 -0.05125971 -0.028815819
0.036579352 0.06110054 0.13517287 -0.07473047 -0.08571855 -0.044749442 0.2867658 -0.043336775
-0.23052436 -0.022905681 0.043259006 0.4364099 -0.13474067 -0.11351661 0.03297632 -0.007305012
0.20466463 0.12588088 -0.17553265 -0.3965473 -0.06670004 0.06747103 0.286509 -0.12561244
0.008613002 -0.14612158 0.207917 0.13681416 -0.13759308 -0.19893824 0.0014635839 0.029997597
-0.006442101 0.06739084 -0.036341712 -0.15800005 0.060065307 -0.123828344 0.20452903 -0.055533826
-0.2765063 0.09536704 -0.12791377 -0.4024372 -0.11550378 -0.28384867 0.1452113 0.06450999
0.012790211 0.004386578 0.05084633 0.05759158 0.14529875 0.101763256 0.0068216757 -0.028816616
0.041277915 -0.12602852 0.17550495 -0.009111997 -0.01238835 0.012256057 -0.054713015 0.1700994
-0.046141624 -0.17393373 0.10686655 0.06380571 0.40719748 -0.23051691 0.21152095 0.088250116
0.07764765 -0.19121876 -0.03953301 -0.005354194 -0.022583662 0.14417024 0.0042097326 0.026673965
0.1253793 0.09717935 -0.09520241 -0.013906201 0.020128906 -0.02638806 -0.018554633 -0.01269767
-0.173055 -0.29386938 -0.27967602 -0.087417535 -0.025857627 -0.22733516 -0.26003003 -0.6374774
-0.06718637 0.043715645 -0.10294626 -0.15007614 -0.33399004 0.12946524 -0.1318657 -0.11946134
-0.2868965 -0.19643705 -0.16046904 0.055870123 -0.086259425 -0.18506609 -0.050069883 -0.029437039
-0.04757991 0.008077091 -0.16120818 0.16705595 0.051024638 0.23479196 -0.06612693 0.017498204
-0.027264243 -0.026165761 0.17934734 0.104628675 -0.119672045 0.07552728 -0.0112652145 -0.1668235
00000000: 2357 2f3e bb05 8f3d d061 c4bd ec6d e93c
00000010: ce63 e2be d557 493d d3c3 97bd e43f dfbc
00000020: 8400 543d e14a 41be 6e61 3d3c 77f0 9abe
00000030: d72b 10bd 64b0 d1ba f9f9 e7bd 6c53 61bd
00000040: 8bda 4bbd 7e1d 4ebd 5ddd bfbd 2cdd eebd
00000050: 57fb 733e b7ee 13bd 8bb8 53be 5485 06bf
00000060: 9bd5 08be 48c5 c5bd 6a3b abbd f28d 5abd
00000070: 81ad 8a3c 75e8 003f d00d 923d 5f38 0dbe
00000080: 5757 223b 8f13 8a3d 5b1a 193e 47c4 51bd
00000090: 2eba 61bc 8b3f 9fbc d84c 773c 042c c33e
000000a0: d2f8 a3bd 568c b6bd 10fa 06be 73d6 ae3d
000000b0: 6ed1 c53d 2acd e83d a889 46bd 6008 ccbd
000000c0: a5cf 283e eda1 df3c d428 a0bd eefb 53be
000000d0: 23e2 e33c 75be 82be 9eca 153f a678 293e
000000e0: 5469 b83c 60dd 14be 47a1 a6bd b155 a13e
000000f0: d789 02be 1ac9 133e 7409 33be 43f5 88bc
00000100: e3f3 293e 9265 58bd 2baf 153e 4f7d 803d
00000110: aca7 393d e85c 46bc 313d d93d afcd 903e
00000120: 98fb 64be 214d cabd 8d79 c9be cbb6 c73e
00000130: 302b 843e f20c 4dbd 08ab 9a3b 0f84 18be
00000140: 14c2 67bc 0516 763e 8cfd 423d 6831 a3bc
00000150: 6232 f1bd af17 91be 7a5d 1c3e e20a 013d
00000160: b0de 99bd 1624 53bd 413c 773d df98 c23e
00000170: 9e51 463e f3cd febd d925 01be 4be4 ffbd
00000180: 056e 303e 6167 8abd 7738 8ebc 8125 1abe
00000190: 53fd e5bd 52a9 bc3d 89c7 8ebd fffb fd3c
000001a0: 1683 913c 3e54 dc3d f1eb 24be 8b1e 03be
000001b0: 4abb 4bbe 36a7 5f3e 3e8f 113e 9778 173d
000001c0: 6f7a 03be e08b 4a3d 9ebf 19bd ff78 173c
000001d0: c010 593e 26a1 8e3e a3a1 603e 2630 25be
000001e0: e309 ac3d f34c adbe f37b 8e3d 6ef3 06be
000001f0: 8572 833d 075e 27be b4f5 51bd 270f ecbc
00000200: 3bd4 153d 8f44 7a3d c26a 0a3e 4a0c 99bd
00000210: 358d afbd 314b 37bd f8d2 923e e781 31bd
00000220: 940e 6cbe b2a4 bbbc 5b30 313d 1e71 df3e
00000230: 75f9 09be 657b e8bd 2d12 073d e25e efbb
00000240: 9b93 513e ebe6 003e d5be 33be 3f08 cbbe
00000250: 089a 88bd 402e 8a3d 4fb1 923e 8ca0 00be
00000260: 8c1d 0d3c e5a0 15be 32e8 543e 0319 0c3e
00000270: 33e5 0cbe 77b6 4bbe bad5 bf3a 85bd f53c
00000280: 4318 d3bb 3504 8a3d 0cdb 14bd c4ca 21be
00000290: 0a07 763d b799 fdbd 0f70 513e 7077 63bd
000002a0: 3c92 8dbe cb4f c33d d4fb 02be 400c cebe
000002b0: 3f8d ecbd 9d54 91be 45b2 143e d01d 843d
000002c0: 088e 513c 49bd 8f3b 3e44 503d 26e5 6b3d
000002d0: 32c9 143e 4169 d03d 5d88 df3b d310 ecbc
000002e0: 0813 293d 9f0d 01be 92b7 333e 7c4a 15bc
000002f0: 82f8 4abc a1cd 483c c11a 60bd 8a2e 2e3e
00000300: 00ff 3cbd af1b 32be dadc da3d 91ac 823d
00000310: 307c d03e a00c 6cbe f398 583e 7abc b43d
00000320: bb05 9f3d dace 43be 5eed 21bd 3c72 afbb
00000330: 5f01 b9bc 5da1 133e ccf1 893b 5c83 da3c
00000340: 6e63 003e f805 c73d 7bf9 c2bd d6d6 63bc
00000350: 60e5 a43c c62b d8bc e3ff 97bc e309 50bc
00000360: 5435 31be 0c76 96be b231 8fbe f707 b3bd
00000370: 60d3 d3bc 8cca 68be a822 85be b831 23bf
00000380: 0299 89bd 2d0f 333d 7dd5 d2bd 8fad 19be
00000390: be00 abbe 8992 043e cd07 07be 26a8 f4bd
000003a0: 19e4 92be cb26 49be ff51 24be 12d8 643d
000003b0: c8a8 b0bd f781 3dbe 1416 4dbd f225 f1bc
000003c0: 27e3 42bd c655 043c c213 25be b710 2b3e
000003d0: 36ff 503d 4e6d 703e 8e6d 87bd 6558 8f3c
000003e0: 4359 dfbc 9459 d6bc d4a6 373e 8f47 d63d
000003f0: 9e16 f5bd 0cae 9a3d bc91 38bc c8d3 2abe

linear.bias f4 [256]
-0.36242783 -0.16877382 -0.108327165 -0.14415628 -0.087650985 -0.024337806 -0.09552662 -0.12939303
-0.16664176 -0.092363134 -0.06524489 -0.07018925 -0.1297363 -0.151842 -0.10405508 -0.04905732
-0.36989045 -0.26148403 -0.13819556 -0.14811702 -0.17704476 -0.09093856 -0.10683907 -0.38860825
-0.36796355 -0.47306696 -0.15998681 -0.12267994 -0.14083003 -0.10456298 -0.057796903 -0.082783796
-0.13739176 -0.11188019 -0.3047105 -0.11737208 -0.13830782 -0.07814915 -0.36119345 -0.13178074
-0.3188333 -0.29203326 -0.10877151 -0.054702148 -0.2748526 -0.1021821 -0.23357701 -0.07283779
-0.12979276 -0.09083875 -0.2886135 -0.14072141 -0.105810724 -0.11417551 -0.08923405 -0.1610301
-0.36772734 -0.08873119 -0.15344721 -0.20029195 -0.07675968 -0.080146216 -0.04564745 -0.09763988
-0.33751312 -0.10567801 -0.11286725 -0.155614 -0.03181003 -0.10379919 -0.114491254 -0.31411073
-0.15897599 -0.098406926 -0.151132 -0.092970505 -0.12151906 -0.05463154 -0.36360222 -0.15177123
-0.14882417 -0.007537326 -0.107366964 -0.116824634 -0.12657239 -0.070001006 -0.08435771 -0.14221743
-0.15399392 -0.10863087 -0.09663068 -0.30356127 -0.12160696 -0.069238864 -0.10695215 -0.06582336
-0.27944726 -0.06825165 -0.14722012 -0.1303349 -0.110286355 -0.13190602 -0.11603544 -0.18864273
-0.3310201 -0.155021 -0.16741644 -0.10762226 -0.079570614 -0.1257522 -0.4560254 -0.086002536
-0.144025 -0.1259518 -0.07230682 -0.31929448 -0.11075003 -0.06794178 -0.12810136 -0.112683624
-0.30076143 -0.10517744 -0.07174442 -0.06083555 -0.08137007 -0.017992543 -0.4886653 -0.35239294
-0.06946326 -0.06450145 -0.063679405 -0.042112816 -0.0864072 -0.07753584 -0.06213276 -0.1610188
-0.037491467 -0.3725504 -0.31602567 -0.12986486 -0.45248628 -0.41668063 -0.061899852 -0.09723112
-0.24157716 -0.13116242 -0.08420891 -0.17239426 -0.12603784 -0.1742905 -0.16810685 -0.22025022
-0.2573313 -0.40790087 -0.12202032 -0.022938183 -0.1196511 -0.09652991 -0.10342766 -0.092921354
-0.09299532 -0.27438036 -0.11500252 -0.11133642 -0.14978297 -0.14771912 -0.12915806 -0.11730734
-0.06186546 -0.3070314 -0.124850325 -0.28531444 -0.030358134 -0.3470653 -0.17420416 -0.0890437
-0.057230428 -0.285894 -0.18373027 -0.08094537 -0.3484671 -0.40229726 -0.08327676 -0.1150763
-0.10680896 -0.12215258 -0.041173406 -0.15407304 -0.1318104 -0.14392167 -0.40850744 -0.07376368
-0.13398884 -0.42653134 -0.09851237 -0.057078015 -0.13199195 -0.092252836 -0.07887703 -0.126695
-0.09290352 -0.12007811 -0.081252076 -0.21296221 -0.14668295 -0.07791344 -0.31245047 -0.07124627
-0.113962635 -0.0951405 -0.3118727 -0.61517984 -0.13257393 -0.22266267 -0.17303316 -0.13226008
-0.043427464 -0.1348814 -0.14189218 -0.10251248 -0.069368355 -0.19416764 -0.18362471 -0.1293392
-0.05882496 -0.106776185 -0.11797049 -0.12622653 -0.06871578 -0.019711269 -0.097493075 -0.07565507
-0.05002779 -0.05763861 -0.1732757 -0.13339551 -0.14042605 -0.32593626 -0.08438401 -0.13319157
-0.15925391 -0.028595977 -0.13298662 -0.1374628 -0.08423537 -0.09644355 -0.15765965 -0.16188109
-0.0783227 -0.091334395 -0.038382363 -0.31061012 -0.1108909 -0.16327527 -0.13731469 -0.18677156
00000000: 2490 b9be 0bd3 2cbe a2da ddbd b49d 13be
00000010: 5c82 b3bd 1460 c7bc 76a3 c3bd 9b7f 04be
00000020: 23a4 2abe e228 bdbd 1d9f 85bd 62bf 8fbd
00000030: 98d9 04be 787c 1bbe d41a d5bd 54f0 48bd
00000040: 4862 bdbe 3ce1 85be 2383 0dbe fdab 17be
00000050: 394b 35be ff3d babd 71ce dabd a9f7 c6be
00000060: b865 bcbe d535 f2be 95d3 23be 9f3f fbbd
00000070: bf35 10be 1e25 d6bd 72bc 6cbd 8d8a a9bd
00000080: 6db0 0cbe 7121 e5bd 0403 9cbe c660 f0bd
00000090: 91a0 0dbe a90c a0bd 59ee b8be 88f1 06be
000000a0: 1e3e a3be 6285 95be 99c3 debd 5c0f 60bd
000000b0: 7bb9 8cbe d944 d1bd d02e 6fbe fb2b 95bd
000000c0: 65e8 04be ab09 babd 26c5 93be 4619 10be
000000d0: 4bb3 d8bd dad4 e9bd 57c0 b6bd 13e5 24be
000000e0: c246 bcbe b3b8 b5bd 4421 1dbe 5519 4dbe
000000f0: 2e34 9dbd b323 a4bd d2f8 3abd 6bf7 c7bd
00000100: 85ce acbe b66d d8bd f226 e7bd 4759 1fbe
00000110: 3c4b 02bd ab94 d4bd 647a eabd 1fd3 a0be
00000120: 9aca 22be 9289 c9bd 59c2 1abe 5267 bebd
00000130: fcde f8bd 52c5 5fbd 122a babe eb69 1bbe
00000140: 5d65 18be acfb f6bb 36e3 dbbd c141 efbd
00000150: 319c 01be b05c 8fbd bcc3 acbd 72a1 11be
00000160: 95b0 1dbe dd79 debd 4ee6 c5bd 626c 9bbe
00000170: 120d f9bd 1bcd 8dbd bb09 dbbd 66ce 86bd
00000180: b613 8fbe 85c7 8bbd dfc0 16be 8376 05be
00000190: d0dd e1bd 5f12 07be fda3 edbd 8f2b 41be
000001a0: 777b a9be d3bd 1ebe 376f 2bbe 0f69 dcbd
000001b0: ebf5 a2bd 2fc5 00be 297c e9be 1922 b0bd
000001c0: 4a7b 13be 82f9 00be 9915 94bd 917a a3be
000001d0: e9d0 e2bd 0f25 8bbd 012d 03be acc6 e6bd
000001e0: 67fd 99be 4567 d7bd bdee 92bd b32e 79bd
000001f0: 5aa5 a6bd 1965 93bc 5732 fabe d96c b4be
00000200: c142 8ebd 5619 84bd 596a 82bd 7d7e 2cbd
00000210: 42f6 b0bd 1ccb 9ebd ec7e 7ebd 1de2 24be
00000220: a790 19bd edbe bebe 1ece a1be 4bfb 04be
00000230: 48ac e7be 2a57 d5be b38a 7dbd 1c21 c7bd
00000240: 0160 77be 714f 06be b975 acbd 1f88 30be
00000250: 1010 01be 3579 32be 3424 2cbe 4689 61be
00000260: eec0 83be 62d8 d0be cae5 f9bd dbe8 bbbc
00000270: a30b f5bd 79b1 c5bd e2d1 d3bd 8d4d bebd
00000280: 5574 bebd 957b 8cbe 7186 ebbd 5904 e4bd
00000290: b560 19be ae43 17be 0342 04be d53e f0bd
000002a0: a366 7dbd 3833 9dbe 87b1 ffbd bc14 92be
000002b0: 9fb1 f8bc 8bb2 b1be 9362 32be 8b5c b6bd
000002c0: 746a 6abd b360 92be ca23 3cbe b0c6 a5bd
000002d0: 486a b2be e8f9 cdbe 028d aabd 20ad ebbd
000002e0: a8be dabd 222b fabd 72a5 28bd 53c5 1dbe
000002f0: 4ef9 06be 3460 13be e327 d1be 6a11 97bd
00000300: 5f34 09be 5162 dabe dac0 c9bd a3ca 69bd
00000310: e628 07be 0eef bcbd 488a a1bd 56bc 01be
00000320: 3344 bebd 83eb f5bd 7d67 a6bd c412 5abe
00000330: 0e34 16be 1591 9fbd 82f9 9fbe 90e9 91bd
00000340: 3e65 e9bd 06d9 c2bd c7ad 9fbe 6d7c 1dbf
00000350: 76c1 07be af01 64be 9b2f 31be 306f 07be
00000360: ffe0 31bd 5a1e 0abe 2f4c 11be 10f2 d1bd
00000370: ff10 8ebd e2d3 46be 1e08 3cbe 7f71 04be
00000380: 71f2 70bd 79ad dabd 839a f1bd 8741 01be
00000390: dcba 8cbd 8779 a1bc 73aa c7bd 0cf1 9abd
000003a0: f1e9 4cbd 7716 6cbd 2f6f 31be d598 08be
000003b0: d9cb 0fbe 1ee1 a6be 86d1 acbd 5f63 08be
000003c0: 7513 23be 1c42 eabc a52d 08be 0cc3 0cbe
000003d0: 9883 acbd 3284 c5bd 8871 21be 28c4 25be
000003e0: a767 a0bd 870d bbbd d336 1dbd 4a08 9fbe
000003f0: c51a e3bd a231 27be 399c 0cbe 0b41 3fbe

critic_linear.weight f4 [1, 256]
-0.07790835 0.0019319606 -0.0015090997 0.0005055177 0.0036712806 -0.00451158 -4.6746234e-05 0.0007082471
-0.005016197 -0.00077477354 -0.0019814451 0.0013449661 -0.00029238703 0.00049496803 -0.0015614693 0.0006354043
0.006597263 -0.0002546745 0.0020469483 0.0007758246 -0.0008922962 0.00014853165 -0.0006525785 0.02762471
0.07880789 -0.014746342 -1.3618425e-05 0.0017942582 0.0025140133 -0.00030131722 -0.0018258479 -0.0017631546
-0.0023142234 0.00020430106 -0.02268915 0.0027220463 -0.00027086618 0.0013117851 -0.048536927 0.062521994
-0.00064484304 -0.002387284 -0.0032411849 0.0005559935 -0.010981889 -0.00048897736 -0.015896657 0.0009666308
0.0023972862 0.004906288 0.0020907652 -0.0011569711 -0.0017914127 -0.00020812335 0.00056813326 0.003548061
-0.0024427264 0.0006006306 -0.0020407173 0.0020767397 -0.00077073765 -0.0015462036 0.032496314 -0.0022330477
0.0013753597 -0.0016324251 0.00026646085 0.0005017683 0.002007607 0.0033604593 0.0005208302 -0.02059916
-0.00097603543 -0.00049140316 -0.0007077026 -0.0027106565 9.932488e-05 7.5351214e-05 -0.004003981 0.017056389
-0.0027734104 0.00011200824 -0.001771605 0.0012857743 0.0016674369 0.0019110861 -0.0010603643 -0.0016766483
-0.003631422 -0.001305666 0.006584237 -0.0048627015 -0.0030854593 -0.0010972043 0.0013646196 -0.002152029
0.0048131375 -0.0014249649 -0.0007221953 0.0042707003 -0.001801126 -0.0020576522 0.001487736 -0.0018847707
-0.0011042642 -0.0011366211 0.0010140762 0.0011886836 0.00459825 0.0021561212 -0.014277406 -0.00092391885
-0.0016196766 0.001659434 -0.0023173038 -0.022588622 -0.0031372285 -0.002385713 -0.0009342726 -0.0014749208
-0.07210095 0.0009974237 0.0020386144 0.0010366625 -0.0012892094 -0.012277084 0.010113918 -0.0038890722
-0.00050291675 0.0025636575 0.0050526154 0.00044171445 0.002053754 0.0003221449 0.0017141646 0.08996529
-0.0014067373 0.010721238 0.013497466 0.0011855342 0.008136482 -0.0023832081 0.00048130538 -0.0016288954
0.002698031 0.0028255987 -0.0024800724 -0.005502896 0.00014265944 -0.00061830535 -0.0002965287 -0.0032282185
-0.050494205 -0.0018372718 -0.0035986358 0.00088824314 0.0023585695 0.001342777 0.001764251 -0.0021227458
0.0020243053 0.06315463 -0.0035121872 0.0025723372 -0.0005653465 0.00055115094 0.0013204903 -0.0017429203
0.0002455464 0.020474406 0.0020618762 0.04020223 -0.0048861867 0.0065728733 0.0008145739 0.004611207
0.0030497874 -0.05332575 -0.006887799 -0.001226269 -0.010882438 -0.007236799 -2.7373964e-05 0.0012208102
-0.0031599854 -0.00047513933 0.00039831936 -0.00013504204 -0.0026665737 -0.0013612491 -0.004065593 0.00077497686
0.0011394669 -0.1277843 -0.0024438114 0.000396218 0.004647196 -0.00073994434 0.0022318666 1.3179857e-05
0.0017057803 0.00012555785 -0.0006591959 0.023269085 0.0006181655 -0.0003730356 -0.043947864 -0.00021823894
-0.001709569 0.073278904 0.013261725 -0.04466778 0.0021710396 -0.08463465 -0.0011737508 0.08775301
0.057063494 0.00031081372 0.00047256012 0.0004593396 0.00023761866 0.0021330307 -0.07384938 -0.0007901988
-0.0014974447 0.0013828615 0.0021407516 0.0014562904 0.00081297575 -0.0006503955 0.0025764008 0.0016632172
-0.00040255257 -0.0006772413 0.0016817626 -0.00041184181 0.0012040432 0.0001210703 -0.002881693 0.0011838488
0.003971493 -0.0010551673 0.00094170525 0.0010648691 -0.0016186744 0.0037292158 0.0002162999 -0.002852458
0.00079887366 0.0014533828 -0.0028372796 0.008280863 0.00048347222 -0.0116006145 -0.0037592384 0.055718016
00000000: 6a8e 9fbd d739 fd3a fccc c5ba b884 043a
00000010: de99 703b e0d5 93bb 6311 44b8 a9a9 393a
00000020: e95e a4bb 2c1a 4bba 22db 01bb 9349 b03a
00000030: 864b 99b9 bec0 013a 37aa ccba 4391 263a
00000040: da2d d83b d585 85b9 1826 063b b560 4b3a
00000050: fce8 69ba 29bf 1b39 cd11 2bba 374d e23c
00000060: 0866 a13d a49a 71bc b17a 64b7 512d eb3a
00000070: 25c2 243b 1dfa 9db9 4a51 efba a719 e7ba
00000080: 3aaa 17bb a639 5639 99de b9bc 5c64 323b
00000090: 0b03 8eb9 34f0 ab3a a8ce 46bd 880b 803d
000000a0: af0a 29ba fb73 1cbb 0f6a 54bb 18c0 113a
000000b0: 62ed 33bc b72e 00ba b539 82bc 7f65 7d3a
000000c0: ca1b 1d3b edc4 a03b 3805 093b 82a5 97ba
000000d0: d6cd eaba b03b 5ab9 c7ee 143a 9686 683b
000000e0: 2616 20bb a373 1d3a 8ebd 05bb e919 083b
000000f0: 540b 4aba fca9 caba db1a 053d 5358 12bb
00000100: 6a45 b43a 19f7 d5ba c5b3 8b39 1a89 033a
00000110: 0e92 033b 273b 5c3b 5388 083a 92bf a8bc
00000120: a1dc 7fba 82d1 00ba 1e85 39ba 45a5 31bb
00000130: a44c d038 e005 9e38 d433 83bb d7b9 8b3c
00000140: 1bc2 35bb f7e5 ea38 3335 e8ba 6d87 a83a
00000150: e68d da3a 697d fa3a ecfb 8aba fbc2 dbba
00000160: 27fd 6dbb e222 abba 95c0 d73b 4c57 9fbb
00000170: 6b35 4abb 11d0 8fba 09dd b23a 0e09 0dbb
00000180: 86b7 9d3b e3c5 baba b551 3dba 3bf1 8b3b
00000190: c313 ecba add9 06bb 2300 c33a 690a f7ba
000001a0: f5bc 90ba adfa 94ba c0ea 843a 9acd 9b3a
000001b0: ebac 963b b64d 0d3b c8eb 69bc 2533 72ba
000001c0: 544b d4ba 5e81 d93a e8dd 17bb c60b b9bc
000001d0: f699 4dbb 9f59 1cbb f9e9 74ba 2152 c1ba
000001e0: aaa9 93bd fcbb 823a 469a 053b 9fe0 873a
000001f0: b0fa a8ba d325 49bc d9b4 253c cedf 7ebb
00000200: 2cd6 03ba 0903 283b 6990 a53b e995 e739
00000210: 4698 063b 8ee5 a839 d2ad e03a b93f b83d
00000220: 4562 b8ba 22a8 2f3c 7a24 5d3c ed63 9b3a
00000230: e14e 053c 992f 1cbb b757 fc39 a980 d5ba
00000240: 73d1 303b ae2d 393b b688 22bb a351 b4bb
00000250: da96 1539 c515 22ba 6977 9bb9 8590 53bb
00000260: 03d3 4ebd 9dd0 f0ba 17d7 6bbb fdd8 683a
00000270: 3b92 1a3b 1f00 b03a 713e e73a c41d 0bbb
00000280: 35aa 043b 3757 813d b92c 66bb a894 283b
00000290: c333 14ba 1d7b 103a 4d14 ad3a b372 e4ba
000002a0: aebc 8039 f1b9 a73c 8b20 073b 18ab 243d
000002b0: 4e1c a0bb 4261 d73b 2189 553a 9c19 973b
000002c0: f1de 473b 1a6c 5abd 0cb3 e1bb c3ba a0ba
000002d0: 414c 32bc ac22 edbb 24a1 e5b7 9803 a03a
000002e0: c217 4fbb 1f1c f9b9 85d5 d039 129a 0db9
000002f0: afc1 2ebb f16b b2ba aa38 85bb d127 4b3a
00000300: 2a5a 953a e3d9 02be 5a28 20bb 7bbb cf39
00000310: 8147 983b d3f8 41ba 8244 123b 0e1f 5d37
00000320: 7d94 df3a 2ea8 0339 e3cd 2cba cf9e be3c
00000330: 620c 223a fe93 c3b9 ad02 34bd 12d7 64b9
00000340: 9e13 e0ba 4013 963d b547 593c 90f5 36bd
00000350: 0048 0e3b ee54 adbd 8bd8 99ba dab7 b33d
00000360: 69bb 693d b6f4 a239 f2c1 f739 84d3 f039
00000370: 4629 7939 51ca 0b3b 583e 97bd 5825 4fba
00000380: e845 c4ba 2241 b53a da4b 0c3b ffe0 be3a
00000390: e11d 553a 4e7f 2aba d5d8 283b 4f00 da3a
000003a0: b10d d3b9 e588 31ba 976e dc3a 79ec d7b9
000003b0: fcd0 9d3a 1fe7 fd38 c9da 3cbb 602b 9b3a
000003c0: 4c23 823b 8a4d 8aba c5dc 763a 1493 8b3a
000003d0: b329 d4ba dc65 743b 90ce 6239 4ef0 3abb
000003e0: 816b 513a 6f7f be3a a7f1 39bb 75ac 073c
000003f0: 8b7a fd39 8110 3ebc 8e5d 76bb 9338 643d
