21-A3C-Pong/runs/PongNoFrameskip-v4/2022-11-02_20-10_Second80MSteps_OK/model_sam_BreakoutDeterministic-v4_conv.10.tar (torch, 947003 bytes, 13 tensors)

conv1.weight f4 [32, 4, 3, 3]
0.15065862 -0.10076451 0.0043485994 0.104947075 -0.22827874 0.10629469 -0.1020965 0.09687546
0.0525182 0.015124635 0.08181175 0.026909428 0.11361615 -0.010222374 0.01610958 -0.098096095
-0.018311111 0.06507015 0.094863474 0.0806601 -0.07599385 -0.081402905 -0.0599859 0.0050191493
-0.047403295 -0.059245415 0.1740977 0.10467765 -0.06662423 0.060899686 0.031969704 0.1398552
0.0918767 -0.19160411 -0.28078878 -0.05827472 0.254147 -0.02254799 -0.046040293 -0.07003357
0.34300175 -0.2299155 0.12109982 0.031656154 -0.027888589 0.17501119 -0.10211348 0.028121699
-0.10227535 0.09326247 -0.22053738 -0.15329264 0.060694892 -0.010999788 0.19102868 0.15259008
-0.035602335 -0.103944905 0.17283054 -0.034959774 -0.18256915 0.1169091 0.086267486 0.22788607
-0.027903821 -0.088684924 -0.05316367 0.066170804 -0.17001498 -0.22890058 0.1364068 -0.06806884
0.009289331 0.042782877 -0.010530023 0.09907022 0.19037545 -0.12512447 -0.14173181 0.12972385
-0.12648343 -0.19685829 0.027954103 -0.04233969 0.095725834 0.044815704 -0.30384207 0.12648162
-0.014245072 0.017767 -0.018598685 -0.118179396 0.08943566 0.072205625 -0.037275586 -0.25035816
0.014604119 0.08941914 -0.072724655 -0.039300513 0.22652608 -0.04421388 0.16188082 0.14300556
-0.20427465 -0.20117913 0.26382896 -0.013533904 0.16278784 0.03762089 0.057218045 0.19476119
0.35319155 -0.11057895 0.042663917 0.21955432 0.150622 0.11395518 -0.2065622 -0.074290395
-0.099932455 -0.04082275 0.18014793 -0.11573597 0.04430257 -0.147193 -0.22653677 -0.1027125
0.11485232 0.11392048 -0.11762034 0.025345432 0.08812518 0.025669858 0.015149045 0.1141527
0.06875353 0.04573778 -0.22315773 -0.21158959 -0.05593234 -0.10047936 -0.12178491 0.0069064694
0.097500764 -0.03271199 -0.020108763 0.09171847 0.17182031 0.07309664 -0.092922084 0.15016904
0.015639165 -0.030501226 -0.18889433 -0.13905862 -0.15010995 -0.06600619 0.08959896 -0.11224466
-0.2489012 0.12130714 -0.027210765 0.1799947 -0.17122434 0.06693406 -0.0815513 -0.003052662
-0.084168516 -0.18647335 -0.018575618 0.10069335 0.16278064 -0.029313983 0.14836368 0.20488201
0.118217275 0.009268136 -0.19988678 0.11277793 0.059728757 -0.031337835 -0.16556253 -0.07050373
-0.05811269 0.19427665 -0.14943197 -0.19487125 0.008622821 -0.0654457 0.0011860474 -0.058830626
-0.13868278 0.018153451 0.16854846 -0.121196315 0.050765425 0.10545908 0.19093196 -0.10864895
0.023796242 -0.123591214 0.16816251 -0.06146772 0.15455474 -0.05339486 -0.07846712 0.06498006
0.04816419 0.05978999 -0.00027075835 0.07202844 -0.10268827 0.18245994 0.13422012 0.12379336
0.14870311 -0.19797811 -0.08779976 0.18975857 0.0024372938 0.08370047 -0.13834122 -0.053352635
0.1182614 -0.08461121 -0.096416 0.14125621 0.15608656 0.27670047 -0.12320346 -0.16652432
0.11579653 -0.08493601 -0.11554079 0.05658281 -0.069606125 0.21837538 0.1601067 -0.18787697
-0.16876163 -0.024241323 0.054088086 0.00932627 -0.057284683 0.05962253 -0.14862221 -0.012442401
-0.11550267 0.15565543 0.17844106 -0.104614966 0.026043128 0.03163969 0.14416625 -0.080955856
00000000: 4146 1a3e a05d cebd b27e 8e3b 7eee d63d
00000010: e7c1 69be 08b1 d93d f817 d1bd a466 c63d
00000020: 531d 573d 51cd 773c eb8c a73d 2971 dc3c
00000030: 96af e83d bf7b 27bc 3df8 833c 9be6 c8bd
00000040: 2f01 96bc 8043 853d c847 c23d 1f31 a53d
00000050: aaa2 9bbd 91b6 a6bd c6b3 75bd ad77 a43b
00000060: f529 42bd 52ab 72bd ab46 323e 3c61 d63d
00000070: 4972 88bd f371 793d aaf2 023d 3436 0f3e
00000080: da29 bc3d de33 44be 8cc3 8fbe 79b1 6ebd
00000090: 8e1f 823e 90b6 b8bc bf94 3cbd c36d 8fbd
000000a0: ed9d af3e f86e 6bbe 2f03 f83d e2a9 013d
000000b0: 9c76 e4bc 2236 333e df20 d1bd 7a5f e63c
000000c0: bd75 d1bd 6500 bf3d 8dd4 61be bff8 1cbe
000000d0: 359b 783d 7438 34bc 069d 433e 9340 1c3e
000000e0: c1d3 11bd 11e1 d4bd 7dfa 303e fb31 0fbd
000000f0: 68f3 3abe 0a6e ef3d 02ad b03d f75a 693e
00000100: 8e96 e4bc 71a0 b5bd 26c2 59bd 8f84 873d
00000110: 6818 2ebe ea64 6abe 39ae 0b3e ad67 8bbd
00000120: 4732 183c 193d 2f3d 1e86 2cbc 54e5 ca3d
00000130: c8f1 423e a120 00be 2522 11be 54d6 043e
00000140: df84 01be 3895 49be 0100 e53c 626c 2dbd
00000150: e80b c43d ac90 373d 3091 9bbe 6684 013e
00000160: 2a64 69bc 198c 913c 455c 98bc 0a08 f2bd
00000170: 0b2a b73d 8be0 933d 49ae 18bd f22e 80be
00000180: 1d46 6f3c 6221 b73d aaf0 94bd 93f9 20bd
00000190: 74f6 673e 9d19 35bd 16c4 253e 0d70 123e
000001a0: 602d 51be e701 4ebe 9714 873e 4fbd 5dbc
000001b0: dbb1 263e 5d18 1a3d 785d 6a3d 7a6f 473e
000001c0: 86d5 b43e 3777 e2bd 5cc0 2e3d d9d2 603e
000001d0: a73c 1a3e 5561 e93d 0b85 53be 9025 98bd
000001e0: 63a9 ccbd c235 27bd b378 383e fb06 edbd
000001f0: 9d76 353d c3b9 16be 41f9 67be ee5a d2bd
00000200: b137 eb3d 244f e93d efe2 f0bd 39a1 cf3c
00000210: f97a b43d 9849 d23c b333 783c e4c8 e93d
00000220: a7ce 8c3d 8a57 3b3d 7683 64be f1aa 58be
00000230: 4f19 65bd 1fc8 cdbd 5e6a f9bd aa4f e23b
00000240: 7bae c73d 02fd 05bd 22bb a4bc e5d6 bb3d
00000250: aaf1 2f3e b1b3 953d ef4d bebd eac5 193e
00000260: b51d 803c b5dd f9bc 846d 41be 6265 0ebe
00000270: 6cb6 19be 412e 87bd a97f b73d 87e0 e5bd
00000280: f5df 7ebe e16f f83d 1ce9 debc 8850 383e
00000290: 6f55 2fbe b914 893d 5e04 a7bd 2b0f 48bb
000002a0: 8b60 acbd dff2 3ebe e52b 98bc 5138 ce3d
000002b0: f8af 263e e123 f0bc a6ec 173e 97cc 513e
000002c0: e61b f23d 61d9 173c 1faf 4cbe 1ef8 e63d
000002d0: 24a6 743d 1a5c 00bd 3989 29be 4264 90bd
000002e0: 9207 6ebd 75f0 463e b204 19be 548c 47be
000002f0: bc46 0d3c 6508 86bd 2675 9b3a 62f8 70bd
00000300: dc02 0ebe 8cb6 943c f897 2c3e c635 f8bd
00000310: 68ef 4f3d eefa d73d ab83 433e 5783 debd
00000320: 56f0 c23c 641d fdbd cb32 2c3e 93c5 7bbd
00000330: 9943 1e3e 92b4 5abd 5fb3 a0bd 4414 853d
00000340: d047 453d 59e6 743d 92f4 8db9 a683 933d
00000350: 3a4e d2bd c7d6 3a3e 0071 093e 6087 fd3d
00000360: a145 183e c6ba 4abe 5cd0 b3bd 1250 423e
00000370: 01bb 1f3b 276b ab3d 52a9 0dbe 4b88 5abd
00000380: 0833 f23d a448 adbd c075 c5bd 78a5 103e
00000390: 28d5 1f3e afab 8d3e 1852 fcbd 5a85 2abe
000003a0: bb26 ed3d eef2 adbd a6a0 ecbd 60c3 673d
000003b0: a88d 8ebd cc9d 5f3e 03f3 233e d262 40be
000003c0: d9cf 2cbe bd95 c6bc 788b 5d3d 36cd 183c
000003d0: 58a3 6abd c136 743d 6c30 18be 36db 4bbc
000003e0: aa8c ecbd 2364 1f3e 41b9 363e 5f40 d6bd
000003f0: 6658 d53c 9f98 013d 51a0 133e 2fcc a5bd

conv1.bias f4 [32]
-0.048586987 -0.06418126 0.033984844 -0.077812664 -0.017371725 -0.092004105 -0.012861435 -0.062329035
-0.10297087 -0.011348602 -0.0007825463 -0.059097245 -0.052525625 0.13415076 -0.03509284 0.06408601
-0.20235217 -0.13966681 -0.03178732 -0.07229329 -0.00506697 0.00608173 -0.027093688 -0.053581428
0.007182671 -0.0013472921 -0.08084397 0.038222395 -0.053772245 0.25548786 -0.021362819 0.0069119604
00000000: 2603 47bd 7771 83bd b133 0b3d 3f5c 9fbd
00000010: 264f 8ebc a66c bcbd c5b8 52bc bb4c 7fbd
00000020: 64e2 d2bd 7def 39bc cb23 4dba f40f 72bd
00000030: 1c25 57bd d15e 093e 83bd 0fbd 873f 833d
00000040: 6835 4fbe d104 0fbe 6c33 02bd 810e 94bd
00000050: d308 a6bb 4049 c73b 95f3 ddbc 3378 5bbd
00000060: 9d5c eb3b 9f97 b0ba 8691 a5bd 168f 1c3d
00000070: 4940 5cbd 4ecf 823e 1401 afbc ba7d e23b

conv2.weight f4 [32, 32, 3, 3]
0.022008045 0.062317636 0.10088985 -0.028267024 -0.049827185 0.067657314 0.005754435 0.10971225
-0.1135279 -0.041179027 0.007871524 0.15508676 0.13120154 -0.29089764 -0.022468971 -0.15543279
0.023863092 -0.013659895 0.034289364 -0.032398455 -0.0227925 0.09364967 -0.11652926 0.020105436
-0.15736574 0.0019226983 -0.036434475 0.045653846 -0.13573033 0.08443037 0.0305923 0.013637697
0.06968822 -0.119298115 0.050857417 0.093265764 -0.0049635842 -0.050225426 -0.017411044 0.057007328
-0.044214915 -0.021288259 -0.0009495062 0.0266543 0.07225822 -0.016158769 0.02096118 0.084313735
-0.0028626476 -0.20152396 0.12742363 0.019508716 -0.026659459 0.11332946 0.037219577 -0.002371751
0.01289307 -0.05973574 -0.16411707 0.12963651 -0.12725733 0.030169966 0.08674015 0.026011817
-0.0037559501 -0.016149001 -0.04058584 -0.0076522236 0.06877476 -0.019949513 0.0465828 0.027247252
-0.08431994 0.10743003 -0.0013359037 0.0057798494 -0.09224492 -0.08174666 -0.03773652 -0.08721135
0.20406494 -0.0036026326 -0.015962636 0.06582049 0.019960238 0.006450259 -0.09415771 -0.06792087
0.05794218 0.12921013 -0.06133121 -0.08380744 -0.10071766 -0.0726242 -0.087483756 0.054404102
0.026595863 0.11973947 0.02124484 -0.039475504 -0.02126373 0.011530786 0.03560275 -0.10459369
0.065473974 -0.1266465 0.08291226 0.037891127 0.0071783112 0.12363058 -0.008549772 -0.007983556
-0.19054304 -0.020849288 0.041045107 -0.13741758 0.04910634 0.011968515 0.07343879 -0.06663821
0.04868139 0.09274028 -0.096771695 -0.005614326 -0.24720363 0.051189817 -0.075325646 -0.023153493
0.10379463 0.015152112 -0.043259863 0.0050408514 -0.03779391 0.08828565 0.0019852521 0.040225055
-0.14451635 -0.037837744 -0.058126017 0.10103355 0.13652483 -0.053205557 0.08062265 -0.18056743
-0.0684832 -0.08526561 0.037627246 0.02038545 -0.15094061 0.10569653 -0.051714934 0.0033343532
0.19688517 -0.13798717 -0.030894449 0.08700416 -0.013031342 0.07270467 -0.029090712 -0.050680663
-0.06369023 0.03863753 0.03046981 0.11458231 -0.0058692214 0.017409155 -0.12015587 0.012685062
-0.12044612 -0.0035354604 0.123181805 -0.038688704 -0.0015071874 0.043051444 -0.115422465 0.048899624
-0.060178157 0.115524255 -0.19112314 0.060904883 0.027601523 -0.000482496 -0.022524044 0.0028534268
0.0163218 -0.038739823 0.08979796 0.0008943554 -0.005773093 -0.15280299 0.0872417 0.16963154
0.089065716 0.05179793 -0.018428896 0.11594804 0.027127082 -0.17933494 -0.0008483646 0.004388075
-0.04482913 -0.16345528 0.05317301 -0.0016091871 0.19065548 -0.1036905 -0.054009635 -0.08129744
-0.12707211 0.16477157 -0.06368208 0.19263195 -0.06658779 -0.022873312 0.053434104 0.025959305
0.06219623 0.15388088 -0.019058231 -0.024070375 -0.11755405 0.008563577 0.14226604 -0.096322075
0.02184188 0.044542655 0.008657044 0.085022256 -0.14854856 0.10029424 -0.044674706 0.0751359
-0.020321738 0.03612383 0.032642838 -0.10520551 -0.009505902 -0.14523901 0.013391078 0.046734694
0.077280246 0.021221876 0.08459523 0.08211713 -0.16451333 0.030564424 -0.17274237 0.18966658
0.022356778 0.1570105 -0.015817674 -0.08671604 -0.03449095 -0.13255015 0.08667415 0.0050461125
00000000: 374a b43c c740 7f3d 569f ce3d 3f90 e7bc
00000010: 9717 4cbd eb8f 8a3d b38f bc3b d1b0 e03d
00000020: 5181 e8bd 57ab 28bd 91f7 003c 10cf 1e3e
00000030: b259 063e 89f0 94be d910 b8bc c629 1fbe
00000040: 887c c33c c1cd 5fbc 0173 0c3d 3eb4 04bd
00000050: 56b7 babc 66cb bf3d e5a6 eebd 28b4 a43c
00000060: 7c24 21be 0d03 fc3a 513c 15bd 87ff 3a3d
00000070: e4fc 0abe d4e9 ac3d b49c fa3c a670 5f3c
00000080: b3b8 8e3d 9252 f4bd de4f 503d 1f02 bf3d
00000090: 90a5 a2bb 2db9 4dbd 9ba1 8ebc 8480 693d
000000a0: b31a 35bd b764 aebc 48e8 78ba 1e5a da3c
000000b0: 1efc 933d 655f 84bc c8b6 ab3c aeac ac3d
000000c0: 429b 3bbb 4c5c 4ebe 577b 023e bed0 9f3c
000000d0: f064 dabc 4719 e83d 8e73 183d 616f 1bbb
000000e0: 743d 533c 77ad 74bd 4e0e 28be 6fbf 043e
000000f0: bf4f 02be 0127 f73c d2a4 b13d bc16 d53c
00000100: 6326 76bb e94a 84bc 563d 26bd 81bf fabb
00000110: c8d9 8c3d 296d a3bc 9bcd 3e3d a135 df3c
00000120: efaf acbd 4704 dc3d 7d19 afba e464 bd3b
00000130: e8ea bcbd cb6a a7bd 9c91 1abd dd9b b2bd
00000140: 66f6 503e 251a 6cbb 13c4 82bc e5cc 863d
00000150: a783 a33c b25c d33b c2d5 c0bd 191a 8bbd
00000160: c854 6d3d a94f 043e 6f36 7bbd 3ca3 abbd
00000170: 0f45 cebd ffbb 94bd af2a b3bd d6d6 5e3d
00000180: 91df d93c f839 f53d a909 ae3c 11b1 21bd
00000190: 4631 aebc 9feb 3c3c 30d4 113d 3735 d6bd
000001a0: 3817 863d 9faf 01be e7cd a93d ba33 1b3d
000001b0: 0a38 eb3b 0832 fd3d 5814 0cbc 76cd 02bc
000001c0: b71d 43be 20cc aabc ea1e 283d 32b7 0cbe
000001d0: bb23 493d 9717 443c 1467 963d 9d79 88bd
000001e0: 2366 473d 9eee bd3d 3d30 c6bd 61f8 b7bb
000001f0: f322 7dbe 6aac 513d 5544 9abd 65ac bdbc
00000200: 4792 d43d 9040 783c 4131 31bd ba2d a53b
00000210: c9cd 1abd 1bcf b43d 011b 023b 07c3 243d
00000220: 18fc 13be c0fb 1abd 8c15 6ebd aeea ce3d
00000230: 2acd 0b3e 12ee 59bd 7d1d a53d abe6 38be
00000240: ec40 8cbd bc9f aebd 071f 1a3d 63ff a63c
00000250: 2d90 1abe 6c77 d83d 0ad3 53bd 2a85 5a3b
00000260: 449c 493e 824c 0dbe 5b16 fdbc 3d2f b23d
00000270: 6981 55bc 30e6 943d a54f eebc 8796 4fbd
00000280: 0670 82bd 6342 1e3d d39b f93c 21aa ea3d
00000290: 9952 c0bb a59d 8e3c 4814 f6bd 02d5 4f3c
000002a0: 75ac f6bd 2fb3 67bb be46 fc3d 0c78 1ebd
000002b0: d18c c5ba b656 303d 9d62 ecbd f94a 483d
000002c0: 5f7d 76bd fb97 ec3d c9b5 43be 6677 793d
000002d0: 971c e23c 84f7 fcb9 5884 b8bc 8f00 3b3b
000002e0: 4cb5 853c a6ad 1ebd fee7 b73d 2d73 6a3a
000002f0: 372c bdbb 6378 1cbe c7ab b23d e4b3 2d3e
00000300: 1668 b63d 112a 543d 32f8 96bc 2a76 ed3d
00000310: 9d39 de3c 94a3 37be c964 5eba d7c9 8f3b
00000320: c09e 37bd d260 27be f1cb 593d 5ceb d2ba
00000330: 313b 433e af5b d4bd 3539 5dbd 467f a6bd
00000340: 311f 02be e1b9 283e c06b 82bd 4f41 453e
00000350: 2e5f 88bd d060 bbbc b8dd 5a3d 9ca8 d43c
00000360: 79c1 7e3d f392 1d3e 0220 9cbc 3c2f c5bc
00000370: 2ec0 f0bd 3f4e 0c3c 30ae 113e 8244 c5bd
00000380: beed b23c 5c72 363d 46d6 0d3c 2620 ae3d
00000390: 1d1d 18be 1167 cd3d d3fc 36bd dae0 993d
000003a0: c679 a6bc 95f6 133d 7fb4 053d fd75 d7bd
000003b0: a5be 1bbc 89b9 14be 4166 5b3c e16c 3f3d
000003c0: 1b45 9e3d 80d9 ad3c 4440 ad3d 072d a83d
000003d0: 2f76 28be 3e62 fa3c 60e3 30be f537 423e
000003e0: 9025 b73c 5cc7 203e 1194 81bc 2e98 b1bd
000003f0: 6246 0dbd 3abb 07be 3782 b13d dc59 a53b

conv2.bias f4 [32]
-0.017767163 0.0030308636 0.0006217846 -0.0077685225 -0.011794829 -0.0146952495 -0.010075511 -0.0018761861
0.0035118666 -0.0007106108 0.013273059 -0.016830938 -0.007628904 -0.009016021 -0.031514447 -0.0148059055
-0.001712397 -0.01637664 0.0005636763 -0.00085719506 -0.006123028 -0.010887295 -0.0016804101 -0.010360052
-0.019379744 0.005563424 -0.016325802 -0.005439643 0.00032100477 -0.007600246 -0.028351273 -0.005300301
00000000: 718c 91bc 74a1 463b 42ff 223a 178f febb
00000010: 193f 41bc 58c4 70bc c213 25bc 5cea f5ba
00000020: 5827 663b 4948 3aba 3f77 593c 09e1 89bc
00000030: e3fb f9bb efb7 13bc 4b15 01bd 7894 72bc
00000040: 8272 e0ba 4e28 86bc adc3 133a 63b5 60ba
00000050: afa3 c8bb a060 32bc 3541 dcba 35bd 29bc
00000060: 45c2 9ebc 624d b63b b0bd 85bc 083f b2bb
00000070: 884c a839 7c0b f9bb ee40 e8bc 26ae adbb

conv3.weight f4 [32, 32, 3, 3]
-0.0085059125 0.0055552325 -0.025064027 0.059226662 -0.0908198 0.06953151 0.038841207 0.073884726
0.16047578 -0.06440602 -0.0012698866 0.021794131 -0.24150352 0.06836556 0.016861686 -0.066840455
-0.05305451 -0.0047940114 -0.16552398 -0.0056196502 0.06311584 0.032549515 -0.020867033 -0.018401552
0.0464977 -0.011576294 0.05241696 -0.23992062 0.10114668 -0.05180812 -0.036544695 -0.044827946
-0.13292174 0.010428247 -0.028518334 -0.016428994 0.04104539 0.048226155 -0.23819602 -0.08006577
-0.008380861 -0.11471303 0.08598205 0.004019056 -0.008812778 -0.0018243594 -0.03146736 0.029172562
-0.12168945 0.022806654 -0.02851823 -0.067182384 -0.064398214 0.031961907 0.11260608 0.057848737
0.14754163 -0.12998962 0.032817483 -0.01047323 0.06711513 -0.049595695 0.17231406 0.098609835
-0.14342164 0.113351814 0.037603468 0.11354802 -0.102022916 -0.17936078 -0.046398252 0.069527306
-0.0007862544 -0.03951887 0.15581116 0.09128383 0.09109897 -0.00071645534 -0.13344598 0.039632946
0.09445863 -0.14220685 0.07417516 -0.013135373 0.0033189005 0.007099585 0.09046706 -0.029358063
-0.052741006 0.040050156 -0.16980979 0.011326605 -0.0477625 0.23167156 0.12305732 0.09899376
0.008821462 0.0662654 0.018101528 -0.007566943 0.11859707 0.03313583 -0.17677702 -0.0043884167
0.006367471 0.0470527 0.00090550625 0.0014392913 0.07066276 -0.010847782 0.042520907 0.052519653
-0.001774008 -0.10390264 0.014714807 0.070625074 0.111398466 0.09331199 0.06839887 -0.099974275
0.104176864 -0.14206333 0.07347022 0.116991796 0.04099819 -0.008956292 0.1720396 0.003632727
0.10775063 0.097383834 0.06985359 0.026777258 -0.12303096 -0.07020509 -0.05327165 -0.016451739
-0.0425737 0.07444937 -0.049785636 -0.07895873 0.26083356 -0.10702069 -0.0017465922 0.025338152
-0.15333326 0.0016540212 0.099093564 -0.09058677 0.04093786 0.063908316 0.023336641 -0.029699849
-0.132183 0.05693739 -0.03274168 0.15547666 -0.027961839 0.06519376 -0.008215688 -0.12162158
0.081076 -0.036076114 -0.07499658 -0.062160138 0.024626033 -0.032446712 0.054464474 0.10777035
-0.042713765 -0.2278692 0.021545535 -0.019735105 0.036297172 -0.14727235 -0.006645686 0.050232537
-0.059103347 0.06855851 -0.04622126 -0.1472523 -0.14426588 0.13063133 -0.10023579 0.02480546
0.109613664 0.05362952 0.047043867 -0.058218803 0.027738534 -0.07964996 0.07742663 0.018351277
0.028228648 -0.06885456 0.113474935 -0.009608194 -0.09403646 -0.035514835 0.016436389 -0.12602812
0.06158355 -0.16841605 0.038975313 -0.081251904 0.0299036 -0.0053022075 0.08229151 -0.2112918
0.086751685 -0.049753625 0.03520606 -0.01723234 -0.03478207 0.10922514 -0.05710588 0.09061527
0.03540007 -0.013393383 -0.02506007 -0.18654215 -0.023050545 0.030793788 -0.0013980498 -0.14750211
0.07060095 -0.061254293 0.10645931 -0.06967572 0.09731177 -0.09915077 0.07142033 0.016780043
0.22835387 -0.013873086 -0.042762328 -0.016671162 -0.00984941 0.07341366 -0.12626624 0.03139667
0.10721948 -0.031146305 0.008324438 -0.023631068 0.07865465 0.024298899 0.13263752 -0.12559907
0.16570598 0.1243338 0.10465915 0.14709634 -0.14423491 -0.036762185 0.020240963 -0.085119106
00000000: 625c 0bbc ab08 b63b 1353 cdbc a897 723d
00000010: bbff b9bd 8966 8e3d f517 1f3d e050 973d
00000020: c353 243e 4ee7 83bd 5372 a6ba 9b89 b23c
00000030: b34c 77be 3e03 8c3d 8521 8a3c a6e3 88bd
00000040: b04f 59bd 1517 9dbb 1e7f 29be 0b25 b8bb
00000050: e142 813d a452 053d 57f1 aabc dabe 96bc
00000060: 5f74 3e3d 7faa 3dbc 2bb3 563d c0ad 75be
00000070: fe25 cf3d c034 54bd e4af 15bd 829d 37bd
00000080: a31c 08be 3ddb 2a3c 489f e9bc 1996 86bc
00000090: 361f 283d ca88 453d a8e9 73be 86f9 a3bd
000000a0: e14f 09bc aaee eabd 5b17 b03d 49b2 833b
000000b0: 7863 10bc 581f efba ebe3 00bd 4cfb ee3c
000000c0: 5238 f9bd 05d5 ba3c 109f e9bc eb96 89bd
000000d0: 36e3 83bd 7dea 023d 049e e63d ccf2 6c3d
000000e0: 2715 173e 001c 05be a06b 063d e997 2bbc
000000f0: a873 893d db24 4bbd 1973 303e f4f3 c93d
00000100: 1fdd 12be ff24 e83d 1806 1a3d dd8b e83d
00000110: 64f1 d0bd 5aaa 37be 180c 3ebd 5564 8e3d
00000120: a41c 4eba 8ade 21bd f68c 1f3e 04f3 ba3d
00000130: 1992 ba3d 81d0 3bba 10a6 08be 2856 223d
00000140: 8773 c13d ac9e 11be 25e9 973d bf35 57bc
00000150: e981 593b a3a3 e83b cb46 b93d 5280 f0bc
00000160: f406 58bd a20b 243d 9ee2 2dbe 3a93 393c
00000170: 9ca2 43bd 4f3b 6d3e 7a05 fc3d 3ebd ca3d
00000180: e587 103c 27b6 873d a849 943c 1ef4 f7bb
00000190: 05e3 f23d 70b9 073d 0905 35be b5cc 8fbb
000001a0: 38a6 d03b 55ba 403d 7f5f 6d3a 9aa6 bc3a
000001b0: a3b7 903d e5ba 31bc 672a 2e3d d91e 573d
000001c0: d585 e8ba e8ca d4bd 6016 713c e1a3 903d
000001d0: e124 e43d 5b1a bf3d b514 8c3d 50bf ccbd
000001e0: ae5a d53d 0d79 11be 8e77 963d 6599 ef3d
000001f0: b8ed 273d 69bd 12bc 262b 303e 0c13 6e3b
00000200: 5dac dc3d 2d71 c73d 660f 8f3d fb5b db3c
00000210: a8f7 fbbd b0c7 8fbd 6033 5abd ccc5 86bc
00000220: c361 2ebd e978 983d 06ec 4bbd 1db5 a1bd
00000230: fa8b 853e aa2d dbbd e9ed e4ba f591 cf3c
00000240: 6503 1dbe becb d83a 91f1 ca3d 8e85 b9bd
00000250: 75ae 273d 5de2 823d 7c2c bf3c 194d f3bc
00000260: fb5a 07be 2e37 693d 241c 06bd 4635 1f3e
00000270: 3a10 e5bc 4e84 853d 189b 06bc bc14 f9bd
00000280: 2d0b a63d 8cc4 13bd cf97 99bd a19b 7ebd
00000290: 89bc c93c d8e6 04bd 2416 5f3d b4b6 dc3d
000002a0: a1f4 2ebd 8b56 69be 4380 b03c 84ab a1bc
000002b0: 58ac 143d 90ce 16be 0ec4 d9bb a2c0 4d3d
000002c0: 5a16 72bd 6768 8c3d 8152 3dbd 4fc9 16be
000002d0: 6fba 13be 38c4 053e 6c48 cdbd d234 cb3c
000002e0: 217d e03d a1aa 5b3d 12b1 403d d776 6ebd
000002f0: ec3b e33c 851f a3bd da91 9e3d 6b55 963c
00000300: c43f e73c 9f03 8dbd 8c65 e83d b06b 1dbc
00000310: 3096 c0bd 0178 11bd 9ba5 863c 840d 01be
00000320: 083f 7c3d 4275 2cbe 94a4 1f3d 6667 a6bd
00000330: 65f8 f43c 24be adbb 7488 a83d e15c 58be
00000340: deaa b13d 75ca 4bbd 3b34 103d d62a 8dbc
00000350: a577 0ebd 6eb1 df3d dbe7 69bd 8094 b93d
00000360: aaff 103d eb6f 5bbc c74a cdbc e804 3fbe
00000370: 7fd4 bcbc 4143 fc3c c43e b7ba cb0a 17be
00000380: 3b97 903d c8e5 7abd 5707 da3d 25b2 8ebd
00000390: 654b c73d 8f0f cbbd d244 923d 4d76 893c
000003a0: 99d5 693e f14b 63bc 8d27 2fbd f691 88bc
000003b0: 6b5f 21bc e759 963d f04b 01be cb99 003d
000003c0: e395 db3d 8926 ffbc 3963 083c f195 c1bc
000003d0: b015 a13d 7c0e c73c 21d2 073e 0b9d 00be
000003e0: d4ae 293e b8a2 fe3d 8957 d63d 6ca0 163e
000003f0: 51b2 13be f293 16bd 60d0 a53c ed52 aebd

conv3.bias f4 [32]
-0.0029531254 -0.010013385 -0.019179301 0.006740074 -0.014552909 -0.011478309 0.0052307695 -0.006772505
0.0024297072 -0.012094397 -0.013858002 -0.012203628 0.0012498006 -0.0060973405 -0.017134309 -0.008405624
0.0139202215 -0.023368277 0.0014223431 0.0022436155 -0.030629944 -0.001578062 -0.014215592 -0.03900212
-0.012432788 -0.0041995435 -0.006376306 -0.006457603 -0.0033126066 -0.007506099 -0.014803263 -0.0013082906
00000000: 3989 41bb 2e0f 24bc e91d 9dbc d7db dc3b
00000010: 536f 6ebc 840f 3cbc e066 ab3b e4eb ddbb
00000020: b93b 1f3b 9427 46bc ac0c 63bc baf1 47bc
00000030: 59d0 a33a 33cc c7bb 405d 8cbc beb7 09bc
00000040: a411 643c d46e bfbc ea6d ba3a 9f09 133b
00000050: a6eb fabc f9d6 ceba 84e8 68bc b0c0 1fbd
00000060: e4b2 4bbc 539c 89bb 55f0 d0bb 4d9a d3bb
00000070: 5118 59bb b9f5 f5bb 6389 72bc f37a abba

conv4.weight f4 [32, 32, 3, 3]
0.028358163 0.009634705 0.13266455 -0.015033122 -0.011237585 -0.0021097031 -0.021428386 0.03027368
-0.06470996 -0.014652165 -0.058608588 0.05798902 0.10975421 0.04976105 -0.03741111 0.08200814
0.014049916 -0.031187693 -0.0843479 -0.041948143 -0.006605992 0.067816496 -0.08638268 0.13955157
-0.07267362 0.08595982 0.056817126 0.12818798 -0.03643943 -0.0049530505 -0.036124405 -0.08530804
-0.07880307 -0.010832692 0.036954347 0.08029855 -0.050008122 0.087679595 0.15521891 0.023277754
-0.0096043805 -0.06991161 -0.004122344 -0.049110275 -0.08231204 0.05252944 -0.049389184 -0.08130021
-0.024542889 0.059376463 0.0077897264 0.07827435 -0.026505535 -0.018180944 0.06309911 0.043597076
-0.07625957 0.066439115 -0.033534586 0.07039936 -0.06789617 0.059741173 0.02131676 -0.10003591
0.12602821 -0.098033786 0.008741095 0.25411722 -0.15100937 0.110454276 -0.10212308 -0.041859306
-0.07224393 -0.058423795 0.08167853 0.054520056 0.047873512 0.03810596 -0.09170635 -0.008644733
0.08074982 0.0055951374 -0.009698626 0.110892266 0.030304344 0.033807445 -0.19370188 -0.015214776
-0.038114306 -0.11394537 0.07318476 -0.092612855 0.07887055 0.14469798 -0.012531905 -0.11871185
0.09297489 0.006713413 -0.02394679 -0.016528225 0.11018906 0.027583454 0.0676046 -0.06757693
-0.04535452 0.01185906 0.017123275 -0.026107572 -0.050379578 -0.083514005 -0.0022255694 0.065201364
-0.06704249 0.044684146 0.009557075 0.13348027 0.02780869 0.0015525725 0.048065715 -0.11382784
0.022230417 0.010628552 0.116941154 0.0038430276 -0.0752566 0.10685606 0.064720504 -0.04231526
-0.090526424 -0.109824315 0.059498325 0.02919773 0.03212247 0.058490127 -0.04793754 0.03686333
0.01586838 -0.046626214 -0.06598535 0.19282119 0.004180277 -0.010045827 0.030760992 -0.02692971
0.030273506 0.028479876 0.054421376 0.11890853 -0.091915615 0.0039322055 -0.038773753 0.030171847
-0.005510442 0.060290564 -0.029160134 -0.1275718 0.055806227 0.08886216 -0.025846677 0.016192256
-0.012065678 0.048886307 0.08390413 -0.13491951 -0.021426218 -0.01010051 0.116056405 -0.096216455
-0.05795028 0.061723314 -0.024265435 0.02408265 0.022641595 0.07046062 -0.017995937 0.0023274662
0.15958394 -0.07976046 0.018871317 0.02583981 0.056174207 0.03804743 0.04046653 -0.0033777927
-0.048017226 0.008004154 -0.026619576 -0.08185715 0.018548606 0.045055483 0.0472808 0.121411845
-0.011723571 -0.006155829 -0.0060724104 0.09891618 -0.045014687 -0.2314694 -0.034528974 0.2000018
-0.016784433 0.06048065 0.11586098 -0.09278302 0.07287253 -0.044674017 -0.012382968 0.10441839
-0.014866599 -0.18493704 -0.037304312 0.06299522 0.18466261 0.046723407 -0.034442507 0.09791842
0.061843354 -0.111892454 0.061736453 -0.057269238 -0.032760773 0.005143685 0.04750028 0.093527734
0.07184978 0.037085418 -0.07113695 0.100631446 -0.0034933954 0.0013360814 0.06229796 0.04262034
0.08309019 0.06820715 -0.02649922 0.0061499933 0.0655075 -0.022798395 0.033135958 -0.0054090433
-0.07471795 -0.01075718 -0.08725487 -0.0027563141 0.12197205 -0.025130427 0.049124125 -0.011537192
-0.14871287 0.04156788 -0.0029480697 -0.008273683 0.036137715 -0.061270338 -0.017592877 0.04921618
00000000: 614f e83c e2da 1d3c 37d9 073e 7c4d 76bc
00000010: d91d 38bc f242 0abb 958a afbc 8200 f83c
00000020: a886 84bd a20f 70bc 8f0f 70bd e585 6d3d
00000030: d1c6 e03d 3ed2 4b3d 643c 19bd e2f3 a73d
00000040: 9e31 663c 557d ffbc 97be acbd d1d1 2bbd
00000050: 1477 d8bb 60e3 8a3d 67e9 b0bd 9be6 0e3e
00000060: e8d5 94bd b40b b03d 13b9 683d b643 033e
00000070: 8341 15bd 334d a2bb 2ff7 13bd fbb5 aebd
00000080: 8163 a1bd 9a7b 31bc 715d 173d 9173 a43d
00000090: 51d5 4cbd 5c91 b33d b5f1 1e3e fdb0 be3c
000000a0: b15b 1dbc d12d 8fbd ba14 87bb db27 49bd
000000b0: 3793 a8bd 1c29 573d 504c 4abd b980 a6bd
000000c0: 2b0e c9bc bc34 733d f640 ff3b 4d4e a03d
000000d0: 2322 d9bc 34f0 94bc 1b3a 813d d992 323d
000000e0: fa2d 9cbd 3b11 883d 905b 09bd 8a2d 903d
000000f0: 260d 8bbd 29b3 743d 7ca0 ae3c a1df ccbd
00000100: 8a0d 013e f0c5 c8bd cf36 0f3c a71b 823e
00000110: 33a2 1abe da35 e23d e825 d1bd aa74 2bbd
00000120: a0f4 93bd ca4d 6fbd 1347 a73d 6c50 5f3d
00000130: 0417 443d ff14 1c3d 8ad0 bbbd a3a2 0dbc
00000140: 2960 a53d 6a57 b73b fce6 1ebc 7c1b e33d
00000150: d140 f83c ad79 0a3d c959 46be 6547 79bc
00000160: bf1d 1cbd 315c e9bd e4e1 953d cfab bdbd
00000170: e286 a13d b52b 143e 9f52 4dbc 331f f3bd
00000180: 9e69 be3d 31fc db3b 0f2c c4bc 3366 87bc
00000190: cdaa e13d b2f6 e13c 4874 8a3d c665 8abd
000001a0: a9c5 39bd 814c 423c 1c46 8c3c 8cdf d5bc
000001b0: d15a 4ebd 6409 abbd dcda 11bb 4b88 853d
000001c0: 934d 89bd b906 373d 4795 1c3c 0daf 083e
000001d0: 0dcf e33c b07f cb3a 8ee0 443d 921e e9bd
000001e0: 901c b63c 6123 2e3c d87e ef3d 4edb 7b3b
000001f0: 2220 9abd 5ad7 da3d 2f8c 843d c452 2dbd
00000200: eb65 b9bd 92eb e0bd 84b4 733d 1430 ef3c
00000210: da92 033d 5893 6f3d 275a 44bd 01fe 163d
00000220: 68fe 813c 21fb 3ebd 5423 87bd eb72 453e
00000230: b5fa 883b 4197 24bc 7afe fb3c b29b dcbc
00000240: 2500 f83c a14e e93c f3e8 5e3d 5186 f33d
00000250: 413e bcbd bbd9 803b 3ad1 1ebd f32a f73c
00000260: f090 b4bb 3df3 763d 3ce1 eebc 2fa2 02be
00000270: 1295 643d 5dfd b53d 69bc d3bc 9fa5 843c
00000280: 1faf 45bc 023d 483d eed5 ab3d 5728 0abe
00000290: 0986 afbc 9c7c 25bc fbae ed3d 220d c5bd
000002a0: 465d 6dbd 96d1 7c3d 4ec8 c6bc fa48 c53c
000002b0: de7a b93c a84d 903d 376c 93bc 6788 183b
000002c0: f969 233e 7459 a3bd 0598 9a3c 02ae d33c
000002d0: ed16 663d 9fd7 1b3d 3bc0 253d f55d 5dbb
000002e0: b6ad 44bd db23 033c 4c11 dabc b9a4 a7bd
000002f0: 3ff3 973c 198c 383d 83a9 413d c6a6 f83d
00000300: 3914 40bc d6b6 c9bb 12fb c6bb 9194 ca3d
00000310: 5261 38bd 5006 6dbe 416e 0dbd 46cd 4c3e
00000320: 827f 89bc 8fba 773d 8548 ed3d 0605 bebd
00000330: 313e 953d 1afc 36bd efe1 4abc 4fd9 d53d
00000340: 0993 73bc 2360 3dbe 68cc 18bd a303 813d
00000350: 3218 3d3e 0b61 3f3d 9613 0dbd 7489 c83d
00000360: 754f 7d3d df27 e5bd 5ddf 7c3d 2693 6abd
00000370: 2930 06bd 5b8c a83b a78f 423d 788b bf3d
00000380: fa25 933d e1e6 173d 40b0 91bd dc17 ce3d
00000390: 73f1 64bb 741f af3a 252c 7f3d aa92 2e3d
000003a0: 312b aa3d 31b0 8b3d e414 d9bc e285 c93b
000003b0: cc28 863d b3c3 babc 92b9 073d 583e b1bb
000003c0: b905 99bd e23e 30bc aeb2 b2bd 47a3 34bb
000003d0: 7bcc f93d 53de cdbc 6136 493d 7e06 3dbc
000003e0: 3048 18be 1543 2a3d 6734 41bb 578e 07bc
000003f0: 2405 143d 9bf6 7abd f01e 90bc e896 493d

conv4.bias f4 [32]
0.011991921 0.025237134 -0.0013137553 0.0020427068 0.0064329435 0.014327912 0.022301171 0.0016961221
0.015474349 0.022990614 0.005031841 -0.015179029 0.011057416 0.0072473097 0.007118883 0.0043814755
0.025741555 0.043940596 -0.03126248 0.04638806 0.008190401 -0.012434504 -0.0016326342 0.04197805
-0.014783443 -0.046612613 -0.0020297912 0.006594208 -0.034836512 -0.033351526 0.014789415 0.0056999684
00000000: c379 443c 1bbe ce3c 5032 acba efde 053b
00000010: 71cb d23b 9ebf 6a3c f2b0 b63c 6a50 de3a
00000020: 2088 7d3c d056 bc3c 24e2 a43b 76b1 78bc
00000030: 2a2a 353c d77a ed3b 8545 e93b 7b92 8f3b
00000040: f4df d23c 0efb 333d 160d 00bd 6801 3e3d
00000050: 0831 063c 17ba 4bbc 1dfe d5ba 2df1 2b3d
00000060: 4136 72bc deec 3ebd 3f06 05bb 3a14 d83b
00000070: bbb0 0ebd 9c9b 08bd 4d4f 723c cdc6 ba3b

linear.weight f4 [256, 800]
0.01840831 0.02171403 0.030193666 -0.07527133 -0.0145508675 0.042582095 -0.023712238 0.061385557
0.116782375 -0.00070839276 0.007372951 -0.05789106 0.0056972993 -0.027594708 -0.048289366 0.020480499
-0.008572416 0.05206909 -0.09446465 -0.016125264 0.026644733 -0.033171125 -0.07797547 0.030226707
-0.0099865 -0.037217736 0.020017738 -0.02554735 0.04228819 -0.012236779 0.003540644 0.03212077
0.07571209 -0.07820325 0.025118917 0.008102486 -0.0050582187 -0.010898091 -0.017281737 -0.022297088
0.00081889256 -0.03235969 -0.04914798 0.0320167 0.018448684 -0.09106651 -0.023730338 0.05384559
-0.0076088547 0.0022511855 -0.026206614 0.08283922 0.0070481915 -0.06138693 0.008391457 -0.029404145
-0.12405473 0.10370965 0.012407298 -0.086021386 -0.0059324284 0.005283337 0.032776408 0.057422742
-0.037098058 0.011322384 0.02592138 0.037611917 0.004436879 0.02143937 0.027472088 0.023550035
-0.015605603 0.0436863 -0.04108417 -0.0022199198 0.006113136 0.032778956 0.011473662 -0.0111486325
0.07992041 -0.013917953 0.10827787 -0.08365584 0.060334977 -0.014599501 -0.0012958711 0.013630063
0.04557653 0.071026735 0.14154558 0.03586344 0.0540088 -0.039096393 -0.065904014 -0.060188062
0.050398603 0.03507959 0.040129524 -0.046283614 -0.045330856 -0.052308444 0.02994482 -0.026452135
-0.0008103593 0.05318703 -0.027933331 -0.04597035 -0.020959781 0.07095223 -0.036566973 -0.01607709
-0.08809571 0.040535815 0.03812116 -0.034015775 0.057603877 -0.020096323 -0.009973254 0.015155313
-0.036407657 -0.05562975 0.04237723 0.009898348 0.0920448 0.025835492 0.095226474 -0.028767997
-0.10478001 0.005957847 0.005940672 0.05294273 0.034478076 -0.043147996 0.047248032 0.041960936
-0.03011279 0.09628017 0.07386342 0.042865425 -0.016212232 0.043132637 0.08561366 -0.0047104554
-0.094007075 0.07174955 -0.02502616 -0.069277555 -0.06849612 0.017659705 -0.020033946 0.06475876
-0.009438494 0.007983955 0.016377414 0.033103567 0.00026798953 0.049801353 -0.052611887 0.10099386
-0.08807691 0.032878675 0.01801211 0.034695238 0.0045101694 0.052856553 0.027372869 -0.040637694
0.031170618 -0.025729384 -0.032386478 0.059284963 0.051521387 -0.07468854 0.023115158 -0.04315732
0.011093531 0.017926823 0.11105382 -0.06311248 0.062897675 0.011814036 0.14597127 -0.0055035977
-0.0035833034 -0.08186599 0.058509268 -0.03129389 0.041825004 0.042507272 0.031098126 0.10537418
0.06686672 -0.015360409 -0.05689706 -0.06438668 0.021479033 -0.008887135 0.0018651676 0.058258872
-0.025334619 0.020603444 -0.00018393158 -0.031116491 -0.00010066248 0.09921367 -0.03675664 0.022576261
0.0050178203 -0.011698468 0.0134055475 -0.026258545 -0.07006305 -0.04429177 -0.023876442 -0.021532096
0.0054250555 -0.0038369792 -0.031349342 -0.007859754 0.0019145779 0.004845547 0.071195975 -0.11318746
-0.015595293 0.0670046 0.008148873 0.055435292 0.009308178 -0.027555874 -0.038366586 0.04393049
-0.019012561 -0.0151827345 -0.036902532 -0.020671379 -0.041131552 0.020384327 0.023860281 -0.0030247655
0.0016270004 0.007633406 -0.017638823 -0.030742848 0.07474484 0.012791188 -0.07282188 0.028502777
0.062474657 0.06712336 -0.013161837 -0.11091776 0.05152605 -0.015519582 -0.0098955445 -0.07870606
00000000: 06cd 963c 9fe1 b13c b558 f73c db27 9abd
00000010: c366 6ebc 906a 2e3d 2b40 c2bc 6c6f 7b3d
00000020: 992b ef3d 6fb3 39ba cc98 f13b 2d1f 6dbd
00000030: 69b0 ba3b 4c0e e2bc 12cb 45bd b8c6 a73c
00000040: 5273 0cbc 6646 553d af76 c1bd 2119 84bc
00000050: 0e46 da3c 72de 07bd 9ab1 9fbd 009e f73c
00000060: 6b9e 23bc a071 18bd 3dfc a33c ad48 d1bc
00000070: 6236 2d3d c57c 48bc 260a 683b 1291 033d
00000080: f10e 9b3d 0729 a0bd 30c6 cd3c 4ac0 043c
00000090: 6abf a5bb e88d 32bc 6e92 8dbc 62a8 b6bc
000000a0: f3aa 563a 988b 04bd 644f 49bd f123 033d
000000b0: b221 973c 1481 babd 2066 c2bc 328d 5c3d
000000c0: b353 f9bb a088 133b 41af d6bc 9ca7 a93d
000000d0: 84f4 e63b dd70 7bbd 527c 093c f6e0 f0bc
000000e0: 6810 febd ba65 d43d fb47 4b3c fb2b b0bd
000000f0: d164 c2bb d81f ad3b 8e40 063d 1c34 6b3d
00000100: 22f4 17bd 8581 393c 1359 d43c f40e 1a3d
00000110: 3d63 913b 9ea1 af3c 250d e13c 01ec c03c
00000120: a5ae 7fbc 68f0 323d e047 28bd 137c 11bb
00000130: b450 c83b 3a43 063d 07fc 3b3c c1a8 36bc
00000140: 50ad a33d 2008 64bc cac0 dd3d c153 abbd
00000150: cf21 773d bf32 6fbc 38da a9ba a150 5f3c
00000160: 75ae 3a3d 7776 913d 53f1 103e 8be5 123d
00000170: 5538 5d3d 8a23 20bd aff8 86bd c287 76bd
00000180: c46e 4e3d 9eaf 0f3d db5e 243d e393 3dbd
00000190: d9ac 39bd 6141 56bd d74e f53c 26b2 d8bc
000001a0: 4b6e 54ba a5da 593d 71d4 e4bc 684b 3cbd
000001b0: d9b3 abbc 674f 913d 40c7 15bd 1ab4 83bc
000001c0: 866b b4bd e208 263d ef24 1c3d 2054 0bbd
000001d0: 0bf2 6b3d 0ba1 a4bc dc66 23bc fd4d 783c
000001e0: 3220 15bd 05dc 63bd bf93 2d3d ae2c 223c
000001f0: fc81 bc3d f4a4 d33c 1906 c33d ddaa ebbc
00000200: e796 d6bd 0b3a c33b f8a9 c23b 7ada 583d
00000210: e238 0d3d f4bb 30bd 2787 413d 3bdf 2b3d
00000220: 19af f6bc 8a2e c53d b445 973d a893 2f3d
00000230: 84cf 84bc d9ab 303d 3756 af3d 2a5a 9abb
00000240: c886 c0bd 6ef1 923d a903 cdbc 64e1 8dbd
00000250: b247 8cbd 16ab 903c 3b1e a4bc 3ea0 843d
00000260: eaa3 1abc 22cf 023c ed29 863c 9b97 073d
00000270: f280 8c39 81fc 4b3d 907f 57bd ded5 ce3d
00000280: ab61 b4bd caab 063d 228e 933c 981c 0e3d
00000290: 0bca 933b 1d80 583d 113d e03c b673 26bd
000002a0: 8659 ff3c 6ec6 d2bc afa7 04bd cad4 723d
000002b0: 1708 533d 4ef6 98bd 005c bd3c bbc5 30bd
000002c0: a4c1 353c 46db 923c 2f70 e33d 1e41 81bd
000002d0: 7fd0 803d a98f 413c 7e79 153e 8657 b4bb
000002e0: dbd5 6abb 5ba9 a7bd 6aa7 6f3d 062e 00bd
000002f0: b250 2b3d 1b1c 2e3d 7fc1 fe3c 6bce d73d
00000300: 6bf1 883d 3aaa 7bbc e40c 69bd 2add 83bd
00000310: ccf4 af3c 599b 11bc a478 f43a dba0 6e3d
00000320: 8c8a cfbc 8ec8 a83c c2dd 40b9 03e8 febc
00000330: c21a d3b8 8930 cb3d 218e 16bd daf1 b83c
00000340: 876c a43b eeaa 3fbc f1a2 5b3c 291c d7bc
00000350: 377d 8fbd 496b 35bd 8798 c3bc 1464 b0bc
00000360: aac4 b13b d475 7bbb 2b68 00bd 33c6 00bc
00000370: 93f2 fa3a 65c7 9e3b 32cf 913d d4ce e7bd
00000380: 6683 7fbc b539 893d da82 053c 1e10 633d
00000390: 5481 183c dbbc e1bc 4826 1dbd 75f0 333d
000003a0: 3bc0 9bbc 01c1 78bc 1c27 17bd 0657 a9bc
000003b0: 8f79 28bd 08fd a63c a376 c33c 253b 46bb
000003c0: 1341 d53a a721 fa3b 4b7f 90bc 6dd8 fbbc
000003d0: d313 993d 2292 513c a323 95bd a87e e93c
000003e0: 6de5 7f3d f977 893d bfa4 57bc da28 e3bd
000003f0: fb0c 533d d845 7ebc ec20 22bc a530 a1bd

linear.bias f4 [256]
-0.009633016 -0.037144404 -0.017754309 -0.01812592 -0.0058164955 -0.026102126 -0.036250178 -0.026552798
-0.046918187 0.025098132 0.032767504 -0.028037302 -0.026612988 0.011241372 0.020817293 0.0028727613
0.008632433 0.009268484 -0.029625138 -0.026837075 -0.02899844 0.0063482374 -0.014748774 -0.07186136
-0.061438598 -0.07112573 -0.054679092 0.00452852 -0.008910165 -0.00822875 0.030384425 -0.010340342
-0.05461859 -0.051007546 -0.034533493 -0.065687224 -0.015179989 -0.011951694 -0.006768743 -0.0809594
-0.0070802188 0.0140432725 -0.017648615 0.021163538 -0.058400996 -0.028757684 0.052397612 -0.0032594723
-0.03710348 -0.008590682 0.0012048817 0.034531597 -0.015306347 -0.022563098 -0.011221035 0.0124413725
-0.03255405 0.016345505 -0.019572735 -0.0341651 -0.004243583 0.016220257 -0.035455685 0.0035310641
-0.013124587 -0.0101712 0.004890927 -0.079275705 0.010477148 -0.01857454 -0.023636298 -0.045952942
-0.012773919 -0.00023690717 -0.030297935 -0.004121862 0.0041961335 0.001824534 -0.018900024 -0.0116158975
-0.025623623 0.008409811 -0.015678423 -0.017449886 -0.009739876 0.0047960375 0.0045344806 -0.020793123
-0.011961032 -0.005400624 -0.0036199403 -0.013641005 -0.01345766 -0.066189565 -0.0244845 -0.008590442
-0.04551296 -0.020438809 0.014624006 -0.020078193 -0.024935257 -0.025096038 -0.017419826 -0.07527736
-0.05207677 -0.062503956 -0.048702937 0.008567822 -0.0036987655 -0.015952885 0.013566782 -0.033587825
-0.009837493 0.023029922 0.003442503 0.044367515 -0.0005124244 -0.008011036 -0.019443024 0.010110855
0.026988557 -0.02255851 -0.03163713 0.022751642 -0.005774445 0.008660504 -0.04885679 -0.0028108645
0.0160077 0.014831558 -0.016816905 -0.031109085 0.015542658 0.00019708961 -0.00530614 -0.067399606
-0.0013516512 -0.01039858 0.04651885 -0.0016120732 0.058311906 -0.073169604 0.011217966 -0.0027413485
0.017214818 -0.012786314 -0.037945315 0.011037223 -8.6193926e-05 -0.016771827 0.015914917 -0.013406367
-0.078802444 0.02438574 -0.025224384 0.021142637 -0.012107519 -0.022437708 -0.014862387 -0.03702346
-0.029989233 -0.098546825 -0.020392993 -0.033817414 -0.012874957 -0.009261019 -0.01929742 0.0067747845
0.039577205 -0.03913223 -0.014070292 -0.037498116 0.025812823 -0.030913824 -0.029865168 0.00044994365
0.03254559 0.010283412 -0.07272575 -0.029223146 0.039722793 -0.046036024 -0.011850697 -0.0029007245
-0.0053045964 -0.025676155 0.03187012 -0.040550847 0.0086861905 -0.016349087 0.026687393 -0.012034839
-0.0040143365 0.014354308 0.015863866 -0.0026470514 -0.024473667 0.015484135 -0.008733449 -0.025007647
0.021185374 -0.022476066 -0.019089257 0.0075508733 -0.07118914 -0.010388811 0.031733897 0.007514239
0.009152611 -0.100815095 0.0014583267 -0.057036623 -0.008939842 0.043460168 -0.06687383 -0.06789796
-0.066240236 -0.02036289 -0.025764255 -0.022744631 -0.030731138 -0.02947486 -0.09410038 -0.0394023
0.0045287726 0.025914825 0.0078013097 -0.03297355 0.010467645 0.033504933 -0.0041136066 -0.014652094
0.008327651 -0.011891062 -0.04040575 -0.017380541 0.021531925 -0.10157378 -0.024631333 -0.030284906
0.036457326 0.031736813 0.0017170494 -0.06277956 -0.017264474 -0.014954797 0.010897665 -0.011155908
0.018347124 -0.018337674 0.00037501295 0.018028315 0.014509493 -0.083878905 -0.022838946 -0.09113696
00000000: ccd3 1dbc bb24 18bd 7c71 91bc cf7c 94bc
00000010: 4d98 bebb 20d4 d5bc 117b 14bd 4185 d9bc
00000020: 492d 40bd 999a cd3c 3837 063d 7cae e5bc
00000030: 7b03 dabc bb2d 383c 0789 aa3c f044 3c3b
00000040: 0c6f 0d3c d7da 173c 6bb0 f2bc 6dd9 dbbc
00000050: 238e edbc e004 d03b d7a4 71bc 0c2c 93bd
00000060: 0aa7 7bbd 5eaa 91bd 2ff7 5fbd fb63 943b
00000070: f1fb 11bc e1d1 06bc c2e8 f83c 8a6a 29bc
00000080: beb7 5fbd 4aed 50bd fe72 0dbd 0687 86bd
00000090: 7db5 78bc 0ad1 43bc 55cc ddbb 0bce a5bd
000000a0: 2e01 e8bb c115 663c d493 90bc 285f ad3c
000000b0: e235 6fbd 3c95 ebbc e19e 563d df9c 55bb
000000c0: d2f9 17bd efbf 0cbc 1fed 9d3a 0171 0d3d
000000d0: 79c7 7abc 3fd6 b8bc 6fd8 37bc e6d6 4b3c
000000e0: 6557 05bd 02e7 853c 0057 a0bc b4f0 0bbd
000000f0: c10d 8bbb 58e0 843c fb39 11bd 6d69 673b
00000100: 8208 57bc 1ba5 26bc 1244 a03b 4d5b a2bd
00000110: 58a8 2b3c a229 98bc e9a0 c1bc 2739 3cbd
00000120: b349 51bc 496a 78b9 6033 f8bc af10 87bb
00000130: b87f 893b 3425 ef3a 39d4 9abc 9b50 3ebc
00000140: a2e8 d1bc 4ec9 093c 0970 80bc 10f3 8ebc
00000150: 0094 1fbc 1428 9d3b fb95 943b 5756 aabc
00000160: 34f8 43bc b8f7 b0bb 853c 6dbb 867e 5fbc
00000170: 847d 5cbc 658e 87bd b893 c8bc edbe 0cbc
00000180: cc6b 3abd 4a6f a7bc 8799 6f3c 067b a4bc
00000190: 0645 ccbc 3596 cdbc 06b4 8ebc 042b 9abd
000001a0: 744e 55bd 1302 80bd bb7c 47bd 0d60 0c3c
000001b0: fd66 72bb a0af 82bc 3547 5e3c 6393 09bd
000001c0: 702d 21bc 3fa9 bc3c 9e9b 613b b6ba 353d
000001d0: 3854 06ba b840 03bc fa46 9fbc 00a8 253c
000001e0: 1b17 dd3c a0cc b8bc ef95 01bd a761 ba3c
000001f0: 8e37 bdbb c9e4 0d3c 0f1e 48bd 7b36 38bb
00000200: 9422 833c 1000 733c 9bc3 89bc 7bd8 febc
00000210: a2a6 7e3c d7a9 4e39 21df adbb ce08 8abd
00000220: e329 b1ba ce5e 2abc 8d8a 3e3d 334c d3ba
00000230: 77d8 6e3d f2d9 95bd 8fcb 373c 32a8 33bb
00000240: 1706 8d3c b07d 51bc 8c6c 1bbd 78d5 343c
00000250: 03c3 b4b8 1265 89bc 0060 823c 61a6 5bbc
00000260: 2d63 a1bd 9ac4 c73c 5ea3 cebc 5333 ad3c
00000270: 9e5e 46bc 49cf b7bc 5f81 73bc e9a5 17bd
00000280: fbab f5bc ebd2 c9bd 350f a7bc 2184 0abd
00000290: 7cf1 52bc 87bb 17bc 9f15 9ebc 03ff dd3b
000002a0: b51b 223d 1e49 20bd 1587 66bc a097 19bd
000002b0: 6a75 d33c fd3e fdbc cca7 f4bc 6ae6 eb39
000002c0: 864e 053d c27b 283c 3df1 94bd 6165 efbc
000002d0: 5eb4 223d 4590 3cbd 6d29 42bc 151a 3ebb
000002e0: 2ed2 adbb cd56 d2bc 3e8a 023d a518 26bd
000002f0: 8650 0e3c 85ee 85bc 859f da3c c62d 45bc
00000300: b28a 83bb 552e 6b3c f0f4 813c 277a 2dbb
00000310: 007d c8bc 2bb1 7d3c bd16 0fbc d6dc ccbc
00000320: f38c ad3c ba1f b8bc 1361 9cbc 516d f73b
00000330: 9dcb 91bd d535 2abc 67fb 013d 013a f63b
00000340: d5f4 153c 2578 cebd 5325 bf3a 3c9f 69bd
00000350: 6a78 12bc 4a03 323d 26f5 88bd 160e 8bbd
00000360: f6a8 87bd 13d0 a6bc 8f0f d3bc f352 babc
00000370: debf fbbc 4375 f1bc b3b7 c0bd 4e64 21bd
00000380: 1966 943b 544b d43c 21a2 ff3b 460f 07bd
00000390: 7c80 2b3c 783c 093d 6fcb 86bb 560f 70bc
000003a0: b370 083c bbd2 42bc 8080 25bd a361 8ebc
000003b0: b863 b03c ea05 d0bd a6c7 c9bc 0d18 f8bc
000003c0: 4754 153d 76fe 013d 9e0e e13a 9292 80bd
000003d0: 3a6e 8dbc f704 75bc 1f8c 323c 45c7 36bc
000003e0: b54c 963c e438 96bc 639d c439 1eb0 933c
000003f0: 39b9 6d3c b4c8 abbd be18 bbbc 04a6 babd

critic_linear.weight f4 [1, 256]
-0.0055334326 -0.0025637057 0.0012163501 0.0025932447 -0.00031669185 -0.0021917946 -0.0030895397 7.862035e-05
0.040794533 -0.0020141853 5.7877143e-05 -0.0034603083 0.002637183 -0.000982307 0.0021663094 0.006685679
-0.019093974 -0.034659438 0.0035276827 -0.0029259198 -0.0037953719 0.0025728496 0.0023988693 0.044806734
0.04721999 -0.0031781727 0.009890635 -0.0008344741 0.0007658144 -0.00029987164 0.004315154 -0.0016755266
-0.0006052281 0.0011636004 0.0012129591 0.0674391 0.0008347108 0.001764388 -0.027315045 0.064714015
0.0013793464 0.00771129 -0.002216845 -0.00083437003 -0.0023231835 0.0025860749 -0.046164446 -0.0026653996
0.00026505624 -0.000838806 0.022637783 0.0016146547 0.0013831997 -0.0022374769 0.0010046797 0.0013633908
0.000605515 0.0005355892 -0.00526478 -0.0010935147 0.00044553587 -0.0020990574 -0.001532557 -0.00045561822
-0.0011534505 -0.0012586052 -0.0036722766 0.05309406 0.004915728 -0.002481118 -0.0007346359 -0.0019366395
-0.00036921763 0.0016836892 0.0031056174 -0.0008703936 0.0019966855 -0.0012508399 0.0047875196 -0.00035884717
0.0052280403 4.6876463e-05 0.0013026106 -0.0017271133 -0.003535105 0.0025819726 0.004419466 0.0024476307
0.002681371 -0.0024591119 -0.0015666132 -0.001658502 -0.0011756147 0.034131832 0.0010041709 0.012577699
0.0002610533 8.871118e-05 0.0010527725 -0.004258949 -0.0013487933 -0.00056719355 0.0042228056 0.025423575
-0.022325352 -0.0009943548 -0.00070404937 0.00085551763 -0.0006325339 -0.00090133696 -0.02339169 0.0025260982
0.00027613784 0.005523137 -0.0033321138 0.004639967 0.0018645853 0.0024017408 0.001903036 -0.0010894603
-0.028506884 -0.0041921944 0.015166848 -0.0031730647 -0.0017042116 0.006654007 -0.001361229 -0.0008787046
-0.0014985136 0.002922361 0.0027381515 -0.0015397927 0.0012287699 0.0030265597 0.0030216658 0.04089987
0.00057875266 -0.0026747088 -0.07512422 0.00024908327 -0.06378289 0.033879098 -0.0022652769 0.0037928277
0.0004298316 0.0031036902 0.0039639347 0.010300317 -0.00090495223 -4.1139836e-05 -0.017509447 -0.010933146
0.017349755 -0.027513644 0.0013027454 -0.0032132873 -0.0017317105 0.0005632479 0.0015022106 0.025319906
0.002105935 0.056489285 0.0006845454 -0.0011404676 0.0018646256 -0.0016291516 -0.00065370504 -0.0039952877
0.0012203781 0.02798836 -0.0032625191 -0.00149208 0.0019201977 -0.022901049 0.0011182412 0.0019518124
-4.1836567e-05 -0.04371558 0.017281529 -0.00042907125 -0.0400452 -0.00028648757 -0.000856066 -0.000682503
0.0014999846 0.0016027632 -0.0016348779 2.2717073e-05 0.0021164129 0.0021486017 -0.028347086 -0.00503748
-0.002676578 -0.036214102 0.002832531 -0.002042784 -0.005636674 0.0012629401 0.002249566 0.0009582241
0.0023474107 0.0015765416 -0.0020441678 -0.02770547 0.0002345078 0.0011410171 -0.035612263 0.0011737967
0.00048164043 0.07169703 -0.0151365185 -0.0068362663 -0.0020275817 0.0032172105 0.0021444838 0.039814416
0.07951342 0.00043431713 -0.000442173 0.0013696165 -0.00017568815 0.008118147 0.07003188 -0.004900199
0.0021980524 -0.0029115381 -0.0002595463 0.0026539506 -0.001413512 -0.031404514 0.0033936894 0.000619115
0.0017567041 -0.00055973657 -0.006128748 -0.0018214833 -0.00086170965 0.08536243 -0.0033668748 8.8790584e-05
0.0013510352 0.005240182 0.00062848907 0.018671304 -0.004724178 -0.0015191432 -0.0017646458 0.0016801697
0.003914898 -4.7894548e-05 -0.0011771026 -0.013318423 0.001653674 0.033669163 -0.003109105 0.12543623
00000000: cc51 b5bb d803 28bb f06d 9f3a 6df3 293b
00000010: a909 a6b9 36a4 0fbb e079 4abb fbe0 a438
00000020: 2b18 273d 6c00 04bb 1cc1 7238 57c6 62bb
00000030: 97d4 2c3b c1c0 80ba a4f8 0d3b 8a13 db3b
00000040: f76a 9cbc 0ef7 0dbd b230 673b cac0 3fbb
00000050: c6bb 78bb 419d 283b 5936 1d3b 4487 373d
00000060: c069 413d e448 50bb 540c 223c 9cc0 5aba
00000070: efc0 483a 1738 9db9 2366 8d3b 589d dbba
00000080: 2ca8 1eba f383 983a 27fc 9e3a 831d 8a3d
00000090: 7ed0 5a3a 0a43 e73a cdc3 dfbc c888 843d
000000a0: 2fcb b43a fdae fc3b 7d48 11bb a0b9 5aba
000000b0: 8d40 18bb 237b 293b ee16 3dbd fcad 2ebb
000000c0: 3ff7 8a39 51e3 5bba df72 b93c d2a2 d33a
000000d0: 7b4c b53a a2a2 12bb 75af 833a ceb3 b23a
000000e0: 6cbb 1e3a c866 0c3a 2d84 acbb 4454 8fba
000000f0: d096 e939 5790 09bb 14e0 c8ba 0be0 eeb9
00000100: 602f 97ba c8f7 a4ba 94aa 70bb 2879 593d
00000110: 1d14 a13b 419a 22bb 9594 40ba d7d6 fdba
00000120: 8d93 c1b9 3caf dc3a 9d87 4b3b 202b 64ba
00000130: d3da 023b 39f3 a3ba a0e0 9c3b a723 bcb9
00000140: fb4f ab3b 389d 4438 5cbc aa3a 4e60 e2ba
00000150: 38ad 67bb 5036 293b 2bd1 903b 6e68 203b
00000160: f1b9 2f3b 0d29 21bb d156 cdba 1862 d9ba
00000170: 1517 9aba d2cd 0b3d 629e 833a b112 4e3c
00000180: fbdd 8839 740a ba38 2ffd 893a a78e 8bbb
00000190: fec9 b0ba b7af 14ba 765f 8a3b 1a45 d03c
000001a0: a8e3 b6bc 0355 82ba f48f 38ba d144 603a
000001b0: a2d0 25ba b347 6cba ee9f bfbc e58c 253b
000001c0: 98c6 9039 6efb b43b 985f 5abb dd0a 983b
000001d0: 1a65 f43a 8666 1d3b 4b6f f93a 39cc 8eba
000001e0: 4587 e9bc ad5e 89bb 5f7e 783c 31f3 4fbb
000001f0: da5f dfba db09 da3b 446b b2ba de58 66ba
00000200: c669 c4ba 1585 3f3b 8f72 333b dfd2 c9ba
00000210: ad0e a13a 3f59 463b 2407 463b 9f86 273d
00000220: 6fb7 173a 2b4a 2fbb bada 99bd 6497 8239
00000230: 9ba0 82bd cfc4 0a3d 0a75 14bb 1791 783b
00000240: 055b e139 4867 4b3b e5e3 813b a9c2 283c
00000250: 513a 6dba 908d 2cb8 f96f 8fbc f020 33bc
00000260: 1321 8e3c 4b64 e1bc e2c0 aa3a 0496 52bb
00000270: 90fa e2ba eda6 133a d3e5 c43a b16b cf3c
00000280: ba03 0a3b 4f61 673d 1073 333a be7b 95ba
00000290: 7466 f43a 4289 d5ba 675d 2bba e7ea 82bb
000002a0: 18f5 9f3a d847 e53c fdcf 55bb e691 c3ba
000002b0: 25af fb3a fb9a bbbc f391 923a f5d3 ff3a
000002c0: ac79 2fb8 1c0f 33bd fe91 8d3c f8f4 e0b9
000002d0: 7006 24bd b633 96b9 9e69 60ba 00ea 32ba
000002e0: 229b c43a cf13 d23a 6649 d6ba 8b90 be37
000002f0: 84b3 0a3b 8ecf 0c3b 2638 e8bc 7211 a5bb
00000300: 8769 2fbb 3d55 14bd fca1 393b 3ae0 05bb
00000310: d9b3 b8bb 3d89 a53a 746d 133b 5531 7b3a
00000320: 04d7 193b f5a3 ce3a 72f7 05bb 95f6 e2bc
00000330: 35e6 7539 2e8e 953a 2ade 11bd 15da 993a
00000340: af84 fc39 e4d5 923d 29ff 77bc c202 e0bb
00000350: 2de1 04bb d6d7 523b 788a 0c3b 7114 233d
00000360: efd7 a23d 0fb5 e339 75d3 e7b9 b484 b33a
00000370: ee38 38b9 fa01 053c e06c 8f3d d991 a0bb
00000380: 330d 103b 81cf 3ebb b713 88b9 e7ed 2d3b
00000390: 9845 b9ba 05a2 00bd a968 5e3b 1b4c 223a
000003a0: 3541 e63a 49bb 12ba aad3 c8bb d6be eeba
000003b0: 5be4 61ba 7fd2 ae3d c9a6 5cbb 1535 ba38
000003c0: 3815 b13a d5b5 ab3b 30c1 243a 90f4 983c
000003d0: 47cd 9abb fd1d c7ba b04b e7ba 2439 dc3a
000003e0: 8b48 803b 61e2 48b8 0249 9aba 8435 5abc
000003f0: 17c0 d83a ade8 093d 20c2 4bbb 5b72 003e
