21-A3C-Pong/runs/PongNoFrameskip-v4/2022-11-02_20-10_Second80MSteps_OK/model_sam_BreakoutDeterministic-v4_conv.60.tar (torch, 947003 bytes, 13 tensors)

conv1.weight f4 [32, 4, 3, 3]
0	0x3e35c906	0.17752466
1	0xbee24e65	-0.44200435
2	0xbd25e9f8	-0.040506333
3	0x3c7f2cd8	0.015574656
4	0xbef7fd84	-0.48435605
5	0x3e0543ae	0.13014099
6	0xbe4ac203	-0.19800572
7	0xbd1709a0	-0.036874413
8	0x3e35153b	0.1768388
9	0x3e1d147d	0.15339847
10	0x3eabb7c0	0.33538628
11	0x3d72a8f6	0.059243165
12	0x3e8668dc	0.26251876
13	0x3e8bbad7	0.27290985
14	0x3e7779e5	0.24167593
15	0xbda71845	-0.08158926
16	0x3e474eaa	0.19463602
17	0x3ec7d77e	0.39031595
18	0x3e1bfc78	0.15233028
19	0xbd5d87a6	-0.054084443
20	0xbe143650	-0.14473844
21	0x3ae55dc3	0.0017499257
22	0xbdf7406c	-0.12072834
23	0x3d508545	0.050908346
24	0xbd7a3ef9	-0.06109521
25	0xbdbb5f83	-0.09149077
26	0x3e77be25	0.24193628
27	0x3d9fcf4c	0.078032106
28	0xbe9074d4	-0.28214133
29	0xbb0ceb60	-0.00215026
30	0x3cbeeec9	0.023307221
31	0x3d77c390	0.060489237
32	0x3d99fd4f	0.07519018
33	0xbe9adc90	-0.302464
34	0xbe86e652	-0.26347595
35	0x3a073903	0.0005158337
36	0x3ec03385	0.37539306
37	0x3e0266eb	0.12734573
38	0xbe0e24f9	-0.13881291
39	0x3e20075d	0.15627809
40	0x3f3ba206	0.73294103
41	0xbea8e3e3	-0.32986364
42	0x3e387ae4	0.18015629
43	0x3ecb4a9f	0.3970537
44	0xbda58c2c	-0.08083376
45	0x3e225787	0.15853702
46	0xbe64365a	-0.22286358
47	0xbdad0f1f	-0.0845015
48	0xbda8aefa	-0.08236499
49	0x3dcd7e22	0.100338235
50	0xbe98f42d	-0.2987379
51	0xbe675e06	-0.22594461
52	0x3df91658	0.12162465
53	0x3d877117	0.06613367
54	0x3e451b54	0.19248706
55	0x3e631cc2	0.22178939
56	0xbe3c8a9e	-0.18412253
57	0xbe249711	-0.16073252
58	0x3e99f8a3	0.30072507
59	0xbd699496	-0.05702647
60	0xbeb90993	-0.36140117
61	0x3e7437f9	0.23849477
62	0x3d5d0a31	0.053964797
63	0x3e2ce85a	0.1688551
64	0xbe8452ca	-0.25844413
65	0xbe60c77c	-0.21951097
66	0xbcec38c3	-0.02883566
67	0x3da5bac0	0.0809226
68	0xbe8ce917	-0.27521583
69	0xbea040f5	-0.31299558
70	0x3e2f91ff	0.17145537
71	0xbe54f81c	-0.20797771
72	0xbd115fca	-0.035491742
73	0x3ec0e989	0.37678173
74	0xbbc3704a	-0.0059643136
75	0x3e41dea3	0.18932585
76	0x3f30f7ec	0.691283
77	0xbe9d54c0	-0.30728722
78	0xbdd59230	-0.10428274
79	0x3ef972bc	0.48720348
80	0xbe3eded1	-0.18639685
81	0xbe64243f	-0.22279452
82	0xbd6021ec	-0.05471985
83	0xbec7bec3	-0.39012727
84	0x3e4b8639	0.1987542
85	0x3c501dd1	0.012702421
86	0xbf7ac6dc	-0.97959685
87	0x3e1a55fc	0.15071863
88	0xbdd83d29	-0.105585404
89	0xbec4fb9d	-0.38473216
90	0xbd3caea2	-0.04606498
91	0xbdba9122	-0.09109713
92	0x3ce66635	0.028124908
93	0x3db23cfb	0.08703037
94	0xbda51b58	-0.08061856
95	0xbef67b55	-0.4814097
96	0xbd0c7cef	-0.034298833
97	0x3b5ac27f	0.003338009
98	0xbe55abd3	-0.20866327
99	0x3c23cb85	0.009997253
100	0x3ee0ffff	0.4394531
101	0xbbf813b3	-0.0075707077
102	0x3e8b0aa6	0.27156562
103	0x3ec3146e	0.38101524
104	0xbe071416	-0.13191256
105	0xbdde5884	-0.10856727
106	0x3ed4fe11	0.41600087
107	0x3db07cdc	0.08617565
108	0x3eb434d8	0.35196567
109	0x3e87fd5e	0.2656049
110	0x3e7684c3	0.24074082
111	0x3ee52dc0	0.44761467
112	0x3f5d0ef3	0.86350936
113	0x3e2c5aca	0.16831508
114	0x3e244be9	0.16044582
115	0x3f1ae89c	0.60511184
116	0x3eb8e20f	0.3610997
117	0x3e19b2b9	0.15009584
118	0xbe80d71b	-0.25164112
119	0xbe0146a5	-0.12624605
120	0xbd84994f	-0.06474554
121	0x3bc6c041	0.006065399
122	0x3e16161e	0.14656875
123	0xbe2410c5	-0.16022022
124	0x3e033790	0.12814164
125	0xbe7bf58f	-0.24605392
126	0xbe9d97f7	-0.30780002
127	0xbe916f8c	-0.28405416
128	0x3d83abb7	0.064292364
129	0xbddec53e	-0.10877465
130	0xbe8c3cf2	-0.27390248
131	0x3cd0a5b2	0.025469635
132	0xbd91f641	-0.07127047
133	0xbdea48a8	-0.11439639
134	0xbda61220	-0.08108926
135	0xbcbfeda3	-0.023428744
136	0xbd8d8e5d	-0.06911919
137	0x3ca39bfe	0.019971844
138	0xbed9f1fd	-0.42567435
139	0xbe9f02c0	-0.31056786
140	0xbb4c0d21	-0.0031135755
141	0xbe7a2014	-0.244263
142	0xbe632cc0	-0.2218504
143	0xbd02d52a	-0.03194157
144	0x3e4e3793	0.20138387
145	0x3e46aea3	0.19402556
146	0xbdaeb6ea	-0.08530982
147	0x3dc2a2d9	0.09503717
148	0x3edb94ce	0.42886966
149	0x3e4fa59d	0.2027802
150	0xbe0b1451	-0.13581969
151	0x3e95247a	0.29129392
152	0x3e9110a2	0.28333002
153	0xbe004e7c	-0.1252994
154	0xbf05fbac	-0.52337146
155	0xbe839c8d	-0.25705376
156	0xbeb86e9f	-0.36021897
157	0xbef020c6	-0.46900004
158	0x3bb3b889	0.005484645
159	0xbe87da52	-0.26533753
160	0xbf103ae8	-0.56339884
161	0x3ead1a86	0.33809298
162	0x3e3bed0a	0.18352142
163	0x3e96cc88	0.2945292
164	0xbeac1067	-0.33606264
165	0x3c3b6b0e	0.011439098
166	0xbdc7ec04	-0.09761813
167	0xbdb77c8d	-0.08959303
168	0xbdf95d77	-0.1217603
169	0xbe33bb01	-0.17551805
170	0x3d6d001e	0.05786144
171	0x3e6bcc37	0.2302712
172	0x3e87bc1e	0.2651071
173	0xbca9a68c	-0.020709299
174	0x3e833102	0.25623327
175	0x3ea2e302	0.31813818
176	0x3df7d3f5	0.121009745
177	0x3df303d5	0.11865965
178	0xbd848bfe	-0.06472014
179	0x3e5b09da	0.21390477
180	0xbca4d026	-0.020118784
181	0xbeabbdfa	-0.33543378
182	0xbe85cea9	-0.26134232
183	0xbe91a184	-0.2844354
184	0xbed9aab0	-0.42513037
185	0x3e5f45e1	0.21804
186	0xbebd2ca4	-0.3694812
187	0xbefb94eb	-0.49137053
188	0xbd818dec	-0.063258976
189	0xbe141924	-0.14462715
190	0x3d8511e2	0.064975515
191	0x3d73d31a	0.059527494
192	0xbe86689f	-0.26251695
193	0x3e42185e	0.18954608
194	0x3edbb68a	0.42912704
195	0xbe3a325b	-0.18183272
196	0x3e05cffa	0.13067618
197	0x3e46dd8f	0.19420455
198	0x3eac683b	0.33673272
199	0xbccd3e3e	-0.025054093
200	0x3ce2867b	0.027652016
201	0x3e166d15	0.14690049
202	0x3ed5581d	0.41668788
203	0x3cf2794a	0.02959885
204	0x3eaa6d43	0.33286485
205	0x3d862630	0.065502524
206	0xbd6813ac	-0.056659386
207	0x3e36fbb3	0.17869453
208	0x3d985fe7	0.07440167
209	0x3afc91ce	0.0019269527
210	0x3d4de779	0.050269578
211	0x3e34296f	0.1759393
212	0xbe158688	-0.14602101
213	0x3e8bd314	0.27309477
214	0x3e300ddf	0.17192791
215	0x3dcab45f	0.09897684
216	0x3e212d39	0.15739907
217	0xbeb7f210	-0.35926867
218	0x3cc140d9	0.023590492
219	0x3ddd228e	0.107976064
220	0xbd7bf07a	-0.061508633
221	0x3e8f529b	0.2799271
222	0xbe9da5b5	-0.30790487
223	0xbdbc44e9	-0.09192831
224	0x3eb9a54e	0.3625893
225	0xbb08a876	-0.0020852364
226	0x3e24b3a1	0.16084148
227	0x3d02e225	0.03195395
228	0x3e8fbcbe	0.28073686
229	0x3f515c6b	0.81781644
230	0xbebc0bcf	-0.3672776
231	0xbe1a1509	-0.15047087
232	0x3f0d5448	0.5520673
233	0xbe8f5672	-0.2799564
234	0xbdf85456	-0.12125461
235	0x3dcc8466	0.099861905
236	0xbe5129d7	-0.20426117
237	0x3e97b3da	0.29629403
238	0x3e7ec9c1	0.2488165
239	0xbf074ae2	-0.5284864
240	0xbe34e6b6	-0.17666134
241	0x3e23e1f6	0.16004166
242	0xbe36b2b3	-0.17841606
243	0x3ceb34d2	0.02871171
244	0xbd1c1450	-0.03810531
245	0x3d862728	0.06550437
246	0xbe716fff	-0.2357788
247	0xbd9e766e	-0.077374324
248	0xbe534611	-0.20632197
249	0x3e11207f	0.14172553
250	0x3e3d46c3	0.18484025
251	0xbe2e0333	-0.16993408
252	0xbc8fe5aa	-0.017565567
253	0xbe5acbd8	-0.21366823
254	0x3eeae8a3	0.45880613
255	0xbdf3f93c	-0.11912772

conv1.bias f4 [32]
0	0xbe204f37	-0.15655218
1	0xbdb7402b	-0.08947786
2	0x3d9a2cf7	0.075281076
3	0xbe35dee7	-0.17760812
4	0xbde37b09	-0.111074515
5	0xbe3ceef9	-0.18450536
6	0xbe05aa7c	-0.13053316
7	0xbda1b21c	-0.078953
8	0xbe8dc247	-0.27687284
9	0x3cc736f2	0.024318192
10	0xbcd4af5e	-0.025962528
11	0xbe08186c	-0.13290566
12	0xbe8041b0	-0.25050116
13	0x3e81c7eb	0.25347838
14	0xbe2207db	-0.15823309
15	0x3e9c1fab	0.3049291
16	0xbeb16e67	-0.34654543
17	0xbe9a4922	-0.3013392
18	0xbd983942	-0.07432796
19	0xbe9ba6e2	-0.3040076
20	0xbc018ed1	-0.007907585
21	0x3d177a88	0.03698209
22	0xbd3ffce6	-0.046872042
23	0xbd743c39	-0.059627745
24	0x3dddab83	0.10823729
25	0xbd81f42c	-0.063454
26	0xbe0ac5ce	-0.13552019
27	0x3ec6cf82	0.3883019
28	0xbdb94fda	-0.090484336
29	0x3f276fdb	0.6540505
30	0xbd6f9637	-0.058492865
31	0xbc450a59	-0.012026393

conv2.weight f4 [32, 32, 3, 3]
0	0x3e831a31	0.2560592
1	0x3c8e9f24	0.017409869
2	0x3db7375a	0.08946104
3	0xbd72136f	-0.059100565
4	0xbe1672c7	-0.14692222
5	0xbda3e1e5	-0.0800207
6	0x3c56c931	0.013109491
7	0x3d4856f2	0.048911043
8	0x3be12dca	0.0068719136
9	0x3d52b0f1	0.051438276
10	0x3db4e54d	0.08832798
11	0x3e8bb1ae	0.27283996
12	0x3b2b9c88	0.002618583
13	0xbec07404	-0.37588513
14	0x3d9f0f51	0.07766593
15	0xbe801ef6	-0.2502362
16	0x3e8d37ae	0.27581543
17	0xbdaa49e5	-0.083148755
18	0x3e584193	0.21118765
19	0x3e781999	0.24228515
20	0xbe0f28fc	-0.13980478
21	0x3ecbc79f	0.39800736
22	0xbe26dd2b	-0.16295306
23	0xbe8970bd	-0.26843825
24	0xbe0a5fc4	-0.13513094
25	0x3d8b7dbe	0.06811093
26	0xbdf21a67	-0.11821442
27	0x3d299859	0.041405056
28	0xbdebd195	-0.11514584
29	0x3df1ff2b	0.118162476
30	0xbdac126c	-0.08401951
31	0xbdb46f0c	-0.08810243
32	0x3e9493b5	0.29018942
33	0xbec05f6c	-0.375728
34	0x3ea1b779	0.3158529
35	0x3d461d2c	0.048367664
36	0x3e14fe72	0.14550188
37	0x3e6d18c5	0.2315398
38	0xbe562eb2	-0.2091625
39	0x3db596de	0.08866666
40	0xbe058070	-0.13037276
41	0xbe16050b	-0.14650361
42	0x3d3c6dc1	0.046003107
43	0x3e0e37e0	0.13888502
44	0xbd621a1d	-0.055200685
45	0x3c9c2da3	0.01906473
46	0x3d87d2c0	0.06631994
47	0xbd5593ce	-0.05214291
48	0x3bc57f14	0.006027112
49	0xbefa87dc	-0.48931777
50	0x3e2ba2ca	0.16761318
51	0xbcfde193	-0.030991351
52	0xbd8e3ed4	-0.06945577
53	0x3e4b1b1c	0.1983456
54	0x3e7b6cbc	0.24553198
55	0x3e0a66a7	0.13515721
56	0x3dc4d805	0.09611515
57	0x3d8a354c	0.06748447
58	0xbf157f43	-0.5839731
59	0x3c6c1dfc	0.014411446
60	0xbe5866e0	-0.21132994
61	0xbb96fdf6	-0.004607911
62	0x3e7d8b69	0.24760212
63	0x3d5ddcab	0.054165523
64	0x3d27e24b	0.040987294
65	0x3de077cc	0.109603494
66	0xbd8f1f02	-0.06988336
67	0xbcf40f9d	-0.029792601
68	0xbda29ec7	-0.079404406
69	0x3cca474e	0.024692204
70	0x3da01926	0.07817297
71	0x3da5e5f5	0.081005014
72	0xbe55fcf4	-0.20897275
73	0x3e785f09	0.24255003
74	0x3d8b387d	0.06797884
75	0xbe0fb165	-0.14032514
76	0xbd0c8f3a	-0.03431628
77	0xbe4e9734	-0.20174867
78	0x3b373537	0.0027955303
79	0x3c826755	0.015918413
80	0x3e8e0b08	0.2774279
81	0x3c667dd3	0.014068085
82	0x3cddf1dc	0.027092867
83	0xbcd4a168	-0.02595587
84	0xbdb6414f	-0.088991754
85	0x3e8355ed	0.25651494
86	0xbe816c3a	-0.25277883
87	0x3d16e45d	0.036838878
88	0xbd44c2f3	-0.04803748
89	0x3de66899	0.11250419
90	0xbcf799a7	-0.030224634
91	0x3d2cf148	0.04222229
92	0xbd9ddc94	-0.077080876
93	0xbdb3c9d7	-0.08778732
94	0xbe886ef5	-0.26647153
95	0x3e273818	0.16329992
96	0x3c111e48	0.008857317
97	0x3dfb92e0	0.122838736
98	0xbc7d5b47	-0.015463657
99	0x3e6e4291	0.2326758
100	0x3d4f98a8	0.050682694
101	0xbd5b7a94	-0.053583696
102	0x3d822a0d	0.06355677
103	0x3d5071c8	0.05088976
104	0xbe38e477	-0.18055902
105	0xbd90f637	-0.07078212
106	0xbd8edc7d	-0.069756486
107	0x3d0db9fc	0.034601197
108	0xbd37393f	-0.04473233
109	0x3e91f353	0.28505954
110	0x3d7597d6	0.059959255
111	0xbe76607e	-0.24060246
112	0xbe2af622	-0.16695455
113	0x3d29b358	0.0414308
114	0xbd5c05d3	-0.053716492
115	0x3e06da03	0.13169102
116	0x3cc838c3	0.024441129
117	0xbdc54ad1	-0.09633411
118	0xbc3079a5	-0.01077119
119	0x3e2a3694	0.16622382
120	0x3e243b5e	0.16038272
121	0x3e5609d2	0.20902184
122	0xbb86b98d	-0.004111475
123	0xbdd52e87	-0.10409265
124	0xbe91233f	-0.28347203
125	0xbc7322cb	-0.014839838
126	0x3e11a483	0.14222912
127	0xbe56f63b	-0.20992367
128	0x3c7c00de	0.015381066
129	0xbaa5b5a1	-0.0012642631
130	0xbde7d446	-0.11319785
131	0xbd3a2c2c	-0.04545228
132	0xbc319e04	-0.0108408965
133	0x3e9df3b2	0.30849987
134	0xbc703493	-0.014660972
135	0x3e8f32b2	0.27968365
136	0xbde9e5aa	-0.11420758
137	0x3cce51f3	0.02518556
138	0x3e313f2f	0.17309259
139	0x3d7432c3	0.059618723
140	0x3c26782d	0.010160488
141	0xbdac6762	-0.08418156
142	0x3ddac0e7	0.106813245
143	0xbe93ddc1	-0.28880122
144	0xbe1bfbb8	-0.15232742
145	0x3d1dc794	0.03852041
146	0x3dd4ddf9	0.103939004
147	0xbe394b85	-0.18095215
148	0xbe21484b	-0.15750234
149	0x3e7a5f9d	0.24450536
150	0xbe1e8d43	-0.15483575
151	0x3e2f3491	0.17109896
152	0x3e54c129	0.2077681
153	0xbe1e6212	-0.15467098
154	0xbc875de4	-0.016524263
155	0x3e1843ae	0.14869568
156	0x3c4c2d7b	0.012462015
157	0x3a25c151	0.0006323057
158	0xbd45a203	-0.04825021
159	0xbd839486	-0.06424813
160	0x3d182a12	0.037149496
161	0x3e3fe28e	0.18738768
162	0x3cfe6cf0	0.031057805
163	0x3e688c4e	0.22709772
164	0xbcb4f9a9	-0.022091703
165	0xbc19f9fa	-0.009397978
166	0xbeadad85	-0.33921447
167	0x3e32e08f	0.17468475
168	0xbe65d71b	-0.22445337
169	0xbd866432	-0.065620795
170	0x3e4cce76	0.20000634
171	0xbe2f2581	-0.1710415
172	0x3d38550d	0.045002986
173	0x3d3cd47d	0.046101082
174	0xbebf21f1	-0.37330583
175	0x3d03b74e	0.032157235
176	0x3d3a111b	0.04542647
177	0x3d849791	0.064742215
178	0xbe43ea6e	-0.19132397
179	0x3e416677	0.18886743
180	0x3ea0ac7b	0.31381592
181	0xbc98d098	-0.018654153
182	0xbd6f0b47	-0.058360364
183	0xbe188928	-0.14896071
184	0x3e228d3a	0.15874186
185	0xbdd33d5a	-0.10314436
186	0x3de7416b	0.11291774
187	0x3c842c75	0.01613448
188	0xbe150131	-0.14551236
189	0xbe1c6857	-0.15274177
190	0xbdf2a5f9	-0.11848063
191	0x3e92dd08	0.28684258
192	0xbca262e7	-0.019822551
193	0xbcdb9c76	-0.026808005
194	0xbadb0f3b	-0.0016712913
195	0x3e045235	0.12921984
196	0xbc488348	-0.012238331
197	0xbd91cd15	-0.071191944
198	0x3d9ea653	0.077465676
199	0xbcd5a6d3	-0.026080525
200	0xbdfce0c8	-0.12347561
201	0xbd14e631	-0.03635234
202	0x3ddf6f6a	0.109099224
203	0xbd0a3f73	-0.033751916
204	0x3e510be6	0.20414695
205	0xbe04d0e9	-0.12970318
206	0xbd8aff13	-0.06786933
207	0xbe247165	-0.16058882
208	0xbe4a28ff	-0.19742201
209	0x3e3caf7c	0.18426317
210	0xbe386478	-0.18007076
211	0x3ec42bbf	0.38314626
212	0xbd5e9117	-0.054337587
213	0x3d9b1155	0.07571665
214	0x3d6785a4	0.056523934
215	0xbca80d90	-0.02051428
216	0xbdd32ada	-0.10310908
217	0x3e7cc3fe	0.2468414
218	0x3d86bf60	0.06579471
219	0xbd09c637	-0.033636298
220	0xbc6bbf74	-0.014388908
221	0xbd8101e3	-0.06299188
222	0x3de67ff3	0.11254873
223	0xbd9725da	-0.073802665
224	0x3d11395c	0.035455093
225	0x3e2d2a81	0.16910745
226	0x3d2d6746	0.042334817
227	0xbe9c0ca0	-0.30478382
228	0xbe210569	-0.1572472
229	0x3e3bd51d	0.18343015
230	0x3e34a80b	0.17642228
231	0x3acf0a85	0.0015795982
232	0xbcbf6502	-0.023363594
233	0xbe008c40	-0.12553501
234	0x3e6cff18	0.23144186
235	0xbb833988	-0.004004661
236	0xbea9d471	-0.33169892
237	0xbcdd3b62	-0.027005855
238	0x3dc4fd60	0.0961864
239	0xbd8f113c	-0.06985709
240	0x3e174f98	0.14776456
241	0xbd8d547b	-0.06900879
242	0x3ce8bc7e	0.028410193
243	0xbd3b20ac	-0.045685455
244	0xbea2096d	-0.31647816
245	0x3dc7c07c	0.0975351
246	0xbec91cd5	-0.3927981
247	0x3f083fa4	0.5322211
248	0x3e09ca4d	0.13456078
249	0x3e80039f	0.25002763
250	0xbc5e53fb	-0.013569827
251	0xbe1038ab	-0.14084117
252	0x3d3e6f35	0.046492774
253	0xbe922105	-0.28540817
254	0x3e4e2b37	0.20133673
255	0x3d064eb6	0.03278991

conv2.bias f4 [32]
0	0xba068351	-0.0005131262
1	0xbbbd481d	-0.005776419
2	0xbc07ecd7	-0.008296213
3	0xbc02b5af	-0.007977887
4	0xbc20ef8d	-0.009822738
5	0xbb8cec00	-0.0043005943
6	0xbb38f547	-0.0028222369
7	0xbc314165	-0.010818814
8	0x3ac05db2	0.0014676361
9	0xbb9fec29	-0.0048804474
10	0xbb83da53	-0.004023829
11	0x3a1a76a7	0.00058923144
12	0xbc28d3ce	-0.010304404
13	0x3b0aa39c	0.0021154648
14	0xbc396818	-0.011316322
15	0xbc685d6f	-0.014182433
16	0xbbbf8432	-0.0058446163
17	0xbbd1231f	-0.0063823606
18	0x3b702e84	0.003664882
19	0xbbe6508a	-0.007028644
20	0xbb47a831	-0.003046524
21	0xbc0c494f	-0.0085624
22	0x3a9d7473	0.0012012854
23	0x3b431b79	0.0029771014
24	0x3ba7a40b	0.005115991
25	0xbc0309f7	-0.007997981
26	0xbb141cf8	-0.0022600275
27	0x3b57d769	0.003293479
28	0xbb703539	-0.0036652817
29	0x3c1182a9	0.008881249
30	0xbbf6ff50	-0.00753776
31	0x3bd13185	0.006384077

conv3.weight f4 [32, 32, 3, 3]
0	0x3df91730	0.12162626
1	0x3e13dfba	0.14440814
2	0x3da572ea	0.08078559
3	0x3d8cb617	0.068706684
4	0xbe09ee8c	-0.13469905
5	0x3d4de80f	0.050270136
6	0xbe07fe39	-0.13280572
7	0x3e48f7ed	0.19625826
8	0x3e10bc91	0.14134432
9	0xbe6e9015	-0.2329715
10	0x3d07c9f9	0.0331516
11	0xbd9f4d1d	-0.0777838
12	0xbee2dac5	-0.44307533
13	0x3e1b59ad	0.15170927
14	0x3e14716d	0.14496394
15	0xbe8eb0dd	-0.2786931
16	0xbe08d80f	-0.1336367
17	0xbd8481f4	-0.06470099
18	0xbec055f9	-0.37565592
19	0xbbec4c1c	-0.0072112214
20	0xbd36d303	-0.04463483
21	0xbe81925d	-0.2530698
22	0x3e811f0b	0.25218996
23	0x3e2224aa	0.15834299
24	0xbe924281	-0.28566363
25	0x3e1d55e9	0.15364803
26	0xbe5e2978	-0.21695507
27	0xbebf4a26	-0.37361258
28	0x3e6e0bb0	0.23246646
29	0x3db9d7e7	0.09074383
30	0xbd0467a8	-0.032325417
31	0x3ccb1113	0.024788415
32	0x3dd034b3	0.101663016
33	0xbe93a3b5	-0.28835836
34	0x3e34675d	0.17617555
35	0xbc4afbd8	-0.012389146
36	0xbcc62a63	-0.024190133
37	0x3e41545e	0.1887984
38	0xbeb18f2e	-0.3467955
39	0xbeb81e04	-0.359604
40	0x3ded0c4d	0.11574612
41	0xbea87c01	-0.32907107
42	0xbe2d53fe	-0.16926572
43	0x3e2c1f40	0.16808796
44	0xbce54314	-0.027986087
45	0x3e14c56e	0.14528438
46	0xbe758cb6	-0.23979458
47	0x3ce220cc	0.02760353
48	0xbe3a24d7	-0.18178116
49	0x3e2656f0	0.16244102
50	0x3c9fb9f1	0.019497843
51	0xbdc59e8f	-0.09649383
52	0xbdc9bd14	-0.09850517
53	0x3e1cc8a8	0.1531092
54	0x3e11512a	0.14191118
55	0xbdeb206a	-0.11480792
56	0x3e2f9de6	0.17150077
57	0x3d5dae9b	0.054121595
58	0x3e78beb3	0.24291496
59	0x3e252225	0.16126306
60	0x3e51655f	0.20448826
61	0xbe58a6cd	-0.2115738
62	0x3ec229be	0.37922472
63	0x3dde00b5	0.108399786
64	0xbd08aa1f	-0.033365365
65	0xbc29b34f	-0.010357692
66	0xbd005740	-0.031333208
67	0x3ea8fb17	0.33004066
68	0xbef5195f	-0.4787092
69	0xbeddef37	-0.4334657
70	0x3e09f1b5	0.1347111
71	0xbdcdcf8a	-0.100493506
72	0x3db32561	0.08747364
73	0xbe6653fb	-0.22492974
74	0x3ea0dd6e	0.31418937
75	0xbb135306	-0.0022479906
76	0x3dc7f03c	0.09762618
77	0x3e1bc66c	0.1521241
78	0xbd8e6ada	-0.06953974
79	0xbd8ce0ab	-0.068787895
80	0x3e33af37	0.17547308
81	0xbda2718b	-0.07931813
82	0xbd4842f8	-0.04889199
83	0x3d907d24	0.07055119
84	0x3cba4dbc	0.022742145
85	0xbeb86ee1	-0.36022094
86	0x3d118f9f	0.03553736
87	0xbbbdf5a3	-0.0057971044
88	0xbe4201f1	-0.18946053
89	0x3e447c34	0.19188005
90	0xbe787272	-0.24262407
91	0x3cec2573	0.02882645
92	0xbcb02d8d	-0.021506095
93	0xb68ef0f0	-4.2599786e-06
94	0x3d8ffa0e	0.07030116
95	0x3ebc59e8	0.36787343
96	0xbd47c380	-0.048770428
97	0x3de15e7f	0.11004352
98	0xbabd21e6	-0.0014429658
99	0xbe04fcdb	-0.12987082
100	0x3e4016e7	0.18758737
101	0x3d33d43e	0.04390358
102	0xbf027c67	-0.5097107
103	0x3d89bd5f	0.06725573
104	0x3e7aa326	0.24476299
105	0xbe1b510a	-0.15167633
106	0x3db5e1de	0.08880971
107	0x3e4e8b43	0.20170312
108	0x3e959157	0.29212448
109	0xbdfaf792	-0.122542515
110	0xbd21ef9a	-0.039535142
111	0x3e703c6f	0.23460554
112	0x3dbd57bd	0.092452504
113	0xbe90810f	-0.28223464
114	0x3db8ce9e	0.09023784
115	0xbe2c77e0	-0.16842604
116	0x3e3ccfe4	0.18438679
117	0x3c83ab90	0.016073018
118	0x3e73ecc9	0.23820795
119	0xbe26c228	-0.16285002
120	0xbe96b547	-0.2943518
121	0xbe660930	-0.22464442
122	0x3eaa0c49	0.33212498
123	0xbe376a1c	-0.17911571
124	0x3e81cab8	0.25349975
125	0x3db6e40c	0.08930215
126	0x3db3ee16	0.08785646
127	0xbe0ea977	-0.13931833
128	0x3d878136	0.06616442
129	0xbc68d33d	-0.014210519
130	0x3cf2423b	0.029572597
131	0x3d47efa5	0.048812527
132	0xbe00d638	-0.12581718
133	0xbde2c290	-0.11072266
134	0x3d9f9684	0.077923805
135	0xbd941bef	-0.072318904
136	0x3de78b56	0.11305873
137	0xbd2d5902	-0.042321213
138	0x3eb75393	0.3580595
139	0xbf2f5877	-0.6849436
140	0x3eccd3cc	0.40005338
141	0x3a9099e3	0.001103219
142	0x3da0501f	0.07827782
143	0xbddb2838	-0.107010305
144	0xbe25767b	-0.16158478
145	0x3cb1f1e2	0.021721784
146	0x3dde146a	0.108437374
147	0x3e4f1f60	0.20226812
148	0xbe8be0cd	-0.27319947
149	0x3e7fad10	0.24968362
150	0x3eaa90fa	0.33313733
151	0xbdae4142	-0.08508541
152	0xbe6c38c5	-0.23068531
153	0x3d3073ef	0.043079313
154	0x3bebd731	0.0071972837
155	0x3e3d8e26	0.18511257
156	0x3e13caf8	0.14432895
157	0x3e0fe5d1	0.14052512
158	0x3de0f840	0.1098485
159	0xbe9b4323	-0.3032466
160	0x3e04fc88	0.12986958
161	0xbdc8b9fc	-0.09801099
162	0x3de95290	0.11392701
163	0xbe460431	-0.19337536
164	0xbd8e3eae	-0.06945549
165	0xbd3a66ee	-0.045508318
166	0x3b1c5a34	0.0023857476
167	0x3e0c9327	0.13728009
168	0x3db71f88	0.08941561
169	0xbdd4a95c	-0.10383865
170	0x3e452a9c	0.19254535
171	0xbdcf0600	-0.10108566
172	0xbc828a17	-0.015934987
173	0xbe834e19	-0.2564552
174	0xbe941c2e	-0.2892775
175	0x3dd900fc	0.10595891
176	0xbec140d8	-0.37744784
177	0xbe58324f	-0.21112941
178	0xbd63c43d	-0.05560707
179	0xbe0126ef	-0.12612508
180	0xbe064fa5	-0.1311632
181	0x3d8d26e4	0.068921834
182	0xbbf8760b	-0.007582431
183	0x3d9d9ffb	0.076965295
184	0x3e708a09	0.23490156
185	0x3d07ac2f	0.03312319
186	0xbd30eeda	-0.043196537
187	0xbe21c564	-0.15797955
188	0xbbcf38ad	-0.006323895
189	0xbd79115e	-0.06080758
190	0x3d444559	0.047917698
191	0xbdc1e1bf	-0.09466886
192	0x3eb7eb83	0.3592187
193	0xbec77611	-0.38957265
194	0x3ef5dfba	0.48022252
195	0x3e0b501a	0.13604775
196	0xbd6f7d44	-0.058469072
197	0xbeafb99c	-0.34321296
198	0x3e02a0ad	0.12756605
199	0xbe37d7e1	-0.17953445
200	0x3e26b6b4	0.16280633
201	0xbee9644e	-0.4558434
202	0x3e8cecfa	0.2752455
203	0xbe705b20	-0.23472261
204	0xbd51f833	-0.05126209
205	0xbdf206d8	-0.118177116
206	0x3ea3f281	0.32020953
207	0xbdd5cb62	-0.10439183
208	0x3e923368	0.28554845
209	0x3e1532db	0.14570181
210	0x3dd7473c	0.10511634
211	0xbce1e34a	-0.0275742
212	0x3e227b7f	0.15867423
213	0x3cc06a8e	0.02348831
214	0xbd83ad0c	-0.064294904
215	0x3de369ce	0.11104165
216	0xbdd39493	-0.10331073
217	0x3e0916de	0.1338763
218	0x3df95f89	0.12176425
219	0xbe39050b	-0.1806833
220	0x3e7c1f61	0.24621345
221	0x3c3e2f6e	0.011607988
222	0xbe530584	-0.20607573
223	0xbe497eef	-0.19677328
224	0x3e83c379	0.2573507
225	0xbe100e5b	-0.14067976
226	0x3ea66dc1	0.3250561
227	0xbddb0338	-0.10693973
228	0x3d80acad	0.06282935
229	0xbf22c46e	-0.6358098
230	0x3ec8469d	0.39116374
231	0xbe471b9f	-0.1944413
232	0x3e876380	0.264431
233	0xbdd0078e	-0.10157691
234	0xbea0471c	-0.31304252
235	0x3da9052b	0.08252939
236	0x3e95ef85	0.292843
237	0x3d97dc46	0.07415061
238	0xbed9cfef	-0.42541453
239	0x3e5e71ac	0.2172305
240	0xbe238e80	-0.15972328
241	0x3d9e35ef	0.07725131
242	0x3d3dae4b	0.046308797
243	0x3d9b205c	0.075745314
244	0x3e8092b3	0.25111923
245	0xbd7abffb	-0.061218243
246	0x3e70514c	0.23468512
247	0xbe0ec0a1	-0.1394067
248	0x3db9ccc8	0.09072262
249	0x3e3ff249	0.18744768
250	0xbc16811b	-0.009186055
251	0x3e1c1c04	0.15245062
252	0x3d10d141	0.03535581
253	0xbdbe11aa	-0.09280713
254	0x3d9409d0	0.07228434
255	0xbd8a23b3	-0.0674509

conv3.bias f4 [32]
0	0xbd411ad6	-0.047144733
1	0xbc2a0b85	-0.010378723
2	0x3aa8fa71	0.001289202
3	0xbc7c4544	-0.015397374
4	0xbca91e7f	-0.020644424
5	0xbce30a67	-0.027714921
6	0xbcead1bf	-0.028664468
7	0xbcf4026b	-0.02978631
8	0x3be5f000	0.0070171356
9	0xbcc2ed39	-0.023794757
10	0xbc5c818f	-0.013458624
11	0xbc8593d4	-0.016305842
12	0x3c5bf343	0.013424697
13	0xbc863093	-0.016380584
14	0x3bb399af	0.005480967
15	0xbb326515	-0.0027220894
16	0xbd5b5d35	-0.053555686
17	0xbd626a76	-0.05527731
18	0xba966763	-0.0011474903
19	0xbcc7a90e	-0.024372604
20	0xbbdb14aa	-0.006685813
21	0xbce8eca8	-0.028433159
22	0xbb94b852	-0.0045385743
23	0xbc824ae6	-0.015904855
24	0xbd6ee295	-0.058321554
25	0xbd6b3bf3	-0.05743022
26	0xbba56f1e	-0.0050486466
27	0xbcf9b041	-0.030479552
28	0x3c6b48ad	0.014360589
29	0xbd18d10d	-0.03730874
30	0xbd911600	-0.07084274
31	0x3b920957	0.00445668

conv4.weight f4 [32, 32, 3, 3]
0	0x3d75bf8e	0.059997134
1	0xbd8bd763	-0.06828191
2	0xbd92c92b	-0.07167276
3	0x3dd74477	0.105111055
4	0x3e80bceb	0.25144133
5	0x3c257193	0.010097879
6	0x3dfbe75c	0.12299988
7	0x3e6072c7	0.21918784
8	0xbd1c34ea	-0.0381364
9	0x3c9c44e4	0.019075818
10	0xbd38399d	-0.04497682
11	0x3aabd9a7	0.001311113
12	0x3c758df5	0.0149874585
13	0x3d95b797	0.073104076
14	0x3e125f2c	0.14294118
15	0x3daf55fc	0.08561322
16	0x3b67d1ad	0.003537278
17	0x3dece2b0	0.11566675
18	0xbd11c546	-0.035588525
19	0x3e1e1888	0.15439045
20	0x3d1194d8	0.03554234
21	0xbd5f7d38	-0.054562777
22	0x3e476839	0.19473352
23	0xbd194411	-0.03741843
24	0x3d92267e	0.07136248
25	0x3e23445a	0.15944043
26	0x3d1ec887	0.038765457
27	0xbd09c26b	-0.033632677
28	0xbe3ab42d	-0.18232794
29	0x3dee5381	0.11637021
30	0xbe85e4f3	-0.26151237
31	0xbe72c17e	-0.23706624
32	0x3ddacf6b	0.10684093
33	0xbe48e2c1	-0.1961775
34	0xbcc4ade1	-0.024008693
35	0x3df801f7	0.1210975
36	0x3d718882	0.058968075
37	0x3e4d512d	0.20050497
38	0xbdb7412c	-0.089479774
39	0x3e2e0e80	0.16997719
40	0x3e1da266	0.15393981
41	0xbdf717bb	-0.12065073
42	0x3ded3c42	0.11583759
43	0xbb8f9154	-0.004381338
44	0xbda7a7e3	-0.08186319
45	0x3dcc01f4	0.0996131
46	0xbd936583	-0.07197096
47	0xbe228598	-0.15871274
48	0xbbde4157	-0.0067826915
49	0x3d2fe42b	0.042942207
50	0xbddaec36	-0.10689585
51	0x3da6de7c	0.08147904
52	0xbc8c678d	-0.01713922
53	0xbccf2c1c	-0.025289588
54	0x3dfb2605	0.12263111
55	0x3e0fb77f	0.14034842
56	0xbe79e84b	-0.24405019
57	0x3e1f6def	0.1556928
58	0x3eb69fe0	0.3566885
59	0xbd40aef8	-0.047041863
60	0x3e0ec7bf	0.13943385
61	0x3ea52bee	0.32260078
62	0xbc045ecb	-0.008079241
63	0x3d8e92ac	0.06961569
64	0x3e0a435f	0.13502263
65	0xbe9c9c2d	-0.30587903
66	0x3e4494e9	0.1919743
67	0x3ed56edf	0.4168615
68	0xbec0c55a	-0.37650567
69	0x3e8d28ae	0.275701
70	0x3e0da35f	0.13831852
71	0xbda3a637	-0.07990687
72	0xbcd0d924	-0.025494166
73	0x3d9c7e06	0.076412246
74	0xbda120ca	-0.07867582
75	0xbd921d82	-0.071345344
76	0x3ecee0e5	0.40405956
77	0x3d4950a4	0.04914917
78	0x3dd1d580	0.102458
79	0x3d197089	0.037460838
80	0x3cea2619	0.02858262
81	0x3b93a12b	0.0045052967
82	0x3d0dc0d4	0.034607723
83	0xbe1a23e7	-0.15052758
84	0xbc8fbb9c	-0.017545514
85	0x3e1be539	0.1522416
86	0xbe02f91c	-0.1279034
87	0x3ceb553a	0.028727163
88	0xbd56082c	-0.052253887
89	0xbe3c60bc	-0.18396276
90	0xbd9f7a36	-0.07786982
91	0xbb806b5b	-0.003919048
92	0xbd5580ac	-0.052124664
93	0xbdf6813c	-0.12036368
94	0xbe1923d3	-0.14955072
95	0xbdda7418	-0.106666744
96	0x3e74e0cb	0.23913877
97	0xbdf276bb	-0.11839052
98	0xbe95f050	-0.29284906
99	0xbd356b7e	-0.044291966
100	0xbe1f443b	-0.15553372
101	0x3d5baf3e	0.05363392
102	0xbd9bcc0b	-0.076072775
103	0xbe05f515	-0.13081773
104	0xbd69ce0c	-0.057081267
105	0xbcafa946	-0.02144302
106	0xbe539a82	-0.20664409
107	0x3dd2f889	0.103013106
108	0xbd90f240	-0.070774555
109	0xbd512ba1	-0.051067
110	0xbc1d8bbb	-0.009615834
111	0xbeadce75	-0.33946577
112	0x3d9a1e6e	0.07525335
113	0x3d4afb26	0.04955592
114	0xbe5d6cb5	-0.216235
115	0x3e16347b	0.14668457
116	0x3e03dc87	0.12877093
117	0xbb87807b	-0.004135189
118	0x3cb8fd28	0.022581652
119	0x3e46d577	0.19417368
120	0xbd7f9889	-0.06240133
121	0x3dc3b57a	0.09556098
122	0x3e12ec85	0.14348038
123	0x3e3cb664	0.18428952
124	0xbe0950bb	-0.13409702
125	0xb9d1e892	-0.00040036865
126	0x3afecfde	0.0019440611
127	0xbda0461c	-0.07825872
128	0xbe55e2e6	-0.20887336
129	0xbe419140	-0.18903065
130	0xbbad5b54	-0.005290428
131	0xbe45e27a	-0.19324675
132	0x3e0212d4	0.12702495
133	0x3cac440e	0.021028545
134	0xbdda33ce	-0.10654412
135	0x3c765857	0.01503571
136	0x3e1926d4	0.14956218
137	0x3d50237b	0.050815087
138	0x3e6ae093	0.22937231
139	0x3e8f12d5	0.27944055
140	0xbc23cfce	-0.009998275
141	0x3e165f52	0.146848
142	0x3e96d940	0.29462624
143	0xbd8e03be	-0.069343075
144	0x3dcf127a	0.10110946
145	0x3d351b8f	0.044215735
146	0x3df9e4b8	0.12201828
147	0x3d4e5e43	0.050382864
148	0x3e40ee2f	0.1884086
149	0xbe32276d	-0.17397852
150	0xbc8a2213	-0.016861951
151	0x3e9a6dab	0.30161795
152	0xbe1ff8df	-0.1562228
153	0xbe3b69b5	-0.18302043
154	0xbd3ac570	-0.045598447
155	0xbdcc2eb0	-0.099698424
156	0xbe76b9f3	-0.24094371
157	0xbde2e0e4	-0.11078051
158	0x3d054e25	0.032545228
159	0xbda210e8	-0.07913381
160	0xbe349da1	-0.17638256
161	0x3c500f9d	0.012699035
162	0x3ad9fa45	0.0016630372
163	0x3d3da652	0.046301194
164	0xbc8cfb8a	-0.017209787
165	0x3cd6c255	0.026215712
166	0x3ebc1ea3	0.36742124
167	0xbdc884b4	-0.09790936
168	0x3d887969	0.06663782
169	0x3e92583b	0.2858294
170	0xbdd27654	-0.102764755
171	0xbe7af982	-0.24509242
172	0x3cac6941	0.021046283
173	0x3e20f3cd	0.15718003
174	0xbe695307	-0.22785579
175	0x3c8adea2	0.016951863
176	0x3e0c0a3a	0.13675776
177	0xbec65f92	-0.3874479
178	0xbda6e360	-0.08148837
179	0x3b2ca54e	0.0026343646
180	0xbcb64dc8	-0.022253886
181	0x3c48929a	0.012241984
182	0xbd49f0ca	-0.0493019
183	0x3dd12ea2	0.10213973
184	0x3d9e56d1	0.07731403
185	0xbcfa62ea	-0.030564744
186	0x3d93ebca	0.072227076
187	0xbcf6e6ad	-0.030139292
188	0xbda86fec	-0.082244724
189	0xbe2394a6	-0.15974674
190	0xbdd8453b	-0.1056008
191	0x3ca5a8eb	0.020222148
192	0xbe0893c1	-0.13337614
193	0xbdf587ca	-0.1198879
194	0x3e08f9b3	0.13376503
195	0xbd96fc9d	-0.07372401
196	0x3cf7e113	0.030258691
197	0xbe7f93c8	-0.24958718
198	0xbddd73dc	-0.10813114
199	0x3e0054ab	0.12532298
200	0x3dc7a0e0	0.09747481
201	0x3dbe3ab2	0.09288539
202	0x3dce7da5	0.100825585
203	0x3daddd26	0.08489446
204	0xbd8a66af	-0.067578666
205	0x3a77fe26	0.00094601733
206	0x3c8713a9	0.016488867
207	0x3d417859	0.047233913
208	0x3dd8c133	0.10583725
209	0xbdfdb3a1	-0.12387777
210	0xbda61d21	-0.08111025
211	0x3ec293d3	0.38003406
212	0x3d2b6e67	0.041853335
213	0x3c4239bf	0.011854588
214	0x3e147600	0.14498138
215	0x3bf2fabd	0.0074151442
216	0x3cde050b	0.027102014
217	0xbe60f6b9	-0.21969117
218	0xbe998f19	-0.29991987
219	0x3cf5b771	0.029994698
220	0xbccfc7da	-0.025363851
221	0x3d11ac7b	0.03556488
222	0x3d6c5d85	0.057706375
223	0x3dd00559	0.1015727
224	0x3e94c0ed	0.2905344
225	0x3d12b0a9	0.035813008
226	0x3d076bef	0.033061918
227	0xbd493417	-0.049121942
228	0x3e602c0e	0.21891806
229	0x3df051ce	0.11734353
230	0x3d5d5944	0.05404021
231	0x3e2f76f5	0.17135222
232	0x3e630651	0.22170378
233	0xbd0cda2c	-0.034387752
234	0xbdac01ed	-0.08398805
235	0xbcb475d6	-0.022028845
236	0xbd4b60ce	-0.049652867
237	0xbd4e685f	-0.050392505
238	0x3e3f255c	0.18666595
239	0x3c634ba7	0.013873017
240	0xbd90d813	-0.07072463
241	0x3d6b9e0b	0.05752377
242	0xbdaeb1cd	-0.085300066
243	0x3dd143e3	0.102180265
244	0x3d0f8385	0.035037536
245	0xbcceaeb5	-0.025229791
246	0x3e0ed316	0.1394771
247	0xbd55e80b	-0.052223247
248	0xbeb0fb9e	-0.3456697
249	0x3e9b697b	0.30353913
250	0xbe1bd1f1	-0.15216805
251	0xbe8a004b	-0.2695335
252	0x3d25d69d	0.040487874
253	0xbd84cdba	-0.06484552
254	0x3c4e4600	0.0125899315
255	0x3e789a91	0.24277712

conv4.bias f4 [32]
0	0x3c75503b	0.014972742
1	0xbd50af8e	-0.050948672
2	0x3c2aff2a	0.010436812
3	0x3d2d44e7	0.04230204
4	0x3d14a784	0.036292568
5	0x3b9cfba4	0.00479074
6	0x3da9a41a	0.08283253
7	0x3b973aed	0.004615179
8	0x3dfc3010	0.12313855
9	0x3d17c4f9	0.037053082
10	0xbd8647be	-0.065566525
11	0xbcf3c00c	-0.029754661
12	0x3bba26d6	0.005680899
13	0x3d26229a	0.040560342
14	0xbcd19de7	-0.025587989
15	0xbd6b26ea	-0.05741016
16	0x3ddf7f97	0.10913008
17	0x3dfdc24e	0.12390576
18	0xbd01948a	-0.0316358
19	0x3e0dd133	0.13849334
20	0xbab6f99f	-0.0013959891
21	0xbdf40ab4	-0.11916104
22	0x3d893be6	0.06700878
23	0x3d093af0	0.033503473
24	0xbcfe85b6	-0.031069618
25	0xbdb729a1	-0.08943487
26	0xbc3b1c98	-0.0114203915
27	0x3d187941	0.03722501
28	0xbd980e72	-0.0742463
29	0xbda73d79	-0.08166022
30	0xbaf193d4	-0.0018430897
31	0x3cebb666	0.028773498

linear.weight f4 [256, 800]
0	0x3e21ea6c	0.15812081
1	0xbd0d9f0f	-0.03457552
2	0xb4678327	-2.1561264e-07
3	0x3d45b31b	0.04826651
4	0xbea5c308	-0.3237536
5	0xbd30138f	-0.042987403
6	0x3d293cb0	0.04131764
7	0x3d856c1c	0.06514761
8	0x3dc88c1a	0.09792347
9	0xbdded11d	-0.10879729
10	0x3d3ae9d9	0.04563317
11	0xbe0d4e7e	-0.13799474
12	0x3c646eef	0.013942464
13	0x3d6a8a1e	0.057260625
14	0xbdb7afc3	-0.08969071
15	0xbd1d1d70	-0.038358152
16	0xbdb45cfa	-0.08806796
17	0xbd4de02b	-0.05026261
18	0xbdac76c6	-0.08421092
19	0xbdf8640f	-0.1212846
20	0x3e189ff9	0.14904775
21	0xbdf735c4	-0.12070802
22	0xbe93c27c	-0.28859317
23	0xbee76d59	-0.45200613
24	0xbdf2d7dd	-0.11857579
25	0x3cc007e5	0.023441264
26	0xbe09cc17	-0.1345676
27	0x3b2c2f74	0.0026273401
28	0x3d87350d	0.066019155
29	0x3eba415c	0.3637799
30	0x3d2b5002	0.04182435
31	0xbd83c400	-0.064338684
32	0xbc0d39f4	-0.008619774
33	0x3de7927d	0.11307237
34	0x3e77a825	0.24185236
35	0x3d83e442	0.06440021
36	0x3ba34f48	0.0049838163
37	0x3c808e77	0.015692933
38	0xbcef70b5	-0.029228548
39	0x3e9ba91a	0.30402452
40	0xbd97619c	-0.073916644
41	0xbda94145	-0.08264402
42	0xbdcb7d4f	-0.0993601
43	0x3da8b4d8	0.08237618
44	0xb8840c44	-6.296535e-05
45	0x3abf2254	0.0014582374
46	0xbdaa7db1	-0.08324755
47	0x3bafd199	0.005365562
48	0x3dd2bcad	0.10289893
49	0xbc55fcf8	-0.013060801
50	0xbdbc7917	-0.092027836
51	0xbe2d3eea	-0.16918531
52	0x3cf3c656	0.02975766
53	0xbe4ed131	-0.20196988
54	0x3edf1761	0.43572524
55	0x3dc6e981	0.09712506
56	0xbca06d9d	-0.019583518
57	0xbd85f2a3	-0.0654042
58	0xbdcf62ec	-0.1012629
59	0x3e7f9fd7	0.24963318
60	0xbdbdd1ca	-0.0926853
61	0x3e0c0fa4	0.13677841
62	0xbe5bd728	-0.21468794
63	0xbd5339ae	-0.05156868
64	0x3e07e39c	0.1327042
65	0xbcf7cd5e	-0.030249294
66	0x3e840cd5	0.2579104
67	0x3daa7a2b	0.08324083
68	0x3d0870b4	0.033310607
69	0x3c312214	0.0108113475
70	0x3d9fe7c2	0.07807876
71	0x3ea2bdf2	0.31785542
72	0xbe656de8	-0.22405207
73	0xbd83c69a	-0.064343646
74	0xbea79ff4	-0.32739222
75	0x3e62f70a	0.2216455
76	0x3e0f33d0	0.13984609
77	0x3af67220	0.0018802322
78	0x3d50b4c6	0.05095365
79	0xbde9e240	-0.11420107
80	0x3b974581	0.00461644
81	0x3e465093	0.19366674
82	0x3d991f94	0.07476726
83	0x3d0eeb86	0.03489258
84	0xbdc20bbe	-0.09474896
85	0xbe51e3a8	-0.20497
86	0x3e356c73	0.17717151
87	0x3d4411af	0.047868427
88	0xbc202760	-0.009775013
89	0xbddddd2b	-0.108332
90	0x3db97ca4	0.090569764
91	0x3e732152	0.2374318
92	0x3debbb82	0.11510374
93	0xbd46090a	-0.048348464
94	0xbdecd7bb	-0.11564585
95	0xbe18a504	-0.14906698
96	0x3dc8a15d	0.097964026
97	0xbccd07a2	-0.025028054
98	0x3cc2dfbd	0.023788327
99	0xbe4a74ec	-0.19771165
100	0xbddf9321	-0.109167345
101	0xbd0bd5e6	-0.034139536
102	0xbd74a0fd	-0.059723843
103	0x3c9d0c53	0.019170916
104	0xbde1961c	-0.11014959
105	0x3d4a97cc	0.04946117
106	0xbe055b2d	-0.13023062
107	0xbd887b5a	-0.066641524
108	0xbe1073be	-0.14106652
109	0x3d8503d3	0.0649487
110	0x3da9fe26	0.08300428
111	0xbd360376	-0.044436894
112	0xbdf4e0c9	-0.11956937
113	0x3c209c64	0.009802911
114	0xbd4cfdb7	-0.05004665
115	0xbd57d486	-0.052692913
116	0x3de67856	0.11253421
117	0x3e2fec8f	0.17180084
118	0x3e2c5310	0.16828561
119	0xbe1a8edd	-0.1509356
120	0x3d89cf9e	0.06729053
121	0xbecd49cd	-0.40095368
122	0xba251d3e	-0.0006298608
123	0xbe040915	-0.1289409
124	0x3ca2457d	0.019808525
125	0xbe286b14	-0.16447097
126	0xbdea5c39	-0.11443371
127	0xbc5a34f6	-0.013318291
128	0xbca11219	-0.01966195
129	0x3d059a34	0.032617763
130	0x3d4792e4	0.04872407
131	0xbd827a67	-0.06371003
132	0xbd9b9dd5	-0.075984634
133	0xbd1dcb40	-0.038523912
134	0x3ea1a78e	0.31573147
135	0xbdba0187	-0.090823226
136	0xbe212f1d	-0.15740629
137	0xbd21283b	-0.039345007
138	0x3d21fae7	0.03954592
139	0x3eef5559	0.46744803
140	0xbdce97ac	-0.10087523
141	0xbccd9aed	-0.025098288
142	0xbc9f6585	-0.019457588
143	0xbb35671a	-0.0027679862
144	0x3e1d720f	0.15375541
145	0x3d50eecd	0.05100899
146	0xbc875635	-0.016520599
147	0xbea95341	-0.3307133
148	0xbd9a52b1	-0.075353034
149	0x3db41bdc	0.08794376
150	0x3e49dea8	0.19713843
151	0xbe00d432	-0.12580946
152	0xbdd32fcb	-0.1031185
153	0xbda5b390	-0.080908895
154	0x3e2fb239	0.1715783
155	0x3e074731	0.13210751
156	0xbdf13584	-0.117777854
157	0xbca79a41	-0.020459296
158	0xbc41c64a	-0.011827061
159	0xbbcca96b	-0.006245782
160	0xbd765aad	-0.06014507
161	0x3dbec6f2	0.093152896
162	0x3ba3b84b	0.0049963347
163	0xbdce5e23	-0.10076549
164	0x3c99f23b	0.018792262
165	0xbd8aa721	-0.067701586
166	0x3e62c7e4	0.22146565
167	0x3c5caaea	0.013468483
168	0xbe21376b	-0.15743797
169	0xbc362fb0	-0.011119768
170	0xbcbf3a4a	-0.023343224
171	0xbe8bb4b3	-0.272863
172	0xbdcbf3df	-0.09958624
173	0xbe91e1ea	-0.2849267
174	0x3d6165a7	0.055028584
175	0x3db3c356	0.08777492
176	0x3bb4fe21	0.0055234586
177	0xbd15335b	-0.03642593
178	0x3dbb6f78	0.0915212
179	0x3d3b6fa7	0.045760777
180	0x3dcf2b73	0.10115709
181	0x3e093580	0.13399315
182	0x3d25ff05	0.04052641
183	0x3dca8caa	0.09890111
184	0x3d55950d	0.0521441
185	0xbe01408c	-0.12622279
186	0x3e77c831	0.2419746
187	0x3cb68db4	0.022284366
188	0xbcc6ecdf	-0.02428287
189	0x3d086d43	0.033307325
190	0xbd4d31ff	-0.050096508
191	0x3e0c0bfa	0.13676444
192	0xbe05609d	-0.13025136
193	0xbe16b34e	-0.14716837
194	0x3d9e8d45	0.07741789
195	0xbc710a17	-0.014711878
196	0x3eb58b51	0.35457852
197	0xbe18fad6	-0.14939436
198	0x3e2ba83a	0.16763392
199	0xbbefcd49	-0.007318173
200	0xbd8818f0	-0.066453815
201	0xbe1f8608	-0.15578473
202	0x3bf0b3a0	0.0073456317
203	0x3d33be07	0.043882396
204	0x3cef773c	0.02923166
205	0x3e2c6c3f	0.16838168
206	0x3d11f4bb	0.035633784
207	0x3d6a7b58	0.057246536
208	0x3e2d72b3	0.16938286
209	0x3da01c40	0.07817888
210	0xbc5d6dab	-0.013514916
211	0x3cc5d95c	0.024151497
212	0x3dc2c965	0.09511069
213	0x3d83b0b8	0.06430191
214	0x3da1017c	0.07861611
215	0x3d2072e9	0.039172087
216	0xbe5c014d	-0.21484871
217	0xbe51ef1e	-0.20501372
218	0xbdea6885	-0.11445717
219	0xbc140408	-0.009034164
220	0xbcf14ff7	-0.029457076
221	0xbe4fb16a	-0.20282522
222	0xbe44bb05	-0.19211967
223	0xbec2c818	-0.38043284
224	0x3c09d8b9	0.008413487
225	0xbdefb9db	-0.11705371
226	0xbe1ed0ac	-0.1550929
227	0xbdff8b3b	-0.12477728
228	0xbe38201a	-0.17980996
229	0x3e08df4b	0.1336643
230	0xbdc81c6a	-0.097710446
231	0xbda12fd9	-0.07870454
232	0xbe355510	-0.1770823
233	0xbd84acb9	-0.06478257
234	0xbe2154cf	-0.15755008
235	0xbd1259aa	-0.03573004
236	0xbd6076ca	-0.054800786
237	0xbe08f69f	-0.13375328
238	0xbdd81287	-0.10550409
239	0xbd9a099e	-0.075213656
240	0xbd0e2b1f	-0.034709092
241	0xbd81dd83	-0.06341078
242	0xbe428230	-0.18994975
243	0x3e42eb41	0.19035055
244	0x3d42d947	0.047570493
245	0x3e034796	0.12820277
246	0xbe01d330	-0.12678218
247	0x3c9e277c	0.019305937
248	0x3ce57a16	0.028012317
249	0xbdbec7e9	-0.093154736
250	0x3d8b86df	0.06812834
251	0x3d603317	0.054736223
252	0xbd9d0d83	-0.07668593
253	0x3db11ee0	0.08648467
254	0xbdf5e103	-0.12005808
255	0xbe708879	-0.2348956

linear.bias f4 [256]
0	0xbe8761a2	-0.26441675
1	0xbe012362	-0.12611154
2	0xbdd6f3d5	-0.10495726
3	0xbda9ebfd	-0.08296964
4	0xbd7eb30c	-0.06218247
5	0xbcee3a84	-0.029080637
6	0xbd94cafd	-0.072652794
7	0xbdf30f07	-0.118681006
8	0xbe04e41a	-0.12977639
9	0xbd46ecc5	-0.048565645
10	0xbd1d7247	-0.03843906
11	0xbdb5639d	-0.0885689
12	0xbe037c33	-0.12840347
13	0xbdd0796d	-0.1017941
14	0xbd811e38	-0.06304592
15	0xbd4cfd99	-0.050046537
16	0xbe97b4a8	-0.29630017
17	0xbe8299d1	-0.25507978
18	0xbdd48809	-0.10377509
19	0xbdfb11f5	-0.122592844
20	0xbdec8c1b	-0.115501605
21	0xbd921625	-0.0713313
22	0xbdb00d40	-0.08596277
23	0xbe8a567b	-0.27019104
24	0xbe98fc4d	-0.2987999
25	0xbeb03c6d	-0.344211
26	0xbdfcf0dd	-0.123506285
27	0xbd921cb0	-0.07134378
28	0xbdb8f52c	-0.09031138
29	0xbdb92bac	-0.09041533
30	0xbd2f716b	-0.042832773
31	0xbd932a53	-0.07185807
32	0xbde9d129	-0.11416847
33	0xbdc87e56	-0.09789722
34	0xbe92c58b	-0.28666338
35	0xbd6ce762	-0.05783785
36	0xbdb551d6	-0.088534996
37	0xbd8b2352	-0.06793846
38	0xbea0b448	-0.31387544
39	0xbdc7821f	-0.097416155
40	0xbe8e6f1c	-0.27819145
41	0xbe4a277f	-0.19741629
42	0xbd8cc1d3	-0.068729065
43	0xbc88a5ad	-0.016680563
44	0xbe5587a5	-0.20852526
45	0xbd9b890b	-0.07594498
46	0xbe39884d	-0.18118401
47	0xbd9cf16b	-0.07663234
48	0xbded3f88	-0.11584383
49	0xbd55c8d4	-0.052193478
50	0xbe8897e0	-0.2667837
51	0xbda685c9	-0.08130986
52	0xbdbf5641	-0.093426235
53	0xbdced149	-0.10098512
54	0xbdb1e634	-0.08686486
55	0xbdc4a426	-0.09601621
56	0xbe84c5ba	-0.25932103
57	0xbd98a9e5	-0.0745428
58	0xbd92d811	-0.07170118
59	0xbe183d24	-0.14867073
60	0xbd4d61d7	-0.050142135
61	0xbd1dfbba	-0.038570143
62	0xbd939f5f	-0.07208132
63	0xbd6d1d82	-0.05788947
64	0xbe87350c	-0.2640766
65	0xbdeaeb66	-0.1147068
66	0xbd9e571d	-0.07731459
67	0xbe0a9d7c	-0.13536638
68	0xbcf32873	-0.029682374
69	0xbddd8f99	-0.10818405
70	0xbd94299f	-0.07234501
71	0xbe4b414f	-0.19849132
72	0xbdda667d	-0.10664079
73	0xbdd1ac48	-0.10237938
74	0xbd9350b2	-0.07193126
75	0xbd6545ec	-0.055974886
76	0xbddae045	-0.10687307
77	0xbcf6066e	-0.030032363
78	0xbe96bfa3	-0.29443082
79	0xbd1a899b	-0.037728887
80	0xbde9502b	-0.11392244
81	0xbd44a678	-0.04801032
82	0xbdd40ebe	-0.10354374
83	0xbdd0d51b	-0.10196897
84	0xbdf6e3ce	-0.12055169
85	0xbd88aae7	-0.06673222
86	0xbd92382a	-0.07139619
87	0xbe0dd0fe	-0.13849255
88	0xbe1dd870	-0.15414596
89	0xbda5762d	-0.08079181
90	0xbcc767c7	-0.024341477
91	0xbe810a9b	-0.25203404
92	0xbd918565	-0.07105521
93	0xbd9f2224	-0.07770184
94	0xbdcb43e6	-0.0992506
95	0xbd5a0e9c	-0.05323659
96	0xbe795aba	-0.24351016
97	0xbd9250ad	-0.07144294
98	0xbdbb68c6	-0.09150843
99	0xbdc02bdc	-0.093833655
100	0xbdaa8c08	-0.0832749
101	0xbd8aa193	-0.06769099
102	0xbd8efcd7	-0.06981819
103	0xbe2ac102	-0.16675189
104	0xbec797f2	-0.38983113
105	0xbdea011e	-0.11425994
106	0xbdd6a7fd	-0.1048126
107	0xbd68a493	-0.056797575
108	0xbd83c29d	-0.06433604
109	0xbde17406	-0.11008458
110	0xbeb2a219	-0.34889296
111	0xbda9f582	-0.0829878
112	0xbdc91315	-0.09818093
113	0xbd3ba28e	-0.04580932
114	0xbd3b97b3	-0.04579897
115	0xbe5fd942	-0.21860221
116	0xbd85b653	-0.06528916
117	0xbd7e6d33	-0.06211586
118	0xbdc9e1df	-0.098575346
119	0xbdb3fbe2	-0.08788277
120	0xbe7dc23a	-0.24781123
121	0xbdb1a5ae	-0.08674179
122	0xbd6f9a2c	-0.05849664
123	0xbd5472e2	-0.051867373
124	0xbd889c35	-0.06670419
125	0xbc9b9d18	-0.018995807
126	0xbecccfc0	-0.4000225
127	0xbe8e7c3b	-0.27829155
128	0xbd082534	-0.033238605
129	0xbda4386b	-0.080185734
130	0xbd9145ed	-0.070934154
131	0xbd1407f1	-0.036140386
132	0xbd6af50a	-0.057362594
133	0xbd7d4457	-0.061832752
134	0xbcdeecd7	-0.027212543
135	0xbe1d55fe	-0.15364835
136	0xbcb287a0	-0.021793187
137	0xbe93f9d2	-0.28901535
138	0xbe67b078	-0.22625911
139	0xbd609195	-0.054826338
140	0xbebb7a19	-0.3661659
141	0xbea57063	-0.32312307
142	0xbd6211af	-0.055192646
143	0xbd9fd079	-0.07803435
144	0xbe273919	-0.16330375
145	0xbda5a3ea	-0.08087905
146	0xbdb5e06f	-0.08880698
147	0xbe272458	-0.16322458
148	0xbdff2182	-0.12457563
149	0xbe186718	-0.14883077
150	0xbe0d4181	-0.13794519
151	0xbe5012ae	-0.20319626
152	0xbe4da989	-0.20084204
153	0xbe902055	-0.28149667
154	0xbdbf28b4	-0.093339354
155	0xbd69f694	-0.05711992
156	0xbd8a655e	-0.067576155
157	0xbda4e56c	-0.08051571
158	0xbd8b0c79	-0.06789488
159	0xbd7c0cd4	-0.06153567
160	0xbd5f8d13	-0.0545779
161	0xbe5e4426	-0.21705684
162	0xbdd9288a	-0.10603435
163	0xbe06a0a1	-0.13147213
164	0xbddf5484	-0.10904792
165	0xbdcad83b	-0.09904524
166	0xbdb80d88	-0.08986956
167	0xbda468d3	-0.08027806
168	0xbd18a47e	-0.037266247
169	0xbe313a9a	-0.17307511
170	0xbdc1e2e4	-0.09467104
171	0xbe4cb3ce	-0.19990465
172	0xbac5ad50	-0.0015081558
173	0xbe833230	-0.25624228
174	0xbe174dce	-0.14775774
175	0xbd6d34bb	-0.057911616
176	0xbcb85bbf	-0.022504685
177	0xbe626204	-0.22107702
178	0xbe0c94a6	-0.1372858
179	0xbd648ea1	-0.055800084
180	0xbe68d254	-0.22736484
181	0xbea3d81a	-0.3200081
182	0xbc6834ca	-0.014172742
183	0xbdb391d9	-0.087680526
184	0xbdaee89b	-0.0854046
185	0xbda21033	-0.07913246
186	0xbc31da5a	-0.010855282
187	0xbdfd946c	-0.12381825
188	0xbdb03ddd	-0.086055495
189	0xbda50ff8	-0.080596864
190	0xbebc1819	-0.36737135
191	0xbd8e737e	-0.06955622
192	0xbdaa3d3b	-0.0831246
193	0xbea3ec30	-0.32016134
194	0xbd0859a2	-0.033288606
195	0xbcc325c5	-0.02382172
196	0xbdb360b9	-0.08758683
197	0xbd77c4d4	-0.060490444
198	0xbd76eb3c	-0.06028293
199	0xbd97eaf3	-0.0741786
200	0xbd79ff4c	-0.061034486
201	0xbd95c6a1	-0.07313276
202	0xbcbeb5cd	-0.023280049
203	0xbe18bf96	-0.14916834
204	0xbe10f659	-0.14156474
205	0xbd8603c4	-0.06543687
206	0xbe8cc2ec	-0.27492464
207	0xbd8c2804	-0.0684357
208	0xbd8e35ed	-0.06943879
209	0xbdeac626	-0.11463575
210	0xbe7f40ee	-0.24927112
211	0xbef95c24	-0.4870311
212	0xbdad863c	-0.08472869
213	0xbe1dfb26	-0.15427837
214	0xbe0a501d	-0.13507123
215	0xbe0fd784	-0.14047056
216	0xbc1d0455	-0.009583552
217	0xbda3a6b2	-0.07990779
218	0xbdd435e7	-0.103618436
219	0xbd97b777	-0.0740804
220	0xbd318690	-0.04334122
221	0xbe0587de	-0.1304011
222	0xbe25a6f6	-0.16176972
223	0xbdd41845	-0.103561915
224	0xbd7c2e33	-0.061567497
225	0xbd216ef3	-0.03941245
226	0xbd8a2db5	-0.06746999
227	0xbd9f5aa7	-0.077809624
228	0xbd96ad05	-0.073572196
229	0xbc0d35f4	-0.00861882
230	0xbdb71ccd	-0.0894104
231	0xbd80ee7b	-0.062954865
232	0xbd23b09a	-0.039963342
233	0xbd957c20	-0.072990656
234	0xbdfb29e6	-0.12263851
235	0xbd9df49d	-0.07712672
236	0xbdcc27fe	-0.099685654
237	0xbe66a381	-0.2252331
238	0xbd2af703	-0.041739475
239	0xbe062690	-0.13100648
240	0xbdc38fde	-0.09548925
241	0xbbe91caa	-0.0071140127
242	0xbd60bd30	-0.054867923
243	0xbdf1adbb	-0.118007146
244	0xbd542574	-0.05179353
245	0xbdc6d122	-0.09707858
246	0xbd8f8f58	-0.070097625
247	0xbdf7c57c	-0.12098214
248	0xbdac9721	-0.08427263
249	0xbdc35a71	-0.09538735
250	0xbd48976d	-0.048972536
251	0xbe89e8a0	-0.2693529
252	0xbda705c6	-0.08155398
253	0xbe25af2e	-0.16180107
254	0xbdf77f10	-0.12084782
255	0xbe10aeee	-0.1412923
