A3C-new/A3C-Lunar-new/runs/LunarLander-v2/(backup，eval运气好能到200分)2022-11-11_23-34_First80MSteps/model_sam_BreakoutDeterministic-v4_conv.10.tar (torch, 42561 bytes, 11 tensors)

actor_fc1.weight f4 [64, 8]
00000000: d0f2 113e 4f0c 033d 1fc3 dfbb 0755 a83e
00000010: 8f1f e0be a707 35be 00fd af3d 5c44 173e
00000020: 6658 06be b9ff 813e c296 ebbb b568 f13c
00000030: b638 18bf 0bfa 96be cae6 35be e13c 22be
00000040: 39bf 883d 6e09 34bc c7dc e73d a280 873e
00000050: 6af4 5f3f 18b9 653e 6eca 2f3e d605 343d
00000060: 8d69 19bc 67eb ab3c 134d 283c 85f1 013f
00000070: c854 66be 7396 d6bd 6528 833e 9ee9 713e
00000080: 1993 8dbd 0d58 b4bd b66b 7abe 3be7 7b3e
00000090: 0a2f 1c3f 10d4 ec3e d09d 9ebe b58d a53d
000000a0: 710a 7cbe 61fc 263e c61d 73be 3eaa 23be
000000b0: c96d 393f 11cd 773e e2b3 8dbd 3394 8fbe
000000c0: 6cf6 37be 94c8 e1be c713 e23d 7295 853e
000000d0: e9d2 da3e bb51 0b3e 5287 03be eea2 723d
000000e0: c244 5fbe beba 44be ec69 873e 8874 0ebb
000000f0: 7816 f9be 2d0d 6fbc 487b 3cbe 9d6f f1bd
00000100: 9001 993c bcd2 cabc 052c 88be 330b 8bbc
00000110: 5b49 803f 0044 bb3e 5ff1 a63d ebe7 e2bd
00000120: b1c3 6f3b f645 96be 48ab 12bd 7856 cebe
00000130: 9c16 293f 7473 103e dbb5 d03d 6c76 bd3c
00000140: 9f6a 18bd 467e 223d 9b89 8e3c 4e7e febc
00000150: cdf9 533f abea 123f 41a3 f6bd fc25 a23d
00000160: 1d47 9dbd 3ddd 59be 55c9 2fbd a0f8 d7be
00000170: a669 9ebe 0a0b 07be c14d 60be 5cef 1dbd
00000180: fbdd 0abe a9aa 3b3e 201b 9f3e 23f4 8abe
00000190: b6d5 a3be 5f67 79be 1531 8fbd 8ef7 06be
000001a0: 030a 6b3e 7171 29bc daa9 e63c 7694 8d3e
000001b0: 4dcf 1dbf 5651 0fbf d945 023c b76f eebb
000001c0: 2250 24be 0404 1e3e 0246 d7be 958c cc3e
000001d0: b9b1 d93e c761 313e 438c 583e e69d 59bd
000001e0: 6110 3fbe 6907 79bb 9a92 87bd b01a bfbe
000001f0: ea60 353f 5cff b73e 9690 3d3e 462d 823c
00000200: a280 74bc 8cf7 723e 36c4 d1bc f488 dd3e
00000210: 2b57 113e a26e 9e3d 399c c63e ed4c a33e
00000220: 72c5 19be 63ba 683c 3cd7 153e 6d79 163f
00000230: 3539 0fbf 15d7 b1be 6a54 98bd 7922 c63d
00000240: e760 2e3e 229a f63c 6f5d 1fbd 1ed3 0f3e
00000250: 43db 3bbf a05d 393c 2f0f 8dbe 269b 28be
00000260: 0275 833e d705 da3d aba9 ea3d ff44 6ebe
00000270: cde8 ebbe 4637 8fbe c9ea 1abe d24b 6e3d
00000280: 4ccb 50bd 925f 403e 1fcd 57bd f746 ae3e
00000290: 90b4 b5be 7cf6 7ebd 22a6 023e 4b67 883e
000002a0: cff5 f93c cc25 ebbd 17a3 813e bb8a a33e
000002b0: abcc 21bf 82c9 13bd 6ab1 1b3e adde 12bc
000002c0: 2e0f 863d 5bd5 023e 1191 6e3e 140c efbd
000002d0: 1a1d 893e be15 9e3d 7424 90be c202 d2bd
000002e0: 57e4 21be 7deb 113e 9576 d0bd 00c2 b93e
000002f0: b795 7abe 3b5b 0c3c 37e7 123e 4f32 f43d
00000300: 66e6 42be 2cc2 ee3c 9b48 9e3c 1cba 72be
00000310: ae57 213f 5899 753e f951 613c d2c5 0bbd
00000320: 7bf5 013e e860 44bd 1c39 c4bd 68e7 d8be
00000330: bcb7 09be 6cd4 6dbc 11b1 a7be b9c0 eb3d
00000340: 9eba a13e fd42 a83b 6c8f 053e ae8b 013f
00000350: 01c9 033c 587f e9bc 1ec2 863e 7a62 6e3e
00000360: 74b2 313d 4475 463d 647a 36be f92e 8ebe
00000370: 02cc 183f c186 653e eb45 56bc 1021 31be
00000380: 9f77 f83d 8e34 de3d 66ae 94bc d484 d33e
00000390: b126 063f 355f bc3d f629 0ebc 97ec 203e
000003a0: 665e 59bd 6d5d 093d de41 93bd 5630 e23e
000003b0: b4a0 313f 6a9a c33e 52b6 75bc 5f8e 0cba
000003c0: 23da 20be 1c62 7abd 0cb1 583e 7f83 5abe
000003d0: bfc1 44bf fd3e 23be d1bc b8bb e754 983d
000003e0: 814e 533d f0be 6fbd 76da 37bd 69fa 2f3e
000003f0: c5c3 59bf 63ea 6abe ea58 c6bd 4c96 ecbd
0.14252782 0.03199416 -0.00682868 0.3287737 -0.43774077 -0.176787 0.08593178 0.14772171
-0.13119659 0.25390413 -0.0071896026 0.029468874 -0.59461534 -0.29487643 -0.1776382 -0.15843536
0.06677098 -0.010988576 0.11321407 0.26465327 0.8748232 0.22433889 0.17167065 0.043950878
-0.009363544 0.020986272 0.010272282 0.50759155 -0.22493279 -0.10477915 0.25616756 0.23624274
-0.06912822 -0.08805857 -0.24455151 0.24599926 0.61009276 0.4625554 -0.30979776 0.08083669
-0.24613358 0.16307212 -0.23741826 -0.15982911 0.72433144 0.2419932 -0.069190755 -0.28042755
-0.17965096 -0.4409834 0.110389285 0.2609058 0.42739037 0.13605396 -0.1284459 0.059237413
-0.21803573 -0.19211861 0.26448 -0.0021736939 -0.48649955 -0.014590544 -0.18406403 -0.11788867
0.018677503 -0.02475869 -0.26596084 -0.016973114 1.0022386 0.36575317 0.08151507 -0.11079391
0.0036585147 -0.2935025 -0.035807878 -0.40300345 0.66050124 0.14106542 0.10190936 0.023127757
-0.037211057 0.039671205 0.0173996 -0.031066086 0.8280304 0.57389325 -0.12042857 0.07917401
-0.076795794 -0.21275802 -0.042916615 -0.42181873 -0.30939978 -0.13187805 -0.21904661 -0.03855835
-0.13561241 0.1832682 0.31075382 -0.27139387 -0.31998986 -0.24355839 -0.069917835 -0.13180372
0.22953038 -0.010341988 0.028157163 0.2765233 -0.6164444 -0.55983484 0.007951223 -0.007276501
-0.16046193 0.1543122 -0.420456 0.39951006 0.42518404 0.17322455 0.21147256 -0.0531291
-0.18658592 -0.0037998802 -0.06619759 -0.37325048 0.70851004 0.3593701 0.18512186 0.015890729
-0.014923247 0.23727244 -0.025606256 0.4326855 0.14193408 0.07735945 0.38791063 0.31894627
-0.15016726 0.014204594 0.14632887 0.5877903 -0.55946666 -0.34734407 -0.07437976 0.09674544
0.17029153 0.030102793 -0.038907465 0.14045379 -0.7338144 0.011313826 -0.27550647 -0.16465434
0.25675207 0.10645645 0.11458143 -0.23268507 -0.4607605 -0.27971858 -0.15128626 0.058177777
-0.05097513 0.18786457 -0.052685853 0.34038517 -0.3548932 -0.062246785 0.12758687 0.26641306
0.030512718 -0.114818186 0.2531974 0.3194178 -0.63202924 -0.036080845 0.15204397 -0.008964223
0.06545864 0.12776701 0.23297526 -0.116722256 0.26780015 0.07718991 -0.28152812 -0.10254432
-0.15809761 0.14249988 -0.10178868 0.36280823 -0.24471174 0.008566673 0.14346014 0.11923658
-0.19033203 0.029145323 0.01932173 -0.23703808 0.63024414 0.23984277 0.013752454 -0.034124203
0.126913 -0.04794398 -0.09581205 -0.4236405 -0.13448995 -0.014515977 -0.32752278 0.11511368
0.3158769 0.0051349388 0.13042992 0.5060376 0.008043529 -0.028503105 0.26319975 0.23279753
0.043383077 0.048451677 -0.17820126 -0.27770212 0.5968629 0.22414686 -0.013078193 -0.17297769
0.12132191 0.10849868 -0.018149566 0.41312277 0.5240279 0.09197847 -0.008676996 0.15715252
-0.05306854 0.033536363 -0.071902975 0.44177502 0.6938584 0.38203746 -0.014997082 -0.0005361791
-0.15708213 -0.06112872 0.21161288 -0.21339224 -0.76858133 -0.15941997 -0.005637743 0.07438069
0.05158854 -0.0585317 -0.044886075 0.17185368 -0.85064346 -0.22940974 -0.09684928 -0.11552104

actor_fc1.bias f4 [64]
00000000: 6a68 0a3d 2813 a1bd 0e2b 3e3d 637a 313d
00000010: 78ed d2bc 57c8 9bbc 72d7 443d 91df 15bc
00000020: d824 c0bc 41e4 56bc 2d1d 5ebc 7fce 10bd
00000030: fd01 f0bc 72fa c83c 9afb 263b 85b6 82bc
00000040: e138 f43c 0a85 0d3d 0125 e4bc 6335 2a3c
00000050: 2f71 983c 334f 0b3d c1df 13bd ceea 003d
00000060: c68f 7ebc a418 42bd d5ca 753d 7753 eabc
00000070: f450 e43c 33cf bd3c 877c f43b fd5b 173b
00000080: 6018 243c 9377 4d3c fb49 edbc 8fe4 153c
00000090: 9210 d3bc 42bc 643c 3675 3ebc 2e41 893d
000000a0: bada c7bc 80b5 203d b755 543d 4760 10bd
000000b0: d26d d2bc b752 153c 54fe a33b afe7 0a3d
000000c0: 4d33 7d3d de87 aabc a73d c0bc 636c aabc
000000d0: 10b0 3e3d 809e 533d 9f50 9bbd 5025 9fbc
000000e0: 4187 3f3c 0149 21bc fd10 7c3c bf59 833c
000000f0: 06a6 973d 4e07 ab3b d4ee 923c 2ad4 70bc
0.033790983 -0.07864982 0.04642778 0.043329608 -0.025748 -0.019016428 0.048057027 -0.009147541
-0.023455068 -0.013115943 -0.013556761 -0.03535318 -0.029297823 0.024533484 0.0025479556 -0.015956173
0.029812278 0.034550704 -0.027849676 0.010388705 0.018608658 0.034011077 -0.03610206 0.031473927
-0.015537208 -0.04738678 0.06000789 -0.028604252 0.027870633 0.02317009 0.007461134 0.00230956
0.010015577 0.012540716 -0.02896594 0.009148731 -0.025764737 0.0139609 -0.011624625 0.06701885
-0.02439629 0.039235592 0.051839557 -0.035248067 -0.025687132 0.009113959 0.0050046835 0.033912357
0.061816502 -0.02081674 -0.023466898 -0.020803636 0.046554625 0.05166483 -0.07583737 -0.019426972
0.011689962 -0.009844066 0.01538491 0.016034005 0.07404713 0.0052193766 0.017936148 -0.014699021

actor_fc2.weight f4 [64, 64]
00000000: ac3f 29be 66df 85bd 50c9 dabd a71c 46be
00000010: 3148 5e3e 020b 17bc 320c 0b3f dbd2 a53e
00000020: 773e 1d3e b627 a33e 1f9c 51bd cbec ec3e
00000030: ce33 0fbe d550 febd c0b1 62be ef10 1d3e
00000040: 8365 60bf 5220 45be b354 00be dde0 ed3d
00000050: 3df4 19bf a0f5 a03d b4dc 173e fc88 a3be
00000060: e2c3 27be bb1f 0a3e f148 83be 4031 dbbd
00000070: 6fe9 0fbf e148 57bd ab42 de3d 6ecb d83d
00000080: 5ea6 c4bd aba0 0f3e 8b2a 0e3f 76cd 913e
00000090: 8ce8 cb3e f217 66be ab5d 2dbe c9ec 36be
000000a0: 492b 61be 55fd eebd 4282 1cbe 8abd d93e
000000b0: c539 d7bd 7752 f5bd 20be 24bc 04c3 cebe
000000c0: 776b 68be 3b09 f2bd 78d6 9e3e 889a 05bd
000000d0: 6f0f 00bf 8d5b 84be e049 8a3d 4ab3 8fbe
000000e0: 7df9 86bd eb46 8ebd 3a41 75be c38d a0be
000000f0: 74a0 4bbc ca7d 1d3e c8b8 08be 4d54 dd3d
00000100: cda4 cebe 6797 9fbe ffbe ed3d 7dc4 c0bc
00000110: 8e8c 6cbd 8ebc 0f3e ee05 983d 678d 8f3e
00000120: 4480 323e ab04 113f 51a7 8d3d c14b a33d
00000130: 3588 5e3e cd32 8fbe 18f4 273d 9a8f f63e
00000140: c632 0e3c d7a5 3fbe ce86 44be 44d4 a3bc
00000150: b1e7 d6be e8f9 37be 7544 2e3e a98e 5abe
00000160: 64b7 ef3e 44cd 9bbe 5dab 363a 4bc2 523e
00000170: ca5f 1f3e 95dd 3d3e 859f acbc 1c77 8ebe
00000180: fe1c a4bd 00d0 a43e 8a5d 4b3e f24f a83e
00000190: 4a59 353f 3a41 11bf aa31 073e 2975 e83d
000001a0: 131e 32be d505 4d3e f5f0 1d3e 204e 9ebd
000001b0: ebb0 82be 8ad8 e8bc f01c 273e 613f 9dbe
000001c0: 97dd 21be 36db a93e dd20 bb3d 09ac 3a3e
000001d0: 0296 88bd 5638 8abe 3555 a7be 790e ecbd
000001e0: 7350 393d eb92 503e dc42 90bd cdb9 62be
000001f0: 8c86 9b3e 56a1 573e f998 023e 33ba cc3e
00000200: d932 753e 1c8c fc3d 9fbf b53e 2c8f 2f3e
00000210: 69b7 5abe 0275 b53d 8ea1 5cbe c1a4 85be
00000220: eb44 68be 7798 14bf fc0c 873e b142 dbbe
00000230: 565b fcbc d6cc 753d d6d4 7f3e 9129 bcbd
00000240: 7769 633f 56f2 663c 190c bebe 7c4e 453e
00000250: f47e 063f a869 913e 21c2 fabb 213d 7e3e
00000260: 2082 523e 975d 7dbe 40f2 473e a945 3a3e
00000270: aff8 da3e 9b5e ad3e dc40 3ebe 9f4e 01bf
00000280: fb3c d23c 3318 353e 485e 10bf 6225 89be
00000290: 6bb0 81be 86cc 353e 9720 f9bd a02a edbd
000002a0: 6ab3 043e 3c3a 33bc 79e4 a13e 4a0d b2be
000002b0: 04ad de3d 4b88 22be 7053 69be 31bd 993e
000002c0: feb8 123c 9a47 42be 9abf 8bbe e0d2 453d
000002d0: ca48 1f3f ffcc a93d 7d0c 14be d026 4abc
000002e0: 3cf6 c33d 5598 153e bb4e 2c3f 2493 a13e
000002f0: 60a8 ec3d fa38 f8be c416 113e 38c2 81be
00000300: ea39 35bd a985 89bd 2f47 023e b34a c8bd
00000310: 7a61 793e 9f48 cd3e 7827 853d 688a 863e
00000320: 78e3 9e3e d2e0 973e dbc3 b63e 6454 8d3e
00000330: e3b6 11bc 376e 1bbe fd5d bd3d 8f9b bb3e
00000340: 6512 19be 10b2 bcbe 1b70 80be fe2d 09be
00000350: 3885 bbbe f8b3 3abd b0cc a63c d1ce b5bd
00000360: 216a 3f3e 75dd 30be edcf 143d 4a00 d5bd
00000370: f161 6c3d fb85 923e 8f07 f23d 600b 2ebe
00000380: 97b1 7a3e 8463 4e3d 3fce b1bd adb7 b03e
00000390: 7782 3d3f ad21 9ebe 695d 4b3e 8fca 04bc
000003a0: 24e3 8b3e 48af 123e 7d17 0a3f 0e4b 823d
000003b0: 3e76 3cbe 3208 a3bb d2fe 46bd b9ec a3be
000003c0: 2899 243c 94c8 8b3e 13aa 8e3e 1e3d 6e3e
000003d0: 1569 16be ce3e 03be 599a fcbd 611c 03be
000003e0: 27b4 78be 9773 7e3e c24c b43d f3a0 2bbe
000003f0: 9e8c 9f3d 376b a23e 8f90 39bd 0870 1f3f
-0.16528195 -0.065367505 -0.106829286 -0.19346868 0.21707226 -0.009218933 0.54315484 0.32387432
0.1535586 0.31866235 -0.05117428 0.4627441 -0.13984606 -0.12417761 -0.22138119 0.15338491
-0.87654895 -0.1925061 -0.1253231 0.11615155 -0.60138303 0.07859349 0.14830285 -0.31940448
-0.16383317 0.13488667 -0.25641587 -0.10702753 -0.56215566 -0.052559737 0.1085256 0.10585676
-0.096020445 0.14026134 0.55533665 0.28477067 0.39825857 -0.22470072 -0.16930263 -0.17863764
-0.21989168 -0.11669413 -0.15284064 0.4252742 -0.105090655 -0.119786195 -0.010055095 -0.4038316
-0.22697245 -0.11818167 0.31023002 -0.032618076 -0.5002355 -0.25851098 0.06752372 -0.28066474
-0.06590555 -0.0694712 -0.23950663 -0.31358156 -0.012428392 0.15380016 -0.13351738 0.10807095
-0.40360108 -0.31170198 0.11608695 -0.023531193 -0.05775123 0.14036772 0.07423006 0.2803757
0.17431742 0.5664775 0.06916679 0.07973433 0.21731646 -0.27968445 0.04100427 0.48156434
0.0086790975 -0.18715607 -0.19192049 -0.019998677 -0.41973642 -0.17966425 0.17018302 -0.21343483
0.46819603 -0.30430043 0.0006968284 0.2058193 0.15563884 0.18541558 -0.021072159 -0.27825248
-0.08013342 0.3218994 0.19859901 0.32873493 0.7083937 -0.5674015 0.13202539 0.113504715
-0.17394285 0.20021756 0.15423949 -0.07729745 -0.25525603 -0.028423566 0.16319633 -0.30712417
-0.15807186 0.33175057 0.091371275 0.18229689 -0.06669237 -0.26996106 -0.32682195 -0.11526198
0.045242738 0.20368545 -0.070440024 -0.2214119 0.3037609 0.21057639 0.12753667 0.3998581
0.23945178 0.12331411 0.35497758 0.1714446 -0.21359028 0.08860208 -0.21546003 -0.2610226
-0.2268254 -0.5804514 0.26377094 -0.4282432 -0.030805271 0.0600098 0.24983534 -0.09187616
0.888328 0.014095863 -0.37118605 0.1926822 0.52537465 0.28400922 -0.0076525365 0.24828006
0.20557451 -0.24742733 0.19526005 0.18190636 0.42767856 0.3386124 -0.1857943 -0.5051059
0.025663843 0.17685013 -0.5639386 -0.26786333 -0.2532991 0.17753801 -0.12164419 -0.11580396
0.12959066 -0.010939177 0.31619623 -0.34775764 0.10872844 -0.15872304 -0.22785735 0.30027154
0.008955238 -0.18972626 -0.27294618 0.04829681 0.6222044 0.08291053 -0.14457889 -0.012338355
0.0956845 0.14608891 0.67307633 0.31557572 0.115555525 -0.4848097 0.1416884 -0.2534349
-0.044244684 -0.06714947 0.12722467 -0.09779873 0.2435359 0.40094468 0.06501669 0.2627747
0.3103292 0.29663712 0.356963 0.27603447 -0.008893701 -0.15178762 0.092464425 0.3664212
-0.14948423 -0.368546 -0.2508553 -0.13396451 -0.36625075 -0.045581788 0.020361274 -0.08877338
0.18692829 -0.17271979 0.036331106 -0.10400446 0.05771059 0.28617844 0.11817848 -0.16996527
0.24481808 0.050387874 -0.086819164 0.34515134 0.740272 -0.30885068 0.19859852 -0.008104934
0.27321732 0.14324677 0.5394209 0.06361972 -0.18404481 -0.004975342 -0.04858286 -0.32016543
0.010046281 0.27301466 0.2786413 0.23265502 -0.14688523 -0.12816927 -0.12334127 -0.12803794
-0.24287473 0.24848782 0.08803703 -0.16760616 0.077904925 0.31722423 -0.045303877 0.6228032

actor_fc2.bias f4 [64]
00000000: 47e0 edbd 5c9a dc3c e2fd ea3d 5fde 863c
00000010: 4ac3 abbd 914f c4bc 9196 0f3d 01ed 9a3c
00000020: dbab 073e f756 423d 7151 f3bc 9128 9d3c
00000030: ef71 d63d da19 36bd 2c64 b3bd 9dff 22be
00000040: efb4 2a3d 027e 163c 7956 7ebd 8346 efbd
00000050: f316 533c 66e0 2dbd 96dc d3bb ac62 1c3d
00000060: 144d db3d b518 bfbc 0e55 e23d 0e38 863d
00000070: 621c fdbd 1407 2dbc 80ef c1bd b90d fabc
00000080: 9ff4 2a3e c82e 2fbe ac24 a5bd f450 473d
00000090: 66a8 593d 88e8 edbc d204 03be 6fe5 ce3b
000000a0: 7173 703d 0f52 333c 986a 873d b9b0 b23d
000000b0: 0179 c93d fe58 db3c bb3f f93d fefd d53b
000000c0: 59bf 5d3d bb00 473c 6f3b 2c3d 2d06 5c3c
000000d0: be6a fd3c 33e2 b2bd 4428 1e3d c3de 90bc
000000e0: 7c29 acbd c13d f43d 8e4e 1dbd b2c9 bbbc
000000f0: 749d 2c3c c73f afbc 1c27 d2bb c646 ec3d
-0.11615043 0.026929073 0.114742056 0.016463457 -0.08386858 -0.023963721 0.0350557 0.01891184
0.13249151 0.047446217 -0.02970192 0.019184383 0.1047095 -0.044458248 -0.08759341 -0.15917821
0.041676458 0.009185316 -0.062094186 -0.11683371 0.0128838895 -0.04245033 -0.006465505 0.03818004
0.10708061 -0.02332721 0.11051379 0.0655366 -0.12358929 -0.01056077 -0.09469509 -0.030524122
0.16694878 -0.1710769 -0.08063635 0.048661187 0.053139113 -0.029041544 -0.12794808 0.0063139717
0.058703844 0.010944857 0.06612128 0.087251134 0.09837533 0.026775833 0.12170359 0.0065305224
0.05413756 0.01214617 0.042048868 0.013429207 0.030934688 -0.0873455 0.03861262 -0.017684346
-0.0840635 0.11925841 -0.038404994 -0.022923324 0.010535587 -0.021392716 -0.0064133536 0.115369365

actor_fc3.weight f4 [4, 64]
00000000: 7935 d5be 1cb3 29be af83 dd3e 2e88 74be
00000010: a80a 093d cf56 81be 7d2f b03e d88a ad3e
00000020: f37d cf3e 1144 a43e 772a 9e3e 4391 6fbe
00000030: 325f d23e 8c02 adbe d3b7 cdbe 5c3a d9be
00000040: a308 36be 0187 593e 98d5 b7be 82a0 e4be
00000050: 6396 7e3e 8cd6 b7be 05c6 8ebe 09fe a73e
00000060: 04ae d13e 670c 223e 1a8b ca3e 005a ae3e
00000070: 3cdf cabe 8319 a9be 0329 c3be f98c 85be
00000080: 68a3 bd3e a548 c0be 0ead f33d f36b e4bd
00000090: 8658 1cbe d456 a2be 4dc0 c2be 1eb4 643e
000000a0: 7d72 29be 9401 a53e 8c2e cf3e d894 be3e
000000b0: edab ca3e 9d38 ae3e 712d 813d d25d 623e
000000c0: ef72 923e 6d2d 513e f456 6dbe a9b1 81be
000000d0: 5607 43be b9ae d4be d6a5 45be 867a 5b3e
000000e0: aa41 50bd 94d3 d03e 3b3c 5d3e bcdf b5be
000000f0: a25d 273e 377f 703e 07c9 7e3e c7c9 cb3e
00000100: 6d7d 5dbd 7cc6 38bf b27c 5bbc 6ffa 1ebf
00000110: e370 643f 8bf5 11bf 3267 dcbe 5b12 c5be
00000120: d3d3 16bc 61aa e43e af79 043f c037 1bbf
00000130: f529 59be df9e c7be 66f6 6abe ee12 5b3c
00000140: 23d8 38bf 9232 173f 1233 b7be 59d9 083f
00000150: 9ad6 133f 547f d1be 477f 07bf 4ffb 9dbe
00000160: fb7a 17be ef14 153f b8d9 583e 6515 bf3e
00000170: 8012 f93c 4261 03bf 5930 1b3f f17c 1bbf
00000180: 0c1a 953c 0f04 e33d bbfd ddbd 4d3f 173e
00000190: 93dc 07bf 6a72 be3e c216 e5bd 78ae f83e
000001a0: 0a4e f83d afd4 1bbe 4b1c 003c 2845 b4be
000001b0: 89c0 953d 3bdb acbe 0299 d63d 45ec 173f
000001c0: d546 d93e a725 0a3f c671 593e 88ab 11bf
000001d0: 622b f03d 4aea b23e 6900 3fbf d745 2f3f
000001e0: e502 3c3f cfdc 6e3c bc1b 99be f9ea ba3e
000001f0: 79c0 8abe 5bcf 93be 094c a8be d0ff 8bbe
00000200: 4f41 8a3e bcf0 913e 2559 8cbe f8a4 8e3e
00000210: bbb7 93be eb5f a33e 2133 04be 8516 70be
00000220: 3eae a83d 5265 77be 87e2 47be cdc7 5f3e
00000230: 9287 87be fc42 2a3e fae7 a5bc 735a e83d
00000240: 4202 643e 2742 5fbe 1ae7 863e f510 e1bd
00000250: 5798 75be e7b1 383e d281 4c3e e2c1 71be
00000260: 8e60 7fbe 2e1e 02be 8cbc 92bc 10ff 0ebe
00000270: 4bc8 b0bd 1ef3 653e 012e a9bc 7809 6a3e
00000280: c95a d4bd f541 b7bd ba35 ddbe a9b4 9a3e
00000290: 5277 b83d ae54 803e 16fa 143c 0800 c1bd
000002a0: d774 c93e 0f6a e8be 78ba eabe 7cf4 05be
000002b0: 50ec c9be 9a78 8abe e33f 9c3e 9f19 9dbe
000002c0: ecff febc c420 14be d842 a93e bb3f b13e
000002d0: 7596 b43e e384 513e a459 b33e a90a 88be
000002e0: 2213 35be 72d0 0cbe e509 a5be 674a 753e
000002f0: 4dce 39be 34a3 a1be 8ef2 57be f575 88bd
00000300: d1b4 683c 5800 813d 5e27 6e3d 194d 123e
00000310: 8562 36bd 3de7 913d 118f cc3e cb8a 163f
00000320: 0cfd 4cbe 6705 7abe aef2 a2be 8238 cc3d
00000330: 578e 8d3e 92f4 f73d e463 b83e e279 073d
00000340: e162 243e 9191 edbd ed7e 0b3e d8b3 cebd
00000350: c524 6bbe 190b 6f3e fe9f 533e 8da0 0c3f
00000360: 8796 1e3e 715d 8dbe 4bf2 30be 3a89 52be
00000370: c794 5f3e f564 643e 407e aabe 3d81 673e
00000380: 46c5 36bd 9ab7 8f3d e27a 583f ecf8 42bf
00000390: 0a46 b33e 92be 12bf 107f b03e 71dd 9cbe
000003a0: ba63 51bf 4b14 253f 4ba1 523e 9943 a53e
000003b0: 3386 b83d c83e 193f 266f 56bf 2ae7 e5bb
000003c0: f752 0fbf 3b64 1abe 0397 1ebf 9705 ecbc
000003d0: b9ea 42bf 94b8 c5be d545 953d 79af f6bd
000003e0: 30b4 c4bd fc0a a4bd 1128 373f 16ea 15bf
000003f0: 40ce 233f 4b21 313f f4a4 1e3f 8f9b e43d
-0.4164236 -0.16572231 0.4326453 -0.23880073 0.03345743 -0.25261542 0.3441123 0.33894992
0.4052578 0.3208318 0.30891773 -0.23395257 0.41088253 -0.33791006 -0.4017931 -0.42427337
-0.17776732 0.21242906 -0.35905147 -0.44653708 0.24862055 -0.35905874 -0.27885452 0.32811
0.40953076 0.15825044 0.3955925 0.3405304 -0.3962344 -0.33027276 -0.38117227 -0.26084116
0.37038732 -0.37555423 0.11898242 -0.11153402 -0.15268144 -0.3170687 -0.3803734 0.22334334
-0.1654758 0.32227767 0.404652 0.37222934 0.39584294 0.34027568 0.063074954 0.22106102
0.28603312 0.20427485 -0.23177701 -0.25330856 -0.19045767 -0.41539553 -0.19301543 0.21433458
-0.050843872 0.4078642 0.21605007 -0.35522258 0.16344312 0.23486029 0.24881373 0.3980238
-0.054074693 -0.72177863 -0.013396429 -0.6210088 0.8923475 -0.57015294 -0.43047482 -0.38490567
-0.009205776 0.4466124 0.51748174 -0.6063194 -0.21207412 -0.38988397 -0.22945556 0.013371212
-0.722048 0.5906154 -0.3578115 0.53456646 0.5774933 -0.40917456 -0.52928585 -0.30855796
-0.14793007 0.5823507 0.21176803 0.3732101 0.03040433 -0.5132028 0.6062065 -0.6073752
0.018200897 0.110847585 -0.10839411 0.14770241 -0.53070945 0.37196666 -0.11185981 0.4857061
0.1212426 -0.15217851 0.007819246 -0.35209012 0.07312114 -0.3376101 0.10478403 0.59344894
0.42436853 0.539637 0.21234807 -0.5690236 0.117270246 0.34944373 -0.7461 0.6846594
0.73441917 0.014579012 -0.29903972 0.36507395 -0.2709997 -0.28869137 -0.3287051 -0.27343607
0.27002952 0.28503978 -0.27411762 0.27860236 -0.28851113 0.31909117 -0.12910129 -0.2344609
0.08236359 -0.24159744 -0.19520007 0.21853562 -0.2647062 0.16627115 -0.020252217 0.11345377
0.22266486 -0.21802579 0.26348191 -0.109895624 -0.23983894 0.18036614 0.19971398 -0.23609117
-0.24939176 -0.12706825 -0.017912172 -0.13964486 -0.08631953 0.22456023 -0.02065182 0.22855175
-0.103688784 -0.08948127 -0.43205053 0.30215958 0.090071335 0.25064605 0.009092828 -0.09423834
0.39346954 -0.45393416 -0.4584539 -0.13081545 -0.39438105 -0.27045137 0.30517492 -0.3068361
-0.031127892 -0.14465624 0.3305881 0.34618935 0.3527104 0.20460849 0.35029328 -0.26570633
-0.1768308 -0.1375139 -0.3223411 0.23954163 -0.18145104 -0.31569827 -0.21088621 -0.066631235
0.014203266 0.06298894 0.058143012 0.14287223 -0.04452755 0.07124183 0.399529 0.5880553
-0.20018405 -0.24416123 -0.31825775 0.099717155 0.2764766 0.12107195 0.3601371 0.03307522
0.16053344 -0.1160003 0.13622637 -0.10092896 -0.22963245 0.23344077 0.20666501 0.5493248
0.15487109 -0.27610353 -0.17279927 -0.2056016 0.21834098 0.22304137 -0.33299446 0.22607894
-0.04462173 0.07017441 0.84562504 -0.76161075 0.35014373 -0.5732204 0.3447194 -0.30637696
-0.81792796 0.6448409 0.20569341 0.32278135 0.090099715 0.5986142 -0.8376335 -0.0070160823
-0.5598597 -0.15077297 -0.61949176 -0.02881126 -0.7613941 -0.38617384 0.0728871 -0.120451875
-0.096046805 -0.080099076 0.7154551 -0.5856031 0.6398659 0.69191426 0.6197045 0.11162483

actor_fc3.bias f4 [4]
00000000: e331 103e f3ad c3bd 82d8 633d 9fad c2bd
0.1408153 -0.095546626 0.0556264 -0.09505772

critic_fc1.weight f4 [64, 8]
00000000: 98c3 283d b5fa 0bbf f461 c73d f8cd 563e
00000010: 184f ef3d cf26 653f 1d30 babe e0c2 21bf
00000020: 5b10 d8be 1a27 0f3f 7488 d4be faf7 313d
00000030: 392e 9a3e c811 38bc d3f8 6f3e 6fa1 3b3d
00000040: e3a3 143e 0483 97be 68e3 2cbe d996 053e
00000050: af07 1ebf 0c90 22be abfd 333f b7a6 423f
00000060: d865 f23e 321e ae3e fe7c 103e 2ec3 56be
00000070: c238 21be 02c1 a53e 7ce5 f53c 5b6c 84be
00000080: 40dc d73e c00a e1be 8f5e 363e 3df1 2cbe
00000090: 572c 78be 30e4 f63d 9fa3 e5be 6694 b6be
000000a0: 4b18 8fbe 289b 8a3e 8b9b 393e eee2 273f
000000b0: 1903 b3be e19c a8be 55b7 523f c07f 093f
000000c0: cdbf 253e e209 a8be b2df a23c 8a34 e8be
000000d0: 1e1e d8be 3c9d a43d 555a e03d 594a 4c3e
000000e0: 5156 5ebd 4bae b63e 5ea1 033e e94a e83e
000000f0: 891d ed3e fa92 793d 7201 2fbf 312f 27bf
00000100: 623f af3e 20b5 94be 6706 a33e c5a1 183f
00000110: 1503 a1be 364c 5bbd d80f 6c3e e0ef 0d3e
00000120: badd ab3e 2fe1 b2be 7907 5b3e 3cd1 043e
00000130: 1909 fbbd d45b 113f 0e51 acbe 8697 24bf
00000140: a0cc 78be 66f6 0f3f c533 8ebe 9b14 313f
00000150: c711 2abe 4386 aabe e9cf b93d 6c17 1a3e
00000160: 2059 efbb fc72 883e 4297 233c 51c1 f7be
00000170: 3300 1c3e ff12 5f3e 5ecb 6abe fbbe 83bd
00000180: b874 3abf 0094 df3e 241d f4be aaa4 4d3d
00000190: 3e16 173f 5416 4dbe 0dc4 ec3d f595 d03a
000001a0: 394e b3bd 0bc8 c23e 03d9 0c3e c8be b9be
000001b0: 2cdc 3abd 16e3 5e3e ad7a 1bbf 3a5e 31be
000001c0: d1f8 5e3d da0d 003f 1fe7 613d 517b e3be
000001d0: f699 40be 2ab8 82be 6136 4dbd d094 9f3d
000001e0: 0f2b aa3d 3237 e0be cda2 b8bd 7a37 67be
000001f0: 1654 5bbe b73c 11bd 90de db3e ea81 613e
00000200: a417 003d 9556 e63e 6980 553c 44ea 42be
00000210: 491c a6be e92d b5bf 94ea 983e 01e9 5b3f
00000220: eb9e f93e 15a8 73be 208f cf3e 24ab 893e
00000230: 8091 98be be78 613d f00a 05be 783c edba
00000240: aa04 02bb c6ea 9bbe ed31 67bc 44db 76bd
00000250: 779f 76be d762 debd d8df b13e 064f f13e
00000260: 19f7 3abd a3ad dc3e 9066 6b3e c9ea cebe
00000270: 34aa 513c ae88 033c 79db 123e 7498 9ebe
00000280: 3186 7bbd 83cc 593e db9c 123d 08a6 f3be
00000290: 1a07 e73e f875 d13e 4c2e e83b 4b7a aabe
000002a0: 6ff0 f6bd dced c83e aea6 c23d 29eb 9cbe
000002b0: f75a d33e eacd 433d 4845 92bf 93b2 4cbf
000002c0: 57eb f5be a273 c43e 3935 d6be 2318 163e
000002d0: d9c4 913e c923 56be 3425 943d 3b8a b8bc
000002e0: ac1a b6bd 43db 60be 09db 963e e6de 573f
000002f0: cb95 9dbe 1423 723e ff66 443f 9379 8d3e
00000300: 61f2 a3be 5974 c03e a66c 18bf 6524 3ebf
00000310: b9a1 133e 54e3 9cbe 234c ed3d 527c 5bbe
00000320: 8047 68bd 62cc 9b3e f13a 2cbc e7f4 2d3f
00000330: 334e 053e 937a dc3e 9cc9 59be 6ed8 d2be
00000340: 1486 cbbd 38e5 193f 6fe1 7abe f624 b53e
00000350: 625c 193d 2c84 bfbe ec13 4b3c bb96 273e
00000360: b282 b53d 9108 5b3e 3162 2ebe 656c a53e
00000370: 6cac ff3e 4bac 723e 1c88 cabe b226 62be
00000380: 113b bd3d 9cd0 10bf 8d81 b5be 62eb d63e
00000390: 5e5a 693d 34a8 0dbf 3567 41bf 4b06 b1be
000003a0: 237b 1bbd eb1d 14bf 8845 85be bb17 46bf
000003b0: 62fd 263f 950a 783e c8dd 43bf 935b 34bf
000003c0: 44a7 403f 100c 4fbe abee 583f adeb 8fbe
000003d0: 389a dcbd cf8b 1d3e af86 083e f780 963c
000003e0: 450a c2bd ae77 b23e 6dfd 773d e19e 13bf
000003f0: 4147 0abe 5440 cebd 3004 243e aaae 373e
0.041202158 -0.54679424 0.0973548 0.20977008 0.11685008 0.8951234 -0.36364833 -0.6318798
-0.42199978 0.5591904 -0.41510355 0.04344938 0.3011339 -0.011234708 0.23434763 0.045808252
0.14515643 -0.29592144 -0.16883624 0.13045825 -0.61730474 -0.15875262 0.7030894 0.76035637
0.47343326 0.34007412 0.1411018 -0.20972893 -0.15744308 0.32373816 0.030016653 -0.2586392
0.42160225 -0.43953514 0.17809509 -0.168889 -0.24235664 0.12055242 -0.44851395 -0.35660094
-0.27948222 0.270715 0.18125741 0.6558064 -0.349633 -0.3293219 0.8231099 0.53710556
0.16186447 -0.3282004 0.019882057 -0.45352584 -0.42210478 0.080378026 0.109547295 0.19950236
-0.054281536 0.3567985 0.12854525 0.45369652 0.46311596 0.060931183 -0.6836158 -0.65306383
0.34228045 -0.29044437 0.31840822 0.5962184 -0.31447664 -0.053539477 0.23052919 0.13861036
0.335676 -0.34937426 0.2138957 0.12970442 -0.122575946 0.56780744 -0.3365559 -0.64293706
-0.24296808 0.5623535 -0.27773872 0.69172066 -0.16608344 -0.3330556 0.09072859 0.15047997
-0.0073043257 0.26650226 0.009984793 -0.48389676 0.15234451 0.2178459 -0.22929141 -0.06432911
-0.7283435 0.43667603 -0.47678483 0.050205864 0.59018314 -0.20028049 0.11560831 0.0015913831
-0.08755154 0.38043246 0.13754658 -0.36278367 -0.04562013 0.21766314 -0.60734063 -0.17321101
0.05443651 0.50021136 0.055152055 -0.4443002 -0.18808731 -0.2553113 -0.050100688 0.077920556
0.08308994 -0.4379211 -0.09015427 -0.22579756 -0.21418795 -0.035458293 0.4294324 0.22022215
0.031272545 0.44987932 0.013031104 -0.19034678 -0.32443455 -1.4154636 0.2986647 0.8590241
0.48754057 -0.23794587 0.40538883 0.26888382 -0.29798508 0.05504679 -0.12992454 -0.0018099686
-0.0019839206 -0.30452555 -0.014111024 -0.0602677 -0.24084269 -0.10858696 0.34741092 0.47130603
-0.045645807 0.43101224 0.22988343 -0.40413502 0.012796927 0.008028192 0.14341535 -0.30975688
-0.06140727 0.21269421 0.03579412 -0.4758761 0.45122606 0.40910316 0.007085597 -0.33296427
-0.12057578 0.39243972 0.09504448 -0.30648163 0.41280338 0.047803797 -1.1427393 -0.7995998
-0.48031113 0.3836947 -0.4183748 0.14657645 0.28470495 -0.20912088 0.072336584 -0.02252685
-0.08891806 -0.21958642 0.29463986 0.8432449 -0.30778345 0.23646194 0.7671966 0.27631816
-0.32020858 0.37588766 -0.59540784 -0.74274284 0.14417161 -0.30642188 0.115867876 -0.21434143
-0.056708813 0.3042937 -0.0105121 0.67951816 0.13018112 0.43062267 -0.21268314 -0.41180748
-0.09937683 0.60115385 -0.24500059 0.3537976 0.03744162 -0.37405527 0.012394886 0.16366093
0.08862819 0.21389987 -0.17029645 0.3230926 0.49936235 0.23698537 -0.39556968 -0.22085074
0.09239782 -0.5656831 -0.35450402 0.41976458 0.056970946 -0.5533478 -0.75548106 -0.34575114
-0.03795923 -0.5785815 -0.2602961 -0.7737996 0.6523038 0.24222787 -0.76510286 -0.7045223
0.7525523 -0.20219445 0.8473918 -0.28109494 -0.107716024 0.15385364 0.13332628 0.018372042
-0.09474615 0.34856933 0.06054442 -0.57664305 -0.13503744 -0.10070863 0.16017222 0.17937723

critic_fc1.bias f4 [64]
00000000: 790d d8be 80f4 81bc d3ca de3e 8c38 f3be
00000010: 9224 9b3c aabd 62be 436a ff3e 53b0 02bf
00000020: 5a66 263e 27d2 4ebd 71f4 16be 8ac9 01bf
00000030: 45a5 5cbe 6a1d 9dbe ab3d a9be 9805 fa3e
00000040: 5fb2 803e e6a1 bc3e 4041 e33e 899a bfbe
00000050: 8990 0bbf 259f fcbe fe2b cfbe 6707 993e
00000060: 758b 00be 4e92 08bf 2b09 eebd 3c71 05bf
00000070: c12b 59be 5ced 083e 3255 cd3e 362c 77be
00000080: 10f1 ea3e cf7f 8c3e 1430 9a3e 9b60 c1be
00000090: f216 8e3c 780f debe 4096 25bd 09de ddbe
000000a0: d551 30bf 2c34 b73e d95a fbbe 16e0 343e
000000b0: 50fc 83be 0ee7 343e f8dc 39be ab7e 2dbe
000000c0: 5cb0 bfbe e0ae cc3d 501b c7bd 5670 f73d
000000d0: 4852 d1be f1c8 b83e 09ee e7bd fd16 04bf
000000e0: d9ce c4bd 8f46 9a3e 385a 04bf 9765 febe
000000f0: dcd1 3dbd 2b04 01bf 5f15 0dbe 7f7a c03c
-0.4219778 -0.015863657 0.43514118 -0.4750408 0.018938337 -0.22142664 0.4988576 -0.510503
0.16249982 -0.050493386 -0.14741684 -0.5069815 -0.2154742 -0.30686504 -0.3305486 0.48832393
0.25136086 0.3684227 0.4438572 -0.37422588 -0.5451742 -0.49340168 -0.4046325 0.2988846
-0.12553199 -0.53348243 -0.116228424 -0.52125907 -0.21208097 0.13371795 0.4010406 -0.24137959
0.4588704 0.2744126 0.30114806 -0.37769017 0.017344926 -0.43371177 -0.040426493 -0.43333462
-0.68874866 0.3578199 -0.4909275 0.17663607 -0.25778437 0.17666265 -0.18150699 -0.16942851
-0.3743924 0.09994292 -0.09722006 0.12081973 -0.40883088 0.36090806 -0.113246985 -0.5159758
-0.096097656 0.30131957 -0.5170016 -0.49686882 -0.046342716 -0.50396985 -0.13777684 0.02349591

critic_fc2.weight f4 [64, 64]
00000000: c68a d43e e88c 8fbd a9be 343f bbde 8cbe
00000010: b7d3 753e 9f0b 1abf 7d99 a73e f3eb 05be
00000020: 82c0 4c3e a778 ba3d 562a 9ebe 932e a4be
00000030: 00c7 00be bc8b e4be 7a9b e2be a848 1b3f
00000040: 64ad 813d 6933 113e 5878 0e3f 68d8 0bbe
00000050: d93c 89be 4230 09bf d78f 1fbe ebda c13b
00000060: 1a10 08be a3f8 d1be 019d 12be 540c d8be
00000070: f5c4 443b d5f3 8e3e 6b2f aabd 63cd 82bd
00000080: 9bc4 b33d 9810 6c3e d354 313e 2e6a b03e
00000090: af18 19bc ce5d 433e a2cf 14bf 679e 33be
000000a0: 69ef 2fbe 1d98 cdbd 88fc 07bf c7c0 8b3e
000000b0: 0fd6 58be a340 863e e430 10bf ff97 33be
000000c0: 30b8 1cbe 87da fa3d 4f47 b13e c97d df3e
000000d0: d38d 61be 55b9 4a3e d09d 07bd 0e0b 7abe
000000e0: 9dad a3be 59d7 0a3d 6727 e73d e59b 9cbd
000000f0: 98f2 fa3c 3025 eebe ed87 5ebe 9815 393f
00000100: 7765 e8bc 8ae7 dcbe adff 463f 14ec cabd
00000110: 7595 ae3e 5d8d 2dbf f595 383e 9583 e3bd
00000120: 50b9 c13e b0c5 f43d 120a 8bbe 04eb 94be
00000130: dadd 53be cc14 98be d3ec bcbd a753 1e3f
00000140: 9cfb 1bbe f868 6dbc 7925 b93e 2254 03be
00000150: edbb 8dbe 5edd 01bf a133 3c3e ecfe 843e
00000160: ede5 8bbe 5e22 c0be 84fa aebc ba71 70be
00000170: ff49 9fbc 0d9b b63e ad81 75be 4a07 c0be
00000180: 321a 2a3e 3a78 013f 7aa5 8cbe 89ed ef3d
00000190: cfdc 97bd 66b4 d93c 01a6 eabe a783 013e
000001a0: a65d 42be 8784 693e eccd 2dbf 85c8 e03e
000001b0: 6537 b43b 11b1 a0bc 0382 01bf 1d6b a5bd
000001c0: c1a7 46be 6672 693d 9d48 f53e e398 eb3e
000001d0: 965a 0abf 3c87 693e a943 7b3d 1102 6dbc
000001e0: 6238 fabe 4434 b53d b7df 823e 6127 143d
000001f0: 0511 273e 578a 2bbf 8c3e 05be 7662 a13e
00000200: b7c2 d7be 5fb5 703e bbb9 213d 4e1b 3ebe
00000210: 62d1 84be 8e77 923e 0e50 f83e e197 32be
00000220: 6bb9 be3e f7c0 53be e613 1f3e df24 9dbd
00000230: 00df 15bf fb87 403e 7f1f babd b3d7 05be
00000240: 1e7f 973e cb3d 6b3f 48b2 c0bc 7188 b13e
00000250: 91f2 72be c342 1b3e 1b1a 26bf 54a7 5d3e
00000260: 3667 49be b9a8 91bd d53a 8ebe 66cd 29bf
00000270: 8926 22bf 2871 933d e97b 2f3f 1853 76bc
00000280: 3cdb 09bc 3124 86be 884c 9abd 7f61 e2bd
00000290: 4faf 083e f90e 84be 6d31 88be 4fa7 18bf
000002a0: 4ff7 9dbe 76ea c7be 1683 88bd b728 f1bd
000002b0: 52e4 19bf ac95 c23d af07 b73e b569 3b3e
000002c0: 2d2e 563e 465f 993d 6d8b 2fbe 531d febe
000002d0: 7860 3abe 24d0 87bd d538 9f3d a0f2 6cbe
000002e0: 7c65 9e3e 4d86 9a3e dbb1 9cbf 04da 90bc
000002f0: 6068 4fbe 7307 153e 9e14 80be f3c6 c7be
00000300: 9d8b 683d 9452 933d 0b73 e5be b5aa 493f
00000310: 9f65 a73d fb3a 1f3e 75fd ffbe 9fb6 0a3f
00000320: c7d1 7cbe c307 0dbe ee20 27bd 0055 df3e
00000330: d191 86bd d20e 3e3d 9f6f ea3e 6d53 38bf
00000340: c799 67be 9977 6abe a41e 3abf 7ce4 813e
00000350: 1485 ca3e f09f c93e 2528 8e3e e198 a4bd
00000360: 3fd2 b43e 99f0 3f3f 4199 f23d cb37 ff3e
00000370: d9bf c73a 69e3 31be ccd4 a1be b69f a53e
00000380: 03b2 05bf bf2b 98be 45cc c9bd 2187 ebbe
00000390: 89f2 12be 82e1 68bd a81b 8b3e 1c2e d63e
000003a0: ade3 0e3f 3f77 e2bc f6de 493f 2f30 d3be
000003b0: 8efb d83e 2aa0 9abe 71f8 da3e 7697 a23e
000003c0: be37 0c3f 22ef dd3d 5a1e bdbe bb89 8bbe
000003d0: 7a42 ab3e 5b89 02bf 8ce5 5ebe 0690 013f
000003e0: 30e6 bc3e 53b8 81be 8061 7d3e 1304 9a3e
000003f0: d30b cabd 800c 3c3f 75f4 903e a75c 75be
0.41512126 -0.070092976 0.70603424 -0.2751368 0.24006544 -0.6017398 0.3273429 -0.13078289
0.19995311 0.09105044 -0.30891675 -0.32066783 -0.12575912 -0.4463786 -0.44259244 0.6065774
0.063319 0.14179768 0.5565238 -0.13656771 -0.26804236 -0.5358926 -0.15582214 0.0059159896
-0.13287392 -0.41010007 -0.14317705 -0.42196906 0.0030024622 0.27920404 -0.083098255 -0.06386831
0.08777734 0.23053205 0.17317514 0.3445601 -0.009344264 0.19078752 -0.5812932 -0.17540894
-0.17181171 -0.10038779 -0.5311971 0.27295515 -0.21175407 0.2622119 -0.563246 -0.1753845
-0.15304637 0.12248712 0.34624717 0.43650654 -0.22026758 0.19797261 -0.033109486 -0.2441828
-0.31968394 0.033896778 0.11286812 -0.07646922 0.030633256 -0.46512747 -0.21731539 0.72298574
-0.028368695 -0.431454 0.7773388 -0.099083096 0.34098402 -0.6779383 0.18025954 -0.11109082
0.37836695 0.119517684 -0.2715612 -0.29085553 -0.20690098 -0.29703367 -0.09224858 0.61846393
-0.152327 -0.0144903585 0.36161402 -0.12825063 -0.27682438 -0.50728405 0.1837907 0.2597574
-0.27323857 -0.3752622 -0.02135969 -0.23480883 -0.019444464 0.3566517 -0.23975249 -0.3750556
0.16611555 0.50574076 -0.2747 0.11715228 -0.07415163 0.026575278 -0.45829776 0.12647878
-0.18981037 0.22804461 -0.67892337 0.43902984 0.0054997676 -0.019615682 -0.5058901 -0.08077071
-0.1939993 0.056993864 0.47906962 0.4601508 -0.54044473 0.22805494 0.061343823 -0.014465825
-0.48871142 0.088478595 0.25561306 0.036170367 0.16315086 -0.67007965 -0.13012141 0.31520432
-0.42140743 0.23506688 0.039483767 -0.18565103 -0.25940996 0.28606838 0.48498577 -0.1744075
0.37250838 -0.20679079 0.15534934 -0.07673048 -0.58543396 0.18801872 -0.09088039 -0.13070564
0.2958917 0.91891164 -0.023522511 0.3467441 -0.23725344 0.15162186 -0.64883584 0.21645862
-0.19668278 -0.071122594 -0.2777926 -0.6632904 -0.6334005 0.07199317 0.68548447 -0.0150344595
-0.008414086 -0.26199487 -0.075341284 -0.11053752 0.13348125 -0.25792673 -0.2660021 -0.5963029
-0.30852744 -0.39046067 -0.06665628 -0.11775344 -0.60114014 0.09501204 0.3574805 0.18302043
0.20916052 0.07488875 -0.1714303 -0.49631748 -0.18200862 -0.066314965 0.07774512 -0.23139429
0.309368 0.30180588 -1.2241777 -0.017682083 -0.2025466 0.14553623 -0.2501573 -0.39018974
0.05677377 0.07193485 -0.44814333 0.78776103 0.081736796 0.15549843 -0.4999806 0.5418491
-0.24689399 -0.13772492 -0.04080289 0.43619537 -0.06570781 0.046400853 0.45788285 -0.720023
-0.22617255 -0.22897185 -0.72703004 0.25369632 0.39554656 0.39379835 0.27765003 -0.08036972
0.35316655 0.749765 0.11845637 0.49847254 0.001523967 -0.17371906 -0.31607664 0.32348412
-0.5222475 -0.29720876 -0.098534144 -0.46001533 -0.14350332 -0.056855686 0.27169538 0.41832054
0.55816156 -0.027644752 0.78855836 -0.412477 0.4237942 -0.3020032 0.4276767 0.3175618
0.54772556 0.108366266 -0.3693722 -0.27253518 0.33449155 -0.5099084 -0.21767253 0.5061039
0.3689437 -0.2533594 0.24744225 0.30081233 -0.098655365 0.73456573 0.28311506 -0.23961125

critic_fc2.bias f4 [64]
00000000: a4c4 c23e 0248 703e 18a0 883e 1133 f5be
00000010: 3d4b c63e 6e0a b03e 915a cd3e d4e7 3b3e
00000020: 7ced 1b3e c56a 763d 887c 7dbe 044a 9f3e
00000030: 3404 a4be e4aa 3f3f bc87 23bf a855 dfbe
00000040: 6cae aebe 3700 b4bd 836e a73e f1cf 11bf
00000050: 0a67 183f de6e d7be e36b 8cbe 78bf b73e
00000060: 4d89 b73e 2fb3 03bf 4699 213f 54c6 b0be
00000070: df83 633e 2d46 d8be 92d4 c73e fa4b 4d3e
00000080: 08fb a7be a35b 13be 7794 09bf 6c86 a03e
00000090: 272c da3e 315e c53e c9af 153f d151 513c
000000a0: 2f77 82be 3e2a 293e 1082 1cbf 1ac5 a13e
000000b0: e607 ab3e 7e1a 8abd 5926 c43e d65f 873d
000000c0: 0201 e1be 7057 3c3f cbc7 233e 33e7 fabe
000000d0: 9fec 123f 5ee6 d4bc 2f27 ae3e fe8f 4e3f
000000e0: 2900 d13e 9cd0 e63e 12d2 c53e c7c3 f7be
000000f0: a13d cebe 6cb3 d4be e0cd d23e 454f 1d3f
0.3804065 0.23464969 0.26684642 -0.47890523 0.38729277 0.34382957 0.4010816 0.18350154
0.15227312 0.060160417 -0.24754536 0.31111157 -0.32034457 0.74870133 -0.6387899 -0.43620038
-0.34117448 -0.087891035 0.327015 -0.5695792 0.59532225 -0.42076772 -0.2742606 0.35888267
0.3584694 -0.5144529 0.631245 -0.34526312 0.22218274 -0.4224104 0.39029366 0.20048514
-0.3280871 -0.14390425 -0.53742164 0.31352556 0.4261181 0.38548425 0.5847135 0.012775854
-0.25481555 0.1652002 -0.6113596 0.3159569 0.33404464 -0.06743334 0.38310507 0.06610076
-0.4394608 0.7357092 0.15994184 -0.49004516 0.57392305 -0.025988754 0.3401427 0.80688465
0.40820435 0.4508103 0.38636833 -0.48391554 -0.40281394 -0.41543138 0.41172695 0.6144908

critic_fc3.weight f4 [1, 64]
00000000: 9821 61bf 78c9 60bf c2eb 5540 fdc5 493f
00000010: e304 52bf 8b02 65bf 52a1 61bf f0b0 76bf
00000020: 7d6a febf a7a5 78c0 6997 00c0 45d1 29bf
00000030: 34fd 663f a381 a63f 37d1 433f eb8c 6a3f
00000040: 4f2e fcbf cc14 5f40 01df 64bf ac20 a4bf
00000050: dfa7 943f 1be0 f4bf 36d4 0540 c7a6 64bf
00000060: 50be 70bf af5b 553f 84d3 48bf 1e11 1e3f
00000070: d073 6140 3091 613f 270d 0540 636b 81bf
00000080: 510d 3b3f 3fc0 623f d1d1 e7bf 972e 75bf
00000090: 321c 67bf 9c15 65bf 5a7e ea3f 83e6 87bf
000000a0: ba3e 803f 7216 80bf 84e2 b3bf 3cd1 70bf
000000b0: 5016 4cbf 8152 66c0 4f85 61bf c971 e53f
000000c0: bf57 fdbf a5ed ee3f e5dc 67bf d997 4a3f
000000d0: ddaa 44bf 70b8 0540 e7de 14c0 0abd bb3f
000000e0: 8ef8 5dbf a0a9 39bf 954e 0740 6300 06c0
000000f0: 4880 523f 2f71 253f cd98 60bf ea4f 8b3f
-0.87941885 -0.87807417 3.3425145 0.7881773 -0.82038707 -0.89457005 -0.8813678 -0.96363735
-1.9876248 -3.8851106 -2.0092413 -0.66334945 0.9023011 1.3008312 0.7649111 0.91621274
-1.9701632 3.4856443 -0.89402777 -1.2822471 1.161373 -1.9130892 2.0910773 -0.8931698
-0.94040394 0.83343023 -0.7844775 0.6174487 3.5226936 0.88112164 2.0789278 -1.0110897
0.73067194 0.88574594 -1.8110906 -0.95774215 -0.902774 -0.894861 1.831981 -1.0617222
1.0019143 -1.000685 -1.4053502 -0.94069266 -0.79721546 -3.5987856 -0.8809404 1.792535
-1.9792403 1.8666273 -0.90571433 0.7913795 -0.76823217 2.0893822 -2.3261049 1.4667065
-0.8670739 -0.7252445 2.1141713 -2.0937736 0.8222699 0.6462583 -0.87733155 1.0883763
