A3C-new/A3C-Pong&breakout-new/runs/PongNoFrameskip-v4/2022-11-02_20-10_Second80MSteps_OK/model_sam_BreakoutDeterministic-v4_conv.2.tar (torch, 947003 bytes, 13 tensors)

conv1.weight f4 [32, 4, 3, 3]
00000000: 33b5 153e b645 72bd a87a dcbc 7a08 e33d
00000010: 9e2d 21be 73f6 003e a6f5 77bd 8e9a a43d
00000020: 05b0 913d db24 cc3c 4fec 853d 89de ddb9
00000030: f692 ba3d fa6e 53bd 1476 f5ba 67f0 25bd
00000040: c74f 28bb 2e73 133d 2a6e 343e 5166 7a3d
00000050: cc1e 8ebd 7263 b9bd bcd6 04bd 9f26 49bd
00000060: 3ed7 35bd b3b8 09bd 5095 023e fdd2 093e
00000070: 0145 f4bd 1f8c ae3d 135f 003d 7f2b 103e
00000080: d8c3 b83d fe8f 39be e9fb 43be e1a4 aebd
00000090: 4b97 553e a3e6 afbb 6bef 4ebc 108d debc
000000a0: 5ec5 7a3e 7b9f 1ebe c544 f53d bd80 643c
000000b0: 4a68 45bd 1e09 033e 6ca3 83bd 43ba 2c3c
000000c0: b299 80bd ae4a 083d aafb 43be faf7 ddbd
000000d0: d690 823d 8d39 8dbc 174e 3a3e bcca 1e3e
000000e0: 8b21 04bd 7897 e4bd af2a 123e fb59 53bb
000000f0: b33a 0bbe a898 bd3d 4d8e d03d 4cc3 4c3e
00000100: 9ae9 10bd 1030 c2bd 8bde dcbc 0aaf 4b3d
00000110: aae3 31be 4830 39be 9397 d33d 8c5a 29bd
00000120: a9c4 823d 1aee 693c 5e75 b83b f01a 963d
00000130: 1f6a 143e 7e7f c0ba c3c2 18be b201 6f3d
00000140: 60ed e0bd 35c6 1fbe 2bc1 5b3d 22f7 43bd
00000150: e459 893d ca0b 1b3c 13a5 59be 0d50 143e
00000160: ce20 38bd 7a80 9a3d 5329 ab3c 3dfa d6bd
00000170: 94a2 173d 9e37 503d 72b3 14bd 927c 1ebe
00000180: 87f9 633d 37d7 023d a724 85bd b50e 08bd
00000190: bf9b 4a3e dca0 6abd f8bf c33d 7d3b ed3d
000001a0: 628a 11be 59b1 48be 9566 3a3e 1e1a e53b
000001b0: 04a2 0d3e af10 593d 3476 153d d26a 1e3e
000001c0: 8962 553e 2c13 eebd ead6 013d 6dfd 1f3e
000001d0: a2d8 f53d 3413 ef3d 7f57 10be 3c2f f7bd
000001e0: 37e4 babd f749 b6bb e065 263e 2e26 f4bd
000001f0: 1443 803d 71d8 eabd afd9 2dbe 549a 81bd
00000200: d5f8 ba3d 48da 133e e040 07be 49d2 6c3c
00000210: 9395 043e c4e4 983d a916 873d ac52 cf3d
00000220: 040f cf3d 251b d83c 5fd9 22be 9db6 29be
00000230: 89d2 d3bd 15f6 33bd 1a97 f5bd 1895 d43c
00000240: bf67 6d3d 7503 bcbc 6367 11bc 6782 673d
00000250: 92c4 043e 215c 863d 53d2 e7bd d2e8 0e3e
00000260: f048 293b 2077 68bc b0a1 20be 302c 10be
00000270: 3b6e 05be a7f8 80bd 5c30 ae3d eedf cbbd
00000280: e44d 3abe bf6d a03d 7aeb a73c e5da 183e
00000290: 86dd 03be 02c3 153d a021 1fbd 4916 91bd
000002a0: 0fa8 15be 08a7 f9bd d073 64bd c148 cd3d
000002b0: 6c4c 893d 9cd1 21bc cf88 1b3e d705 1e3e
000002c0: 943c a43d 8c1a 14bd b6f0 17be 3af3 f53d
000002d0: 3359 e7bb 7e0b a13b c987 28be cc5e 23bd
000002e0: fa39 97bd 8941 213e d7da 22be 8c54 ecbd
000002f0: 59df c63c 13f7 8dbd e083 e03c dd6d 85bd
00000300: 3c7d bfbd 64b0 8e3b 6f84 113e ba62 1ebe
00000310: 0caf 933d 08f5 ff3d b918 353e 598b f0bd
00000320: 823f c23c 5898 f2bd 68f8 1e3e 4c8a 84bd
00000330: 1f35 c33d d97f 9ebc 0695 00bd 8ca3 343d
00000340: 0c9a 273d 5da5 213d dc06 083d 9806 6e3d
00000350: 97e4 28be a5d6 053e 03f1 143e 90e4 023e
00000360: 92c6 243e 7384 d5bd f548 c0bd 29fc 5b3e
00000370: 58c4 01bd ecff dc3d 2da4 e3bd a566 8dbd
00000380: 2318 d83d 860d 9fbd 8c26 23bd 524e f03d
00000390: 195c 1c3e d399 5e3e b42b 9abd afe2 09be
000003a0: 10c7 1e3e 826b 0bbd fd17 55bd e3e0 8d3d
000003b0: f1ef debd fb65 383e bf06 043e 7319 26be
000003c0: 3656 1cbe 3424 bdbc 82a2 6d3d 8bbb c33c
000003d0: 8f2e 49bd f859 7c3b b1b7 15be 0b4f 89bd
000003e0: 19e2 0abe 6330 123e 841c 2e3e 2195 99bd
000003f0: 4de1 2e3d 25d8 523d 86d4 6e3d f3d6 bfbd
0.14619903 -0.059148513 -0.026913956 0.11085601 -0.15740058 0.12594013 -0.060537003 0.080372915
0.07113651 0.024919918 0.06539213 -0.00042318206 0.09110062 -0.051619507 -0.0018727207 -0.04051247
-0.0025682317 0.035998516 0.17620149 0.061132733 -0.06939468 -0.09052171 -0.03243135 -0.049109098
-0.044394724 -0.03362341 0.1275227 0.13459392 -0.11927224 0.0852282 0.03134067 0.14079092
0.09021729 -0.18121335 -0.19139065 -0.08527542 0.20858495 -0.00536807 -0.012630324 -0.027166873
0.24489352 -0.15490524 0.11976007 0.013946709 -0.04819516 0.12796447 -0.064276546 0.010542455
-0.06279315 0.033274345 -0.19138971 -0.108383134 0.063752815 -0.017239356 0.18193851 0.15507025
-0.03225855 -0.11161703 0.14274095 -0.0032249677 -0.1359661 0.092576325 0.10183392 0.19996375
-0.03537903 -0.094818234 -0.026961586 0.049727477 -0.17372003 -0.18084824 0.10331645 -0.041346118
0.06385166 0.014277959 0.0056292256 0.07329357 0.14493607 -0.0014686433 -0.14918046 0.058351226
-0.10982776 -0.15602954 0.053651016 -0.047843106 0.067065984 0.00946326 -0.21254377 0.14483662
-0.04495316 0.07544036 0.020893728 -0.10496948 0.03702028 0.05083429 -0.036303945 -0.15477207
0.05565789 0.031943526 -0.065011315 -0.03321715 0.19785975 -0.057282314 0.095580995 0.11583612
-0.14212945 -0.19598903 0.18203194 0.006991639 0.13831335 0.052994426 0.03648968 0.15470436
0.2083837 -0.116247505 0.0316991 0.15624018 0.1200421 0.116735846 -0.14095877 -0.12069556
-0.0912556 -0.0055630165 0.162498 -0.11921345 0.06262794 -0.11467064 -0.16977571 -0.06328264
0.09129492 0.14438736 -0.13208342 0.014454433 0.12947683 0.074655086 0.06596119 0.1012319
0.10110286 0.026380131 -0.15903233 -0.16573568 -0.10342891 -0.043935854 -0.11991711 0.02595
0.057960268 -0.022950867 -0.008874747 0.056520846 0.1296561 0.06560541 -0.11319413 0.13956001
0.0025830828 -0.014188558 -0.15686679 -0.14079356 -0.13030331 -0.06297427 0.085053176 -0.099548206
-0.18193775 0.078334324 0.020498026 0.14927252 -0.12877473 0.036562927 -0.038850427 -0.07084329
-0.1461489 -0.12190062 -0.05577451 0.10023642 0.067040294 -0.009876635 0.15188907 0.15431915
0.08019367 -0.03615813 -0.14837918 0.120092824 -0.007060194 0.0049147 -0.16458048 -0.039885327
-0.07384105 0.15747656 -0.15903793 -0.115395635 0.024276422 -0.06931891 0.027406633 -0.065150954
-0.093500584 0.0043545235 0.14210676 -0.15467349 0.07211122 0.12497908 0.17685212 -0.117453285
0.023711924 -0.118454635 0.15524447 -0.064716905 0.095316164 -0.019348072 -0.03139212 0.044101283
0.040918395 0.039464343 0.033209667 0.058111757 -0.1649345 0.13070162 0.14545064 0.12782502
0.16091374 -0.10425653 -0.093889154 0.2148291 -0.03168139 0.10791001 -0.111152984 -0.069043435
0.10551479 -0.07766251 -0.039831683 0.117336884 0.15269507 0.21738367 -0.07527867 -0.13465379
0.15505624 -0.034038074 -0.05202483 0.06927659 -0.10885609 0.18007652 0.12893198 -0.16220646
-0.15267262 -0.023088552 0.058016308 0.023893138 -0.049116667 0.0038505774 -0.14620854 -0.067045294
-0.13562812 0.1427627 0.17003065 -0.07499147 0.042695332 0.051475663 0.058308147 -0.0936717

conv1.bias f4 [32]
00000000: fb80 c1bd d7f8 dbbd 9199 14bb f1ef cdbd
00000010: 0d66 a63d 342e 95bd 0c42 97bd a598 54bd
00000020: 96fd c4bd a99c 703d 2656 f03d 9318 bebd
00000030: 2386 9cbd 21d9 1d3e a3ad 5cbd 5da3 0b3d
00000040: 7234 20be c459 33be fb41 db3b b6ea 88bd
00000050: 3516 183d c70e 1bbd cb44 b2bc ae9a 1ebd
00000060: 16f0 753d d6fe b83d e165 0abd fcae 39bd
00000070: 704f efbd 2e59 3d3e 2451 e23c 7478 803d
-0.09448429 -0.10740822 -0.002267454 -0.10055531 0.081249334 -0.07284203 -0.07385644 -0.051903386
-0.0961868 0.058743153 0.117351815 -0.09282031 -0.07642772 0.1541486 -0.05387653 0.034091342
-0.15645006 -0.17514712 0.006691215 -0.066853926 0.037130553 -0.03785589 -0.021761319 -0.038721733
0.060043417 0.09032981 -0.033788566 -0.045332894 -0.116850734 0.1849105 0.027626581 0.062729746

conv2.weight f4 [32, 32, 3, 3]
00000000: c41f 873c dd33 053d 1949 a63d 5918 e83b
00000010: 6733 643b 0d02 013d bb42 3c3d e72f b13d
00000020: ee7c efbd e87b 1ebd 21d5 45bd 1aa8 ec3d
00000030: debe ea3d 4f0d 24be 77b3 94bc 2beb d4bc
00000040: 47ed 93bc 1df3 6d3d af28 ab3c 5f0e 053c
00000050: d24a 05bb c425 1f3d d3be 3fbd 671f b4bc
00000060: 7e7d 01be 37a6 44bc 03af 823d b815 913c
00000070: fc47 cbbd 5357 353d ab9b 613d 07a9 8bbb
00000080: c1b9 7d3d eaf0 67bc 65b6 c43c a764 773d
00000090: 20c6 98ba 5619 70bd f2b7 c5bc 5694 7c3d
000000a0: 4ed2 f63b 34b8 d63c 255d c0bc 3ac1 3c3c
000000b0: 3ac9 493d 8797 1dbd 58cd a13c 1517 9e3d
000000c0: 58b3 873c 28af 9dbd aaf1 b83d 4428 b0bc
000000d0: 5a99 b7bd e588 833c acfa 88bd ce7b c9bc
000000e0: f969 8f3c 320b a9bc 37ab 53bd 91e9 2fbc
000000f0: 1f35 0abd 8f4c b23a 2aee 8d3d 3bdf 7e3d
00000100: e04c cebc 4c41 dbbc dc09 8ebc cc50 063d
00000110: 683a e73d a176 f9bc 0f76 e7bc ad5f ff3b
00000120: 7149 22bd c581 c03d c1e3 17bd b0db 92ba
00000130: 26be c8bd 6ba9 23bd 950e 28bd f053 eebc
00000140: 9cc8 003e 0c8f da3b 09b9 393d 7bff 1d3d
00000150: cfc0 59bd bb6d a53c 8b82 36bd e2c9 e9bc
00000160: 7bdb d23d 6ecc ba3d 9e10 37bd 39aa 77bd
00000170: 86e9 fabc 0d0e c4bc 0283 0f3d 9a91 eabc
00000180: 6546 bd3c 3a49 623c 9133 bbbc d363 ae3c
00000190: 2b39 173d 7ffe acbc b81d 0a3c c900 c6bc
000001a0: 0491 bc3b 9d58 50bd c46d ab3d 80b7 05bd
000001b0: 4550 f13b db83 723d b65a efbc aff4 d73d
000001c0: 59fd f1bd 3df9 c3ba 04ee cb3c e237 a8bd
000001d0: 0ccd 613d 10ca 1dbc 1e48 1f3d 5eeb bfbc
000001e0: 746a 703d 7162 1a3d 21b3 d5bd f638 fe3c
000001f0: 9a10 abbd 44cd f13d c3d9 c7bc 5271 b5bd
00000200: e66f d5bc 46f8 093d c006 b53a c156 76bb
00000210: 6e6f dbbc 62c0 733d f159 fcbc 582d 00bd
00000220: 03e3 04be 1960 fb3c a6cd 9dbc c1ba 133e
00000230: 1823 543d 158b 533c 9725 293d b09d d1bd
00000240: 674b efbc 8791 50bd 5ac8 35bc e170 d43c
00000250: a466 04be 363e 433d 5b21 12bd 934a 733d
00000260: a065 c43d d8d7 ebbc f0a7 92bd 8234 b83c
00000270: d499 733c 8363 eb3c 897a bfbc 8244 4abd
00000280: dbfc 08bb 77ad 22bc d376 66bd 8cc3 c13b
00000290: 1b6b 9bba 1603 133d 0c52 023d 62f6 c6bc
000002a0: 1439 02be 25b9 a2bc da5c 8f3d 692f afbc
000002b0: e850 e4bc 8e4f ad3c d94b a1bc 8a0a 273d
000002c0: d133 e7bc a600 3d3d 4248 a8bd e6f3 5c3b
000002d0: 20e0 ab3d d16d 0bbb 35e0 ec3c 6ddc 0c3d
000002e0: b88c 5a3d cd40 39bb 17b9 dcbc e901 3cbd
000002f0: 55d7 01bd d579 a1bb 809a 6d3d fa69 943d
00000300: 0d1c 8b3d a20d b03c d64c b63c 5de7 823d
00000310: 7d57 b33c d37d c1bd 1da7 82bc b079 ab3d
00000320: 171d 60bc e2ae 8cbd bf30 49bd 0b3b a23c
00000330: b625 a83d 1aad b5bd de17 15bd 785a 53bc
00000340: bc7d b7bd cd8d aa3d 270f 91bd 57d7 fb3d
00000350: 5a79 b1bd 2f1a 9fbc 7016 7b3b b0b4 cfbc
00000360: 46bf 2fbb 8492 2b3d 4eeb 10bd e422 77bd
00000370: cac7 64bd 14a6 bdbb c9a4 993d cc1b b0bd
00000380: 109c 003c 0ec4 243d 06af 893d 2f80 733d
00000390: 15cc f4bd d1d1 74bc 18b6 b5bd 35ba 043d
000003a0: f405 5bbb e59e 113d 93e8 433d d724 35bd
000003b0: 6aad 763c 17b1 9bbd 3b32 4c3c 2c43 f53c
000003c0: 0a7d 913d 15a6 603c 5b38 ebbb fe2f ee3d
000003d0: 4e4f 2cbd 3e1a 603c fd69 d1bd 9bbf 4c3d
000003e0: 6754 9a3d a2cb a23d 58b6 08bb fb95 69bd
000003f0: 30d8 1d3d f471 debd b52a 683d 3463 f5bc
0.01649464 0.032520164 0.08119411 0.0070829806 0.0034820677 0.031496096 0.045962077 0.08651715
-0.1169375 -0.038692385 -0.04829896 0.115555 0.11462186 -0.16020702 -0.018151982 -0.025991043
-0.018057479 0.05809318 0.020893423 0.008121102 -0.0020338786 0.038854375 -0.046812844 -0.02198763
-0.12645528 -0.012002519 0.06381037 0.017710552 -0.09925839 0.044272732 0.055080097 -0.004262093
0.061944727 -0.0141565595 0.024012754 0.060398724 -0.0011655726 -0.058617912 -0.024135564 0.0616649
0.0075323945 0.026210882 -0.023481915 0.011520678 0.04926417 -0.038474586 0.019751236 0.07719246
0.01656501 -0.07699424 0.09030469 -0.021503575 -0.08964796 0.016056487 -0.06688437 -0.024595167
0.017506586 -0.020635221 -0.051676955 -0.010736839 -0.033742066 0.0013603139 0.06930192 0.062224608
-0.025183141 -0.026764534 -0.017338686 0.032791898 0.11290437 -0.030452074 -0.028254537 0.007793388
-0.03962082 0.093997516 -0.037082437 -0.0011204388 -0.09801893 -0.03995649 -0.04102953 -0.029092759
0.12576526 0.0066698845 0.04534248 0.038573723 -0.053162392 0.020193925 -0.04455809 -0.028538648
0.10295769 0.09121023 -0.04469358 -0.06046507 -0.03062893 -0.023932481 0.03503705 -0.028633881
0.023104856 0.013811404 -0.022851737 0.021287834 0.036919754 -0.021117447 0.008429937 -0.024170296
0.005754592 -0.05086576 0.083705455 -0.032645702 0.007364305 0.05920778 -0.029218059 0.105447166
-0.118159 -0.0014951598 0.024893768 -0.08213784 0.05512719 -0.009630695 0.038887136 -0.023427662
0.05869527 0.037691537 -0.10434557 0.03103302 -0.08352776 0.118067294 -0.024395829 -0.08859505
-0.026054334 0.033684038 0.0013811216 -0.003758833 -0.026786532 0.059509642 -0.030804606 -0.031293243
-0.12977223 0.030685471 -0.0192631 0.1442671 0.05179128 0.012911578 0.041295614 -0.10235155
-0.02921076 -0.050920036 -0.011095131 0.025932731 -0.1292978 0.04766675 -0.03567634 0.05939729
0.09589696 -0.028789446 -0.07160938 0.022485975 0.014868218 0.028733974 -0.023373859 -0.04938174
-0.0020902667 -0.009929053 -0.056265663 0.0059132036 -0.0011857481 0.035891615 0.031816527 -0.024287406
-0.12717086 -0.019863674 0.07000132 -0.021384912 -0.02787061 0.021156099 -0.019689487 0.040781535
-0.02822295 0.046143197 -0.08216907 0.003371471 0.08392358 -0.0021275172 0.028915504 0.034389902
0.053356856 -0.0028267384 -0.026943726 -0.04590026 -0.031699497 -0.0049278536 0.05800867 0.07246776
0.0679246 0.021490876 0.022253435 0.06391785 0.021892304 -0.09447827 -0.015948826 0.083728194
-0.013678811 -0.06869294 -0.049118754 0.019803545 0.08210318 -0.08870907 -0.036399715 -0.012899987
-0.08959529 0.083278276 -0.07082968 0.12296932 -0.08665724 -0.019421665 0.0038312934 -0.025354713
-0.0026816889 0.041887775 -0.035380654 -0.06033601 -0.055854596 -0.0057876203 0.075021334 -0.08599052
0.007849708 0.040226035 0.06722836 0.059448417 -0.11952988 -0.014942602 -0.08872622 0.032404143
-0.0033420296 0.035551924 0.047829222 -0.044224586 0.015055994 -0.076021366 0.012463148 0.029939257
0.071039274 0.013711472 -0.007178349 0.116302475 -0.04206782 0.013678132 -0.10225294 0.049987417
0.0753563 0.07948996 -0.0020860638 -0.0570278 0.03853625 -0.108615786 0.056681354 -0.02995453

conv2.bias f4 [32]
00000000: 3d06 49bc 23a1 c53b d04a bb38 d176 b4bc
00000010: 54cb b03c ac9f 803c 0fcd df3a a918 43ba
00000020: 8abd bdbc 57a2 0b3c ef7b 873c 1805 0bbd
00000030: 5b50 16bc e68c 9cbb 1d5f 01bd b6b7 643a
00000040: 60f1 b33b ee44 8a3c ffd6 a53b 402c 59bc
00000050: 9df1 1b39 ee5f e5bb 903d 203c a59f 633c
00000060: db74 bcbb c5c4 7b3c 7b3f d03c a4f9 ccbc
00000070: 30bd 44bc 7da1 5bbc 69eb e9bc 8805 c4bb
-0.012269554 0.006031172 8.93079e-05 -0.022029312 0.02158133 0.015701137 0.0017074662 -0.00074423343
-0.023161668 0.008522592 0.016538588 -0.033940405 -0.009174432 -0.0047775386 -0.031584848 0.0008724885
0.0054914206 0.016878571 0.00506103 -0.013255179 0.0001487196 -0.006999961 0.009780303 0.013893043
-0.005751235 0.015366738 0.025420895 -0.025021382 -0.012007996 -0.013405201 -0.028554635 -0.0059821047

conv3.weight f4 [32, 32, 3, 3]
00000000: aa11 9fbb 2e16 293d 75b8 21bc 21d6 4f3d
00000010: 70f1 09bd 3d05 713d 5123 8e3c 0307 4d3d
00000020: fd91 113d 3466 d1bc d054 19bd 2b2e f2bc
00000030: 99c6 76bd 0730 963d 7318 0dbd 1303 22bd
00000040: ad20 00bd 672d 493c cd17 15bd 3c06 063d
00000050: a3c5 833d 2bd6 c43c b396 70bd 24af 20bc
00000060: 7254 4e3d c31f 693d cfe5 853d b28a cdbc
00000070: d332 853d 3ade bdbc d2fc 99bc bfd2 d5bc
00000080: d7fa c7bc 0a23 29bc 7004 9fbc 275d 393d
00000090: f532 043d 115a f73b 9171 a0bb cfbe f2bc
000000a0: c5d9 10bd 4360 24bd c19f aa3d 54b3 c3b9
000000b0: 4803 37bc 4c53 173d 9c17 0cbd d6ff d5b9
000000c0: 0f43 7e3c ffd0 b03c 286a 43bd 7364 7f3c
000000d0: 6f68 233c 9c62 adbc 8de9 4abb e84d 063c
000000e0: e2cd 443d 1edb 57bd 1a01 fc3c 2ad2 843c
000000f0: 5aee 3cbd f162 9dbc fdab e53c d2a6 3cbc
00000100: 3b06 fbbd e079 493d 34d7 163d 21cc 973d
00000110: 7dd1 1cbd db03 16bb 0a0f 3bbd df3e 9fbc
00000120: af7d 4c3d 919a 223c 39bb af3d 3092 333d
00000130: 3f98 613d 4063 3dbd 7642 073d 1662 233d
00000140: b467 16bd 98f8 35bd 093a 8d3d 7d42 7ebd
00000150: 96ac 8cbc 0973 47bd e5f4 a33d 340d 023d
00000160: 2b6e 15bd 9076 803d 03fb 01bc 6f5d 54bb
00000170: 4161 96bc 37f9 953d 49ff d23c 3806 173c
00000180: f76e 14bc 2285 4f3c 4a2d 68bd 5d31 c9bc
00000190: 2e2c 013d abb2 943d 2707 f1bd 10a1 8b3d
000001a0: 418b 9cbd d83f 333d 1402 bf3b 9125 8abc
000001b0: b470 8e3b bb4c b73c 4459 0d3d a963 12bd
000001c0: 6b4c 31bd 8e1c 89bd dae8 7e3c 462f a93d
000001d0: 91e7 243d b5b4 973c 43dd 003d b073 9fbd
000001e0: 81ca 0b3d a9b1 27bd ea3c 853c 4733 433d
000001f0: 32f4 4fbc 4590 8a3d c25b 833d a016 c23b
00000200: 89e2 2f3d 802b 2b3d 49c8 763d 9f93 1f3d
00000210: 7e92 623b 81c1 90bd 432f d4bc 3694 3e3c
00000220: 7f52 2abd be93 9fbc fc33 0e3d b677 62bd
00000230: d987 bc3d 16a3 46bd 41a8 48bd 5b6f c13c
00000240: 88f4 3cbd 53bb 893c b62d 613d ac27 dbba
00000250: fc28 dc3c 5911 d8bc 77e1 073d 421e 0d3c
00000260: 0114 2fbd b0d0 ebbc ca19 c3bd 8464 dd3d
00000270: f36f 2bbd 0b92 a53d e950 3f3c 624e 6cbd
00000280: a9db 683d de73 2dbd 3e91 413d 596a 1dbd
00000290: f987 9dbb 7916 26bc 3564 babc 839a 20bc
000002a0: bf5d d2bc 09ab 39bd a67c 873d aed0 5abc
000002b0: 9516 47bc 6cb8 f3bc 016c 8fbd 38ab a1bc
000002c0: d026 db3c 93ee f73c 8525 11bd 5bec 0bbd
000002d0: db15 52bd 391b 8d3d 8ba2 10bd ef32 d73c
000002e0: 8207 93bb 6dc5 303d 9a06 f53c dafe 63bc
000002f0: 2cca 893d 294b 14bd d063 5c3d 422e 5d3c
00000300: e64b 1f3d 15ab 72bd f8b3 9b3d e072 84bd
00000310: a845 aa3c a49d 8abd 5974 763d 3bc7 b5bc
00000320: b516 053c bd97 8abd 2ae9 e03c 1113 11bd
00000330: 5de9 59bc 0c9f cd3c 4f08 163d 8bd8 b3bb
00000340: 91f6 913d 2ec4 90bc a849 6a3d 8232 b0bd
00000350: 5ad1 8dbc 0321 b6bb a6c1 0dbc b640 4f3d
00000360: 5802 213d ad54 5ebd a260 333c e946 f9bc
00000370: 25c8 0f3d 2c63 963d f8ff 153c 92e8 f3bc
00000380: f1cd 883d 61e1 3abd 3366 563d 25b9 5ebd
00000390: 2409 733d 7f06 d9bd f4f6 683d d99d c9bb
000003a0: 1df8 f03d 8c61 71bc 8119 00bc 522a 5f3c
000003b0: c6ca 923c a495 413d 2407 56bd edd4 1c3c
000003c0: 91c6 043c ee1f f7bc 134c 8239 ee9d 763b
000003d0: a2b1 913d d803 5f3d f563 bd3d 5882 80bd
000003e0: 0021 a43d 1d2d a63b d93b e23c 08ab 713d
000003f0: abb7 74bd 9fbc a2bd 6707 03bb 8c80 87bd
-0.0048544006 0.041280918 -0.009870638 0.05074132 -0.03367752 0.058842886 0.017350825 0.050055515
0.035539616 -0.02556143 -0.0374344 -0.02956303 -0.06024799 0.07333379 -0.034447145 -0.039553713
-0.031281162 0.012278891 -0.03639965 0.03272079 0.064341806 0.024027904 -0.058737468 -0.009807382
0.050373502 0.056915056 0.06537973 -0.02509055 0.065038346 -0.023177255 -0.018797312 -0.026101468
-0.024411602 -0.010323295 -0.019411296 0.045254853 0.03227516 0.0075485785 -0.0048963507 -0.029632
-0.03536393 -0.040130865 0.08331252 -0.00037326908 -0.011170216 0.036944672 -0.034202203 -0.00040817139
0.015518918 0.021584032 -0.04770866 0.015587914 0.009973629 -0.021165185 -0.003096196 0.008197285
0.048047908 -0.0526992 0.030762244 0.016213495 -0.046125747 -0.019212218 0.028036112 -0.011514382
-0.12257048 0.049188495 0.036826327 0.074119814 -0.03828572 -0.0022890482 -0.04566864 -0.019439159
0.04992455 0.009924547 0.08580632 0.043840587 0.055076834 -0.04623723 0.033022366 0.039888464
-0.036719993 -0.04442653 0.06895835 -0.062075127 -0.01717214 -0.04869369 0.08005694 0.031750873
-0.036482017 0.06272614 -0.007933381 -0.0032404324 -0.018356921 0.073229246 0.025756495 0.009217791
-0.009059659 0.012666019 -0.056683816 -0.024559671 0.031536274 0.07260641 -0.11768942 0.068178296
-0.07643748 0.043762058 0.005829105 -0.016863616 0.0043469314 0.022375455 0.03450896 -0.035739575
-0.04328577 -0.066948995 0.015558446 0.0826097 0.0402599 0.018518785 0.03146101 -0.077857375
0.03412867 -0.040940914 0.016264398 0.047656324 -0.012692498 0.067657985 0.06413986 0.0059231073
0.04294065 0.04178953 0.0602496 0.03895914 0.003457218 -0.07068158 -0.025901442 0.011632016
-0.04158258 -0.019479629 0.034717545 -0.055289946 0.092055984 -0.048495375 -0.048988584 0.023612669
-0.04613164 0.016812956 0.054975234 -0.0016720197 0.026875012 -0.02637546 0.033174004 0.008613171
-0.042743687 -0.028786033 -0.09526403 0.108101875 -0.04185481 0.08084496 0.011677005 -0.05769194
0.05685011 -0.042346828 0.047257654 -0.0384315 -0.004807469 -0.010137194 -0.02275286 -0.009802463
-0.025679467 -0.045329127 0.06615572 -0.013355417 -0.01215138 -0.029751025 -0.07003022 -0.019734964
0.026751906 0.030265128 -0.035436172 -0.034160953 -0.051290374 0.06889958 -0.035311263 0.026269404
-0.004486979 0.04315703 0.029910374 -0.013915742 0.06728014 -0.03620449 0.053806126 0.013499798
0.03889074 -0.059245188 0.07602686 -0.06467223 0.020785168 -0.06768349 0.06016955 -0.022189727
0.00812309 -0.06767223 0.027454931 -0.035418574 -0.013300267 0.025100254 0.036629017 -0.0054884604
0.07127107 -0.01767167 0.05719915 -0.086033836 -0.01731174 -0.0055581345 -0.008652126 0.050598823
0.039308876 -0.054279972 0.010948332 -0.03042932 0.035102982 0.07343134 0.009155266 -0.029773984
0.06679905 -0.045625094 0.05234356 -0.054375786 0.05933489 -0.10596942 0.056876138 -0.00615285
0.11766074 -0.01473273 -0.007818581 0.01362093 0.017918956 0.04726185 -0.052252904 0.00957225
0.008103983 -0.030166592 0.00024852212 0.0037630755 0.07113959 0.054447025 0.09247581 -0.06274861
0.08014107 0.005071296 0.027616428 0.059001 -0.059745472 -0.07946133 -0.0019993426 -0.06616315

conv3.bias f4 [32]
00000000: 8b17 533c e065 9fbc a5c2 aa3c 6eb3 2b3c
00000010: 897b e63b db65 86bc f8e0 0abc e760 ee3a
00000020: 29bb 073c 1b6e 73bc f6fd 213c 5b47 52bc
00000030: 0e17 003c 7f79 13bc b9cf 803c 790f 81bc
00000040: f1d0 513c 46ab d1bb 0414 b53b 7f3c a73b
00000050: 15c7 9ebb 1046 3cbc 8abb 83bc 4154 f23a
00000060: f4d7 153c 57c5 1ebc 8f2e 943c 7a78 aa3b
00000070: f7c3 953c 0ed9 493c dbf6 50bc 2551 0e3c
0.012884031 -0.019457757 0.020844767 0.010479791 0.0070337695 -0.01640599 -0.008476488 0.0018186838
0.008284369 -0.014857794 0.009887209 -0.012834395 0.007817997 -0.009001135 0.01572405 -0.015754448
0.012806163 -0.006398591 0.0055260677 0.0051036472 -0.00484551 -0.011491314 -0.016080637 0.0018488244
0.0091457255 -0.009690604 0.018088607 0.00520235 0.01828192 0.012319816 -0.012754167 0.008686339

conv4.weight f4 [32, 32, 3, 3]
00000000: 6f5a 26bc e4b5 223c bf88 963d 98a2 b13c
00000010: ac69 88bb a2d1 10bb 01b7 103d 0d2c 1dbd
00000020: 01b1 0bbb 1890 70ba ea3d 3dbd a6e2 a13c
00000030: b9f9 303d 6cf2 123d 29ab 82bd 4e8e 533d
00000040: 9241 5fbb ab71 d0bc bf64 3abd 6390 afbc
00000050: cd08 28bd af16 a23c 59a0 85bd 367b 0b3d
00000060: 9562 4fbd 58e1 3f3d 400b fc3b 61e9 463d
00000070: 94b9 b13c 1dad 0abd 6235 043d b38c 22bc
00000080: bc3a b2bd 081e d6bc 97e7 413d 4c11 0b3d
00000090: 9bff b43c 4a25 c9bc e703 113d b69c 21bd
000000a0: dcdf da3b c18a 08bc f4a7 7ebd 7b18 89bc
000000b0: cd12 76bd 5533 26bd afeb 44bc e807 2abd
000000c0: 82b6 55bc 07d1 b4bc b107 04bd 69f6 c23c
000000d0: 49af 1abd 0e50 6abc 3898 e83c 0e31 593d
000000e0: e558 0dbd e8ef a03c 49f6 15bd 622d dabc
000000f0: ae70 b6bd ea92 b03c 5117 913d 4afa 42bd
00000100: c80e 5b3d d52a acbb 9982 743b e12b 933d
00000110: d61f e2bc 670d 1c3c 79c7 5bbd ec95 61bd
00000120: a959 5bbd a552 8bbd 0ab4 7abc 6f3b 193c
00000130: d9bc 303c 847d ce3c 3a7c 97bd b083 c0bc
00000140: 2193 923d c387 b03c 72db a9bd 7fa8 ce3d
00000150: e061 723d 2e4b 0c3c a8e7 d3bd 784e 993c
00000160: e257 b5b9 7c5f 62bd f010 663d 8165 87bd
00000170: 345f 503c 5fcd 5b3d 844a 20bd fc29 25bd
00000180: 6224 993d 0e66 ee3c 3a65 40bd 8673 cf3c
00000190: 582a 563d dc37 de3c cb1d e33b 7ab5 fc3c
000001a0: d0b0 26bd 9834 3f3c 4feb 143c 8a38 07bd
000001b0: 7811 41bd 444c 92bb 74fa e9bc 5366 5fbb
000001c0: dae9 c6bd 7f84 9b3d 2af8 763d 3a64 2c3d
000001d0: 37a9 2bbd c18d a93b 6c36 a93c 6e8f 8dbc
000001e0: 2f97 cb3c b459 50bd 44d1 a53d 6c0c 08bd
000001f0: aee0 29bd 2b9a b9bd 2ffa c53c 7edc 1fbd
00000200: dfcb 82bd 65bb 85bd 17f1 4c3c 354e 6d3c
00000210: b131 533d acd3 2c3d 3e2e 75bc 2fc8 5c3d
00000220: 4ab3 043c db4b 8fbd 4808 b5bb 15da e43d
00000230: 694c 80bd 7691 093d 6918 983c bdae 073c
00000240: 4e43 1c3c ca49 7d3d 4ba8 06ba 2609 403d
00000250: 81cb b3bc 5020 7a3d 4c58 193d 5740 e0bc
00000260: 477a 02bd e235 53bc 0fad 76bc 71a3 e0bd
00000270: acfa 4a3d 66f3 673c 1933 413c 6550 20bc
00000280: 6d04 3abc aa6f edbc d059 0f3d 86b0 ccbd
00000290: 9314 97bc da1e 9939 d923 f63c 255d a2bd
000002a0: 58f6 41bc 2e2a 913c 2adf 24bd 9a8d bf3d
000002b0: 6930 15bd a57c a8ba fcbe f2bc 410a b6bd
000002c0: 5ca0 4f3d aa40 02bd 4f18 f33c bda4 243d
000002d0: d0df 3d3d 22e1 5c3c 07db 593d b30d 2abb
000002e0: ee42 15ba b95a 02bc 5aae ecbb f3ed afbd
000002f0: 5d30 8bbc ba2b 893c ad6a 58bd 8240 cf3d
00000300: 73d5 bd3c 514a 083c 8ac2 c3bd 2910 213d
00000310: 7af3 0c3c 95b9 95bd 2e65 7abd d529 8d3d
00000320: 57ae 963c 6b81 a53d 116a df3d 0c60 a3bd
00000330: 3eba 273d ca32 44bd 773c 8bbc 6449 95bc
00000340: 7612 8fbc b876 d8bd 4176 82bd 0102 173d
00000350: d478 be3d d510 a33c 86f5 cdbc b58b ad3c
00000360: 9d82 003d 008f 2fbd 580f e93b 636f 2fbd
00000370: 5c67 94bd 7971 93b9 3e6e a53c ca8c ea3c
00000380: 6444 9e3c 83d0 20ba 855f d7bc e94b 2a3d
00000390: 39ee 36bc 857a 7a3c 7bd4 45bc a40b 363d
000003a0: b6f5 2bbd 4064 e43b 87a5 34bb e6f2 8abd
000003b0: 3ba3 183c 7819 9d3c 4f34 263d 4543 fabc
000003c0: 1325 1ebd 060a 213d f176 4dbd 077f 8c3b
000003d0: 57e6 a23c ea53 59bd a0b1 623b ab7a a2bd
000003e0: 34c8 6ebd a3c3 a4ba a4a8 5d3d e11e 8bbd
000003f0: 6d54 163d 1912 0abd 5257 1fbd 8c1f c0bb
-0.010153397 0.009931061 0.07350301 0.021683976 -0.0041629877 -0.0022097607 0.035330776 -0.03837209
-0.002131522 -0.0009176745 -0.046201624 0.019761395 0.043206904 0.035875723 -0.063803025 0.051649384
-0.0034066183 -0.025444826 -0.045506235 -0.021431154 -0.041024018 0.019786207 -0.065247245 0.03405305
-0.050631125 0.046845764 0.007691771 0.04856241 0.021694936 -0.0338565 0.032277472 -0.009921241
-0.08702609 -0.026137367 0.047340002 0.033952042 0.022094538 -0.024553914 0.035404112 -0.03945609
0.006679518 -0.008333863 -0.06217189 -0.016735306 -0.060076524 -0.040576298 -0.012019082 -0.041511446
-0.013044002 -0.022072328 -0.032233898 0.023799138 -0.03776482 -0.014301313 0.028392896 0.053025298
-0.034508605 0.019645646 -0.03661183 -0.026632968 -0.08908211 0.02155443 0.070845254 -0.047601976
0.053480893 -0.0052541294 0.0037309288 0.071861036 -0.027603071 0.00952468 -0.05365703 -0.055074617
-0.053552303 -0.068028726 -0.015301714 0.009352549 0.010787212 0.025206335 -0.07396741 -0.023500293
0.07156969 0.021549111 -0.08293809 0.10090732 0.059175372 0.008562846 -0.10346919 0.018714175
-0.00034588488 -0.055266842 0.056168497 -0.06611157 0.012718011 0.053662654 -0.039133564 -0.040323243
0.074776426 0.029101398 -0.046971537 0.02532364 0.052286476 0.027126245 0.006931042 0.030848254
-0.040695965 0.011670254 0.009089305 -0.033012904 -0.0471358 -0.004464658 -0.028561808 -0.003408809
-0.097125724 0.07593631 0.06029526 0.04208777 -0.041909423 0.005174369 0.020655833 -0.017280307
0.024852363 -0.050866798 0.08096555 -0.03321497 -0.041474037 -0.09062608 0.024167148 -0.039028637
-0.063865416 -0.06529883 0.012508652 0.014483978 0.05156106 0.042194054 -0.014964638 0.053901847
0.0080993865 -0.0699689 -0.005524669 0.11174408 -0.06264574 0.033585988 0.018566327 0.008281407
0.009537531 0.06183795 -0.0005136772 0.046883725 -0.021947624 0.06106597 0.037437722 -0.02737443
-0.031854894 -0.012891265 -0.015055909 -0.10968674 0.049555466 0.014157152 0.011791968 -0.009784793
-0.011353594 -0.02898391 0.03499776 -0.09994607 -0.018442428 0.0002920542 0.03004639 -0.07927922
-0.011838518 0.017720308 -0.04025189 0.0935318 -0.03642312 -0.001285453 -0.029632084 -0.088886745
0.05069004 -0.03179995 0.029674677 0.04019617 0.046356022 0.01348141 0.053187396 -0.0025948107
-0.0005693872 -0.0079562 -0.0072229328 -0.08590307 -0.016990835 0.016744483 -0.05283611 0.10119726
0.02317307 0.0083185 -0.0955859 0.039322052 0.008602971 -0.073107876 -0.06113165 0.068927445
0.018393679 0.08081325 0.109089024 -0.07977304 0.0409491 -0.0479 -0.016996605 -0.018223472
-0.017464858 -0.10569519 -0.063702114 0.036867145 0.0930039 0.019905487 -0.025141489 0.021184782
0.031374563 -0.042860985 0.007112425 -0.042830836 -0.07246277 -0.0002812257 0.02019417 0.028631587
0.01931972 -0.00061345863 -0.026290664 0.0415763 -0.011165195 0.015288 -0.012074585 0.044444695
-0.041982375 0.0069699585 -0.0027564482 -0.067846105 0.009316261 0.019177184 0.04057723 -0.030549655
-0.038609575 0.0393162 -0.05016226 0.004287604 0.019885225 -0.053058542 0.0034590736 -0.07933553
-0.058296397 -0.0012570511 0.054115906 -0.06792999 0.03670161 -0.033708666 -0.038901635 -0.0058631357

conv4.bias f4 [32]
00000000: 1735 89bb 02bc d43b 9afa abbb 8240 3bbc
00000010: 0cf8 77bc b50b 28bc 425a 4cbc 567e 9a3a
00000020: 1a69 90bc 35cc 39bb 195e 80bc b0d1 5fbb
00000030: e83e 6f3b 6e79 173c d4c4 9abb d364 8fbc
00000040: 55cc 4cbc 36b6 bfbc 3b5e 30bc 07b6 6bbc
00000050: 2e4a 37bb c8c4 fe3b db92 273c 4461 71bc
00000060: 6ffc 143a 3b98 a03c 9015 2cbc 2de2 2bbb
00000070: 6863 e03b aff5 4dbb 79f4 f8b8 0e0b 85bb
-0.004187237 0.006492139 -0.00524838 -0.011428954 -0.015134823 -0.010256697 -0.012472691 0.0011786919
-0.017628241 -0.0028350477 -0.01566987 -0.0034152083 0.0036506 0.00924526 -0.004723171 -0.017504131
-0.012499888 -0.023402315 -0.010764654 -0.01438666 -0.0027967799 0.007774923 0.010227884 -0.014732663
0.00056833675 0.01960384 -0.010503188 -0.002622734 0.0068477876 -0.0031426956 -0.00011871098 -0.0040601557

linear.weight f4 [256, 800]
00000000: 4cb4 533d 816e 933b 9843 81bc 700a b9bc
00000010: 1202 76ba d09c 5e3c 132a 3b3d 373b bfbc
00000020: 16fc c43c 8ecf 41bc cf87 873b 9ebd 81bc
00000030: 8bf3 85bc 3927 6dbd ca9f 7fbd 97fa 823d
00000040: 5950 07bd 1e9d 243c 05a9 263c d971 813d
00000050: 2550 8b3c edb7 87bc 031e 70bc 5e58 a7bc
00000060: be02 e4bc f884 1cbd 24fe a0bc 9146 b5bc
00000070: debb 743c ed31 3e3c 7771 aa3c 6ab5 fa3c
00000080: f960 7a3d c8fe 8fbb 0f76 003d d1eb 9d3c
00000090: 9693 2bbd 4859 14bd e0be 423d c716 603b
000000a0: 929e 81bd ebdc 1abd b72a 40bd eec4 9f3c
000000b0: 759c 6dbd d68d 80bd 2584 77bc 5861 df3c
000000c0: 552b dc3c c423 4abc a05d 14bd 267d 563c
000000d0: 394e 3dbd 183a 14bd e150 583b 08a9 d2b9
000000e0: 431f f3bc 314e 25bc 3a19 fd3c b3ba c7bc
000000f0: 71f6 943c f56a 683c dacc 183d 6926 15bd
00000100: fc95 d1bc a77d 483c 6e35 b4bb 5302 a63c
00000110: c254 d7bc 7276 143d 221c c33c d0e9 30bc
00000120: 675c 753c dc32 c5bc 77e8 853d a71e 993c
00000130: fee1 cc3c ed99 963c a746 e9bc 606f bebc
00000140: 3c2b d33c 8b50 fb3b b21a eb3c dba7 33bd
00000150: 1d5a 5dbc ff1e 58bc d9d5 0fbd cb7d eb3b
00000160: 9c3d 5d3c b755 173d a948 4639 d4a4 ad3b
00000170: f04d 3e3c ab0d 3fbc 9919 27bd 13ad 06bc
00000180: 08b5 df3c 7dbc 2a3d 6f79 933c a535 90bc
00000190: 085a 8ebb 870a 50bd 0a36 233c fae2 fd39
000001a0: 24c8 973c 7d06 a73c 3831 0d3c 0d98 6a3b
000001b0: e008 2ebc 528a 0d3d 96bf 81bc 970c 6c39
000001c0: 53b0 2b3d fcc5 54bd 2413 55ba 22dc e5bc
000001d0: 20c0 023d 9369 a33b 6c0c aabc 59ad c9bc
000001e0: 7510 1dbc a163 85b8 f712 423d a85d 1a3b
000001f0: 792a 84bd 41de 2d3d cb4c 293b fc66 18bd
00000200: 4461 5abd 0fea 40bd 1e9a 063d 2f99 2a3d
00000210: 593b 413d 7a31 52bd 6c60 403d 2dd6 0abb
00000220: 4468 45bd 9872 6a3c b683 a93d 8a97 da3a
00000230: e50a 25bd d364 7c3c 5e1d 4ebc 1571 a6bc
00000240: 26fe a9bd 0e20 3d3d 7fac 803c 9647 b4bc
00000250: 92b2 0fbd effe 493d ec77 57bc 894f fdbb
00000260: 3152 8dbc 1044 eb3c 6e6c 08bd 246a bc3c
00000270: 6b1d 643b f757 3c3b bc2d ddbc 949d 713d
00000280: 4b62 19bd 768e 863c 8341 1f3d b2bb 593c
00000290: c765 94bd 16d1 2cbc e2bf 443d efed 9fbd
000002a0: 562e 993c 7c2a 82bd c251 2a3c 12d0 3c3d
000002b0: 7b7c 333d bd19 9cbc edfb 703c 7f77 453b
000002c0: a881 b63c 39ae 5d3c 0b7c f63b 4119 3ebc
000002d0: d37e ccbb fd51 5a3b 1fd3 76bc 12fb 82bb
000002e0: f5a2 9dbc d681 60bb 5c43 693c d3f9 6f3c
000002f0: 2660 14bd 0791 ec3c 28fd 67bd 8214 4b3d
00000300: 91ea 8d3c 0b7e 723c 6f6b 6abd 1c73 47bd
00000310: 4a6c d13c 7b45 79bc 2801 84bc 70df 1b3d
00000320: 285b 9b3c ff80 2d3c bd78 e43a 433c e5bc
00000330: 4737 3d3c e881 6f3d 2cce 1abd f6ae 823c
00000340: f3c3 72bc 5125 96bc 7518 123b 7da3 dc3a
00000350: 4254 0a3d 26d9 69bd 1553 54bd 99c4 573c
00000360: e69b 80bb 23d6 023d 709b ea3b 47b8 043d
00000370: 51f4 273d e47e 69bc 9701 463d 0bcb 1dbc
00000380: 30b2 a9bc 57bc 8d3d 57ae e43c 0b71 713c
00000390: e8a8 02bd 7fe5 18bc 93d2 acbd 7f45 683d
000003a0: 77a7 9dbc 8914 2ebd 6522 89bd 3a69 85bc
000003b0: 3435 61bd bc4f 483c 7c6b 0c3d d92d 08bd
000003c0: 1da9 713d 3f29 613c a6d0 56bc 57d2 7fbc
000003d0: 3c44 cb3c 699e 4f3c d808 933b ea4b e63c
000003e0: d592 513d def6 92bc b22d 1cbc 26e7 35bd
000003f0: 5475 b3bb 6a97 5abc 7499 a6bb c97a 77bd
0.051685616 0.004499257 -0.015779302 -0.022587985 -0.0009384464 0.013587192 0.045694422 -0.023343666
0.024045985 -0.01182927 0.0041360627 -0.015837487 -0.016351482 -0.057898734 -0.062408246 0.063954525
-0.03303561 0.010047225 0.010172133 0.06320543 0.01700599 -0.016567195 -0.014655593 -0.020427879
-0.027833339 -0.038212746 -0.019652434 -0.022128375 0.014937369 0.011608583 0.020806057 0.030604083
0.061127637 -0.004394386 0.03136259 0.019277485 -0.041888796 -0.036217958 0.047545314 0.0034193264
-0.06329073 -0.03780834 -0.046915736 0.019503083 -0.058010537 -0.06277053 -0.015107189 0.027268097
0.026876131 -0.012337629 -0.0362221 0.013091361 -0.046217177 -0.036188215 0.0033007192 -0.0004018026
-0.029677993 -0.010089443 0.030895818 -0.024381017 0.018183919 0.014185657 0.037304737 -0.036413584
-0.025584213 0.012236989 -0.0054995334 0.02026478 -0.026285533 0.03624577 0.023817126 -0.010797933
0.014975644 -0.024072103 0.0653848 0.018691374 0.025010105 0.018383944 -0.028476072 -0.023246467
0.025777452 0.0076695136 0.028699253 -0.04386125 -0.013510254 -0.013190984 -0.03511605 0.0071866265
0.013503458 0.03694698 0.0001890982 0.00529919 0.011615261 -0.011660974 -0.040795896 -0.008219975
0.027308002 0.041683663 0.01800224 -0.017603705 -0.0043442287 -0.05079129 0.009961614 0.0004842503
0.018528052 0.020388836 0.008617692 0.0035796196 -0.010622233 0.03455574 -0.015838426 0.00022511404
0.041916203 -0.051946625 -0.00081281574 -0.028059069 0.031921506 0.0049869507 -0.020757876 -0.024618791
-0.009586443 -6.3604915e-05 0.047381368 0.0023554359 -0.064534135 0.042448286 0.0025833126 -0.03720759
-0.053315416 -0.047098216 0.03286182 0.041649994 0.04717574 -0.051316716 0.046966955 -0.0021184788
-0.04819514 0.014309548 0.08277075 0.0016677242 -0.040293593 0.015404898 -0.012580244 -0.020317594
-0.08300428 0.046173148 0.015707253 -0.022006791 -0.035082407 0.04931539 -0.01315115 -0.0077304286
-0.017251106 0.028718978 -0.03330653 0.02299983 0.0034807574 0.0028738955 -0.026999347 0.05898817
-0.037447255 0.016425353 0.038880836 0.013289379 -0.07245975 -0.010547897 0.048034556 -0.07809054
0.018698853 -0.063557595 0.010395469 0.04609687 0.043819886 -0.019055242 0.014708501 0.003013104
0.022278622 0.013530307 0.0075221113 -0.011602701 -0.0062407046 0.003331303 -0.015064984 -0.003997215
-0.019242743 -0.0034257076 0.014237251 0.014646965 -0.036224507 0.028877748 -0.056637913 0.049580105
0.017323764 0.014800559 -0.057231363 -0.04869376 0.025564332 -0.015214319 -0.016113833 0.038054883
0.018964365 0.010589837 0.0017431002 -0.027982837 0.011548824 0.058473498 -0.037794277 0.015952569
-0.014817226 -0.01832834 0.002229241 0.0016833391 0.03377176 -0.057091855 -0.051837046 0.013169431
-0.0039248345 0.031942498 0.007159643 0.032402303 0.041004483 -0.0142514445 0.04834136 -0.009630929
-0.02071485 0.069206886 0.027915163 0.014736424 -0.031899363 -0.00933206 -0.08438601 0.0567069
-0.019244893 -0.042500053 -0.06696013 -0.016285527 -0.05498238 0.012226041 0.034282193 -0.03324685
0.05899917 0.013742744 -0.013111269 -0.015614114 0.02481281 0.012672045 0.0044871382 0.02811237
0.05116542 -0.017939981 -0.009532379 -0.044409893 -0.005476633 -0.013341764 -0.005084211 -0.06041983

linear.bias f4 [256]
00000000: d6da 8a3b 77ed f7bc 5acd 06bc 0fe2 de3b
00000010: eb35 e9ba 60ef ce3c 41ce 4abb 7676 aa3b
00000020: 703c 48bd b373 193c 0ac3 823c 04c6 073c
00000030: e739 b33c a8b9 94bc 30c2 aebb 5d62 2dbd
00000040: d1ce c53c aeeb 293d c174 84bc 6963 873c
00000050: 4933 93bb 2c20 43ba 0ab8 98bc bd97 6cbd
00000060: 41ba 30bd c88d a33b 1767 6dbd e47f 0c3d
00000070: 53fc 8cbb 0bb7 ebbc af9c 67bc 13c8 8b3c
00000080: a37e 9f3c fac3 af3c 4469 14bd 567b 08bd
00000090: eed9 643c 7577 3fbd 2f10 0d3d b5cf 71bd
000000a0: 8395 c4ba 937d d0bc 6eea e93b dd0f 893c
000000b0: ae8d c53c 9322 f43b e880 743d 2f03 023d
000000c0: 3191 323b d742 ea3b 0be9 11bd 3e20 10bc
000000d0: 274e 4bbd 1241 36bc 6de2 dfbc 2187 22bd
000000e0: e40d abbc 525f 1c3c 2b37 813c 73fc ed3c
000000f0: cf2e c4bc cdd4 a33b 5e78 213d 6138 5a3c
00000100: 8788 f8bb 5eda b23c a542 adbc c19c 2cbd
00000110: 49df dbbb ba20 9fbb 5c0d 213c 0306 333c
00000120: e42f bb3a 4ea9 ff3b 061f 16bd 1299 023d
00000130: d2cc bcbc aa83 1f3d 46e9 4dbd 3907 033c
00000140: 77f9 9dbc 5a02 faba 98d0 ce3c 8503 ed3c
00000150: 34da 723c b6d2 31bd d0ce 3bbd b66e 2b3c
00000160: bdcc 04bc 9fa8 e33c 42af 4d3c bfb0 a3bc
00000170: 4977 09bd b0ec 56bd 9128 d0bc 74ed eebc
00000180: 8b56 813c 17af 213c 5aee e1bc 9bce 083c
00000190: f2df 123d e56b 213b b611 2cbd 2c6d 65bd
000001a0: 9a83 573a 1255 a43c b28e e23c 2458 efbb
000001b0: 932a 93b8 7993 babc 2d99 553d 6d8d 303c
000001c0: 2d5c 853c fde2 6bbc 8fb9 b63a 43c0 1b3a
000001d0: 58d6 b2bc 9508 653c 9219 ec3b eabd c6bc
000001e0: 284c 5e3d 772d 0f3d 8415 48bd 1bc7 dd3b
000001f0: 601b 003c 36f3 0bbd 840d b43b 954f ba3b
00000200: c726 803b ac20 e6bc a812 1cbc e544 9bbc
00000210: 60a3 873c ffda 67bc 2fb0 a3bc f42f 58bd
00000220: a04e 6bbc 7de4 88bc c929 593d 1587 ae3c
00000230: 5b1b 863d f2fb 3cbd 29f7 973c bcb9 163b
00000240: 15f0 8fbb 2c94 623c d7e4 83bb 8088 07bd
00000250: 603f 08bd 74f4 39bc 1339 543d 1a46 4d3d
00000260: 61cb 5fbd 1a61 593d 260e 053d b2eb 233c
00000270: bfba 5e3c 05a7 4abc a4ce 41bc 56e3 62bd
00000280: da32 a7bb ebc5 87bd 5570 ddbb aca4 3a3d
00000290: 6d6a fbbc 1894 243c 07fc ce3c da70 0e3d
000002a0: 5eba 313b f09a 3bbd 08c0 663c 1552 0ebd
000002b0: 2f39 a2bb 64bf ba3c 873e f6bb c94c 293b
000002c0: 42a2 68bc f787 343d 4115 55bd 6719 113b
000002d0: 2ce0 713d 2411 86bb 285c 383c 5bc2 acbc
000002e0: 6ac1 af3b 2afe 3fbd dfa5 35bc 851c 43bc
000002f0: e3a0 493c 9736 883c cf46 4e3d 910e 133d
00000300: 5fc1 9bbb 418f 363d 7be2 2d3b 34c9 13bb
00000310: 9d2e 1d3d 983c 57bc 2a39 e9bc d781 85bc
00000320: 91e0 89bc f962 0a3c 8a6f 29bc 0e5b 003d
00000330: b951 9cbb 0756 3dbc e5f0 7d3d b56e d6bb
00000340: 347a 58bc aee2 81bd 6299 643d 1ae2 183c
00000350: 8488 a6bc 7f51 913b e61c c9bb 178e 69bd
00000360: 7140 70bd 8094 c1bc 9fb6 e2ba fb24 093d
00000370: 2166 ff3a 46b7 23bd fe37 89bd f9aa 1fbc
00000380: 92c4 0ebc 93bd a0bc a12f ba3b fd01 bfbb
00000390: 743b e43c 0b01 783d d5fb 06bd f177 82bc
000003a0: a9fa 023c d429 753c 0996 92bc 0a7c ec3c
000003b0: a6b9 833a 7628 85bd ca8e 0c3d dfa2 1cbd
000003c0: fc2c 32bc e238 873a f127 053d db36 2bbd
000003d0: 8308 1d3d 059a 633b 3680 e4bc e075 fcbb
000003e0: ad39 efbc 8656 fa3b 47d3 a23c e4d6 393d
000003f0: bf27 28bc 7306 36bd bb61 aaba 59eb 7bbd
0.004237513 -0.0302646 -0.008227671 0.0068018506 -0.0017792558 0.025260627 -0.003094569 0.00520211
-0.048885763 0.009365964 0.015962142 0.008286957 0.021878196 -0.018154934 -0.0053332075 -0.042330135
0.02414647 0.041484527 -0.016168954 0.016526895 -0.0044921977 -0.00074434537 -0.018642444 -0.057761896
-0.043146376 0.004991267 -0.057959642 0.034301654 -0.0043025403 -0.028773805 -0.014136477 0.017063176
0.019469565 0.021455754 -0.0362332 -0.033320747 0.013967974 -0.046744782 0.034439262 -0.059035975
-0.0014998171 -0.025450503 0.007138542 0.016731197 0.02411541 0.0074504106 0.059693247 0.031741317
0.0027247185 0.007149081 -0.035622638 -0.00879675 -0.04963508 -0.011123912 -0.027329648 -0.03967965
-0.020880647 0.0095442105 0.015773376 0.029051041 -0.023948101 0.004999733 0.03942143 0.013319106
-0.0075846347 0.021832641 -0.021149943 -0.04214168 -0.0067099673 -0.004856196 0.009829845 0.010926726
0.001428124 0.007802165 -0.03665068 0.03188426 -0.023046885 0.038943924 -0.050271295 0.0079973275
-0.019283993 -0.0019074187 0.02524595 0.028932342 0.0148225315 -0.04341384 -0.04585153 0.010463407
-0.008105454 0.027790366 0.012553992 -0.01998174 -0.033561025 -0.052471817 -0.025409969 -0.02916596
0.015788337 0.009868405 -0.027579475 0.00835004 0.035858102 0.002463096 -0.042009078 -0.056012318
0.0008221209 0.020060096 0.027655933 -0.0073042084 -7.017436e-05 -0.022775399 0.052148033 0.010775906
0.016279304 -0.01439738 0.0013940799 0.000594143 -0.021830723 0.013979097 0.0072051967 -0.02426048
0.054271847 0.034955468 -0.048848644 0.00676812 0.007819027 -0.03416749 0.0054947753 0.0056857564
0.0039108726 -0.028091751 -0.009525932 -0.01895375 0.016557395 -0.014151334 -0.019981472 -0.052780107
-0.014362007 -0.016710514 0.053018365 0.021304647 0.065481864 -0.04613871 0.018550472 0.002299889
-0.0043926337 0.013829272 -0.0040250826 -0.03308916 -0.033263564 -0.011349786 0.051812243 0.050115682
-0.054637317 0.05307112 0.032484196 0.010004925 0.013594328 -0.012368922 -0.011829052 -0.055392586
-0.0051024975 -0.06629547 -0.006757776 0.0455672 -0.030690396 0.010045074 0.02526666 0.034775592
0.002711914 -0.045802057 0.01408387 -0.03474625 -0.0049506645 0.02279634 -0.007514778 0.002583312
-0.0141988415 0.04407498 -0.052022222 0.0022140385 0.059051678 -0.004091399 0.0112524405 -0.02108877
0.005363633 -0.04687325 -0.01108691 -0.011908655 0.012306425 0.016627593 0.050360497 0.035902563
-0.0047532762 0.04457021 0.0026532698 -0.0022550346 0.038374532 -0.013137005 -0.02846964 -0.016297264
-0.016830714 0.0084464485 -0.010341534 0.031336837 -0.0047704843 -0.011556155 0.061997313 -0.006543959
-0.013212729 -0.06342064 0.05581034 0.009331251 -0.020328768 0.004434764 -0.006137478 -0.057020273
-0.058655206 -0.02363038 -0.0017296857 0.033482533 0.0019485393 -0.039969705 -0.06700133 -0.009745353
-0.008713858 -0.019621646 0.0056819473 -0.0058290944 0.02786038 0.06054787 -0.03295501 -0.015926333
0.007994332 0.014963586 -0.017893808 0.02886774 0.0010049834 -0.06501858 0.03431586 -0.038241263
-0.010874983 0.0010316635 0.032508794 -0.04180036 0.038338196 0.0034729254 -0.027893167 -0.0077044815
-0.029202307 0.007639709 0.019876136 0.04537095 -0.010263382 -0.044439744 -0.0012999097 -0.061503742

critic_linear.weight f4 [1, 256]
00000000: 3202 163b 423f 493d 2775 e2bc 0eae 1aba
00000010: 279d 09bc 2ab9 29bd 13cf 893a bb0b 17bd
00000020: 0559 343d a414 f2ba 5164 02ba 658f e5bc
00000030: 1b59 73bc 677d 713c 8c16 c73c 914c 203d
00000040: b57c e1bc 6a83 81bd 717c 69ba f83c 2fbd
00000050: 0b21 8cbb 1bbf ba3c 421d f6bb 17cc 513d
00000060: 59b1 5f3d cb94 e3bc 1d76 5d3d fce8 14bd
00000070: 415f 48bc 22e5 623c 6826 ef3c 6e4f e9bc
00000080: c3a1 ccbc b0fc e1bc 7bb7 233d dbbb 833d
00000090: 240d 6bbc ed2c 063d ee0e 79bd 7352 4a3d
000000a0: 417c e7bb 2ca9 3c3c 7bca 99bc 0183 c2ba
000000b0: 4911 a8bc 2927 dcbc 4081 90bd 5d75 47bd
000000c0: caf1 dbbb 99ea a438 a1d9 053d 9bbc fb3c
000000d0: f58c eb3c a37b 543a 9b8a 1a3d 5bca ec3c
000000e0: 367b 893c dcc6 3b3c 9dd0 17bd 1daf 18bd
000000f0: a5e7 253d 9a9c 333b 57aa 33bd 5ce7 1cbc
00000100: 5e14 8dbc e66d 82bc db65 013d 929e 8c3d
00000110: 6b5d 5a3c 40ba eebc 47bc 1bbd a40f 39bb
00000120: f2be 503c 27a2 c0bc 13fd 403d 4e2a 1abd
00000130: b61b b73c 3ed7 11bd 9ab0 033d d2ee ffbc
00000140: 2671 6bbb d23b 403c 409d 0fbd 9410 b7bc
00000150: 7c43 09bc e951 0e3d b2e7 083d bd22 e7bb
00000160: 676d bdbc db3e 3ebd 6d07 a9bb fb02 443c
00000170: f35c c93c 09e3 7f3d 3f69 603d f1bc 483d
00000180: c49f 2abb 79e6 16bd 13f8 fe3c e94a b73c
00000190: 0153 debc 96f9 8c3b 1e42 3e3d 7e89 4a3d
000001a0: 45b1 27bd a2d9 aebc e8e8 c5bc 839a 173c
000001b0: d884 1ebd a2db 523d 98b2 6ebd 6474 15bc
000001c0: 9113 5d3b cf57 f83b 1a5f a03b 50ce 963c
000001d0: a3b3 303c 7209 27bd a5a8 c8ba 65ab 013c
000001e0: 9b5e 61bd e887 2fbd 3c06 533d cf39 b5ba
000001f0: e7cc e83b 697b 233d 3c0a 0bbc c2b2 99bc
00000200: bccc 1c3c 09a3 9f3c 7b97 6d3b 6ab9 dcbb
00000210: 59a2 e4bb b232 d5bb ec0b 213d 7d98 673d
00000220: a63f 523c 9d5d 053d ebda 95bd 0931 dfbc
00000230: 6c8b 87bd c033 5e3d 89b0 d7bb f5b6 4c3b
00000240: 3b12 093b ad20 92bb 3635 dbbc ca23 0a3d
00000250: 92f9 ae3c 9691 a5bc 19eb 63bd 14f3 49bd
00000260: 7944 523d 022b 6dbd 51e6 1bbd 9404 653b
00000270: cfa8 bbbc c819 95bc 0601 44bc b75c 313d
00000280: 2acf fbba eea4 843d 4ec8 e7bc e1be 13bd
00000290: a0e0 353d 18ed 1e3b 6787 3cbd 5a89 26bd
000002a0: 3bc2 0a3d 9f03 2f3d 3515 eb3b a666 ff3c
000002b0: 42ff 203d e36b 30bd 68b9 dabc 74f7 e03b
000002c0: 7292 293c fba1 82bd d48e 503d b381 aabc
000002d0: 7b6a 5ebd e21c 4639 4e3e bdbc 1a52 d23c
000002e0: 40b8 84bb 7f88 413d f5ba 4c3c 8d72 f038
000002f0: de3c 80bc 6120 88bb 7bef 83bd dd90 2bbd
00000300: 771d e9ba f644 73bd 9841 433a 638c 21ba
00000310: a98e ccbc e663 2e3d 967c c23c 633c e13b
00000320: 62b6 573c 084c c7bb 2b2d a33b 0558 78bd
00000330: b805 bebc 20e1 193b 613b 58bd 940f 783c
00000340: 2116 303d 347e 933d 6428 37bd ecac 29bd
00000350: 8545 31b9 622b b33c 8a96 33bc 61a8 433d
00000360: a2e2 493d 4dfe a23c f2d6 2a3b d1c9 9abc
00000370: cd77 62bc 4732 5f3d 356d 983d d946 983b
00000380: 6294 2c3c b34a 9f3b 5150 1a3d 2014 11bd
00000390: a626 ffbc 65d6 6ebd 4b5e 1a3d 53ce c03b
000003a0: 5c1a f0bb 62f2 38bd ee9a 75bb 5b79 a5bc
000003b0: 4eb1 173c 68df 8a3d e06b debc 6c7a ed3c
000003c0: 0cd7 0e3d 8bd2 b43b c149 06bd 5367 803d
000003d0: fd44 08bd 153d b2bb 85d5 e63b 6aed 71bc
000003e0: 861f 2b3d e85e fd3b ea7b 113b 66c8 04bd
000003f0: f956 1c3c a155 873d 1597 47bd 4b2f 913d
0.0022889492 0.049132593 -0.027643753 -0.000590057 -0.008399284 -0.04143635 0.0010513983 -0.03687642
0.04403021 -0.0018469286 -0.0004974055 -0.028022477 -0.014852787 0.014739371 0.024302743 0.03913552
-0.027525285 -0.06323893 -0.0008906788 -0.042782754 -0.0042764 0.022796204 -0.007510812 0.051220026
0.05461249 -0.027780911 0.05406772 -0.036355004 -0.012229742 0.013848575 0.029193118 -0.028480258
-0.024979478 -0.027586311 0.039969902 0.06432315 -0.014346395 0.03275769 -0.060805254 0.049395036
-0.0070643728 0.011514943 -0.018773308 -0.0014840068 -0.020516055 -0.026874142 -0.070559025 -0.04869591
-0.006712173 7.8638266e-05 0.03267825 0.030729583 0.028753737 0.00081055815 0.03772984 0.028905084
0.016782384 0.011460986 -0.037064184 -0.037276376 0.040504117 0.0027406574 -0.04386362 -0.009576645
-0.017221626 -0.015921544 0.031591278 0.068661824 0.013327937 -0.029141545 -0.038021352 -0.0028238082
0.012740837 -0.02351482 0.04711635 -0.037638 0.02235208 -0.03560566 0.032150842 -0.031241808
-0.0035925596 0.011733012 -0.035062075 -0.022346772 -0.008377906 0.034746084 0.033424087 -0.0070537017
-0.023123456 -0.046446662 -0.005158356 0.011963601 0.024580454 0.062472377 0.05478787 0.049008314
-0.002603517 -0.03684089 0.03112415 0.022374587 -0.027139189 0.004302214 0.046449773 0.04944753
-0.04094054 -0.02134401 -0.02415891 0.009253147 -0.03870091 0.05147899 -0.05827579 -0.009121988
0.0033733586 0.007578827 0.0048941495 0.018408924 0.010785016 -0.040780492 -0.0015309049 0.007914399
-0.055021863 -0.04285422 0.051519617 -0.0013826432 0.0071045044 0.039912615 -0.008486327 -0.018761996
0.009570297 0.01948692 0.003625362 -0.0067359703 -0.006977361 -0.0065062875 0.03931801 0.05654191
0.012832558 0.03255998 -0.07317146 -0.027245061 -0.066183895 0.05424857 -0.006582324 0.003123698
0.0020915407 -0.0044594617 -0.026758771 0.033725537 0.021359239 -0.020211022 -0.05564413 -0.049304083
0.051334832 -0.057902344 -0.038061444 0.0034945356 -0.022907643 -0.01820077 -0.011963135 0.04330131
-0.001921152 0.0647677 -0.028293755 -0.03607071 0.044403672 0.0024250206 -0.046027567 -0.040658332
0.03387664 0.042728063 0.007174159 0.031176876 0.039305933 -0.04307164 -0.026699737 0.006865436
0.010349857 -0.063785516 0.05091746 -0.020813799 -0.054300766 0.00018893511 -0.023100998 0.025673915
-0.0040502846 0.047249313 0.012495746 0.000114654285 -0.015654024 -0.0041542505 -0.06442162 -0.0418862
-0.001778527 -0.05939194 0.0007448434 -0.0006162582 -0.02497037 0.04257574 0.023741048 0.0068736537
0.013166042 -0.0060820617 0.0049797497 -0.060630817 -0.023196086 0.0023480132 -0.052791003 0.015140433
0.042989854 0.07201806 -0.044716254 -0.041424677 -0.00016905933 0.021871272 -0.010961184 0.047768
0.0492884 0.01989665 0.0026068059 -0.018895062 -0.013822508 0.054491308 0.074427046 0.0046471176
0.010533424 0.0048611998 0.037674252 -0.035419583 -0.031146359 -0.05830993 0.03768758 0.0058839708
-0.007327361 -0.04515303 -0.0037476378 -0.020199468 0.009258581 0.067808926 -0.027151048 0.02898904
0.034873053 0.0055182627 -0.03278518 0.062697075 -0.033268917 -0.0054394105 0.0070444965 -0.014766077
0.04177811 0.007732261 0.0022199103 -0.032417677 0.00954222 0.06608129 -0.048728067 0.070890985
