A3C-new/A3C-Pong&breakout-new/runs/PongNoFrameskip-v4/2022-11-02_20-10_Second80MSteps_OK/model_sam_BreakoutDeterministic-v4_conv.54.tar (torch, 947003 bytes, 13 tensors)

conv1.weight f4 [32, 4, 3, 3]
0.1840245 -0.43186975 -0.050886814 0.01671008 -0.4635772 0.12700613 -0.1997312 -0.02731972
0.17923379 0.14710233 0.32173958 0.062332094 0.24306165 0.25704083 0.22724281 -0.09526051
0.18791758 0.38460964 0.17184867 -0.039019782 -0.14366657 0.013850513 -0.121843055 0.043383967
-0.054554082 -0.09162784 0.23852164 0.07704431 -0.27891874 0.009534209 0.03252272 0.07094088
0.07472196 -0.3027636 -0.25474393 -0.0026879758 0.3807724 0.13475719 -0.1332613 0.12894225
0.7180015 -0.32716128 0.15217808 0.3878372 -0.068248585 0.15732695 -0.22094421 -0.07929328
-0.08880003 0.10994847 -0.30738646 -0.25002804 0.12996438 0.068220906 0.1934854 0.21333896
-0.18634309 -0.15281889 0.30578747 -0.07920631 -0.37927565 0.24020177 0.03635301 0.17927746
-0.2575061 -0.22141615 -0.022874104 0.080433756 -0.2682761 -0.33066404 0.18361643 -0.20683822
-0.044293806 0.36713478 0.00066245603 0.18618238 0.6676715 -0.30928656 -0.11226198 0.4671414
-0.18352291 -0.22322544 -0.051414523 -0.39435202 0.20385174 0.017972602 -0.97159284 0.14752351
-0.10002404 -0.37810978 -0.049458284 -0.08765915 0.024832742 0.106876954 -0.07075712 -0.49504876
-0.025135826 0.01936708 -0.20241623 0.0050170887 0.43756112 -0.009384197 0.271208 0.36602017
-0.1382359 -0.105466045 0.42548713 0.080263026 0.34254995 0.26079097 0.2400284 0.4346838
0.84367996 0.16634694 0.15514074 0.5856953 0.36223352 0.14465816 -0.2502255 -0.12574501
-0.061344456 0.0062708473 0.14493324 -0.14786029 0.12498513 -0.24250288 -0.3143263 -0.28052458
0.06603925 -0.106335714 -0.26668048 0.024381671 -0.07224964 -0.11487582 -0.08257468 -0.012844611
-0.06998013 0.013771274 -0.4212225 -0.31487733 -0.010645815 -0.24621594 -0.21251474 -0.026794797
0.16642691 0.19609503 -0.07740969 0.07891792 0.40633452 0.20510185 -0.14972551 0.27268228
0.27203077 -0.11073899 -0.5132924 -0.2635437 -0.34268698 -0.44422805 0.0027794375 -0.25904214
-0.557518 0.3363342 0.16948743 0.29987347 -0.3381307 0.022821823 -0.099066265 -0.096879266
-0.12989765 -0.18111354 0.0549934 0.24106127 0.2561362 -0.027735662 0.26279402 0.31144604
0.13203494 0.11414299 -0.06379225 0.22557156 -0.017382441 -0.30807385 -0.26698503 -0.29689893
-0.38944563 0.21840197 -0.38705444 -0.4778675 -0.07483967 -0.1425856 0.076649725 0.061299305
-0.2699713 0.19670165 0.4199949 -0.19140317 0.13546908 0.19149917 0.33525708 -0.02531108
0.03167499 0.1344869 0.41059062 0.024375712 0.32876074 0.073450506 -0.057261124 0.16651896
0.06759631 0.0061267912 0.057090327 0.18102269 -0.14086877 0.27925807 0.1794497 0.09554341
0.17009187 -0.35366064 0.008539244 0.11991219 -0.045422275 0.27023873 -0.3163101 -0.09567857
0.34934825 -0.007113544 0.15597315 0.028472893 0.2818155 0.80717844 -0.35853505 -0.15219167
0.5386328 -0.2765985 -0.11114992 0.08052394 -0.20440564 0.31516337 0.24538976 -0.52619773
-0.16527708 0.16815497 -0.17595077 0.026401307 -0.06359026 0.053167112 -0.20825903 -0.08208176
-0.22268634 0.16245143 0.1951652 -0.18548004 -0.017387126 -0.20929006 0.45904738 -0.12636384
00000000: eb70 3c3e 081e ddbe b16e 50bd 94e3 883c
00000010: fe59 edbe e50d 023e 5686 4cbe 9bcd dfbc
00000020: 1089 373e fea1 163e 0dbb a43e f04f 7f3d
00000030: 27e5 783e db9a 833e 57b2 683e f117 c3bd
00000040: 776d 403e 8eeb c43e 19f9 2f3e 35d3 1fbd
00000050: 541d 13be 43ed 623c da88 f9bd 63b3 313d
00000060: 1a74 5fbd 61a7 bbbd 043f 743e 68c9 9d3d
00000070: 70ce 8ebe 5f35 1c3c 8b36 053d 7449 913d
00000080: d407 993d d503 9bbe cc6d 82be c028 30bb
00000090: 9af4 c23e cafd 093e a675 08be 7009 043e
000000a0: f2ce 373f af81 a7be 92d4 1b3e 9992 c63e
000000b0: eac5 8bbd 511a 213e 333f 62be 8464 a2bd
000000c0: cadc b5bd aa2c e13d c261 9dbe ad03 80be
000000d0: 6215 053e 67b7 8b3d 0921 463e 8775 5a3e
000000e0: b9d0 3ebe 8e7c 1cbe 2d90 9c3e eb36 a2bd
000000f0: 6b30 c2be 74f7 753e e5e6 143d 8394 373e
00000100: d7d7 83be eaba 62be 7962 bbbc 74ba a43d
00000110: 7c5b 89be cc4c a9be f205 3c3e 66cd 53be
00000120: 6c6d 35bd 17f9 bb3e aca8 2d3a 98a6 3e3e
00000130: 85ec 2a3f cf5a 9ebe 9ce9 e5bd 282d ef3e
00000140: 6eed 3bbe 3695 64be 0998 52bd 82e8 c9be
00000150: 83be 503e 473b 933c 4fba 78bf 6710 173e
00000160: 67d9 ccbd 9b97 c1be c594 4abd a486 b3bd
00000170: 096e cb3c 4ee2 da3d 1ce9 90bd 0877 fdbe
00000180: a6e9 cdbc b6a7 9e3c 3346 4fbe 6466 a43b
00000190: 0308 e03e 2dc0 19bc c6db 8a3e ff66 bb3e
000001a0: b68d 0dbe 95fe d7bd 73d9 d93e f160 a43d
000001b0: b562 af3e 6586 853e 01ca 753e e08e de3e
000001c0: 69fb 573f da56 2a3e 37dd 1e3e 21f0 153f
000001d0: ac76 b93e 4521 143e 8f1d 80be 4dc3 00be
000001e0: 5344 7bbd ae7b cd3b 6169 143e b068 17be
000001f0: 34f8 ff3d ad52 78be 60ef a0be eba0 8fbe
00000200: 963f 873d 8ac6 d9bd 588a 88be 12bc c73c
00000210: 9ff7 93bd 0444 ebbd ea1c a9bd 3472 52bc
00000220: be51 8fbd e9a0 613c 7aaa d7be 9a37 a1be
00000230: c96b 2ebc 0820 7cbe 779d 59be c380 dbbc
00000240: d16b 2a3e 23cd 483e f988 9ebd b89f a13d
00000250: 140b d03e 3806 523e a551 19be 039d 8b3e
00000260: 9e47 8b3e 20cb e2bd 2167 03bf 33ef 86be
00000270: ab74 afbe dc71 e3be 3927 363b 2ca1 84be
00000280: 80b9 0ebf ff33 ac3e 1d8e 2d3e 0489 993e
00000290: 781f adbe d5f4 ba3c 41e3 cabd a368 c6bd
000002a0: e403 05be d475 39be c240 613d c4d8 763e
000002b0: 4924 833e e635 e3bc f08c 863e db75 9f3e
000002c0: 2b34 073e cdc3 e93d 83a5 82bd 3bfc 663e
000002d0: 9f65 8ebc dbbb 9dbe 43b2 88be 2303 98be
000002e0: 6b65 c7be c4a4 5f3e 002c c6be 0dab f4be
000002f0: 8a45 99bd f601 12be 88fa 9c3d fb14 7b3d
00000300: ae39 8abe 286c 493e 9209 d73e 31ff 43be
00000310: 68b8 0a3e 5c18 443e d1a6 ab3e 2f59 cfbc
00000320: a2bd 013d efb6 093e ef38 d23e 93af c73c
00000330: 5453 a83e 386d 963d a48a 6abd f283 2a3e
00000340: ef6f 8a3d 40c3 c83b 8cd7 693d 035e 393e
00000350: e73f 10be eafa 8e3e aac1 373e 43ac c33d
00000360: 902c 2e3e 0213 b5be 2fe8 0b3c 8694 f53d
00000370: b50c 3abd bb5c 8a3e 66f3 a1be 20f3 c3bd
00000380: c6dd b23e bb18 e9bb 6db7 1f3e fc3f e93c
00000390: 1f4a 903e 3fa3 4e3f e891 b7be 22d8 1bbe
000003a0: d7e3 093f 529e 8dbe 92a2 e3bd bce9 a43d
000003b0: b64f 51be 185d a13e 7447 7b3e e5b4 06bf
000003c0: 653e 29be d130 2c3e 702c 34be 8e47 d83c
000003d0: 9c3b 82bd c2c5 593d db41 55be 7b1a a8bd
000003e0: e307 64be ab59 263e 63d9 473e 7bee 3dbe
000003f0: 726f 8ebc 2250 56be 4208 eb3e 8665 01be

conv1.bias f4 [32]
-0.17141376 -0.10624357 0.068427734 -0.1745779 -0.11044491 -0.19609068 -0.13867866 -0.07897473
-0.28347623 0.010313433 -0.025073444 -0.13400924 -0.25321552 0.26141363 -0.15650268 0.3054435
-0.35371843 -0.30083865 -0.09264064 -0.30519813 -0.010645794 0.03496056 -0.042150926 -0.05251372
0.097240105 -0.05730831 -0.1349987 0.38705862 -0.088115215 0.64631927 -0.06297472 -0.010411426
00000000: 1787 2fbe 3b96 d9bd d723 8c3d 8dc4 32be
00000010: f130 e2bd ffcb 48be c701 0ebe 81bd a1bd
00000020: cc23 91be acf9 283c d366 cdbc b839 09be
00000030: 77a5 81be 02d8 853e 3d42 20be 1763 9c3e
00000040: 951a b5be 8607 9abe 60ba bdbd ee42 9cbe
00000050: b26b 2ebc ce32 0f3d 73a6 2cbd a018 57bd
00000060: d225 c73d 1ebc 6abd 193d 0abe 8c2c c63e
00000070: c075 b4bd 2e75 253f e4f8 80bd b094 2abc

conv2.weight f4 [32, 32, 3, 3]
0.23542929 -0.026534673 0.10957091 -0.018404856 -0.15468366 -0.077778414 -0.011662449 0.007094314
-0.020234928 0.046120226 0.070324525 0.26518482 0.011427237 -0.39981312 0.06999193 -0.26874292
0.26415622 -0.13356462 0.18970576 0.22519627 -0.15382718 0.37598997 -0.1621629 -0.24350479
-0.11699091 0.06238048 -0.09709572 0.030276768 -0.0937433 0.1437788 -0.08486089 -0.06585013
0.25741947 -0.35274953 0.30992058 0.0049068294 0.09549007 0.17291258 -0.20947963 0.041564997
-0.13440713 -0.13472435 0.07031164 0.14320923 -0.037296932 -0.017227655 0.019155456 -0.060837872
-0.0069651017 -0.5259872 0.20183939 -0.050021734 -0.07661046 0.1951919 0.24842733 0.14939567
0.14031655 0.09685231 -0.5987344 0.020238325 -0.20808443 -0.009190327 0.24325223 0.032675833
0.02321324 0.15453088 -0.045561817 -0.037751514 -0.086849205 0.013125404 0.060773987 0.04274541
-0.18194482 0.23614927 0.075795814 -0.12880874 -0.046652574 -0.23078535 -0.00990407 0.021746388
0.29535127 0.0038171427 0.002204795 -0.041522138 -0.11722115 0.24780779 -0.2609033 0.050159536
-0.030952288 0.16282427 -0.0796665 0.022747543 -0.1027901 -0.08400664 -0.30099383 0.19347577
0.002116468 0.123397775 -0.016894827 0.17985839 0.049927253 -0.062990405 0.04506269 0.056393627
-0.17001764 -0.0036224602 -0.038920827 0.058849912 -0.06160756 0.296101 0.05707083 -0.25781253
-0.17309657 0.03008557 -0.011180718 0.124903925 0.013507963 -0.045903213 0.028791325 0.1623878
0.14846995 0.23621134 -0.026493594 -0.10133019 -0.30225083 0.013983957 0.11128557 -0.24887852
0.045989335 -0.031703386 -0.13995552 -0.050264254 0.00041505607 0.29522362 0.008054375 0.2706865
-0.09677481 0.037578136 0.19844267 0.061837398 0.016513385 -0.079183795 0.06571396 -0.30610052
-0.16793934 0.044649567 0.11590963 -0.16667357 -0.16853501 0.24313459 -0.16720465 0.15102689
0.16926435 -0.16101934 -0.0335161 0.16120496 0.0079367645 0.020754492 -0.05032096 -0.032945678
0.019904308 0.1524278 0.05320069 0.19465597 -0.045765664 -0.008480583 -0.33536705 0.19759934
-0.25597125 -0.05729805 0.14365534 -0.1630636 0.034638193 0.019545292 -0.38228747 0.017843401
0.06709507 0.07032529 -0.19605798 0.20583566 0.21944271 -0.035415106 -0.028242437 -0.18337306
0.14360262 -0.061947424 0.14239064 -0.033575747 -0.15351598 -0.13875039 -0.12714028 0.33451903
0.02010829 0.0024574096 -0.018702945 0.0981929 -0.021517772 -0.09864755 0.031077683 -0.014834632
-0.0875635 -0.065172985 0.108753085 0.0023604208 0.20838302 -0.18542099 -0.03577406 -0.19065318
-0.17136455 0.1976661 -0.15366969 0.41200164 -0.092488386 0.11065577 0.08103206 -0.056314338
-0.058630988 0.24260801 0.06973665 -0.031800658 -0.044075157 -0.09789656 0.06462089 -0.096386716
0.033067387 0.16363087 0.04152294 -0.2569262 -0.15808171 0.20353226 0.20252182 -0.03352586
-0.020188877 -0.11112622 0.1419703 -0.02476033 -0.31306288 -0.0459721 0.094561554 -0.04207058
0.16264753 -0.08433194 0.032386657 -0.046072356 -0.3080632 0.10757603 -0.38531518 0.54424053
0.090088814 0.2055966 -0.02081105 -0.15221693 0.035262864 -0.2609623 0.246318 0.041720655
00000000: 6014 713e 3e5f d9bc b766 e03d c8c5 96bc
00000010: 6565 1ebe 4a4a 9fbd db13 3fbc 6b77 e83b
00000020: b8c3 a5bc 90e8 3c3d 4e06 903d 4ec6 873e
00000030: 4e39 3b3c 4eb4 ccbe ee57 8f3d ac98 89be
00000040: 7c3f 873e 2ac5 08be 3a42 423e da99 663e
00000050: df84 1dbe c281 c03e 080e 26be 5259 79be
00000060: ee98 efbd ad82 7f3d 1fda c6bd fc06 f83c
00000070: 7dfc bfbd c03a 133e 8ccb adbd 6fdc 86bd
00000080: 7ccc 833e 969b b4be e9ad 9e3e 78c9 a03b
00000090: 4c90 c33d ff0f 313e d481 56be 0f40 2a3d
000000a0: 06a2 09be 2ef5 09be 8dff 8f3d 71a5 123e
000000b0: abc4 18bd 0321 8dbc e7eb 9c3c 2231 79bd
000000c0: 823b e4bb 19a7 06bf fcae 4e3e 97e3 4cbd
000000d0: f2e5 9cbd 63e0 473e bc63 7e3e 2efb 183e
000000e0: 24af 0f3e 815a c63d a846 19bf d8ca a53c
000000f0: 1614 55be 0693 16bc 1d17 793e 18d7 053d
00000100: b129 be3c 583d 1e3e 079f 3abd 55a1 1abd
00000110: ffdd b1bd ef0b 573c 25ee 783d d015 2f3d
00000120: be4f 3abe 1dd1 713e d63a 9b3d 70e6 03be
00000130: c516 3fbd ff52 6cbe ae44 22bc 7b25 b23c
00000140: 4838 973e 0729 7a3b 527e 103b 1e13 2abd
00000150: a411 f0bd 53c1 7d3e 1e95 85be 1674 4d3d
00000160: a78f fdbc 68bb 263e 3128 a3bd 0e59 ba3c
00000170: 9e83 d2bd ac0b acbd dd1b 9abe 831e 463e
00000180: 71b4 0a3b f9b7 fc3d 0567 8abc cc2c 383e
00000190: 8580 4c3d 1d01 81bd a893 383d 01fd 663d
000001a0: 1b19 2ebe cc66 6dbb 726b 1fbd 9b0c 713d
000001b0: 3558 7cbd 8d9a 973e 1ac3 693d 0100 84be
000001c0: 3a40 31be 0376 f63c 552f 37bc a1cd ff3d
000001d0: 8150 5d3c 0205 3cbd c9db eb3c fd48 263e
000001e0: 8208 183e 63e1 713e 1809 d9bc 3486 cfbd
000001f0: 9fc0 9abe f71c 653c b0e9 e33d 03da 7ebe
00000200: 505f 3c3d 69db 01bd 8050 0fbe e4e1 4dbd
00000210: e29b d939 8d27 973e 7ff6 033c 6c97 8a3e
00000220: df31 c6bd 88eb 193d 8e34 4b3e 3649 7d3d
00000230: 1447 873c 1d2b a2bd 0a95 863d 35b9 9cbe
00000240: 4af8 2bbe 77e2 363d 0762 ed3d 7aac 2abe
00000250: 7194 2cbe 46f8 783e b237 2bbe cba6 1a3e
00000260: a253 2d3e 41e2 24be 2e48 09bd ea12 253e
00000270: 3409 023c 5305 aa3c 5a1d 4ebd 0cf2 06bd
00000280: 5c0e a33c 0916 1c3e f7e8 593d e553 473e
00000290: c774 3bbd 25f2 0abc 3bb5 abbe 7b57 4a3e
000002a0: aa0e 83be 5cb1 6abd 631a 133e 25fa 26be
000002b0: c7e0 0d3d 731d a03c 2fbb c3be 532c 923c
000002c0: 2469 893d b506 903d 6cc3 48be 95c6 523e
000002d0: 97b5 603e 6e0f 11bd af5c e7bc 26c6 3bbe
000002e0: 910c 133e 95bc 7dbd dace 113e b986 09bd
000002f0: 4b33 1dbe 9514 0ebe 1031 02be 1446 ab3e
00000300: 24ba a43c 7e0c 213b eb36 99bc 5c19 c93d
00000310: 0a46 b0bc ba07 cabd a096 fe3c f50c 73bc
00000320: 7e54 b3bd 6a79 85bd f0b9 de3d 4ab1 1a3b
00000330: 5c62 553e 00df 3dbe d287 12bd 963a 43be
00000340: 307a 2fbe fb68 4a3e 965b 1dbe e1f1 d23e
00000350: 8d6a bdbd 7e9f e23d 23f4 a53d dda9 66bd
00000360: 0c27 70bd 3c6e 783e 17d2 8e3d 6841 02bd
00000370: 2788 34bd fe7d c8bd f557 843d 6666 c5bd
00000380: ab71 073d da8e 273e f513 2a3d d58b 83be
00000390: 2ce0 21be c36a 503e e161 4f3e 6a52 09bd
000003a0: 2563 a5bc 2596 e3bd aa60 113e 2dd6 cabc
000003b0: c749 a0be 3e4d 3cbd 7da9 c13d 3352 2cbd
000003c0: 138d 263e 39b6 acbd dfa7 043d 5eb6 3cbd
000003d0: 76ba 9dbe d250 dc3d 0848 c5be 5953 0b3f
000003e0: 7c80 b83d ea87 523e ef7b aabc c1de 1bbe
000003f0: cb6f 103d da9c 85be c93a 7c3e 47e3 2a3d

conv2.bias f4 [32]
0.0013409364 -0.005137806 -0.004791764 -0.010359414 -0.0018150768 -0.0077130124 -0.008715946 -0.010843383
0.002439 -0.009050378 -0.0007171637 -0.0006698281 -0.012456124 -0.008096765 -0.013074608 -0.014339829
-0.009392985 -0.008140133 -0.00923538 -0.001026099 0.0015590751 0.005437619 -0.006030392 -0.00023642354
0.0062874006 -0.0063473117 0.0026963751 0.0048688743 -0.0010730786 0.010369073 0.000120483215 0.005325702
00000000: 5cc2 af3a 0a5b a8bb 3b04 9dbb 88ba 29bc
00000010: dfe7 edba 70bd fcbb 54cd 0ebc 72a8 31bc
00000020: a1d7 1f3b 0948 14bc 0b00 3cba 6797 2fba
00000030: c514 4cbc 4ba8 04bc e136 56bc 9af1 6abc
00000040: 09e5 19bc 315e 05bc fe4f 17bc 2b7e 86ba
00000050: e159 cc3a 0e2e b23b 989a c5bb 76e8 77b9
00000060: 8a06 ce3b 1cfd cfbb abb5 303b 148b 9f3b
00000070: 8ba6 8cba 0be3 293c efab fc38 3a83 ae3b

conv3.weight f4 [32, 32, 3, 3]
0.10040973 0.147208 0.06387883 0.056885142 -0.14785905 0.009504114 -0.13153106 0.20421089
0.15098953 -0.17898981 0.04738941 -0.06992311 -0.4331894 0.13443746 0.13665397 -0.26941672
-0.14733063 -0.03465896 -0.32217243 -0.0021574805 -0.030317547 -0.2540357 0.2608138 0.10372705
-0.26293367 0.1613966 -0.1789536 -0.3780301 0.21625456 0.05501443 -0.044371758 0.04847898
0.096306875 -0.26156342 0.1614805 0.0023166267 0.020568656 0.18737324 -0.32148418 -0.3268278
0.15079944 -0.34859657 -0.11716333 0.17778729 -0.04065648 0.14960453 -0.22497828 0.03790885
-0.22354233 0.18307287 -0.009879335 -0.092945956 -0.10636485 0.09252233 0.114146635 -0.094895706
0.21783811 0.06224387 0.22552148 0.17300598 0.20533285 -0.25463024 0.37786865 0.11229049
-0.04612388 -0.018258806 -0.0560885 0.32990026 -0.41799688 -0.36277717 0.123238035 -0.0968988
0.044695996 -0.22327726 0.2807824 0.032832153 0.07803119 0.1773201 -0.096755974 -0.05292494
0.14360614 -0.11391959 -0.0428687 0.06446941 0.03541443 -0.34920624 0.06643507 0.015936285
-0.19487615 0.19142021 -0.23793672 0.037872814 -0.042453546 0.0056312075 0.093286484 0.36705914
-0.025137894 0.07983054 0.00979921 -0.08734366 0.17699637 0.028489549 -0.47114128 0.06731044
0.23595019 -0.11720853 0.09307525 0.21196482 0.3004997 -0.12008202 -0.043430485 0.2320356
0.08205636 -0.28677374 0.0780417 -0.16890712 0.18789178 0.0051608533 0.17569217 -0.1819935
-0.26370123 -0.27184027 0.303594 -0.18480398 0.22585575 0.098501995 0.057661194 -0.17082384
0.05777299 0.033819605 0.017563544 0.044870824 -0.122595415 -0.1447323 0.073161945 -0.083493985
0.13248163 -0.046392173 0.35766438 -0.72763306 0.40693262 0.010545727 0.08011426 -0.08435469
-0.20783973 0.030810036 0.10284408 0.17686965 -0.26012677 0.199447 0.31936166 -0.085994534
-0.242583 0.06290711 0.036713243 0.15716429 0.1301382 0.1053488 0.1344231 -0.2519058
0.12969877 -0.08065056 0.06571826 -0.23123549 -0.0596939 -0.05337486 -0.018323489 0.13098218
0.059207216 -0.08210321 0.15140952 -0.093142256 -0.045139093 -0.21114801 -0.26692238 0.11340967
-0.36742064 -0.16652773 -0.0720303 -0.10564539 -0.1359674 0.0760241 -0.018089728 0.05761689
0.22911745 0.0034445904 -0.055549633 -0.17510647 0.010708251 -0.06778248 0.073013306 -0.10990461
0.3583233 -0.41338956 0.490342 0.1560748 -0.049673386 -0.30380127 0.12772688 -0.19026121
0.1688166 -0.46609962 0.28250846 -0.23281753 -0.07233946 -0.097392954 0.3187025 -0.1208484
0.27080375 0.118714 0.07883176 -0.053147625 0.16595933 0.040860187 -0.10718408 0.09559631
-0.078226626 0.13414893 0.058151428 -0.20970695 0.22728468 -0.0072356625 -0.15678208 -0.18586582
0.21124648 -0.18337366 0.26858523 -0.13059993 0.06390814 -0.6482006 0.3822642 -0.22122732
0.23073858 -0.11796599 -0.2589934 0.045250107 0.26021495 0.05105673 -0.41521648 0.18759069
-0.16571243 0.0796394 0.03023717 0.057573516 0.2724993 -0.051584415 0.26532674 -0.15038122
0.114676096 0.19627249 -0.0027075866 0.1637526 0.012580385 -0.11297084 0.07492974 -0.11656011
00000000: 9ea3 cd3d b2bd 163e e7d2 823d 6500 693d
00000010: 5d68 17be 25b7 1b3c 14b0 06be a91c 513e
00000020: 009d 1a3e 1b49 37be 661b 423d d933 8fbd
00000030: 00cb ddbe f9a9 093e 05ef 0b3e fdf0 89be
00000040: d7dd 16be 8ef6 0dbd c9f3 a4be 8464 0dbb
00000050: 815c f8bc f810 82be 6389 853e d96e d43d
00000060: 3e9f 86be 2645 253e 9d3f 37be 298d c1be
00000070: d671 5d3e d056 613d 29bf 35bd e591 463d
00000080: 8a3c c53d a4eb 85be 255b 253e 8cd2 173b
00000090: 997f a83c c5de 3f3e 9399 a4be f955 a7be
000000a0: 2b6b 1a3e 407b b2be 54f3 efbd df0d 363e
000000b0: 6987 26bd ee31 193e b560 66be 4f46 1b3d
000000c0: 48e8 64be 7477 3b3e efdc 21bc 735a bebd
000000d0: d1d5 d9bd 597c bd3d b6c5 e93d ae58 c2bd
000000e0: f410 5f3e 6ef3 7e3d 1aef 663e 7b28 313e
000000f0: c642 523e e55e 82be 0078 c13e 8ef8 e53d
00000100: 65ec 3cbd 7e93 95bc 0ebd 65bd b0e8 a83e
00000110: b003 d6be eebd b9be 3964 fc3d e172 c6bd
00000120: 2613 373d cba2 64be b6c2 8f3e 027b 063d
00000130: d1ce 9f3d 6693 353e ff27 c6bd d2c7 58bd
00000140: 7d0d 133e ad4e e9bd 1797 2fbd 8a08 843d
00000150: b90e 113d 29cb b2be 1c0f 883d d08c 823c
00000160: 9d8d 47be a903 443e afa5 73be 8620 1b3d
00000170: c5e3 2dbd fe85 b83b fc0c bf3d 2def bb3e
00000180: fced cdbc 327e a33d de8c 203c 3ce1 b2bd
00000190: 893e 353e ea62 e93c 6e39 f1be 0eda 893d
000001a0: ed9c 713e 070b f0bd 3d9e be3d 4e0d 593e
000001b0: 19db 993e 90ed f5bd 2ae4 31bd be9a 6d3e
000001c0: 2a0d a83d 02d4 92be 54d4 9f3d fdf5 2cbe
000001d0: b466 403e 601c a93b a6e8 333e 815c 3abe
000001e0: d903 87be a62e 8bbe ac70 9b3e 413d 3dbe
000001f0: bb46 673e 6abb c93d 252e 6c3d 72ec 2ebe
00000200: 5fa3 6c3d 6d86 0a3d 6ce1 8f3c 78ca 373d
00000210: 4e13 fbbd b434 14be eed5 953d e5fe aabd
00000220: 44a9 073e b805 3ebd c91f b73e 2946 3abf
00000230: 7959 d03e fcc7 2c3c f212 a43d 27c2 acbd
00000240: f0d3 54be 5465 fc3c eb9f d23d 511d 353e
00000250: 562f 85be d63b 4c3e 5f83 a33e e71d b0bd
00000260: ae67 78be 71d5 803d a060 163d adef 203e
00000270: f342 053e 1dc1 d73d 36a6 093e ccf9 80be
00000280: c1cf 043e 1f2c a5bd 4c97 863d ffc8 6cbe
00000290: 9781 74bd 999f 5abd 241b 96bc 3120 063e
000002a0: 4483 723d ba25 a8bd 190b 1b3e 5ec1 bebd
000002b0: c5e3 38bd 2f37 58be 0daa 88be 5443 e83d
000002c0: 8f1e bcbe 3f86 2abe 9f84 93bd 9c5c d8bd
000002d0: 0a3b 0bbe 86b2 9b3d e930 94bc b0ff 6b3d
000002e0: c49d 6a3e a3be 613b 0388 63bd 1c4f 33be
000002f0: a971 2f3c 8ad1 8abd 0088 953d ab15 e1bd
00000300: 2776 b73e cca7 d3be 1b0e fb3e 13d2 1f3e
00000310: 5276 4bbd d78b 9bbe d6ca 023e d6d3 42be
00000320: 42de 2c3e 9ca4 eebe f3a4 903e b867 6ebe
00000330: b626 94bd f575 c7bd f92c a33e 5e7f f7bd
00000340: caa6 8a3e 5320 f33d 8c72 a13d 53b1 59bd
00000350: 3ef1 293e 035d 273d 5483 dbbd 00c8 c33d
00000360: 4835 a0bd 565e 093e 3130 6e3d 6bbd 56be
00000370: 51bd 683e 2319 edbb 7b8b 20be 9c53 3ebe
00000380: ff50 583e 4ec6 3bbe 0184 893e fdbb 05be
00000390: 45e2 823d 79f0 25bf 22b8 c33e 6a89 62be
000003a0: bc46 6c3e 2798 f1bd c89a 84be 2d58 393d
000003b0: e53a 853e dd20 513d 4197 d4be c617 403e
000003c0: 85b0 29be fb19 a33d f1b3 f73c 35d2 6b3d
000003d0: 0785 8b3e 2e4a 53bd e8d8 873e 89fd 19be
000003e0: 4ddb ea3d a8fb 483e c471 31bb c3ae 273e
000003f0: f61d 4e3c 415d e7bd c374 993d 11b7 eebd

conv3.bias f4 [32]
-0.04999183 -0.0068744957 0.001995159 -0.01928522 -0.0066510327 -0.022463523 -0.025709204 -0.0326355
0.006521735 -0.022013977 -0.020724474 -0.019253151 0.014410486 -0.012255898 -0.0037117305 0.000702994
-0.050727934 -0.05994284 0.0064612757 -0.026630681 -0.018988699 -0.04102077 0.002554939 -0.02637423
-0.061531395 -0.04310388 -0.007023741 -0.03950101 0.015908983 -0.039854094 -0.061789744 0.009886381
00000000: 3cc4 4cbd 7343 e1bb 37c1 023b 0afc 9dbc
00000010: e8f0 d9bb 6c05 b8bc 1c9c d2bc cdac 05bd
00000020: 47b4 d53b a856 b4bc 5fc6 a9bc c9b8 9dbc
00000030: f619 6c3c f6cc 48bc 8140 73bb 2149 383a
00000040: 18c8 4fbd a086 75bd 1cb9 d33b 9628 dabc
00000050: 308e 9bbc 6505 28bd c370 273b c50e d8bc
00000060: 5808 7cbd b28d 30bd 6927 e6bb d0cb 21bd
00000070: 8e53 823c 0c3e 23bd 3e17 7dbd 7dfa 213c

conv4.weight f4 [32, 32, 3, 3]
0.050694402 -0.011681262 -0.018422375 0.14814289 0.2794967 0.05767251 0.12637664 0.24901555
-0.045759726 0.0052981046 -0.08916259 0.03848877 0.023270687 0.10108604 0.13184349 0.102822624
0.04419514 0.06581454 -0.030720145 0.1529174 0.021850638 0.01230954 0.14393173 0.030346952
0.044285484 0.15754457 0.053201903 0.054124385 -0.21204768 0.0719888 -0.2913219 -0.20287177
0.086334616 -0.1677376 -0.034630787 0.13655423 0.09221821 0.20603158 -0.05151804 0.14307438
0.15305553 -0.1530472 0.10572156 0.012545333 -0.09271453 0.077397175 -0.05079382 -0.12609342
-0.012087694 0.034701705 -0.1243556 0.06912749 -0.009554828 -0.025637748 0.115769856 0.18758696
-0.24744771 0.09121828 0.36924443 0.0017104745 0.11738717 0.30873573 0.026461935 0.047076575
0.17672907 -0.30171373 0.1949756 0.47406295 -0.40134874 0.25467163 0.08251631 -0.06497267
-0.015341652 0.08731488 -0.052069675 -0.104069225 0.3835454 0.101503044 0.11551151 0.028148316
0.026570862 0.008756915 0.034768403 -0.15076344 0.02517548 0.16964799 -0.15882877 -0.00910893
-0.057596046 -0.18125464 -0.09966194 -0.027119208 -0.0837085 -0.078112066 -0.18573523 -0.10441876
0.25109833 -0.06566292 -0.30569533 -0.017726405 -0.07298995 0.054913126 -0.08107582 -0.19357628
-0.06939485 -0.036814652 -0.15783116 0.07355132 -0.080290906 -0.036241196 0.015980626 -0.310838
0.08434075 0.065720625 -0.15506946 0.17207095 0.08917916 -0.038324494 0.040639363 0.21574211
-0.054654308 0.086056545 0.17795603 0.1549029 -0.10178453 -0.0077042533 -0.03596881 -0.07155616
-0.21464528 -0.19111958 -0.007083943 -0.17793311 0.12972943 -0.004249769 -0.110606894 0.044835467
0.16415428 0.09637998 0.2731133 0.33222696 -0.044197526 0.12581517 0.30708286 -0.077552274
0.099219255 0.085102215 0.117781274 0.082954586 0.15447281 -0.10800255 -0.032122266 0.2907638
-0.1498855 -0.16627067 -0.06471704 -0.07572479 -0.26914433 -0.15474184 0.016501129 -0.10305884
-0.1388483 0.03418115 0.042675946 0.033055287 0.026988663 0.02020728 0.38215578 -0.11410959
0.07957436 0.30703175 -0.06797303 -0.22907203 0.011514251 0.17096461 -0.21784481 0.059505846
0.07283086 -0.37335506 -0.073882334 -0.024264693 0.0382705 0.059982557 -0.058543097 0.14092652
0.1172128 -0.040299512 0.098449364 -0.009575168 -0.07834764 -0.11582344 -0.09787685 -0.0077625182
-0.1125497 -0.102495 0.15510747 -0.044355895 0.002712818 -0.27794158 -0.09936 0.14605749
0.09174557 0.108552955 0.109344356 0.07206296 -0.05629446 0.035287917 0.04014229 0.06877349
0.08486859 -0.10043545 -0.061188158 0.37857857 0.06872644 -0.018953033 0.1597353 0.031393334
0.0021080195 -0.18595211 -0.21252663 0.034687717 0.0022609304 0.048401598 0.059948325 0.12909193
0.26570153 0.014908453 0.025797708 -0.013641988 0.21475156 0.11692351 0.07413524 0.1688042
0.2549576 0.0155208055 -0.072337896 -0.027069708 0.008477516 -0.058513325 0.20681201 -0.031400707
-0.06983226 0.02187175 -0.06762722 0.053023893 0.028051551 -0.08619291 0.11294968 -0.053647593
-0.29331824 0.27210343 -0.108665206 -0.24180782 0.010103078 -0.050867356 0.051044468 0.23183513
00000000: efa4 4f3d c462 3fbc 85ea 96bc c5b2 173e
00000010: 311a 8f3e 033a 6c3d e168 013e effd 7e3e
00000020: 8d6e 3bbd b99b ad3b e09a b6bd 67a6 1d3d
00000030: 2ba2 be3c 3306 cf3d fb01 073e ab94 d23d
00000040: f705 353d c6c9 863d d0a8 fbbc 6196 1c3e
00000050: 1c00 b33c f4ad 493c d762 133e 2c9a f83c
00000060: b264 353d 5d53 213e 3dea 593d 88b1 5d3d
00000070: 0723 59be dd6e 933d 2528 95be 9ebd 4fbe
00000080: 34d0 b03d 68c3 2bbe 03d9 0dbd dfd4 0b3e
00000090: e7dc bc3d f1f9 523e 9504 53bd 1782 123e
000000a0: 97ba 1c3e 68b8 1cbe 8c84 d83d f18a 4d3c
000000b0: 1ee1 bdbd 6982 9e3d 2e0d 50bd a21e 01be
000000c0: 770b 46bc 6023 0e3d 26ae febd b792 8d3d
000000d0: da8b 1cbc 4106 d2bc bf18 ed3d cc16 403e
000000e0: ef62 7dbe a6d0 ba3d 9b0d bd3e 0032 e03a
000000f0: af68 f03d 9c12 9e3e b3c6 d83c 5ed3 403d
00000100: 77f8 343e 397a 9abe afa7 473e 61b8 f23e
00000110: 957d cdbe 5264 823e 50fe a83d 6410 85bd
00000120: 8d5b 7bbc 25d2 b23d 0347 55bd 3f22 d5bd
00000130: 1060 c43e d4e0 cf3d 4c91 ec3d 4c97 e63c
00000140: 23ab d93c 2a79 0f3c 5069 0e3d bb61 1abe
00000150: cf3c ce3c 34b8 2d3e 02a4 22be 9f3d 15bc
00000160: d5e9 6bbd d19a 39be 8f1b ccbd 1a29 debc
00000170: 5d6f abbd 38f9 9fbd 6031 3ebe 81d9 d5bd
00000180: f68f 803e 487a 86bd 1984 9cbe f736 91bc
00000190: c17b 95bd 96ec 603d 140b a6bd dc38 46be
000001a0: e31e 8ebd f6ca 16bd 7e9e 21be 13a2 963d
000001b0: 8f6f a4bd a671 14bd cde9 823c 2926 9fbe
000001c0: d8ba ac3d 8998 863d 87ca 1ebe 5e33 303e
000001d0: 90a3 b63d 25fa 1cbd 7675 263d 80eb 5c3e
000001e0: 32dd 5fbd 6a3e b03d 1b3a 363e de9e 1e3e
000001f0: 6874 d0bd f673 fcbb 0854 13bd 098c 92bd
00000200: f9cb 5bbe dab4 43be 6c20 e8bb 1934 36be
00000210: cbd7 043e a541 8bbb de85 e2bd 65a5 373d
00000220: 0f18 283e de62 c53d 82d5 8b3e a719 aa3e
00000230: 7708 35bd b1d5 003e f739 9d3e bad3 9ebd
00000240: 7733 cb3d 124a ae3d 4f37 f13d 18e4 a93d
00000250: 1f2e 1e3e 7130 ddbd a392 03bd fede 943e
00000260: 967b 19be dc42 2abe 5e8a 84bd 9915 9bbd
00000270: 49cd 89be a574 1ebe 602d 873c 8310 d3bd
00000280: 402e 0ebe 8901 0c3d f9cc 2e3d fb64 073d
00000290: 5417 dd3c bd89 a53c eca9 c33e 4ab2 e9bd
000002a0: e2f7 a23d 4433 9d3e 7235 8bbd dc91 6abe
000002b0: 45a6 3c3c 5911 2f3e b612 5fbe 67bc 733d
000002c0: 5928 953d 6528 bfbe 9f4f 97bd c0c6 c6bc
000002d0: 87c1 1c3d 45b0 753d e3ca 6fbd 0b4f 103e
000002e0: 440d f03d 1a11 25bd d29f c93d 2ae1 1cbc
000002f0: ba74 a0bd d734 edbd a873 c8bd b95c febb
00000300: 7580 e6bd e6e8 d1bd 7ed4 1e3e 87ae 35bd
00000310: 89c9 313b 5c4e 8ebe 417d cbbd 1890 153e
00000320: 1ae5 bb3d 0351 de3d efef df3d bf95 933d
00000330: 0595 66bd 108a 103d 3e6c 243d 1ed9 8c3d
00000340: 95cf ad3d 1ab1 cdbd 6fa0 7abd 0dd5 c13e
00000350: 73c0 8c3d 6443 9bbc a791 233e 4c96 003d
00000360: b326 0a3b 3b6a 3ebe 95a0 59be b514 0e3d
00000370: 1e2c 143b c140 463d 608c 753d ad30 043e
00000380: 080a 883e 9642 743c b755 d33c a582 5fbc
00000390: d5e7 5b3e 9875 ef3d 37d4 973d 02db 2c3e
000003a0: cd89 823e fa4a 7e3c e425 94bd 4bc1 ddbc
000003b0: 47e5 0a3c abab 6fbd 87c6 533e 079e 00bd
000003c0: 3704 8fbd 622c b33c 2480 8abd 952f 593d
000003d0: 5ecc e53c e985 b0bd 2952 e73d 94bd 5bbd
000003e0: cf2d 96be 2451 8b3e dd8b debd 789c 77be
000003f0: 6187 253c 4a5a 50bd 0114 513d 3066 6d3e

conv4.bias f4 [32]
0.013590165 -0.04004255 0.00066048926 0.03835305 0.037260707 0.006812936 0.09110665 -0.017238379
0.085258596 0.042191137 -0.06349857 -0.037700962 0.0150089385 0.045195363 -0.018449483 -0.07203796
0.12079356 0.14096327 -0.037299592 0.14341088 -0.0049212393 -0.11949567 0.049775597 0.058034703
-0.041776106 -0.100675225 -0.020307612 0.051101077 -0.06902579 -0.093591094 0.0145243015 0.03062479
00000000: 49a9 5e3c a803 24bd af24 2d3a 1618 1d3d
00000010: af9e 183d 0d3f df3b 2096 ba3d 8037 8dbc
00000020: 0f9c ae3d 9dd0 2c3d 8a0b 82bd 536c 1abd
00000030: 0de8 753c c61e 393d 5f23 97bc a388 93bd
00000040: 9d62 f73d ad58 103e 75c7 18bd 4dda 123e
00000050: 5942 a1bb 25ba f4bd 7fe1 4b3d ccb5 6d3d
00000060: 6c1d 2bbd d02e cebd 265c a6bc 5d4f 513d
00000070: 655d 8dbd b0ac bfbd 56f7 6d3c d7e0 fa3c

linear.weight f4 [256, 800]
0.11919948 -0.055325728 0.017909262 0.0517098 -0.27819192 -0.025772052 0.06862644 0.09481809
0.09341268 -0.08735254 0.027255287 -0.13910693 0.052633487 0.06430132 -0.09572895 -0.008338828
-0.03567526 0.003513576 -0.103352435 -0.09487129 0.11090839 -0.1359721 -0.31093046 -0.47850847
-0.09673205 0.050016917 -0.06335995 0.015425041 0.07353676 0.37399456 0.0991681 -0.028887026
0.013408037 0.11483018 0.28669345 0.15642063 0.029108668 0.02242579 -0.000650374 0.24651705
-0.030627491 -0.11740758 -0.013823894 0.075098366 -0.047507755 0.021090975 -0.08152264 0.076178156
0.12025881 -0.03513794 -0.081634305 -0.17621608 0.0012458663 -0.19954161 0.41612652 0.11931905
-0.0075513194 -0.051319666 -0.062266584 0.2734111 -0.08279965 0.123553984 -0.22587028 -0.06891595
0.12054087 0.0673178 0.26588973 0.09389808 0.027974006 0.010737871 0.048358373 0.3900153
-0.25528464 -0.110256135 -0.25826353 0.2107874 0.12651354 0.029215412 0.059875324 -0.15403473
-0.022740204 0.22057706 0.011671277 0.013243958 -0.09410131 -0.18134981 0.12567902 0.031857397
0.017721517 -0.10797071 0.103151254 0.17295901 0.11027906 0.0050807665 -0.12297419 -0.12744682
0.0852248 -0.028201059 0.0038288285 -0.18276541 -0.10818349 -0.052758597 -0.09358041 0.01616432
-0.101394735 0.073003426 -0.07948102 -0.10036489 -0.10603164 0.07996699 0.07393239 -0.029575702
-0.069827996 0.013812528 -0.08665455 -0.08968358 0.1138856 0.14412655 0.17645232 -0.14753439
0.13850074 -0.35043693 -0.017438224 -0.11514395 0.0074335462 -0.1055754 -0.07804479 -0.042193547
0.010586579 0.022013785 0.012139949 -0.039162584 -0.05700824 0.006319361 0.3017821 -0.04932975
-0.15188049 -0.013509443 0.0608514 0.4516934 -0.034846637 0.053851373 0.055415083 0.022020303
0.14112577 0.07412386 0.043365005 -0.2536167 -0.08247014 0.0869323 0.17776743 -0.13204494
-0.079110034 -0.016574157 0.1674944 0.1839545 -0.18590045 -0.04253542 -0.00660935 -0.062443875
-0.08588677 0.09920723 -0.04526888 -0.07904093 -0.048131254 -0.01879508 0.19977532 -0.0077218306
-0.13083042 -0.0013983403 0.0016130866 -0.23662914 -0.08491029 -0.19872645 0.00550567 0.12500732
-0.0009917095 -0.04831434 0.11171722 -0.019641453 0.08514091 0.14352897 0.0683706 0.15362689
0.06998078 -0.14727557 0.22766238 -3.514433e-05 -0.02576159 -0.016181009 -0.078045875 0.09378436
-0.11522308 -0.156774 0.044607237 -0.02412961 0.3801885 -0.1264152 0.13905829 -0.024596833
-0.082792096 -0.11845599 0.0018523937 0.038730666 0.018983955 0.14009593 0.071467884 0.066722274
0.15757327 0.07035581 -0.0030687992 0.030683536 0.10813403 0.063267246 0.06709515 0.030232968
-0.1788858 -0.14965695 -0.10131397 -0.01438899 -0.04406339 -0.13462584 -0.22214322 -0.37302515
0.01940719 -0.16421723 -0.07641355 -0.07283866 -0.13466124 0.10404119 -0.08309962 -0.023535732
-0.1491042 -0.054555066 -0.079504676 -0.010698924 -0.038064472 -0.100481786 -0.08092287 -0.1141518
-0.027705904 -0.08682236 -0.25628725 0.16158575 0.089035645 0.19955422 -0.09247961 -0.007124597
0.0061061955 -0.10842445 0.07381768 0.07348182 -0.06159687 0.10060436 -0.11288485 -0.18533054
00000000: db1e f43d 3b9d 62bd 72b6 923c a8cd 533d
00000010: 2c6f 8ebe e91f d3bc 058c 8c3d fd2f c23d
00000020: 264f bf3d e3e5 b2bd 7b46 df3c 0c72 0ebe
00000030: 3696 573d 69b0 833d 8a0d c4bd 949f 08bc
00000040: 3920 12bd 0644 663b 71aa d3bd e14b c2bd
00000050: f023 e33d 453c 0bbe 4732 9fbe 10ff f4be
00000060: 741b c6bd 8ade 4c3d ddc2 81bd 50b9 7c3c
00000070: 719a 963d 377c bf3e a518 cb3d 7ca4 ecbc
00000080: 62ad 5b3c 162c eb3d 7cc9 923e bb2c 203e
00000090: 4d75 ee3c 4ab6 b73c dc7d 2aba f76e 7c3e
000000a0: 81e6 fabc 6373 f0bd 9d7d 62bc 2ccd 993d
000000b0: 7e97 42bd fbc6 ac3c 58f5 a6bd 4b03 9c3d
000000c0: 404a f63d cdec 0fbd e32f a7bd fd71 34be
000000d0: 564c a33a a354 4cbe 890e d53e 8c5d f43d
000000e0: 0f71 f7bb 9234 52bd 3f0b 7fbd 8afc 8b3e
000000f0: dd92 a9bd df09 fd3d 8a4a 67be ce23 8dbd
00000100: 22de f63d eadd 893d b322 883e a34d c03d
00000110: be29 e53c e5ed 2f3c 6e13 463d 16b0 c73e
00000120: abb4 82be f8cd e1bd 1e3b 84be a7d8 573e
00000130: c48c 013e 2955 ef3c d43f 753d 48bb 1dbe
00000140: aa49 babc f4de 613e e238 3f3c 30fd 583c
00000150: 30b8 c0bd c4b3 39be 00b2 003e e77c 023d
00000160: b72c 913c bf1f ddbd f740 d33d 2b1c 313e
00000170: fdd9 e13d 8f7c a63b e4d9 fbbd 6b81 02be
00000180: 578a ae3d e805 e7bc 15ed 7a3b db26 3bbe
00000190: 4e8f ddbd 6619 58bd 16a7 bfbd 096b 843c
000001a0: 0ba8 cfbd d282 953d f2c6 a2bd 1c8c cdbd
000001b0: 1e27 d9bd bcc5 a33d dd69 973d be48 f2bc
000001c0: fb01 8fbd f14d 623c f177 b1bd 06ac b7bd
000001d0: da3c e93d e995 133e ebaf 343e 4113 17be
000001e0: 23d3 0d3e 786c b3be 9bda 8ebc 97d0 ebbd
000001f0: 1b95 f33b ea37 d8bd f2d5 9fbd 24d3 2cbd
00000200: 5573 2d3c 4156 b43c a3e6 463c f268 20bd
00000210: 7981 69bd a412 cf3b 2f83 9a3e fe0d 4abd
00000220: 8f86 1bbe b656 5dbc 513f 793d 5b44 e73e
00000230: 59bb 0ebd 4293 5c3d edfa 623d ec63 b43c
00000240: 4683 103e 40ce 973d 819f 313d 0cda 81be
00000250: 1be6 a8bd 9009 b23d aa08 363e ca36 07be
00000260: 7104 a2bd 87c6 87bc a783 2b3e 925e 3c3e
00000270: b05c 3ebe 9f39 2ebd 3f93 d8bb 26c5 7fbd
00000280: 67e5 afbd 292d cb3d dc6b 39bd 36e0 a1bd
00000290: 4725 45bd 24f8 99bc e791 4c3e 6907 fdbb
000002a0: 69f8 05be 8448 b7ba 346e d33a e94e 72be
000002b0: 72e5 adbd f27e 4bbe e868 b43b eb01 003e
000002c0: 40fc 81ba 42e5 45bd ffcb e43d 1de7 a0bc
000002d0: 5c5e ae3d 42f9 123e e305 8c3d 5e50 1d3e
000002e0: 1552 8f3d 68cf 16be 5420 693e f067 13b8
000002f0: f809 d3bc 098e 84bc 84d6 9fbd 0412 c03d
00000300: 14fa ebbd 5d89 20be 14b6 363d 76ab c5bc
00000310: 11a8 c23e fc72 01be 4c65 0e3e 4c7f c9bc
00000320: e78e a9bd 0e99 f2bd 05cc f23a 0ca4 1e3d
00000330: 3d84 9b3c 4f75 0f3e c15d 923d b0a5 883d
00000340: e35a 213e b516 903d e81d 49bb 0a5c fb3c
00000350: 6075 dd3d 4292 813d 2f69 893d 21ab f73c
00000360: d72d 37be ac3f 19be b37d cfbd ccbf 6bbc
00000370: d07b 34bd 5bdb 09be 8379 63be 27fd bebe
00000380: d4fb 9e3c 9028 28be b57e 9cbd 6f2c 95bd
00000390: a3e4 09be 8c13 d53d 2230 aabd 02ce c0bc
000003a0: c5ae 18be 2275 5fbd 59d3 a2bd 8a4a 2fbc
000003b0: 7ee9 1bbd 65c9 cdbd e4ba a5bd 6bc8 e9bd
000003c0: 7ef7 e2bc eccf b1bd 1538 83be bc76 253e
000003d0: 5258 b63d f157 4c3e f365 bdbd 7475 e9bb
000003e0: 7b16 c83b a30d debd b92d 973d a37d 963d
000003f0: 004d 7cbd a909 ce3d 2c30 e7bd 4ac7 3dbe

linear.bias f4 [256]
-0.22913261 -0.13432802 -0.10847906 -0.07786593 -0.065273464 -0.038024485 -0.057877094 -0.11141807
-0.12375609 -0.04040324 -0.013145962 -0.069409415 -0.11439833 -0.08391605 -0.04042861 -0.05550273
-0.26241437 -0.24603242 -0.10789629 -0.11433633 -0.09892647 -0.06712947 -0.0689107 -0.26762852
-0.27408364 -0.3149821 -0.11371032 -0.059611578 -0.08667513 -0.086844474 -0.049049586 -0.093324676
-0.13858521 -0.09228298 -0.2875423 -0.06024249 -0.09456634 -0.072913334 -0.2821312 -0.10517465
-0.25752938 -0.18232903 -0.0671714 -0.0146938665 -0.18183722 -0.08283577 -0.17750458 -0.06164451
-0.091683164 -0.06522298 -0.20565575 -0.061669324 -0.07962153 -0.08821572 -0.0761531 -0.086937495
-0.23259197 -0.040595714 -0.06791138 -0.14361276 -0.05047067 -0.045783244 -0.06825557 -0.034445893
-0.25087553 -0.10159405 -0.06399095 -0.11195543 -0.0033937125 -0.08792187 -0.06325932 -0.18025616
-0.10763681 -0.09001795 -0.063371755 -0.04976266 -0.09776442 -0.019247228 -0.2674476 -0.020286925
-0.10939995 -0.0644218 -0.07668208 -0.08750538 -0.107941315 -0.07715071 -0.061422344 -0.11179796
-0.12476971 -0.07265633 -0.025003688 -0.22779325 -0.07831377 -0.07678156 -0.10167425 -0.0627446
-0.2007664 -0.0786736 -0.07184542 -0.08769614 -0.07941075 -0.08772683 -0.058581 -0.18182248
-0.3594375 -0.11289357 -0.10704824 -0.07125131 -0.043235645 -0.116610155 -0.29992098 -0.08307907
-0.06040864 -0.03749857 -0.055326216 -0.18877186 -0.0661406 -0.0686696 -0.0916799 -0.076089635
-0.2284119 -0.07612108 -0.04570902 -0.05360772 -0.06377186 -0.043711264 -0.36809352 -0.27337563
-0.023231698 -0.08488173 -0.075986944 -0.051142428 -0.05626059 -0.053659733 -0.027128246 -0.15207574
-0.031885248 -0.2890596 -0.21757846 -0.07720963 -0.28707594 -0.29587406 -0.047841053 -0.04773916
-0.15121505 -0.06797362 -0.093163155 -0.15024456 -0.10326942 -0.121915296 -0.11552064 -0.21222255
-0.20919202 -0.2673719 -0.08821567 -0.055831943 -0.069709845 -0.070213184 -0.09019433 -0.04970101
-0.027806642 -0.21018423 -0.08718731 -0.115464635 -0.09481268 -0.07216335 -0.075138964 -0.061018128
-0.021529766 -0.14074907 -0.093924195 -0.16849644 0.007256796 -0.25055847 -0.12185043 -0.051106725
-0.047018286 -0.19517128 -0.115243405 -0.063603096 -0.19232021 -0.27708924 -0.00030893332 -0.09049558
-0.06779203 -0.08968238 -0.020747386 -0.104133464 -0.07943761 -0.07940713 -0.30109197 -0.066216215
-0.07416533 -0.28269225 -0.045192212 -0.03917945 -0.07902646 -0.06204394 -0.06344748 -0.06947354
-0.06980156 -0.0865388 -0.008247788 -0.12312396 -0.13790348 -0.06669528 -0.26178935 -0.05478958
-0.06651464 -0.11805773 -0.21136867 -0.41088057 -0.083662316 -0.11274818 -0.12766193 -0.14787406
-0.014515083 -0.075306855 -0.08610396 -0.07500973 -0.04687994 -0.12123789 -0.15571743 -0.10888459
-0.06535973 -0.040621974 -0.0662244 -0.060702026 -0.061318327 -8.7951914e-05 -0.097166166 -0.06401804
-0.020636156 -0.054007735 -0.13179787 -0.07777748 -0.07545764 -0.19882958 -0.05998035 -0.12839566
-0.07210556 -0.0014227061 -0.05573716 -0.109117635 -0.04613364 -0.097054526 -0.059463505 -0.10934808
-0.076350026 -0.081180505 -0.03702185 -0.2576347 -0.07845651 -0.14205806 -0.11493957 -0.14183575
00000000: bda1 6abe 498d 09be 452a debd 2c78 9fbd
00000010: 18ae 85bd 90bf 1bbd 8810 6dbd 282f e4bd
00000020: d573 fdbd de7d 25bd 2962 57bc 8626 8ebd
00000030: ac49 eabd 2edc abbd 7898 25bd d556 63bd
00000040: 2d5b 86be ecef 7bbe bbf8 dcbd 2a29 eabd
00000050: f699 cabd 2d7b 89bd 0e21 8dbd 9b06 89be
00000060: b154 8cbe 5545 a1be f5e0 e8bd 452b 74bd
00000070: bb82 b1bd 84db b1bd 38e8 48bd 0221 bfbd
00000080: 48e9 0dbe dcfe bcbd bf38 93be d4c0 76bd
00000090: ffab c1bd 9653 95bd 8073 90be cf65 d7bd
000000a0: e4da 83be 76b4 3abe 2991 89bd 8bbe 70bc
000000b0: 8933 3abe cda5 a9bd c3c3 35be f47e 7cbd
000000c0: 62c4 bbbd a093 85bd 6c97 52be f998 7cbd
000000d0: 9d10 a3bd 72aa b4bd 28f6 9bbd 490c b2bd
000000e0: 972c 6ebe b147 26bd 1f15 8bbd 390f 13be
000000f0: 55ba 4ebd 3687 3bbd 94c9 8bbd 2317 0dbd
00000100: c272 80be 8b10 d0bd b00d 83bd e348 e5bd
00000110: 0c69 5ebb 6210 b4bd 1a8e 81bd 1295 38be
00000120: b070 dcbd 555b b8bd 0dc9 81bd eed3 4bbd
00000130: b638 c8bd 5dac 9dbc e4ee 88be c430 a6bc
00000140: 150d e0bd 94ef 83bd 7f0b 9dbd 0536 b3bd
00000150: 5610 ddbd 3101 9ebd ff95 7bbd 54f6 e4bd
00000160: 4387 ffbd d8cc 94bd 89d4 ccbc a242 69be
00000170: f862 a0bd a73f 9dbd 973a d0bd 3e80 80bd
00000180: b595 4dbe a01f a1bd b123 93bd 099a b3bd
00000190: 1aa2 a2bd 20aa b3bd a1f2 6fbd ac2f 3abe
000001a0: 3108 b8be be34 e7bd 1c3c dbbd 35ec 91bd
000001b0: dc17 31bd 4ed1 eebd 3e8f 99be 5c25 aabd
000001c0: 0d6f 77bd 1a98 19bd be9d 62bd 694d 41be
000001d0: b974 87bd a6a2 8cbd acc2 bbbd e2d4 9bbd
000001e0: cfe4 69be 5ee5 9bbd 6239 3bbd c593 5bbd
000001f0: d29a 82bd 950a 33bd c176 bcbe e4f7 8bbe
00000200: 6750 bebc 79d6 adbd 0b9f 9bbd b97a 51bd
00000210: 8171 66bd 4fca 5bbd 0e3c debc beb9 1bbe
00000220: 1b9a 02bd 9fff 93be e3cc 5ebe 1520 9ebd
00000230: 9efb 92be ce7c 97be fbf4 43bd 238a 43bd
00000240: 1ed8 1abe c135 8bbd 53cc bebd b6d9 19be
00000250: eb7e d3bd baae f9bd 1696 ecbd de50 59be
00000260: 6f36 56be f8e4 88be 6baa b4bd 09b0 64bd
00000270: 09c4 8ebd eecb 8fbd ceb7 b8bd 4993 4bbd
00000280: c1ca e3bc 893a 57be 438f b2bd b978 ecbd
00000290: 262d c2bd 61ca 93bd 75e2 99bd 25ee 79bd
000002a0: 315f b0bc 8620 10be 545b c0bd 558a 2cbe
000002b0: 6bca ed3b 3349 80be b88c f9bd 4955 51bd
000002c0: 3f96 40bd fbda 47be bc04 ecbd 5742 82bd
000002d0: 97ef 44be a4de 8dbe 54f8 a1b9 bf55 b9bd
000002e0: 8cd6 8abd 65ab b7bd 6cf6 a9bc ed43 d5bd
000002f0: 30b0 a2bd 35a0 a2bd ba28 9abe 5e9c 87bd
00000300: fee3 97bd 0abd 90be 781b 39bd a27a 20bd
00000310: a0d8 a1bd c921 7ebd c1f0 81bd 2548 8ebd
00000320: 1ff4 8ebd 413b b1bd bb21 07bc 6a28 fcbd
00000330: 9236 0dbe 8997 88bd 4109 86be 0a6b 60bd
00000340: d438 88bd 40c8 f1bd 0771 58be f05e d2be
00000350: 2657 abbd 85e8 e6bd cfb9 02be 4c6c 17be
00000360: acd0 6dbc 7b3a 9abd 4657 b0bd b49e 99bd
00000370: 2e05 40bd 924b f8bd 6474 1fbe e2fe debd
00000380: 52db 85bd 3a63 26bd a9a0 87bd b0a2 78bd
00000390: ed28 7bbd d372 b8b8 0eff c6bd e41b 83bd
000003a0: 280d a9bc 3737 5dbd 05f6 06be cd49 9fbd
000003b0: 8989 9abd fb99 4bbe f5ad 75bd 277a 03be
000003c0: 14ac 93bd 187a baba a64c 64bd 1179 dfbd
000003d0: a1f6 3cbd 86c4 c6bd 0190 73bd e3f1 dfbd
000003e0: 675d 9cbd f741 a6bd 39a4 17bd b2e8 83be
000003f0: cfad a0bd ab77 11be 7065 ebbd 643d 11be

critic_linear.weight f4 [1, 256]
-0.08396975 0.0009270896 -0.00019169171 -1.9171523e-05 0.0032795854 -0.0014350356 -0.0005591479 -0.0031178526
-0.0071149897 0.00075712625 -0.0016084012 -0.00482043 -0.00061736116 -0.000708124 0.00065625453 -0.0026780772
0.01704632 -0.0031738041 -0.0005054554 0.0006804397 0.0027234943 -0.002299608 0.0035262806 0.033539288
0.08062044 -0.005686293 -0.00019610867 0.0004267282 0.0010954172 0.001623289 -0.002175828 -0.002711705
-0.00048393712 0.0011506462 -0.028505389 0.004588939 0.00042570074 -0.00013464454 -0.046992663 0.065062344
0.0013676883 -0.00562176 0.0031303957 -0.0023896114 -0.007684806 0.0022894002 -0.018274851 0.0012846077
-0.00063962117 0.0023741385 0.00036787995 0.0038559805 -0.0052252607 0.0013601421 -0.003442989 0.0037613288
0.0013237455 0.0039306004 0.003697537 -0.001898346 0.0020356288 -0.0026764404 0.030909874 0.003156529
-2.1386419e-05 0.0013500183 0.00045256168 0.0004368863 0.0008018742 -0.005746112 0.002148953 -0.021421304
-0.0030560466 -0.0026521261 0.002535771 0.0017622869 -0.0012046456 0.000883048 -0.0010833291 0.036834553
0.0021747195 -0.0025557063 -0.006507347 -0.00423784 0.0006698141 -0.005660832 0.0015473458 0.0027558017
0.0010136991 -0.0010738487 0.0035589684 -0.0038418702 0.0010651054 -0.00047648873 0.000668308 -0.0017925978
-0.0026232433 -0.0030610582 0.0015362056 0.0012091304 1.394856e-05 -0.0018772737 -0.0012716628 -0.0047974098
-0.00025436774 0.0007591956 -0.003961693 -0.0003484174 0.0043129423 3.741056e-05 -0.006263425 0.00037017607
0.0028491465 0.0052334387 -0.0021936237 -0.040851753 -0.0006521901 0.00069557 0.0034373547 -0.0010326635
-0.08028553 3.6092653e-05 0.0023737645 -0.0009011847 0.00091553055 -0.013767253 0.0073596425 -0.00010848222
-0.0005341006 -0.0047548763 0.000481098 -0.0014964803 -0.0029357325 0.00020589768 0.004478135 0.09354972
0.0018850233 -0.0014556258 -0.0034136367 -0.0010526086 -6.4455104e-05 -0.0026604019 -0.0023537583 0.0009934983
-4.6233195e-05 -0.0012211236 -0.0023834622 -0.0040648542 0.00071531784 0.00091635686 0.0012697496 -0.004092407
-0.07135993 -0.009921664 0.004690927 0.0019105859 -0.0025078822 0.0006033087 0.00044461348 -0.0010813811
-0.0014081359 0.071935914 0.0021875992 -0.0018984871 -0.0013918155 0.0009162543 0.0006573874 -0.00080445915
-0.00090305036 0.029258959 -0.0020474193 0.030243432 -0.0047011464 0.005344133 0.0010995106 0.00010415275
-0.0037832824 -0.039385177 -0.007699342 -1.2448731e-05 -0.020103693 -0.0020989135 -0.0014683574 -0.0014266688
-0.00056411925 0.0008361968 0.0005266686 0.0020241158 0.0042862445 0.0011754652 0.004564343 0.003177226
-0.00025566053 -0.11042133 0.0015717531 -0.00095766905 -0.0002194739 0.0017804669 0.0009309405 -0.0002573416
0.0014404496 0.003581692 0.0009345992 0.025055664 -0.001021457 -0.0005412658 -0.04976964 -0.00059561495
-0.0019208193 0.07013132 -0.004816549 -0.029764652 0.00032980047 -0.08426138 -0.00017088291 0.08688178
0.06321013 0.0010451521 -0.0009945513 0.0033094368 -9.759179e-05 -0.0004756961 -0.06952821 -0.0028735397
0.003622423 0.0012699623 0.0015407843 0.0032524755 -0.0030161173 0.005025144 -0.00020943877 -0.0032750727
-0.0017305404 -0.0019471552 -0.00037036513 -0.00095175835 0.0025715658 -0.0063590934 0.001553616 0.0034713685
0.0035874427 -0.0011557813 0.003537242 -0.0012615919 0.00037793102 -0.0036163975 0.0020963503 0.00042249146
0.0007513864 0.0024409231 -0.0015904512 -0.0012523059 -0.001009524 -0.015255794 0.00031132763 0.07467229
00000000: 55f8 abbd ee07 733a da00 49b9 88d2 a0b7
00000010: 50ee 563b ce17 bcba c893 12ba e354 4cbb
00000020: dc24 e9bb e279 463a fdd0 d2ba b3f4 9dbb
00000030: 68d6 21ba 66a1 39ba 7f08 2c3a ae82 2fbb
00000040: b9a4 8b3c 99ff 4fbb 8a80 04ba 895f 323a
00000050: a77c 323b 05b5 16bb 2c19 673b 7e60 093d
00000060: 541c a53d 1554 babb 85a2 4db9 7dba df39
00000070: 1a94 8f3a 8ac4 d43a 5698 0ebb dcb6 31bb
00000080: f1b8 fdb9 48d1 963a 2284 e9bc cf5e 963b
00000090: 9630 df39 5e2f 0db9 617b 40bd 683f 853d
000000a0: 0144 b33a be36 b8bb 5327 4d3b 079b 1cbb
000000b0: d3d0 fbbb c309 163b 24b5 95bc 4860 a83a
000000c0: 40ac 27ba 6f97 1b3b 03e0 c039 9eb4 7c3b
000000d0: aa38 abbb cc46 b23a c5a3 61bb a080 763b
000000e0: 8781 ad3a 44cc 803b 6052 723b ecd1 f8ba
000000f0: 2f68 053b 3867 2fbb b436 fd3c c5dd 4e3b
00000100: fc66 b3b7 19f3 b03a cd45 ed39 e30d e539
00000110: de34 523a e249 bcbb 73d5 0c3b bb7b afbc
00000120: f447 48bb 4bcf 2dbb 2e2f 263b 89fc e63a
00000130: 33e5 9dba 597c 673a 7efe 8dba d4df 163d
00000140: bd85 0e3b a37d 27bb 953b d5bb 94dd 8abb
00000150: 7796 2f3a 807e b9bb 4fd0 ca3a ae9a 343b
00000160: 19de 843a 62c0 8cba 953d 693b e3c7 7bbb
00000170: 029b 8b3a 3cd1 f9b9 6431 2f3a 9af5 eaba
00000180: b8ea 2bbb 099c 48bb 825a c93a af7b 9e3a
00000190: 9c04 6a37 da0e f6ba ecad a6ba 9733 9dbb
000001a0: a95c 85b9 c104 473a 17d1 81bb cbab b6b9
000001b0: 9553 8d3b 48e9 1c38 6b3d cdbb 3114 c239
000001c0: bfb8 3a3b 447d ab3b e6c2 0fbb 2b54 27bd
000001d0: bdf7 2aba ea56 363a 3e45 613b 705a 87ba
000001e0: bd6c a4bd 3162 1738 2991 1b3b 7b3d 6cba
000001f0: 3700 703a 0b90 61bc 2829 f13b f380 e3b8
00000200: e202 0cba cbce 9bbb e13b fc39 8c25 c4ba
00000210: 6b65 40bb 3de6 5739 52bd 923b ff96 bf3d
00000220: e312 f73a b2ca beba 52b7 5fbb aff7 89ba
00000230: 122c 87b8 235a 2ebb 8341 1abb 4538 823a
00000240: 84ea 41b8 1c0e a0ba dc33 1cbb 7832 85bb
00000250: 2b84 3b3a ab37 703a ba6d a63a 9919 86bb
00000260: 2825 92bd 7a8e 22bc 59b6 993b a06c fa3a
00000270: 485b 24bb 5d27 1e3a 031b e939 21bd 8dba
00000280: 3391 b8ba 2353 933d d35d 0f3b a8d6 f8ba
00000290: 946d b6ba c930 703a 8654 2c3a 57e2 52ba
000002a0: afba 6cba 7cb0 ef3c ff2d 06bb 13c1 f73c
000002b0: 130c 9abb d61d af3b 741d 903a 956c da38
000002c0: f2f0 77bb 5a52 21bd c34a fcbb e4da 50b7
000002d0: 80b0 a4bc ed8d 09bb e675 c0ba 10ff baba
000002e0: 67e1 13ba 3834 5b3a 2210 0a3a 07a7 043b
000002f0: a073 8c3b 1112 9a3a 7c90 953b 0239 503b
00000300: 2d0a 86b9 9424 e2bd 4803 ce3a 150c 7bba
00000310: 9422 66b9 8e5e e93a 5c0a 743a ceeb 86b9
00000320: 78cd bc3a d2ba 6a3b e4ff 743a 8941 cd3c
00000330: 69e2 85ba bce3 0dba 40db 4bbd 0b23 1cba
00000340: 00c4 fbba 02a1 8f3d 24d4 9dbb 00d5 f3bc
00000350: 12e9 ac39 3b91 acbd 082f 33b9 13ef b13d
00000360: 5074 813d 7cfd 883a 9b5b 82ba 23e3 583b
00000370: 31aa ccb8 da66 f9b9 ce64 8ebd ff51 3cbb
00000380: 2c66 6d3b dd74 a63a 24f4 c93a 7c27 553b
00000390: 0daa 45bb f7a9 a43b cb9c 5bb9 9aa2 56bb
000003a0: 4dd3 e2ba b037 ffba 912d c2b9 6c7f 79ba
000003b0: b787 283b f15f d0bb b4a2 cb3a e67f 633b
000003c0: 4d1b 6b3b 967d 97ba 13d1 673b 005c a5ba
000003d0: 0b25 c639 1501 6dbb ec62 093b d881 dd39
000003e0: b0f8 443a e5f7 1f3b b076 d0ba 6a24 a4ba
000003f0: 0152 84ba 70f3 79bc b039 a339 c9ed 983d
