A3C-new/A3C-Pong&breakout-new/runs/PongNoFrameskip-v4/2022-11-02_20-10_Second80MSteps_OK/model_sam_BreakoutDeterministic-v4_conv.32.tar (torch, 947003 bytes, 13 tensors)

conv1.weight f4 [32, 4, 3, 3]
0.22011246 -0.35389033 -0.004947452 0.042184543 -0.39149624 0.12891266 -0.16449234 -0.009298143
0.16543603 0.11696611 0.2610259 0.06077907 0.17416763 0.1543357 0.117259905 -0.123060904
0.084444456 0.29926237 0.23014206 0.07292545 -0.13459282 -0.012539315 -0.08501489 0.018027639
-0.064141124 -0.05175329 0.25844494 0.06818288 -0.26203555 0.029498665 0.0070618703 0.06782171
0.078047685 -0.26390252 -0.23505075 0.019846942 0.41905844 0.10101525 -0.13700312 0.024824837
0.6404117 -0.2728975 0.14243609 0.31243306 -0.030535515 0.20619747 -0.16226822 -0.0324045
-0.0942141 0.17015596 -0.29567468 -0.24345817 0.120575234 0.059031665 0.22870523 0.21682794
-0.16774875 -0.15024303 0.27700913 -0.15300308 -0.37955037 0.20240131 0.042440426 0.2556545
-0.18738419 -0.191383 -0.07308539 0.07149651 -0.2458251 -0.3569063 0.2243928 -0.18263713
-0.04630173 0.2815214 0.004947154 0.2050203 0.5671935 -0.2764991 -0.12140459 0.3991776
-0.13853297 -0.186245 0.013704256 -0.29304537 0.21426728 0.07880539 -0.81213266 0.1515248
-0.07762118 -0.27094847 -0.0846831 -0.12363177 0.028633285 0.104877956 -0.07941139 -0.4900452
-0.026715003 0.03975475 -0.2045917 0.029801019 0.41777775 -0.03763687 0.2796879 0.29077184
-0.21565929 -0.12776607 0.39300972 0.028984653 0.32169044 0.18461804 0.1928913 0.3626851
0.70108867 0.1200833 0.104590796 0.4937473 0.3572281 0.15286535 -0.25485283 -0.10956856
-0.04810338 0.030667666 0.165518 -0.117686264 0.13876314 -0.20555413 -0.3205223 -0.2533895
0.067445256 -0.044488154 -0.21845183 0.0026558759 -0.044127468 -0.09367349 -0.06474389 0.03102971
-0.038808376 0.017280677 -0.39753145 -0.2722822 -0.007805912 -0.23580928 -0.18215477 -0.02578943
0.115864195 0.1812377 -0.10169029 0.024768667 0.3398967 0.1778861 -0.17334068 0.2071418
0.21689498 -0.06192896 -0.44164237 -0.23756759 -0.26577505 -0.3187348 0.068869345 -0.22075768
-0.5117159 0.3451382 0.078346096 0.2941667 -0.3117747 0.037326105 -0.07398941 -0.055755362
-0.17233446 -0.219454 0.09830424 0.27223897 0.24445026 -0.077097595 0.25735503 0.2849031
0.08208722 0.11839472 -0.09520075 0.19090554 -0.0051831785 -0.23652507 -0.2837718 -0.2562398
-0.28014994 0.20906204 -0.34670153 -0.40807042 -0.081381015 -0.15361117 0.030479213 0.0055541242
-0.2528154 0.15641144 0.3464186 -0.2051384 0.13722174 0.18528819 0.33294132 -0.020281693
0.05956117 0.057831433 0.37500465 0.050309908 0.2981337 0.0647743 -0.026634919 0.11737904
0.022053618 0.006888473 0.06524736 0.15743156 -0.116960734 0.28092542 0.17444752 0.09665616
0.20314924 -0.32369015 -0.027475646 0.1898925 0.04972948 0.2467016 -0.28642946 -0.063705236
0.28739667 -0.036502838 0.041501336 0.042614438 0.2744593 0.67755854 -0.29843614 -0.1642936
0.4134163 -0.21899359 -0.1285184 0.062342267 -0.18362798 0.2820399 0.2659996 -0.41772264
-0.16978765 0.14341837 -0.10205686 -0.022353638 -0.17426926 0.046997905 -0.17260852 -0.08610409
-0.17411596 0.14648966 0.22739254 -0.169541 0.030580238 -0.14623627 0.4397946 -0.08967604
00000000: 2965 613e 1d31 b5be 3c1e a2bb b3c9 2c3d
00000010: 3272 c8be ae01 043e ae70 28be 3d57 18bc
00000020: 1068 293e ee8b ef3d 30a5 853e 79f3 783d
00000030: 0059 323e 2e0a 1e3e f625 f03d 5b07 fcbd
00000040: 37f1 ac3d eb38 993e 5caa 6b3e f059 953d
00000050: b3d2 09be b371 4dbc 491c aebd b3ae 933c
00000060: 6c5c 83bd 42fb 53bd e552 843e 77a3 8b3d
00000070: 8629 86be 2fa7 f13c 4367 e73b 1ce6 8a3d
00000080: 77d7 9f3d 3b1e 87be 25b1 70be 0e96 a23c
00000090: d48e d63e 15e1 ce3d 8c4a 0cbe 755d cb3c
000000a0: 05f2 233f 39b9 8bbe c4da 113e 3af7 9f3e
000000b0: 9e25 fabc 6e25 533e a429 26be 95ba 04bd
000000c0: 52f3 c0bd 5d3d 2e3e ac62 97be 194d 79be
000000d0: 26f0 f63d 30cb 713d b431 6a3e 2508 5e3e
000000e0: 54c6 2bbe 4fd9 19be 24d4 8d3e d7ac 1cbe
000000f0: 6d54 c2be 4a42 4f3e 03d6 2d3d 26e5 823e
00000100: a4e1 3fbe e8f9 43be cbad 95bd c36c 923d
00000110: 93b9 7bbe 6cbc b6be 3ac7 653e 3a05 3bbe
00000120: e2a6 3dbd 9323 903e bc1b a23b d7f0 513e
00000130: 9833 113f 4a91 8dbe f8a2 f8bd 0261 cc3e
00000140: 96db 0dbe 02b7 3ebe d187 603c 0b0a 96be
00000150: e268 5b3e b864 a13d ede7 4fbf 5129 1b3e
00000160: daf7 9ebd c2b9 8abe 556e adbd a732 fdbd
00000170: 5a90 ea3c 41ca d63d 70a2 a2bd 34e7 fabe
00000180: 6cd9 dabc e0d5 223d 7d80 51be 4421 f43c
00000190: f7e6 d53e 1e29 1abd 4133 8f3e 0ce0 943e
000001a0: cad5 5cbe 1cd5 02be 9238 c93e 3971 ed3c
000001b0: 9cb4 a43e 830c 3d3e 4c85 453e ddb1 b93e
000001c0: 8c7a 333f 3cee f53d b333 d63d 72cc fc3e
000001d0: 9ae6 b63e bc88 1c3e 127c 82be 7b65 e0bd
000001e0: 0d08 45bd c23a fb3c 8d7d 293e 7f05 f1bd
000001f0: ed17 0e3e c87c 52be 801b a4be 45bc 81be
00000200: bd20 8a3d 3639 36bd d6b1 5fbe 340e 2e3b
00000210: 01bf 34bd e3d7 bfbd 7298 84bd 0532 fe3c
00000220: 88f5 1ebd 3590 8d3c 3e89 cbbe 9368 8bbe
00000230: bcc8 ffbb fd77 71be c886 3abe 5b44 d3bc
00000240: 354a ed3d 6096 393e 0043 d0bd a9e7 ca3c
00000250: f106 ae3e c627 363e 3880 31be fb1c 543e
00000260: b819 5e3e 39a9 7dbd f31e e2be eb44 73be
00000270: ab13 88be 3531 a3be 5f0b 8d3d 4d0e 62be
00000280: d0ff 02bf f4b5 b03e eb73 a03d 059d 963e
00000290: efa0 9fbe 42e3 183d c387 97bd bc5f 64bd
000002a0: 7278 30be 8db8 60be bc53 c93d e862 8b3e
000002b0: 2b51 7a3e 58e5 9dbd 0ac4 833e d2de 913e
000002c0: 581d a83d ee78 f23d 9cf8 c2bd be7c 433e
000002d0: a7d7 a9bb a133 72be 8a4a 91be dd31 83be
000002e0: d06f 8fbe 5c14 563e dd82 b1be 9bee d0be
000002f0: 17ab a6bd 3f4c 1dbe 8baf f93c 5fff b53b
00000300: 0571 81be 522a 203e c75d b13e cd0f 52be
00000310: db83 0c3e 30bc 3d3e 4977 aa3e cb25 a6bc
00000320: 6af6 733d a7e0 6c3d 9c00 c03e c311 4e3d
00000330: fba4 983e 63a8 843d 7931 dabc 6c64 f03d
00000340: caa9 b43c b3b8 e13b 68a0 853d bd35 213e
00000350: 1c89 efbd 75d5 8f3e 5fa2 323e aaf3 c53d
00000360: 5b06 503e b7ba a5be 9b14 e1bc 2e73 423e
00000370: 24b1 4b3d 589f 7c3e e2a6 92be e477 82bd
00000380: a825 933e 0084 15bd 4efd 293d 7a8c 2e3d
00000390: ee85 8c3e 7a74 2d3f 9fcc 98be 953c 28be
000003a0: 4dab d33e db3f 60be 549a 03be 9b5a 7f3d
000003b0: f908 3cbe 8967 903e 1931 883e bedf d5be
000003c0: d0dc 2dbe 44dc 123e 3003 d1bd fa1e b7bc
000003d0: a473 32be e080 403d 4ac0 30be 5757 b0bd
000003e0: 744b 32be 6301 163e 97d9 683e 289c 2dbe
000003f0: 6883 fa3c f6be 15be c22c e13e 12a8 b7bd

conv1.bias f4 [32]
-0.17231749 -0.14814475 0.038167737 -0.15829192 -0.06904765 -0.17380117 -0.11197861 -0.061250057
-0.26285234 0.0058215437 -0.005157961 -0.121113665 -0.21725899 0.23873426 -0.1404875 0.2754266
-0.31592423 -0.2599411 -0.11971208 -0.28819403 0.0044423286 0.046595227 -0.051116668 -0.015163963
0.052577782 -0.00899106 -0.12006028 0.32975844 -0.071629606 0.57163656 -0.073295355 0.047288176
00000000: ff73 30be 42b3 17be c655 1c3d 4717 22be
00000010: db68 8dbd eff8 31be 0b55 e5bd 57e1 7abd
00000020: 9594 86be a6c2 be3b 1d04 a9bb 710a f8bd
00000030: 2479 5ebe c176 743e f5db 0fbe b704 8d3e
00000040: d2c0 a1be 0017 85be 9b2b f5bd 2b8e 93be
00000050: f490 913b a3da 3e3d b65f 51bd 4572 78bc
00000060: cd5b 573d 3d4f 13bc 2ae2 f5bd 19d6 a83e
00000070: 8bb2 92bd c656 123f e01b 96bd 3fb1 413d

conv2.weight f4 [32, 32, 3, 3]
0.21189676 -0.060893558 0.15443553 -0.04326959 -0.09179084 0.04028301 0.05015082 0.009837811
-0.06964509 0.08008993 0.049564496 0.28985596 0.1314067 -0.35605034 0.013093808 -0.26975715
0.15597998 -0.12705953 0.152142 0.18686692 -0.09599484 0.32461947 -0.14540423 -0.19203153
-0.1440994 0.09923173 -0.04902655 0.046114624 -0.025709359 0.116256095 -0.059010632 -0.029976664
0.10839921 -0.31323412 0.24474527 -0.04995916 -0.000216094 0.14478986 -0.16333228 0.048415672
-0.095011204 -0.10867663 0.030334732 0.11465281 0.066683404 -0.10934893 0.024427695 0.03396127
-0.03176188 -0.44165105 0.29796395 -0.039452173 -0.029682288 0.25125813 0.22571419 0.020744964
0.12757225 -0.0077687544 -0.5416025 0.10255658 -0.16806208 0.044554535 0.1675447 0.034787502
-0.00023802582 0.10887811 -0.079136804 -0.028811375 -0.04365014 0.06749946 0.053554963 -0.00013792988
-0.12294668 0.253652 0.029406387 -0.11073975 -0.07432071 -0.17519122 -0.13188212 0.026914515
0.28224823 -0.0579158 -0.037264336 0.0017593366 -0.029622559 0.20390625 -0.1523001 -0.0014832818
-0.031439953 0.25557327 -0.1263622 -0.07335247 -0.16093342 -0.07742451 -0.21961968 0.19471005
-0.0009031257 0.18509853 0.04969706 0.13931264 0.044019043 -0.117799185 0.09486458 0.037992917
-0.07855255 -0.045507696 0.008302324 0.1349405 -0.030649796 0.30124334 0.047679994 -0.18850611
-0.23183218 -0.021528712 -0.060322627 0.050679114 0.039277583 0.048696358 0.03192785 0.041092705
0.109420605 0.14594345 -0.14311089 -0.12549719 -0.2876287 0.024991132 0.09056932 -0.2726223
0.046292104 -0.12735642 -0.050649896 0.01437127 0.025091745 0.21869235 0.036289793 0.22483164
-0.19229266 -0.014368026 0.11791268 0.025512073 0.023140343 -0.013193059 0.078404985 -0.30218637
-0.16724986 0.043149438 0.11924363 -0.09291684 -0.18786354 0.16196692 -0.16439423 0.10381302
0.15476209 -0.16744657 -0.008461212 0.16759288 -0.05485553 0.008095901 -0.08175973 -0.025296219
0.0033356743 0.074838005 0.05597451 0.15451922 0.057162337 0.04217395 -0.34598494 0.23331922
-0.2587621 -0.042528987 0.13188468 -0.10995169 0.046004474 0.08016454 -0.3350334 0.07915755
0.08351604 0.022855675 -0.21045311 0.22119372 0.081861705 0.011155343 -0.027050998 -0.14348443
0.12843381 -0.00028847982 0.17033483 -0.111352585 -0.07569564 -0.072492376 -0.10177286 0.34375817
0.029242128 0.059156053 0.008683529 0.25403938 -0.063631035 -0.2174356 0.0010584687 0.0264637
-0.11708354 -0.26414308 0.09866366 0.059120134 0.18680197 -0.19267352 -0.028864382 -0.20725659
-0.12025297 0.19752453 -0.07786031 0.41056335 -0.07656915 0.1091872 0.036223933 0.0019792153
0.06274492 0.21399458 0.0073025906 -0.074232005 -0.07280622 -0.029136771 0.07188918 -0.12965994
0.04157465 0.14412655 -0.08315835 -0.14905454 -0.084679335 0.17887989 0.10300443 0.08192947
0.0044185068 -0.05278588 -0.016173964 -0.019783337 -0.2586552 -0.1425891 0.039769772 0.022146868
0.12774412 -0.0076635554 0.1093988 0.0019069028 -0.28088346 0.028777817 -0.29807094 0.48139134
0.0020791236 0.21813796 -0.06584186 -0.12247492 0.04251572 -0.18572034 0.17701393 -0.009031105
00000000: 77fb 583e 866b 79bd 5924 1e3e 743b 31bd
00000010: d6fc bbbd ccff 243d f26a 4d3d c52e 213c
00000020: 16a2 8ebd 3006 a43d 2404 4b3d 0068 943e
00000030: 7a8f 063e 3b4c b6be 6987 563c 9c1d 8abe
00000040: 37b9 1f3e e51b 02be 1dcb 1b3e 0b5a 3f3e
00000050: f198 c4bd 8634 a63e d9e4 14be eaa3 44be
00000060: cb8e 13be 013a cb3d 10d0 48bd b0e2 3c3d
00000070: 6f9c d2bc ad17 ee3d 22b5 71bd 9f91 f5bc
00000080: 6800 de3d 3960 a0be 819e 7a3e faa1 4cbd
00000090: 4b97 62b9 cb43 143e 9440 27be 834f 463d
000000a0: 3c95 c2bd da91 debd 8b80 f83c 18cf ea3d
000000b0: 4f91 883d 55f2 dfbd 971c c83c f91a 0b3d
000000c0: bf18 02bd 1620 e2be bb8e 983e 9a98 21bd
000000d0: 4528 f3bc e8a4 803e 9f21 673e 58f1 a93c
000000e0: 4da2 023e 0991 febb 76a6 0abf 2f09 d23d
000000f0: 7718 2cbe d17e 363d d690 2b3e 577d 0e3d
00000100: 9296 79b9 7dfb de3d 7a12 a2bd d505 ecbc
00000110: 7dca 32bd 283d 8a3d 735c 5b3d 45a1 10b9
00000120: 78cb fbbd adde 813e aae5 f03c 86cb e2bd
00000130: 7535 98bd 5465 33be 1b0c 07be d47b dc3c
00000140: d782 903e 1e39 6dbd 7da2 18bd 8a99 e63a
00000150: 02ab f2bc cdcc 503e 8ff4 1bbe ae6a c2ba
00000160: 2ec7 00bd 80da 823e 1865 01be d239 96bd
00000170: bbcb 24be be90 9ebd fbe3 60be 1262 473e
00000180: bdbf 6cba 788a 3d3e 258f 4b3d f9a7 0e3e
00000190: 504d 343d b340 f1bd 5c48 c23d 769e 1b3d
000001a0: 29e0 a0bd 4766 3abd 7906 083c d82d 0a3e
000001b0: 4815 fbbc 913c 9a3e 194c 433d bf07 41be
000001c0: 6a65 6dbe fb5c b0bc dc14 77bd e794 4f3d
000001d0: 88e1 203d d575 473d c7c6 023d d350 283d
000001e0: e917 e03d 3372 153e a98b 12be 5682 00be
000001f0: 1244 93be 34ba cc3c 687c b93d 2695 8bbe
00000200: ca9c 3d3d b969 02be 4476 4fbd 7a75 6b3c
00000210: 348d cd3c e3f0 5f3e 9ba4 143d 443a 663e
00000220: 5ee8 44be de67 6bbc 347c f13d b2fe d03c
00000230: d190 bd3c b327 58bc cb92 a03d 2cb8 9abe
00000240: 8c43 2bbe 77bd 303d 0136 f43d 2f4b bebd
00000250: 4d5f 40be a8da 253e f656 28be ec9b d43d
00000260: f479 1e3e 1d77 2bbe e5a0 0abc 789d 2b3e
00000270: 31b0 60bd aca4 043c a571 a7bd 043a cfbc
00000280: 549b 5a3b ab44 993d 8745 653d 493a 1e3e
00000290: 0e23 6a3d 97be 2c3d f024 b1be 3ceb 6e3e
000002a0: 777c 84be e032 2ebd c70c 073e 5a2e e1bd
000002b0: 306f 3c3d 4e2d a43d 7f89 abbe 5b1d a23d
000002c0: 750a ab3d d33b bb3c 0581 57be 9b80 623e
000002d0: 1ca7 a73d e6c4 363c 0e9a ddbc 95ed 12be
000002e0: 2784 033e 1b3f 97b9 416c 2e3e d30c e4bd
000002f0: 5106 9bbd e276 94bd 4a6e d0bd 1201 b03e
00000300: 308d ef3c 9e4d 723d 5c45 0e3c 7311 823e
00000310: fd50 82bd 70a7 5ebe 51bc 8a3a 67ca d83c
00000320: 7fc9 efbd c33d 87be 2c10 ca3d f427 723d
00000330: 0449 3f3e 354c 45be ff74 ecbc 123b 54be
00000340: 3047 f6bd df43 4a3e 3a75 9fbd 5c35 d23e
00000350: 49d0 9cbd 8a9d df3d 8c5f 143d b9b5 013b
00000360: 6980 803d 6521 5b3e 924a ef3b f306 98bd
00000370: 6d1b 95bd 3db0 eebc a23a 933d 93c5 04be
00000380: 2e4a 2a3d e995 133e ed4e aabd c1a1 18be
00000390: 5c6c adbd 4a2c 373e fdf3 d23d a3ca a73d
000003a0: 1fc9 903b 0236 58bd 437f 84bc aa10 a2bc
000003b0: 746e 84be e102 12be a1e5 223d 596d b53c
000003c0: 5bcf 023e 901e fbbb 7a0c e03d 0af1 f93a
000003d0: f5cf 8fbe 75bf eb3c c19c 98be ed78 f63e
000003e0: e841 083b 8f5f 5f3e 19d8 86bd 21d4 fabd
000003f0: f724 2e3d 792d 3ebe 2443 353e 33f7 13bc

conv2.bias f4 [32]
-0.0054763462 -0.00019657823 -0.0034571313 0.006698353 -0.012065867 -0.012811831 -0.00780237 -0.01176389
-0.004354228 -0.0026082054 -0.008572401 -0.017087916 -0.011556549 -0.0071307877 -0.028987454 -0.013692692
0.011892024 -0.007893535 -0.004301916 -0.0077910167 -0.0027651784 0.004079578 0.009897292 0.00029875542
-0.0044142334 0.00021977293 0.01522565 -0.009187396 -0.0077098263 0.0034935332 -0.011170686 0.0054357806
00000000: ec72 b3bb 9120 4eb9 0a91 62bb dc7d db3b
00000010: eaaf 45bc b7e8 51bc 06ab ffbb 55bd 40bc
00000020: e9ad 8ebb 6dee 2abb 4173 0cbc f5fb 8bbc
00000030: ae57 3dbc 62a9 e9bb 1977 edbc 5057 60bc
00000040: c4d6 423c e353 01bc 16f7 8cbb c94b ffbb
00000050: ff37 35bb fbad 853b 4028 223c 46a2 9c39
00000060: 46a5 90bb d972 6639 0175 793c bb86 16bc
00000070: b6a2 fcbb c3f3 643b 4105 37bc a21e b23b

conv3.weight f4 [32, 32, 3, 3]
0.000983999 0.1196184 0.04402541 0.02548635 -0.075270556 -0.041610055 -0.0576884 0.2111074
0.14192042 -0.16972858 0.015564459 -0.11574504 -0.40326965 0.056698255 0.14156395 -0.33671588
-0.08090933 0.02587546 -0.26873615 -0.016588219 0.019296896 -0.20009436 0.08047881 0.056427926
-0.15476887 0.2199164 -0.10865885 -0.37053856 0.17884433 -0.04755511 -0.06348865 -0.040215656
0.005443015 -0.21012664 0.13648535 0.028041298 0.0012651527 0.16949286 -0.31555185 -0.28694817
0.13747075 -0.2696725 0.08892962 0.21688062 -0.07068228 0.06514642 -0.18219224 0.0288932
-0.20988326 0.10020272 -0.027116325 -0.05528772 -0.14450473 0.067937374 0.12426639 -0.12196919
0.249617 -0.009307667 0.17560723 0.25893924 0.09615562 -0.26426017 0.37727833 0.08129723
-0.10642886 0.00022638489 -0.009382383 0.20699619 -0.32223725 -0.24193954 0.05760844 -0.017015109
0.039758544 -0.15084353 0.18950792 0.054717224 0.10932647 0.15052234 -0.1603784 0.014370653
0.1624326 -0.10108491 -0.0021867245 0.055586193 0.06597047 -0.26478142 0.14342217 -0.04367532
-0.0650065 0.22973813 -0.26893887 0.0489776 -0.020738112 0.042475462 0.1267826 0.3036716
-0.05683437 0.13476597 0.022825874 -0.09536427 0.18513292 -0.0036351315 -0.4256346 0.03251259
0.2545008 -0.109303124 0.11855085 0.1567171 0.26603553 -0.20011754 -0.010363893 0.11291787
0.06261378 -0.19061287 0.049227033 -0.12677431 0.22408614 0.12394368 0.2024146 -0.114980295
-0.10248384 -0.27732608 0.1278698 -0.0886683 0.234586 0.020418514 0.1783875 -0.12952489
0.13388361 0.09719782 0.037956767 0.111125566 -0.090638414 -0.20258938 0.06411796 -0.18282782
-0.024869261 0.00376413 0.1100575 -0.53993225 0.32466832 -0.014172991 0.07064753 0.04505151
-0.18938996 0.08747024 0.12571996 0.0944521 -0.18176553 0.11583054 0.26441538 -0.124824025
-0.23844919 -0.032344796 0.032751787 0.08049896 -0.0057212575 0.010907747 0.12477088 -0.21684869
0.08465382 -0.05465252 0.002013543 -0.098212644 0.02640205 -0.10512974 -0.020942934 0.17046441
-0.09328064 -0.21361178 0.12582892 -0.06325929 -0.083165444 -0.13630459 -0.19859779 0.082865804
-0.18831871 -0.07285844 -0.072071165 -0.16507344 -0.100606464 0.11303461 -0.12618063 -0.014433726
0.21610036 -0.04898041 0.054062836 -0.16057022 0.08777343 -0.09200467 0.06332019 -0.007741681
0.2823079 -0.28623956 0.30271417 0.09182217 -0.07183343 -0.16829522 0.14982054 -0.16486396
0.12548192 -0.19737382 0.15953262 -0.32072213 0.015854895 -0.032314133 0.27586687 -0.24580282
0.22923452 -0.024837192 0.014848967 -0.107870065 0.15005915 0.016011635 -0.23325768 0.10475749
-0.025467262 0.10538296 -0.023639485 -0.27414834 0.013574026 -0.027348068 -0.11023281 -0.15202212
0.25762695 -0.14020978 0.21666792 -0.1395343 -0.009110245 -0.5513821 0.35525718 -0.21083628
0.26012608 -0.18349405 -0.11715877 0.048762146 0.13949358 0.08845078 -0.3123004 0.022296615
0.04873172 0.07506086 0.019198658 -0.08455152 0.17169341 0.02803791 0.18166657 -0.21557054
0.10363373 0.09751839 0.04951113 0.18671006 -0.06805043 -0.15949348 0.070973836 -0.20545378
00000000: 87f9 803a 7efa f43d fd53 343d c0c8 d03c
00000010: 7327 9abd 4e6f 2abd ac4a 6cbd 8a2c 583e
00000020: 9653 113e 54cd 2dbe 1302 7f3c bc0b edbd
00000030: 5c79 cebe 6e3c 683d 24f6 103e 0666 acbe
00000040: cab3 a5bd c6f8 d33c c997 89be 04e4 87bc
00000050: 8614 9e3c 89e5 4cbe 13d2 a43d f820 673d
00000060: bb7b 1ebe c431 613e 8888 debd 3bb7 bdbe
00000070: f822 373e 26c9 42bd 5606 82bd 2cb9 24bd
00000080: 525b b23b 702b 57be d1c2 0b3e ddb6 e53c
00000090: 7bd3 a53a 898f 2d3e 0390 a1be dfea 92be
000000a0: 22c5 0c3e 8412 8abe bc20 b63d f415 5e3e
000000b0: dfc1 90bd 7c6b 853d 9a90 3abe 6fb1 ec3c
000000c0: a3eb 56be 1537 cd3d 0e23 debc 6075 62bd
000000d0: 0cf9 13be c022 8b3d 617f fe3d fcca f9bd
000000e0: 999b 7f3e 2f7f 18bc 62d2 333e af93 843e
000000f0: 3ded c43d 1c4d 87be a02a c13e 2a7f a63d
00000100: 60f7 d9bd bb61 6d39 91b8 19bc cff6 533e
00000110: 48fc a4be 00bf 77be d4f6 6b3d 4563 8bbc
00000120: dbd9 223d ba76 1abe 5d0e 423e 2b1f 603d
00000130: 8ee6 df3d 8722 1a3e 3c3a 24be e372 6b3c
00000140: bb54 263e 9b05 cfbd 264f 0fbb 59ae 633d
00000150: 871b 873d 6e91 87be 43dd 123e e4e4 32bd
00000160: 2122 85bd 7940 6b3e 5bb2 89be bc9c 483d
00000170: f9e2 a9bc c0fa 2d3d 4cd3 013e d87a 9b3e
00000180: 28cb 68bd 1700 0a3e 54fd ba3c 584e c3bd
00000190: 7c93 3d3e 633b 6ebb c7ec d9be ec2b 053d
000001a0: ee4d 823e 51da dfbd caca f23d 737a 203e
000001b0: cf35 883e 9deb 4cbe 51cd 29bc 7c41 e73d
000001c0: a73b 803d 0530 43be 49a2 493d 20d1 01be
000001d0: d676 653e 2fd6 fd3d c645 4f3e ca7a ebbd
000001e0: 0ce3 d1bd affd 8dbe 4df0 023e ba97 b5bd
000001f0: 5037 703e ba44 a73c 36ab 363e 2ca2 04be
00000200: c918 093e a70f c73d 8e78 1b3d cd95 e33d
00000210: a2a0 b9bd 9773 4fbe 4750 833d 3737 3bbe
00000220: 9fba cbbc 9faf 763b d465 e13d 0039 0abf
00000230: ed3a a63e d535 68bc a7af 903d ef87 383d
00000240: 71ef 41be 9923 b33d bcbc 003e 1a70 c13d
00000250: be20 3abe 9038 ed3d 7461 873e bda3 ffbd
00000260: 062c 74be fa7b 04bd bd26 063d a4dc a43d
00000270: 6379 bbbb 68b6 323c e087 ff3d 950d 5ebe
00000280: fb5e ad3d 52db 5fbd a5f5 033b b623 c9bd
00000290: 1d49 d83c 434e d7bd 8490 abbc 398e 2e3e
000002a0: ec09 bfbd 0cbd 5abe 4cd9 003e 168e 81bd
000002b0: a552 aabd 6e93 0bbe 385d 4bbe 8cb5 a93d
000002c0: 9fd6 40be ce36 95bd 0c9a 93bd 0309 29be
000002d0: c30a cebd b17e e73d 7f35 01be 6f7b 6cbc
000002e0: 6a49 5d3e af9f 48bd fe70 5d3d 856c 24be
000002f0: 8ec2 b33d f26c bcbd 04ae 813d edad fdbb
00000300: a98a 903e fe8d 92be 5afd 9a3e 430d bc3d
00000310: 681d 93bd 9555 2cbe 8e6a 193e 19d2 28be
00000320: 557e 003e 5d1c 4abe 855c 233e b135 a4be
00000330: 20e2 813c d35b 04bd 6c3e 8d3e bcb3 7bbe
00000340: 74bc 6a3e 5e77 cbbc 1549 733c fbea dcbd
00000350: 1ba9 193e d52a 833c 1adb 6ebe 188b d63d
00000360: b8a0 d0bc 05d3 d73d 98a7 c1bc 2c5d 8cbe
00000370: 9765 5e3c 0e09 e0bc bdc1 e1bd b0ab 1bbe
00000380: aee7 833e 2793 0fbe 32de 5d3e 14e2 0ebe
00000390: 2343 15bc 6127 0dbf 45e4 b53e 77e5 57be
000003a0: 3f2f 853e dde5 3bbe f0f0 efbd d1ba 473d
000003b0: 68d7 0e3e af25 b53d d7e5 9fbe 64a7 b63c
000003c0: e99a 473d 82b9 993d 8146 9d3c 5929 adbd
000003d0: 66d0 2f3e c2af e53c cd06 3a3e 86be 5cbe
000003e0: ec3d d43d b9b7 c73d 2fcc 4a3d ec30 3f3e
000003f0: 065e 8bbd 4252 23be bb5a 913d 7a62 52be

conv3.bias f4 [32]
-0.053974964 -0.023993552 0.007854152 -0.0102218175 -0.009568989 -0.00085315417 -0.018876681 -0.023275312
0.009974942 -0.016698092 -0.025747666 -0.0017527257 0.03247974 -0.0065903133 -0.01813738 0.013116158
-0.008342222 -0.025640134 0.011578378 -0.015477032 -0.031660795 -0.039301235 -0.015568688 -0.029917287
-0.024095317 -0.017312916 -0.02032247 -0.040684897 0.0013198156 -0.030534893 -0.05357213 -0.0029820874
00000000: da14 5dbd 208e c4bc b3ae 003c 6979 27bc
00000010: 40c7 1cbc 35a6 5fba 45a3 9abc deab bebc
00000020: f06d 233c 70ca 88bc c5ec d2bc b7bb e5ba
00000030: 7a09 053d 8ef3 d7bb d894 94bc 27e5 563c
00000040: d1ad 08bc 420b d2bc 3db3 3d3c 6193 7dbc
00000050: c0ae 01bd 55fa 20bd cf13 7fbc 1915 f5bc
00000060: 8b63 c5bc d1d3 8dbc 4f7b a6bc 35a5 26bd
00000070: aafd ac3a 5024 fabc 736e 5bbd 206f 43bb

conv4.weight f4 [32, 32, 3, 3]
0.0465502 -0.010583934 0.04219962 -0.02707771 0.18714772 -0.017156985 0.0015134154 0.3291052
-0.07882011 0.036885343 -0.13067895 0.05175175 0.024091726 0.058944955 0.021403601 0.12272551
-0.006263138 0.10219228 -0.08906151 0.06849309 0.027960768 0.048250977 0.013873363 0.043509725
-0.024235362 0.073747836 0.041845825 0.052237988 -0.06483336 0.064356245 -0.23227936 0.005639151
0.000668624 -0.03928166 0.053059928 0.19082311 -0.0044902987 0.22109416 0.034555923 0.18598889
0.12918924 -0.0668493 0.029616559 0.07804028 -0.17912325 0.171879 -0.007789907 -0.0855333
0.07845313 -0.041899074 -0.062462647 0.01991875 0.09794246 -0.05404339 0.1248997 0.1242355
-0.10092896 0.06968256 0.3510157 0.095992416 0.07238433 0.28570545 0.070210256 0.06166274
0.21528092 -0.17266425 0.095515445 0.36923087 -0.25144693 0.22952628 0.084690526 -0.06750102
-0.04511678 0.117840186 -0.015588547 -0.092770696 0.25363916 0.07436987 -0.07463254 0.101427406
0.060480792 -0.01593146 0.037119128 -0.011598298 0.013148419 0.1528966 -0.117641 -0.034199066
-0.042883668 -0.19940938 -0.033072717 0.015902359 -0.025820322 0.05512214 -0.082174525 -0.18199992
0.22150268 -0.06841919 -0.22557977 0.049056087 0.09547113 -0.13749874 0.06823641 -0.07887956
0.0032189037 -0.045491867 -0.053364832 0.085062824 -0.06794616 -0.024856003 0.07234015 -0.10558329
0.057536382 0.17099153 -0.0655306 0.23169576 0.09684822 -0.015224147 0.03497977 0.055637307
-0.12366121 0.08150532 0.16251303 0.16270699 -0.13242412 0.0893496 0.0024544161 -0.018986301
-0.13687082 -0.25679067 0.10680151 -0.1917842 0.09145962 0.012511822 -0.075545825 -0.034482997
0.103221744 0.089894734 0.03130511 0.28095648 -0.18182382 0.09362998 0.20985508 -0.07002655
0.06499012 0.056101896 0.06713505 0.061308037 -0.03589331 -0.025245324 -0.02591304 0.22766848
-0.10515166 -0.16657299 -0.060990494 -0.08150286 -0.11677832 -0.052184016 -0.018263256 -0.100204796
-0.069588654 0.017417008 0.10558653 -0.019023897 0.076126784 -0.029014027 0.20323332 -0.044137545
-0.035958182 0.24662519 -0.047178518 -0.15293771 0.03554346 0.22097588 -0.17373346 0.05947344
0.12049845 -0.3147934 -0.14433612 -0.014072934 -0.00422043 0.119109616 -0.04876736 0.061688073
0.122343674 -0.02162538 0.0025291813 0.029358918 -0.020598935 -0.119345725 -0.111390755 0.12737162
-0.056698836 -0.09199726 0.0317256 0.0431811 -0.04642484 -0.248898 -0.1744061 0.21031585
0.10239707 0.03328637 0.14297137 -0.007802387 -0.03741512 0.023784507 0.042588603 -0.01659796
-0.0032582995 -0.17505248 -0.19283965 0.27481446 0.05197734 -0.11684423 0.11978177 0.053541664
0.00050406536 -0.1582908 -0.07576703 0.077125445 0.04802824 0.002756147 -0.041093137 0.07592823
0.19757055 -0.02655223 0.0461091 -0.01560747 0.06736556 0.12498188 0.1551232 0.08158305
0.29034412 0.08667852 -0.09845597 -0.0059198784 -0.0013136942 -0.028318604 0.1661096 -0.070373334
-0.10538475 -0.050059345 -0.10455837 0.06846346 0.10874034 -0.038644653 0.054908242 0.13074084
-0.22278073 0.26660392 -0.016061122 -0.13975696 0.07283456 -0.010514086 0.09368775 0.18112761
00000000: 6cab 3e3d 3d68 2dbc 82d9 2c3d 13d2 ddbc
00000010: a7a3 3f3e ce8c 8cbc cb5d c63a 7a80 a83e
00000020: 706c a1bd 1615 173d b4d0 05be a5f9 533d
00000030: 035c c53c 4470 713d 9b56 af3c 8357 fb3d
00000040: 023b cdbb 304a d13d e265 b6bd 1b46 8c3d
00000050: fb0d e53c d1a2 453d 1a4d 633c 4137 323d
00000060: 3d89 c6bc 1b09 973d 8766 2b3d 80f7 553d
00000070: 5ac7 84bd 35cd 833d a4da 6dbe a1c8 b83b
00000080: 9946 2f3a cee5 20bd 5e55 593d 2267 433e
00000090: 5b23 93bb 8266 623e 838a 0d3d df73 3e3e
000000a0: 2f4a 043e 49e8 88bd 6d9e f23c 95d3 9f3d
000000b0: 166c 37be 0c01 303e 7a42 ffbb 152c afbd
000000c0: 09ac a03d 5d9e 2bbd d5d8 7fbd a52c a33c
000000d0: 0e96 c83d 9a5c 5dbd 6acb ff3d 2f6f fe3d
000000e0: d8b3 cebd bbb5 8e3d 54b8 b33e ac97 c43d
000000f0: 3c3e 943d fc47 923e 65ca 8f3d 1292 7c3d
00000100: 9a72 5c3e e6ce 30be 9a9d c33d d40b bd3e
00000110: a7bd 80be f008 6b3e 3a72 ad3d fa3d 8abd
00000120: 5fcc 38bd 3256 f13d 1b67 7fbc 90fe bdbd
00000130: fedc 813e 3b4f 983d f2d8 98bd 2cb9 cf3d
00000140: b5ba 773d b182 82bc 3a0a 183d ca06 3ebc
00000150: 776c 573c ed90 1c3e c4ed f0bd 5214 0cbd
00000160: c9a6 2fbd f931 4cbe 4277 07bd aa45 823c
00000170: 2485 d3bc c1c7 613d 1e4b a8bd 305e 3abe
00000180: 99d1 623e 5c1f 8cbd 62fe 66be 09ef 483d
00000190: 5e86 c33d 78cc 0cbe 88bf 8b3d 9b8b a1bd
000001a0: 3ef4 523b ae55 3abd 1595 5abd 6b35 ae3d
000001b0: 5b27 8bbd d19e cbbc 1327 943d 0d3c d8bd
000001c0: 45ab 6b3d 6718 2f3e e834 86bd a741 6d3e
000001d0: 5c58 c63d b36e 79bc f346 0f3d f2e3 633d
000001e0: 1742 fdbd 43ec a63d d169 263e a99c 263e
000001f0: 309a 07be ecfc b63d 45da 203b 2989 9bbc
00000200: dd27 0cbe 117a 83be c0ba da3d 1463 44be
00000210: 2e4f bb3d 63fe 4c3c c5b7 9abd 0b3e 0dbd
00000220: ec65 d33d bb1a b83d c939 003d 87d9 8f3e
00000230: 0630 3abe 13c1 bf3d 40e4 563e 146a 8fbd
00000240: 8a19 853d 1acb 653d 1a7e 893d 231e 7b3d
00000250: dd04 13bd 48cf cebc 9547 d4bc ed21 693e
00000260: c159 d7bd 1c92 2abe 2bd1 79bd f9ea a6bd
00000270: 7929 efbd e8be 55bd d39c 95bc 2c38 cdbd
00000280: 7f84 8ebd 1dae 8e3c c03d d83d 01d8 9bbc
00000290: 5ce8 9b3d d3ae edbc 651c 503e 92c9 34bd
000002a0: e348 13bd 508b 7c3e 433e 41bd b49b 1cbe
000002b0: 0596 113d 8047 623e 2fe7 31be 6c9a 733d
000002c0: e4c7 f63d 9a2c a1be d9cc 13be 2a92 66bc
000002d0: 884b 8abb beef f33d 49c0 47bd a2ac 7c3d
000002e0: 528f fa3d b527 b1bc 9fc0 253b 1d82 f03c
000002f0: 19bf a8bc 886b f4bd d620 e4bd b56d 023e
00000300: 0a3d 68bd 0f69 bcbd b4f2 013d aade 303d
00000310: f927 3ebd 1edf 7ebe 8397 32be 0a5d 573e
00000320: 8eb5 d13d 4a57 083d 1667 123e 2aab ffbb
00000330: 9940 19bd bad7 c23c 6371 2e3d 72f8 87bc
00000340: 3289 55bb f540 33be c277 45be 7bb4 8c3e
00000350: 31e6 543d 074c efbd 2550 f53d 814e 5b3d
00000360: 4123 043a fc16 22be bf2b 9bbd f2f3 9d3d
00000370: 43b9 443d 79a0 343b 4751 28bd 4380 9b3d
00000380: ef4f 4a3e 1084 d9bc e5dc 3c3d 79b6 7fbc
00000390: f4f6 893d 80f6 ff3d 9ed8 1e3e 0415 a73d
000003a0: fca7 943e 8284 b13d 49a3 c9bd 8afb c1bb
000003b0: 4330 acba 6bfc e7bc a318 2a3e e51f 90bd
000003c0: f6d3 d7bd 070b 4dbd b322 d6bd 9236 8c3d
000003d0: 41b3 de3d db49 1ebd 77e7 603d ede0 053e
000003e0: a220 64be 4f80 883e 9d92 83bc 731c 0fbe
000003f0: 492a 953d 4643 2cbc 5ddf bf3d 8479 393e

conv4.bias f4 [32]
0.007617299 0.057724047 -0.007860548 -0.020226179 0.07868222 0.016418342 0.12344586 -0.092052236
-0.06658417 0.036665652 -0.048298486 -0.013294748 0.04397842 0.07833954 -0.0075370385 -0.07499401
0.15914942 0.15394843 -0.075223245 0.17669804 0.001718036 -0.07770083 0.05898169 0.14846255
-0.040610943 -0.12191173 -0.019849742 0.022442615 -0.11960202 -0.12265737 0.05904633 0.032293282
00000000: 899a f93b 0d70 6c3d 87c9 00bc 5fb1 a5bc
00000010: 2524 a13d c27f 863c 2fd1 fc3d e285 bcbd
00000020: 485d 88bd b92e 163d a2d4 45bd 37d2 59bc
00000030: b722 343d 7b70 a03d 43f9 f6bb 7696 99bd
00000040: 11f8 223e a8a4 1d3e a50e 9abd 55f0 343e
00000050: b92f e13a 9d21 9fbd c996 713d 9106 183e
00000060: a957 26bd dbac f9bd ed9b a2bc 93d9 b73c
00000070: e7f1 f4bd ca33 fbbd 91da 713d f645 043d

linear.weight f4 [256, 800]
0.066736355 -0.013872584 0.12633896 0.058134247 -0.1843643 0.016252335 0.16962294 0.23194255
0.21660304 -0.09026378 0.08171192 -0.018288674 0.14581163 0.13127689 -0.061812293 0.030428873
-0.05701649 0.06503865 -0.115798 0.039683226 0.13030459 -0.08891972 -0.54012233 -0.32472432
-0.04937041 0.06583649 -0.1013336 -0.028120114 -0.008520235 0.16931166 0.1046447 -0.01725155
0.08725996 0.028202467 0.35349292 0.10830699 -0.12370319 0.02353363 0.03592336 0.053166825
-0.04572895 -0.12802748 -0.065336645 0.0002460747 -0.08517459 0.0010386299 -0.12397861 0.06631738
-0.14709961 -0.04788056 -0.015708333 -0.05587897 -0.019810209 -0.21726845 0.22635554 0.07047078
0.075430185 0.014759636 -0.036096618 0.114933185 -0.1419742 0.1544437 -0.14368828 -0.05624034
0.060899097 0.08972521 0.13919209 -0.00421471 -0.044898026 0.021128261 -0.051155355 0.2802717
-0.13327299 -0.20700048 -0.11619588 0.1715865 -0.007794035 0.08973903 0.07609265 -0.1833507
0.042756524 0.16898328 0.010494064 0.040021267 -0.0013994275 -0.10975137 0.116020344 0.034945063
0.1248045 0.021848256 0.078696296 0.16849628 0.17981817 0.10183817 -0.030558338 -0.24005753
0.18231356 -0.03910095 0.062248603 -0.11958705 -0.05079556 -0.07926171 -0.052377723 0.05107529
0.02319269 0.0946329 -0.03242061 -0.104613855 -0.03299795 0.08611103 0.070333906 -0.025597988
-0.035842303 0.010363414 0.012005958 -0.06533318 0.06407708 0.00076978933 -0.08471433 -0.061001785
0.10323889 -0.30099 -0.17920844 0.0017263419 0.054361034 -0.07902089 -0.014801128 -0.018749088
-0.047247153 -0.052684784 -0.044509966 0.056311868 -0.051991235 0.040950615 0.30128497 -0.05777583
-0.1469726 0.052006725 0.059612855 0.24913247 -0.03783757 0.055911917 0.096708365 -0.00758336
0.04195521 0.05353453 -0.11130832 -0.26306427 -0.20062394 0.11521999 0.08443505 -0.03449159
-0.06377508 0.01173915 0.07429762 0.23437504 -0.17318888 -0.022597585 -0.014458712 0.016274134
-0.07990224 0.14830787 0.024125552 0.013935611 -0.13293336 0.023843177 0.109960504 -0.08590649
-0.04501259 -0.08982511 0.030728796 -0.10772335 -0.0681208 -0.35645473 -0.08218221 0.031153837
-0.105906285 -0.046371307 0.15401176 0.0490121 0.07791411 0.14444192 0.13101229 0.13317993
0.014694324 -0.124351546 0.19333784 0.04657998 0.14567627 0.046991665 -0.08595191 0.24120738
0.04241634 -0.08889456 0.067683145 -0.255114 0.32694948 -0.007317376 -0.017183227 -0.15053144
-0.16230185 0.06971202 0.061976008 0.10388875 0.026517471 0.03786485 0.12943307 0.13018453
0.13928284 0.0047946996 -0.021398805 0.09112636 0.090841666 0.100958474 0.06190426 0.047865596
-0.23472166 -0.079553425 0.0006982498 0.006885864 -0.07777372 -0.0728348 -0.06641045 -0.3921236
0.104105234 0.07901632 0.07292307 0.05812908 0.0007607684 0.1280732 -0.18225604 0.09055697
0.022149714 -0.005852322 -0.0039814673 -0.029992918 -0.06317618 0.05197917 0.06022523 -0.0618064
0.06610439 0.016288044 -0.14810164 -0.0032607077 0.11592686 0.15271428 -0.11361689 0.091781855
0.031159276 -0.05530463 0.04261499 0.05151707 0.044311173 0.082467325 -0.10502081 -0.28389004
00000000: 12ad 883d d649 63bc 005f 013e 2d1e 6e3d
00000010: ffc9 3cbe 9e23 853c a3b1 2d3e 5982 6d3e
00000020: 30cd 5d3e 37dc b8bd 9458 a73d 21d2 95bc
00000030: a54f 153e 736d 063e e32e 7dbd f945 f93c
00000040: 1f8a 69bd fc32 853d 8027 edbd e18a 223d
00000050: 916e 053e 8b1b b6bd 7545 0abf 4442 a6be
00000060: a138 4abd 48d5 863d fe87 cfbd 275c e6bc
00000070: 7598 0bbc 0960 2d3e f64f d63d 1f53 8dbc
00000080: 5ab5 b23d dc08 e73c 06fd b43e 0ed0 dd3d
00000090: 1958 fdbd 99c9 c03c 6024 133d 75c5 593d
000000a0: 484e 3bbd a319 03be 38cf 85bd 9603 8139
000000b0: 0470 aebd a322 883a 7fe8 fdbd 68d1 873d
000000c0: 48a1 16be 681e 44bd c3ae 80bc 59e1 64bd
000000d0: 0549 a2bc 9f7b 5ebe bfc9 673e fc52 903d
000000e0: 247b 9a3d 66d2 713c 0cda 13bd 1762 eb3d
000000f0: af61 11be 7d26 1e3e 0523 13be 455c 66bd
00000100: 5571 793d dac1 b73d 5f88 0e3e 8d1b 8abb
00000110: fee6 37bd 2d15 ad3c 4788 51bd c67f 8f3e
00000120: b778 08be eff7 53be 1bf8 edbd 5fb4 2f3e
00000130: 1b65 ffbb 19c9 b73d 77d6 9b3d 49c0 3bbe
00000140: 7721 2f3d f409 2d3e 4bef 2b3c 57ed 233d
00000150: ff6c b7ba 54c5 e0bd 139c ed3d 8e22 0f3d
00000160: 8099 ff3d 1dfb b23c 862b a13d 4a8a 2c3e
00000170: 4122 383e 8890 d03d 7b55 fabc a4d1 75be
00000180: 68b0 3a3e 5128 20bd 64f8 7e3d 0eea f4bd
00000190: 010f 50bd f753 a2bd 068a 56bd 5334 513d
000001a0: 99fe bd3c e5ce c13d 79cb 04bd ca3f d6bd
000001b0: dc28 07bd fb5a b03d 390b 903d dfb2 d1bc
000001c0: 61cf 12bd 4fcb 293c a3b4 443c 67cd 85bd
000001d0: d83a 833d b0cb 493a b57e adbd 02dd 79bd
000001e0: e96e d33d 5c1b 9abe 6b82 37be 6c46 e23a
000001f0: ada9 5e3d b4d5 a1bd 6e80 72bc b097 99bc
00000200: 3b86 41bd 00cc 57bd 1550 36bd 46a7 663d
00000210: c3f4 54bd d5bb 273d 0642 9a3e 59a6 6cbd
00000220: fc7f 16be 0105 553d 9c2c 743d 951c 7f3e
00000230: 91fb 1abd e503 653d 090f c63d d67d f8bb
00000240: 3ad9 2b3d 0647 5b3d 9ef5 e3bd 5cb0 86be
00000250: 5d70 4dbe 75f8 eb3d 49ec ac3d 0e47 0dbd
00000260: 829c 82bd 9055 403c 5a29 983d 0300 703e
00000270: 6d58 31be 921e b9bc 3ce4 6cbc 5551 853c
00000280: c9a3 a3bd 05de 173e f3a2 c53c 3052 643c
00000290: af1f 08be c452 c33c f932 e13d beef afbd
000002a0: 1f5f 38bd 3af6 b7bd f5ba fb3c 0f9e dcbd
000002b0: eb82 8bbd 3c81 b6be 264f a8bd 5536 ff3c
000002c0: 65e5 d8bd d7ef 3dbd 42b5 1d3e e9c0 483d
000002d0: 6f91 9f3d 95e8 133e 1628 063e 5260 083e
000002e0: 76c0 703c 06ac febd 5bfa 453e a6ca 3e3d
000002f0: 292c 153e 557a 403d 8e07 b0bd 11ff 763e
00000300: c2bc 2d3d 5a0e b6bd 769d 8a3d 4d9e 82be
00000310: ec65 a73e 99c6 efbb d7c3 8cbc ea24 1abe
00000320: 7532 26be 2dc5 8e3d 8eda 7d3d a0c3 d43d
00000330: 2b3b d93c 2c18 1b3d 1a8a 043e 184f 053e
00000340: 29a0 0e3e db1c 9d3b 8c4c afbc 75a0 ba3d
00000350: 320b ba3d 51c3 ce3d 528f 7d3d b70e 443d
00000360: e05a 70be e8ec a2bd c00a 373a d0a2 e13b
00000370: d447 9fbd 692a 95bd 3402 88bd 6dc4 c8be
00000380: 2035 d53d 4fd3 a13d b158 953d c218 6e3d
00000390: 4e6e 473a 9f25 033e 54a1 3abe ef75 b93d
000003a0: 5173 b53c d6c4 bfbb f876 82bb b5b3 f5bc
000003b0: 8362 81bd 1ce8 543d bbae 763d b528 7dbd
000003c0: bd61 873d 816e 853c f5a7 17be 99b1 55bb
000003d0: 106b ed3d 2261 1c3e f9af e8bd 20f8 bb3d
000003e0: bd41 ff3c 1c87 62bd 0e8d 2e3d 9003 533d
000003f0: a27f 353d a1e4 a83d 2715 d7bd 095a 91be

linear.bias f4 [256]
-0.15468355 -0.10029163 -0.05500499 -0.051358372 -0.042939503 -0.0330266 -0.08205314 -0.068350755
-0.122916825 0.0010875319 0.023673361 -0.045558464 -0.07243441 -0.022216395 -0.011956749 -0.031882573
-0.1513043 -0.1524627 -0.09823435 -0.0518112 -0.065853626 -0.026868805 -0.057019394 -0.1446176
-0.16541213 -0.23373778 -0.078629605 -0.019504253 -0.04222222 -0.045563184 -0.007345086 -0.042155813
-0.10154452 -0.07916972 -0.17395298 -0.08245576 -0.041669656 -0.055756103 -0.18124759 -0.11782993
-0.14963813 -0.10922207 -0.026516035 -0.006454378 -0.16800429 -0.06165626 -0.105261005 -0.03461735
-0.07306793 -0.043524165 -0.1199604 -0.017761994 -0.049386937 -0.087961726 -0.05171649 -0.039962035
-0.16272816 -0.020618187 -0.042110737 -0.079278864 -0.03745447 -0.015723335 -0.062298935 -0.02426823
-0.17640297 -0.07208731 -0.0441853 -0.06274641 -0.0070964755 -0.053912047 -0.07398834 -0.16026436
-0.058534294 -0.038681597 -0.053631492 -0.013484038 -0.053686135 -0.0016731296 -0.124768645 -0.023132758
-0.057663016 -0.04915707 -0.048289742 -0.065783486 -0.04845612 -0.043641657 -0.067767926 -0.08037554
-0.060314193 -0.04552285 -0.02403719 -0.13305618 -0.096144184 -0.07675321 -0.081954576 -0.008682339
-0.15187883 -0.031082217 -0.045541074 -0.07541292 -0.0639195 -0.053457834 -0.05925167 -0.14692712
-0.2331991 -0.11141192 -0.06974226 -0.0416253 -0.039124057 -0.08500389 -0.15891957 -0.058720708
-0.03989707 0.009849784 -0.047947504 -0.11730361 -0.02803362 -0.057507712 -0.04872835 -0.021767724
-0.17829311 -0.047534794 -0.048168678 -0.020910144 -0.014418447 -0.07247635 -0.24319057 -0.12540434
-0.02017326 -0.04438807 -0.052872255 -0.03414684 0.01366084 -0.004664106 -0.044347744 -0.12926596
-0.024223348 -0.119971134 -0.119543284 -0.014054469 -0.1085113 -0.17471369 -0.035176396 -0.054998077
-0.10064686 -0.03878395 -0.05810338 -0.09656485 -0.06749193 -0.07291604 -0.04599003 -0.16605802
-0.17595981 -0.10352086 -0.06543895 -0.012144237 -0.061198287 -0.03251114 -0.02849314 -0.06713702
-0.053676456 -0.1655463 -0.050424978 -0.060885705 -0.08212728 -0.030431246 -0.05590538 -0.010367248
-0.02128617 -0.07242544 -0.06409306 -0.11221762 0.0069413134 -0.18475252 -0.07347493 -0.034988604
-0.030141128 -0.16659524 -0.09204319 -0.04303702 -0.13529126 -0.20636225 -0.027251389 -0.05986102
-0.03578813 -0.06798256 -0.0130263185 -0.1018711 -0.03460146 -0.04472483 -0.13215664 -0.03565781
-0.03811749 -0.20175439 -0.0048971097 -0.02110019 -0.054600716 -0.021259792 -0.07543946 -0.041640416
-0.030487608 -0.049555395 -0.036490504 -0.041678462 -0.11258223 -0.040253587 -0.182509 -0.058010563
-0.036161438 -0.15400994 -0.15245844 -0.2525502 -0.04805587 -0.04289652 -0.0952593 -0.13948336
-0.03430963 -0.0375724 -0.07114419 -0.034406945 -0.063544296 -0.07001547 -0.16926844 -0.08592689
-0.046372533 -0.01943018 -0.010782475 -0.060194984 -0.033777718 0.018160403 -0.05243586 -0.055933252
-0.013869058 -0.04673723 -0.091633685 -0.055926077 -0.03573658 -0.08869182 -0.034785487 -0.08405953
-0.04942907 0.006430833 -0.01760149 -0.09129476 -0.025251687 -0.064475566 -0.052070998 -0.05946619
-0.039044462 -0.06520586 -0.013491174 -0.1177049 -0.032198947 -0.10515718 -0.06699873 -0.1277652
00000000: 5d65 1ebe b365 cdbd ea4c 61bd 285d 52bd
00000010: 55e1 2fbd e646 07bd 7a0b a8bd 7bfb 8bbd
00000020: d1bb fbbd 848b 8e3a a3ee c13c 839b 3abd
00000030: 7e58 94bd 28ff b5bc 3de6 43bc 4d97 02bd
00000040: 84ef 1abe 2f1f 1cbe 172f c9bd fb37 54bd
00000050: 44de 86bd f81b dcbc 2b8d 69bd a316 14be
00000060: cc61 29be f558 6fbe 8f08 a1bd 62c7 9fbc
00000070: 35f1 2cbd 76a0 3abd 0caf f0bb 93ab 2cbd
00000080: 93f6 cfbd bc23 a2bd bb20 32be 91de a8bd
00000090: cdad 2abd 8360 64bd f898 39be d150 f1bd
000000a0: bd3a 19be d2af dfbd 2838 d9bc 3f7f d3bb
000000b0: 5109 2cbe 468b 7cbd 1593 d7bd ecca 0dbd
000000c0: a4a4 95bd 6546 32bd ccad f5bd 9a81 91bc
000000d0: f549 4abd 4725 b4bd acd4 53bd 3baf 23bd
000000e0: 36a2 26be 79e7 a8bc 4f7c 2cbd f55c a2bd
000000f0: dc69 19bd 39ce 80bc 2b2d 7fbd 2bce c6bc
00000100: fba2 34be 83a2 93bd a5fb 34bd 3181 80bd
00000110: 8d89 e8bb e1d2 5cbd 3387 97bd 571c 24be
00000120: a8c1 6fbd 9870 1ebd b2ac 5bbd 28ec 5cbc
00000130: fee5 5bbd ea4c dbba b486 ffbd e980 bdbc
00000140: 0e30 6cbd ed58 49bd 77cb 45bd 7eb9 86bd
00000150: ed79 46bd 98c1 32bd e9c9 8abd ee9b a4bd
00000160: 040c 77bd 2b76 3abd a4e9 c4bc e13f 08be
00000170: 3ee7 c4bd c930 9dbd cdd7 a7bd 5f40 0ebc
00000180: 2086 1bbe 22a0 febc 4789 3abd 1772 9abd
00000190: 3ae8 82bd 9af6 5abd e1b1 72bd 1074 16be
000001a0: bfcb 6ebe ef2b e4bd 08d5 8ebd 4a7f 2abd
000001b0: 8c40 20bd 8516 aebd d0bb 22be 2085 70bd
000001c0: 1c6b 23bd fd60 213c 9a64 44bd e03c f0bd
000001d0: c3a6 e5bc 358d 6bbd 6197 47bd 3a52 b2bc
000001e0: 7892 36be d8b3 42bd 854c 45bd c04b abbc
000001f0: 5a3b 6cbc 7b6e 94bd f306 79be ff69 00be
00000200: 6442 a5bc 44d0 35bd 9490 58bd 8fdd 0bbd
00000210: b7d1 5f3c 5bd5 98bb fba5 35bd 4c5e 04be
00000220: 0b70 c6bc 6db3 f5bd 1cd3 f4bd b744 66bc
00000230: 2c3b debd 25e8 32be 2015 10bd aa45 61bd
00000240: f11f cebd ebdb 1ebd cffd 6dbd cbc3 c5bd
00000250: 3639 8abd 0155 95bd 0b60 3cbd 1d0b 2abe
00000260: cf2e 34be bf02 d4bd db04 86bd 9ff8 46bc
00000270: 0eab 7abd 672a 05bd 726a e9bc 227f 89bd
00000280: d8db 5bbd f884 29be 6c8a 4ebd 4a63 79bd
00000290: 5932 a8bd f34a f9bc 0afd 64bd 64db 29bc
000002a0: 5660 aebc ca53 94bd 3943 83bd 5ad2 e5bd
000002b0: f573 e33b c42f 3dbe 067a 96bd 3650 0fbd
000002c0: 87ea f6bc f197 2abe 2481 bcbd 9647 30bd
000002d0: cb89 0abe a050 53be 4e3e dfbc d430 75bd
000002e0: 9396 12bd 713a 8bbd 576c 55bc cca1 d0bd
000002f0: 43ba 0dbd 6231 37bd 1254 07be ec0d 12bd
00000300: 1621 1cbd b498 4ebe ef77 a0bb 4eda acbc
00000310: 00a5 5fbd 0429 aebc 0180 9abd 248f 2abd
00000320: 26c1 f9bc 99fa 4abd 1177 15bd 09b7 2abd
00000330: 8391 e6bd f2e0 24bd a4e3 3abe 7c9c 6dbd
00000340: 041e 14bd c8b4 1dbe 111e 1cbe 434e 81be
00000350: 3bd6 44bd 43b4 2fbd 4f17 c3bd bad4 0ebe
00000360: 4188 0cbd 84e5 19bd 0cb4 91bd 4cee 0cbd
00000370: 8323 82bd 4564 8fbd b554 2dbe 70fa afbd
00000380: 20f1 3dbd 0a2c 9fbc faa8 30bc 048f 76bd
00000390: 815a 0abd 20c5 943c fcc6 56bd 441a 65bd
000003a0: 0c3b 63bc 8a6f 3fbd 71aa bbbd be12 65bd
000003b0: 8560 12bd 0fa4 b5bd 3a7b 0ebd 6727 acbd
000003c0: 2376 4abd bdb9 d23b 0031 90bc bff8 babd
000003d0: a0dc cebc c40b 84bd 6648 55bd d292 73bd
000003e0: 16ed 1fbd a68a 85bd 160a 5dbc 440f f1bd
000003f0: 0be3 03bd a65c d7bd a136 89bd e1d4 02be

critic_linear.weight f4 [1, 256]
-0.078945674 -0.00269554 0.00081949594 0.001052785 0.0016058893 5.302405e-05 0.0005970034 0.0004891601
-0.007384856 -0.0015803698 0.0024673194 0.0017350882 -0.0017526685 0.0018731023 -0.0003886901 -0.0011089016
-0.0042544124 -0.011567238 0.001193106 0.0021342256 -0.00011554001 -0.0012669963 0.00064565026 0.01922399
0.09419314 -0.0037832013 0.0033581064 0.0028018393 0.003910961 0.0020841071 5.964781e-05 1.9101326e-05
-0.0005915737 0.0016267191 -0.027387207 -4.3593685e-05 0.00052913104 0.00042284525 -0.03483293 0.07562337
-0.006125184 -0.004999249 0.0009188093 0.0008686857 -0.009282718 0.0005839466 -0.0061095385 0.0026898657
0.0003460988 0.0004022501 0.0009515084 0.0028669862 0.004085729 0.00042785465 -0.0018318717 -0.002593248
0.010297342 0.0016261919 -0.0010474214 0.0013376295 -0.00010066893 0.0019244741 0.0071312487 0.00080028176
-0.00036332663 0.0043045944 0.0018945128 4.415762e-05 0.00020374499 8.642439e-05 -0.0016760932 -0.013970934
-0.00018472414 -0.00042681553 -0.00037366964 0.0011179853 0.00048967334 0.001771303 0.005124262 0.06739876
0.0026318945 0.00014549591 0.0026402355 0.00034179882 0.00053874974 0.0023632245 -0.0017912704 -0.0013094527
-7.183185e-05 0.0010689094 -0.0001086292 -0.00467533 -0.00038179345 -0.0004180661 -0.0004597807 0.0028062242
-0.010002269 0.00036240683 0.0019052799 0.0017673213 -0.0005981385 0.00020782267 0.0007021533 -0.008856136
-0.002927997 0.0013350501 -0.0010389166 0.0032280637 0.00084957946 0.0018016219 0.0037982727 0.0014631881
-3.347698e-05 0.0029178225 0.0008132824 -0.050312936 -0.00025129243 0.0018613444 0.0008367375 -0.00023375038
-0.05999349 -0.0014661365 0.0016577733 0.00030796998 -0.0003824311 -0.023044517 -0.004549965 0.0043527414
-0.0009911665 0.002034389 -0.001659741 0.0010232822 -0.0010761617 0.00095087005 -0.00018543456 0.0772335
-0.00077649596 -0.011504013 -0.0017433389 0.0013757058 -0.0055555883 0.004029576 0.00084725855 0.0010270172
-0.001050162 0.00024783262 0.0024143066 -0.0017059111 0.0017487357 0.002065162 -0.0020620618 0.0021774138
-0.06818897 0.007950708 0.0016576324 0.0016127295 0.0017745433 0.000635321 -0.002013645 0.0010659234
0.0004168095 0.05797043 0.0013260749 -0.0008904964 0.00029047963 -5.5076758e-05 6.506486e-05 0.0002709254
0.00093845394 0.012048961 -0.0008169767 0.004139386 -0.0025444783 0.02330548 0.0040848604 -0.00040719652
0.0010052627 -0.041078683 -0.0034704811 -0.0012788837 -0.024669807 -0.009777351 -0.0017847989 -1.2054052e-06
0.0013007682 -0.0019757461 0.0019989198 1.3287612e-05 0.0007480302 -0.0017890504 -0.0045232195 0.0025432024
0.0008804734 -0.08465746 -0.0020228869 -0.0021289845 0.0005789077 0.0013519663 0.001744165 0.0038634366
-0.00039237525 0.0014042502 0.0008772411 0.008846998 0.001331796 0.0013068552 -0.05431161 0.00039668375
0.0013404595 0.07586613 0.002013591 -0.021642832 0.0016325569 -0.054799557 0.0007554493 0.03402692
0.036618467 0.0007084689 0.0015896859 0.0014340762 0.002483631 0.002572238 -0.040683683 -0.0004322926
0.00061014696 0.0026787699 -0.0022893623 0.003089641 0.0023348266 0.003979797 0.0023930685 0.00040936976
0.00023461282 -0.0029071183 -0.0017019153 0.0021269803 0.0007824914 0.0055687246 -0.0005468447 2.068627e-05
4.9585575e-05 0.0017773273 0.0025825792 -0.0018230376 0.00041335748 -0.0024925617 0.0015023747 0.0016916493
-0.0011147428 -0.0001488431 -0.00042043388 0.0006748563 0.002989322 -0.0038461834 0.0016490108 0.109921366
00000000: 45ae a1bd a8a7 30bb 71d3 563a 9afd 893a
00000010: b47c d23a 2466 5e38 3880 1c3a fb3a 003a
00000020: aafc f1bb 6924 cfba c0b2 213b e66b e33a
00000030: ccb9 e5ba e282 f53a 1ac9 cbb9 9058 91ba
00000040: 9968 8bbb 8384 3dbc ff61 9c3a 5dde 0b3b
00000050: 124e f2b8 5711 a6ba db40 293a a17b 9d3c
00000060: 55e8 c03d 96ef 77bb ad13 5c3b 109f 373b
00000070: 8527 803b 8495 083b 592e 7a38 c93b a037
00000080: d713 1bba a337 d53a 235b e0bc 5dd8 36b8
00000090: 62b5 0a3a 54b1 dd39 f9ac 0ebd 6de0 9a3d
000000a0: c4b5 c8bb bdd0 a3bb 40dc 703a 83b8 633a
000000b0: 8b16 18bc fe13 193a 8632 c8bb 7548 303b
000000c0: 9874 b539 18e5 d239 a66e 793a 0ce4 3b3b
000000d0: 94e1 853b ae51 e039 6a1b f0ba 7bf3 29bb
000000e0: 2fb6 283c f225 d53a a149 89ba 6653 af3a
000000f0: 381e d3b8 a33e fc3a 40ad e93b 00ca 513a
00000100: e07c beb9 8e0d 8d3b 4d51 f83a e235 3938
00000110: 61a4 5539 be3e b538 5bb0 dbba 58e6 64bc
00000120: 82b2 41b9 36c6 dfb9 17e9 c3b9 5d89 923a
00000130: 6c5d 003a 112b e83a 6de9 a73b 5c08 8a3d
00000140: dd7b 2c3b 4390 1839 cd07 2d3b 7633 b339
00000150: e23a 0d3a 54e0 1a3b 10c9 eaba f1a1 abba
00000160: 6ea4 96b8 a61a 8c3a dccf e3b8 8333 99bb
00000170: 732b c8b9 e22f dbb9 b90e f1b9 a1e8 373b
00000180: 8fe0 23bc 6c01 be39 96ba f93a 76a5 e73a
00000190: 65cc 1cba f9ea 5939 b610 383a 5419 11bc
000001a0: a3e3 3fbb d9fc ae3a 422c 88ba ec8d 533b
000001b0: 50b6 5e3a 6624 ec3a 71ec 783b 72c8 bf3a
000001c0: a269 0cb8 f038 3f3b 7532 553a f014 4ebd
000001d0: e6bf 83b9 5bf8 f33a 8158 5b3a e41a 75b9
000001e0: bcbb 75bd 612b c0ba a449 d93a 0877 a139
000001f0: 0981 c8b9 dbc7 bcbc df17 95bb 71a1 8e3b
00000200: 07ea 81ba 6253 053b ab8b d9ba a71f 863a
00000210: ff0d 8dba cf43 793a 3671 42b9 992c 9e3d
00000220: c38d 4bba 547b 3cbc bf80 e4ba 0751 b43a
00000230: a70b b6bb 890a 843b 8f1a 5e3a fb9c 863a
00000240: 97a5 89ba 88ef 8139 5839 1e3b e198 dfba
00000250: d535 e53a ab57 073b a823 07bb f1b2 0e3b
00000260: a9a6 8bbd b043 023c ea44 d93a 3962 d33a
00000270: cb97 e83a ac8b 263a 5bf7 03bb 74b6 8b3a
00000280: 3987 da39 6772 6d3d b1cf ad3a 3470 69ba
00000290: 844b 9839 3802 67b8 6e73 8838 fe0a 8e39
000002a0: 9402 763a 0169 453c 612a 56ba b0a3 873b
000002b0: 43c1 26bb 22eb be3c 4bda 853b fe7c d5b9
000002c0: 05c3 833a 1f42 28bd 0371 63bb 37a0 a7ba
000002d0: 5618 cabc 2f31 20bc eaef e9ba 68c9 a1b5
000002e0: 8a7e aa3a 857b 01bb 4f00 033b dced 5e37
000002f0: 7517 443a 927e eaba 8437 94bb dbab 263b
00000300: 92cf 663a e460 adbd 6992 04bb 6f86 0bbb
00000310: d7c1 173a 7634 b13a 779c e43a b631 7d3b
00000320: b7b7 cdb9 d10e b83a a7f6 653a 00f3 103c
00000330: a98f ae3a c94a ab3a da75 5ebd fef9 cf39
00000340: 5bb2 af3a b45f 9b3d 73f6 033b 4f4c b1bc
00000350: 85fb d53a 8075 60bd 5809 463a d05f 0b3d
00000360: 3ffd 153d 8bb8 393a 025d d03a 9df7 bb3a
00000370: 6ac4 223b fe92 283b efa3 26bd 55a5 e2b9
00000380: 45f2 1f3a 4d8e 2f3b 2009 16bb 937b 4a3b
00000390: e403 193b f568 823b 07d5 1c3b aea0 d639
000003a0: 6602 7639 5a85 3ebb cd12 dfba cf64 0b3b
000003b0: 1c20 4d3a d979 b63b 205a 0fba 6d87 ad37
000003c0: 1bfa 4f38 35f5 e83a 7d40 293b fef2 eeba
000003d0: e7b7 d839 3f5a 23bb 54eb c43a 55ba dd3a
000003e0: 901c 92ba c412 1cb9 ae6d dcb9 d7e8 303a
000003f0: 80e8 433b 4010 7cbb 9f23 d83a 741e e13d
