A3C-new/A3C-Pong&breakout-new/runs/PongNoFrameskip-v4/2022-11-02_20-10_Second80MSteps_OK/model_sam_BreakoutDeterministic-v4_conv.30.tar (torch, 947003 bytes, 13 tensors)

conv1.weight f4 [32, 4, 3, 3]
0	0x3e5d2d87	0.21599399
1	0xbead83f8	-0.33889747
2	0xbc301d7b	-0.010749216
3	0x3d101e8b	0.035185378
4	0xbec31002	-0.3809815
5	0x3e059559	0.13045253
6	0xbe2abb39	-0.16672982
7	0x3b469909	0.0030303618
8	0x3e2c7375	0.16840918
9	0x3de9df82	0.11419584
10	0x3e80cd18	0.25156474
11	0x3d7ac369	0.061221514
12	0x3e304a0f	0.17215751
13	0x3e18243f	0.14857577
14	0x3dd57b44	0.10423902
15	0xbe0c2915	-0.13687547
16	0x3d989f40	0.074522495
17	0x3e8f1b31	0.27950433
18	0x3e6b3305	0.22968681
19	0x3db60bb4	0.08888951
20	0xbdf9c0e7	-0.12194996
21	0xbc805637	-0.01566611
22	0xbd93b03b	-0.07211348
23	0x3ccb1d3e	0.024794217
24	0xbd76b00f	-0.060226496
25	0xbd41424f	-0.047182377
26	0x3e81b250	0.25331354
27	0x3d544ecc	0.05183296
28	0xbe72fa11	-0.23728205
29	0x3d2fed9e	0.04295122
30	0xbac44018	-0.0014972715
31	0x3d95ef68	0.07321054
32	0x3da68f4c	0.081328005
33	0xbe86de8f	-0.26341674
34	0xbe7ee7b0	-0.2489307
35	0x3cba057e	0.022707697
36	0x3ed679f3	0.41889915
37	0x3dbeb1f4	0.093112856
38	0xbdf113b1	-0.11771334
39	0x3c0545bb	0.008134301
40	0x3f23788e	0.63855827
41	0xbe82a046	-0.25512904
42	0x3e20e6e3	0.15713076
43	0x3e9cb259	0.30604818
44	0xbceb372d	-0.028712833
45	0x3e5f2b4c	0.2179386
46	0xbe25a3e7	-0.16175805
47	0xbd111315	-0.03541859
48	0xbdbdf621	-0.09275461
49	0x3e2419d3	0.16025476
50	0xbe98c496	-0.29837483
51	0xbe76d1c4	-0.24103457
52	0x3df42f3b	0.11923071
53	0x3d8c6880	0.06855869
54	0x3e677c2f	0.22605966
55	0x3e58ca8e	0.21171018
56	0xbe1a8d2b	-0.15092914
57	0xbe1814da	-0.14851704
58	0x3e8cfec7	0.2753813
59	0xbe1f12cc	-0.15534514
60	0xbeba8e55	-0.36436716
61	0x3e4d43de	0.2004542
62	0x3d02b80c	0.031913802
63	0x3e884686	0.26616305
64	0xbe184e3d	-0.14873596
65	0xbe2f1678	-0.17098415
66	0xbd8e33d4	-0.06943479
67	0x3db8474c	0.08997974
68	0xbe6ded04	-0.23234946
69	0xbeb2613f	-0.34839818
70	0x3e5f60ad	0.21814223
71	0xbe326370	-0.17420745
72	0xbd4da6d2	-0.05020792
73	0x3e84f4e1	0.25968078
74	0x3c32428c	0.010880124
75	0x3e4d7d31	0.20067288
76	0x3f0e1bcc	0.55511165
77	0xbe86e6dd	-0.2634801
78	0xbdeb4265	-0.11487273
79	0x3ec5ab9d	0.38607493
80	0xbe0fb960	-0.14035559
81	0xbe43e16c	-0.1912896
82	0x3c83f74f	0.016109137
83	0xbe8e306e	-0.27771324
84	0x3e514ff7	0.2044066
85	0x3da0b4f9	0.07847018
86	0xbf47eb29	-0.780932
87	0x3e17044e	0.14747736
88	0xbda365e5	-0.07978419
89	0xbe7c1835	-0.24618609
90	0xbdc9f5c4	-0.09861329
91	0xbe0ab912	-0.13547161
92	0x3d08eae8	0.03342715
93	0x3dc4016e	0.09570585
94	0xbdb6c332	-0.08923949
95	0xbef5faee	-0.48043007
96	0xbd09a285	-0.033602256
97	0x3d185e26	0.037199162
98	0xbe4b06b1	-0.19826771
99	0x3d136e4a	0.03599385
100	0x3ed39f63	0.4133254
101	0xbd32b82f	-0.043632682
102	0x3e9339e5	0.28755108
103	0x3e96db3e	0.29464144
104	0xbe68d1a8	-0.22736228
105	0xbdff0a5f	-0.1245315
106	0x3ec8d07c	0.3922156
107	0x3ca962d3	0.020677006
108	0x3ea56994	0.32307112
109	0x3e30326c	0.17206734
110	0x3e45a7d3	0.19302301
111	0x3eb69c74	0.3566624
112	0x3f2e0cc3	0.6798822
113	0x3de29d3d	0.11065147
114	0x3de6755c	0.11252853
115	0x3ef47cea	0.47751552
116	0x3eb1f833	0.34759673
117	0x3e23070f	0.15920661
118	0xbe83c4bb	-0.2573603
119	0xbddaf7de	-0.10691808
120	0xbd2b152f	-0.04176825
121	0x3cc4ac51	0.024007948
122	0x3e2c3b84	0.16819578
123	0xbde73cc8	-0.1129089
124	0x3e07057a	0.13185683
125	0xbe52325b	-0.20527022
126	0xbea140f0	-0.31494856
127	0xbe806606	-0.25077838
128	0x3d8b966d	0.06815801
129	0xbd0c5f1d	-0.034270395
130	0xbe5c8cd9	-0.21538104
131	0xbb06effd	-0.0020589822
132	0xbd1af060	-0.037826896
133	0xbdc81891	-0.09770311
134	0xbd9c5965	-0.07634238
135	0x3d27cbf0	0.040965974
136	0xbcecb1f2	-0.028893445
137	0x3cab9e13	0.0209494
138	0xbec64eed	-0.3873209
139	0xbe85ba10	-0.26118517
140	0xbc002395	-0.007820983
141	0xbe6e724f	-0.23285793
142	0xbe36fd38	-0.17870033
143	0xbcdbd05b	-0.02683275
144	0x3dec4053	0.11535706
145	0x3e3011d6	0.17194304
146	0xbdcd10ec	-0.10012993
147	0x3c8e1944	0.017346032
148	0x3ea9cabe	0.33162493
149	0x3e38a173	0.18030338
150	0xbe337bdb	-0.17527716
151	0x3e447a08	0.19187176
152	0x3e4b8074	0.1987322
153	0xbd4ba715	-0.04971989
154	0xbedea8e2	-0.43488222
155	0xbe7272a4	-0.23676544
156	0xbe811c26	-0.25216788
157	0xbe9adea8	-0.30247998
158	0x3d9e8901	0.07740975
159	0xbe5c9750	-0.21542096
160	0xbefecddc	-0.49766433
161	0x3eaf9128	0.34290433
162	0x3d71d77d	0.059043396
163	0x3e91d25f	0.28480813
164	0xbe9d84ec	-0.30765474
165	0x3d1bf5ba	0.03807614
166	0xbd8d2aff	-0.068929665
167	0xbd666488	-0.056248218
168	0xbe360d09	-0.1777841
169	0xbe6b8e33	-0.23003463
170	0x3daa7baa	0.08324368
171	0x3e8fe4fd	0.28104392
172	0x3e8388d9	0.25690344
173	0xbdad2b3c	-0.08455512
174	0x3e86588f	0.2623944
175	0x3e926214	0.28590453
176	0x3d9c6d69	0.07638056
177	0x3dea3452	0.114357606
178	0xbdea9593	-0.1145431
179	0x3e3bc665	0.183374
180	0xbbc468eb	-0.0059939525
181	0xbe6bdbf8	-0.2303313
182	0xbe93cbc2	-0.28866392
183	0xbe7695be	-0.2408056
184	0xbe87d70e	-0.2653126
185	0x3e5e057c	0.2168178
186	0xbeae9267	-0.3409607
187	0xbeca533d	-0.3951663
188	0xbd9786a5	-0.07398728
189	0xbe1c3a40	-0.15256596
190	0x3ce659c8	0.028118983
191	0xba99e208	-0.0011740336
192	0xbe7fb609	-0.24971785
193	0x3e1cf44b	0.15327565
194	0x3eac6170	0.3366809
195	0xbe4e4379	-0.20142926
196	0x3e0e18cd	0.13876648
197	0x3e397c5c	0.18113846
198	0x3ea92e74	0.33043253
199	0xbc8daf6c	-0.017295562
200	0x3d765956	0.06014379
201	0x3d3e83b0	0.046512306
202	0x3ebf9774	0.37420237
203	0x3d444cb5	0.047924716
204	0x3e9893e9	0.29800346
205	0x3d901a64	0.070362836
206	0xbcba2b14	-0.02272562
207	0x3de12b65	0.10994605
208	0x3c8860a9	0.016647654
209	0x3c2eca5b	0.0106683625
210	0x3d75406a	0.059875883
211	0x3e1daddd	0.15398355
212	0xbde02856	-0.109451935
213	0x3e91af6b	0.28454146
214	0x3e343987	0.1760007
215	0x3dd7119b	0.10501405
216	0x3e49f2cb	0.19721524
217	0xbea7d676	-0.32780808
218	0xbcfa0511	-0.030519994
219	0x3e54a26c	0.20765084
220	0x3d85f7cd	0.06541405
221	0x3e7a5b36	0.24448857
222	0xbe8be6ec	-0.27324617
223	0xbd76f032	-0.06028766
224	0x3e8b23f2	0.27175862
225	0xbd122d6c	-0.03568785
226	0x3d055300	0.032549858
227	0x3d4188fc	0.04724978
228	0x3e8ec11b	0.27881703
229	0x3f27eda5	0.6559699
230	0xbe91f3b2	-0.28506237
231	0xbe2b8a40	-0.16751957
232	0x3ec662c3	0.38747224
233	0xbe5bb9df	-0.21457623
234	0xbe03477e	-0.12820241
235	0x3d73f928	0.059563786
236	0xbe3a95e3	-0.1822124
237	0x3e90e01f	0.2829599
238	0x3e8ab153	0.27088413
239	0xbecd4a28	-0.4009564
240	0xbe2f5799	-0.1712326
241	0x3e0f1e17	0.13976322
242	0xbdd1a8b1	-0.102372535
243	0xbcb6f9e8	-0.022335961
244	0xbe39527e	-0.18097875
245	0x3d423f25	0.0474235
246	0xbe2bd48e	-0.16780302
247	0xbd90117a	-0.070345834
248	0xbe2516d3	-0.16121988
249	0x3e152be9	0.14567532
250	0x3e6a8349	0.22901644
251	0xbe2399c4	-0.15976626
252	0x3cca5bcc	0.024701975
253	0xbdfd9f09	-0.12383849
254	0x3ed9739b	0.42471012
255	0xbdc3e9c5	-0.095660724

conv1.bias f4 [32]
0	0xbe26ef46	-0.16302213
1	0xbe1bd134	-0.15216523
2	0x3cdbceb5	0.026831964
3	0xbe2406fe	-0.16018292
4	0xbd83a7a6	-0.06428461
5	0xbe25e095	-0.16198952
6	0xbde06e05	-0.109584846
7	0xbd6ee6d4	-0.058325604
8	0xbe869afd	-0.26290122
9	0x3b9e2845	0.004826578
10	0x3b34af68	0.002757037
11	0xbdfab5a4	-0.122416764
12	0xbe61ee50	-0.22063565
13	0x3e6639f4	0.22483045
14	0xbe0bf48a	-0.13667503
15	0x3e882df6	0.26597565
16	0xbe9fa56d	-0.31180897
17	0xbe8690ee	-0.26282448
18	0xbdf4ae83	-0.11947348
19	0xbe8e6870	-0.27814054
20	0x3c1aaed3	0.009441095
21	0x3d39737f	0.04527616
22	0xbd5cc81e	-0.053901784
23	0xbc04b586	-0.008099919
24	0x3d66acd5	0.05631717
25	0x3b05128c	0.0020305244
26	0xbddd1f49	-0.10796983
27	0x3ea95c13	0.3307806
28	0xbda2f977	-0.07957738
29	0x3f0dec8d	0.5543907
30	0xbd9c37ca	-0.076278284
31	0x3d6a90e9	0.057267103

conv2.weight f4 [32, 32, 3, 3]
0	0x3e47bbf8	0.19505298
1	0xbd3ef985	-0.04662468
2	0x3e21370f	0.1574366
3	0xbd462bee	-0.04838174
4	0xbd91977e	-0.07108973
5	0x3cf9e7a8	0.03050597
6	0x3d3c14b3	0.045918178
7	0x3c26a027	0.010170019
8	0xbd845b48	-0.06462723
9	0x3d64e177	0.055879083
10	0x3d311eba	0.043242194
11	0x3e9ded4c	0.30845106
12	0x3e08f6f4	0.13375455
13	0xbeb17417	-0.34658882
14	0x3b3c8e9c	0.0028771525
15	0xbe91115c	-0.28333557
16	0x3e1e4ec2	0.15459731
17	0xbe034d77	-0.12822519
18	0x3e062d83	0.13103299
19	0x3e3bf804	0.18356329
20	0xbda5a34d	-0.08087788
21	0x3e9caa58	0.30598712
22	0xbe2bd03f	-0.16778658
23	0xbe319844	-0.17343241
24	0xbe18ffbb	-0.14941303
25	0x3dec6996	0.115435764
26	0xbd586de3	-0.05283917
27	0x3d34ecbe	0.044171087
28	0xbcb179e4	-0.021664567
29	0x3e069e53	0.13146333
30	0xbd576381	-0.05258513
31	0xbce80f7c	-0.028327696
32	0x3dabebde	0.083945975
33	0xbe9b4b49	-0.30330876
34	0x3e7a84cb	0.24464719
35	0xbd533e78	-0.051573247
36	0xba0f5ebc	-0.00054691336
37	0x3e0b2518	0.13588369
38	0xbe110019	-0.14160194
39	0x3d5cb6db	0.053885322
40	0xbd9da79a	-0.07697983
41	0xbdf8f8ce	-0.12156831
42	0x3ca0428c	0.019562982
43	0x3df3fbe8	0.11913282
44	0x3d65dc68	0.0561184
45	0xbdcb00cd	-0.09912262
46	0x3d1a33d3	0.03764708
47	0x3ca02c42	0.019552354
48	0xbd0dff19	-0.03466711
49	0xbed81bb6	-0.42208642
50	0x3e99c78f	0.30035064
51	0xbd575ab2	-0.05257673
52	0xbd000dc4	-0.031263128
53	0x3e81201f	0.2521982
54	0x3e501e82	0.20324138
55	0x3d3f9c24	0.046779767
56	0x3df31b9f	0.11870503
57	0xbcbc4c14	-0.022985496
58	0xbf0c1de9	-0.5473314
59	0x3dda04d6	0.10645454
60	0xbe2d6ec0	-0.16936779
61	0x3d255076	0.040359937
62	0x3e31fd07	0.17381679
63	0x3cbbd8df	0.02293056
64	0x3c13ef45	0.009029214
65	0x3de65474	0.11246577
66	0xbd944d32	-0.07241286
67	0xbd0e8a35	-0.034799773
68	0xbd3a37f0	-0.045463502
69	0x3d917f79	0.071043916
70	0x3d44a93b	0.048012953
71	0x3c224345	0.009903734
72	0xbd9137aa	-0.07090695
73	0x3e8182d9	0.2529514
74	0x3d4d523d	0.050127257
75	0xbde72d58	-0.112879455
76	0xbd9281c1	-0.07153655
77	0xbe157578	-0.14595592
78	0xbdf1c70b	-0.118055426
79	0x3cdd9a70	0.02705118
80	0x3e9122f4	0.2834698
81	0xbd1b89af	-0.037973102
82	0xbd4ad996	-0.049523912
83	0xba43e840	-0.00074732676
84	0xbcaab8c5	-0.020840058
85	0x3e60e9ad	0.2196414
86	0xbe08dfae	-0.13366577
87	0xbc90f698	-0.01769571
88	0xbd32d800	-0.043663025
89	0x3e81c93a	0.25348836
90	0xbe0ef2a6	-0.1395975
91	0xbdb20d7b	-0.086939774
92	0xbe428b82	-0.1899853
93	0xbdb03ce0	-0.08605361
94	0xbe625ab7	-0.22104917
95	0x3e43e442	0.19130042
96	0xbc945dbe	-0.018111106
97	0x3e3ecc1e	0.18632552
98	0x3d470e22	0.048597462
99	0x3e284eac	0.16436261
100	0x3d2bd91a	0.04195509
101	0xbde6a4d3	-0.112619065
102	0x3dd456be	0.10368107
103	0x3c96f659	0.018428015
104	0xbd8549c1	-0.06508208
105	0xbd30e4b1	-0.043186847
106	0xbc2a1563	-0.010381076
107	0x3e115184	0.14191252
108	0xbcc5170b	-0.02405884
109	0x3e8f31e1	0.27967742
110	0x3d85a0b5	0.06524793
111	0xbe3b12fd	-0.18268962
112	0xbe79f57d	-0.24410053
113	0xbcb02353	-0.021501219
114	0xbd6ac750	-0.057318985
115	0x3d5165a9	0.05112234
116	0x3d2de9bf	0.042459246
117	0x3d0851b1	0.033281032
118	0x3c8ee858	0.017444775
119	0x3d434ca1	0.0476805
120	0x3dbfbdfe	0.0936241
121	0x3e04be37	0.12963186
122	0xbe1fc071	-0.15600754
123	0xbde4c9b3	-0.111712836
124	0xbe962cfe	-0.293312
125	0x3cb43008	0.02199556
126	0x3dafd445	0.08585409
127	0xbe944814	-0.2896124
128	0x3d91f5ba	0.07126947
129	0xbdfc8ec0	-0.12331915
130	0xbd148979	-0.036263917
131	0x3c74847e	0.014924167
132	0x3bb24ad8	0.005441051
133	0x3e5f57fb	0.21810906
134	0x3d5a7925	0.05333819
135	0x3e36007c	0.17773622
136	0xbe4472df	-0.19184445
137	0xbcef7ee0	-0.029235303
138	0x3defd935	0.11711351
139	0x3aec9ff0	0.0018053036
140	0x3c49ff72	0.012328969
141	0xbc0da313	-0.008644837
142	0x3da475e8	0.08030301
143	0xbe981eed	-0.29711094
144	0xbe21c00b	-0.15795915
145	0x3d2cc2b0	0.042177856
146	0x3e021530	0.12703395
147	0xbdbec598	-0.09315032
148	0xbe326fc0	-0.17425442
149	0x3e1c4893	0.1526206
150	0xbe0ed208	-0.13947308
151	0x3dc94e1d	0.09829352
152	0x3e1c90ba	0.15289584
153	0xbe1b3859	-0.15158214
154	0xbbe9fd48	-0.007140789
155	0x3e3f6535	0.18690951
156	0xbd8e4743	-0.06947186
157	0x3c1cbd77	0.009566656
158	0xbdbec732	-0.09315337
159	0xbcadad64	-0.021200843
160	0x3c37ee88	0.011226304
161	0x3d9cf60f	0.076641195
162	0x3d1ce227	0.038301613
163	0x3e326e75	0.17424949
164	0x3d0ac4e4	0.033879176
165	0x3d6dea47	0.058084752
166	0xbea3b747	-0.31975767
167	0x3e698450	0.2280438
168	0xbe804ea6	-0.25060004
169	0xbd39584b	-0.04525022
170	0x3e06c165	0.13159712
171	0xbdca7b3a	-0.09886785
172	0x3d27cce8	0.0409669
173	0x3d91e13b	0.071230374
174	0xbeaaa8af	-0.3333182
175	0x3dc44e4c	0.095852464
176	0x3db8cfd4	0.09024015
177	0xbae715c5	-0.0017630389
178	0xbe621c84	-0.2208119
179	0x3e5ff952	0.21872452
180	0x3d91d734	0.07121125
181	0xbca21409	-0.019784944
182	0xbca09918	-0.01960425
183	0xbe141ac2	-0.14463332
184	0x3e052a16	0.13004336
185	0xbb85d606	-0.0040843515
186	0x3e377694	0.17916328
187	0xbe07b26a	-0.13251653
188	0xbd8f8f88	-0.07009798
189	0xbda81cef	-0.08208644
190	0xbdec8ac7	-0.11549907
191	0x3eb0c009	0.3452151
192	0x3c77f98b	0.015135179
193	0x3db21ccb	0.08696898
194	0xba3614e2	-0.0006945861
195	0x3e7eccd6	0.24882826
196	0xbdb1a938	-0.08674854
197	0xbe6079a5	-0.21921404
198	0x3bbd00bd	0.0057679103
199	0x3c027a3a	0.007963711
200	0xbdc329c4	-0.095294505
201	0xbe92f974	-0.28705943
202	0x3dbc74b4	0.09201947
203	0x3d74137f	0.059588905
204	0x3e3b7ebe	0.18310067
205	0xbe4db467	-0.2008835
206	0x395824b8	0.00020613044
207	0xbe37e664	-0.17958981
208	0xbdedd191	-0.11612237
209	0x3e37d552	0.17952469
210	0xbd715f15	-0.058928568
211	0x3ecb2be6	0.3968193
212	0xbda7cb02	-0.081930175
213	0x3e065353	0.13117723
214	0x3d0f3f38	0.0349724
215	0x3bf086cc	0.007340288
216	0x3d7a60f1	0.061127607
217	0x3e5e8c58	0.21733224
218	0x3c15fe59	0.0091548795
219	0xbd8944ad	-0.06702552
220	0xbd704dc4	-0.058667913
221	0xbcf6833e	-0.030091878
222	0x3da5aba2	0.08089377
223	0xbe1132e7	-0.14179574
224	0x3d1d4aee	0.038401537
225	0x3e163449	0.14668383
226	0xbdbaaf15	-0.091154255
227	0xbe2312eb	-0.15925185
228	0xbd6ca68a	-0.05777601
229	0x3e41fba1	0.18943645
230	0x3dbe2913	0.09285178
231	0x3de384b1	0.11109293
232	0xbcd8f05d	-0.026481802
233	0xbcc7baa7	-0.024380995
234	0x3ab632e6	0.0013900667
235	0xbc36eda4	-0.011165056
236	0xbe832bf0	-0.2561946
237	0xbe026d09	-0.12736906
238	0x3d0bbf6b	0.034118097
239	0x3d1bef62	0.03807009
240	0x3df55ac9	0.119802065
241	0xbc1885b3	-0.00930922
242	0x3e031fbd	0.12805076
243	0x3b40aa80	0.00293985
244	0xbe8b1836	-0.2716691
245	0x3cb566d6	0.022143763
246	0xbe8a17bb	-0.2697123
247	0x3ef674d1	0.48136
248	0xbc8f73d8	-0.017511293
249	0x3e65ba6e	0.22434399
250	0xbd978a16	-0.07399385
251	0xbdfd81a2	-0.12378241
252	0x3d43a1a0	0.04776156
253	0xbe38b24a	-0.18036762
254	0x3e3c26af	0.18374132
255	0xbc97a650	-0.018511921

conv2.bias f4 [32]
0	0xbb5bb9cb	-0.003352749
1	0xbaab235b	-0.0013056801
2	0xba4b19e9	-0.00077476964
3	0xba2cf935	-0.0006598414
4	0xbc633242	-0.013866963
5	0xbbef95c3	-0.007311554
6	0xbc285f49	-0.010276624
7	0xbbd19afc	-0.0063966494
8	0xbb8cc876	-0.0042963577
9	0xbb5b69eb	-0.003347988
10	0xbc0721d2	-0.0082478095
11	0xbc6524ea	-0.013985852
12	0x3960bff2	0.0002143381
13	0xbbe1ee7c	-0.0068948846
14	0xbcfbca64	-0.030736156
15	0xbc79e6a3	-0.015252742
16	0x3b8ebad4	0.0043557677
17	0xbc5a0b75	-0.013308396
18	0xbb152ac9	-0.0022761098
19	0xbc3689f7	-0.011141292
20	0xbc01c06a	-0.00791941
21	0x3b2a6da9	0.0026005304
22	0x3c12c515	0.008958121
23	0x3c304c6a	0.010760406
24	0xbabe35ba	-0.0014511861
25	0x3b614b59	0.0034377186
26	0x3c522f55	0.012828668
27	0xbb0f527c	-0.0021869233
28	0xbb3b6a69	-0.002859736
29	0x3c1e84d4	0.009675223
30	0xbc644722	-0.013932975
31	0x3b852379	0.0040630666

conv3.weight f4 [32, 32, 3, 3]
0	0xbcf00eea	-0.029303987
1	0x3de95215	0.11392609
2	0x3d5fc91c	0.054635152
3	0x3d00fe3d	0.03149246
4	0xbd7862d9	-0.060641143
5	0xbd0518b9	-0.03249428
6	0xbd2701ec	-0.040773317
7	0x3e6c050d	0.23048802
8	0x3e15e117	0.14636646
9	0xbe342f55	-0.1759618
10	0x3cbf3168	0.023338988
11	0xbddf0dc2	-0.10891296
12	0xbec92e1b	-0.39292988
13	0x3d902459	0.07038183
14	0x3e108c47	0.14116012
15	0xbea9acb8	-0.33139586
16	0xbd298c35	-0.041393477
17	0x3b484ef3	0.0030564636
18	0xbe706266	-0.23475036
19	0xbd104ce6	-0.035229586
20	0x3d63651e	0.055516355
21	0xbe4a4c5f	-0.19755696
22	0x3dac51d9	0.08414049
23	0x3d58496e	0.052804403
24	0xbde211a4	-0.11038521
25	0x3e6e7368	0.23286211
26	0xbdaa5199	-0.08316345
27	0xbeb90943	-0.3613988
28	0x3e2444a7	0.16041814
29	0xbd2dbb4c	-0.04241495
30	0xbd9e31ac	-0.07724318
31	0xbcc2439d	-0.023713881
32	0xbb940532	-0.004517221
33	0xbe491543	-0.19637017
34	0x3e0d85e3	0.13820605
35	0x3c69a00f	0.014259352
36	0x3caa38ab	0.020778975
37	0x3e31ade6	0.17351493
38	0xbea6cb4c	-0.32576978
39	0xbe8b1bd5	-0.27169672
40	0x3dff2638	0.124584615
41	0xbe8650bd	-0.26233473
42	0x3e0f3dc6	0.13988408
43	0x3e5ec4ed	0.21754809
44	0xbda38811	-0.07984937
45	0x3d6d9187	0.058000114
46	0xbe4dc3f0	-0.20094275
47	0x3cdf3b01	0.027249815
48	0xbe5641f0	-0.2092359
49	0x3dbe9d1b	0.09307309
50	0xbb5a0874	-0.0033269199
51	0xbd70bbde	-0.058772914
52	0xbe00be28	-0.12572539
53	0x3d8c0efc	0.068387955
54	0x3e009969	0.12558521
55	0xbda65aef	-0.08122813
56	0x3e8b1fca	0.2717269
57	0xbc7d3f4f	-0.0154569885
58	0x3e3222ab	0.17396037
59	0x3e797ad8	0.24363267
60	0x3db4c1d6	0.08826034
61	0xbe8641cc	-0.26222074
62	0x3ec784c5	0.38968483
63	0x3dbd8ae7	0.09255009
64	0xbdb4de6b	-0.08831485
65	0x3c49fd58	0.012328468
66	0x3c69f5eb	0.014279823
67	0x3e274739	0.16335763
68	0xbe97c6ff	-0.2964401
69	0xbe83ac48	-0.25717378
70	0x3d151c67	0.03640404
71	0xbc30e868	-0.0107975975
72	0x3ca5d97d	0.020245308
73	0xbe1d8cfa	-0.1538581
74	0x3e3732e5	0.17890508
75	0x3ce40b40	0.027837396
76	0x3dd979ed	0.106189586
77	0x3e1e9a92	0.15488651
78	0xbe36412e	-0.17798302
79	0x3a665655	0.0008786668
80	0x3e2a2815	0.16616853
81	0xbdbd2703	-0.092359565
82	0xbc1452c2	-0.009052934
83	0x3d02c43e	0.031925432
84	0x3d91c0f5	0.07116882
85	0xbe84e68e	-0.2595715
86	0x3e18ccb0	0.14921832
87	0xbd6ae497	-0.057346907
88	0xbd6c092f	-0.057625946
89	0x3e41c218	0.18921697
90	0xbe7c479c	-0.24636692
91	0x3d20affc	0.03923033
92	0x3a975037	0.0011544292
93	0x3d30276f	0.043006357
94	0x3e26d1be	0.16290948
95	0x3e8f48fa	0.27985364
96	0xbd483ac3	-0.048884165
97	0x3e12207b	0.14270203
98	0x3c8405a7	0.016115976
99	0xbdd7ac36	-0.105308935
100	0x3e349eda	0.17638722
101	0xbbdc06c5	-0.006714674
102	0xbec88d4e	-0.39170307
103	0x3d44d99a	0.048059084
104	0x3e7cc05a	0.24682751
105	0xbdb784b7	-0.0896086
106	0x3e10e910	0.14151406
107	0x3e1bfc58	0.1523298
108	0x3e878b48	0.2647345
109	0xbe32596f	-0.17416929
110	0x3ba0f312	0.0049117887
111	0x3dfa8e12	0.12234129
112	0x3d4dea81	0.05027247
113	0xbe47ef71	-0.19524933
114	0x3d2640c8	0.040589124
115	0xbdc9140d	-0.098182775
116	0x3e802d5c	0.25034606
117	0x3df1428c	0.11780271
118	0x3e467634	0.19381028
119	0xbe10e77c	-0.14150804
120	0xbd8b4d23	-0.06801822
121	0xbe855d85	-0.26047912
122	0x3e065be4	0.13120991
123	0xbd9be512	-0.07612051
124	0x3e7d828f	0.24756835
125	0xb85ffb96	-5.340165e-05
126	0x3e41e159	0.1893362
127	0xbdfe58fa	-0.12419315
128	0x3e0e740f	0.1391146
129	0x3dd6675a	0.104689315
130	0x3bc23752	0.005927005
131	0x3dead05c	0.11465523
132	0xbdc18929	-0.09449989
133	0xbe5aef6f	-0.21380399
134	0x3dbd4a2a	0.09242661
135	0xbe3b9050	-0.1831677
136	0xbd64918e	-0.055802874
137	0xbc10810e	-0.008819832
138	0x3da4b824	0.080429345
139	0xbef57f9c	-0.4794892
140	0x3eb1f3c0	0.3475628
141	0xbce1fc04	-0.02758599
142	0x3d29891f	0.041390534
143	0x3d82a0f1	0.063783534
144	0xbe54c6af	-0.20778917
145	0x3d887307	0.06662565
146	0x3dd6c9da	0.10487719
147	0x3da036b8	0.07822937
148	0xbe3b4e66	-0.18291625
149	0x3dab988d	0.08378706
150	0x3e755270	0.23957229
151	0xbde7ed3f	-0.11324548
152	0xbe7aa813	-0.24478178
153	0xbd87e880	-0.06636143
154	0x3d407197	0.046983328
155	0x3dabba2e	0.0838512
156	0xbba4dac6	-0.0050309626
157	0x3aba64b5	0.0014220687
158	0x3df7c20c	0.120975584
159	0xbe70efb7	-0.23528944
160	0x3dab3204	0.08359149
161	0xbd52d039	-0.051468108
162	0xbcd2ae1b	-0.025717786
163	0xbdabeb7b	-0.08394524
164	0x3d454e47	0.048170354
165	0xbdfab61c	-0.12241766
166	0xbc6f0922	-0.01458958
167	0x3e30640a	0.17225662
168	0xbde17270	-0.11008155
169	0xbe56b27e	-0.20966527
170	0x3e0957f9	0.13412465
171	0xbcea8eab	-0.028632483
172	0xbda4e1c4	-0.08050874
173	0xbe01b051	-0.12664916
174	0xbe38b84a	-0.1803905
175	0x3db76997	0.089556865
176	0xbe508eaa	-0.20366922
177	0xbd2ecfe5	-0.042678732
178	0xbd968f73	-0.073515795
179	0xbe464b72	-0.19364718
180	0xbdc80b59	-0.097677894
181	0x3dddbefe	0.108274445
182	0xbe0bd043	-0.13653664
183	0xbc73cd4e	-0.014880491
184	0x3e56cb27	0.20975934
185	0xbd1b9041	-0.037979368
186	0x3d97cd68	0.07412225
187	0xbe14a7f8	-0.145172
188	0x3db6af09	0.08920104
189	0xbd9ced70	-0.07662475
190	0x3d9a6b2c	0.07539973
191	0x3af5375b	0.0018708514
192	0x3e8afa1f	0.27143952
193	0xbe851aa5	-0.2599689
194	0x3e8a88da	0.27057534
195	0x3dafd8fd	0.08586309
196	0xbdbeba11	-0.09312833
197	0xbe183d74	-0.14867193
198	0x3e26491f	0.16238831
199	0xbe2fdc5b	-0.17173903
200	0x3dde2e8e	0.10848723
201	0xbe389fd7	-0.18029724
202	0x3e0a1bc3	0.13487153
203	0xbe8f03c4	-0.2793256
204	0x3d0bd0fa	0.034134842
205	0xbd071aa1	-0.03298438
206	0x3e84d13a	0.25940877
207	0xbe94032f	-0.2890868
208	0x3e7827a5	0.24233873
209	0xbb89dd03	-0.004207255
210	0x3c0221da	0.007942641
211	0xbdcf4127	-0.10119849
212	0x3e07591b	0.13217585
213	0x3bf4d309	0.0074714464
214	0xbe53424e	-0.20630762
215	0x3dd7ad83	0.105311416
216	0xbd55fad2	-0.052241154
217	0x3ddaf7cf	0.10691797
218	0xbc8704aa	-0.016481716
219	0xbea3e27f	-0.3200874
220	0x3c8a1781	0.01685691
221	0xbc76dd55	-0.015067418
222	0xbdf70eb0	-0.12063348
223	0xbdf443b5	-0.119269766
224	0x3e6e1aec	0.23252457
225	0xbe029fa3	-0.12756209
226	0x3e6cb8b5	0.23117335
227	0xbdf1ad0f	-0.118005864
228	0x3c54e399	0.012993717
229	0xbf05d223	-0.5227377
230	0x3eb14b7a	0.34627897
231	0xbe40b81f	-0.18820237
232	0x3e91c793	0.28472576
233	0xbe2d7004	-0.16937262
234	0xbde7ceee	-0.113187656
235	0x3d6151bc	0.05500959
236	0x3e0a1442	0.1348429
237	0x3db8e4f3	0.090280436
238	0xbe961204	-0.2931062
239	0x3c558386	0.013031846
240	0x3da07ac0	0.07835913
241	0x3d5f7908	0.054558784
242	0x3cd68c90	0.026190072
243	0xbdca16f8	-0.09867662
244	0x3e409b3e	0.1880922
245	0x3d01ce32	0.031690784
246	0x3e399478	0.18123043
247	0xbe53aee5	-0.20672186
248	0x3e089372	0.13337496
249	0x3d9fcfc1	0.07803298
250	0x3d8c8f78	0.06863302
251	0x3e31c31c	0.17359585
252	0xbd5752da	-0.052569248
253	0xbe030ad8	-0.12797105
254	0x3dad8626	0.084728524
255	0xbe5aea5b	-0.21378462

conv3.bias f4 [32]
0	0xbd506ad3	-0.050883126
1	0xbcd395d9	-0.025828289
2	0x3c4a1e60	0.0123363435
3	0x3a85e5ea	0.0010215614
4	0xbb5a640c	-0.0033323793
5	0xbc262fb0	-0.0101432055
6	0xbc986cd4	-0.01860658
7	0xbc9ada4c	-0.01890292
8	0x3a9ee470	0.0012122523
9	0xbc734349	-0.014847585
10	0xbcd2afeb	-0.02571865
11	0xbb85c0b7	-0.0040818113
12	0x3d087966	0.0333189
13	0xbbb541a5	-0.005531507
14	0xbc366640	-0.011132777
15	0x3c4b07f5	0.012392034
16	0x3ae47947	0.0017431163
17	0xbcf41dc9	-0.029799359
18	0x3c014184	0.007889155
19	0xbc908f05	-0.017646322
20	0xbce82855	-0.028339544
21	0xbd182fe0	-0.037155032
22	0xbc77a0e7	-0.015114046
23	0xbd1625b7	-0.03665706
24	0xbcec2df1	-0.0288305
25	0xbc9c5bef	-0.019086806
26	0xbc7026e5	-0.014657711
27	0xbd243ceb	-0.04009716
28	0xbb8e4042	-0.004341156
29	0xbd2420b7	-0.04007026
30	0xbd74cb15	-0.059763987
31	0xbc618cdc	-0.013766494

conv4.weight f4 [32, 32, 3, 3]
0	0x3cde96eb	0.027171573
1	0xbb077330	-0.0020668022
2	0x3d43efbf	0.04783606
3	0xbd097487	-0.033558395
4	0x3e3d734c	0.18501014
5	0x3c4bc32a	0.012436667
6	0xbc99c0ad	-0.018768633
7	0x3ea597e2	0.3234244
8	0xbd601408	-0.054706603
9	0x3c8bf1b0	0.017083019
10	0xbdf03d7a	-0.11730476
11	0x3cf36e07	0.029715551
12	0x3c99b6ab	0.01876386
13	0x3d643993	0.05571897
14	0x3cf1cb50	0.029515892
15	0x3e02d4dc	0.12776512
16	0xbc336236	-0.010948708
17	0x3dd48afd	0.103780724
18	0xbd785855	-0.060631115
19	0x3d597d0e	0.053097777
20	0x3cbee676	0.023303252
21	0x3d87b450	0.06626189
22	0xbb5e8205	-0.003395201
23	0x3d21f95d	0.039544452
24	0xbccc18b1	-0.024914118
25	0x3d941a59	0.07231588
26	0x3d663156	0.056199394
27	0x3d9b3a10	0.07579434
28	0xbc9dffb8	-0.019286975
29	0x3d07b8da	0.033135273
30	0xbe380eb2	-0.17974356
31	0x3b258186	0.0025254204
32	0x3afb80b1	0.0019188133
33	0xbcdb895e	-0.0267989
34	0x3d5b8011	0.05358893
35	0x3e42b7e9	0.19015469
36	0x3cdffb0a	0.027341384
37	0x3e43e8a8	0.1913172
38	0x3d2b98b5	0.04189368
39	0x3e0e78e2	0.139133
40	0x3e1209f1	0.14261605
41	0xbd896899	-0.067094035
42	0x3c8ab011	0.016929658
43	0x3d8335e3	0.064067625
44	0xbe55b89f	-0.20871209
45	0x3e1d819b	0.15381472
46	0xbcbea181	-0.02327037
47	0xbd856ba3	-0.06514671
48	0x3d3007f2	0.042976327
49	0xbd197a91	-0.037470404
50	0xbdbc2959	-0.09187574
51	0x3be1340d	0.00687266
52	0x3dc07539	0.093973584
53	0xbd3515b8	-0.044210166
54	0x3e18cebf	0.14922617
55	0x3d939c8e	0.07207595
56	0xbdbd1e10	-0.092342496
57	0x3d686521	0.05673707
58	0x3eb34733	0.35015258
59	0x3df228e9	0.11824209
60	0x3d40dac0	0.047083616
61	0x3e8acf78	0.2711141
62	0x3d644660	0.055731177
63	0x3cb17d80	0.021666288
64	0x3e3aaf70	0.18230987
65	0xbe0d9bd6	-0.13828978
66	0x3d76e4fa	0.060276963
67	0x3ebd4990	0.36970186
68	0xbe7f4a30	-0.24930644
69	0x3e630e07	0.2217332
70	0x3d55f36d	0.052234102
71	0xbd97525e	-0.07388757
72	0xbcaeb14f	-0.021324782
73	0x3dc30ddb	0.09524127
74	0x3b5586ca	0.0032581561
75	0xbd9a2cb3	-0.07528057
76	0x3e6dab4f	0.2320988
77	0x3daa8f89	0.083281584
78	0xbdb0e55f	-0.08637499
79	0x3e015539	0.12630166
80	0x3d9f6236	0.07782404
81	0xbcb5c6ca	-0.022189517
82	0x3d5e3ff1	0.054260198
83	0x3b6454b3	0.0034840524
84	0x3c86534e	0.016397145
85	0x3e158505	0.14601524
86	0xbe188fd6	-0.14898619
87	0xbd025413	-0.03181846
88	0xbc32d8bf	-0.010915934
89	0xbe25ff29	-0.16210617
90	0xbc1843fd	-0.009293553
91	0x3cbb00a0	0.022827446
92	0xbd742ff4	-0.059616044
93	0x3d461f9f	0.04837
94	0xbd6fc502	-0.05853749
95	0xbe2ba9d0	-0.16763997
96	0x3e677307	0.22602473
97	0xbd9b8f20	-0.07595658
98	0xbe52f527	-0.2060133
99	0x3d567d9d	0.052365888
100	0x3dd205ac	0.10254988
101	0xbe35ee7c	-0.17766756
102	0x3d099737	0.033591475
103	0xbda83917	-0.08214014
104	0xbc0a5bf4	-0.008444775
105	0xbd3f2c66	-0.0466732
106	0xbd345899	-0.044029806
107	0x3d3bb511	0.045826975
108	0xbd9d8d67	-0.07692986
109	0xbcfe52fd	-0.031045431
110	0x3dc32b63	0.0952976
111	0xbd70eae4	-0.05881776
112	0x3d605077	0.054764237
113	0x3e0e77bb	0.13912861
114	0xbcd47515	-0.025934735
115	0x3e641ad8	0.22275865
116	0x3db8d1bf	0.09024381
117	0xbb711be6	-0.003679031
118	0x3d465413	0.048420023
119	0x3d810eda	0.06301661
120	0xbdc95512	-0.09830679
121	0x3dc72963	0.09724691
122	0x3e163cbd	0.14671607
123	0x3e1b6029	0.15173401
124	0xbe07ae8e	-0.13250181
125	0x3dc9c7fb	0.09852596
126	0x382c7735	4.1119016e-05
127	0x393e9a42	0.00018177278
128	0xbe0c6fe2	-0.13714555
129	0xbe655255	-0.22394688
130	0x3e0ac73c	0.13552564
131	0xbe2c86e6	-0.16848335
132	0x3db2cda4	0.08730629
133	0x3cb29aad	0.02180227
134	0xbd66c095	-0.056336004
135	0xbcd032b7	-0.025414808
136	0x3df0b384	0.1175299
137	0x3d8442a6	0.06458025
138	0xbbc0ecd4	-0.005887607
139	0x3e8d9b72	0.27657658
140	0xbe3cb931	-0.1843002
141	0x3d92b900	0.07164192
142	0x3e446761	0.19180061
143	0xbd835da9	-0.06414349
144	0x3dc3d284	0.09561637
145	0x38d0755d	9.9400735e-05
146	0x3dc3bbbc	0.09557292
147	0x3d3e93ff	0.04652786
148	0xbce14e6e	-0.027503219
149	0x39abef4f	0.0003279396
150	0xbc495e23	-0.01229051
151	0x3e1d71eb	0.15375488
152	0xbdae9dd8	-0.085262
153	0xbe0f74a2	-0.14009336
154	0xbd43e955	-0.047829945
155	0xbd871776	-0.06596272
156	0xbdd4539e	-0.10367511
157	0xbc77e02b	-0.015129129
158	0xbd5b872f	-0.053595718
159	0xbd656cc4	-0.05601193
160	0xbd9debfd	-0.07711027
161	0x3d08b6ee	0.03337758
162	0x3dd88406	0.105720565
163	0xbd323009	-0.04350284
164	0x3da275d6	0.07932632
165	0xbccfae60	-0.025351703
166	0x3e3d64df	0.1849551
167	0xbd613649	-0.05498341
168	0xbd44c363	-0.048037898
169	0x3e81e0c9	0.2536681
170	0xbd1b8673	-0.037970018
171	0xbdf002e4	-0.11719301
172	0x3c9a5d72	0.018843386
173	0x3e6bde32	0.2303398
174	0xbe347f4c	-0.17626685
175	0x3d8637b7	0.065535955
176	0x3dfd855c	0.12378952
177	0xbe892d64	-0.26792443
178	0xbdf6b109	-0.120454855
179	0x3c828d0d	0.015936399
180	0xbd12e8d1	-0.035866562
181	0x3e20a194	0.15686637
182	0xbd40ab1f	-0.047038194
183	0x3d11d4db	0.035603385
184	0x3dc64d92	0.09682764
185	0xbd008946	-0.031380914
186	0xbc481458	-0.012211882
187	0x3d14afca	0.036300458
188	0xbc04c98d	-0.008104694
189	0xbdc8a2a9	-0.0979665
190	0xbde291bf	-0.11062955
191	0x3de291f8	0.110629976
192	0xbcdc5017	-0.026893659
193	0xbd82f518	-0.06394404
194	0x3d17fe4a	0.037107743
195	0x3dafeff1	0.08590687
196	0xbd678291	-0.056521002
197	0xbe7d8937	-0.24759375
198	0xbe3a9e83	-0.1822453
199	0x3e596c1b	0.21232645
200	0x3dab0586	0.08350663
201	0x3cfe0012	0.031005893
202	0x3e1b4ad0	0.15165257
203	0xbc8a986e	-0.016918387
204	0xbd2a160b	-0.041524928
205	0x3cf87235	0.030327896
206	0x3d24e873	0.040260743
207	0x3caeef4e	0.021354344
208	0xbb8dbd17	-0.00432552
209	0xbe3f79e7	-0.18698846
210	0xbe5f8b92	-0.21830586
211	0x3e899131	0.26868585
212	0x3d7fee17	0.06248292
213	0xbdd89cb8	-0.10576767
214	0x3df45444	0.11930135
215	0x3d28eb12	0.041239806
216	0xbcdce4a2	-0.02696449
217	0xbe2d876d	-0.16946192
218	0xbd9853a7	-0.074378304
219	0x3da52ef9	0.080656
220	0x3cae4f66	0.021278095
221	0xbade01b8	-0.0016937768
222	0x3c83b101	0.016075613
223	0x3d7e4127	0.062073853
224	0x3e4a5cd6	0.19761977
225	0xbcb1c42a	-0.021699984
226	0x3d3eddf9	0.04659841
227	0xbcb02aa2	-0.021504704
228	0x3d730b78	0.05933711
229	0x3e1c435d	0.15260072
230	0x3e21a941	0.15787221
231	0x3d47052a	0.04858891
232	0x3e989412	0.2980047
233	0x3db13a77	0.086537294
234	0xbd65c224	-0.05609335
235	0xbca0821d	-0.019593293
236	0x39bb45fc	0.00035719562
237	0x3b772e4a	0.00377168
238	0x3e27f9b3	0.16403846
239	0xbd25859a	-0.040410616
240	0xbda766d0	-0.08173907
241	0xbd65b245	-0.056078214
242	0xbdce8053	-0.1008307
243	0x3d85d236	0.06534235
244	0x3df4ea93	0.11958804
245	0xbd28c3fe	-0.041202538
246	0x3d2f2840	0.042762995
247	0x3df0df0d	0.117612936
248	0xbe3c30c4	-0.18377978
249	0x3e854dcc	0.26035917
250	0xbcd9e46a	-0.026598174
251	0xbe0741cf	-0.13208698
252	0x3db9a144	0.09063962
253	0xbd0c2310	-0.034213126
254	0x3dc2687a	0.094925836
255	0x3e4dec8e	0.2010977

conv4.bias f4 [32]
0	0xbab14edd	-0.0013527531
1	0x3d8d3423	0.0689471
2	0xbbdc6100	-0.0067254305
3	0xbd2f9d52	-0.04287464
4	0x3db27c8f	0.08715164
5	0x3c8786d5	0.016543785
6	0x3df6ba82	0.12047292
7	0xbdcbffa5	-0.0996087
8	0xbdabd86f	-0.08390891
9	0x3cc17dc7	0.023619546
10	0xbd0e0da0	-0.034680963
11	0xbcaa610a	-0.020798225
12	0x3cef2b3a	0.029195417
13	0x3da81a10	0.08208096
14	0xbba4fb9c	-0.005034877
15	0xbd90d2dc	-0.07071468
16	0x3e2208cd	0.1582367
17	0x3e10421a	0.14087716
18	0xbdafb4d6	-0.085794136
19	0x3e3f3427	0.18672238
20	0x3b00a3d8	0.0019628908
21	0xbd868c12	-0.06569685
22	0x3d4679f8	0.048456162
23	0x3e218a3b	0.15775387
24	0xbd09ce8c	-0.033644244
25	0xbe0aa74c	-0.13540381
26	0xbc99fada	-0.018796373
27	0x3c0e7d1e	0.008696822
28	0xbe05d586	-0.13069734
29	0xbe079332	-0.13239744
30	0x3d6ae67c	0.057348713
31	0x3c9b9b9b	0.018995097

linear.weight f4 [256, 800]
0	0x3d2d1f33	0.042266082
1	0xbcd4527a	-0.025918234
2	0x3e017425	0.12641962
3	0x3d50559d	0.050862897
4	0xbe2bbaad	-0.1677043
5	0x3c4c6189	0.012474426
6	0x3e30d9bd	0.1727056
7	0x3e6a15d4	0.2285989
8	0x3e680059	0.22656383
9	0xbdef191f	-0.11674713
10	0x3d9d5e79	0.07684035
11	0xbc8551f9	-0.01627444
12	0x3e184774	0.14871007
13	0x3df43ce1	0.11925674
14	0xbd665f9a	-0.056243517
15	0x3ce07e2b	0.027403912
16	0xbd900d25	-0.07033757
17	0x3d0b41e2	0.033998378
18	0xbe0f7ec4	-0.14013201
19	0x3d027df3	0.031858396
20	0x3dfe8b1c	0.12428877
21	0xbdb100bf	-0.086427204
22	0xbf13f6a7	-0.57798237
23	0xbeb1e68e	-0.34746212
24	0xbc8c5083	-0.017128235
25	0x3d6c5171	0.057694856
26	0xbdc44fb1	-0.095855124
27	0xbcd6f860	-0.026241481
28	0xbc7371db	-0.014858688
29	0x3e2b21df	0.1671214
30	0x3dcddfeb	0.100524746
31	0xbc818488	-0.015810266
32	0x3dc9bea4	0.09850815
33	0x3d04c6f9	0.032416318
34	0x3ea166e6	0.31523818
35	0x3dd9e6f1	0.10639752
36	0xbdf22e00	-0.1182518
37	0x3d2117a6	0.039329194
38	0x3ceb06d7	0.028689785
39	0x3d410f09	0.04713348
40	0xbd3cb5fa	-0.046071984
41	0xbe0425f3	-0.12905101
42	0xbdda2a26	-0.106525704
43	0xbc3d1e57	-0.011542878
44	0xbdb072c1	-0.086156376
45	0xbbd730d8	-0.006567102
46	0xbddbdff0	-0.10736072
47	0x3d8ad008	0.0677796
48	0xbe2f8dd7	-0.17143951
49	0xbd4e287b	-0.050331574
50	0xbc56f5ad	-0.013120097
51	0xbd73a891	-0.05948693
52	0xbcb3b8ff	-0.021938799
53	0xbe5db677	-0.21651636
54	0x3e515bc1	0.20445158
55	0x3d7c62fd	0.06161784
56	0x3d4f28f7	0.050576176
57	0x3cc54bdc	0.024084024
58	0xbd42b546	-0.047536157
59	0x3e09c563	0.13454203
60	0xbe117ad4	-0.14207011
61	0x3e1d7319	0.15375938
62	0xbe04f12b	-0.12982623
63	0xbd789c44	-0.0606959
64	0x3d520a53	0.051279377
65	0x3dc984b1	0.09839762
66	0x3dbffdd6	0.09374587
67	0x3bc34598	0.005959224
68	0xbbf56f60	-0.0074900836
69	0x3c594e2e	0.013263268
70	0xbd3ff479	-0.046864007
71	0x3e8a9f8a	0.27074844
72	0xbdd7dba2	-0.105399385
73	0xbe4802ef	-0.19532369
74	0xbdecd7ec	-0.11564621
75	0x3e29d4fb	0.16585152
76	0xbc8b3566	-0.016993236
77	0x3dc44396	0.095832035
78	0x3dd30c3d	0.10305069
79	0xbe5fc57d	-0.2185268
80	0x3d0538a2	0.032524712
81	0x3e494ac8	0.19657433
82	0x3d2d15bf	0.042257067
83	0x3d61562d	0.055013824
84	0xbc968017	-0.018371625
85	0xbdbed355	-0.09317652
86	0x3e12f5f0	0.1435163
87	0x3d27fd5f	0.041013118
88	0x3dd1498c	0.10219106
89	0x3d834acb	0.0641075
90	0x3de6069b	0.11231729
91	0x3e404f75	0.1878031
92	0x3e329392	0.17439106
93	0x3d8e8845	0.06959585
94	0xbd1b3379	-0.037890885
95	0xbe5492fc	-0.20759195
96	0x3e42aa94	0.19010383
97	0xbd1d7699	-0.03844318
98	0x3d9e28a1	0.07722593
99	0xbde2c993	-0.110736035
100	0xbd03e83b	-0.032203894
101	0xbdeaef6c	-0.11471447
102	0xbd1ff76a	-0.03905431
103	0x3d83e8ff	0.06440925
104	0x3d7c8f93	0.06166036
105	0x3ddbc1bb	0.107303105
106	0xbc54f02a	-0.012996713
107	0xbdaf8ea9	-0.08572132
108	0x3c010f5f	0.0078772
109	0x3dc67694	0.09690586
110	0x3d7121b2	0.058870025
111	0x3c6c435f	0.014420359
112	0xbc5032e7	-0.012707449
113	0x3ca217db	0.019786766
114	0x3d2d1c15	0.04226311
115	0xbd7a4c46	-0.061107896
116	0x3d9aaeeb	0.07552894
117	0x3a8b699c	0.0010636332
118	0xbdab8b58	-0.08376187
119	0xbd82dcbd	-0.06389759
120	0x3da352f6	0.07974808
121	0xbe8e5a24	-0.27803147
122	0xbe4a6eb8	-0.19768798
123	0xbc9b28cf	-0.018940357
124	0x3d945460	0.07242656
125	0xbda130e6	-0.07870655
126	0xbc62f999	-0.013853454
127	0x3c05366e	0.008130653
128	0xbd1e9342	-0.038714655
129	0xbd501e95	-0.050810415
130	0xbd5aed2d	-0.053448845
131	0x3d6b5564	0.05745448
132	0xbd0b0510	-0.033940375
133	0x3d728214	0.059206083
134	0x3e970968	0.29499364
135	0xbd488016	-0.048950277
136	0xbe0f882f	-0.14016794
137	0x3d88d5f8	0.06681436
138	0x3d54a633	0.051916312
139	0x3e6f3463	0.23359828
140	0xbd1c95b4	-0.038228706
141	0x3d9e17e1	0.07719398
142	0x3e0220f2	0.1270788
143	0x3c8bc995	0.017063895
144	0x3d1220a8	0.035675675
145	0x3d8dd1fd	0.06924818
146	0xbdd57290	-0.10422242
147	0xbe83138e	-0.25600857
148	0xbe3580a2	-0.17724851
149	0x3e044b20	0.12919283
150	0x3d8faca1	0.07015348
151	0xbd1d45aa	-0.038396515
152	0xbd108720	-0.035285115
153	0x3d5b7ef8	0.053587884
154	0x3d4787dd	0.048713554
155	0x3e63721c	0.22211498
156	0xbe10e600	-0.14150238
157	0x3c493792	0.012281315
158	0xbb88ac98	-0.0041709654
159	0x3c3fd73b	0.01170903
160	0xbdea9ece	-0.11456071
161	0x3e22ccb0	0.15898395
162	0x3cc54e77	0.024085267
163	0x3c294df1	0.010333524
164	0xbe1a8161	-0.15088417
165	0x3c9a9d02	0.018873695
166	0x3dbb069e	0.091321215
167	0xbd9dd4dd	-0.07706616
168	0xbd68d60f	-0.056844767
169	0xbdc5317c	-0.09628579
170	0x3b03baf9	0.0020100458
171	0xbdcaa027	-0.09893828
172	0xbd9f7a39	-0.07786984
173	0xbec1d52f	-0.3785796
174	0xbd88dedd	-0.06683133
175	0x3d38573d	0.045005072
176	0xbd9c78bb	-0.07640215
177	0xbd4de4e1	-0.050267104
178	0x3e07b401	0.1325226
179	0x3c52a2f1	0.012856231
180	0x3d9b51e3	0.07583978
181	0x3e023c3e	0.12718293
182	0x3df5a8ab	0.119950615
183	0x3dd35086	0.10318093
184	0x3c73a1d8	0.0148701295
185	0xbe1187f2	-0.14212015
186	0x3e52f87a	0.20602599
187	0x3d593d9d	0.053037275
188	0x3e0ad361	0.13557197
189	0x3d2c2e79	0.042036507
190	0xbd9d8455	-0.07691256
191	0x3e5f44bd	0.21803565
192	0x3cd0a228	0.025467947
193	0xbda680ac	-0.08130011
194	0x3da55259	0.08072347
195	0xbe7e42ac	-0.24830121
196	0x3e8e3ade	0.27779287
197	0xbd06cbbe	-0.032909147
198	0xbd02f44e	-0.03197127
199	0xbe294d58	-0.1653341
200	0xbe0a4c3f	-0.13505648
201	0x3cd1f092	0.025627408
202	0x3d999b83	0.07500365
203	0x3df64d6b	0.12026485
204	0x3d3053bc	0.043048605
205	0x3d6fb526	0.058522366
206	0x3df98f34	0.12185517
207	0x3e20d7b9	0.15707292
208	0x3e0462c9	0.12928309
209	0x3b80e933	0.0039340495
210	0xbc02b045	-0.007976596
211	0x3dd992a9	0.10623676
212	0x3d80d4d8	0.06290597
213	0x3de603a0	0.1123116
214	0x3d59edf8	0.05320546
215	0x3cf2793a	0.029598821
216	0xbe6c94d3	-0.23103647
217	0xbd9ba934	-0.07600632
218	0xbc8acdc5	-0.016943822
219	0x3b92e8aa	0.004483302
220	0xbd954b5a	-0.07289763
221	0xbda66183	-0.08124068
222	0xbd83b71a	-0.06431408
223	0xbec12354	-0.37722266
224	0x3dd1e9a4	0.102496415
225	0x3d7f9d78	0.062406033
226	0x3d9fd365	0.07803992
227	0x3dabd859	0.083908744
228	0x3cd334f3	0.025782084
229	0x3df9a98d	0.12190542
230	0xbe200646	-0.15627393
231	0x3de361aa	0.11102612
232	0x3d0ab13a	0.033860423
233	0x3c0cecb4	0.008601356
234	0x3ac2b7f3	0.0014855847
235	0xbca1a764	-0.019733138
236	0xbd9d06f7	-0.07667344
237	0x3d07bdc2	0.03313995
238	0x3d5a3c6d	0.053280283
239	0xbd4a2aa1	-0.04935706
240	0x3d5ab4f8	0.05339524
241	0x3c219939	0.009863191
242	0xbe2e1163	-0.1699882
243	0x3aacc311	0.0013180693
244	0x3df0aef2	0.11752118
245	0x3e1f82f0	0.15577292
246	0xbe061eab	-0.13097636
247	0x3daa4039	0.08313031
248	0x3c6c2eab	0.014415423
249	0xbcf61612	-0.03003982
250	0x3d17381e	0.036918752
251	0x3b2f0fae	0.0026712227
252	0x3cd6b49a	0.026209164
253	0x3dbf7448	0.09348351
254	0xbdaf931a	-0.08572979
255	0xbe86436e	-0.2622332

linear.bias f4 [256]
0	0xbe0ed1b5	-0.13947184
1	0xbde358c1	-0.11100913
2	0xbd840911	-0.06447042
3	0xbd54e8d1	-0.051979844
4	0xbd55266f	-0.052038606
5	0xbd27c311	-0.040957514
6	0xbd9b7ffd	-0.07592771
7	0xbd9f00c2	-0.077638164
8	0xbdf60f72	-0.12014665
9	0x3c632ab7	0.0138651645
10	0x3cdf2c2e	0.027242746
11	0xbd42ba5d	-0.04754101
12	0xbd8c1c25	-0.06841306
13	0xbcd05073	-0.025428986
14	0xbca1789a	-0.019710828
15	0xbc7c1628	-0.015386142
16	0xbe0f44cd	-0.13991089
17	0xbe1b058d	-0.15138836
18	0xbdbfc962	-0.093645826
19	0xbd100dc0	-0.035169363
20	0xbd918a60	-0.07106471
21	0xbd06cc61	-0.032909755
22	0xbd58d3e7	-0.05293646
23	0xbdf6d05f	-0.120514624
24	0xbe1a7b58	-0.15086114
25	0xbe56f1c5	-0.20990665
26	0xbd84770c	-0.06468019
27	0xbc9fbe23	-0.019499844
28	0xbd2bc015	-0.04193123
29	0xbd13e93b	-0.036111098
30	0x3b99494a	0.004677926
31	0xbcd342ff	-0.025788782
32	0xbdde0a10	-0.10841763
33	0xbdb503d2	-0.08838619
34	0xbe357b8f	-0.17722915
35	0xbda0da64	-0.07854155
36	0xbd24778d	-0.040153075
37	0xbd7a6587	-0.06113198
38	0xbe336d26	-0.17522106
39	0xbdee389b	-0.116318904
40	0xbe1da283	-0.15394025
41	0xbdeebe1b	-0.116573535
42	0xbc83614d	-0.016037608
43	0xbc226a15	-0.009912987
44	0xbe2e8b04	-0.17045218
45	0xbd74331b	-0.05961905
46	0xbdd97b49	-0.10619218
47	0xbcdbea7e	-0.026845213
48	0xbd9e85ff	-0.077404015
49	0xbd4df17a	-0.050279118
50	0xbde600d9	-0.112306304
51	0xbc62efa3	-0.013851079
52	0xbd4bbf77	-0.049743142
53	0xbdaa19b1	-0.083056815
54	0xbd348ef1	-0.044081632
55	0xbd2cbd01	-0.042172436
56	0xbe145da2	-0.14488843
57	0xbd170223	-0.036867272
58	0xbd36255b	-0.04446922
59	0xbdb5bd00	-0.088739395
60	0xbd177448	-0.03697613
61	0xbc35f858	-0.011106573
62	0xbd893ffc	-0.06701657
63	0xbcc6e78b	-0.02428033
64	0xbe18cb8b	-0.14921395
65	0xbd5d45e5	-0.054021735
66	0xbd06e363	-0.032931697
67	0xbd77b511	-0.060475413
68	0xbbc4614d	-0.0059930445
69	0xbd3decee	-0.046368532
70	0xbd950394	-0.07276073
71	0xbe1ab916	-0.15109667
72	0xbd3fe80a	-0.04685215
73	0xbd4d2c21	-0.050090913
74	0xbd4b34be	-0.049610846
75	0xbbc27575	-0.005934412
76	0xbd60b99c	-0.05486451
77	0x39c18f8d	0.00036918782
78	0xbdc7c0e3	-0.09753587
79	0xbce62414	-0.028093375
80	0xbd7a72b0	-0.06114453
81	0xbd2650f6	-0.040604554
82	0xbd6d5315	-0.05794056
83	0xbd887a03	-0.06663897
84	0xbd5c7db0	-0.053830802
85	0xbd154946	-0.036446832
86	0xbd8744a9	-0.06604893
87	0xbd85e6fa	-0.06538196
88	0xbd2398cc	-0.03994064
89	0xbd3fbced	-0.046811033
90	0xbccb0098	-0.024780557
91	0xbdfef997	-0.12449949
92	0xbdb5a166	-0.08868675
93	0xbd955fc6	-0.07293658
94	0xbd776455	-0.06039842
95	0xbc15b464	-0.009137247
96	0xbe1a9952	-0.1509755
97	0xbcf33c40	-0.029691815
98	0xbd0ca121	-0.034333352
99	0xbd8a0e51	-0.06741012
100	0xbd550404	-0.052005783
101	0xbd533b72	-0.051570363
102	0xbd5ac0f1	-0.05340666
103	0xbe213af3	-0.15745144
104	0xbe5f42a5	-0.21802767
105	0xbdf7ce82	-0.12099935
106	0xbdaf4eb5	-0.08559934
107	0xbd2aab3d	-0.04166721
108	0xbd121058	-0.035660118
109	0xbd994fc1	-0.07485915
110	0xbe14d6af	-0.1453502
111	0xbd4b8c09	-0.049694095
112	0xbd3bbd82	-0.045835026
113	0x3b9ae469	0.0047269356
114	0xbd245cf3	-0.040127706
115	0xbdd46447	-0.10370689
116	0xbd16caa2	-0.03681434
117	0xbd4e60bf	-0.050385233
118	0xbd25f22b	-0.040514152
119	0xbcce69ba	-0.025196899
120	0xbe3010b6	-0.17193875
121	0xbd2aba6e	-0.0416817
122	0xbd284fc0	-0.04109168
123	0xbc6fb092	-0.0146295
124	0xbc69f0e7	-0.014278627
125	0xbdad0477	-0.08448117
126	0xbe544a9a	-0.20731583
127	0xbde4f456	-0.11179416
128	0xbc15d58c	-0.009145152
129	0xbd3ad52c	-0.045613453
130	0xbd57c46c	-0.052677557
131	0xbcd19f39	-0.025588619
132	0x3b66f011	0.0035238306
133	0x3b82ddf5	0.0039937445
134	0xbd62735a	-0.05528579
135	0xbdf472ca	-0.11935957
136	0xbd0f45d3	-0.0349787
137	0xbdd407b5	-0.103530325
138	0xbdf6a21f	-0.12042641
139	0xbc9e29ef	-0.019307105
140	0xbdd2c6f0	-0.102918506
141	0xbe1bc8ac	-0.15213269
142	0xbd1ab157	-0.03776678
143	0xbd243c9e	-0.04009687
144	0xbdd4247b	-0.103585206
145	0xbd54621b	-0.051851373
146	0xbd27f231	-0.041002456
147	0xbda45431	-0.08023871
148	0xbd7bc642	-0.06146837
149	0xbd7e5b3d	-0.06209873
150	0xbd56bfd2	-0.052429028
151	0xbe2654a3	-0.16243224
152	0xbe2bbb0d	-0.16770573
153	0xbdeb59a2	-0.114917055
154	0xbd9fd99e	-0.07805179
155	0xbb2c0afb	-0.0026251662
156	0xbd5b5edc	-0.05355726
157	0xbd4f9f8e	-0.050689273
158	0xbcb7bdac	-0.02242931
159	0xbd739ce1	-0.059475783
160	0xbd3e8693	-0.04651506
161	0xbe1e97d7	-0.1548761
162	0xbd3dbf62	-0.046325095
163	0xbd8280d8	-0.06372231
164	0xbdb01635	-0.08597986
165	0xbd1aa194	-0.03775175
166	0xbd3c66ea	-0.045996584
167	0xbc638190	-0.013885871
168	0x3a2711f9	0.00063732226
169	0xbd636bb0	-0.05552262
170	0xbd7ff578	-0.062489957
171	0xbdcffc6a	-0.10155566
172	0x3c24c2ae	0.010056181
173	0xbe32998b	-0.17441384
174	0xbd890047	-0.06689506
175	0xbd20ac61	-0.039226893
176	0xbcc6f552	-0.0242869
177	0xbe1ae652	-0.15126923
178	0xbdd550dc	-0.10415813
179	0xbd3664bb	-0.044529658
180	0xbdff0981	-0.124529846
181	0xbe423e03	-0.18968968
182	0xbd14541f	-0.036213037
183	0xbd97049c	-0.07373926
184	0xbd2d7ea1	-0.04235709
185	0xbd7f2f5f	-0.062301036
186	0xbc166c4b	-0.0091810925
187	0xbdbea00c	-0.0930787
188	0xbcd13639	-0.02553855
189	0xbd1f624a	-0.038912095
190	0xbdfc5a28	-0.123218834
191	0xbce24927	-0.027622772
192	0xbccb69a1	-0.024830641
193	0xbe3efd8e	-0.18651411
194	0xbc492323	-0.012276444
195	0xbcae17b9	-0.021251546
196	0xbd5c77d5	-0.05382522
197	0xbc2354a2	-0.0099689085
198	0xbd9f8087	-0.077881865
199	0xbd403736	-0.046927653
200	0xbd056048	-0.032562524
201	0xbd489527	-0.048970368
202	0xbd0c8030	-0.034301937
203	0xbce9692f	-0.028492538
204	0xbdf8b51f	-0.12143921
205	0xbd208c5e	-0.039196365
206	0xbe24a2ce	-0.1607773
207	0xbd8214bf	-0.06351613
208	0xbce254fa	-0.02762841
209	0xbe1b42f9	-0.15162267
210	0xbe01fbcd	-0.1269371
211	0xbe7322fa	-0.23743811
212	0xbd5dc643	-0.054144155
213	0xbd1d31a4	-0.03837742
214	0xbdbaee89	-0.09127528
215	0xbe075024	-0.13214165
216	0xbce93877	-0.028469307
217	0xbd232d39	-0.03983805
218	0xbd8446b7	-0.064588
219	0xbd1b8771	-0.037970964
220	0xbd3ee4df	-0.046604987
221	0xbd8bf9a3	-0.06834724
222	0xbe2b47bd	-0.16726585
223	0xbda2bd74	-0.079462916
224	0xbd0d3dd8	-0.034482807
225	0xbbcaee7f	-0.0061929817
226	0xbc97d613	-0.018534696
227	0xbd8437be	-0.064559445
228	0xbc64566c	-0.01393662
229	0x3c744650	0.014909342
230	0xbd2d21cd	-0.042268563
231	0xbd44a475	-0.0480084
232	0xbcffef1d	-0.031241948
233	0xbd308bf4	-0.04310222
234	0xbdaf5d3b	-0.08562704
235	0xbd4d1e13	-0.05007751
236	0xbd10c34e	-0.035342507
237	0xbdae7f98	-0.0852043
238	0xbd100ba0	-0.035167336
239	0xbdb11464	-0.08646467
240	0xbd33af94	-0.043868616
241	0x3ba9a38e	0.005176968
242	0xbbd608b9	-0.0065318015
243	0xbdca3a8a	-0.09874447
244	0xbc6a9b45	-0.014319246
245	0xbd66e3d3	-0.056369614
246	0xbd23711d	-0.039902795
247	0xbd7a26fd	-0.06107234
248	0xbd256454	-0.040378883
249	0xbd6a028b	-0.05713133
250	0xbc8cb46d	-0.017175877
251	0xbddd9660	-0.108196974
252	0xbd0a54dc	-0.033772334
253	0xbde206b9	-0.110364385
254	0xbd9e79ab	-0.0773805
255	0xbdffc089	-0.12487895
