A3C-new/A3C-Pong&breakout-new/runs/PongNoFrameskip-v4/2022-11-02_20-10_Second80MSteps_OK/model_sam_BreakoutDeterministic-v4_conv.22.tar (torch, 947003 bytes, 13 tensors)

conv1.weight f4 [32, 4, 3, 3]
0.2396891 -0.24220943 -0.02089258 0.045799248 -0.33336842 0.12925297 -0.17877966 0.016236607
0.13585322 0.10175013 0.2254685 0.06612529 0.15754291 0.097245194 0.07063783 -0.14385012
-0.0156477 0.19973159 0.25699595 0.09403483 -0.11056532 -0.01755598 -0.053046256 0.035581794
-0.0733295 -0.04597515 0.21020675 0.097373486 -0.18836284 0.065851755 0.015199867 0.11489934
0.080533184 -0.25784335 -0.25219595 0.013969426 0.4338593 0.067400716 -0.09952321 -0.03262933
0.54884547 -0.2593919 0.1299934 0.19982617 -0.01719995 0.23912753 -0.13054956 -0.013422708
-0.10429625 0.16544889 -0.2935763 -0.19257103 0.13719212 0.028463913 0.22325976 0.18086758
-0.14698344 -0.13790059 0.26491717 -0.15012692 -0.31914297 0.22243579 0.059630506 0.271124
-0.11566 -0.15165904 -0.09969671 0.08682975 -0.23091975 -0.3332124 0.22192393 -0.11096858
-0.018541314 0.17429179 0.022830715 0.20177095 0.45043802 -0.22870427 -0.097158484 0.3106026
-0.11445898 -0.20238584 0.05925466 -0.19228408 0.18508099 0.099770784 -0.63112724 0.17502593
-0.028382687 -0.15093878 -0.109929815 -0.12529998 0.05072156 0.08528825 -0.074317135 -0.45496175
-0.050174654 0.06252301 -0.16802508 0.01972108 0.36986235 -0.048734974 0.27164492 0.23131345
-0.28953034 -0.15416504 0.35966447 -0.020236569 0.28050086 0.107402526 0.17906684 0.2937582
0.5561475 0.070828296 0.0917744 0.3951579 0.3295371 0.18056437 -0.24093212 -0.0990443
-0.03206653 0.028899785 0.16710775 -0.08013745 0.14598835 -0.20704478 -0.30352232 -0.21761733
0.07269599 0.014808378 -0.17158183 0.000738675 -0.0016055661 -0.04963931 -0.047807146 0.04980823
-0.0027457343 0.020738104 -0.3805345 -0.23804 -0.018217957 -0.22926423 -0.15208955 -0.019917792
0.13693024 0.10234125 -0.12870227 0.019641116 0.25917146 0.12868232 -0.19448452 0.10487846
0.1569783 -0.030456498 -0.35949767 -0.20291638 -0.20808977 -0.21501918 0.1216437 -0.17953666
-0.4338997 0.32481715 0.041860603 0.29363546 -0.2623537 0.06503473 -0.02768254 -0.04420865
-0.17414063 -0.21615088 0.05943178 0.27005053 0.21948974 -0.10283386 0.23916551 0.2554059
0.06316358 0.07364694 -0.1599953 0.18524706 0.018342236 -0.16435677 -0.29440108 -0.20915864
-0.18414338 0.21084285 -0.32671773 -0.3304933 -0.056694638 -0.14185522 -0.015809452 -0.02017444
-0.24772988 0.11406352 0.30405274 -0.21319427 0.1077805 0.17802155 0.33208132 -0.053931817
0.033179224 0.013922062 0.3298741 0.027358579 0.27875075 0.04104956 -0.032949176 0.091196954
-0.00025176653 0.008599172 0.051391292 0.1298105 -0.099816754 0.2819127 0.1549197 0.11170591
0.2167775 -0.28977343 -0.07644622 0.2262658 0.106111884 0.17465346 -0.2565919 0.0064032576
0.25808915 -0.087242804 -0.06953186 0.081957124 0.21172248 0.53575903 -0.23547581 -0.19054942
0.3152151 -0.16538431 -0.11735792 0.04741901 -0.17092544 0.29907066 0.28897318 -0.32010552
-0.18392447 0.09761934 -0.06602726 -0.039759733 -0.19396922 0.051512178 -0.15649772 -0.05011041
-0.15008748 0.12552409 0.22561394 -0.15588298 0.034750506 -0.056659583 0.34961963 -0.10459319
00000000: 0f71 753e c005 78be ea26 abbc fe97 3b3d
00000010: 44af aabe e45a 043e 0412 37be a202 853c
00000020: 1b1d 0b3e 5f62 d03d 37e1 663e b26c 873d
00000030: ee52 213e 7d28 c73d 91aa 903d 724d 13be
00000040: 9b2f 80bc 7086 4c3e f994 833e 5595 c03d
00000050: 1270 e2bd 8fd1 8fbc 0847 59bd 37be 113d
00000060: c72d 96bd 7050 3cbd 7040 573e c06b c73d
00000070: 30e2 40be 49dd 863d dd08 793c 5850 eb3d
00000080: 95ee a43d 0b04 84be d41f 81be 05e0 643c
00000090: ce22 de3e 6309 8a3d d3d2 cbbd 55a6 05bd
000000a0: 2381 0c3f 04cf 84be fd1c 053e 3b9f 4c3e
000000b0: e9e6 8cbc d9dd 743e c9ae 05be ebea 5bbc
000000c0: 4699 d5bd 6f6b 293e a24f 96be 5731 45be
000000d0: 177c 0c3e 272d e93c 359e 643e 5a35 393e
000000e0: d482 16be d035 0dbe 39a3 873e dfba 19be
000000f0: b566 a3be 35c6 633e 1e3f 743d c4d0 8a3e
00000100: 26df ecbd 824c 1bbe ca2d ccbd ccd3 b13d
00000110: 3a76 6cbe d19a aabe 0740 633e 7f43 e3bd
00000120: f4e3 97bc 8c79 323e 7b07 bb3c 0b9d 4e3e
00000130: d09f e63e 7431 6abe 07fb c6bd 4e07 9f3e
00000140: 7869 eabd 3c3e 4fbe 04b5 723d 1ee6 44be
00000150: df85 3d3e a054 cc3d 8e91 21bf ff39 333e
00000160: cf82 e8bc b28f 1abe e222 e1bd a34e 00be
00000170: 69c1 4f3d 9bab ae3d 9533 98bd bff0 e8be
00000180: f083 4dbd 100c 803d c40e 2cbe 1a8e a13c
00000190: 995e bd3e 539e 47bd 0b15 8b3e 6fdd 6c3e
000001a0: 523d 94be 71dd 1dbe f125 b83e 29c7 a5bc
000001b0: cf9d 8f3e dbf5 db3d 4c5d 373e 7a67 963e
000001c0: af5f 0e3f 6d0e 913d 37f4 bb3d 2352 ca3e
000001d0: 16b9 a83e dee5 383e e9b6 76be bdd7 cabd
000001e0: 3258 03bd 3ebf ec3c 4b1e 2b3e 1a1f a4bd
000001f0: f87d 153e 8c03 54be 4767 9bbe 14d7 5ebe
00000200: a3e1 943d d79e 723c 26b3 2fbe a4a3 413a
00000210: dc71 d2ba 9752 4bbd 6dd1 43bd b703 4c3d
00000220: c7f1 33bb f5e2 a93c 6bd5 c2be c2c0 73be
00000230: d33d 95bc 3ec4 6abe 5dbd 1bbe a32a a3bc
00000240: 7137 0c3e 4a98 d13d 87ca 03be 68e6 a03c
00000250: 1fb2 843e 4cc5 033e f326 47be 85ca d63d
00000260: ebbe 203e e87f f9bc 1410 b8be 50c9 4fbe
00000270: 7c15 55be fd2d 5cbe 5520 f93d 75d8 37be
00000280: 1a28 debe 6f4e a63e 0676 2b3d 6357 963e
00000290: 3953 86be ee30 853d 7ec6 e2bc 2114 35bd
000002a0: ec51 32be a856 5dbe bd6e 733d 1044 8a3e
000002b0: ebc1 603e 8f9a d2bd cee7 743e 90c4 823e
000002c0: e85b 813d 35d4 963d cfd5 23be 68b1 3d3e
000002d0: 7542 963c 244d 28be bdbb 96be af2d 56be
000002e0: 1590 3cbe 30e7 573e 8c47 a7be 6b36 a9be
000002f0: a338 68bd 7f42 11be d382 81bc de44 a5bc
00000300: e7ac 7dbe 239a e93d cdac 9b3e 994f 5abe
00000310: 06bc dc3d 484b 363e 9006 aa3e 9ce7 5cbd
00000320: f0e6 073d 5c19 643c 42e5 a83e 191f e03c
00000330: 6bb8 8e3e 9523 283d b7f5 06bd 78c5 ba3d
00000340: 88ff 83b9 8be3 0c3c ad7f 523d 0bed 043e
00000350: ba6c ccbd dd56 903e 45a3 1e3e 11c6 e43d
00000360: ecfa 5d3e 2f5d 94be d68f 9cbd 39b2 673e
00000370: 3051 d93d 5bd8 323e 0360 83be 6bd2 d13b
00000380: 4324 843e 5bac b2bd b866 8ebd 23d9 a73d
00000390: c7cd 583e 8127 093f 9220 71be 631f 43be
000003a0: e063 a13e 815a 29be 5959 f0bd 703a 423d
000003b0: 1407 2fbe ca1f 993e 4bf4 933e dfe4 a3be
000003c0: b256 3cbe a6ec c73d 4d39 87bd 1adb 22bd
000003d0: de9f 46be 6ffe 523d f040 20be 9340 4dbd
000003e0: 88b0 19be 6389 003e 5707 673e ca9f 1fbe
000003f0: 8c56 0e3d e113 68bd 5801 b33e f434 d6bd

conv1.bias f4 [32]
-0.16119635 -0.15015255 0.032095406 -0.13543496 -0.022893306 -0.16337478 -0.102485076 -0.0483201
-0.23540804 -0.004530218 0.00028916626 -0.104113005 -0.17321561 0.211661 -0.11336482 0.23625149
-0.28812334 -0.23338518 -0.13510087 -0.27242455 0.030207308 0.03854758 -0.061595753 -0.012552404
0.036970817 0.0057130526 -0.09134397 0.27775028 -0.06259298 0.49291012 -0.067161605 0.086547226
00000000: a810 25be 97c1 19be 7976 033d 76af 0abe
00000010: be8a bbbc b84b 27be b2e3 d1bd 4ceb 45bd
00000020: ce0e 71be 3972 94bb 3d9b 9739 3339 d5bd
00000030: 6f5f 31be a9bd 583e d12b e8bd e9eb 713e
00000040: e784 93be 86fc 6ebe e257 0abe 3b7b 8bbe
00000050: 5175 f73c 11e4 1d3d d44b 7cbd 99a8 4dbc
00000060: b66e 173d 8f34 bb3b 8c12 bbbd 4935 8e3e
00000070: c030 80bd b75e fc3e 068c 89bd ac3f b13d

conv2.weight f4 [32, 32, 3, 3]
0.12925485 -0.010889718 0.17019644 0.0031972984 -0.10277035 0.084100485 0.008233292 0.014788398
-0.09750775 0.03807515 0.05823949 0.283874 0.1792317 -0.36251864 -0.010056668 -0.29958823
0.115821004 -0.116385505 0.07737485 0.1492979 -0.012731184 0.18643713 -0.1417512 -0.1577147
-0.18013066 0.12263174 -0.057571657 0.069001324 -0.038348965 0.091272905 -0.033037707 0.011434455
0.055832 -0.25984344 0.19216846 -0.015148515 -0.06160263 0.100338235 -0.08843874 0.07649047
-0.09964789 -0.099395774 -0.036705777 0.07662 0.051117353 -0.07268479 0.05326781 0.08722316
-0.029626712 -0.39598277 0.30251598 -0.02065496 -0.013796236 0.23337576 0.19074385 0.039161727
0.11495031 -0.02839548 -0.44376183 0.13574049 -0.12701233 0.04610217 0.11701816 0.026988061
-0.044295084 0.07974639 -0.06981029 -0.064370655 0.020545205 0.039489683 0.021534624 -0.009174502
-0.077212065 0.19621225 0.034535855 -0.08829476 -0.05379463 -0.14331672 -0.097247235 -0.016112775
0.23685893 -0.09555929 -0.04036271 0.039689697 0.039855912 0.19033709 -0.11392425 -0.064220466
-0.009844401 0.2376245 -0.094190195 -0.087372944 -0.15785185 -0.08386152 -0.23536235 0.19746153
0.026555216 0.17919481 0.033797387 0.08366891 0.032949176 -0.041794684 0.14390177 -0.024042565
-0.03587226 -0.118997686 0.023254206 0.11951077 -0.011046668 0.28903398 -0.0001811003 -0.16250084
-0.24409533 0.0008245396 -0.0508488 0.0030289656 0.032032657 0.02169185 0.04658829 -0.030523563
0.09166316 0.14766966 -0.17166683 -0.07481845 -0.26022786 0.04535874 0.03613149 -0.19979843
0.076698765 -0.057317685 -0.03036974 0.0015864962 -0.014254248 0.18791904 0.01167834 0.14281455
-0.1641255 -0.049662877 0.028457467 -0.011234497 0.045290828 -0.009306061 0.11962925 -0.26867196
-0.13849074 0.007079762 0.11140807 -0.07393076 -0.157095 0.17696905 -0.10329184 0.06922901
0.18056305 -0.13724391 -0.036226954 0.1714471 -0.08846996 0.04129657 -0.06477961 -0.029951846
-0.004267935 0.069856875 0.09742783 0.14468494 0.04426926 0.055448525 -0.29091468 0.21713248
-0.22328237 -0.039705954 0.124417275 -0.06291132 0.07297461 0.07179728 -0.2648866 0.09485797
0.08669481 0.05381525 -0.20710512 0.2103608 0.027017912 -0.028671095 -0.022126526 -0.07625926
0.100076675 0.028232502 0.1077477 -0.10272961 -0.061974343 -0.13134688 -0.06794021 0.32277822
0.113693796 0.05131561 0.0006861073 0.18444805 -0.08029081 -0.22922112 0.01966712 -0.012845256
-0.06327635 -0.28322935 0.11273333 0.05621948 0.19812329 -0.15894295 -0.011080112 -0.12677063
-0.19310828 0.1057188 -0.097707555 0.37262574 -0.04576389 0.11071476 0.02002812 0.024365377
0.0488698 0.19365011 0.00803945 -0.017490355 -0.08729626 -0.01781036 0.09123622 -0.14032574
0.02026733 0.11862358 -0.08070046 -0.062031057 -0.13624342 0.20957592 0.056971807 0.07556944
-0.030567182 0.022094034 -0.032535005 -0.019909889 -0.15946855 -0.16960047 0.015325158 0.10095749
0.10049483 -0.016089763 0.16125406 0.002342356 -0.29055324 0.043734387 -0.24846922 0.43429986
-0.0036355488 0.20782351 -0.06224877 -0.08162352 0.07868961 -0.20550808 0.15767135 -0.03256179
00000000: 625b 043e ca6a 32bc fa47 2e3e c489 513b
00000010: 4379 d2bd e03c ac3d eee4 063c 094b 723c
00000020: 25b2 c7bd b0f4 1b3d 888c 6e3d ef57 913e
00000030: 8488 373e 0b9c b9be b9c4 24bc a163 99be
00000040: 9033 ed3d 865b eebd b576 9e3d 8ce1 183e
00000050: 7596 50bc 60e9 3e3e 3a27 11be f67f 21be
00000060: 2c74 38be 5a26 fb3d 42d0 6bbd 9150 8d3d
00000070: ce13 1dbd 4aed ba3d 8c52 07bd 9557 3b3c
00000080: 18b0 643d 330a 85be cfc7 443e 7a31 78bc
00000090: 0a53 7cbd 227e cd3d 5f1f b5bd 09a7 9c3d
000000a0: 3114 ccbd 0390 cbbd cc58 16bd f2ea 9c3d
000000b0: 6e60 513d c3db 94bd 592f 5a3d 0ea2 b23d
000000c0: b8b3 f2bc 41be cabe 60e3 9a3e 9734 a9bc
000000d0: 9c09 62bc 0efa 6e3e 5b52 433e 0c68 203d
000000e0: 116b eb3d a39d e8bc c034 e3be 8eff 0a3e
000000f0: 850f 02be a1d5 3c3d 38a7 ef3d 1116 dd3c
00000100: c36e 35bd 1352 a33d b3f8 8ebd c3d4 83bd
00000110: 6b4e a83c efbf 213d 6169 b03c a750 16bc
00000120: 5c21 9ebd ddeb 483e 7875 0d3d e2d3 b4bd
00000130: c257 5cbd 9ec1 12be 8f29 c7bd f0fe 83bc
00000140: 268b 723e 97b4 c3bd 5e53 25bd aa91 223d
00000150: f43f 233d bae7 423e 1e51 e9bd 0586 83bd
00000160: 694a 21bc d653 733e cae6 c0bd 96f0 b2bd
00000170: eaa3 21be 97bf abbd d402 71be 5b33 4a3e
00000180: 538a d93c d87e 373e 216f 0a3d 9b5a ab3d
00000190: b7f5 063d e730 2bbd fc5a 133e eaf4 c4bc
000001a0: caee 12bd 0fb5 f3bd 9b7f be3c 10c2 f43d
000001b0: 15fd 34bc 43fc 933e bee5 3db9 9f66 26be
000001c0: 20f4 79be ea25 583a d546 50bd 9c81 463b
000001d0: ad34 033d 1bb3 b13c 5dd3 3e3d 8d0c fabc
000001e0: e5b9 bb3d b736 173e 6ec9 2fbe 6a3a 99bd
000001f0: 963c 85be 16ca 393d 9dfe 133d f697 4cbe
00000200: 3e14 9d3d f3c5 6abd f6c9 f8bc fbf1 cf3a
00000210: a68a 69bc d96d 403e 8256 3f3c fa3d 123e
00000220: 8410 28be 4d6b 4bbd a21f e93c e510 38bc
00000230: e082 393d 7378 18bc 2e00 f53d 5f8f 89be
00000240: 84d0 0dbe 59fd e73b ea29 e43d 0369 97bd
00000250: 83dd 20be 6037 353e ac8a d3bd f0c7 8d3d
00000260: 85e5 383e ab89 0cbe b762 14bd d48f 2f3e
00000270: bd2f b5bd 9826 293d 2cab 84bd 935d f5bc
00000280: 09da 8bbb 1f11 8f3d 3e88 c73d 4a28 143e
00000290: af53 353d fe1d 633d c5f2 94be fa57 5e3e
000002a0: 22a4 64be b6a2 22bd 7cce fe3d a6d7 80bd
000002b0: b673 953d 740a 933d 379f 87be e544 c23d
000002c0: 0c8d b13d 616d 5c3d 5d13 54be d268 573e
000002d0: ab54 dd3c a5df eabc b042 b5bc d12d 9cbd
000002e0: 00f5 cc3d d947 e73c d3aa dc3d e763 d2bd
000002f0: cfd8 7dbd cc7f 06be 3d24 8bbd 3043 a53e
00000300: 4bd8 e83d 5130 523d e2db 333a f3df 3c3e
00000310: 826f a4bd f1b8 6abe f11c a13c e974 52bc
00000320: 0897 81bd 7003 91be bbe0 e63d 6646 663d
00000330: d5e0 4a3e f1c1 22be 5c89 35bc 29d0 01be
00000340: 2dbe 45be 1983 d83d e61a c8bd cdc8 be3e
00000350: eb72 3bbd 6cbe e23d 0312 a43c e699 c73c
00000360: b32b 483d 374c 463e e6b7 033c ef47 8fbc
00000370: 62c8 b2bd 08e7 91bc 0eda ba3d 8db1 0fbe
00000380: ac07 a63c ebf0 f23d 4846 a5bd 4714 7ebd
00000390: 6583 0bbe 129b 563e 455b 693d 27c4 9a3d
000003a0: 0768 fabc 8cfe b43c 6d43 05bd 101a a3bc
000003b0: b94b 23be bfab 2dbe 5f16 7b3c cdc2 ce3d
000003c0: 3cd0 cd3d aece 83bc c91f 253e 3682 193b
000003d0: 65c3 94be d422 333d b76e 7ebe 8d5c de3e
000003e0: 6342 6ebb b0cf 543e 91f8 7ebd 3b2a a7bd
000003f0: 0528 a13d b670 52be 9974 213e 835f 05bd

conv2.bias f4 [32]
-0.009972535 0.0014392459 -0.005248557 -0.0028293175 -0.00760279 -0.012810442 -0.015869135 -0.0017902402
-0.0025943222 0.001469764 -0.009252514 -0.008478629 0.0006097537 -0.008309788 -0.02338814 -0.004725815
0.016618336 -0.017388012 0.003993137 -0.004293686 -0.000828425 -0.0021810557 0.005894936 0.017807636
-0.002569298 0.008233742 0.0023740255 0.001023158 0.0027911155 0.0049739364 -0.010847074 0.011089937
00000000: d863 23bc 14a5 bc3a 16fc abbb 126c 39bb
00000010: d320 f9bb e3e2 51bc fdff 81bc 7ea6 eaba
00000020: 8105 2abb 19a5 c03a db97 17bc f3e9 0abc
00000030: e1d7 1f3a c725 08bc 7c98 bfbc 02db 9abb
00000040: 2d23 883c 4e71 8ebc dcd8 823b 0cb2 8cbb
00000050: a92a 59ba 0bf0 0ebb 4f2a c13b 52e1 913c
00000060: ab61 28bb d1e6 063c 8a95 1b3b 7c1b 863a
00000070: 26eb 363b 67fc a23b edb7 31bc 91b2 353c

conv3.weight f4 [32, 32, 3, 3]
-0.020485159 0.043181483 0.030426372 0.03748325 -0.05418823 0.011804495 -0.0022292316 0.24410504
0.12839705 -0.13958418 -0.010476482 -0.018325211 -0.35137022 0.011172536 0.12244445 -0.29586235
-0.039591786 -0.009168358 -0.22109483 -0.045950647 0.08167842 -0.06715065 0.0062463763 0.0718472
-0.060464587 0.1800311 -0.01145261 -0.31965598 0.1468466 -0.03649714 -0.057064537 -0.051116526
-0.046111204 -0.12840609 0.05100751 0.034642704 0.062455334 0.13991599 -0.33052212 -0.22496904
0.06375921 -0.20934497 0.19745584 0.21757856 -0.08875724 0.023917269 -0.18022487 0.04205928
-0.15160371 0.08007675 -0.0028360162 -0.01738746 -0.14317665 0.09638921 0.15900385 0.0018538348
0.28389373 -0.07584261 0.14176174 0.21067318 0.0774391 -0.2010167 0.39053857 0.07424985
-0.11677454 0.04705612 0.07549398 0.094001845 -0.20331421 -0.30079368 0.0123508945 0.037430186
0.016905867 -0.100978725 0.1394055 -0.0051721325 0.16679662 0.08730394 -0.15012461 -0.020400008
0.14899343 -0.110818624 0.06090131 0.005465585 0.046819948 -0.13875975 0.078318946 -0.07828994
-0.02935805 0.055099286 -0.2504679 0.07667604 -0.023147011 0.1491886 0.1408223 0.23319724
-0.07450267 0.15884447 0.046997234 -0.08639279 0.1696324 0.028609952 -0.34062305 -0.011922006
0.24743429 0.0005211993 0.13700826 0.097825974 0.21172106 -0.0767607 -0.02070851 0.060727447
0.10377613 -0.1248076 0.01374959 -0.027051643 0.25121662 0.13204935 0.19228713 -0.14721859
0.017989969 -0.15969633 0.119110316 0.033847686 0.28373772 -0.07290329 0.20665088 -0.0025117556
0.14127132 0.122482456 0.052267898 0.14927648 -0.067280956 -0.115559325 0.11364218 -0.22104849
-0.024192214 0.062113106 -0.0050876895 -0.26287585 0.3400952 -0.043359052 0.039755274 0.07793969
-0.2209774 0.046805628 0.043350313 0.036229327 -0.11143785 -0.004175766 0.19333014 -0.10443249
-0.27278364 -0.056675136 0.014304617 0.16616705 -0.02056101 -0.03955156 0.046355113 -0.18973944
0.12282119 0.026424024 0.0054613072 -0.057885226 0.038742594 -0.14725354 0.049272686 0.19540325
-0.12191169 -0.29837918 0.13266529 -0.06430149 -0.024544941 -0.13213035 -0.1161865 0.0263658
-0.12030751 0.023767447 -0.04143981 -0.20795672 -0.17395039 0.18730833 -0.17548428 0.04602469
0.16021743 -0.0008208972 0.06254932 -0.09838356 0.05967767 -0.07715267 0.11394617 0.038247637
0.19631074 -0.14651795 0.17516099 0.0029442606 -0.06970686 -0.06769515 0.122863546 -0.19553113
0.055770736 -0.099750735 0.08744085 -0.26529938 0.059314363 -0.02771421 0.19947968 -0.2633433
0.19361988 -0.011916718 0.0060819155 -0.089615665 0.11234288 0.028213419 -0.21727188 0.14302486
-0.04271038 0.04903971 0.0071470123 -0.2960961 -0.07545978 0.017060094 -0.12725721 -0.13881819
0.19944873 -0.06379486 0.1394912 -0.13418128 0.055741854 -0.3680778 0.2689487 -0.16000365
0.29212478 -0.1181501 -0.042847678 0.019642776 0.105290584 0.09363704 -0.17997484 -0.05591756
0.12017773 0.045175172 -0.014230543 -0.071384616 0.13604806 0.09486381 0.07721265 -0.12246629
0.21400003 0.10608169 0.11425541 0.1781599 -0.07468177 -0.110975765 0.027627835 -0.23245192
00000000: 7ed0 a7bc 11df 303d ba40 f93c 0988 193d
00000010: 7af4 5dbd a467 413c 4d18 12bb acf6 793e
00000020: 847a 033e 28ef 0ebe 8da5 2bbc c11e 96bc
00000030: cce6 b3be 030d 373c 28c4 fa3d 457b 97be
00000040: ff2a 22bd e136 16bc af66 62be bf36 3cbd
00000050: 0447 a73d 4886 89bd 67ae cc3b a024 933d
00000060: b7a9 77bd 135a 383e baa3 3bbc f3a9 a3be
00000070: f55e 163e 067e 15bd 81bc 69bd 905f 51bd
00000080: 1adf 3cbd e37c 03be 40ed 503d 82e5 0d3d
00000090: 2ad1 7f3d 2346 0f3e 323a a9be 495e 66be
000000a0: 3094 823d 875e 56be dd31 4a3e eacc 5e3e
000000b0: 5bc6 b5bd 26ee c33c de8c 38be 5a46 2c3d
000000c0: 013e 1bbe 47ff a33d 75dc 39bb 2670 8ebc
000000d0: e69c 12be b567 c53d e8d1 223e 60fc f23a
000000e0: 855a 913e 5f53 9bbd fd29 113e b6ba 573e
000000f0: 6498 9e3d 52d7 4dbe acf4 c73e 4e10 983d
00000100: 7d27 efbd ebbd 403d 969c 9a3d 0a84 c03d
00000110: 9a31 50be a101 9abe 685b 4a3c 6550 193d
00000120: 2c7e 8a3c efcd cebd 51c0 0e3e fe7a a9bb
00000130: bccc 2a3e 68cc b23d 44ba 19be eb1d a7bc
00000140: bc91 183e e0f4 e2bd a773 793d a618 b33b
00000150: 46c6 3f3d 0917 0ebe af65 a03d 7a56 a0bd
00000160: 4b80 f0bc caaf 613d 543d 80be 5408 9d3d
00000170: cd9e bdbc e5c4 183e b933 103e 42cb 6e3e
00000180: db94 98bd 20a8 223e 2c80 403d b4ee b0bd
00000190: 1eb4 2d3e 6b5f ea3c 2566 aebe 8454 43bc
000001a0: 6a5f 7d3e 18a1 083a e54b 0c3e fc58 c83d
000001b0: 68cd 583e b734 9dbd e5a4 a9bc 58bd 783d
000001c0: 9488 d43d 219b ffbd f645 613c 689b ddbc
000001d0: 779f 803e f237 073e ebe6 443e 78c0 16be
000001e0: b35f 933c 6f87 23be 1cf0 f33d dfa3 0a3d
000001f0: 1246 913e 524e 95bd 4a9c 533e 449c 24bb
00000200: 6ea9 103e 15d8 fa3d dd16 563d efdb 183e
00000210: 99ca 89bd 5eaa ecbd 3bbd e83d 895a 62be
00000220: c02e c6bc 506a 7e3d a2b6 a6bb aa97 86be
00000230: f520 ae3e 4399 31bd 6dd6 223d d89e 9f3d
00000240: e647 62be 42b7 3f3d 1990 313d 3465 143d
00000250: 8739 e4bd ddd4 88bb 56f8 453e b4e0 d5bd
00000260: 4caa 8bbe 3024 68bd ea5d 6a3c b227 2a3e
00000270: 906f a8bc d100 22bd dcde 3d3d 0e4b 42be
00000280: ad89 fb3d 3277 d83c c4f4 b23b 0f19 6dbd
00000290: 8eb0 1e3d a2c9 16be 28d2 493d ca17 483e
000002a0: d6ac f9bd 28c5 98be 69d9 073e 80b0 83bd
000002b0: 7912 c9bc 2e4d 07be 30f3 edbd 17fd d73c
000002c0: c963 f6bd f3b3 c23c cabc 29bd 9bf2 54be
000002d0: 0d20 32be c1cd 3f3e 27b2 33be 6384 3c3d
000002e0: 0a10 243e 7b31 57ba dc19 803d 527d c9bd
000002f0: 9370 743d 3802 9ebd 9c5c e93d 8ea9 1c3d
00000300: af05 493e cd08 16be 675d 333e 7ff4 403b
00000310: 78c2 8ebd c1a3 8abd e29f fb3d 5039 48be
00000320: db6f 643d 1d4a ccbd 3014 b33d 52d5 87be
00000330: 9ef3 723d e908 e3bc 6744 4c3e efd4 86be
00000340: 4a44 463e 573e 43bc ce4a c73b 6b88 b7bd
00000350: 0614 e63d d41f e73c 857c 5ebe 1c75 123e
00000360: 14f1 2ebd dddd 483d 7c31 ea3b e899 97be
00000370: a88a 9abd 9cc1 8b3c b74f 02be 5b26 0ebe
00000380: 4a3c 4c3e e1a6 82bd c8d6 0e3e d166 09be
00000390: 9251 643d b274 bcbe a5b3 893e ffd7 23be
000003a0: 6191 953e aef8 f1bd 0c81 2fbd e3e9 a03c
000003b0: 97a2 d73d c7c4 bf3d 534b 38be d009 65bd
000003c0: be1f f63d 9a09 393d 3927 69bc 1932 92bd
000003d0: 2f50 0b3e f547 c23d aa21 9e3d 9bcf fabd
000003e0: d322 5b3e 5b41 d93d befe e93d 8c6f 363e
000003f0: c1f2 98bd 4347 e3bd c553 e23c e007 6ebe

conv3.bias f4 [32]
-0.041742332 -0.022698337 0.0054800073 -0.007846454 -0.006936413 0.0018496785 -0.017329186 -0.016942596
0.006688423 -0.0025273154 -0.0086399885 -0.004723769 0.03364887 -0.0016269952 -0.0169889 0.0021477875
0.025221974 -0.019401224 0.027880015 -0.006441896 -0.016335363 -0.029367158 -0.0029462765 -0.049201075
-0.02652596 -0.008954247 -0.024090536 -0.0073834574 -0.005542775 -0.015924066 -0.05100002 -0.034381006
00000000: 02fa 2abd ddf1 b9bc a291 b33b 6a8e 00bc
00000010: d94a e3bb e970 f23a f0f5 8dbc 33cb 8abc
00000020: 8f2a db3b 51a1 25bb bd8e 0dbc d9c9 9abb
00000030: 66d3 093d e640 d5ba 4e2c 8bbc e5c1 0c3b
00000040: 509e ce3c 51ef 9ebc a164 e43c 8a16 d3bb
00000050: bdd1 85bc 6593 f0bc 5116 41bb 1187 49bd
00000060: f84c d9bc d6b4 12bc 8459 c5bc eef0 f1bb
00000070: 2ba0 b5bb 3073 82bc 66e5 50bd 19d3 0cbd

conv4.weight f4 [32, 32, 3, 3]
0.07631024 0.06780334 0.09954082 -0.06513293 0.17596145 0.0582933 -0.026562683 0.23884346
-0.088769145 -0.029553417 -0.15309136 0.05057343 0.094923615 0.031570137 0.035820894 0.18083061
-0.04767568 0.076530546 -0.066067494 0.018104432 0.042308785 0.0014587977 -0.09746993 0.062613584
-0.09232971 0.10923054 0.08529329 0.07963274 0.009072734 0.027178427 -0.12312713 -0.02602708
-0.010529202 0.015357606 0.0323829 0.14155675 0.022057055 0.15076856 0.059563115 0.18536212
0.07924203 -0.0659451 0.01692718 0.017598078 -0.2000429 0.19533055 -0.06155978 -0.037403166
-0.00881604 -0.086829625 -0.040582027 0.022241594 0.055569474 -0.027832437 0.14072171 0.08379503
-0.071550734 0.049147002 0.19034979 0.10067498 -0.10981516 0.20281567 0.031311616 -0.011951955
0.1535583 -0.08702662 0.051255535 0.3614184 -0.23416992 0.23996598 -0.024674177 -0.027936244
-0.028200733 0.08764501 0.065186016 -0.05967534 0.15670685 0.07966723 -0.13083921 0.057642028
-0.0056533706 -0.043491814 0.030506771 0.024596222 0.031902585 0.13353702 -0.16766213 -0.003423961
-0.004877635 -0.14408165 0.026227213 -0.015412943 -0.03944529 0.054987427 -0.011964677 -0.15653494
0.25519043 0.029140737 -0.12645273 0.039912514 0.085970655 -0.16430543 0.0003991036 -0.009557149
-0.020185078 -0.020640014 -0.013953451 -0.00045389106 -0.06143403 -0.026765207 0.10787156 -0.022478351
0.023287825 0.06071401 0.005802861 0.27424803 0.038477004 -0.031866893 0.07398076 0.010081791
-0.062264547 0.05310435 0.11304453 0.022804495 -0.1355996 0.16267096 0.02292533 -0.029809168
-0.1050216 -0.22081573 0.16514164 -0.1202803 0.12022133 0.008776758 -0.017766735 -0.026185283
0.06680226 -0.044093966 -0.021515856 0.27268684 -0.15312587 0.04140557 0.09216121 -0.054749906
0.13890627 0.043255325 0.087437764 0.14144094 -0.06321711 0.06808193 0.00598946 0.03383756
-0.047014497 -0.0800544 0.103458844 -0.083031155 -0.086821355 0.061686274 -0.029687103 0.02603067
-0.06514836 0.06394848 0.10150698 -0.042611696 0.062075853 0.032376252 0.12493178 -0.053250324
-0.074650206 0.1897246 -0.069984116 -0.12915562 0.057288274 0.18513107 -0.09127438 0.1040275
0.2111832 -0.17215236 -0.039311692 -0.0028416438 -0.0014009104 0.16562122 -0.0721137 -0.051557265
0.09471157 0.024545193 -0.05532605 -0.0032567645 -0.010354119 -0.056363437 -0.063326165 0.14343885
0.04402446 -0.050168585 0.07810709 0.09815377 -0.07376999 -0.26606342 -0.15377077 0.24261253
0.02687559 0.08785972 0.17372943 -0.044096585 0.027409136 0.04242644 -0.013793949 0.060110956
-0.027876236 -0.21246657 -0.14499249 0.18056823 0.12118975 -0.090916164 0.10020265 0.06635425
0.04244784 -0.08637013 -0.023405408 -0.019154359 0.026700977 0.010469762 0.11194043 0.08047654
0.17408791 -0.040288992 0.02495065 0.024768429 -0.033924587 0.1481554 0.14058726 0.022411808
0.21436994 0.06915918 -0.1040955 -0.017991466 0.017707726 0.08329715 0.06708927 0.023594277
-0.05288452 -0.058841195 -0.112336546 0.0046212007 0.20887147 -0.075213335 0.010266827 0.0076243794
-0.13654317 0.20124173 -0.0050168904 -0.13545406 0.044709127 -0.073697455 0.072004385 0.22534746
00000000: 8b48 9c3d 7adc 8a3d 0fdc cb3d 6a64 85bd
00000010: 3d2f 343e f5c4 6e3d fc99 d9bc 6193 743e
00000020: 99cc b5bd 021a f2bc fbc3 1cbe 1626 4f3d
00000030: 5067 c23d b04f 013d eeb8 123d a92b 393e
00000040: 9347 43bd 0cbc 9c3d 654e 87bd bf4f 943c
00000050: fa4b 2d3d 2135 bf3a 519e c7bd 8d3b 803d
00000060: 5c17 bdbd 43b4 df3d 40ae ae3d 7d16 a33d
00000070: cea5 143c 4ba5 de3c 142a fcbd be36 d5bc
00000080: ad82 2cbc 789e 7b3c efa3 043d 41f4 103e
00000090: ffb0 b43c 1363 1a3e 74f8 733d 91cf 3d3e
000000a0: a549 a23d 390e 87bd dfaa 8a3c d829 903c
000000b0: 0cd8 4cbe bb04 483e 1c26 7cbd 1034 19bd
000000c0: 2771 10bc bbd3 b1bd 5739 26bd 0134 b63c
000000d0: d19c 633d da00 e4bc 5a19 103e bb9c ab3d
000000e0: 3189 92bd 5e4e 493d 0eeb 423e af2e ce3d
000000f0: c5e6 e0bd e9ae 4f3e 9c40 003d 22d2 43bc
00000100: 633e 1d3e 033b b2bd 53f1 513d d50b b93e
00000110: 3dca 6fbe a4b9 753e 8021 cabc 8dda e4bc
00000120: 3905 e7bc 3a7f b33d 3f80 853d 216e 74bd
00000130: c377 203e 9328 a33d b7fa 05be 0c1a 6c3d
00000140: e93f b9bb 7924 32bd 56e9 f93c 047e c93c
00000150: 49ac 023d eebd 083e 9faf 2bbe 8964 60bb
00000160: 91d4 9fbb 248a 13be 74da d63c 9286 7cbc
00000170: 6291 21bd 7f3a 613d 7e07 44bc b24a 20be
00000180: 52a8 823e 8eb8 ee3c d37c 01be 4e7b 233d
00000190: 6211 b03d af3f 28be c73e d139 9795 1cbc
000001a0: 2d5b a5bc 3f15 a9bc 049d 64bc 3af8 edb9
000001b0: 40a2 7bbd b542 dbbc c4eb dc3d 8524 b8bc
000001c0: 1cc6 be3c 41af 783d ed25 be3b 3d6a 8c3e
000001d0: 109a 1d3d dc86 02bd 3a83 973d 192e 253c
000001e0: 1c09 7fbd f283 593d e483 e73d 7ed0 ba3c
000001f0: 9fda 0abe 3793 263e e7cd bb3c 5b32 f4bc
00000200: 9115 d7bd 851d 62be e41a 293e 8555 f6bd
00000210: 9a36 f63d 64cc 0f3c 8b8b 91bc 8582 d6bc
00000220: a0cf 883d e09b 34bd 0542 b0bc 9c9d 8b3e
00000230: 07cd 1cbe e398 293d 04bf bc3d 7041 60bd
00000240: 723d 0e3e 7f2c 313d 9212 b33d e5d5 103e
00000250: f977 81bd 8a6e 8b3d 3b43 c43b 4199 0a3d
00000260: 4692 40bd 90f3 a3bd 3be2 d33d 3d0c aabd
00000270: 65cf b1bd bfaa 7c3d 5e32 f3bc 463e d53c
00000280: 816c 85bd 6cf7 823d e4e2 cf3d 9a89 2ebd
00000290: 4043 7e3d f69c 043d 3cdc ff3d 031d 5abd
000002a0: 35e2 98bd 2a47 423e d553 8fbd 5f41 04be
000002b0: 1ca7 6a3d 0093 3d3e 10ee babd 5f0c d53d
000002c0: 6940 583e b548 30be 4c05 21bd df3a 3abb
000002d0: c19e b7ba 9c98 293e 59b0 93bd b62d 53bd
000002e0: 24f8 c13d 0013 c93c 919d 62bd 716f 55bb
000002f0: 53a4 29bc 59dd 66bd 26b1 81bd a2e1 123e
00000300: fe52 343d 937d 4dbd 9cf6 9f3d d804 c93d
00000310: b814 97bd 7739 88be 1676 1dbe 6b6f 783e
00000320: 332a dc3c ccef b33d 21e6 313e 9f9e 34bd
00000330: 2089 e03c 59c7 2d3d 0400 62bc e836 763d
00000340: b45c e4bc d690 59be e978 14be e1e6 383e
00000350: 5532 f83d 4132 babd 0c37 cd3d bde4 873d
00000360: c9dd 2d3d d3e2 b0bd b3bc bfbc 9ae9 9cbc
00000370: 02bc da3c 5d89 2b3c 0641 e53d e2d0 a43d
00000380: 1a44 323e 1206 25bd 4e65 cc3c 29e7 ca3c
00000390: 82f4 0abd 0db6 173e 1bf6 0f3e f898 b73c
000003a0: cb83 5b3e 54a3 8d3d 0630 d5bd d762 93bc
000003b0: cb0f 913c b297 aa3d 1966 893d c948 c13c
000003c0: 709d 58bd 7703 71bd b410 e6bd 716d 973b
000003d0: 67e2 553e 7309 9abd 3236 283c eed5 f93b
000003e0: f9d1 0bbe 5012 4e3e ba64 a4bb 78b4 0abe
000003f0: eb20 373d b1ee 96bd 0977 933d 7cc1 663e

conv4.bias f4 [32]
-0.016334748 0.10058927 -0.024747225 -0.041996755 0.07680841 -0.008100845 0.067634374 -0.0724727
-0.0722154 0.012043805 -0.03710507 -0.03707861 0.014834893 0.09513324 0.021084867 -0.068035424
0.13522309 0.114559546 -0.101812 0.18847376 0.041487936 -0.043579936 0.040359627 0.15504988
-0.035948988 -0.13679376 -0.025191013 -0.0075923936 -0.13492177 -0.14712496 0.07498444 0.01503947
00000000: 73d0 85bc bf01 ce3d b1ba cabc ca04 2cbd
00000010: ba4d 9d3d 68b9 04bc e483 8a3d 916c 94bd
00000020: abe5 93bd 6153 453c 7cfb 17bd bedf 17bd
00000030: 0d0e 733c 37d5 c23d 2cba ac3c 2856 8bbd
00000040: ec77 0a3e 329e ea3d cf82 d0bd 44ff 403e
00000050: 41ef 293d e080 32bd 2350 253d 65c5 1e3e
00000060: 3f3f 13bd aa13 0cbe 625d cebc 9dc9 f8bb
00000070: ef28 0abe eda7 16be 7191 993d 1c68 763c

linear.weight f4 [256, 800]
0.01709282 -0.012814991 0.14219649 -0.0016134904 -0.10771017 -0.03141252 0.05391908 0.29301623
0.27925655 -0.12738772 0.04607677 0.02379648 0.1714982 0.10633363 -0.09780082 0.05931919
0.071213104 0.027495418 -0.22208439 0.02650732 0.13437921 -0.045018367 -0.45870492 -0.18696524
0.030602997 0.046348594 -0.09825608 0.012892755 0.0063558663 0.06410826 0.01792263 -0.0036654717
0.14151682 0.054828145 0.19683066 0.057335243 -0.18408506 -0.036061082 -0.013968106 0.02950888
-0.02871336 -0.07087027 -0.13637525 -0.04410731 -0.055610146 -0.0049730698 -0.032993298 0.05303671
-0.12379595 -0.023466058 -0.010577756 0.058955763 -0.010574013 -0.23179537 0.12716037 -0.009479729
-0.0054580774 0.01822764 -0.011085114 -0.030969841 -0.14539388 0.13203828 -0.096620984 0.0010326372
-0.0432628 0.057777375 0.031434383 -0.01826625 -0.023248486 0.010533057 -0.07282543 0.20570737
-0.07139635 0.07714964 -0.12725157 0.113970816 0.0021528774 0.074294165 0.11865276 -0.15584819
0.018740866 0.1357185 0.071872555 0.05542411 0.08673037 -0.08293404 0.059575 0.07012585
0.13559456 0.053968363 0.17812529 0.1843303 0.15345101 0.06962534 -0.070940755 -0.13138792
0.1713975 -0.06027191 0.078580454 -0.13763653 0.009352193 -0.026785346 -0.009842798 0.059911024
0.07978528 0.1105467 0.051679883 -0.005155169 -0.019473363 0.140448 0.019630263 0.07008138
-0.054414663 0.055669665 0.07891058 -0.07699347 0.06844971 -0.037316762 0.0037114278 -0.018008607
-0.028527834 -0.13270766 -0.011644201 -0.030135127 0.08089693 -0.038274296 0.006701877 0.060902946
-0.040986214 0.009738705 -0.04911702 0.05664183 0.02182893 0.09535346 0.16582292 -0.007482875
-0.21927543 0.087461606 0.10031845 0.08590139 0.0526935 0.1106867 0.16273107 0.03030131
-0.035546225 0.039701566 -0.10432227 -0.21202114 -0.1266352 0.093956046 0.028922264 0.011414091
0.017917698 0.07577652 -0.031955812 0.1353825 -0.10847825 0.0061204033 -0.03899157 0.010992541
-0.09607603 0.17128414 0.09795296 0.008942824 -0.06790641 0.093715295 0.058321167 -0.096557416
0.054802693 -0.059862707 -0.036063302 -0.0047276854 -0.055420846 -0.38010886 0.05257874 0.04555175
-0.014709225 -0.008815537 0.13512857 -0.0976913 0.07979814 0.06817807 0.18505825 0.11168813
-0.0113495495 -0.111194044 0.15437806 0.12016705 0.19359288 -0.026599014 -0.05298482 0.19615051
0.13525335 0.0015256776 -0.039773654 -0.19540149 0.11931883 -0.063966975 0.05947132 -0.2114497
-0.085971974 -0.012332907 0.006947794 0.032537337 0.103424154 0.04125131 0.04734867 0.13200806
0.09589653 -0.058012415 0.020246783 0.12756254 0.03392071 0.08575922 -0.012677225 -0.035055473
-0.116361335 -0.10653494 -0.01759712 0.0003994229 0.015223107 -0.057224512 -0.068918556 -0.31461352
0.19474189 0.039498363 0.07208419 0.12378366 0.025433471 -1.1735647e-06 -0.11309646 0.12254031
0.0896235 -0.0094739115 -0.065313004 -0.014833884 -0.14944851 0.06224306 0.002556555 -0.028388176
0.062059764 0.09310251 -0.06862115 -0.035421703 0.14566275 0.13877666 -0.11064406 0.065769665
0.028907666 0.08637994 0.06669783 -0.08636569 0.038986925 0.0625561 -0.056868065 -0.18074423
00000000: 3e06 8c3c f8f5 51bc f59b 113e c17b d3ba
00000010: 2697 dcbd 6aaa 00bd 41da 5c3d 3906 963e
00000020: b7fa 8e3e ed71 02be ffba 3c3d d6f0 c23c
00000030: 399d 2f3e 72c5 d93d cc4b c8bd aef8 723d
00000040: 2dd8 913d 123e e13c 176a 63be e125 d93c
00000050: b49a 093e 2e65 38bd 5fdb eabe d173 3fbe
00000060: 23b3 fa3c 06d8 3d3d 7c3a c9bd 223c 533c
00000070: df44 d03b 314b 833d 7bd2 923c 6938 70bb
00000080: c9e9 103e 7a93 603d fa8d 493e 5cd8 6a3d
00000090: cb80 3cbe c9b4 13bd 7cda 64bc 9bbc f13c
000000a0: 4838 ebbc 6f24 91bd f4a5 0bbe dea9 34bd
000000b0: 77c7 63bd 22f5 a2bb fb23 07bd 053d 593d
000000c0: bb88 fdbd e43b c0bc 534e 2dbc 997b 713d
000000d0: a03e 2dbc c45b 6dbe 5436 023e de50 1bbc
000000e0: acd9 b2bb 2252 953c 579e 35bc 77b4 fdbc
000000f0: 22e2 14be 0b35 073e 39e1 c5bd 8e59 873a
00000100: 5534 31bd f8a7 6c3d 57c1 003d 1aa3 95bc
00000110: 9c73 bebc d892 2c3c 8025 95bd f4a4 523e
00000120: 4038 92bd a100 9e3d 3c4e 02be 8869 e93d
00000130: 4a17 0d3b 8a27 983d 3800 f33d ab96 1fbe
00000140: 7286 993c caf9 0a3e eb31 933d 6404 633d
00000150: b19f b13d 52d9 a9bd ea04 743d 249e 8f3d
00000160: 4dd9 0a3e ee0d 5d3d 7a66 363e 15c1 3c3e
00000170: 4322 1d3e bb97 8e3d 6349 91bd 8e8a 06be
00000180: d482 2f3e aedf 76bd caee a03d 97f0 0cbe
00000190: f139 193c f16c dbbc b043 21bc 4365 753d
000001a0: 7766 a33d 4f66 e23d 49ae 533d b1ec a8bb
000001b0: 9a86 9fbc 9ad1 0f3e a5cf a03c d486 8f3d
000001c0: e9e1 5ebd e005 643d df9b a13d c1ae 9dbd
000001d0: 5d2f 8c3d 76d9 18bd 6d3b 733b c986 93bc
000001e0: 34b3 e9bc 84e4 07be 52c7 3ebc f1dd f6bc
000001f0: 4aad a53d 82c5 1cbd 6b9b db3b 5e75 793d
00000200: 29e1 27bd 178f 1f3c ee2e 49bd 4301 683d
00000210: 96d2 b23c ad48 c33d 7ccd 293e e832 f5bb
00000220: bd89 60be 121f b33d c273 cd3d 11ed af3d
00000230: 24d5 573d b5af e23d f9a2 263e 743a f83c
00000240: eb98 11bd 1c9e 223d eaa6 d5bd 121c 59be
00000250: a8ac 01be 076c c03d 62ee ec3c 2b02 3b3c
00000260: 23c8 923c b830 9b3d 19e4 02bd b6a1 0a3e
00000270: d829 debd aa8d c83b a0b5 1fbd 0f1a 343c
00000280: 82c3 c4bd 1c65 2f3e 909b c83d ec84 123c
00000290: 8412 8bbd ceed bf3d 2de2 6e3d e5bf c5bd
000002a0: ca78 603d 9932 75bd 1db7 13bd b3ea 9abb
000002b0: f800 63bd a19d c2be ce5c 573d 7994 3a3d
000002c0: f6fe 70bc 0b6f 10bc 255f 0a3e 6012 c8bd
000002d0: 356d a33d f2a0 8b3d e97f 3d3e bfbc e43d
000002e0: 76f3 39bc b4b9 e3bd 4815 1e3e 241a f63d
000002f0: 363d 463e 2de6 d9bc 9c06 59bd aedb 483e
00000300: db7f 0a3e 3ff9 c73a b3e9 22bd 5417 48be
00000310: 6e5d f43d 1e01 83bd 3398 733d 4586 58be
00000320: 1312 b0bd f60f 4abc 52aa e33b df45 053d
00000330: 0bd0 d33d 22f7 283d aef0 413d 1f2d 073e
00000340: 6665 c43d 6d9e 6dbd 95dc a53c c19f 023e
00000350: 71f0 0a3d 88a2 af3d 23b4 4fbc 5496 0fbd
00000360: da4e eebd fe2e dabd d627 90bc a269 d139
00000370: 576a 793c 4064 6abd 2c25 8dbd 0615 a1be
00000380: 6b6a 473e 09c9 213d e0a0 933d 4a82 fd3d
00000390: db59 d03c 6083 9db5 1e9f e7bd 6af6 fa3d
000003a0: 878c b73d 7738 1bbc d3c2 85bd d209 73bc
000003b0: 0809 19be 94f2 7e3d e08b 273b 528e e8bc
000003c0: 6132 7e3d 87ac be3d 3f89 8cbd 5916 11bd
000003d0: 9e28 153e 781b 0e3e 5a99 e2bd 3fb2 863d
000003e0: c5cf ec3c f7e7 b03d df98 883d 7fe0 b0bd
000003f0: c1b0 1f3d 6a1d 803d 7dee 68bd 0415 39be

linear.bias f4 [256]
-0.09035745 -0.082140006 -0.04471735 -0.04089279 -0.036275133 -0.036231022 -0.061893534 -0.047492195
-0.09790275 0.0045393114 0.031905852 -0.044303987 -0.050710216 -0.009481664 -0.006256847 -0.0024455292
-0.10482901 -0.11546063 -0.06786596 -0.04111502 -0.062047135 -0.021239744 -0.046947442 -0.09254183
-0.11597534 -0.17591587 -0.066954024 -0.023760816 -0.034654174 -0.030910447 0.015232644 -0.032954406
-0.09015875 -0.07517819 -0.13605891 -0.058933675 -0.034608997 -0.05111651 -0.12229757 -0.12937091
-0.1108731 -0.07946026 -0.023625696 -0.012299972 -0.14499533 -0.06334568 -0.07850692 -0.029523816
-0.07086361 -0.036955792 -0.076257706 0.0055954843 -0.044942927 -0.06038824 -0.021684064 -0.028081069
-0.105494335 -0.014280215 -0.057430968 -0.07755184 -0.033867437 0.004425961 -0.054329764 -0.019839618
-0.10358673 -0.057508986 -0.024911202 -0.052291065 0.0019133032 -0.03381719 -0.056455635 -0.12778997
-0.03844276 -0.01960098 -0.051371142 -0.020576922 -0.03676611 -0.009839808 -0.076333284 -0.017904732
-0.045476217 -0.024604624 -0.047592726 -0.052348938 -0.037555207 -0.021170108 -0.030633058 -0.04613065
-0.039472014 -0.020801896 -0.03881237 -0.101216756 -0.049881104 -0.07096996 -0.061334234 -0.006031143
-0.12972368 -0.031013729 -0.023109728 -0.04532578 -0.048596133 -0.054506656 -0.048704557 -0.08527939
-0.16587572 -0.090634145 -0.0701482 -0.01852492 -0.02457445 -0.04952713 -0.111508004 -0.04769514
-0.031863518 0.005090767 -0.01891609 -0.03569347 -0.014035478 -0.035743225 -0.044442378 -0.02144884
-0.12962686 -0.039314598 -0.041579165 -0.023197433 -0.0035372116 -0.06736048 -0.16316421 -0.0831681
-0.012418913 -0.030064087 -0.037030995 -0.034711886 0.01967249 0.0036144147 -0.027757123 -0.101595476
-0.010370701 -0.07570225 -0.08362942 -0.013479931 -0.05924114 -0.07580709 -0.017321559 -0.022353964
-0.059403144 -0.031501513 -0.048120014 -0.07310476 -0.031417992 -0.035635285 -0.052744735 -0.11755525
-0.14825076 -0.06887035 -0.06598369 -0.003310691 -0.02347375 -0.041539956 -0.027948432 -0.04943825
-0.051003825 -0.137741 -0.027574968 -0.057550035 -0.047875836 -0.03516061 -0.03966096 -0.0063926843
0.004955746 -0.056445826 -0.037608337 -0.071720235 0.01368323 -0.15091935 -0.050329734 -0.018841725
-0.016477821 -0.11232904 -0.11469352 -0.043185137 -0.08429709 -0.14111653 -0.020238964 -0.03601504
-0.021408245 -0.053893212 0.011085976 -0.061899014 -0.020517163 -0.028658418 -0.09704744 -0.03782336
-0.018610645 -0.13964824 0.00622473 -0.01322877 -0.03924932 -0.016921313 -0.041526265 -0.044268746
-0.008490088 -0.043189302 -0.025777493 -0.030616581 -0.11054283 -0.038636968 -0.10951635 -0.021251267
-0.031029724 -0.15504506 -0.10502189 -0.17257516 -0.037839044 0.005385185 -0.104930036 -0.09589767
-0.021007057 -0.048223693 -0.049262892 -0.03853255 -0.045899857 -0.054509684 -0.118044004 -0.05344455
-0.026137196 0.0062783286 -0.026923189 -0.0520676 -0.010514581 -0.0027229232 -0.033506036 -0.037906162
-0.0119593805 -0.048617184 -0.06009948 -0.046368636 -0.013857345 -0.064485416 -0.03732761 -0.060595427
-0.0026930964 0.013051674 -0.014075507 -0.08348333 -0.016834795 -0.05129695 -0.021556837 -0.04053824
-0.0038175995 -0.054592866 -0.0101022115 -0.05558027 -0.014725024 -0.08089851 -0.047957 -0.117687754
00000000: 540d b9bd 0539 a8bd 8a29 37bd 337f 27bd
00000010: 3c95 14bd fb66 14bd 1384 7dbd 2d87 42bd
00000020: 3d81 c8bd 81be 943b b6af 023d 1978 35bd
00000030: 84b5 4fbd fb58 1bbc 3d06 cdbb 2c45 20bb
00000040: 98b0 d6bd 9f76 ecbd 4ffd 8abd 3968 28bd
00000050: 2325 7ebd f9fe adbc f64b 40bd 9286 bdbd
00000060: 7b84 edbd 4a23 34be 311f 89bd 0ba6 c2bc
00000070: 89f1 0dbd e837 fdbc 5792 793c 33fb 06bd
00000080: 27a5 b8bd 06f7 99bd 0753 0bbe 7064 71bd
00000090: 2ac2 0dbd 8c5f 51bd 2677 fabd cf79 04be
000000a0: 7011 e3bd 10bc a2bd ad8a c1bc d285 49bc
000000b0: a879 14be 61bb 81bd 3cc8 a0bd eedb f1bc
000000c0: f120 91bd f55e 17bd 002d 9cbd 535a b73b
000000d0: 1316 38bd a959 77bd c7a2 b1bc 450a e6bc
000000e0: 6a0d d8bd 90f7 69bc bc3c 6bbd 80d3 9ebd
000000f0: 95b8 0abd a707 913b e388 5ebd b286 a2bc
00000100: 4825 d4bd 8b8e 6bbd 9412 ccbc 282f 56bd
00000110: cdc7 fa3a e583 0abd 063e 67bd 60db 02be
00000120: 2876 1dbd 3c92 a0bc 8c6a 52bd ef90 a8bc
00000130: 1098 16bd 2537 21bc a054 9cbd f2ac 92bc
00000140: 4545 3abd a38f c9bc 97f0 42bd d76b 56bd
00000150: 7dd3 19bd ef6c adbc 2ef2 fabc 7ef3 3cbd
00000160: 68ad 21bd bd68 aabc b8f9 1ebd bb4a cfbd
00000170: 2150 4cbd b358 91bd 9b39 7bbd e5a0 c5bb
00000180: 49d6 04be 8110 febc 9d50 bdbc 86a7 39bd
00000190: bd0c 47bd 5f42 5fbd 6e7e 47bd f6a6 aebd
000001a0: 53db 29be 659e b9bd dca9 8fbd 93c1 97bc
000001b0: 5b50 c9bc f6dc 4abd 4f5e e4bd fb5b 43bd
000001c0: 5283 02bd 73d0 a63b eaf5 9abc 5133 12bd
000001d0: 10f5 65bc 7d67 12bd 3609 36bd 7ab5 afbc
000001e0: e7bc 04be 5808 21bd ea4e 2abd 8b08 bebc
000001f0: 90d0 67bb 4bf4 89bd 8514 27be 0954 aabd
00000200: b278 4bbc f648 f6bc d0ad 17bd 0d2e 0ebd
00000210: 3428 a13c d1df 6c3b e862 e3bc 4a11 d0bd
00000220: dfe9 29bc c809 9bbd e745 abbd eeda 5cbc
00000230: d6a6 72bd bf40 9bbd f1e5 8dbc a91f b7bc
00000240: b650 73bd bb07 01bd 7e19 45bd f3b7 95bd
00000250: 27b0 00bd 4ef6 11bd dd0a 58bd cfc0 f0bd
00000260: 0ccf 17be e60b 8dbd 7522 87bd 2ef8 58bb
00000270: 064c c0bc cd25 2abd 1cf4 e4bc c37f 4abd
00000280: 63e9 50bd fa0b 0dbe e6e4 e1bc 96b9 6bbd
00000290: 7419 44bd 9204 10bd 8873 22bd b979 d1bb
000002a0: cf63 a23b bd33 67bd 330b 1abd 0fe2 92bd
000002b0: a02f 603c 9a8a 1abe 8d26 4ebd f659 9abc
000002c0: 7ffc 86bc c50c e6bd 70e4 eabd e6e2 30bd
000002d0: f4a3 acbd da80 10be 2fcc a5bc 8284 13bd
000002e0: 5860 afbc 21bf 5cbd f4a1 353c d289 7dbd
000002f0: 9c13 a8bc 0fc5 eabc cfc0 c6bd abec 1abd
00000300: 5a75 98bc f3ff 0ebe d2f8 cb3b 7cbd 58bc
00000310: e5c3 20bd 919e 8abc 7217 2abd 2553 35bd
00000320: 031a 0bbc 44e7 30bd 522b d3bc a0cf fabc
00000330: 4764 e2bd cc41 1ebd 1c4a e0bd 2317 aebc
00000340: 0c32 febc 22c4 1ebe b715 d7bd 8bb7 30be
00000350: 1dfd 1abd 3576 b03b 8fe5 d6bd ff65 c4bd
00000360: fe16 acbc 3586 45bd e3c7 49bd 4fd4 1dbd
00000370: 7d01 3cbd 8c45 5fbd 0ec1 f1bd ace8 5abd
00000380: ac1d d6bc 70ba cd3b 058e dcbc d644 55bd
00000390: 5945 2cbc 1273 32bb a03d 09bd 7e43 1bbd
000003a0: 47f1 43bc d022 47bd df2a 76bd 0aed 3dbd
000003b0: eb09 63bc ee10 84bd d6e4 18bd e932 78bd
000003c0: a97e 30bb b0d6 553c f59c 66bc 4ff9 aabd
000003d0: 20e9 89bc c01c 52bd f797 b0bc 6d0b 26bd
000003e0: b130 7abb c59c 5fbd bf83 25bc 23a8 63bd
000003f0: 3a41 71bc 1eae a5bd 8f6e 44bd 4706 f1bd

critic_linear.weight f4 [1, 256]
-0.053570267 0.002774361 0.0036257638 0.0014308245 -0.0020492156 0.001781229 -0.0038120626 0.0044630296
-0.0065695867 0.0009736455 -0.003086009 -0.0005847661 0.0013822439 0.00037210406 0.00094687537 -0.0001676245
-0.024804797 -0.02777134 -0.0005605711 0.001520788 -5.23914e-05 -0.0011215231 0.00080689945 0.02708664
0.04337711 -0.0133978315 0.0008448893 -7.9375895e-05 0.0020917878 0.00036750606 0.0004328231 -0.0014240203
0.00064876175 0.002512522 -0.041623034 -0.009719788 0.0030595735 0.0012383988 -0.039508123 0.084244676
-0.0020876299 0.00847492 -0.00054380385 0.0016986086 -0.024421439 0.00039191928 -0.00793086 0.005614176
-0.0015359034 -0.0013712293 -0.003148314 0.001780795 0.00045572614 0.00044561637 -0.0020292934 0.00057650683
0.00818088 -0.0028449125 -0.0028818813 0.0012138452 -0.00038152462 -0.0025079693 0.005045481 -0.0008096896
0.0035612246 -0.0012334198 -0.0013551619 -0.0014119782 9.249923e-05 0.001222105 0.0004354912 -0.018413525
0.0013954081 -0.0013975316 -0.0031338471 0.0006888683 0.0043245344 0.0012869375 0.0045626145 0.04292902
0.0016568063 -0.0038916278 0.0022900149 0.0005378188 0.00020929589 -0.0012789614 -0.00010699116 0.002594076
0.0020012837 -0.0017912213 0.0022999675 -0.023383833 -0.00042021277 -0.0025430159 -0.0005502417 0.00048987195
-0.009408311 -0.002414841 -0.0031072327 -0.0008281253 0.001852466 -0.00064098916 0.00020472263 -0.0120364595
-0.021956975 -0.0016081391 0.001299316 0.001878048 -0.0007798308 0.0006008038 0.0092160385 0.00044240896
0.0043276306 -0.0022214118 5.4269796e-05 -0.050561532 0.0015816796 0.00031530665 0.0036049513 -0.0012763032
-0.04323598 0.0018624072 -0.0017566693 0.0027519148 0.00066634506 -0.046426404 0.018963214 0.017426815
0.0004044817 -0.0010590603 -0.0022565364 0.0032809598 -0.0017886653 -0.0023098344 -0.0012253649 0.06942069
-0.0016500108 -0.04464248 -0.007641279 0.0025794383 -0.009582092 0.007830645 -0.0007044326 0.0017688331
0.0004054774 0.00055128493 0.0024229037 -0.00076500577 -0.000454002 -0.00054514996 0.00031946108 0.008348518
-0.04975044 0.033036314 0.0009392455 -0.00055887015 -0.002315646 0.0007641504 -0.00022966672 -0.0063958853
-0.00038536068 0.028806718 0.0019985763 0.0003628111 0.0015646765 0.0024001477 -0.0019568435 -0.0018234461
-0.0009844082 0.012871767 0.0034089203 0.0012045703 0.0035311005 0.025487497 0.00147825 0.0013680141
-0.0014825475 -0.040966548 -0.00091625063 0.0004146034 -0.025741812 -0.017835036 0.0015737249 -0.00031296193
-0.0029948498 0.0041843173 -0.00031472446 0.00303277 0.0025201489 -0.0038939044 -0.024902197 0.0006714585
-0.00086512393 -0.05813255 -0.002301768 -0.0027531344 0.0026654825 -0.00059027 0.002242747 -0.00033423098
-0.002419017 0.0053941775 -0.0023741366 0.0050724186 -0.003762377 -0.0018871378 -0.035821617 0.0003804931
0.002950241 0.11270438 0.02720789 -0.008016714 -0.0009329666 -0.031708565 0.0020763506 0.016743166
0.017978938 0.0025259801 0.0003121674 0.0006227502 0.0019553765 0.0015624666 -0.020504143 0.00031564065
0.0025829298 -0.00038913172 1.1204623e-05 -0.0009122356 0.0020528936 0.0039390167 0.00051275146 -0.0010953319
-0.0006128531 0.0011331659 -0.00029617362 6.516099e-05 -0.0021982908 0.009450081 -0.00071398146 0.0026179526
-0.0011663098 -0.00039898983 0.0020741613 1.4644938e-06 3.5645862e-05 -0.0013862853 -0.0017125627 0.00081382465
0.0012513269 -0.0004913283 0.002473455 0.019953754 -0.00011667933 -0.0029102394 0.00011305438 0.12564144
00000000: 7f6c 5bbd 0ed2 353b 399e 6d3b 818a bb3a
00000010: 224c 06bb 2178 e93a ccd3 79bb 9b3e 923b
00000020: b045 d7bb 3e3c 7f3a a43e 4abb fd4a 19ba
00000030: 692c b53a f616 c339 bb37 783a 5cc4 2fb9
00000040: 6e33 cbbc b980 e3bc 4af3 12ba 2d55 c73a
00000050: d6be 5bb8 1200 93ba 1b86 533a cde4 dd3c
00000060: 32ac 313d 9482 5bbc 907b 5d3a 9c76 a6b8
00000070: 6016 093b d4ad c039 88ec e239 31a6 baba
00000080: aa11 2a3a 20a9 243b ea7c 2abd bf3f 1fbc
00000090: 2083 483b c551 a23a 45d3 21bd 7988 ac3d
000000a0: 9ed0 08bb 64da 0a3c 0f8e 0eba d9a3 de3a
000000b0: 780f c8bc 847a cd39 70f0 01bc 1ff7 b73b
000000c0: 5e50 c9ba d2ba b3ba f253 4ebb 9169 e93a
000000d0: 87ee ee39 9ea1 e939 e5fd 04bb b820 173a
000000e0: 1909 063c b671 3abb f2dd 3cbb e319 9f3a
000000f0: 5e07 c8b9 be5c 24bb 9054 a53b 5941 54ba
00000100: 6f63 693b b3aa a1ba b09f b1ba 2012 b9ba
00000110: 25fc c138 0a2f a03a a452 e439 f6d7 96bc
00000120: 20e6 b63a 612d b7ba 3b61 4dbb 2b95 343a
00000130: d3b4 8d3b 75ae a83a fc81 953b 57d6 2f3d
00000140: 3229 d93a ae0a 7fbb 1314 163b 69fc 0c3a
00000150: 7076 5b39 d3a2 a7ba 7160 e0b8 6001 2a3b
00000160: f827 033b 6ac7 eaba 0dbb 163b 748f bfbc
00000170: 0150 dcb9 baa8 26bb 183e 10ba c06a 003a
00000180: 5125 1abc 4f42 1ebb b7a2 4bbb 8c16 59ba
00000190: 72ce f23a 0e08 28ba d0aa 5639 9234 45bc
000001a0: 1ddf b3bc 32c8 d2ba cf4d aa3a d528 f63a
000001b0: 8f6d 4cba 437f 1d3a defe 163c 20f3 e739
000001c0: ccce 8d3b 1b95 11bb c09f 6338 9c19 4fbd
000001d0: 5c50 cf3a be4f a539 0c41 6c3b a149 a7ba
000001e0: 3618 31bd 041c f43a 0a40 e6ba 7859 343b
000001f0: a9ad 2e3a 9d29 3ebd be58 9b3c aec2 8e3c
00000200: 9d10 d439 2bd0 8aba 66e2 13bb 5f05 573b
00000210: a671 eaba 9760 17bb 6c9c a0ba 6f2c 8e3d
00000220: 2d45 d8ba 08db 36bd b263 fabb cb0b 293b
00000230: 35fe 1cbc 1b4c 003c aca9 38ba 31d8 e73a
00000240: 4196 d439 1b84 103a 94c9 1e3b ab8a 48ba
00000250: 1e07 eeb9 65e8 0eba 577d a739 39c8 083c
00000260: 1ec7 4bbd 1651 073d b337 763a 2481 12ba
00000270: 18c2 17bb 4451 483a b1d2 70b9 9394 d1bb
00000280: 3c0a cab9 11fc eb3c 8cfa 023b ae37 be39
00000290: d515 cd3a cc4b 1d3b 633e 00bb b300 efba
000002a0: 4207 81ba 1be4 523c 3168 5f3b ace2 9d3a
000002b0: 096a 673b 28cb d03c d7c1 c13a f04e b33a
000002c0: 0a52 c2ba 8acc 27bd 8a30 70ba 205f d939
000002d0: 7ee0 d2bc c81a 92bc 7245 ce3a 0a15 a4b9
000002e0: 3e45 44bb 991c 893b 9a01 a5b9 70c1 463b
000002f0: 1529 253b e030 7fbb b1ff cbbc d104 303a
00000300: 7cc9 62ba 661c 6ebd 42d9 16bb ee6d 34bb
00000310: 60af 2e3b 59bc 1aba 0dfb 123b b93b afb9
00000320: 5f88 1ebb a4c1 b03b 6797 1bbb 8836 a63b
00000330: 3692 76bb d659 f7ba b0b9 12bd eb7c c739
00000340: d558 413b 8ed1 e63d 15e3 de3c 8958 03bc
00000350: 5492 74ba d7e0 01bd 6213 083b f728 893c
00000360: 9148 933c ea8a 253b 66aa a339 0f40 233a
00000370: c625 003b aecb cc3a 4ef8 a7bc 927c a539
00000380: 5f46 293b 6004 ccb9 7dfb 3b37 1823 6fba
00000390: d789 063b de12 813b 2b6a 063a 3d91 8fba
000003a0: e0a7 20ba bd86 943a c047 9bb9 0aa7 8838
000003b0: 3311 10bb 83d4 1a3c 7c2a 3bba f591 2b3b
000003c0: ddde 98ba 822f d1b9 a7ee 073b a08f c435
000003d0: 7482 1538 04b4 b5ba 1278 e0ba d956 553a
000003e0: 9003 a43a 7ccc 00ba b019 223b 0e76 a33c
000003f0: bdb1 f4b8 b7b9 3ebb 9c17 ed38 26a8 003e
