A3C-new/A3C-Pong&breakout-new/runs/PongNoFrameskip-v4/2022-11-02_20-10_Second80MSteps_OK/model_sam_BreakoutDeterministic-v4_conv.56.tar (torch, 947003 bytes, 13 tensors)

conv1.weight f4 [32, 4, 3, 3]
0	0x3e40942e	0.18806526
1	0xbedb8def	-0.42881724
2	0xbd3984bc	-0.0452926
3	0x3cab4c2b	0.020910343
4	0xbef1d81e	-0.47235197
5	0x3df3e432	0.11908759
6	0xbe3fc155	-0.18726094
7	0xbcf170e0	-0.029472768
8	0x3e3229a8	0.17398703
9	0x3e1dd381	0.15412714
10	0x3ea9c615	0.33158937
11	0x3d876b13	0.0661222
12	0x3e80e1ae	0.2517218
13	0x3e83ca6b	0.2574037
14	0x3e6e0a03	0.23246007
15	0xbdb82c2a	-0.089927986
16	0x3e392158	0.18079126
17	0x3ec597a6	0.3859226
18	0x3e2b892c	0.16751546
19	0xbd4a6bb8	-0.049419135
20	0xbe0e099c	-0.13870853
21	0x3c49143f	0.012272893
22	0xbdf64965	-0.12025718
23	0x3d2f682b	0.04282395
24	0xbd546e3c	-0.05186294
25	0xbdb71781	-0.0894003
26	0x3e6bd552	0.23030594
27	0x3d935e97	0.07195776
28	0xbe88ce31	-0.26719812
29	0x3cb7369e	0.02236491
30	0x3ca32f65	0.01992006
31	0x3d67b802	0.056571968
32	0x3d9c91eb	0.07645019
33	0xbe9d30d8	-0.30701327
34	0xbe8afdb5	-0.27146688
35	0xbc9f44a0	-0.019441903
36	0x3ebfe5ec	0.37480104
37	0x3e065bf1	0.1312101
38	0xbe02b4ca	-0.12764278
39	0x3e082902	0.13296893
40	0x3f3b7dd2	0.7323886
41	0xbea09eb6	-0.31371087
42	0x3e2c6ab3	0.16837578
43	0x3ed01ba7	0.40646097
44	0xbd7e6c81	-0.062115196
45	0x3e1bb85d	0.15207048
46	0xbe50e0bf	-0.20398234
47	0xbd8e133f	-0.06937265
48	0xbda06b3a	-0.07832952
49	0x3df88473	0.12134638
50	0xbe999291	-0.29994634
51	0xbe7334a0	-0.23750544
52	0x3e0d3dc8	0.13793099
53	0x3d98167b	0.07426163
54	0x3e4912b8	0.19636047
55	0x3e666521	0.22499515
56	0xbe3320ce	-0.17492983
57	0xbe21f3bb	-0.15815632
58	0x3e9d6a36	0.30745095
59	0xbd8a4850	-0.06752074
60	0xbec40ec1	-0.38292506
61	0x3e729daa	0.23692957
62	0x3d247a60	0.04015577
63	0x3e3a2003	0.18176274
64	0xbe7a3033	-0.24432449
65	0xbe580a6f	-0.2109773
66	0xbc8f7766	-0.017512988
67	0x3dc75a52	0.09734024
68	0xbe8a60be	-0.27026933
69	0xbea544fe	-0.322792
70	0x3e4778ac	0.19479626
71	0xbe54da8e	-0.20786497
72	0xbd594c8f	-0.053051528
73	0x3eb79a17	0.3585975
74	0xbb32a545	-0.0027259153
75	0x3e373e31	0.17894818
76	0x3f2b8607	0.67001384
77	0xbe9b7f99	-0.30370787
78	0xbde9a5a3	-0.11408546
79	0x3ef4361b	0.4769753
80	0xbe3ff396	-0.18745264
81	0xbe66bf73	-0.2253397
82	0xbd500864	-0.050789252
83	0xbecb6a76	-0.3972966
84	0x3e4dfabf	0.20115183
85	0x3befc224	0.0073168445
86	0xbf7a394a	-0.97743666
87	0x3e198e30	0.14995646
88	0xbdcd6d74	-0.10030642
89	0xbec3d4aa	-0.38248187
90	0xbd47d9d6	-0.04879173
91	0xbdc2e432	-0.09516181
92	0x3c91e3f7	0.017808897
93	0x3dc159d6	0.09440963
94	0xbda1f5dc	-0.07908222
95	0xbef8b651	-0.48576596
96	0xbd06133c	-0.032733187
97	0x3c052dff	0.008128642
98	0xbe4d00c0	-0.20019817
99	0x3c21028a	0.0098272655
100	0x3edf792a	0.43647128
101	0xbbdd06ce	-0.006745196
102	0x3e8f5fec	0.2800287
103	0x3ec4a335	0.38405767
104	0xbe082d70	-0.13298583
105	0xbdc67844	-0.096909076
106	0x3eddf23b	0.4334887
107	0x3dae5659	0.08512563
108	0x3eb05e3e	0.344469
109	0x3e89d557	0.26920578
110	0x3e77c2a0	0.24195337
111	0x3ede515d	0.4342145
112	0x3f5b1de5	0.8559249
113	0x3e319370	0.17341399
114	0x3e21df35	0.15807803
115	0x3f1a9dcd	0.60397035
116	0x3ebe5263	0.3717223
117	0x3e13b6d5	0.14425214
118	0xbe7202b3	-0.23633842
119	0xbdfba953	-0.122881554
120	0xbd7def51	-0.061995808
121	0x3c9cda1f	0.019146977
122	0x3e19e077	0.15027033
123	0xbe198385	-0.14991577
124	0x3e0d673c	0.13808912
125	0xbe73d02e	-0.23809883
126	0xbe9e44a4	-0.30911744
127	0xbe8d7b95	-0.27633348
128	0x3d81bccf	0.063348405
129	0xbddba0ea	-0.10724051
130	0xbe895e5f	-0.26829812
131	0x3ccbe5ba	0.024889816
132	0xbd939408	-0.07205969
133	0xbde563ac	-0.112006515
134	0xbd9b6775	-0.07588092
135	0xbc21eb96	-0.009882828
136	0xbd872c84	-0.066002876
137	0x3ca101c3	0.01965416
138	0xbed5dbca	-0.41769248
139	0xbe9d1966	-0.3068344
140	0xbb3e010c	-0.0028992323
141	0xbe781b5d	-0.24229188
142	0xbe500ae7	-0.20316659
143	0xbc95eec5	-0.01830233
144	0x3e2e252c	0.17006367
145	0x3e48d579	0.19612683
146	0xbda0bcae	-0.07848488
147	0x3da7f864	0.082016736
148	0x3ed2b863	0.411563
149	0x3e5b91b8	0.21442306
150	0xbe10bdd3	-0.14134912
151	0x3e8da553	0.27665195
152	0x3e8eb815	0.27874818
153	0xbdf3b49e	-0.11899684
154	0xbf00d2c5	-0.5032161
155	0xbe83ab9d	-0.25716868
156	0xbeb0355d	-0.34415713
157	0xbee3433a	-0.44387227
158	0x3b58b5a5	0.0033067253
159	0xbe85dd9c	-0.26145637
160	0xbf0eee84	-0.55832696
161	0x3eaa0bd2	0.33212143
162	0x3e30e2b6	0.17273983
163	0x3e96a940	0.29426003
164	0xbeb07be4	-0.3446952
165	0x3cc2eb29	0.023793774
166	0xbdcef32d	-0.10104976
167	0xbdd2c411	-0.10291303
168	0xbe013a8f	-0.12619995
169	0xbe3d40a8	-0.18481696
170	0x3d4d02f6	0.050051652
171	0x3e76b262	0.24091485
172	0x3e869380	0.2628441
173	0xbce13bb8	-0.027494296
174	0x3e892edd	0.26793566
175	0x3ea43192	0.3206907
176	0x3e05c207	0.13062297
177	0x3df97ed1	0.121823914
178	0xbd7a18b1	-0.061058704
179	0x3e614e2d	0.22002478
180	0xbcda267c	-0.026629679
181	0xbea17d13	-0.31540737
182	0xbe880a8d	-0.2657055
183	0xbe975c1c	-0.2956246
184	0xbeccdd91	-0.40012792
185	0x3e5a76cc	0.2133438
186	0xbec41fb0	-0.38305426
187	0xbef73b3e	-0.48287386
188	0xbda1c095	-0.0789806
189	0xbe17a486	-0.14808854
190	0x3d943995	0.072375454
191	0x3d81b6c9	0.063336916
192	0xbe887053	-0.26648197
193	0x3e43bf06	0.19115838
194	0x3ed6bd7f	0.4194145
195	0xbe3d9a53	-0.18515901
196	0x3e043751	0.12911727
197	0x3e4748e0	0.19461393
198	0x3ea6864f	0.32524344
199	0xbcc2794f	-0.023739485
200	0x3d02ece1	0.031964187
201	0x3e094c7a	0.1340808
202	0x3ed21a73	0.41035804
203	0x3ca28cac	0.019842468
204	0x3ea5bca4	0.32370484
205	0x3d93e1b7	0.07220786
206	0xbd73fbdf	-0.059566375
207	0x3e284e30	0.16436076
208	0x3d98264f	0.07429182
209	0x3c005a53	0.007834035
210	0x3d4df6f8	0.050284356
211	0x3e344a76	0.1760653
212	0xbe167764	-0.14693981
213	0x3e8b58eb	0.27216277
214	0x3e2ff84c	0.17184561
215	0x3db9a17c	0.09064004
216	0x3e21ba60	0.15793753
217	0xbeb84554	-0.35990393
218	0x3c7109ba	0.014711792
219	0x3dde91ac	0.108676285
220	0xbd42cfd9	-0.0475615
221	0x3e8a4f70	0.2701373
222	0xbea290fc	-0.3175124
223	0xbdbc14ff	-0.09183692
224	0x3eb227d5	0.34796014
225	0x3adcb28b	0.0016837878
226	0x3e2bf7a5	0.16793688
227	0x3d26730e	0.04063707
228	0x3e901cf4	0.2814709
229	0x3f4f0261	0.80863005
230	0xbeb8db6f	-0.36104915
231	0xbe1bbee8	-0.15209544
232	0x3f0a6b67	0.5407013
233	0xbe8aa5ae	-0.2707953
234	0xbdf4faec	-0.11961922
235	0x3da44cb8	0.080224454
236	0xbe537dd0	-0.20653462
237	0x3e992aa6	0.2991535
238	0x3e7474da	0.238727
239	0xbf071251	-0.52762324
240	0xbe337ef0	-0.17528892
241	0x3e2334cc	0.15938109
242	0xbe364647	-0.17800246
243	0x3cfe063c	0.031008832
244	0xbd4a7afc	-0.049433693
245	0x3d7e2ecd	0.06205635
246	0xbe6017b0	-0.21884036
247	0xbd9f68e1	-0.07783676
248	0xbe5d0907	-0.21585475
249	0x3e1e214d	0.1544239
250	0x3e4ce22a	0.2000815
251	0xbe308ead	-0.17241926
252	0xbcac05e0	-0.020998895
253	0xbe5a79e3	-0.21335559
254	0x3ee74f2a	0.45177585
255	0xbde157aa	-0.11003049

conv1.bias f4 [32]
0	0xbe22e30a	-0.15906921
1	0xbdbc0a7b	-0.091816865
2	0x3d8e7141	0.06955195
3	0xbe2c354c	-0.16817206
4	0xbddd099f	-0.10792851
5	0xbe43b040	-0.19110203
6	0xbdffc6e7	-0.124891095
7	0xbd9cbd2d	-0.0765327
8	0xbe8cbed2	-0.27489334
9	0x3b8d0b23	0.004304306
10	0xbcdf9165	-0.02729101
11	0xbe09d66e	-0.13460705
12	0xbe7cda5b	-0.24692671
13	0x3e845204	0.25843823
14	0xbe2484b1	-0.16066243
15	0x3e9c9129	0.30579498
16	0xbeb15d85	-0.34641662
17	0xbe99cabd	-0.3003749
18	0xbd983c2c	-0.07433352
19	0xbe9a4fd2	-0.30139023
20	0xbc46b859	-0.012128913
21	0x3d115e55	0.035490353
22	0xbd354a1f	-0.04426014
23	0xbd7859fa	-0.060632683
24	0x3dcd1494	0.100136906
25	0xbd5e21ac	-0.05423133
26	0xbe105022	-0.14093068
27	0x3ec49f8a	0.3840297
28	0xbdb7bf8b	-0.08972081
29	0x3f24a3a8	0.6431222
30	0xbd74efc3	-0.059798967
31	0xbc4c3c53	-0.012465554

conv2.weight f4 [32, 32, 3, 3]
0	0x3e7e9899	0.24862899
1	0xbb876d2e	-0.0041328883
2	0x3dc39eca	0.09551771
3	0xbcab63ce	-0.020921614
4	0xbe2b7976	-0.16745552
5	0xbd91a7ce	-0.07112084
6	0x3ca2bb61	0.01986474
7	0x3c0497f9	0.008092874
8	0xbb953e24	-0.004554527
9	0x3c8458f6	0.016155701
10	0x3d83dc22	0.064384714
11	0x3e89c05b	0.26904568
12	0x3b179854	0.0023131566
13	0xbec6dbc6	-0.3883955
14	0x3d465fea	0.048431315
15	0xbe82e89b	-0.2556809
16	0x3e8a870d	0.2705616
17	0xbe11c2c6	-0.14234456
18	0x3e3aa92c	0.18228596
19	0x3e651905	0.22372825
20	0xbe24830a	-0.16065612
21	0x3ebec553	0.3725992
22	0xbe2928c2	-0.16519454
23	0xbe841807	-0.2579958
24	0xbe0041af	-0.12525056
25	0x3d8b8c8e	0.06813918
26	0xbe00898c	-0.1255247
27	0x3cc29638	0.02375327
28	0xbdc21936	-0.09477465
29	0x3e0fd1c5	0.14044864
30	0xbdb995ee	-0.090618
31	0xbd8b2a52	-0.06795181
32	0x3e7d162b	0.24715488
33	0xbebc23ff	-0.36746213
34	0x3ea76a35	0.32698217
35	0x3c49489c	0.012285378
36	0x3db51dbc	0.08843562
37	0x3e421722	0.18954137
38	0xbe5e2c3d	-0.21696563
39	0x3d6babf4	0.057537034
40	0xbe00c20f	-0.12574027
41	0xbe1812f0	-0.14850974
42	0x3d5cdf81	0.053924087
43	0x3e145b1d	0.14487882
44	0xbd144f64	-0.036208525
45	0xbb45bdd0	-0.0030172952
46	0x3d02133c	0.031756625
47	0xbd93e299	-0.072209544
48	0x3af6c8b2	0.0018828122
49	0xbf053b6c	-0.52043796
50	0x3e5caa8b	0.21549432
51	0xbd0990ab	-0.03358523
52	0xbd97caaa	-0.07411702
53	0x3e4aac4c	0.19792289
54	0x3e75cede	0.24004695
55	0x3e224275	0.15845664
56	0x3de883f9	0.11353297
57	0x3da51bb4	0.080619246
58	0xbf22a50c	-0.6353309
59	0x3d06ded8	0.032927364
60	0xbe51be33	-0.20482711
61	0x3b3689d2	0.0027853143
62	0x3e71cbc1	0.23612882
63	0x3d564a3f	0.0523169
64	0x3d3aea44	0.04563357
65	0x3df64189	0.120242186
66	0xbcea7651	-0.02862087
67	0xbd430b0b	-0.047617953
68	0xbdb88745	-0.090101756
69	0x3c320a0f	0.010866656
70	0x3d92f116	0.0717489
71	0x3d882137	0.0664696
72	0xbe26554c	-0.16243476
73	0x3e6fc9be	0.23416802
74	0x3d85d328	0.065344155
75	0xbdfdcbec	-0.12392411
76	0xbd79391f	-0.06084549
77	0xbe720493	-0.23634557
78	0xbb918a87	-0.0044415626
79	0x3c94ced6	0.018165033
80	0x3e97c16e	0.29639763
81	0xbbfff8c2	-0.0078116367
82	0x3c8a048d	0.016847873
83	0xbd2e815e	-0.042603843
84	0xbdd1d9cf	-0.10246622
85	0x3e79da3a	0.24399653
86	0xbe828ddc	-0.25498855
87	0x3d048aa4	0.03235878
88	0xbd2da83a	-0.04239676
89	0x3e216029	0.15759338
90	0xbd5bdba8	-0.053676277
91	0x3cd7641b	0.026292851
92	0xbdda2d99	-0.10653228
93	0xbd803236	-0.06259577
94	0xbe8d3560	-0.27579784
95	0x3e506b58	0.20353448
96	0x3cd2b027	0.025718762
97	0x3e0473bd	0.12934776
98	0xbc7a5778	-0.015279643
99	0x3e43f6cc	0.19137114
100	0x3d7e3319	0.06206045
101	0xbd7b55a9	-0.06136099
102	0x3d946ebf	0.07247686
103	0x3d804e5e	0.06264947
104	0xbe4e9cb4	-0.20176965
105	0xbcb7f526	-0.022455763
106	0xbd5713ec	-0.052509233
107	0x3d745bb2	0.05965776
108	0xbd7f7201	-0.062364582
109	0x3e8ed078	0.27893424
110	0x3d7222df	0.059115287
111	0xbe84e0e7	-0.25952837
112	0xbe2d4404	-0.16920477
113	0x3c69c5c1	0.01426834
114	0xbd03da51	-0.032190625
115	0x3e0a7768	0.13522112
116	0xbbb62a7b	-0.0055592633
117	0xbdaaee00	-0.08346176
118	0x39920371	0.00027849854
119	0x3e30b309	0.17255796
120	0x3e001401	0.12507631
121	0x3e6c5c31	0.23082043
122	0xbd4ff63f	-0.050771948
123	0xbdfd5882	-0.12370397
124	0xbe950482	-0.29105002
125	0xbc314bc3	-0.010821286
126	0x3e0375ed	0.12837954
127	0xbe80132f	-0.25014636
128	0x3d1af955	0.037835438
129	0xbd314b78	-0.043284863
130	0xbe09ee46	-0.134698
131	0xbd344d07	-0.04401877
132	0x3beb5ddf	0.007182821
133	0x3e960a1d	0.2930459
134	0xbc1840f7	-0.009292833
135	0x3e87725f	0.26454446
136	0xbdc91279	-0.098179765
137	0x3cb07d75	0.021544198
138	0x3e3d715c	0.18500274
139	0x3d79d14a	0.06099061
140	0x3c81279c	0.015765958
141	0xbdb6fe08	-0.08935171
142	0x3dbd97b2	0.09257449
143	0xbea3bd40	-0.31980324
144	0xbe245de0	-0.16051435
145	0x3d5abe7b	0.053404313
146	0x3dc1afc5	0.094573535
147	0xbe34f2d0	-0.1767075
148	0xbe3e90b8	-0.18609893
149	0x3e75c65e	0.24001452
150	0xbe1f5d28	-0.1556288
151	0x3e25f52c	0.16206807
152	0x3e2fc4d1	0.17164923
153	0xbe1f85a4	-0.15578324
154	0xbcc557a8	-0.02408965
155	0x3e1f53f6	0.15559372
156	0xbbadaef1	-0.0053003957
157	0x37be5d20	2.269313e-05
158	0xbd6cc2fc	-0.05780314
159	0xbd43e5ea	-0.047826685
160	0x3cab89e0	0.020939767
161	0x3e2514b4	0.16121179
162	0x3d2ed2d0	0.042681515
163	0x3e3e3fcb	0.18579023
164	0xbcf646fb	-0.030063143
165	0xbbf77a1e	-0.0075523993
166	0xbeaf9f8f	-0.3430142
167	0x3e54f9d3	0.20798425
168	0xbe6f7bf0	-0.23387122
169	0xbd82ec08	-0.06392676
170	0x3e2fa901	0.17154314
171	0xbe13fce1	-0.14451934
172	0x3ce1fe22	0.027587
173	0x3d2329cc	0.039834782
174	0xbec1b62e	-0.37834305
175	0x3d001391	0.03126866
176	0x3d9d3366	0.07675819
177	0x3dc8698d	0.09785757
178	0xbe50d0db	-0.20392172
179	0x3e567d45	0.20946224
180	0x3e68e2d9	0.22742786
181	0xbb21e84d	-0.0024705112
182	0xbd6cfaeb	-0.05785648
183	0xbe259153	-0.16168718
184	0x3e195d73	0.14977054
185	0xbda40284	-0.08008292
186	0x3de001d1	0.109378465
187	0xbc8a0cac	-0.016851746
188	0xbe184ba7	-0.14872609
189	0xbe191cb9	-0.14952363
190	0xbde4ee17	-0.111782245
191	0x3eabfbc3	0.33590516
192	0xbb90b833	-0.0044164895
193	0xbc03b17c	-0.008037921
194	0xbc72874c	-0.014802765
195	0x3deac69e	0.114636645
196	0xbd0b3750	-0.033988297
197	0xbdad3e12	-0.084591046
198	0x3d8ebc40	0.069694996
199	0x3b4e8c6a	0.0031516799
200	0xbdf4f07e	-0.11959933
201	0xbd2c7d34	-0.04211159
202	0x3dcebfd2	0.100951806
203	0xbc3f9cd9	-0.01169511
204	0x3e50c26c	0.20386666
205	0xbe2e927b	-0.17048065
206	0xbd02f6cd	-0.03197365
207	0xbe33947d	-0.17537113
208	0xbe2c6eb3	-0.16839103
209	0x3e39786c	0.18112344
210	0xbe2250ea	-0.15851179
211	0x3ece4e99	0.4029434
212	0xbdd6c725	-0.104872026
213	0x3db8028d	0.089848615
214	0x3d855b24	0.06511524
215	0xbd14a7ec	-0.036292955
216	0xbd8e1479	-0.069374986
217	0x3e829156	0.25501508
218	0x3d612f4b	0.054976743
219	0xbcb378c1	-0.021908166
220	0xbd2dac3a	-0.042400576
221	0xbdb2958f	-0.08719932
222	0x3da763c6	0.08173327
223	0xbda86237	-0.08221858
224	0x3d3c9f04	0.046050087
225	0x3e32c35b	0.17457335
226	0x3c56fc6d	0.013121706
227	0xbe8fa52a	-0.28055698
228	0xbe3e6df0	-0.18596625
229	0x3e3ef44e	0.18647882
230	0x3e51e441	0.20497228
231	0xbc5f371e	-0.013623981
232	0xbc5656ac	-0.013082188
233	0xbe011743	-0.1260653
234	0x3e405652	0.18782929
235	0x3c223470	0.009900197
236	0xbea6c60f	-0.32572982
237	0xbc9ff69b	-0.01952677
238	0x3dc9bf60	0.09850955
239	0xbd39e300	-0.0453825
240	0x3e1e781c	0.15475506
241	0xbd8df953	-0.069323204
242	0x3d87a160	0.06622577
243	0xbd064666	-0.03278198
244	0xbe97c95b	-0.2964581
245	0x3dbab71b	0.09116956
246	0xbec1acf5	-0.37827268
247	0x3f0cae01	0.5495301
248	0x3ddf9aa9	0.10918171
249	0x3e575a5a	0.2103056
250	0xbc43246b	-0.011910538
251	0xbe0f6706	-0.14004144
252	0x3d174e7c	0.036940083
253	0xbe865680	-0.2623787
254	0x3e5d6710	0.21621346
255	0x3cdd9840	0.027050138

conv2.bias f4 [32]
0	0xba209cee	-0.00061269
1	0xbc67736c	-0.01412664
2	0x38c315c1	9.3023766e-05
3	0xbbf01dcf	-0.007327772
4	0xbc2ef82f	-0.010679289
5	0xbb62dbac	-0.0034615798
6	0xba1df940	-0.0006026216
7	0xba474c05	-0.00076025754
8	0x3a875c89	0.001032726
9	0xbc019e31	-0.007911251
10	0xbb7a7b7e	-0.003822058
11	0xbac6339d	-0.0015121583
12	0xbc2338ff	-0.009962319
13	0x3a43c15c	0.00074674725
14	0xbc2a3770	-0.010389194
15	0xbc4d2aaa	-0.012522379
16	0xbb9fa1f7	-0.0048716026
17	0x39cf63bb	0.00039556422
18	0x3afbbfdb	0.0019206958
19	0xbbb3c166	-0.0054857014
20	0xbb20c95d	-0.0024534084
21	0x3af34295	0.0018559272
22	0x3b0ba5e9	0.0021308607
23	0x3b96d46a	0.0046029584
24	0x3b3e2fac	0.0029020114
25	0xbc3085b5	-0.010774066
26	0xbbe13aa1	-0.006873444
27	0x3bb0dcc1	0.0053974097
28	0xbb638816	-0.0034718565
29	0x3c10a624	0.0088286735
30	0xba4b830a	-0.0007763362
31	0x3b7b4d87	0.003834577

conv3.weight f4 [32, 32, 3, 3]
0	0x3df251b5	0.11831991
1	0x3e1e8746	0.1548129
2	0x3d0f21ca	0.034944333
3	0x3db48b87	0.08815675
4	0xbe0ab425	-0.13545282
5	0x3cfc23c2	0.03077877
6	0xbdf19c86	-0.117974326
7	0x3e440071	0.19140793
8	0x3e27a16b	0.1637017
9	0xbe67da44	-0.22641855
10	0x3d1d15bd	0.03835081
11	0xbd895357	-0.06705349
12	0xbed3e313	-0.4138418
13	0x3e136386	0.14393434
14	0x3e1255ff	0.14290617
15	0xbe9b4ffe	-0.30334467
16	0xbe170d29	-0.14751114
17	0xbd347237	-0.044054236
18	0xbea2d6b8	-0.31804442
19	0x3bc5ea8d	0.0060399235
20	0xbd39c2e6	-0.045351885
21	0xbe74b994	-0.23898917
22	0x3e7a70e9	0.24457134
23	0x3ddbb10e	0.1072713
24	0xbe91df16	-0.28490514
25	0x3e1ff8ad	0.15622206
26	0xbe3ce29b	-0.18445818
27	0xbec3fc4d	-0.38278428
28	0x3e68ab9e	0.22721717
29	0x3dc0021c	0.09375402
30	0xbd30da32	-0.043176837
31	0x3d371d8b	0.04470591
32	0x3da906bd	0.08253238
33	0xbe9e0f0b	-0.30870852
34	0x3e2d196e	0.16904232
35	0x39ef2550	0.00045613432
36	0x3bc376fb	0.0059651113
37	0x3e343063	0.17596583
38	0xbeb1b170	-0.34705687
39	0xbeafc5a3	-0.34330472
40	0x3e07cdbe	0.13262078
41	0xbeb16e92	-0.3465467
42	0xbe09f637	-0.1347283
43	0x3e318b97	0.17338406
44	0xbd543405	-0.051807422
45	0x3e228aab	0.1587321
46	0xbe7e2b2c	-0.24821156
47	0x3d563b99	0.05230293
48	0xbe499705	-0.19686516
49	0x3e430f24	0.19048744
50	0xbc69558a	-0.0142415855
51	0xbdce3917	-0.10069483
52	0xbddea112	-0.108705655
53	0x3de384d8	0.11109322
54	0x3e08452d	0.13307638
55	0xbdd294f3	-0.10282316
56	0x3e495c90	0.19664216
57	0x3d49c66c	0.049261495
58	0x3e5f9222	0.21833089
59	0x3e500990	0.20316148
60	0x3e46e1ad	0.19422026
61	0xbe7cfa56	-0.2470487
62	0x3eb7cd4c	0.35898817
63	0x3e076117	0.1322063
64	0xbd8dfd1f	-0.06933045
65	0xbc30247c	-0.010750886
66	0xbd0b9dc7	-0.034086015
67	0x3eab5c85	0.33469024
68	0xbee15070	-0.4400668
69	0xbecaefef	-0.3963618
70	0x3e051265	0.12995298
71	0xbde9277b	-0.113844834
72	0x3d71df98	0.059051126
73	0xbe412a02	-0.18863681
74	0x3e9c22c1	0.30495265
75	0xba8e5fd5	-0.00108623
76	0x3ddd1c69	0.107964344
77	0x3e1dc129	0.15405716
78	0xbdb3e496	-0.08783834
79	0xbd6a8a32	-0.0572607
80	0x3e1b2565	0.15150984
81	0xbde6c256	-0.112675354
82	0xbcfe90f0	-0.031074971
83	0x3dba947b	0.09110352
84	0x3d039ddc	0.03213297
85	0xbeb9b69c	-0.36272132
86	0x3d837b8a	0.064200476
87	0x3bc84945	0.00611225
88	0xbe3f67be	-0.18691918
89	0x3e580f58	0.21099603
90	0xbe7c17c8	-0.24618447
91	0x3d3aaef8	0.04557702
92	0xbab57306	-0.0013843484
93	0x3c6462dc	0.013939586
94	0x3d83a505	0.06427959
95	0x3eb826c8	0.35967088
96	0xbd190205	-0.03735544
97	0x3dcbe0fe	0.09955023
98	0x3c7f6137	0.015587143
99	0xbdfb5e87	-0.12273889
100	0x3e3f6b4a	0.18693271
101	0x3d4d33b4	0.050098136
102	0xbeeef5f6	-0.46672028
103	0x3d8220b6	0.06353895
104	0x3e78f5e1	0.24312545
105	0xbe02a493	-0.12758093
106	0x3dc68bbe	0.096946225
107	0x3e56750b	0.20943086
108	0x3e9f33d5	0.31094232
109	0xbe045ccb	-0.12926023
110	0xbd2efac7	-0.04271963
111	0x3e77169f	0.24129723
112	0x3dbd07f4	0.092300326
113	0xbe88d20d	-0.26722756
114	0x3d91220d	0.07086573
115	0xbe3b7305	-0.18305595
116	0x3e3480bb	0.17627232
117	0x3ca44baa	0.02005561
118	0x3e5f8989	0.21829809
119	0xbe0bde7b	-0.13659088
120	0xbe921a70	-0.28535795
121	0xbe851324	-0.25991166
122	0x3ea0284f	0.31280753
123	0xbe671262	-0.22565606
124	0x3e82abcf	0.25521705
125	0x3de446cb	0.11146315
126	0x3d9978ed	0.07493768
127	0xbe109c29	-0.1412207
128	0x3d845c3c	0.06462905
129	0x3c9ac3c7	0.018892182
130	0x3cde3216	0.027123492
131	0x3d4372b9	0.04771683
132	0xbde06aa1	-0.10957838
133	0xbe1130c0	-0.14178753
134	0x3d8723b0	0.06598604
135	0xbd9455e9	-0.072429486
136	0x3df102fa	0.11768146
137	0xbd4284ae	-0.047489814
138	0x3eb1daca	0.34737235
139	0xbf32e685	-0.69882995
140	0x3ecbcf62	0.39806658
141	0xbc790201	-0.015198232
142	0x3de22bf5	0.110435404
143	0xbdcdcb1d	-0.100485064
144	0xbe426ab3	-0.18986015
145	0x3ccad58d	0.024760032
146	0x3dd22719	0.102613635
147	0x3e4809e4	0.19535023
148	0xbe84cd1b	-0.25937733
149	0x3e6246b5	0.22097285
150	0x3eb2242d	0.34793225
151	0xbd9d5800	-0.076828
152	0xbe66546d	-0.22493143
153	0x3d86eb76	0.06587879
154	0x3c849570	0.016184539
155	0x3e3fc455	0.18727238
156	0x3e257b86	0.16160402
157	0x3e224abe	0.15848824
158	0x3dea0294	0.11426273
159	0xbe9e00e3	-0.30860052
160	0x3e073e19	0.13207282
161	0xbdb465b0	-0.08808458
162	0x3de6587e	0.11247347
163	0xbe42070a	-0.18947998
164	0xbd90ebba	-0.07076211
165	0xbda0a74e	-0.07844411
166	0xbb2f39d1	-0.0026737342
167	0x3df813a4	0.12113121
168	0x3d9ea2f5	0.07745925
169	0xbda3623f	-0.07977723
170	0x3e21f4c4	0.15816027
171	0xbdccf793	-0.100081585
172	0xbced77a0	-0.028987706
173	0xbe59d9df	-0.21274517
174	0xbe86a5ec	-0.26298463
175	0x3dc988b0	0.09840524
176	0xbebc27fe	-0.36749262
177	0xbe379dae	-0.17931244
178	0xbd75a99a	-0.059976198
179	0xbdf033ba	-0.11728616
180	0xbe09d142	-0.13458732
181	0x3da5e31f	0.080999605
182	0xbc8f0e98	-0.017463014
183	0x3d6ed037	0.058304038
184	0x3e6c324d	0.23066063
185	0x3cf80fab	0.030280909
186	0xbd2f7667	-0.042837527
187	0xbe25bad8	-0.16184556
188	0xbcd60ce1	-0.026129188
189	0xbda43e99	-0.08019752
190	0x3d8d0309	0.068853445
191	0xbe020706	-0.12697992
192	0x3eb3aa20	0.35090733
193	0xbed0869c	-0.407277
194	0x3efab86d	0.4896883
195	0x3e2a5a96	0.16636118
196	0xbd3b3d38	-0.04571268
197	0xbea7b903	-0.3275834
198	0x3e014078	0.12622249
199	0xbe33bcb5	-0.17552455
200	0x3e1e5207	0.15460978
201	0xbee228ff	-0.44171903
202	0x3e9b87d4	0.30377066
203	0xbe6f2e7b	-0.23357575
204	0xbd898b28	-0.06715995
205	0xbe0102dd	-0.12598749
206	0x3ea2d349	0.31801823
207	0xbdbf2a7a	-0.09334274
208	0x3e85c5aa	0.26127368
209	0x3e0e8feb	0.13922088
210	0x3da3ffd1	0.080077775
211	0xbd22cc11	-0.039745394
212	0x3e30f5d9	0.17281283
213	0x3c407b04	0.011748079
214	0xbdc0b89d	-0.09410212
215	0x3d973277	0.07382672
216	0xbd63bef9	-0.055602048
217	0x3e0acdde	0.13555095
218	0x3d850288	0.064946234
219	0xbe398ef9	-0.18120946
220	0x3e72da12	0.23716
221	0xbbed85bc	-0.0072486084
222	0xbe2f504b	-0.17120473
223	0xbe354ca4	-0.17705017
224	0x3e70fde6	0.23534355
225	0xbe0c6fb8	-0.13714492
226	0x3e9f4246	0.3110525
227	0xbdcfba1c	-0.101429194
228	0x3da28dc1	0.07937194
229	0xbf2a4052	-0.66504395
230	0x3eca6449	0.39529637
231	0xbe54a513	-0.20766096
232	0x3e61b003	0.220398
233	0xbdcd6126	-0.10028295
234	0xbe952b38	-0.29134536
235	0x3d8ee090	0.06976426
236	0x3e84c6c6	0.25932902
237	0x3d8b9dac	0.06817183
238	0xbed7a388	-0.42116952
239	0x3e3f179c	0.1866135
240	0xbe1954b2	-0.14973715
241	0x3d96e79e	0.07368396
242	0x3d173270	0.036913335
243	0x3da1dbf6	0.07903282
244	0x3e89be84	0.26903164
245	0xbd74136d	-0.05958884
246	0x3e840ef6	0.25792664
247	0xbe130baf	-0.14359926
248	0x3db1ba2e	0.08678089
249	0x3e3c5c84	0.18394667
250	0xbc64b76f	-0.01395975
251	0x3e1b2dbb	0.15154164
252	0x3d0ee273	0.034883928
253	0xbdedebb7	-0.11617225
254	0x3db1bb67	0.08678322
255	0xbdf61c7f	-0.12017154

conv3.bias f4 [32]
0	0xbd354cb2	-0.044262595
1	0xbbd2fe4e	-0.006439007
2	0x3ae8ba32	0.0017755686
3	0xbc8c4b6f	-0.017125813
4	0xbbbe68bb	-0.0058108247
5	0xbbf17203	-0.0073683276
6	0xbcfd0b03	-0.03088904
7	0xbd050d5b	-0.03248344
8	0x3be6e150	0.0070459023
9	0xbc8c5bce	-0.01713362
10	0xbc6a5f98	-0.014305018
11	0xbc969f79	-0.01838659
12	0x3bfc3e7c	0.0076978784
13	0xbcb75736	-0.022380453
14	0x3c27b41f	0.010235815
15	0x3ae1abe9	0.0017217371
16	0xbd48e644	-0.049047723
17	0xbd7d11c5	-0.061784524
18	0x3bc28c2f	0.0059371213
19	0xbcefd392	-0.02927569
20	0xbc5a6f40	-0.013332188
21	0xbd19995d	-0.037499774
22	0x3c34f7cf	0.01104541
23	0xbc99ae7f	-0.018759964
24	0xbd6b9045	-0.057510633
25	0xbd377f91	-0.04479939
26	0xbc3cab7b	-0.0115154935
27	0xbd096be5	-0.033550162
28	0x3c863932	0.016384695
29	0xbd1db498	-0.038502306
30	0xbd8f2939	-0.069902845
31	0x3beb6d58	0.0071846657

conv4.weight f4 [32, 32, 3, 3]
0	0x3d88012e	0.0664085
1	0xbd7a3d7a	-0.061093785
2	0xbd3b1778	-0.04567668
3	0x3ddc3dc8	0.10753971
4	0x3e935375	0.2877461
5	0x3d2e76c4	0.042593732
6	0x3deae6bc	0.1146979
7	0x3e797641	0.24361517
8	0xbd95588d	-0.0729228
9	0x3c65e0b0	0.01403062
10	0xbdaadf2d	-0.08343349
11	0x3c093f5e	0.008376924
12	0x3cecb429	0.0288945
13	0x3d84f0d2	0.06491245
14	0x3e011bd8	0.12608278
15	0x3d90cec4	0.070706874
16	0x3d4986e0	0.049200892
17	0x3da12b81	0.07869626
18	0xbc8323a6	-0.01600821
19	0x3e171af7	0.1475638
20	0x3d24ba91	0.040216986
21	0xbcd3fd47	-0.025877608
22	0x3e2afdbf	0.16698359
23	0xbc2a9f55	-0.010413964
24	0x3d8b6b90	0.06807625
25	0x3e2f852c	0.17140645
26	0x3d6fdb40	0.058558702
27	0x3d6a436d	0.05719321
28	0xbe6193d7	-0.22029053
29	0x3dc2f534	0.09519425
30	0xbe96b9a2	-0.29438502
31	0xbe788e68	-0.24273074
32	0x3dd00bbc	0.10158488
33	0xbe375a80	-0.17905617
34	0xbce1394f	-0.027493147
35	0x3dfa67d5	0.12226836
36	0x3d94abcb	0.072593294
37	0x3e4d89d8	0.20072114
38	0xbd87d27b	-0.06631943
39	0x3e1be706	0.15224847
40	0x3e2478a6	0.16061649
41	0xbe21eb78	-0.1581248
42	0x3d9ec9c8	0.077533305
43	0x3a513a20	0.00079813786
44	0xbdfbff72	-0.12304582
45	0x3da0fa86	0.078602836
46	0xbd2f0a63	-0.042734515
47	0xbe136c44	-0.14396769
48	0xbd4162c6	-0.04721334
49	0x3ce0407b	0.027374497
50	0xbdd02944	-0.10164121
51	0x3d5c7aad	0.05382793
52	0xbca23a25	-0.019803116
53	0xbcfefd58	-0.031126663
54	0x3debba5f	0.11510157
55	0x3e38301e	0.17987105
56	0xbe72c8e3	-0.23709445
57	0x3df31044	0.11868337
58	0x3eaeb504	0.3412248
59	0xbc82dacb	-0.01597347
60	0x3e00153d	0.12508102
61	0x3ea06496	0.3132674
62	0x3c725074	0.014789689
63	0x3ccaa283	0.024735695
64	0x3e34aacc	0.17643279
65	0xbea52bea	-0.32260066
66	0x3e556284	0.20838362
67	0x3ee545d4	0.44779837
68	0xbeccd896	-0.40008992
69	0x3e984422	0.2973948
70	0x3db1a052	0.08673157
71	0xbd809aaa	-0.062795
72	0xba2c3430	-0.0006569056
73	0x3db6a17d	0.0891752
74	0xbd506e9a	-0.050886728
75	0xbdaa2f34	-0.083097845
76	0x3ec4309e	0.38318342
77	0x3dd2e738	0.10298008
78	0x3dc16265	0.094425954
79	0x3cd8c483	0.026460892
80	0x3be0dc53	0.006862202
81	0xbca8b25b	-0.020592859
82	0x3d0676f4	0.032828286
83	0xbe2ca01c	-0.16857952
84	0x3c9baae3	0.019002384
85	0x3e3c8193	0.18408804
86	0xbe213de4	-0.15746266
87	0x3caf265c	0.021380596
88	0xbd7eb277	-0.062181916
89	0xbe3867a9	-0.18008293
90	0xbdc0326f	-0.093846194
91	0xbd042131	-0.032258216
92	0xbd85e369	-0.06537516
93	0xbda49ae2	-0.08037354
94	0xbe2a709d	-0.16644521
95	0xbde3b5ee	-0.11118685
96	0x3e69d88f	0.22836517
97	0xbd95a32e	-0.07306515
98	0xbe9efa90	-0.3105054
99	0xbd246667	-0.04013672
100	0xbde4e420	-0.11176324
101	0x3d928127	0.0715354
102	0xbd8858c2	-0.06657554
103	0xbe1af621	-0.15132953
104	0xbb363899	-0.002780473
105	0xbc1fea26	-0.009760415
106	0xbe4b4ccd	-0.19853516
107	0x3d419696	0.04726275
108	0xbdbaf5df	-0.091289274
109	0xbd5f9375	-0.054583985
110	0xbc06a29a	-0.008217478
111	0xbeb00455	-0.34378305
112	0x3dcd8d4e	0.10036717
113	0x3b9a8e50	0.004716672
114	0xbe37a3a6	-0.1793352
115	0x3e312b0c	0.17301577
116	0x3dbfb597	0.093608074
117	0xbcd697b9	-0.026195394
118	0x3cf000b1	0.029297205
119	0x3e47e0c0	0.19519329
120	0xbd68c7a6	-0.056831025
121	0x3dce5ade	0.10075925
122	0x3e419b4e	0.189069
123	0x3e2f30d5	0.17108472
124	0xbdf5fdfc	-0.12011334
125	0xbc8cef81	-0.017204048
126	0xbc7926b2	-0.01520698
127	0xbd9a0555	-0.07520548
128	0xbe51eba3	-0.20500045
129	0xbe3362a8	-0.17518103
130	0x3c91a266	0.017777633
131	0xbe3e65ea	-0.18593565
132	0x3e1ecfd7	0.15508972
133	0x3beb5a7c	0.0071824174
134	0xbdcad0c6	-0.099031016
135	0x3cfccfc5	0.030860791
136	0x3e1885ff	0.14894865
137	0x3d695035	0.056961257
138	0x3e85df14	0.26146758
139	0x3ea6bb9f	0.3256502
140	0xbce2ba8d	-0.027676845
141	0x3e1cb209	0.1530229
142	0x3e98d43f	0.2984943
143	0xbdcd769a	-0.10032387
144	0x3db74bfc	0.0895004
145	0x3d59a02b	0.053131264
146	0x3e000bf6	0.12504563
147	0x3d9329e6	0.07185726
148	0x3e30a0ff	0.17248915
149	0xbe038c1a	-0.12846413
150	0xbc959704	-0.018260486
151	0x3e8b822c	0.2724775
152	0xbe1f921a	-0.15583077
153	0xbe26e31b	-0.16297571
154	0xbd9dfbc4	-0.07714036
155	0xbd94cf98	-0.07266158
156	0xbe84f058	-0.25964618
157	0xbe228d8e	-0.15874311
158	0x3cedf538	0.029047593
159	0xbda6a999	-0.08137817
160	0xbe1ef6d3	-0.15523843
161	0x3cd099fc	0.02546405
162	0x3ca18266	0.0197155
163	0x3d2fa482	0.042881496
164	0x3caf7007	0.021415723
165	0xbb908ee4	-0.004411565
166	0x3ebb56db	0.36589703
167	0xbdda5102	-0.10659982
168	0x3d277900	0.04088688
169	0x3e93bb4e	0.2885384
170	0xbdacf9d3	-0.08446088
171	0xbe735b66	-0.23765334
172	0x3cade979	0.021229493
173	0x3e2fee35	0.17180713
174	0xbe5ab11c	-0.21356624
175	0x3d147e78	0.036253422
176	0x3de42cce	0.11141358
177	0xbec02088	-0.3752482
178	0xbdb20653	-0.086926125
179	0xbc2030e0	-0.009777278
180	0x3af26c43	0.0018495399
181	0x3ce997b5	0.028514722
182	0xbd182d18	-0.03715238
183	0x3e07fdd3	0.1328042
184	0x3df6329b	0.12021371
185	0xbd1adec0	-0.037810087
186	0x3d86c82e	0.0658115
187	0xbbd50333	-0.0065006255
188	0xbdaaeb77	-0.083456926
189	0xbdff4109	-0.12463576
190	0xbdadc15b	-0.08484145
191	0xb8846c6f	-6.314448e-05
192	0xbdd90fea	-0.105987385
193	0xbdd8b6d9	-0.105817504
194	0x3e115cd8	0.14195573
195	0xbd6e251e	-0.058140866
196	0x3bfc3521	0.007696763
197	0xbe885ecd	-0.26634827
198	0xbe0a5b3f	-0.1351137
199	0x3e011f49	0.1260959
200	0x3db61a77	0.088917665
201	0x3d637cf0	0.05553907
202	0x3e00f05a	0.12591687
203	0x3d932f90	0.07186806
204	0xbdaf528b	-0.08560666
205	0x3d06559b	0.032796483
206	0x3ba2a35c	0.0049633216
207	0x3d3652ba	0.044512488
208	0x3da1e04e	0.07904111
209	0xbddda463	-0.1082237
210	0xbdae93cd	-0.085242845
211	0x3ec76e2e	0.38951248
212	0x3d806970	0.062701106
213	0xbb6ee711	-0.0036453644
214	0x3e20736e	0.15669033
215	0x3c06cd57	0.008227668
216	0xbc912bf3	-0.017721152
217	0xbe47ef45	-0.19524868
218	0xbe829dd3	-0.25511035
219	0x3cd0c3f6	0.025484066
220	0x3c909620	0.01764971
221	0x3d49550b	0.04915337
222	0x3d15e0d2	0.03659136
223	0x3dc0a3e5	0.094062604
224	0x3e88c5dc	0.26713455
225	0x3cd3c56f	0.02585098
226	0x3d1d5047	0.038406637
227	0xbcb3115c	-0.021858864
228	0x3e50075a	0.20315304
229	0x3dcd12a6	0.100133225
230	0x3dbe92ea	0.093053654
231	0x3e023dd1	0.12718894
232	0x3e827446	0.25479335
233	0xbc51ec1c	-0.0128126405
234	0xbdbf10de	-0.09329389
235	0xbd09dd88	-0.033658534
236	0xbcfdbed7	-0.030974789
237	0xbd728722	-0.059210904
238	0x3e5045d3	0.20339136
239	0xbb65c9cb	-0.0035062905
240	0xbd9bf3d0	-0.07614863
241	0x3d49f8b8	0.049309462
242	0xbd9b9036	-0.075958654
243	0x3d93daf4	0.07219496
244	0x3b9ea136	0.004840995
245	0xbd8d1477	-0.06888669
246	0x3e1c4dd4	0.15264064
247	0xbd641e25	-0.05569281
248	0xbe9f096b	-0.31061873
249	0x3e96609f	0.2937059
250	0xbdee787c	-0.11644074
251	0xbe886d32	-0.2664581
252	0x3c977c11	0.018491777
253	0xbd8aab72	-0.06770982
254	0x3cec1f4c	0.028823517
255	0x3e768cc9	0.24077143

conv4.bias f4 [32]
0	0x3c829b0d	0.015943075
1	0xbd13b664	-0.036062613
2	0x3a09e7d7	0.0005260682
3	0x3d4f182b	0.050560158
4	0x3d16e37b	0.036838036
5	0x3bc4cec0	0.006006092
6	0x3db6f3df	0.089332335
7	0xbc9d130c	-0.019174121
8	0x3dc38041	0.09545947
9	0x3d413c05	0.04717638
10	0xbd79a013	-0.060943674
11	0xbd122fcc	-0.035690114
12	0x3c528f6d	0.012851578
13	0x3d4fd943	0.050744306
14	0xbce9fc2f	-0.028562633
15	0xbd857f0d	-0.06518374
16	0x3df26493	0.11835589
17	0x3e0b6935	0.13614352
18	0xbcf78441	-0.03021443
19	0x3e127ebb	0.14306156
20	0x3bbd0d7b	0.0057694293
21	0xbdfd5aa2	-0.123708025
22	0x3d443873	0.047905397
23	0x3d460246	0.048342012
24	0xbd3dbbe8	-0.04632178
25	0xbdb6c9eb	-0.089252315
26	0xbc368e6d	-0.011142355
27	0x3d31d288	0.04341367
28	0xbd8e9341	-0.0696168
29	0xbdb28c87	-0.0871821
30	0x3c0d46d8	0.0086228475
31	0x3d231d66	0.03982296

linear.weight f4 [256, 800]
0	0x3e1602d6	0.1464952
1	0xbda36fb6	-0.079802915
2	0xbc165c9c	-0.009177353
3	0x3d65006a	0.055908598
4	0xbe8f1e3d	-0.27952757
5	0xbcefd240	-0.02927506
6	0x3da611ce	0.08108865
7	0x3daab8ae	0.08336006
8	0x3ded8dc6	0.11599307
9	0xbdccfc00	-0.10009003
10	0x3d430555	0.047612507
11	0xbddd4297	-0.10803717
12	0x3d122824	0.035682812
13	0x3d6e330d	0.058154155
14	0xbde36ad3	-0.111043595
15	0xbcaab947	-0.0208403
16	0xbd2ac945	-0.04169585
17	0xbc8cd1c8	-0.017189875
18	0xbdefb956	-0.11705272
19	0xbdf3c7ac	-0.11903319
20	0x3e02acc5	0.12761219
21	0xbe1908f7	-0.14944826
22	0xbea03a5c	-0.31294525
23	0xbeeb5755	-0.45965067
24	0xbda8d1e1	-0.08243156
25	0x3d745aac	0.059656784
26	0xbda63951	-0.08116401
27	0x3adf9f50	0.0017061029
28	0x3d90ac69	0.07064135
29	0x3ebfa33c	0.37429225
30	0x3db648d8	0.089006126
31	0xbd4a1db8	-0.04934475
32	0xbadc3510	-0.0016800482
33	0x3db9cded	0.0907248
34	0x3e8b53cc	0.2721237
35	0x3dffda5b	0.1249282
36	0x3c9a7298	0.01885347
37	0x3cd4d64b	0.02598109
38	0xbb3f78c0	-0.002921626
39	0x3e8694d1	0.26285413
40	0xbcf59a1f	-0.029980717
41	0xbdf572d7	-0.119847946
42	0xbd548d24	-0.051892415
43	0x3dd91e98	0.106015384
44	0xbc9452b1	-0.018105837
45	0x3d2a4585	0.041570205
46	0xbd7a5e7a	-0.061125256
47	0x3ce25110	0.027626544
48	0x3dcb96b8	0.09940857
49	0xbce6bf5b	-0.028167417
50	0xbdc6f352	-0.097143784
51	0xbe1e00ad	-0.15429945
52	0x3c7a7ff8	0.015289299
53	0xbe53693f	-0.20645617
54	0x3ee8930c	0.45424688
55	0x3de101f8	0.10986704
56	0xbc24affd	-0.0100517245
57	0xbd7c7fb0	-0.06164521
58	0xbdbd405b	-0.092407905
59	0x3e8735d8	0.26408267
60	0xbdc7e3e9	-0.09760267
61	0x3e1d25de	0.15346476
62	0xbe5cacb6	-0.21550259
63	0xbd82c592	-0.0638534
64	0x3e0fbce9	0.14036907
65	0x3ccda89c	0.025104813
66	0x3e86e146	0.26343745
67	0x3db86a72	0.09004678
68	0x3d90f010	0.07077038
69	0x3cf8af92	0.030357156
70	0x3dad6432	0.08466376
71	0x3eb8cc6a	0.36093456
72	0xbe872e76	-0.26402634
73	0xbdf2ef29	-0.118620224
74	0xbe958943	-0.29206285
75	0x3e4a0693	0.1972907
76	0x3df58b9a	0.119895175
77	0xbc5bf7ce	-0.01342578
78	0x3d3ca4f3	0.046055745
79	0xbe115d97	-0.14195858
80	0x3a43a414	0.0007463109
81	0x3e3ddb2b	0.18540637
82	0x3d2e130f	0.042498644
83	0x3d3a8bb1	0.045543376
84	0xbdaaa9ec	-0.08333191
85	0xbe339acc	-0.17539519
86	0x3e005a62	0.12534478
87	0x3ce5a218	0.028031394
88	0x3d0fb8a1	0.035088185
89	0xbdc4e16e	-0.0961331
90	0x3dca1c40	0.098686695
91	0x3e381dd5	0.1798013
92	0x3dce33bf	0.100684635
93	0xbced7170	-0.028984755
94	0xbdf08cdf	-0.11745619
95	0xbe1ac47e	-0.15114018
96	0x3dd467f7	0.10371392
97	0xbbfc8bde	-0.007707103
98	0x3cc4aedc	0.02400916
99	0xbe5279ad	-0.20554228
100	0xbe0adfe0	-0.13561964
101	0xbd407921	-0.046990518
102	0xbdd2b661	-0.10288692
103	0x3cb1a4c4	0.021685012
104	0xbde416ef	-0.11137187
105	0x3d300e4a	0.042982377
106	0xbd973d32	-0.07384719
107	0xbdcd3521	-0.10019899
108	0xbdef6fe0	-0.1169126
109	0x3d9ae7de	0.075637564
110	0x3d81d68e	0.06339751
111	0xbd481ad3	-0.048853707
112	0xbdba4515	-0.090952076
113	0x3c18b849	0.009321281
114	0xbd623e51	-0.05523521
115	0xbd9c2e95	-0.07626072
116	0x3dd9deab	0.10638174
117	0x3e17da27	0.14829312
118	0x3e31f94c	0.17380255
119	0xbe129504	-0.14314657
120	0x3df36a80	0.11885548
121	0xbeb6285b	-0.35577664
122	0xbc9c6982	-0.019093279
123	0xbddea414	-0.10871139
124	0x3c894d8f	0.016760616
125	0xbe0a9891	-0.13534762
126	0xbdcae896	-0.099076435
127	0xbd13ecf8	-0.036114663
128	0xbc963e19	-0.018340157
129	0x3c05546f	0.008137806
130	0x3d1d62e7	0.0384244
131	0xbd11b6ac	-0.0355746
132	0xbd845b50	-0.06462729
133	0xbbc5c5cc	-0.006035542
134	0x3ea08ffc	0.3135985
135	0xbd574ffc	-0.052566513
136	0xbe1bf70e	-0.15230963
137	0xbb8bc3aa	-0.0042652683
138	0x3d74264c	0.059606835
139	0x3eea7542	0.45792586
140	0xbd73d91d	-0.059533227
141	0x3c5bfe88	0.013427384
142	0x3c986be2	0.01860613
143	0x3d2a5746	0.041587137
144	0x3e1fdbc4	0.15611178
145	0x3d8858cf	0.06657564
146	0xbb1c6cf2	-0.0023868647
147	0xbe9b0ec7	-0.30284712
148	0xbd989362	-0.07449986
149	0x3dcace38	0.09902614
150	0x3e468900	0.19388199
151	0xbde53983	-0.1119261
152	0xbdf4fd5c	-0.11962387
153	0xbd776e0a	-0.060407676
154	0x3e3c55f6	0.18392166
155	0x3e21633c	0.15760511
156	0xbe124498	-0.14283979
157	0xbd0d7293	-0.034533095
158	0xbc802b20	-0.015645564
159	0xbd2bc861	-0.041939143
160	0xbd8f2b58	-0.06990689
161	0x3deae381	0.11469174
162	0xbd1cc808	-0.038276702
163	0xbd6b8def	-0.057508405
164	0xbcb253b3	-0.021768427
165	0xbd1dcef1	-0.038527433
166	0x3e5dec45	0.21672161
167	0x3ca2648a	0.019823331
168	0xbe025e7d	-0.12731357
169	0x3c680e5e	0.014163582
170	0xbcc63536	-0.024195295
171	0xbe82513f	-0.2545261
172	0xbd85be9b	-0.06530496
173	0xbe6ba317	-0.23011433
174	0x3c23b0ec	0.009990912
175	0x3ddb61ff	0.10712051
176	0xbc6d4f6f	-0.0144842705
177	0xbd7f50e8	-0.062333018
178	0x3dcb070e	0.09913455
179	0xbc2d91db	-0.010593857
180	0x3ddd1937	0.10795825
181	0x3dd6b0c1	0.10482932
182	0x3d356e33	0.044294547
183	0x3e0ea7a1	0.13931133
184	0x3db4886e	0.088150844
185	0xbe2bd000	-0.16778564
186	0x3e587118	0.21136892
187	0x3b3f2078	0.002916364
188	0x3c23c64d	0.009996009
189	0x3d179bcb	0.03701381
190	0xbd99b16c	-0.07504544
191	0x3e0b90b0	0.13629413
192	0xbdd4643c	-0.10370681
193	0xbe259e12	-0.1617358
194	0x3d337792	0.043815203
195	0xbd4fa62b	-0.05069558
196	0x3ec0f1e2	0.37684542
197	0xbe04f670	-0.12984633
198	0x3e1845f1	0.1487043
199	0xbd3756e7	-0.04476061
200	0xbdafdce3	-0.08587053
201	0xbe0c108f	-0.13678192
202	0x3c82867e	0.015933271
203	0x3d42bf24	0.047545567
204	0x3cd9b74d	0.026576662
205	0x3e0cec85	0.137621
206	0x3d734cff	0.0593996
207	0x3d8797dc	0.06620762
208	0x3e2c8a7c	0.16849703
209	0x3db3ceb2	0.087796584
210	0xbb6308f9	-0.00346428
211	0x3cf5c555	0.030001322
212	0x3dea2a26	0.114338204
213	0x3d8245c3	0.06360962
214	0x3d70b228	0.058763653
215	0x3c8eb4a1	0.017420115
216	0xbe50e804	-0.20401007
217	0xbe208d94	-0.15679008
218	0xbdee0ed5	-0.11623923
219	0xbb2b8841	-0.0026173743
220	0xbd2d65c5	-0.042333383
221	0xbe39a56c	-0.1812951
222	0xbe56b796	-0.2096847
223	0xbec1f9f6	-0.37886018
224	0x3c49ba15	0.012312432
225	0xbe2cda8a	-0.16880241
226	0xbdf63d19	-0.12023372
227	0xbdb12be2	-0.08650948
228	0xbe1239c7	-0.14279853
229	0x3defe7fa	0.11714168
230	0xbda6315b	-0.081148826
231	0xbd6bc8ed	-0.057564665
232	0xbe2cc066	-0.16870269
233	0xbd5a8012	-0.053344794
234	0xbde2a811	-0.110672124
235	0xbceb93f7	-0.028757079
236	0xbceabe88	-0.028655306
237	0xbdd5df72	-0.104430094
238	0xbdc8d63c	-0.09806487
239	0xbdc8e9bd	-0.09810207
240	0xbb2e55ca	-0.0026601427
241	0xbda0ce40	-0.07851839
242	0xbe81d076	-0.25354356
243	0x3e4299e7	0.19004022
244	0x3dbe09ad	0.09279189
245	0x3e3bdf49	0.18346895
246	0xbd9950c0	-0.07486105
247	0x3c490eb3	0.012271571
248	0x3cfb7884	0.030697115
249	0xbe03afdb	-0.12860052
250	0x3d86a96d	0.06575284
251	0x3dbed8a1	0.093186624
252	0xbd9b9d51	-0.07598365
253	0x3db0c718	0.08631724
254	0xbdf162c2	-0.11786415
255	0xbe553b35	-0.20823367

linear.bias f4 [256]
0	0xbe79993b	-0.24374859
1	0xbe19c064	-0.15014797
2	0xbde8f15d	-0.113741614
3	0xbdb5d97c	-0.088793725
4	0xbd952fde	-0.072845206
5	0xbd0aec59	-0.033916805
6	0xbd71da8f	-0.059046324
7	0xbdf6aeb1	-0.120450385
8	0xbde3c768	-0.11122018
9	0xbd084b52	-0.033274956
10	0xbc4e31b4	-0.012585092
11	0xbd9a81d0	-0.07544291
12	0xbde26118	-0.110536754
13	0xbda8220a	-0.082096174
14	0xbd52b14d	-0.05143862
15	0xbd1ad466	-0.037800215
16	0xbe8611d1	-0.26185468
17	0xbe764699	-0.24050368
18	0xbdc6b2c7	-0.09702068
19	0xbdf9e045	-0.12200979
20	0xbde92437	-0.113838606
21	0xbd7982e5	-0.060915846
22	0xbd88fa2a	-0.0668834
23	0xbe85d347	-0.26137754
24	0xbe90eb01	-0.28304294
25	0xbeaca7f2	-0.33721882
26	0xbe0a5022	-0.1350713
27	0xbd8b7e4f	-0.06811201
28	0xbdd96884	-0.10615638
29	0xbd9e22f8	-0.077215135
30	0xbce66a68	-0.02812691
31	0xbd976517	-0.07392328
32	0xbe063249	-0.1310512
33	0xbdc8504b	-0.0978094
34	0xbe8b35c2	-0.2718945
35	0xbd7bd4ec	-0.061482355
36	0xbdd88417	-0.10572069
37	0xbd8a36d8	-0.06748742
38	0xbe97405e	-0.29541296
39	0xbdd72955	-0.1050593
40	0xbe8742d5	-0.26418176
41	0xbe33d474	-0.17561513
42	0xbd9f5d02	-0.07781412
43	0xbc9fb48f	-0.019495277
44	0xbe4cd60c	-0.20003527
45	0xbdaa600b	-0.083191
46	0xbe412013	-0.18859892
47	0xbd84d5f3	-0.0648612
48	0xbddbd7ca	-0.10734518
49	0xbd35c8b7	-0.04438087
50	0xbe63482a	-0.22195497
51	0xbd953790	-0.07285988
52	0xbdd03726	-0.10166769
53	0xbdca4a9a	-0.0987751
54	0xbd9ec0de	-0.0775163
55	0xbdac7904	-0.084215194
56	0xbe74f223	-0.23920493
57	0xbd46f1fe	-0.048570625
58	0xbda072dd	-0.078344084
59	0xbe18ac97	-0.14909588
60	0xbd3936c2	-0.045218237
61	0xbd7eff89	-0.062255416
62	0xbd98d627	-0.07462721
63	0xbd737221	-0.059435014
64	0xbe836352	-0.25661713
65	0xbdcb1ba1	-0.09917379
66	0xbda44c6e	-0.0802239
67	0xbe07a7f0	-0.13247657
68	0xbc872af0	-0.016499966
69	0xbdc08128	-0.093996346
70	0xbd53e3b7	-0.051730838
71	0xbe348ab0	-0.1763103
72	0xbdfe1fbc	-0.124083966
73	0xbdba110a	-0.09085281
74	0xbd8dd3ef	-0.06925189
75	0xbd4cfa19	-0.0500432
76	0xbdd8a363	-0.105780385
77	0xbc473d27	-0.012160576
78	0xbe874fc3	-0.2642804
79	0xbd049f4a	-0.032378472
80	0xbdf89576	-0.121378824
81	0xbd5ccae8	-0.053904444
82	0xbd9acc3e	-0.07558487
83	0xbdc0f43e	-0.094215855
84	0xbde9e26d	-0.114201404
85	0xbd9c9f82	-0.07647611
86	0xbd84b035	-0.06478921
87	0xbe0518ca	-0.12997738
88	0xbdf9d442	-0.12198688
89	0xbd911a1b	-0.07085057
90	0xbcd02186	-0.02540661
91	0xbe82467d	-0.25444403
92	0xbdb47d78	-0.08812994
93	0xbd9b6e00	-0.0758934
94	0xbda419c5	-0.08012728
95	0xbd684152	-0.05670292
96	0xbe636fc6	-0.22210607
97	0xbd891aa0	-0.066945314
98	0xbda775ba	-0.081767514
99	0xbdb72f40	-0.08944559
100	0xbd8169b1	-0.06318987
101	0xbda622ed	-0.0811213
102	0xbd819544	-0.06327298
103	0xbe3d54cf	-0.18489383
104	0xbec8d2d4	-0.3922335
105	0xbdfb0a8a	-0.122578695
106	0xbdd43982	-0.10362531
107	0xbd523d3f	-0.05132794
108	0xbd82c242	-0.06384708
109	0xbde0d3b3	-0.109778784
110	0xbe9d8831	-0.30767968
111	0xbd91a469	-0.07111437
112	0xbdab90a3	-0.08377197
113	0xbd21f6cf	-0.039542016
114	0xbd3d338f	-0.04619175
115	0xbe5585d1	-0.20851828
116	0xbd97df98	-0.07415694
117	0xbd952641	-0.07282687
118	0xbdaefc92	-0.08544268
119	0xbdaeb3ea	-0.0853041
120	0xbe7dd794	-0.24789268
121	0xbd9a3835	-0.07530252
122	0xbd56b201	-0.05241585
123	0xbd6a2a55	-0.057169277
124	0xbd70c03c	-0.05877708
125	0xbcde145c	-0.027109317
126	0xbeb9c15f	-0.36280343
127	0xbe87e7f7	-0.26544163
128	0xbc98b6ce	-0.018641856
129	0xbd81ece5	-0.06344012
130	0xbd6d7539	-0.05797312
131	0xbd2419eb	-0.04006378
132	0xbd372cc0	-0.04472041
133	0xbd798757	-0.060920086
134	0xbcd6c8e9	-0.026218848
135	0xbe1a2b8a	-0.15055671
136	0xbd0fd8d2	-0.035118885
137	0xbe7be89a	-0.24600449
138	0xbe4b40ae	-0.19848892
139	0xbd70fb78	-0.05883357
140	0xbe94b6a2	-0.29045588
141	0xbe992afd	-0.2991561
142	0xbd540dbc	-0.05177091
143	0xbd21d536	-0.039509974
144	0xbe1c019e	-0.15234992
145	0xbdb16039	-0.08660931
146	0xbda7c9f5	-0.08192817
147	0xbe212ff0	-0.15740943
148	0xbde0b2de	-0.10971616
149	0xbdee5bab	-0.11638578
150	0xbe08c6db	-0.13357107
151	0xbe6a3b32	-0.22874144
152	0xbe506928	-0.20352614
153	0xbe8db6db	-0.2767857
154	0xbdcc14ef	-0.0996493
155	0xbd79eb52	-0.061015435
156	0xbd9cbcb6	-0.07653181
157	0xbda2f410	-0.079567075
158	0xbdad925b	-0.08475181
159	0xbd4b78db	-0.049675804
160	0xbd21de21	-0.03951848
161	0xbe5d4368	-0.21607745
162	0xbddabb01	-0.106801994
163	0xbdcb73f4	-0.09934226
164	0xbdc6a6f6	-0.09699814
165	0xbdaf23f7	-0.085517816
166	0xbd956015	-0.07293717
167	0xbd8506f1	-0.064954646
168	0xbd1db799	-0.03850517
169	0xbe188439	-0.14894189
170	0xbddfb348	-0.10922867
171	0xbe3a30e4	-0.18182713
172	0x3c63da2d	0.013906998
173	0xbe88dfcb	-0.2673324
174	0xbe0d8534	-0.13820344
175	0xbd7aa157	-0.061189022
176	0xbcf31ce3	-0.02967686
177	0xbe4ac73e	-0.19802567
178	0xbdfac2ad	-0.12244163
179	0xbd38ea97	-0.045145597
180	0xbe4d9666	-0.20076904
181	0xbe98383a	-0.29730397
182	0xbbedd140	-0.0072576106
183	0xbdb5b38c	-0.088721365
184	0xbd63e042	-0.05563379
185	0xbdb5260f	-0.0884515
186	0xbc332e87	-0.010936386
187	0xbdfe74b4	-0.12424603
188	0xbdb0cfe2	-0.086334005
189	0xbd981fac	-0.07427916
190	0xbeb70b1a	-0.35750657
191	0xbd8a66fe	-0.067579255
192	0xbd8c8825	-0.06861905
193	0xbe961a60	-0.29316998
194	0xbd6ce67c	-0.057836995
195	0xbd2ab896	-0.04167994
196	0xbdac087b	-0.08400055
197	0xbd8493a3	-0.06473472
198	0xbd7e1259	-0.062029216
199	0xbd9f727c	-0.07785508
200	0xbd99c8e0	-0.07509017
201	0xbdba1f08	-0.0908795
202	0xbccbc6d4	-0.024875082
203	0xbe07765c	-0.13228744
204	0xbe0f6d62	-0.1400657
205	0xbd94ff46	-0.07275252
206	0xbe898a34	-0.26863253
207	0xbd4fa64a	-0.050695695
208	0xbd990829	-0.074722596
209	0xbdfa4def	-0.12221896
210	0xbe71ad10	-0.23601174
211	0xbedd1820	-0.43182468
212	0xbda329a6	-0.07966928
213	0xbdfc42f4	-0.12317458
214	0xbe0b095c	-0.13577789
215	0xbe12b7d9	-0.14327945
216	0xbb910f55	-0.0044268765
217	0xbdb4c648	-0.08826882
218	0xbda6fb2a	-0.081533745
219	0xbd92731f	-0.07150864
220	0xbd1c1ff5	-0.038116414
221	0xbe07e0ee	-0.13269398
222	0xbe1d2baa	-0.15348688
223	0xbdf9eee5	-0.12203769
224	0xbd438dfc	-0.04774283
225	0xbd316e63	-0.043318164
226	0xbd830713	-0.06397834
227	0xbdb16e6c	-0.086636394
228	0xbd87dbe8	-0.06633741
229	0xbc38d168	-0.011280395
230	0xbdbb34e7	-0.0914095
231	0xbd98b6b3	-0.07456722
232	0xbcaef6f6	-0.021357995
233	0xbd2ad64e	-0.041708283
234	0xbe063ef5	-0.13109954
235	0xbd9dd422	-0.07706477
236	0xbd9602bb	-0.073247395
237	0xbe586b6e	-0.21134731
238	0xbd6163ab	-0.05502669
239	0xbe061e59	-0.13097514
240	0xbdbd2848	-0.09236199
241	0x3b214485	0.0024607491
242	0xbd7ea967	-0.062173273
243	0xbe03cd92	-0.12871388
244	0xbd169f61	-0.03677309
245	0xbda54f27	-0.08071738
246	0xbdc055d3	-0.0939137
247	0xbdf8238f	-0.12116157
248	0xbdb19649	-0.08671243
249	0xbdad8d59	-0.084742256
250	0xbd0e2c71	-0.03471035
251	0xbe7540b6	-0.23950467
252	0xbd9f7232	-0.07785453
253	0xbe0ecccc	-0.13945311
254	0xbdffc54e	-0.12488805
255	0xbe143bf4	-0.14475995
