A3C-new/A3C-Pong&breakout-new/runs/PongNoFrameskip-v4/2022-11-02_20-10_Second80MSteps_OK/model_sam_BreakoutDeterministic-v4_conv.40.tar (torch, 947003 bytes, 13 tensors)

conv1.weight f4 [32, 4, 3, 3]
0	0x3e506453	0.2035077
1	0xbecdbfb5	-0.40185323
2	0xbc93359c	-0.017969899
3	0x3d16c9d5	0.036813576
4	0xbedb1598	-0.42789912
5	0x3e13937e	0.14411733
6	0xbe20503f	-0.15655611
7	0xbcac0306	-0.020997535
8	0x3e38eeca	0.18059841
9	0x3dfaed4c	0.12252292
10	0x3e95d2f1	0.29262498
11	0x3d56e525	0.052464623
12	0x3e47f77f	0.19528006
13	0x3e558f97	0.20855556
14	0x3e2a932a	0.16657701
15	0xbdfceecd	-0.12350235
16	0x3e1827b5	0.14858897
17	0x3eb8b9be	0.3607921
18	0x3e57120b	0.21002977
19	0x3ce1c3e0	0.02755922
20	0xbe1e37a7	-0.15450917
21	0xbc2da952	-0.010599451
22	0xbded45df	-0.115855925
23	0x3cc29fd2	0.023757849
24	0xbd8a21be	-0.06744717
25	0xbd90a38c	-0.07062444
26	0x3e8baa7a	0.272785
27	0x3da68384	0.08130553
28	0xbe7b6bc0	-0.24552822
29	0x3c3ea1e0	0.011635274
30	0x3c962e08	0.018332496
31	0x3dbb5b8c	0.091483206
32	0x3d9ef2c8	0.077611506
33	0xbe8e9c75	-0.27853742
34	0xbe677293	-0.226023
35	0x3c2f3d98	0.010695837
36	0x3ed2f7fd	0.41204825
37	0x3dfd4c27	0.123680405
38	0xbe0df3b6	-0.138625
39	0x3dbcb964	0.09215048
40	0x3f33715f	0.70094866
41	0xbe9399a8	-0.28828168
42	0x3e15a7aa	0.1461474
43	0x3ebdf14c	0.37098157
44	0xbcdf1e4b	-0.027236125
45	0x3e41f0e3	0.18939547
46	0xbe52dd04	-0.20592123
47	0xbd6116bc	-0.05495332
48	0xbd9896dc	-0.07450649
49	0x3e1c8c44	0.15287882
50	0xbe9e001c	-0.30859458
51	0xbe742867	-0.23843537
52	0x3e0f568c	0.13997859
53	0x3db5b8d1	0.088731416
54	0x3e744a71	0.23856522
55	0x3e65105c	0.22369522
56	0xbe40379c	-0.18771213
57	0xbe2454df	-0.16048001
58	0x3e957b67	0.2919571
59	0xbdfd9be5	-0.1238325
60	0xbec59c28	-0.385957
61	0x3e76e9ec	0.24112672
62	0x3d46b446	0.048511766
63	0x3e6ce397	0.23133694
64	0xbe5809f6	-0.2109755
65	0xbe476288	-0.1947118
66	0xbd2b11a3	-0.041764867
67	0x3d919ef5	0.07110397
68	0xbe81c4b1	-0.25345376
69	0xbeb0c902	-0.34528357
70	0x3e54db0d	0.20786686
71	0xbe589972	-0.21152285
72	0xbd601c72	-0.054714628
73	0x3ea7f592	0.32804543
74	0xbc4ebb7c	-0.012617942
75	0x3e51e6a6	0.20498142
76	0x3f218eb2	0.6310836
77	0xbe9de3b4	-0.30837786
78	0xbe050b42	-0.12992576
79	0x3ee290f3	0.44251212
80	0xbe1f0adf	-0.1553149
81	0xbe43ea9a	-0.19132462
82	0xbd1578bc	-0.036492094
83	0xbeb151db	-0.34632763
84	0x3e678001	0.22607423
85	0x3d5cc7a4	0.05390133
86	0xbf674978	-0.9034648
87	0x3e27e484	0.16395766
88	0xbd959070	-0.0730294
89	0xbea414d0	-0.3204713
90	0xbd7fdd65	-0.062466998
91	0xbdf5ff7b	-0.1201162
92	0x3ccbe383	0.02488876
93	0x3dc9738a	0.098364905
94	0xbd91ab4c	-0.071127504
95	0xbefdd972	-0.4957996
96	0xbcec1534	-0.028818704
97	0x3cd1964e	0.025584366
98	0xbe65754e	-0.2240803
99	0x3cd7200d	0.0262604
100	0x3ed63595	0.41837755
101	0xbc5aa5e5	-0.013345216
102	0x3e8e13e9	0.27749565
103	0x3e9d8fa0	0.3077364
104	0xbe33c5e3	-0.17555957
105	0xbe0ad337	-0.13557135
106	0x3eca7411	0.39541677
107	0x3d31f5b8	0.043447226
108	0x3ea953d1	0.3307176
109	0x3e621baf	0.22080873
110	0x3e665a8b	0.22495477
111	0x3ecb12bd	0.39662734
112	0x3f466940	0.7750435
113	0x3e1b8c6c	0.15190285
114	0x3dfaf96c	0.12254605
115	0x3f09c797	0.53820175
116	0x3eb82f9c	0.35973823
117	0x3e12c551	0.14333083
118	0xbe7eb3a7	-0.2487322
119	0xbdf573cc	-0.11984977
120	0xbd5e131c	-0.054217443
121	0x3cc4307d	0.023948902
122	0x3e1d0b99	0.15336455
123	0xbe0d80a6	-0.13818607
124	0x3e0bd72a	0.13656297
125	0xbe5e858a	-0.21730629
126	0xbea40591	-0.32035497
127	0xbe88a97f	-0.26691815
128	0x3d831b87	0.06401735
129	0xbdabba25	-0.083851136
130	0xbe7888cd	-0.24270935
131	0x3c1c8a5f	0.009554475
132	0xbd861789	-0.06547458
133	0xbdc524ba	-0.09626146
134	0xbd8b77cb	-0.06809958
135	0x3c68e187	0.014213926
136	0xbd4604b5	-0.048344333
137	0x3cd9a757	0.026569052
138	0xbed43eb8	-0.414541
139	0xbe986bd7	-0.29769775
140	0xbbdd4099	-0.0067520854
141	0xbe78a5c2	-0.24281982
142	0xbe4c19e1	-0.19931747
143	0xbcf19572	-0.029490206
144	0x3e0608ad	0.13089247
145	0x3e458ca1	0.19291927
146	0xbdb3c353	-0.087774895
147	0x3d4a80da	0.04943929
148	0x3ebccb25	0.36873737
149	0x3e4b6258	0.19861734
150	0xbe36929a	-0.17829362
151	0x3e7567dc	0.239654
152	0x3e89ac7d	0.2688941
153	0xbdb22765	-0.0869892
154	0xbef708d9	-0.48248938
155	0xbe87608e	-0.26440853
156	0xbe9bbe55	-0.3041865
157	0xbec1dd19	-0.37863997
158	0x3c84a5d3	0.016192352
159	0xbe74060d	-0.23830433
160	0xbf05ceb8	-0.5226855
161	0x3eb3d5a5	0.35123935
162	0x3e00fd58	0.12596643
163	0x3e97de01	0.29661563
164	0xbea9161c	-0.3302468
165	0x3ca0d11d	0.019630963
166	0xbdc357ad	-0.09538207
167	0xbdae69eb	-0.08516296
168	0xbe205352	-0.15656784
169	0xbe4b53b8	-0.19856155
170	0x3d990785	0.07472137
171	0x3e8417ac	0.2579931
172	0x3e7a663a	0.24453059
173	0xbd2ba27d	-0.041903008
174	0x3e881629	0.26579407
175	0x3e971d44	0.29514515
176	0x3ded1945	0.115770854
177	0x3de5d9fe	0.11223219
178	0xbdb3f589	-0.087870665
179	0x3e4e14e2	0.20125154
180	0xbcd96047	-0.026535166
181	0xbe8c1390	-0.27358675
182	0xbe8d153b	-0.2755526
183	0xbe8e4882	-0.27789694
184	0xbea672a6	-0.32509345
185	0x3e67865c	0.22609848
186	0xbeb86e01	-0.36021426
187	0xbee2a360	-0.4426527
188	0xbda94368	-0.0826481
189	0xbe21c72d	-0.15798636
190	0x3d71904f	0.058975514
191	0x3cc39f34	0.023879625
192	0xbe86625f	-0.26246926
193	0x3e35da0b	0.17758958
194	0x3ec1d765	0.37859645
195	0xbe4a6f11	-0.19768931
196	0x3e03cb9e	0.12870643
197	0x3e3e66cf	0.18593906
198	0x3eade0c3	0.33960542
199	0xbc3ef53d	-0.011655149
200	0x3d3a8c07	0.045543697
201	0x3dc4e0b1	0.09613169
202	0x3ec9ed53	0.39438877
203	0x3d29dd2d	0.041470695
204	0x3ea0409c	0.31299293
205	0x3d8170e0	0.06320357
206	0xbd1bcb14	-0.038035467
207	0x3e165546	0.14680967
208	0x3d409959	0.047021244
209	0xbb54e5a2	-0.0032485505
210	0x3d9be769	0.07612497
211	0x3e28f8f5	0.1650122
212	0xbe0a92aa	-0.1353251
213	0x3e927c51	0.2861047
214	0x3e35d4bd	0.17756934
215	0x3db9cdd8	0.09072465
216	0x3e3b35e5	0.18282278
217	0xbeb05dc2	-0.34446532
218	0xbc8e0626	-0.017336916
219	0x3e2415b4	0.16023904
220	0x3cd71021	0.026252808
221	0x3e8c847c	0.27444828
222	0xbe994ef6	-0.29943055
223	0xbd9f7b8d	-0.07787237
224	0x3e9beef2	0.30455738
225	0xbd071f7a	-0.032989003
226	0x3dd69d4c	0.10479221
227	0x3d25147c	0.04030274
228	0x3e91e902	0.28498083
229	0x3f4123f0	0.7544546
230	0xbeaeea35	-0.3416306
231	0xbe15b940	-0.14621449
232	0x3ef379a6	0.47553748
233	0xbe8324db	-0.25614056
234	0xbdeac819	-0.11463947
235	0x3d8df4f0	0.06931484
236	0xbe54d9b5	-0.20786174
237	0x3e8fa1f5	0.2805325
238	0x3e849807	0.25897238
239	0xbef3cbb6	-0.47616357
240	0xbe2c08a8	-0.16800177
241	0x3e136a9f	0.14396141
242	0xbe11440b	-0.14186113
243	0x3b65ee2c	0.0035084588
244	0xbe097dcd	-0.13426895
245	0x3d24467b	0.040106278
246	0xbe35e85a	-0.17764416
247	0xbdd560c7	-0.104188494
248	0xbe57de9d	-0.21081014
249	0x3e29361f	0.16524552
250	0x3e5c2b1c	0.2150082
251	0xbe46e0d2	-0.194217
252	0x3a3a644d	0.0007110283
253	0xbe37736e	-0.17915127
254	0x3ef26564	0.4734298
255	0xbde8993a	-0.11357351

conv1.bias f4 [32]
0	0xbe2e4b92	-0.17021015
1	0xbe05f42a	-0.13081422
2	0x3d3e56f4	0.046469644
3	0xbe27a168	-0.16370165
4	0xbdc3f855	-0.0956885
5	0xbe450d3f	-0.19243334
6	0xbde79a21	-0.11308695
7	0xbd87853b	-0.066172086
8	0xbe90a379	-0.2824972
9	0x3c018cbe	0.007907091
10	0xbc84b6fa	-0.016200531
11	0xbe079732	-0.1324127
12	0xbe75a941	-0.23990346
13	0x3e88a982	0.26691824
14	0xbe227682	-0.1586552
15	0x3e98164b	0.29704508
16	0xbea9f65a	-0.33195764
17	0xbe8cc53b	-0.27494225
18	0xbde93a74	-0.11388102
19	0xbe99e32c	-0.3005613
20	0xbb8ad8f0	-0.0042372867
21	0x3d50e111	0.05099589
22	0xbd3df0b7	-0.04637214
23	0xbd05f4e5	-0.032704253
24	0x3d93094c	0.071795076
25	0xbd079f2f	-0.033110794
26	0xbe08686e	-0.13321087
27	0x3eb7d24b	0.35902628
28	0xbd948d9f	-0.072535746
29	0x3f1e0799	0.61730343
30	0xbd8df611	-0.06931699
31	0x3cd676d1	0.026179703

conv2.weight f4 [32, 32, 3, 3]
0	0x3e62052c	0.22072285
1	0xbd8b36cf	-0.06797563
2	0x3e02818a	0.12744728
3	0xbcc1586b	-0.023601731
4	0xbdec582c	-0.11540255
5	0xbc97047f	-0.018434761
6	0x3d92a468	0.07160264
7	0x3d149393	0.03627355
8	0xbdb20dcf	-0.0869404
9	0x3d0a170e	0.033713393
10	0x3cf0a685	0.029376278
11	0x3e9f29c8	0.31086564
12	0x3ddfe10e	0.10931598
13	0xbebac5d7	-0.36479065
14	0x3d4e4f0c	0.050368354
15	0xbe8d5f39	-0.27611712
16	0x3e51629a	0.2044777
17	0xbdedfda3	-0.11620643
18	0x3e28cb06	0.16483697
19	0x3e49496e	0.19656917
20	0xbdd2d0d6	-0.102937385
21	0x3ec1011f	0.37696168
22	0xbe0966c8	-0.13418114
23	0xbe2c57bc	-0.16830343
24	0xbe1487af	-0.14504884
25	0x3daaad5b	0.08333846
26	0xbd1d9af1	-0.03847784
27	0x3bb0b529	0.0053926897
28	0xbd9733dd	-0.07382939
29	0x3e0b573b	0.13607495
30	0xbd494839	-0.049141143
31	0xbd8bbd29	-0.06823189
32	0x3e2d6651	0.16933562
33	0xbeb873e4	-0.36025918
34	0x3e924d7b	0.28574738
35	0xbcf062ae	-0.02934393
36	0x3d39ac38	0.045330256
37	0x3de3b138	0.11117786
38	0xbe4a012a	-0.19727007
39	0x3d0345ed	0.03204911
40	0xbe075b5e	-0.13218448
41	0xbda8584d	-0.08219967
42	0x3c6ed74c	0.014577698
43	0x3e155db4	0.14586526
44	0x3c9d71bd	0.019219274
45	0xbd5b90fe	-0.053605072
46	0x3d039b19	0.032130335
47	0xbc8522e2	-0.016251985
48	0xbd0fd749	-0.03511742
49	0xbeef9943	-0.46796617
50	0x3e701a47	0.23447524
51	0xbcbcd5bd	-0.023051137
52	0xbd737d9a	-0.059445955
53	0x3e77ed08	0.24211514
54	0x3e5a50c2	0.21319869
55	0x3dbc18c3	0.091844104
56	0x3e451710	0.19247079
57	0x3ce92fd2	0.028465185
58	0xbf0db133	-0.5534851
59	0x3d38509a	0.044998743
60	0xbe35a737	-0.17739569
61	0x3d26e469	0.040745173
62	0x3e4016e3	0.1875873
63	0x3d3251ce	0.043535046
64	0x3ca69b3a	0.02033769
65	0x3e2b4d0c	0.1672861
66	0xbd7f770a	-0.062369384
67	0xb9e8fc28	-0.0004443836
68	0xbd8a1a9e	-0.06743358
69	0x3d83f783	0.064436935
70	0x3d815135	0.06314317
71	0x3aa2b36c	0.0012413091
72	0xbe1a4f2f	-0.15069269
73	0x3e6c0c29	0.23051514
74	0x3da88073	0.08227625
75	0xbdf53cb3	-0.11974468
76	0xbdab0842	-0.083511844
77	0xbe5c15f5	-0.21492751
78	0xbdc3b623	-0.09556224
79	0x3d2e35ac	0.042531654
80	0x3e887c7a	0.26657468
81	0x3b86029d	0.004089667
82	0xbd054084	-0.03253223
83	0xbd199c49	-0.03750256
84	0xbddbe2a3	-0.10736587
85	0x3e5ef2db	0.2177233
86	0xbe4855df	-0.19564007
87	0x3be981dc	0.007126076
88	0xbcb3614c	-0.02189698
89	0x3e69d67d	0.22835727
90	0xbd9c2ba0	-0.07625508
91	0xbce6e7fd	-0.028186793
92	0xbe2c9673	-0.16854267
93	0xbdad1fca	-0.08453329
94	0xbe71ad24	-0.23601204
95	0x3e4ed094	0.20196754
96	0x3c62a83b	0.013834055
97	0x3e0c5cf2	0.13707331
98	0x3cb103a1	0.021608176
99	0x3e3f91dd	0.18707986
100	0x3c8b6c75	0.01701949
101	0xbdf038dd	-0.11729596
102	0x3da8001d	0.082031466
103	0x3d69322e	0.05693262
104	0xbdc8dc32	-0.09807624
105	0xbd7a3733	-0.0610878
106	0xbbde73b7	-0.0067886966
107	0x3dcc4c48	0.09975487
108	0xbd9f8ecb	-0.077909075
109	0x3e91292c	0.28351724
110	0x3da745e5	0.08167628
111	0xbe5164b1	-0.20448567
112	0xbe616d3b	-0.22014324
113	0x3cc2b7f0	0.023769349
114	0xbd82a269	-0.063786335
115	0x3dc9b771	0.09849442
116	0x3cb52d3b	0.022116294
117	0xbcece222	-0.028916422
118	0x3c34d907	0.0110380715
119	0x3e0c435f	0.13697575
120	0x3e07f60c	0.13277453
121	0x3e27f69f	0.16402672
122	0xbdc08536	-0.09400408
123	0xbe1bd154	-0.15216571
124	0xbe96392c	-0.29340494
125	0x3d0537e6	0.032524012
126	0x3de46f0b	0.11153992
127	0xbeaabe84	-0.33348477
128	0x3d1d80ce	0.038452916
129	0xbdf37aca	-0.118886545
130	0xbdce4e61	-0.10073543
131	0x3d13b6b2	0.036062904
132	0x3c99a84a	0.018757004
133	0x3e91c1b6	0.28468102
134	0xbb4defbb	-0.0031423408
135	0x3e7ef0c3	0.24896531
136	0xbe156740	-0.14590168
137	0x3ccfa309	0.025346296
138	0x3e1abc8c	0.15110987
139	0x3d880220	0.0664103
140	0x3d316c12	0.043315955
141	0xbc5ef662	-0.013608547
142	0x3ddb8d19	0.107202716
143	0xbeaa3fdb	-0.33251843
144	0xbe51d608	-0.20491803
145	0x3d7d47db	0.061836105
146	0x3e285024	0.16436821
147	0xbddefbdf	-0.10887884
148	0xbe428551	-0.18996169
149	0x3e4b2aef	0.19840597
150	0xbe3ca9a8	-0.18424094
151	0x3e12ca78	0.14335048
152	0x3e24ead4	0.16105205
153	0xbe4c500d	-0.19952412
154	0xbc87eb9f	-0.016591845
155	0x3e54bf68	0.2077614
156	0xbc0cea5f	-0.0086008
157	0x3bb01de3	0.0053746565
158	0xbdb79a4c	-0.08964977
159	0xbceeb87b	-0.029140702
160	0x3c5c6de6	0.013453936
161	0x3dc91ef5	0.09820358
162	0x3cb40daf	0.021979181
163	0x3e305838	0.17221153
164	0xbabc8524	-0.0014382941
165	0x3cf448ad	0.02981981
166	0xbea99828	-0.33123899
167	0x3e3b4373	0.18287449
168	0xbe6098b7	-0.21933256
169	0xbd7f9f42	-0.06240774
170	0x3e0e5460	0.13899374
171	0xbe0ace26	-0.13555202
172	0x3d26dd6e	0.040738516
173	0x3d74f804	0.05980684
174	0xbeb0c1dd	-0.34522906
175	0x3d5045b0	0.05084771
176	0x3d9760ea	0.07391532
177	0x3d865cb0	0.065606475
178	0xbe49948c	-0.19685572
179	0x3e7aa1ed	0.24475832
180	0x3e391cb6	0.18077359
181	0xbca7bdb6	-0.020476203
182	0x3cdcf799	0.026973533
183	0xbe3e786b	-0.18600623
184	0x3e3a67d4	0.1820367
185	0xbc1a69fe	-0.009424685
186	0x3e029b3b	0.12754528
187	0xbda5baa6	-0.08092241
188	0xbdf87263	-0.121311925
189	0xbde40c37	-0.11135142
190	0xbe07e3dc	-0.13270515
191	0x3eb57b42	0.354456
192	0x3cefcde1	0.029272975
193	0x3d1ed78b	0.038779777
194	0xbc5800e6	-0.013183808
195	0x3e49ae73	0.19695453
196	0xbd51388e	-0.051079325
197	0xbe4cbd36	-0.19994053
198	0x3cac301a	0.02101903
199	0x3cc7371a	0.024318267
200	0xbd534459	-0.051578853
201	0xbe174fe3	-0.14776568
202	0x3e192b8e	0.14958021
203	0x3d6a278b	0.057166617
204	0x3e4a7c3b	0.19773953
205	0xbe4d8766	-0.20071182
206	0xbd5c6edb	-0.053816658
207	0xbe595675	-0.21224387
208	0xbde09199	-0.109652705
209	0x3e29ece4	0.16594273
210	0xbdccca2c	-0.09999499
211	0x3ecd2266	0.40065306
212	0xbde7e18d	-0.11322317
213	0x3dc42104	0.0957661
214	0x3d0f7d6c	0.03503172
215	0xbca91576	-0.020640116
216	0x3c8c8afa	0.017156113
217	0x3e5c57c8	0.21517861
218	0x3d031df6	0.032010995
219	0xbd9b1867	-0.07573014
220	0xbd71effe	-0.059066765
221	0xbd5e50f6	-0.05427643
222	0x3d92380a	0.07139595
223	0xbddf671a	-0.10908337
224	0x3ced285f	0.028949915
225	0x3e120d5f	0.14262913
226	0xbcf9fe70	-0.030516833
227	0xbe53094c	-0.20609015
228	0xbdbe3e64	-0.09289244
229	0x3e31d12c	0.17364949
230	0x3e1e58a0	0.15463495
231	0x3c94fc2c	0.018186651
232	0x3ad973f3	0.0016590342
233	0xbdb833be	-0.08994244
234	0x3dcacbc2	0.09902145
235	0x3c26eaeb	0.010187845
236	0xbe9bcd6b	-0.3043016
237	0xbdc70785	-0.09718231
238	0x3d556d2e	0.052106075
239	0xbc9d8413	-0.019228017
240	0x3e216dd1	0.15764548
241	0xbc81c805	-0.015842447
242	0x3d9f0e0e	0.077663526
243	0xbc9d43c6	-0.019197356
244	0xbe8b4095	-0.2719771
245	0x3d5c643a	0.05380652
246	0xbeb305a9	-0.34965256
247	0x3efd98f1	0.49530748
248	0x3ced84b2	0.028993938
249	0x3e5c71d7	0.21527801
250	0xbd0ea5d7	-0.034826126
251	0xbe0439f5	-0.12912734
252	0x3c433354	0.011914093
253	0xbe67c853	-0.22635011
254	0x3e7b5e83	0.24547772
255	0x3ce6618e	0.02812269

conv2.bias f4 [32]
0	0x3b008e49	0.0019616059
1	0x39118c2e	0.00013880499
2	0x3b80aa37	0.003926541
3	0xbc8b4a02	-0.017003063
4	0xbb73fa93	-0.0037228211
5	0xbc907446	-0.017633568
6	0xbc2e8be2	-0.010653468
7	0xbc5cd4de	-0.013478486
8	0xbbc5ccc1	-0.0060363715
9	0xbb6c24a0	-0.0036032572
10	0xbb9b5681	-0.0047405367
11	0xbc526a22	-0.012842687
12	0xbc8e027b	-0.017335167
13	0xbb18cbf1	-0.0023314918
14	0xbc4d9d59	-0.012549722
15	0xbc46956f	-0.012120589
16	0xba012449	-0.00049263664
17	0xbc8ffd9a	-0.017576981
18	0xbbec592f	-0.00721278
19	0xbc22e47e	-0.009942172
20	0xbc466815	-0.012109776
21	0xba909161	-0.0011029654
22	0xbb333ae9	-0.0027348346
23	0xbb3a38a2	-0.0028415103
24	0xbb683a98	-0.0035435315
25	0x3a4acf67	0.0007736594
26	0x3b8af1f0	0.004240267
27	0xbbe2cea8	-0.006921608
28	0xbc2f0d92	-0.010684388
29	0x3bfcb9c7	0.007712576
30	0xbc01208b	-0.007881294
31	0x3be69e74	0.007037932

conv3.weight f4 [32, 32, 3, 3]
0	0x3d9efb2d	0.07762752
1	0x3e15ef36	0.14642033
2	0x3d9b0dc0	0.07570982
3	0x3c2ec63a	0.010667378
4	0xbdc6a49c	-0.096993655
5	0x3b219778	0.0024656933
6	0xbd7ac37d	-0.06122159
7	0x3e52dbf0	0.20591712
8	0x3dfe4ab5	0.12416593
9	0xbe2940d5	-0.16528638
10	0x3cfdb2f7	0.030969126
11	0xbdee5479	-0.11637206
12	0xbef0acf0	-0.4700694
13	0x3d39a94c	0.04532747
14	0x3db8152c	0.08988413
15	0xbea73893	-0.3266035
16	0xbda66402	-0.08124544
17	0x3cc3b8b8	0.023891792
18	0xbea74f26	-0.32677573
19	0x3bb60774	0.0055550877
20	0x3cf1229f	0.029435454
21	0xbe5574ee	-0.20845386
22	0x3e375784	0.17904478
23	0x3daa405f	0.08313059
24	0xbe675248	-0.22589982
25	0x3e47e993	0.19522695
26	0xbe360573	-0.17775516
27	0xbec71156	-0.38880414
28	0x3e46b020	0.19403124
29	0x3c7d3d67	0.015456534
30	0xbd6c4718	-0.057684988
31	0xbc884e7a	-0.016638983
32	0x3d25d9b4	0.04049082
33	0xbe70e9bf	-0.23526667
34	0x3dfb3dca	0.12267645
35	0x3ca3ebdb	0.020009926
36	0x3c177616	0.0092444625
37	0x3e507ac1	0.20359327
38	0xbe8fe04f	-0.2810082
39	0xbea05eff	-0.31322476
40	0x3e20f244	0.15717417
41	0xbea31390	-0.31850863
42	0x3cae423e	0.021271821
43	0x3e561166	0.20905074
44	0xbd80dd27	-0.062921815
45	0x3dde7983	0.1086302
46	0xbe5437bd	-0.20724387
47	0x3c843b2d	0.016141498
48	0xbe689162	-0.22711709
49	0x3dcc2eff	0.09969901
50	0xbd0edc4a	-0.034878053
51	0xbd9db86a	-0.0770119
52	0xbe1373b0	-0.143996
53	0x3d9b6010	0.07586682
54	0x3e02e98e	0.12784407
55	0xbe043a36	-0.1291283
56	0x3e53e1a2	0.20691541
57	0x3d096af3	0.03354926
58	0x3e4ffe8b	0.20311944
59	0x3e559864	0.20858914
60	0x3dcb7f60	0.09936404
61	0xbe83aabc	-0.25716197
62	0x3eb92e23	0.36168012
63	0x3daffc59	0.08593053
64	0xbd9001d6	-0.070316
65	0x392b3ee1	0.00016331255
66	0xbd8a7b4f	-0.067618005
67	0x3e872e28	0.26402402
68	0xbeb56987	-0.35432073
69	0xbe98797d	-0.29780188
70	0x3d1925fa	0.037389733
71	0xbd59a726	-0.05313792
72	0x3c8f3826	0.017482828
73	0xbe4a2b6b	-0.19743125
74	0x3e7d238a	0.24720588
75	0x3cdc35a1	0.026881041
76	0x3dd893e2	0.105750814
77	0x3e54386b	0.20724647
78	0xbde0ece9	-0.10982687
79	0xbcb64eea	-0.022254426
80	0x3e25a334	0.16175538
81	0xbe05651d	-0.13026853
82	0xbd7d4618	-0.061834425
83	0x3d9c7867	0.076401524
84	0x3d85361e	0.06504463
85	0xbeb27d29	-0.34861115
86	0x3d9a2ea3	0.075284265
87	0xbcac9aa2	-0.021069828
88	0xbe0007d1	-0.12502982
89	0x3e91fcee	0.28513283
90	0xbe81afbd	-0.2532939
91	0x3d885f19	0.066587634
92	0x3cea5c2d	0.028608406
93	0x3d51d2fc	0.0512266
94	0x3df8f7b0	0.12156618
95	0x3ea51fe7	0.32250902
96	0xbce12db2	-0.02748761
97	0x3daf8a67	0.0857132
98	0x3c050c9b	0.008120681
99	0xbd98163f	-0.07426118
100	0x3e680ffc	0.22662348
101	0x3b33496f	0.0027357002
102	0xbee5a281	-0.44850543
103	0x3d19c6ca	0.037543096
104	0x3e8b1c42	0.27169997
105	0xbdf569de	-0.11983083
106	0x3de1bfcd	0.11022911
107	0x3e2f40a3	0.171145
108	0x3e998734	0.29985964
109	0xbe370df6	-0.1787642
110	0xbd568621	-0.05237401
111	0x3e2b3f4a	0.16723362
112	0x3d434d23	0.047680985
113	0xbe8513a0	-0.25991535
114	0x3d7ad558	0.061238617
115	0xbe12df23	-0.14342932
116	0x3e57e6af	0.21084093
117	0x3d83d78e	0.06437598
118	0x3e4ab572	0.19795778
119	0xbe12308b	-0.1427633
120	0xbe3bbaec	-0.18333024
121	0xbe96978f	-0.29412505
122	0x3e7ad5ea	0.24495664
123	0xbdfa40b7	-0.122193746
124	0x3e7c0511	0.24611308
125	0x3d1c1e5b	0.038114887
126	0x3e0718c2	0.13193038
127	0xbe1bf871	-0.15231492
128	0x3db7b471	0.08969963
129	0x3d7766b7	0.06040069
130	0x3cb52466	0.022112083
131	0x3d6c6da8	0.057721764
132	0xbe03be1c	-0.1286549
133	0xbe5518ca	-0.20810238
134	0x3d77fe35	0.060545165
135	0xbe3437ed	-0.17599459
136	0xbc22caaf	-0.009936019
137	0xbccd3aa5	-0.025052378
138	0x3e61fe10	0.22069573
139	0xbf276088	-0.6538167
140	0x3eaa2507	0.33231375
141	0xbc9e1158	-0.01929538
142	0x3ceaa192	0.028641496
143	0xbc56ce7d	-0.013110754
144	0xbe4af764	-0.19820935
145	0x3d9886bb	0.07447573
146	0x3d8cd3e1	0.0687635
147	0x3dd22ac3	0.102620624
148	0xbe4c6b8d	-0.19962902
149	0x3df06e08	0.11739737
150	0x3e85cef8	0.26134467
151	0xbdc45533	-0.09586563
152	0xbe79fd4e	-0.24413034
153	0x3ca1eb33	0.019765472
154	0x3d3030b6	0.043015204
155	0x3db5d35c	0.08878204
156	0x3d835e28	0.06414443
157	0x3d94920d	0.072544195
158	0x3e041062	0.12896875
159	0xbe72d65e	-0.23714587
160	0x3d9ada05	0.07561115
161	0xbdc16f74	-0.09445086
162	0x3cbb594e	0.022869732
163	0xbe2ddf57	-0.16979729
164	0xbcb98eb6	-0.022651058
165	0xbdcdc433	-0.10047188
166	0xbd1da314	-0.0384856
167	0x3e364ae7	0.1780201
168	0xbd526f29	-0.05137554
169	0xbe0f35c5	-0.13985355
170	0x3e0a234c	0.13490027
171	0xbde3776b	-0.111067615
172	0xbcf52086	-0.029922735
173	0xbe06be98	-0.13158643
174	0xbe57e086	-0.21081743
175	0x3db15c1f	0.08660149
176	0xbe80fff1	-0.25195268
177	0xbdab1a67	-0.08354645
178	0xbd7291fb	-0.05922125
179	0xbe28cf7e	-0.16485402
180	0xbdf26a52	-0.11836685
181	0x3dc4963a	0.09598966
182	0xbe0a0345	-0.1347781
183	0x3a724b86	0.0009242821
184	0x3e51dbc7	0.20493995
185	0xbd574376	-0.05255457
186	0xbc0d91c1	-0.0086407075
187	0xbe636399	-0.22205962
188	0x3d6d85ce	0.057988934
189	0xbdfe62d9	-0.124211974
190	0x3d49f2a1	0.049303655
191	0xbd292664	-0.041296378
192	0x3ea8c415	0.329621
193	0xbeac48d5	-0.33649316
194	0x3ea8f6f0	0.33000898
195	0x3de538ae	0.111924514
196	0xbda03baf	-0.07823884
197	0xbe7e1b75	-0.24815162
198	0x3dfe617d	0.12420938
199	0xbe53e381	-0.20692255
200	0x3e20cb8d	0.15702648
201	0xbea02279	-0.312763
202	0x3e5d456c	0.21608514
203	0xbe9b4dd6	-0.30332822
204	0xbc4e2c64	-0.012583826
205	0xbc7794bb	-0.015111144
206	0x3e8d3e62	0.27586657
207	0xbe18c0f2	-0.14917353
208	0x3e7e9e12	0.24864987
209	0x3cbeff5b	0.023315122
210	0x3d8498dc	0.06474468
211	0xbda14739	-0.07874913
212	0x3e153f8a	0.1457502
213	0x3d9148f7	0.07093995
214	0xbe3ea925	-0.18619211
215	0x3dec7222	0.115452066
216	0xbda44552	-0.08021034
217	0x3e1383fb	0.14405815
218	0x3d1aaec8	0.03776434
219	0xbe8f6ca0	-0.28012562
220	0x3d8c9674	0.06864634
221	0xbd20183b	-0.039085608
222	0xbe15e81f	-0.14639328
223	0xbe27922b	-0.16364352
224	0x3e850e22	0.25987345
225	0xbe21c668	-0.15798342
226	0x3e7e21c4	0.24817568
227	0xbdecf14f	-0.115694635
228	0x3d173f7b	0.036925774
229	0xbf19130a	-0.59794676
230	0x3ebe82ce	0.3720917
231	0xbe41cd62	-0.18926004
232	0x3e8f1664	0.2794677
233	0xbe3c8cb3	-0.18413047
234	0xbe380618	-0.17971075
235	0x3d940f65	0.07229499
236	0x3e458d63	0.19292216
237	0x3d677223	0.056505334
238	0xbea86d68	-0.3289597
239	0x3de7b9e7	0.11314755
240	0xbd08a4f1	-0.033360425
241	0x3d88beb8	0.06677002
242	0x3d2ca563	0.042149913
243	0xbc37d642	-0.011220517
244	0x3e6827f1	0.22671486
245	0x3c2f924d	0.010716033
246	0x3e698cda	0.22807637
247	0xbe253a62	-0.16135553
248	0x3e12e16a	0.14343801
249	0x3e22345f	0.1584029
250	0x3d02ba9c	0.031916246
251	0x3df0c84d	0.11756954
252	0xbc8911b9	-0.016732084
253	0xbe058726	-0.13039836
254	0x3d95cf27	0.07314902
255	0xbe365089	-0.17804159

conv3.bias f4 [32]
0	0xbd6049cf	-0.05475789
1	0xbcaa2010	-0.020767242
2	0x3c647118	0.013942979
3	0xbc84cfec	-0.016212426
4	0xbc2d573b	-0.010579879
5	0xbc2fa544	-0.010720555
6	0xbcc835dc	-0.024439745
7	0xbcc14f5c	-0.023597412
8	0x3c36774d	0.011136842
9	0xbb04ce4f	-0.002026457
10	0xbc1828f1	-0.009287105
11	0xbc86239a	-0.016374398
12	0x3cc31b52	0.023816738
13	0xbc2d74bd	-0.010586915
14	0xbb9f74b1	-0.0048662056
15	0x3c2c326f	0.010510071
16	0xbd0cc12e	-0.034363918
17	0xbd41b987	-0.047296073
18	0x3c2fb956	0.01072534
19	0xbca3a088	-0.019974008
20	0xbc752fca	-0.014965007
21	0xbd124616	-0.03571137
22	0xbc1cd110	-0.009571329
23	0xbc9a6f2e	-0.018851843
24	0xbd1e982c	-0.03871934
25	0xbd08fe02	-0.033445366
26	0xbc111926	-0.0088560935
27	0xbd1d5d3b	-0.03841899
28	0x3be0d640	0.006861478
29	0xbd1a8a06	-0.037729286
30	0xbd5b6f89	-0.053573165
31	0x3bc9da5c	0.0061600637

conv4.weight f4 [32, 32, 3, 3]
0	0x3d08c4dd	0.03339087
1	0xbcc23c4e	-0.023710396
2	0x3c982f6c	0.0185773
3	0x3d141021	0.036148194
4	0x3e83f640	0.2577381
5	0x3cdbb5ce	0.02682009
6	0x3d3fde8d	0.0468431
7	0x3ea7c940	0.3277073
8	0xbd8b6b04	-0.06807521
9	0xbc1dd9c6	-0.009634441
10	0xbd5eabf7	-0.054363217
11	0x3cc94f98	0.024574086
12	0x3d3b6685	0.045752067
13	0x3d72d830	0.059288204
14	0x3ceb0899	0.028690623
15	0x3e470d26	0.1943861
16	0x3d87b44c	0.06626186
17	0x3dba5f82	0.09100248
18	0xbd885a93	-0.06657901
19	0x3dfe23c2	0.12409164
20	0x3d3965b6	0.045263015
21	0x3d41d445	0.047321577
22	0x3d50be6a	0.050962843
23	0xbc35b3b3	-0.011090207
24	0xbb8f8966	-0.004380393
25	0x3e1f34e3	0.15547518
26	0x3d948254	0.072514206
27	0x3d500e94	0.050795153
28	0xbe068617	-0.13137089
29	0x3dc2b6b8	0.09507507
30	0xbe84e82a	-0.25958377
31	0xbdc05e75	-0.09393016
32	0x3d85db7a	0.065360025
33	0xbd94404e	-0.07238828
34	0xbb04a665	-0.002024078
35	0x3def9bbc	0.11699626
36	0x3d36ea34	0.044656947
37	0x3e3c22f2	0.18372706
38	0x3d74e99a	0.059793092
39	0x3e28b1bb	0.16474049
40	0x3e2945f3	0.1653059
41	0xbe168d31	-0.14702298
42	0x3d65cbc1	0.056102518
43	0x3d81451f	0.06312012
44	0xbe04d9ba	-0.12973681
45	0x3d9b482c	0.07582125
46	0xbd0857ce	-0.033286862
47	0xbdd7cbff	-0.10536956
48	0x3d0febcd	0.035136987
49	0xbca3cdc0	-0.01999557
50	0xbddfef03	-0.1093426
51	0x3d25e597	0.040502157
52	0x3d951cf3	0.07280912
53	0xbd295285	-0.041338462
54	0x3e2aed1b	0.16692011
55	0x3e26fdbb	0.16307728
56	0xbdde6085	-0.108582534
57	0x3d9a3d78	0.075312555
58	0x3ed74c35	0.4205033
59	0x3d1439ef	0.036188062
60	0x3d4a1f7a	0.049346425
61	0x3e960c84	0.29306424
62	0x3dabf1fc	0.08395764
63	0x3dac2e12	0.08407225
64	0x3e5ac994	0.21365958
65	0xbe4575e4	-0.19283253
66	0x3e0f382f	0.13986276
67	0x3ece06fa	0.40239698
68	0xbeb26274	-0.3484074
69	0x3e672798	0.22573698
70	0x3dd3719e	0.10324405
71	0xbd0d69db	-0.03452478
72	0xbc706d0f	-0.014674439
73	0x3df7ce30	0.12099874
74	0xbd058f9b	-0.032607656
75	0xbda0377e	-0.07823084
76	0x3ea83227	0.32850763
77	0x3dcee15e	0.10101579
78	0x3ab6cce2	0.0013946558
79	0x3d9f05c6	0.07764773
80	0x3c7fdc5e	0.0156165045
81	0xbd016d4d	-0.031598378
82	0x3d4446fb	0.047919255
83	0x3ce570d7	0.028007908
84	0x3c5c46ee	0.013444645
85	0x3e33c51e	0.17555663
86	0xbe0475ef	-0.12935613
87	0xbc81f10e	-0.015862014
88	0xbba60592	-0.005066582
89	0xbe3d10a6	-0.18463382
90	0xbdc830a3	-0.09774902
91	0x395fc3e9	0.0002133992
92	0xbd8c3ee3	-0.06847932
93	0x3d86a745	0.06574873
94	0xbdf58cae	-0.11989723
95	0xbe138b16	-0.14408526
96	0x3e677cf1	0.22606255
97	0xbd35108e	-0.04420524
98	0xbe7a3419	-0.24433936
99	0x3c43df8d	0.011955154
100	0xbb4f3325	-0.0031616178
101	0xbd53bd5a	-0.05169425
102	0xbd591194	-0.05299528
103	0xbd80d2b5	-0.06290189
104	0xbd0251ab	-0.031816166
105	0xbd9e31af	-0.0772432
106	0xbe005887	-0.1253377
107	0x3dc87817	0.0978853
108	0xbdb47db9	-0.08813042
109	0xbd55240f	-0.05203634
110	0x3d963dbc	0.07335994
111	0xbe63d1b1	-0.2224796
112	0x3d94d725	0.07267598
113	0x3e0006fc	0.12502664
114	0xbdb3446f	-0.08753287
115	0x3e266a83	0.16251568
116	0x3e09edd4	0.1346963
117	0xbc1d03f4	-0.009583462
118	0x3d3190e3	0.043351065
119	0x3e0115fc	0.12606043
120	0xbd8ef81f	-0.06980919
121	0x3de6722f	0.112522475
122	0x3e0cdc13	0.13755827
123	0x3e10c787	0.14138614
124	0xbdfafaa6	-0.12254839
125	0x3d92a75d	0.07160828
126	0x3c28b28a	0.010296473
127	0xbc5ae01f	-0.013359099
128	0xbe03f8ee	-0.12887928
129	0xbe5db165	-0.21649702
130	0x3ccaae05	0.024741182
131	0xbe4ac65f	-0.19802235
132	0x3d9534a5	0.07285432
133	0x3bcdc56e	0.006279639
134	0xbdbd2c3a	-0.09236951
135	0xbc989333	-0.018624878
136	0x3e2d97af	0.16952394
137	0x3df5a2d5	0.11993948
138	0x3e01238b	0.12611215
139	0x3ea6baed	0.32564488
140	0xbe1f2e22	-0.15544942
141	0x3dfacd16	0.12246148
142	0x3e908d87	0.28232977
143	0xbdcfdd4f	-0.10149633
144	0x3d8e261d	0.06940863
145	0x3da11d25	0.07866887
146	0x3da8713f	0.08224725
147	0x3ce6994c	0.02814927
148	0x3d91a8cc	0.071122736
149	0xbda93cce	-0.08263551
150	0xbce4735a	-0.027887035
151	0x3e85f048	0.26159883
152	0xbe27e764	-0.16396862
153	0xbe3c44a1	-0.18385555
154	0xbd8a27ba	-0.067458585
155	0xbd844ba2	-0.06459738
156	0xbe367103	-0.17816548
157	0xbe09157a	-0.13387099
158	0xbc44c9bf	-0.012010991
159	0xbe0923d8	-0.1339258
160	0xbe034cf8	-0.1282233
161	0x3d42e1de	0.047578685
162	0x3d783462	0.06059683
163	0x3c5979aa	0.013273636
164	0x3d251654	0.040304497
165	0xbb412e7d	-0.0029477172
166	0x3e9cdd6e	0.30637687
167	0xbd9d99ad	-0.07695327
168	0x3b0bc38c	0.0021326272
169	0x3e813118	0.25232768
170	0xbd727bb9	-0.059200022
171	0xbe39e217	-0.18152653
172	0x3d3f847a	0.0467572
173	0x3e562b84	0.20915037
174	0xbe4b547c	-0.19856447
175	0x3cb77cb9	0.02239834
176	0x3d887d58	0.066645324
177	0xbea8f45a	-0.32998925
178	0xbdff5ffa	-0.12469478
179	0xbce48c57	-0.02789895
180	0x3d100d19	0.03516874
181	0x3df01cf3	0.117242716
182	0xbd8918c3	-0.06694176
183	0x3ddf1054	0.10891786
184	0x3df91bc6	0.121635005
185	0xbcdcd9c6	-0.026959311
186	0x3d3b77b3	0.04576845
187	0x3c6b1375	0.014347901
188	0xbd9dbd93	-0.07702174
189	0xbd9398d9	-0.07206888
190	0xbd94b770	-0.072615504
191	0x3d5508a6	0.0520102
192	0xbdbed539	-0.09318013
193	0xbd6613f8	-0.056171387
194	0x3dd2c9f0	0.10292423
195	0x3d58fba5	0.052974362
196	0x3bf0eaf6	0.0073522283
197	0xbe9a8b5d	-0.3018445
198	0xbe078bbd	-0.132369
199	0x3e245791	0.16049029
200	0x3dae880a	0.08522041
201	0x3d5d68f5	0.054055173
202	0x3e2b8212	0.16748837
203	0x3d23ff2a	0.040038265
204	0xbc9c2c17	-0.019063992
205	0xbc705547	-0.014668769
206	0x3d20cdef	0.039258894
207	0x3cc6a9bf	0.024250863
208	0x3d803dfc	0.062618226
209	0xbe2261e3	-0.15857653
210	0xbe181ccc	-0.14854735
211	0x3ea3d03f	0.31994817
212	0x3d8fc0bd	0.07019184
213	0xbdc1a264	-0.09454802
214	0x3e33c9f7	0.17557512
215	0x3c971b3b	0.018445602
216	0xbc9db618	-0.019251868
217	0xbe15ddbc	-0.14635366
218	0xbe246651	-0.16054656
219	0x3d242db2	0.04008264
220	0x3cdaab7a	0.026693095
221	0x3bc0965a	0.0058772983
222	0xbd0fe56f	-0.035130914
223	0x3dfbfe09	0.12304313
224	0x3e878283	0.2646676
225	0xbc80cb7e	-0.015722033
226	0x3d6332d6	0.055468403
227	0x3c32a9ec	0.01090477
228	0x3e08f0f7	0.13373171
229	0x3e0b46c7	0.13601218
230	0x3de01600	0.10941696
231	0x3df3330a	0.11874969
232	0x3e8eae68	0.27867436
233	0x3cdd873f	0.02704203
234	0xbdc20eea	-0.09475501
235	0x3c7e1ff0	0.015510544
236	0x3cc0d641	0.023539664
237	0xbdd61523	-0.1045325
238	0x3e4b9d7f	0.19884299
239	0xbd95f63c	-0.07322356
240	0xbd72ddc0	-0.05929351
241	0x3c4dac49	0.012553283
242	0xbdcdb1d3	-0.10043683
243	0x3de42ccd	0.111413576
244	0x3d44e646	0.04807117
245	0xbd93a016	-0.07208268
246	0x3d9f7f15	0.07787911
247	0x3d8412ef	0.06448924
248	0xbe70b632	-0.23507002
249	0x3e903064	0.2816192
250	0xbd5437ef	-0.051811155
251	0xbe56b375	-0.20966895
252	0x3df0f40a	0.11765297
253	0xbc12a6e0	-0.008950919
254	0x3df16d23	0.11788394
255	0x3e5f9474	0.21833974

conv4.bias f4 [32]
0	0xbb1579e3	-0.0022808246
1	0x3c068030	0.008209273
2	0x3b3d0606	0.0028842702
3	0xbbecae36	-0.007222916
4	0x3d525e04	0.05135919
5	0x3bca8624	0.0061805416
6	0x3dd8f016	0.10592668
7	0xbd85dd0f	-0.06536304
8	0x3c2b6d41	0.01046306
9	0x3d8eef2f	0.069792144
10	0xbd68c783	-0.056830894
11	0xbc832ff5	-0.016014079
12	0x3cd13c2c	0.025541387
13	0x3d4d8bf7	0.05018231
14	0xbcd0077b	-0.025394192
15	0xbd9b4017	-0.075805835
16	0x3e0ccab3	0.13749199
17	0x3e29e94b	0.165929
18	0xbd54aa64	-0.05192031
19	0x3e219165	0.1577812
20	0x3befcb12	0.007317909
21	0xbde0e9c2	-0.10982086
22	0x3d380a41	0.044931654
23	0x3dd1c331	0.10242308
24	0xbd856bdb	-0.065147124
25	0xbddcde69	-0.10784609
26	0xbc87b4ad	-0.016565645
27	0x3d339961	0.043847445
28	0xbdd0f37d	-0.10202692
29	0xbddec813	-0.10878005
30	0x3cfcf850	0.030880123
31	0x3d170ba9	0.036876354

linear.weight f4 [256, 800]
0	0x3dc62d35	0.09676591
1	0xbdbb900a	-0.09158333
2	0x3d8efbbc	0.06981608
3	0x3d8c4e4a	0.0685087
4	0xbe6e4966	-0.23270187
5	0x3d3a91e9	0.045549307
6	0x3dc0c423	0.0941241
7	0x3e2a63bd	0.1663961
8	0x3e3d6ea7	0.18499242
9	0xbd6b2e3a	-0.057417132
10	0x3da622f4	0.081121355
11	0xbcd8f5ee	-0.026484456
12	0x3ddb5a99	0.107106395
13	0x3db5f8c5	0.0888534
14	0xbdf204b0	-0.118173
15	0x3d4e4ab9	0.05036423
16	0xbd6484f9	-0.055790875
17	0x3bafa34f	0.005360044
18	0xbda4cbc9	-0.080466814
19	0xbc3e2662	-0.011605831
20	0x3df7ec10	0.12105572
21	0xbdc32ef7	-0.09530442
22	0xbec138f4	-0.37738764
23	0xbec6f243	-0.38856706
24	0xbd3cedb9	-0.046125147
25	0x3d96060e	0.073253736
26	0xbe083f28	-0.13305342
27	0xbde81802	-0.11332704
28	0x3de24d74	0.11049929
29	0x3e95274c	0.29131544
30	0x3dae37d0	0.08506739
31	0xbca972db	-0.02068465
32	0x3b80216b	0.0039102337
33	0x3d9a211c	0.07525846
34	0x3ecc9ad2	0.3996187
35	0x3df5e33e	0.12006234
36	0xbddd8034	-0.108154684
37	0x3bff2359	0.007786196
38	0x3b8940fc	0.004188655
39	0x3e2daf8a	0.16961494
40	0xbd9e6f84	-0.07736114
41	0xbe06b138	-0.13153541
42	0xbe141aa6	-0.1446329
43	0x3ca93091	0.020653041
44	0xbd6148f3	-0.05500121
45	0x3c065281	0.008198381
46	0xbe064322	-0.13111547
47	0x3dba4942	0.09096004
48	0xbcd7ac86	-0.026327383
49	0xbd6b6082	-0.057465084
50	0xbd73e973	-0.059548806
51	0xbded1629	-0.11576492
52	0xbd1d3fdd	-0.038390983
53	0xbe0c5a5f	-0.13706349
54	0x3e9599e2	0.29218966
55	0x3deb4a1f	0.11488747
56	0x3d8ae374	0.067816645
57	0xbd708cb5	-0.05872794
58	0xbc98920d	-0.01862433
59	0x3e3acce9	0.1824223
60	0xbde5b105	-0.112154044
61	0x3e252173	0.16126041
62	0xbe046221	-0.12928058
63	0xbd8204b5	-0.06348554
64	0x3df50a49	0.11964852
65	0x3d86ae11	0.06576169
66	0x3e589e1d	0.21154065
67	0x3d324450	0.04352218
68	0x3b49a4ea	0.0030768462
69	0x3cbb3694	0.022853173
70	0x3cd1be04	0.025603302
71	0x3e8d7a60	0.27632427
72	0xbe5e15e5	-0.2168804
73	0xbe1fb113	-0.15594892
74	0xbe1514f4	-0.14558774
75	0x3e295f15	0.16540177
76	0xbc03907e	-0.008030055
77	0x3de4e0fa	0.111757234
78	0x3cf7b512	0.030237708
79	0xbe2e1e40	-0.17003727
80	0xbc5c9b59	-0.013464772
81	0x3e507f08	0.20360959
82	0x3baa8d32	0.00520482
83	0x3d7dc202	0.0619526
84	0xbc7796af	-0.015111609
85	0xbde9fb5e	-0.114248976
86	0x3e025319	0.12727012
87	0x3d89d577	0.06730168
88	0x3de0230a	0.10944183
89	0xbd89fbb3	-0.06737461
90	0x3dab3f7c	0.08361718
91	0x3e1ebb73	0.15501194
92	0x3e004c24	0.12529045
93	0x3e1565c1	0.14589597
94	0xbd187bf1	-0.037227575
95	0xbe370885	-0.17874344
96	0x3e304de8	0.17217219
97	0xbcd09e12	-0.025465999
98	0x3d1fbb80	0.038997173
99	0xbe12e7ff	-0.14346312
100	0xbddd7526	-0.1081336
101	0xbdea0932	-0.11427535
102	0xbc867753	-0.01641432
103	0x3cf312c8	0.029672042
104	0xbd8ed359	-0.06973905
105	0x3d87199c	0.065966815
106	0xbd223231	-0.039598648
107	0xbdad4854	-0.08461061
108	0xbdce1879	-0.100632615
109	0x3db67f33	0.0891098
110	0x3d7e72c1	0.062121157
111	0xbbe31513	-0.0069300025
112	0xbc63dc0a	-0.013907442
113	0x3b94262f	0.0045211534
114	0xbd101a37	-0.03518125
115	0xbd9c6ee4	-0.07638338
116	0x3d2bee15	0.0419751
117	0x3da767a8	0.08174068
118	0xbdd378d3	-0.1032578
119	0xbd575662	-0.052572615
120	0x3dec6424	0.11542538
121	0xbe9db72e	-0.30803818
122	0xbdbd1b0d	-0.09233675
123	0xbdfb5c9e	-0.12273525
124	0x3d3d22d2	0.046175785
125	0xbdac83fa	-0.0842361
126	0xbd8bb717	-0.06822031
127	0xbd634816	-0.05548867
128	0xbd3cfc82	-0.046139248
129	0x3c3a6c34	0.011378337
130	0xbc887026	-0.016655039
131	0xbc7234f7	-0.014783136
132	0xbd8ed503	-0.069742225
133	0x3bf27a8a	0.0073998617
134	0x3e96f2f9	0.29482248
135	0xbd45234d	-0.04812937
136	0xbdd0df71	-0.10198868
137	0xbceb9508	-0.028757587
138	0x3beb7bd1	0.007186391
139	0x3ea7c2c9	0.32765797
140	0xbd0c7772	-0.0342936
141	0x3dc0a979	0.09407324
142	0x3d1e916f	0.038712915
143	0xbdac8076	-0.084229395
144	0x3d86124c	0.065464586
145	0x3bbcc6a3	0.005760984
146	0xbd023d40	-0.031796694
147	0xbe657aa7	-0.2241007
148	0xbe5ad518	-0.21370351
149	0x3ddb2564	0.10700491
150	0x3dd85a58	0.10564107
151	0xbdcf7b16	-0.10130899
152	0xbd290b94	-0.041270807
153	0xbd198e64	-0.03748931
154	0x3e2f83e4	0.17140156
155	0x3e5df443	0.2167521
156	0xbe295792	-0.16537312
157	0x3b4a0645	0.003082649
158	0x3c77b3fa	0.015118593
159	0x3c8a3f6c	0.016875945
160	0xbdaf6cce	-0.08565675
161	0x3e123c7c	0.14280885
162	0xbc91c0ee	-0.017792191
163	0xbc885087	-0.01663996
164	0xbdc4ac2f	-0.09603154
165	0xbc25abd3	-0.010111767
166	0x3dfe90d8	0.124299705
167	0xbe01b46b	-0.1266648
168	0xbdbc8251	-0.092045434
169	0xbd595508	-0.053059608
170	0x3d34a9f9	0.04410741
171	0xbe43d5ca	-0.19124523
172	0xbdeeda83	-0.116627716
173	0xbe59248f	-0.21205352
174	0xbe0a50de	-0.13507411
175	0x3d86ea34	0.065876395
176	0xbd14079b	-0.036140066
177	0xbd69c99d	-0.05707704
178	0x3e0d926c	0.13825387
179	0x3df28e31	0.11843527
180	0x3d21388a	0.03936056
181	0x3e13c796	0.14431605
182	0x3db797ea	0.08964522
183	0x3e0712fa	0.13190833
184	0x3d0d9264	0.034563437
185	0xbde2d9fe	-0.11076735
186	0x3e790c5d	0.24321122
187	0x3d616b65	0.05503406
188	0x3dcf134b	0.10111102
189	0x3d71308a	0.05888418
190	0xbdef302e	-0.116791114
191	0x3e709d17	0.23497425
192	0xbd86a5e5	-0.065746106
193	0xbe1956d7	-0.14974533
194	0x3d86401f	0.06555199
195	0xbe1ca810	-0.15298486
196	0x3ebb6a38	0.36604476
197	0xbd143da0	-0.036191583
198	0xbc885c3e	-0.016645547
199	0xbdd9bc02	-0.10631563
200	0xbe32f9d0	-0.17478108
201	0xbbe0ec40	-0.0068641007
202	0x3d72a08e	0.059235148
203	0x3de58454	0.1120688
204	0x3c9591d4	0.018258013
205	0x3d98554b	0.07438143
206	0x3df65dd9	0.12029619
207	0x3dc77012	0.097381726
208	0x3e26b3d5	0.16279538
209	0x3d119c92	0.035549708
210	0x3cc6082d	0.02417382
211	0x3db4e83e	0.08833359
212	0x3dd6d7e7	0.10490399
213	0x3d999e64	0.07500914
214	0x3d213b46	0.03936317
215	0x3d52a5da	0.0514277
216	0xbe3ef783	-0.18649106
217	0xbdce1ee8	-0.10064489
218	0xbd18c484	-0.037296787
219	0x3ca5e655	0.020251432
220	0xbd4859a5	-0.048913617
221	0xbda89fb3	-0.08233585
222	0xbe2cb816	-0.16867098
223	0xbee431de	-0.44569296
224	0x3d6bab6c	0.057536528
225	0xbc632a3a	-0.013865048
226	0x3c939b33	0.01801834
227	0x3c9548db	0.018223217
228	0xbd346d92	-0.044049807
229	0x3df2eead	0.1186193
230	0xbe1895c6	-0.14900884
231	0x3c93df9a	0.018050957
232	0xbc90a06d	-0.017654622
233	0xbc4d7a00	-0.012541294
234	0xbc814b4b	-0.015782973
235	0xbd6e3a60	-0.05816114
236	0xbd254c78	-0.04035613
237	0xbc9f2169	-0.01942511
238	0xbc0ee27d	-0.008720991
239	0xbda34314	-0.079717785
240	0x3cbec436	0.02328692
241	0xbd412deb	-0.04716293
242	0xbe8e76d6	-0.2782504
243	0x3d7c349b	0.061573606
244	0x3e1b493c	0.15164655
245	0x3dd9abf1	0.10628498
246	0xbe19c679	-0.15017118
247	0x3d9f63b9	0.077826925
248	0xbcb6b903	-0.022305017
249	0xbdeb8033	-0.114990614
250	0x3d4de97e	0.050271504
251	0x3d5569fe	0.052103035
252	0xbb3d285d	-0.002886317
253	0x3d910738	0.07081455
254	0xbe536062	-0.20642236
255	0xbe7bea7b	-0.24601166

linear.bias f4 [256]
0	0xbe38414a	-0.17993656
1	0xbdfc8b32	-0.12331237
2	0xbd82b6e2	-0.063825384
3	0xbd60cb6a	-0.05488149
4	0xbd6307b1	-0.055427257
5	0xbd1494a3	-0.036274564
6	0xbdb40cbb	-0.08791491
7	0xbdb510bf	-0.08841085
8	0xbdd3a7e5	-0.10334758
9	0xbc31c969	-0.010851243
10	0x3cf6fdea	0.030150373
11	0xbd6f41cd	-0.058412362
12	0xbda2696f	-0.07930266
13	0xbd44cd8e	-0.048047595
14	0xbd222a66	-0.039591216
15	0xbd1ab045	-0.03776576
16	0xbe4ddf15	-0.2010463
17	0xbe3ad236	-0.18244252
18	0xbde08dee	-0.10964571
19	0xbdbb0098	-0.091309726
20	0xbdae3902	-0.08506967
21	0xbd1aa04c	-0.037750527
22	0xbd8fe683	-0.070263885
23	0xbe3f1e48	-0.18663895
24	0xbe5e03f8	-0.21681201
25	0xbe867f0f	-0.26268813
26	0xbda8f957	-0.08250683
27	0xbd3c46be	-0.045965903
28	0xbd948b6a	-0.072531536
29	0xbd8f71db	-0.07004138
30	0xbbf5a5c2	-0.0074965665
31	0xbd5ad5f9	-0.053426716
32	0xbde26298	-0.110539615
33	0xbdbc4992	-0.0919372
34	0xbe6ff991	-0.23435046
35	0xbde40c38	-0.11135143
36	0xbd64e51a	-0.05588255
37	0xbd7b0e59	-0.06129298
38	0xbe639bc5	-0.2222739
39	0xbddad02a	-0.106842354
40	0xbe461534	-0.19344026
41	0xbe196d26	-0.14983043
42	0xbd3f7dd5	-0.046750862
43	0xbc2b562b	-0.010457556
44	0xbe301093	-0.17193823
45	0xbd837762	-0.06419255
46	0xbe1dee5d	-0.1542296
47	0xbd7428cb	-0.059609216
48	0xbdcc5f35	-0.09979097
49	0xbd2a2d54	-0.041547135
50	0xbe359b75	-0.17735083
51	0xbd046288	-0.03232053
52	0xbd334f32	-0.0437767
53	0xbdcd2295	-0.100163616
54	0xbd91166c	-0.07084355
55	0xbd8ebe7a	-0.06969924
56	0xbe3c2bdc	-0.18376106
57	0xbcb11ff1	-0.021621676
58	0xbd4ac226	-0.04950156
59	0xbdb4d661	-0.08829952
60	0xbd21a9bc	-0.039468512
61	0xbd385ced	-0.045010496
62	0xbd8cfeed	-0.06884561
63	0xbcf8aca2	-0.030355755
64	0xbe407c21	-0.18797351
65	0xbdbc08ae	-0.09181343
66	0xbd5ec4b7	-0.05438682
67	0xbdaf4a95	-0.08559147
68	0xbbbb1966	-0.005709815
69	0xbda371b0	-0.079806685
70	0xbd8b0a24	-0.067890435
71	0xbe2965ff	-0.16542815
72	0xbd8d8801	-0.06910706
73	0xbd502341	-0.05081487
74	0xbd872a0c	-0.06599817
75	0xbbdcbc47	-0.0067363116
76	0xbda96ecc	-0.08273086
77	0xbc8356e2	-0.01603264
78	0xbe512b31	-0.20426632
79	0xbc17aa9e	-0.009256987
80	0xbd88872c	-0.06666407
81	0xbd4db87c	-0.050224766
82	0xbd70ae86	-0.05876019
83	0xbd660a56	-0.0561622
84	0xbd822c55	-0.06356112
85	0xbd8f1987	-0.06987291
86	0xbd9c084e	-0.076187715
87	0xbda97acc	-0.08275375
88	0xbdc662cf	-0.09686815
89	0xbd6b90c0	-0.05751109
90	0xbd3427d3	-0.04398329
91	0xbe2991bc	-0.165595
92	0xbddb07fb	-0.106948815
93	0xbd7ac601	-0.061223987
94	0xbdca4aa0	-0.09877515
95	0xbc76102d	-0.015018505
96	0xbe3130fc	-0.17303842
97	0xbd043ae0	-0.03228271
98	0xbd68979a	-0.056785204
99	0xbda3ad22	-0.07992007
100	0xbd8e6534	-0.06952897
101	0xbd829215	-0.06375519
102	0xbd9ad394	-0.075598866
103	0xbe34b7ed	-0.17648287
104	0xbea5ba92	-0.32368904
105	0xbdce09e8	-0.10060483
106	0xbdaeba43	-0.0853162
107	0xbd436f45	-0.047713537
108	0xbd3adde7	-0.04562178
109	0xbdba5fbb	-0.091002904
110	0xbe621fb1	-0.22082402
111	0xbd912f89	-0.07089145
112	0xbd416a59	-0.04722056
113	0x3ba7ed08	0.005124692
114	0xbd32543f	-0.043537375
115	0xbe015fb2	-0.12634161
116	0xbd70a482	-0.058750637
117	0xbd4a6fd6	-0.04942306
118	0xbda03ca1	-0.07824064
119	0xbccecfcb	-0.025245568
120	0xbe4d366e	-0.20040295
121	0xbd6265bd	-0.055272806
122	0xbd7f1a3d	-0.062280882
123	0xbd3e9fec	-0.046539232
124	0xbcca8b65	-0.024724672
125	0xbd71917d	-0.05897664
126	0xbe90fada	-0.28316385
127	0xbe386ee5	-0.18011053
128	0xbcd03637	-0.025416477
129	0xbd6f0b86	-0.0583606
130	0xbd91d543	-0.071207546
131	0xbd6e89d7	-0.058236923
132	0xbb64fd0d	-0.003494087
133	0xbd1376fa	-0.036002137
134	0xbd2a8d71	-0.041638795
135	0xbe0eecd6	-0.13957533
136	0xbd276805	-0.040870685
137	0xbe1c8dd9	-0.15288486
138	0xbe239645	-0.15975292
139	0xbd3cb49f	-0.04607069
140	0xbe1720dd	-0.1475863
141	0xbe707388	-0.23481572
142	0xbd014c45	-0.031566877
143	0xbca0d56a	-0.019633014
144	0xbe0e1560	-0.13875341
145	0xbd6aba12	-0.057306357
146	0xbd8ee365	-0.06976966
147	0xbdf471dd	-0.1193578
148	0xbd93aac5	-0.07210306
149	0xbdac89df	-0.08424734
150	0xbd82c4ea	-0.063852146
151	0xbe4ef0de	-0.20209071
152	0xbe496249	-0.19666399
153	0xbe262afb	-0.16227333
154	0xbd77a43b	-0.060459357
155	0xbd25c99a	-0.040475465
156	0xbd7aef19	-0.061263178
157	0xbd4ae0fa	-0.04953096
158	0xbd1ca51d	-0.0382434
159	0xbcdc166c	-0.02686616
160	0xbd649fad	-0.05581634
161	0xbe46b4e4	-0.19404942
162	0xbda00f2e	-0.07815395
163	0xbda09d45	-0.07842497
164	0xbda875e3	-0.0822561
165	0xbd5ae5c9	-0.053441796
166	0xbda2fedf	-0.07958769
167	0xbcb11b12	-0.021619353
168	0xbc7cc83e	-0.015428601
169	0xbdbd2a83	-0.09236624
170	0xbdabf76e	-0.08396803
171	0xbe1367e7	-0.14395104
172	0x3c2ad4a9	0.010426679
173	0xbe484059	-0.19555797
174	0xbdd004be	-0.101571545
175	0xbd1303b6	-0.03589221
176	0xbc55369b	-0.013013507
177	0xbe3a9bbb	-0.18223469
178	0xbddcb79a	-0.10777207
179	0xbd28f913	-0.04125316
180	0xbe17cca3	-0.14824156
181	0xbe6d5723	-0.23177771
182	0xbc822785	-0.015887985
183	0xbd93b213	-0.07211699
184	0xbd4199c3	-0.04726578
185	0xbd926ffe	-0.07150267
186	0xbc5bb609	-0.0134101
187	0xbdc1b460	-0.09458232
188	0xbd515f8d	-0.051116515
189	0xbd6fae52	-0.058515854
190	0xbe6eb872	-0.23312548
191	0xbd8da831	-0.069168456
192	0xbd7adc4b	-0.061245244
193	0xbe6ad3d9	-0.22932376
194	0xbcc9d00c	-0.024635337
195	0xbce70f69	-0.02820559
196	0xbd486033	-0.048919868
197	0xbd2b7c5b	-0.04186664
198	0xbda4e9da	-0.08052416
199	0xbd50484a	-0.05085019
200	0xbd1fafad	-0.038985897
201	0xbd3ceb21	-0.046122674
202	0xbcd7d906	-0.026348602
203	0xbd99150b	-0.07474717
204	0xbe0ed520	-0.13948488
205	0xbd4bf565	-0.049794573
206	0xbe5cdfe7	-0.21569787
207	0xbd50f21e	-0.05101215
208	0xbd50b620	-0.050954938
209	0xbe0bdfb9	-0.13659562
210	0xbe2f4d87	-0.17119418
211	0xbea17288	-0.31532693
212	0xbd7a1fe5	-0.061065573
213	0xbd9d4d20	-0.07680726
214	0xbde8996d	-0.11357389
215	0xbe1676a4	-0.14693695
216	0xbd232d1a	-0.039837934
217	0xbd893e89	-0.06701381
218	0xbd75fc55	-0.060055096
219	0xbd30a4ef	-0.043126043
220	0xbd354010	-0.044250548
221	0xbd9abd6a	-0.07555659
222	0xbe2d68d9	-0.16934527
223	0xbde5909b	-0.11209222
224	0xbd16a3c9	-0.03677729
225	0xbc8a9d3a	-0.016920675
226	0xbd0dfa22	-0.034662373
227	0xbd717002	-0.05894471
228	0xbcf389b1	-0.029728742
229	0xbc2e96d7	-0.01065608
230	0xbd7ef307	-0.062243488
231	0xbd76c0fe	-0.060242645
232	0xbb4868ca	-0.0030580037
233	0xbd318656	-0.043341003
234	0xbdb953c4	-0.0904918
235	0xbd8e7d74	-0.06957522
236	0xbd2ead5b	-0.042645793
237	0xbe090070	-0.13379073
238	0xbd222ac8	-0.03959158
239	0xbde2d54c	-0.110758394
240	0xbd6583fd	-0.056034077
241	0x3ca162f9	0.019700514
242	0xbc8c3f39	-0.01711999
243	0xbdede07e	-0.11615084
244	0xbceb8e88	-0.028754488
245	0xbdaa16b5	-0.08305112
246	0xbd5a283a	-0.05326102
247	0xbd826f91	-0.06368936
248	0xbd63f782	-0.055655964
249	0xbd97aace	-0.07405625
250	0xbcc68ee8	-0.024238065
251	0xbe3e2af6	-0.18571076
252	0xbd6d9a53	-0.058008503
253	0xbe0ed101	-0.13946916
254	0xbd91a9aa	-0.07112439
255	0xbdefc3cd	-0.11707268
