A3C-new/A3C-Lunar-new/runs/LunarLander-v2/2022-11-11_23-34_First80MSteps/model_sam_BreakoutDeterministic-v4_conv.4.tar (torch, 42561 bytes, 11 tensors)

actor_fc1.weight f4 [64, 8]
0.081644095 0.017206764 0.06603891 0.34159932 -0.23037964 -0.050148338 0.0004904545 0.11482028
-0.19739595 0.21154869 0.15768847 -0.029842306 -0.24247172 -0.14375232 -0.13281749 -0.1574639
0.05337174 -0.027102698 0.026572693 0.291832 0.5543278 0.101457834 0.120632246 0.049031712
-0.08103929 0.004751286 0.04563394 0.5335527 -0.10974171 -0.026588079 0.11278412 0.16622876
-0.11477861 -0.10934409 -0.30878356 0.238505 0.27569494 0.33581895 -0.30108264 0.09191196
-0.19917098 0.1396219 -0.30660906 -0.15067814 0.41866532 0.07654791 -0.022102512 -0.27229983
-0.114887096 -0.32490647 0.009365507 0.21489993 0.21580341 0.0066043944 -0.08689184 0.08810043
-0.1814945 -0.12760746 0.3225971 -0.055849183 -0.28121302 0.0388045 -0.10003125 -0.096409865
0.025269499 -0.053666014 -0.3700008 -0.0009266624 0.65612584 0.20038784 0.08176307 -0.102064334
0.06317473 -0.24672045 -0.13587767 -0.4123504 0.40096086 0.00086710055 0.14201584 0.03901936
-0.013478554 0.0275262 -0.10716213 -0.030764785 0.48633522 0.39452547 -0.11380612 0.08125395
-0.023740545 -0.17315474 -0.024529116 -0.4424499 -0.16248623 -0.107561655 -0.118116684 -0.0012613942
-0.07980702 0.23709054 0.34948456 -0.33362764 -0.13812679 -0.19028513 0.008009727 -0.11669262
0.18810534 -0.021359809 0.15023988 0.28470436 -0.29878595 -0.39051053 -0.008130561 -0.016739255
-0.19665241 0.13316008 -0.4257878 0.41717142 0.2242465 0.12097451 0.12932532 -0.073795766
-0.12752913 0.003696966 -0.17170374 -0.37009707 0.39695925 0.19546023 0.20848338 0.028877372
-0.080908485 0.1874455 -0.029694974 0.4622029 0.074621186 0.086848944 0.20202939 0.22759825
-0.21982834 0.0051659704 0.22004953 0.5962525 -0.30844897 -0.19438933 -0.120329246 0.090264104
0.114988 0.005602078 0.11576161 0.1320467 -0.36548027 0.18584412 -0.2532886 -0.17899951
0.33247754 0.079124406 0.17416292 -0.21899655 -0.16771872 -0.15133283 -0.11109952 0.057355057
-0.11963062 0.16221163 0.007367552 0.35628253 -0.19663116 0.033647988 0.009865341 0.21329603
-0.043927394 -0.10916786 0.29346755 0.319732 -0.3734208 0.12302049 0.100044355 -0.019009482
0.08971637 0.12244957 0.18008006 -0.13892618 -0.038729027 -0.059312068 -0.20079862 -0.08369874
-0.22374023 0.12408639 -0.04858196 0.37533265 -0.12239134 0.0937757 0.024320764 0.059296247
-0.13673294 0.03368074 -0.09523119 -0.24540128 0.3304149 0.07436407 0.034578137 -0.028074024
0.18522574 -0.052700743 -0.10911441 -0.45178282 -0.01728935 0.010422433 -0.19128801 0.16613406
0.2843082 -0.0019453788 0.13412137 0.5199564 -0.01926291 -0.0046568597 0.084711805 0.15514958
0.10632301 0.033168614 -0.24047917 -0.27807695 0.30695793 0.06063241 0.033272896 -0.1662826
0.07990338 0.07571135 -0.057673313 0.43686047 0.2869259 0.02757934 -0.0738973 0.15097728
-0.092456274 0.010527847 -0.12921609 0.45220643 0.38550386 0.26552266 -0.051442627 0.002433605
-0.1308599 -0.01856685 0.27071238 -0.2424506 -0.45375952 -0.044698443 0.019987952 0.070292875
0.0052246717 -0.065292 0.08631803 0.16420215 -0.4953215 -0.044255134 -0.085137345 -0.12352533
00000000: 0535 a73d 33f5 8c3c 683f 873d 1be6 ae3e
00000010: a4e8 6bbe 5868 4dbd d891 003a e526 eb3d
00000020: 2a22 4abe 38a0 583e 1679 213e da77 f4bc
00000030: 824a 78be cf33 13be 4f01 08be 373e 21be
00000040: 539c 5a3d 7a06 debc faae d93c 016b 953e
00000050: 6de8 0d3f 20c9 cf3d 0a0e f73d 7ad5 483d
00000060: edf7 a5bd adb0 9b3b a7ea 3a3d e996 083f
00000070: 43c0 e0bd 3ecf d9bc 5cfb e63d df37 2a3e
00000080: 0c11 ebbd cbef dfbd e118 9ebe a83a 743e
00000090: e327 8d3e 76f0 ab3e 8127 9abe 563c bc3d
000000a0: 7af3 4bbe 0bf9 0e3e ddfb 9cbe 5f4b 1abe
000000b0: 4d5b d63e 27c5 9c3d 5410 b5bc e26a 8bbe
000000c0: ed49 ebbd 245a a6be c971 193c ba0e 5c3e
000000d0: 92fb 5c3e ad69 d83b 59f4 b1bd 006e b43d
000000e0: b2d9 39be 88ab 02be 722b a53e 1dc2 64bd
000000f0: 27fb 8fbe 78f1 1e3d 2fdd ccbd 8972 c5bd
00000100: fb01 cf3c e5d0 5bbd bf70 bdbe 43eb 72ba
00000110: ddf7 273f 7832 4d3e 6573 a73d 1b07 d1bd
00000120: c161 813d 49a4 7cbe 8423 0bbe 971f d3be
00000130: be4a cd3e 224e 633a 9a6c 113e c4d2 1f3d
00000140: 27d5 5cbc a07e e13c d277 dbbd 6e06 fcbc
00000150: ee00 f93e 3eff c93e 2f13 e9bd 7968 a63d
00000160: 887b c2bc 7a4f 31be 49f1 c8bc cb88 e2be
00000170: ca62 26be 4949 dcbd 29e7 f1bd 5e55 a5ba
00000180: dd71 a3bd ddc7 723e a4ef b23e 3ed1 aabe
00000190: 1c71 0dbe 1bda 42be 3b3b 033c 8afc eebd
000001a0: b09e 403e c4fa aebc 7cd8 193e c5c4 913e
000001b0: 79fa 98be fff0 c7be 0b36 05bc c320 89bc
000001c0: 405f 49be 1e5b 083e dc00 dabe 7e97 d53e
000001d0: e0a0 653e 7cc1 f73d db6d 043e 3c22 97bd
000001e0: ff96 02be cc48 723b 1bd3 2fbe 5d7d bdbe
000001f0: 3e3e cb3e ba26 483e ab7c 553e 3d90 ec3c
00000200: 59b3 a5bd b7f1 3f3e e042 f3bc dca5 ec3e
00000210: fed2 983d dcdd b13d cbe0 4e3e 840f 693e
00000220: ae1a 61be 4d47 a93b aa54 613e 01a4 183f
00000230: 06ed 9dbe ff0d 47be 2e6f f6bd 63dc b83d
00000240: d47e eb3d a391 b73b 6c14 ed3d 4037 073e
00000250: 3b20 bbbe ec4d 3e3e 0baf 81be a64b 37be
00000260: 7f3a aa3e fa0b a23d c457 323e a240 60be
00000270: 75be 2bbe fef6 1abe 2588 e3bd 23ed 6a3d
00000280: e600 f5bd ce1a 263e 816b f13b aa6a b63e
00000290: ae59 49be 79d2 093d 3da2 213c 466a 5a3e
000002a0: 36ed 33bd 6693 dfbd 6141 963e eab3 a33e
000002b0: 0331 bfbe 2bf2 fb3d 0ee4 cc3d c6b9 9bbc
000002c0: 37bd b73d d7c6 fa3d e866 383e aa42 0ebe
000002d0: 54a2 1ebd 36f1 72bd 279e 4dbe 3f6a abbd
000002e0: 291c 65be 0121 fe3d e1fd 46bd 9a2b c03e
000002f0: 50a8 fabd 790d c03d 573c c73c 9fe0 723d
00000300: b803 0cbe d1f4 093d 9208 c3bd 794a 7bbe
00000310: 242c a93e 314c 983d cea1 0d3d 7ffb e5bc
00000320: d1ab 3d3e bcdc 57bd 6077 dfbd 1450 e7be
00000330: 65a2 8dbc dac2 2a3c 01e1 43be 0c1f 2a3e
00000340: d890 913e 15fc feba 1d57 093e dd1b 053f
00000350: 40cd 9dbc 9298 98bb 627d ad3d 88df 1e3e
00000360: e1bf d93d d0db 073d 2c40 76be 1a60 8ebe
00000370: 9729 9d3e b159 783d 2949 083d fc45 2abe
00000380: 62a4 a33d 8d0e 9b3d da3a 6cbd 2dac df3e
00000390: f4e7 923e 11ee e13c 7857 97bd ca99 1a3e
000003a0: b759 bdbd fe7c 2c3c 3951 04be 9a87 e73e
000003b0: c360 c53e 96f2 873e 81b5 52bd 1e7d 1f3b
000003c0: 2300 06be 8219 98bc d09a 8a3e f844 78be
000003d0: 2b53 e8be b715 37bd c6bd a33c b6f5 8f3d
000003e0: b933 ab3b d0b7 85bd 82c7 b03d 9c24 283e
000003f0: c89a fdbe df44 35bd 7d5c aebd d9fa fcbd

actor_fc1.bias f4 [64]
0.056590814 0.011216289 0.030620469 0.062269676 0.019606952 -0.0239525 0.02376075 -0.009401027
-0.02461781 -0.048320178 -0.023516363 -0.05318998 -0.025694935 0.040690996 0.020727921 -0.050849766
0.043113537 0.06801371 0.028394423 -0.026194965 0.041976716 0.049483985 -0.026782056 0.059254643
-0.04359671 -0.05762067 0.07183903 -0.041223567 0.038135245 0.040396918 -0.0011293016 0.03286252
0.036558222 0.03145664 -0.049222663 -0.019496124 -0.055595133 0.048728902 -0.044186592 0.07690562
-0.021829981 0.03525428 0.06245623 -0.044339184 -0.03443076 0.009178872 -0.03568276 0.034350593
0.0473822 -0.06682471 -0.034984346 -0.01827091 0.051112097 0.095410846 -0.027326994 -0.049673907
0.04804486 -0.01816571 0.03576884 0.045161813 0.027265513 -0.034815095 0.011192099 -0.047257926
00000000: c5cb 673d 87c4 373c c7d7 fa3c 7d0e 7f3d
00000010: c29e a03c 0938 c4bc e8a5 c23c c406 1abc
00000020: 4aab c9bc 61eb 45bd 63a5 c0bc bddd 59bd
00000030: 2f7e d2bc 9aab 263d 9acd a93c d847 50bd
00000040: d297 303d c64a 8b3d 6c9b e83c d396 d6bc
00000050: c7ef 2b3d b8af 4a3d 0b66 dbbc ffb4 723d
00000060: 7792 32bd a703 6cbd 5720 933d 0bda 28bd
00000070: b433 1c3d 3d77 253d 1305 94ba da9a 063d
00000080: 13be 153d aed8 003d b49d 49bd 56b6 9fbc
00000090: b9b7 63bd f597 473d 00fd 34bd b280 9d3d
000000a0: cad4 b2bc cb66 103d 1bd2 7f3d 019d 35bd
000000b0: 4507 0dbd fb62 163c 1628 12bd 35b3 0c3d
000000c0: d613 423d 65db 88bd bf4b 0fbd e0ac 95bc
000000d0: eb5a 513d c366 c33d dcdc dfbc de76 4bbd
000000e0: b0ca 443d 41d0 94bc 5982 123d 98fb 383d
000000f0: ed5b df3c 469a 0ebd 115f 373c 8791 41bd

actor_fc2.weight f4 [64, 64]
-0.13958202 -0.043792173 -0.059266225 -0.18863875 0.031062933 0.006216209 0.35331544 0.13511097
0.14044033 0.16586994 0.008638171 0.27331844 -0.017589618 -0.13380231 -0.16686969 0.24223873
-0.47917396 -0.32860166 -0.23895805 0.16971047 -0.41368613 -0.011528746 0.1422594 -0.28333083
-0.13537404 0.1569523 -0.22419938 0.007056397 -0.5161001 -0.16742869 0.061196424 -0.10333838
-0.22734618 0.028325778 0.52964485 0.17457825 0.38113496 -0.30054203 0.0032904197 -0.29308495
-0.103559226 -0.16228959 -0.122831464 0.2745412 0.036948863 -0.15750083 0.090877995 -0.16922666
-0.2883909 -0.07508083 0.22343071 -0.068470605 -0.3729691 -0.36461443 0.03375221 -0.18334825
-0.16463408 0.039276123 -0.16732264 -0.2125865 0.004056154 -0.008157013 -0.0898295 0.13765329
-0.34900755 -0.3034439 0.013237362 -0.088350706 -0.059755813 0.11234487 -0.052703522 0.15551788
0.20830794 0.5092525 -0.08898936 0.12375383 0.17821296 -0.20426285 0.08224983 0.41679442
-0.0141363 -0.30611688 -0.103788994 0.043370448 -0.41561362 -0.2620327 0.16393036 -0.26639116
0.38081092 -0.061364155 0.005032511 0.31029534 0.1643899 0.040865324 -0.14257431 -0.2248301
-0.25684446 0.28525552 0.39671862 0.33108518 0.5144697 -0.5317082 0.10960731 0.004244748
-0.053578056 0.0778033 -0.04249888 -0.05360844 -0.1443542 -0.098424256 0.07031726 -0.2743463
-0.23929122 0.27665997 0.11030841 0.19795083 -0.17251556 -0.28287193 -0.2096811 0.0789185
-0.02368091 0.18496878 -0.0013692414 -0.15500171 0.27450168 0.15926039 0.11365235 0.32266673
0.22762997 0.0760033 0.3022339 0.18557712 -0.025015354 0.059109084 -0.008196833 -0.06730101
-0.223439 -0.38100535 0.16303368 -0.21945094 -0.17650521 0.0789008 0.19576475 -0.18148196
0.45065153 0.15411814 -0.26640218 0.13233604 0.33418125 0.38491833 -0.02173144 0.212643
0.1661901 -0.2655957 0.17063391 0.053170506 0.37526157 0.4440551 -0.12834446 -0.2812684
0.13149434 0.28432682 -0.5022472 -0.11559409 -0.25373816 0.2540268 -0.28555337 0.014241766
0.0045875036 0.0478528 0.26429754 -0.1717593 -0.03564233 -0.12439719 -0.3036256 0.07456444
0.10017961 -0.23597763 -0.20348671 0.0891096 0.49649042 0.20114747 -0.13655041 -0.10685079
0.20341448 0.01480025 0.5841379 0.19468844 0.11157369 -0.30235952 0.09370148 -0.26447716
0.029358404 -0.11000328 0.069603376 -0.117438816 0.19486986 0.340517 -0.031818178 0.1632859
0.28551883 0.29603276 0.13839912 0.29660955 -0.04731038 -0.0637631 0.10961028 0.31556177
-0.14102626 -0.4656565 -0.20953238 -0.08398805 -0.36780876 -0.07579875 -0.010772212 -0.14099894
0.09146348 -0.0013894371 0.069121495 -0.052156713 0.053495657 0.12251309 0.06346344 -0.13101253
0.024924021 -0.008479556 0.122569956 0.3628966 0.56948614 -0.30753195 0.24584852 -0.076761894
0.33278763 0.05838529 0.34325317 0.11182519 -0.06965396 -0.033362824 0.011523096 -0.23596466
-0.014894453 0.24022946 0.2632491 0.2277217 -0.21520114 -0.148888 -0.07772331 0.015441363
-0.27577174 0.19184124 0.10011516 -0.13023317 0.09461184 0.29403216 -0.055205014 0.6207426
00000000: 97ee 0ebe 6c5f 33bd 24c1 72bd 842a 41be
00000010: b177 fe3c 57b1 cb3b c3e5 b43e 885a 0a3e
00000020: 97cf 0f3e cfd9 293e 1d87 0d3c 65f0 8b3e
00000030: 1a18 90bc 7903 09be e3df 2abe 6e0d 783e
00000040: 4a56 f5be 7a3e a8be 6bb1 74be 95c8 2d3e
00000050: abce d3be 11e3 3cbc 73ac 113e bd10 91be
00000060: 7e9f 0abe 1bb8 203e 8694 65be 5939 e73b
00000070: 231f 04bf 6d72 2bbe 1aa9 7a3d 13a3 d3bd
00000080: 70cd 68be 760b e83c ce96 073f a4c4 323e
00000090: 1f24 c33e a5e0 99be 15a4 573b 3b0f 96be
000000a0: dc16 d4bd 3e2f 26be 108f fbbd aa90 8c3e
000000b0: b157 173d e647 21be 3e1e ba3d c149 2dbe
000000c0: f9a7 93be fac3 99bd 05cb 643e 513a 8cbd
000000d0: cef5 bebe beae babe c23f 0a3d a5bf 3bbe
000000e0: d695 28be 00e0 203d a056 2bbe 47b0 59be
000000f0: 7ce9 843b fea4 05bc 87f8 b7bd fcf4 0c3e
00000100: 1eb1 b2be 005d 9bbe 85e1 583c 37f1 b4bd
00000110: 83c2 74bd 1115 e63d a6df 57bd 1440 1f3e
00000120: ad4e 553e 5f5e 023f 0e40 b6bd a672 fd3d
00000130: 757d 363e 482a 51be 9972 a83d 1466 d53e
00000140: f19b 67bc 5abb 9cbe 538f d4bd 36a5 313d
00000150: 4fcb d4be 2629 86be 5cdd 273e 6c64 88be
00000160: a6f9 c23e fb58 7bbd c3e7 a43b 08df 9e3e
00000170: d355 283e 6662 273d 00ff 11be dd39 66be
00000180: 1e81 83be 030d 923e b41e cb3e ff83 a93e
00000190: 49b4 033f 071e 08bf cc79 e03d 8717 8b3b
000001a0: aa74 5bbd 5657 9f3d 4e13 2ebd 8694 5bbd
000001b0: 96d1 13be a892 c9bd 7f02 903d 1e77 8cbe
000001c0: c208 75be 60a6 8d3e 60e9 e13d 9fb3 4a3e
000001d0: eba7 30be 97d4 90be a4b6 56be 06a0 a13d
000001e0: 78fe c1bc 7568 3d3e 1e78 b3ba c5b8 1ebe
000001f0: 7c8b 8c3e 2815 233e 90c2 e83d 9334 a53e
00000200: d517 693e 9ea7 9b3d 67be 9a3e ee07 3e3e
00000210: 00ed ccbc 5e1c 723d 024c 06bc 1dd5 89bd
00000220: 31cd 64be 2213 c3be 4df2 263e bfb7 60be
00000230: c8bd 34be be96 a13d 8e76 483e 68d6 39be
00000240: ccbb e63e 25d1 1d3e de65 88be 1983 073e
00000250: ce19 ab3e 0414 c53e 2206 b2bc 16bf 593e
00000260: bd2d 2a3e 29fc 87be a8ba 2e3e 51c9 593d
00000270: 4922 c03e 315b e33e bb6c 03be 6902 90be
00000280: 74a6 063e 4993 913e 4693 00bf 98bc ecbd
00000290: f8e9 81be cd0f 823e 0d34 92be 4c56 693c
000002a0: c552 963b 4c01 443d 0252 873e ace1 2fbe
000002b0: b1fd 11bd f4c3 febd d174 9bbe 3eb5 983d
000002c0: f82a cd3d 1fa4 71be d25e 50be 187f b63d
000002d0: fe33 fe3e 9af9 4d3e dfd3 0bbe 96d4 dabd
000002e0: e34b 503e bf7c 723c 108a 153f 685c 473e
000002f0: bf80 e43d dece 9abe 90e6 bf3d 8d69 87be
00000300: 0981 f03c 6649 e1bd 378c 8e3d c383 f0bd
00000310: f78b 473e 3f58 ae3e c753 02bd 6b34 273e
00000320: 862f 923e 9b91 973e 80b8 0d3e 35dd 973e
00000330: 87c8 41bd 3a96 82bd 5b7b e03d 5091 a13e
00000340: 3069 10be 876a eebe a88f 56be ed01 acbd
00000350: 6e51 bcbe 603c 9bbd ef7d 30bc 0762 10be
00000360: 3451 bb3d c61d b6ba 928f 8d3d 47a2 55bd
00000370: 431e 5b3d 25e8 fa3d 1ff9 813d 2628 06be
00000380: 762d cc3c d6ed 0abc f505 fb3d 95cd b93e
00000390: d8c9 113f d474 9dbe b7bf 7b3e 5735 9dbd
000003a0: 2463 aa3e 6a25 6f3d e1be af3e 9b04 e53d
000003b0: bca6 8ebd 75a7 08bd 5ecb 3c3c b8a0 71be
000003c0: dd07 74bc b6fe 753e 96c8 863e e12f 693e
000003d0: b05d 5cbe 1976 18be 662d 9fbd c5fd 7c3c
000003e0: f431 8dbe 0872 443e 2d09 cd3d d85b 05be
000003f0: dac3 c13d 628b 963e a71e 62bd fde8 1e3f

actor_fc2.bias f4 [64]
-0.068531714 -0.045952756 0.077147 -0.027496416 0.039104946 -0.058762047 0.00972979 0.019459954
0.0721956 0.044351853 -0.0006656388 -0.034614123 0.081722565 -0.054459963 -0.056720696 -0.08647512
-0.030840687 0.053153835 -0.058290195 -0.05131762 0.03490974 -0.051621996 -0.025838217 0.048645884
0.07563237 0.018565321 0.0803949 0.061752066 -0.071065165 -0.031640906 -0.037100863 -0.0492957
0.090932496 -0.08739339 0.00069793646 -0.029486187 0.013601981 -0.030791983 -0.07037581 0.020936163
-0.01716736 0.04542791 0.055781968 0.060866658 0.07557639 0.03504009 0.0037941432 0.05555116
0.0060009966 0.045382936 0.01383645 -0.038989585 -0.037426762 -0.06580121 -0.03126219 0.03688553
0.027422162 0.072543256 -0.011314791 -0.026963403 0.047153406 0.0044281185 0.012249999 0.07939679
00000000: 5b5a 8cbd f538 3cbd 3fff 9d3d 2a40 e1bc
00000010: 822c 203d 79b0 70bd b269 1f3c 7b6a 9f3c
00000020: 49db 933d 4aaa 353d 447e 2eba 8ac7 0dbd
00000030: 295e a73d 6911 5fbd f653 68bd de19 b1bd
00000040: 9ca5 fcbc d6b7 593d b3c1 6ebd 6d32 52bd
00000050: 84fd 0e3d 9671 53bd abaa d3bc e840 473d
00000060: 25e5 9a3d 4d16 983c 15a6 a43d bcef 7c3d
00000070: 9d8a 91bd e599 01bd 13f7 17bd 4aea 49bd
00000080: d13a ba3d 4efb b2bd b9f5 363a 048d f1bc
00000090: d8da 5e3c 783f fcbc 3121 90bd 5182 ab3c
000000a0: 90a2 8cbc 9e12 3a3d a27b 643d 514f 793d
000000b0: cbc7 9a3d 3386 0f3d 29a7 783b 9d89 633d
000000c0: 02a4 c43b 75e3 393d 47b2 623c 8bb3 1fbd
000000d0: ce4c 19bd c9c2 86bd c80c 00bd 4815 173d
000000e0: 71a4 e03c 8f91 943d ac61 39bc 5be2 dcbc
000000f0: ee23 413d c019 913b 38b4 483c c99a a23d

actor_fc3.weight f4 [4, 64]
-0.34018385 -0.3519385 0.33935106 -0.34161928 0.25132266 -0.36994526 0.25937524 0.30484596
0.30824777 0.34927815 0.33415425 -0.34971657 0.3235176 -0.35978448 -0.3209802 -0.32989907
-0.31353775 0.34161115 -0.3587023 -0.25270194 0.3269199 -0.35249156 -0.35033178 0.31755754
0.32065794 0.24358606 0.35224715 0.3499127 -0.2952531 -0.34554565 -0.23162624 -0.34847525
0.29636884 -0.2929224 0.24213201 -0.22428729 -0.19824418 -0.2852124 -0.28203613 0.2763517
-0.2687699 0.32153168 0.34043407 0.28448927 0.33745325 0.31835148 -0.108533114 0.36565548
0.24409482 0.2998828 -0.24502149 -0.36972648 -0.29051062 -0.32824305 -0.33931383 0.3253548
0.16457194 0.33258304 0.23857841 -0.3323345 0.20027405 0.25571954 0.2570557 0.28591132
-0.054480895 -0.5020481 0.04032448 -0.4491602 0.66715777 -0.40849233 -0.17542773 -0.1667202
0.035604768 0.3190196 0.41013032 -0.4814191 -0.07622462 -0.32613027 -0.21574555 -0.056013845
-0.5624429 0.4199304 -0.26992655 0.15132415 0.41855162 -0.33575195 -0.40148184 -0.1370068
-0.064908214 0.43844602 0.21679191 0.31128207 -0.021993017 -0.45063898 0.18540423 -0.4654041
0.045206178 0.017110132 -0.15775488 0.13857073 -0.430218 0.15971406 -0.08109082 0.36381018
0.12389222 -0.111677974 -0.0074786986 -0.13206612 0.03287561 -0.13451152 0.15133256 0.43720144
0.33408844 0.4394365 0.18138401 -0.44657728 0.095606714 0.103989124 -0.5847059 0.56352174
0.4644246 0.0409589 -0.22504269 0.13776608 -0.1517406 -0.19322333 -0.17630588 -0.09486208
0.2145564 0.20905875 -0.24809931 0.16750218 -0.27971128 0.21022648 -0.15828502 -0.26095453
-0.12866344 -0.19133615 -0.16006695 0.20522621 -0.24340518 0.21737714 0.1341754 0.21858816
0.21880683 -0.1706767 0.21381405 0.09208883 -0.15698496 0.20074604 0.17108029 -0.24306846
-0.20278685 -0.120586716 -0.20761438 -0.20033553 0.12913635 0.27292502 0.13395788 0.20599808
-0.17521195 0.13837467 -0.3049041 0.24285798 0.10984365 0.23956062 0.0671131 -0.1049197
0.3214202 -0.30366358 -0.27906463 -0.15594918 -0.23063761 -0.27072203 0.24320504 -0.24218766
-0.06806299 -0.17163587 0.24822035 0.2753658 0.30149877 0.25344762 0.30845386 -0.2698595
-0.13751814 -0.16781847 -0.24691856 0.27669287 -0.20547785 -0.25958064 -0.24204509 -0.12812845
-0.018654015 0.11364132 0.068764605 0.14550506 -0.11169653 0.1013924 0.35834658 0.50695926
-0.037821203 -0.12819088 -0.20496915 0.10154875 0.23734426 0.05555985 0.104883686 -0.02583648
0.1681216 -0.10679502 0.06712115 -0.15253842 -0.15793942 0.093483 0.12611645 0.4575568
0.13517252 -0.22568858 -0.04563246 -0.08256389 0.04250858 0.121408924 -0.32856423 0.16120966
0.015426941 -0.011478488 0.6448011 -0.56999594 0.26587203 -0.48050433 0.108910926 -0.18520418
-0.64242524 0.52897155 0.15888257 0.2766447 0.07285962 0.510903 -0.5979933 -0.07714547
-0.26782188 -0.11537014 -0.5318495 0.055665288 -0.59447 -0.3387994 0.11716869 -0.1269881
-0.15014544 -0.020433206 0.57853353 -0.5023395 0.50935006 0.56340563 0.53346026 0.11014193
00000000: 942c aebe 4831 b4be 6cbf ad3e b9e8 aebe
00000010: 5dad 803e 7769 bdbe d5cc 843e c514 9c3e
00000020: a7d2 9d3e 96d4 b23e 4416 ab3e 0d0e b3be
00000030: 19a4 a53e ac35 b8be 8457 a4be 88e8 a8be
00000040: 0588 a0be a8e7 ae3e d4a7 b7be 2662 81be
00000050: 0c62 a73e c679 b4be b05e b3be e796 a23e
00000060: 472d a43e a06e 793e bd59 b43e c227 b33e
00000070: 6a2b 97be 5ceb b0be 6e2f 6dbe 596b b2be
00000080: a8bd 973e edf9 95be 74f1 773e 91ab 65be
00000090: 8600 4bbe 5c07 92be 0a67 90be f87d 8d3e
000000a0: 359c 89be cd9f a43e 604d ae3e 94a8 913e
000000b0: acc6 ac3e f7fe a23e 9c46 debd 3237 bb3e
000000c0: fef3 793e 3d8a 993e eae6 7abe ca4c bdbe
000000d0: cfbd 94be 790f a8be 8bba adbe e894 a63e
000000e0: 8c85 283e 5348 aa3e e64d 743e bf27 aabe
000000f0: a414 4d3e aced 823e ce9c 833e f862 923e
00000100: 5c27 5fbd 3986 00bf 482b 253d 53f8 e5be
00000110: daca 2a3f e825 d1be 54a3 33be b3b8 2abe
00000120: 4ed6 113d 8956 a33e 9afc d13e 907c f6be
00000130: a71b 9cbd 8cfa a6be 67ec 5cbe c66e 65bd
00000140: 42fc 0fbf 1e01 d73e d033 8abe b8f4 1a3e
00000150: 664c d63e aee7 abbe 078f cdbe 834b 0cbe
00000160: 99ee 84bd ff7b e03e b3fe 5d3e 5d60 9f3e
00000170: b32a b4bc 27ba e6be 9bda 3d3e 7249 eebe
00000180: 1d2a 393d 8c2a 8c3c 7f8a 21be 7ce5 0d3e
00000190: 8945 dcbe 158c 233e f212 a6bd 5445 ba3e
000001a0: 34bb fd3d 6cb7 e4bd df0f f5bb 573c 07be
000001b0: 93a8 063d 63bd 09be ecf6 1a3e ded8 df3e
000001c0: a40d ab3e d2fd e03e bbbc 393e c7a5 e4be
000001d0: 74cd c33d 40f8 d43d 49af 15bf f642 103f
000001e0: 10c9 ed3e 85c4 273d 9771 66be 8d12 0d3e
000001f0: e361 1bbe 56dc 45be 8789 34be 0d47 c2bd
00000200: acb4 5b3e 7f13 563e bf0d 7ebe b185 2b3e
00000210: 5136 8fbe 9c45 573e 7815 22be d59b 85be
00000220: 59c0 03be a0ed 43be 97e8 23be d226 523e
00000230: 353f 79be 1d98 5e3e 4765 093e 93d5 5f3e
00000240: e60e 603e dfc5 2ebe 12f2 5a3e 1299 bc3d
00000250: aac0 20be 5f90 4d3e ac2f 2f3e f0e6 78be
00000260: 5ba7 4fbe 2bf6 f6bd dd98 54be c224 4dbe
00000270: 523c 043e d4bc 8b3e 412c 093e 29f1 523e
00000280: c36a 33be 17b2 0d3e 641c 9cbe c3af 783e
00000290: b5f5 e03d 614f 753e 9872 893d 24e0 d6bd
000002a0: 3091 a43e cb79 9bbe 8fe1 8ebe 24b1 1fbe
000002b0: 442c 6cbe 149c 8abe be0a 793e 0b00 78be
000002c0: 9c64 8bbd 50c1 2fbe 7a2d 7e3e bffc 8c3e
000002d0: 0c5e 9a3e e3c3 813e aaed 9d3e 062b 8abe
000002e0: 8ed1 0cbe 9bd8 2bbe 38d8 7cbe b0aa 8d3e
000002f0: c968 52be c1e7 84be abda 77be 1b34 03be
00000300: 4ed0 98bc c8bc e83d 75d4 8c3d 47ff 143e
00000310: 26c1 e4bd d2a6 cf3d 3479 b73e 15c8 013f
00000320: 68ea 1abd 7844 03be 6fe3 51be cbf8 cf3d
00000330: 600a 733e ba92 633d 42cd d63d 07a7 d3bc
00000340: 1228 2c3e 59b7 dabd d076 893d 0833 1cbe
00000350: dfba 21be 0474 bf3d ac24 013e e344 ea3e
00000360: aa6a 0a3e e81a 67be 1ae9 3abd 4217 a9bd
00000370: 7a1d 2e3d 3ea5 f83d 9239 a8be 2514 253e
00000380: 48c1 7c3c 4510 3cbc af11 253f 41eb 11bf
00000390: 6120 883e aa04 f6be b10c df3d 2aa6 3dbe
000003a0: fb75 24bf ae6a 073f 1db2 223e 60a4 8d3e
000003b0: 6d37 953d 8aca 023f 1716 19bf 72fe 9dbd
000003c0: f31f 89be 2e47 ecbd 4a27 08bf 4901 643d
000003d0: 302f 18bf 1d77 adbe 23f6 ef3d 2b09 02be
000003e0: babf 19be 8a63 a7bc c61a 143f 5299 00bf
000003f0: c464 023f 5a3b 103f da90 083f 1892 e13d

actor_fc3.bias f4 [4]
0.015379942 0.022969184 -0.042514857 0.019123968
00000000: 27fc 7b3c df29 bc3c 0f24 2ebd dea9 9c3c

critic_fc1.weight f4 [64, 8]
-0.07763393 -0.579932 0.31359726 0.55981994 0.03391048 0.39861575 -0.46117347 -0.14107543
-0.27668083 0.6681089 -0.003431108 -0.13491182 0.06049254 -0.05019081 0.22751828 0.112104334
-0.1001506 -0.309334 -0.26698476 0.27812812 -0.11480974 -0.21165223 0.3812801 0.4080581
0.42621407 0.16324806 0.09730854 -0.209261 0.045383897 0.20544964 -0.07104939 -0.35928047
0.23519814 -0.54435426 -0.05223075 0.09380963 -0.16447781 0.073118396 -0.3214538 -0.22809006
-0.21176198 0.3584146 0.028435903 0.20834088 0.11086214 0.014998552 0.4017169 -4.4269258e-05
0.14295593 -0.37404692 -0.42287 -0.3530706 -0.27163056 -0.12548159 0.12128453 0.2879447
0.23391251 0.38593644 0.4159569 0.26032224 0.045200728 0.20322144 -0.29565683 -0.4323991
-0.07840879 -0.3180532 -0.24925017 0.40499032 0.0740667 -0.20767978 0.074711315 -0.021485701
-0.058322575 -0.39389616 0.13827872 0.41042215 -0.08961744 0.02775224 -0.21908776 -0.36428386
-0.2716102 0.51893485 0.40460715 0.7398125 0.09032966 -0.0068635587 -0.034705292 0.005357422
0.25169438 0.32210875 -0.0018644927 -0.6602242 0.007109441 0.20385836 -0.20139699 0.014039948
-0.4650954 0.58023196 0.45627668 0.33664003 0.259665 -0.08309763 -0.037577003 -0.049998116
0.21950294 0.39223525 0.065863736 -0.5774055 -0.009822123 0.2042897 -0.18029046 0.15928611
0.3239862 0.4791393 -0.02811006 -0.6485661 -0.07340515 0.073440544 0.0014714976 0.1061075
-0.03408511 -0.42302248 -0.15543117 -0.05048404 0.015597999 -0.22310874 0.38413486 0.15987016
0.2481667 0.45851213 -0.3606031 -0.58402973 -0.057118017 -0.37880263 0.39958575 0.30116734
0.17634575 -0.38108903 -0.39608434 0.044240993 -0.048123203 -0.27829942 -0.06831227 0.12015407
-0.19096085 -0.28126425 -0.11053463 0.12268485 0.024225533 -0.16001822 0.16197142 0.18172164
0.19329503 0.41718605 -0.021047212 -0.68730253 0.13321085 0.17553625 0.19736408 -0.23979056
0.090717494 0.28516048 0.073286034 -0.6109708 0.060654484 -0.010262878 -0.0008780111 -0.13889019
0.084463395 0.4229437 0.125743 -0.45131892 -0.099399984 0.058824353 -0.29379177 -0.13820179
-0.2044042 0.3900252 0.37253085 0.3251603 0.15129687 0.15879348 -0.09767213 -0.1457784
-0.3452966 -0.3073308 0.21760611 0.86480504 0.09538184 0.04537987 0.2383322 -0.1566945
0.21735008 0.40519208 -0.27401677 -0.8027228 -0.09668002 -0.10237671 0.22674271 0.018043077
0.0433072 0.268781 0.35673043 0.43325093 0.119946994 0.2091687 -0.12134641 -0.20840019
-0.24604432 0.5736165 0.27715024 0.52305716 0.20735487 -0.050255645 -0.03352975 0.015638554
0.2257394 0.23371774 0.31832403 0.23768614 0.07428507 0.3586036 -0.43370405 -0.09554948
-0.2259378 -0.41751233 0.1593196 0.893625 -0.010360409 0.019772297 -0.34967774 -0.30915254
0.16747703 -0.49508795 -0.18743002 -0.61618763 -0.06335227 -0.009289214 -0.18841311 -0.09844148
0.3854083 -0.41209474 -0.22915843 -0.2978547 0.05324046 -0.15535453 0.15100217 0.059566293
0.18697359 0.3413914 -0.16305475 -0.79018414 -0.021911314 0.16166852 0.11229276 0.043956146
00000000: 8afe 9ebd 6c76 14bf d28f a03e 5c50 0f3f
00000010: b7e5 0a3d 5d17 cc3e ee1e ecbe 1476 10be
00000020: 1ca9 8dbe 2f09 2b3f 71dc 60bb 5326 0abe
00000030: 07c7 773d e194 4dbd 8dfa 683e f596 e53d
00000040: c21b cdbd 0761 9ebe 3ab2 88be cf66 8e3e
00000050: 5e21 ebbd 5dbb 58be 2537 c33e feec d03e
00000060: bb38 da3e 802a 273e b349 c73d 8448 56be
00000070: 77e4 393d 6461 523e 5882 91bd 9cf3 b7be
00000080: c8d7 703e cd5a 0bbf e9ef 55bd 431f c03d
00000090: df6c 28be 19bf 953d 9895 a4be 7190 69be
000000a0: 22d8 58be 1e82 b73e 69f2 e83c 5057 553e
000000b0: b10b e33d 7dbc 753c d6ad cd3e c1ad 39b8
000000c0: 0a63 123e 1483 bfbe 6b82 d8be abc5 b4be
000000d0: 2913 8bbe 3f7e 00be 0664 f83d 7d6d 933e
000000e0: c386 6f3e 7699 c53e 4ef8 d43e f548 853e
000000f0: 6624 393d 4819 503e 5560 97be 6a63 ddbe
00000100: ca94 a0bd ded7 a2be 703b 7fbe e45a cf3e
00000110: 48b0 973d 02aa 54be 3f02 993d c802 b0bc
00000120: a7e3 6ebd c2ac c9be f098 0d3e da22 d23e
00000130: 5989 b7bd aa58 e33c 8b58 60be 6a83 babe
00000140: 7e10 8bbe ead8 043f ab28 cf3e 5a64 3d3f
00000150: c2fe b83d b4e7 e0bb 2327 0ebd 508d af3b
00000160: 16de 803e 70eb a43e fe61 f4ba 7404 29bf
00000170: 50f6 e83b 3fc0 503e 033b 4ebe cf07 663c
00000180: fc20 eebe 158a 143f 199d e93e 155c ac3e
00000190: d0f2 843e 172f aabd 58ea 19bd d3ca 4cbd
000001a0: 61c5 603e 0fd3 c83e 91e3 863d d9d0 13bf
000001b0: f8ec 20bc 5231 513e 109e 38be e61b 233e
000001c0: 85e1 a53e bf51 f53e 1247 e6bc 6e08 26bf
000001d0: 7055 96bd ff67 963d 44df c03a e44e d93d
000001e0: d49c 0bbd 6796 d8be 5929 1fbe 5ac8 4ebd
000001f0: c08e 7f3c 9e76 64be 53ad c43e 01b5 233e
00000200: 691f 7e3e 1ac2 ea3e f8a0 b8be f982 15bf
00000210: 95f4 69bd 6bf2 c1be 8196 cc3e 9b32 9a3e
00000220: fb93 343e 1a1e c3be 91cb cabe 0b36 353d
00000230: d61c 45bd 437d 8ebe 4ee7 8bbd 5613 f63d
00000240: 3e8b 43be de01 90be fb5f e2bd 3242 fb3d
00000250: a074 c63c d1db 23be d6db 253e 3d15 3a3e
00000260: 22ef 453e 6999 d53e 346b acbc 0ff3 2fbf
00000270: 6d68 083e c6bf 333e cf19 4a3e a88b 75be
00000280: 18ca b93d 8e00 923e fd16 963d 9568 1cbf
00000290: d670 783d a125 28bc 542a 66ba 3b39 0ebe
000002a0: 25fb ac3d 148c d83e c6c2 003e 4613 e7be
000002b0: 3892 cbbd cef1 703d e06b 96be c584 0dbe
000002c0: 564f 51be 62b1 c73e 5dbc be3e 697b a63e
000002d0: 91ed 1a3e c29a 223e 5308 c8bd ef46 15be
000002e0: b7ca b0be 765a 9dbe 23d4 5e3e dd63 5d3f
000002f0: 8e57 c33d 3ee0 393d 5b0d 743e 8674 20be
00000300: 0591 5e3e 5675 cf3e ed4b 8cbe 3e7f 4dbf
00000310: 2d00 c6bd e1aa d1bd 3e2f 683e 13cf 933c
00000320: e462 313d aa9d 893e 5fa5 b63e 11d3 dd3e
00000330: c5a6 f53d 5230 563e 7784 f8bd dc66 55be
00000340: 0bf3 7bbe 88d8 123f a3e6 8d3e 13e7 053f
00000350: d654 543e ddd8 4dbd 7e56 09bd 6d1c 803c
00000360: 3b28 673e b453 6f3e 5efb a23e ff63 733e
00000370: c522 983d e49a b73e 750e debe 72af c3bd
00000380: 3d5c 67be 2dc4 d5be ad24 233e 9cc4 643f
00000390: b4be 29bc 83f9 a13c f608 b3be 3e49 9ebe
000003a0: 197f 2b3e 2b7c fdbe a8ed 3fbe 79be 1dbf
000003b0: d6be 81bd ca31 18bc 5eef 40be b09b c9bd
000003c0: 3d54 c53e 15fe d2be 82a8 6abe 6980 98be
000003d0: ab12 5a3d 4215 1fbe 50a0 1a3e c9fb 733d
000003e0: 0176 3f3e dbca ae3e d3f7 26be 8249 4abf
000003f0: 5b7f b3bc 6f8c 253e bff9 e53d 5c0b 343d

critic_fc1.bias f4 [64]
-0.29075268 -0.054248214 0.3508373 -0.44529647 0.06203185 -0.12783958 0.35210344 -0.40742177
0.20815693 -0.03560964 -0.12730908 -0.32596654 -0.14916402 -0.22175094 -0.2217415 0.38604346
0.12568861 0.29211262 0.34557375 -0.25054133 -0.37287712 -0.4010827 -0.33703187 0.19986714
-0.1275092 -0.33344766 -0.13143887 -0.40393513 -0.06377503 0.12535897 0.22539409 -0.11305559
0.30235416 0.20002285 0.17605223 -0.076073214 -0.029708752 -0.11590728 -0.1804021 -0.27362183
-0.65645146 0.12607491 -0.38374633 0.26431912 -0.24416971 0.13923883 -0.24069521 -0.1278031
-0.2709816 0.12251306 -0.02796206 0.14114444 -0.29424262 0.2518576 -0.048592187 -0.47305238
-0.13995466 0.15183055 -0.3900366 -0.38620588 0.047351636 -0.45060584 -0.13102305 0.17916068
00000000: 89dd 94be 6033 5ebd f2a0 b33e e6fd e3be
00000010: 1c15 7e3d 61e8 02be e746 b43e 9699 d0be
00000020: 1727 553e 6adb 11bd 505d 02be 16e5 a6be
00000030: 74be 18be ae12 63be 3410 63be 7da7 c53e
00000040: 84b4 003e c98f 953e 0bef b03e f446 80be
00000050: c0e9 bebe b65a cdbe 718f acbe f9a9 4c3e
00000060: c691 02be a7b9 aabe e997 06be 96d0 cebe
00000070: 7c9c 82bd 1a5e 003e b5cd 663e b089 e7bd
00000080: 2ace 9a3e cad2 4c3e 0947 343e 46cc 9bbd
00000090: c55f f3bc cc60 edbd 54bb 38be 2918 8cbe
000000a0: 340d 28bf c819 013e 667a c4be d654 873e
000000b0: a007 7abe a094 0e3e ce78 76be d1de 02be
000000c0: 1abe 8abe 21e8 fa3d b110 e5bc 2b88 103e
000000d0: f8a6 96be 7bf3 803e 9a08 47bd ec33 f2be
000000e0: 4650 0fbe 7879 1b3e e1b2 c7be c7bc c5be
000000f0: caf3 413d cfb5 e6be e82a 06be e675 373e

critic_fc2.weight f4 [64, 64]
0.40733817 0.092722625 0.48479384 -0.40160137 0.0948648 -0.24499045 0.27561566 0.029041424
0.1837907 0.020308893 -0.12676099 -0.33099827 0.04574023 -0.45934832 -0.47516134 0.4255626
0.044244163 0.24052908 0.4671822 -0.1377663 -0.19562364 -0.3346371 -0.24715242 0.08646247
-0.07874711 -0.2747727 0.0065451954 -0.40768474 0.028499523 0.08817132 0.10100059 -0.12302674
0.03057567 0.22362778 0.30495572 0.30953372 -0.04759719 0.09477438 -0.42004836 -0.37832615
-0.44878724 -0.12718289 -0.4077322 0.1961751 -0.14202063 0.13914002 -0.48037097 -0.2582826
-0.14105853 0.055772435 0.15214963 0.29169935 -0.23319808 0.062264245 -0.047576465 -0.37627125
-0.27804255 0.09049641 -0.10574943 -0.18049811 -0.08155654 -0.3947072 -0.06183209 0.53109616
-0.00015817587 -0.23361702 0.48363835 -0.24455844 0.17187609 -0.37951434 0.057304554 0.13014014
0.22388525 0.06216642 0.090475924 -0.23060346 0.029646741 -0.2657622 -0.15181628 0.38611957
-0.23567346 0.07121365 0.20230974 -0.10932354 -0.12650083 -0.249061 0.13199057 0.3815422
-0.2466754 -0.17347908 0.23220848 -0.14150366 0.054848094 0.04734767 -0.033653587 -0.48456028
0.123778425 0.48810315 -0.04919777 0.11742767 -0.15149353 -0.100977056 -0.25632712 -0.08464872
-0.5534193 0.20132163 -0.47793314 0.36071128 0.04251771 -0.16782013 -0.45077565 -0.23986094
-0.26082942 0.032626506 0.2586369 0.35668907 -0.45617756 0.02355157 0.038619857 -0.1804265
-0.47214335 0.12717697 0.06488211 -0.070023246 -0.007182487 -0.5733313 0.11713698 0.1107732
-0.36060435 0.23958273 0.19478013 -0.2253592 -0.19741698 -0.004052774 0.5493305 -0.45185703
0.14822645 -0.2683813 -0.397743 -0.053200565 -0.6076246 0.0052554407 -0.16217665 0.09874076
0.19037461 0.27728236 0.13364534 0.24820921 -0.05881754 0.029808804 -0.45748767 0.019812752
0.09788432 -0.3645016 -0.66670984 -0.627143 -0.5028308 0.5727174 0.25997874 0.15968272
-0.26062292 -0.24740934 -0.49146056 -0.07899498 0.044982042 -0.14086814 0.23215345 -0.14544709
-0.40634328 0.0140186595 -0.29345098 0.060113043 -0.17005157 0.4292636 0.29084596 0.47258988
-0.015205224 -0.46209913 -0.3171646 -0.19590215 -0.1406769 0.15487094 0.013528116 -0.35691327
0.39782938 0.2267181 -0.5262888 0.09910828 0.07861281 -0.06735942 -0.42883942 -0.06087546
0.039033577 0.03972569 -0.40058532 0.6485442 0.08440527 0.11149743 -0.3839135 0.43584254
-0.28254157 -0.13235337 -0.022076147 0.46105888 -0.1335795 0.08235808 0.48598185 -0.47731015
-0.21580781 -0.12452581 -0.57254916 0.27423733 0.42030293 0.36889043 0.14553833 -0.1498519
0.37488845 0.6178077 0.10344727 0.40403444 -0.049672075 -0.20001659 -0.21244702 0.37691343
-0.21022421 -0.30528623 -0.20410834 -0.3557512 -0.08720207 -0.0051272227 0.299854 0.2712915
0.60869133 -0.104598366 0.6402653 -0.44988102 0.2717816 -0.23302542 0.4625983 0.38722295
0.4969792 0.104100876 -0.32667533 -0.22774029 0.32226035 -0.39473033 -0.13325256 0.452285
0.3622234 -0.1616058 0.15300506 0.14796987 -0.119083636 0.6430621 0.18558255 -0.23362984
00000000: a18e d03e 5ce5 bd3d e636 f83e b29e cdbe
00000010: 7a48 c23d c7de 7abe 7f1d 8d3e 48e8 ed3c
00000020: a133 3c3e d65e a63c a2cd 01be 9b78 a9be
00000030: 1b5a 3b3d b42f ebbe 5948 f3be 57e3 d93e
00000040: 5e39 353d 414d 763e 8132 ef3e 9c12 0dbe
00000050: 9051 48be 8e55 abbe 8615 7dbe 3c13 b13d
00000060: 2a46 a1bd 02af 8cbe 1479 d63b 0ebc d0be
00000070: d577 e93c 2a93 b43d 66d9 ce3d 72f5 fbbd
00000080: d479 fa3c aefe 643e 2823 9c3e 347b 9e3e
00000090: 45f5 42bd 1219 c23d 9410 d7be f7b3 c1be
000000a0: 71c7 e5be 3b3c 02be 46c2 d0be 20e2 483e
000000b0: db6d 11be b97a 0e3e 2ff3 f5be 9e3d 84be
000000c0: a671 10be a371 643d 1dcd 1b3e 9e59 953e
000000d0: 7acb 6ebe cb08 7f3d 8adf 42bd a0a6 c0be
000000e0: 985b 8ebe 2f56 b93d 2893 d8bd 7fd4 38be
000000f0: 1e07 a7bd 1017 cabe a543 7dbd ebf5 073f
00000100: 03dc 25b9 4d39 6fbe 729f f73e 876d 7abe
00000110: 4900 303e b44f c2be 2eb8 6a3d 7543 053e
00000120: 2d42 653e 37a2 7e3d 714b b93d 5023 6cbe
00000130: b9dd f23c fc11 88be ba75 1bbe 77b1 c53e
00000140: 6254 71be 76d8 913d 492a 4f3e 05e5 dfbd
00000150: 6f89 01be d909 7fbe 8928 073e 8059 c33e
00000160: 7a98 7cbe 80a4 31be 0fc8 6d3e 56e6 10be
00000170: 65a8 603d a1ef 413d 58d8 09bd 4918 f8be
00000180: 8b7f fd3d a8e8 f93e 9a83 49bd eb7d f03d
00000190: 1f21 1bbe 0fcd cebd 4f3d 83be 4f5c adbd
000001a0: e3ac 0dbf 4227 4e3e a7b3 f4be 26af b83e
000001b0: 0d27 2e3d 0ad9 2bbe 11cc e6be 1b9e 75be
000001c0: 6f8b 85be 5fa3 053d 0e6c 843e f39f b63e
000001d0: 1b90 e9be 39ef c03c db2f 1e3d b9c1 38be
000001e0: c6bc f1be ae3a 023e e9e0 843d 5968 8fbd
000001f0: 115b ebbb d7c5 12bf 83e5 ef3d 0fdd e23d
00000200: 22a1 b8be 2d55 753e 7174 473e 90c4 66be
00000210: ad27 4abe 22cd 84bb eca0 0c3f ce59 e7be
00000220: adc8 173e 4669 89be f8a4 cbbe d6e8 59bd
00000230: 498d 1bbf d535 ac3b a311 26be 9838 ca3d
00000240: 90f1 423e f4f7 8d3e 53da 083e 8e2a 7e3e
00000250: a9ea 70bd 9831 f43c d33b eabe 5a4e a23c
00000260: 9377 c83d f49f babe 7fad 2abf 728c 20bf
00000270: 85b9 00bf 9c9d 123f ef1b 853e de83 233e
00000280: 5e70 85be e058 7dbe b8a0 fbbe 1fc8 a1bd
00000290: 173f 383d bd3f 10be a2b9 6d3e 15f0 14be
000002a0: 3a0c d0be 85ae 653c 353f 96be 1839 763d
000002b0: 0022 2ebe 70c8 db3e c3e9 943e 4df7 f13e
000002c0: 551f 79bc 4298 ecbe 6663 a2be 939a 48be
000002d0: 9b0d 10be 7d96 1e3e 08a5 5d3c 56bd b6be
000002e0: 4bb0 cb3e ca28 683e ddba 06bf 48f9 ca3d
000002f0: c1ff a03d bcf3 89bd d790 dbbe 8c58 79bd
00000300: ace1 1f3d 68b7 223d 8519 cdbe fe06 263f
00000310: acdc ac3d c458 e43d 4f90 c4be c126 df3e
00000320: 4aa9 90be a487 07be 09d9 b4bc e90f ec3e
00000330: 10c9 08be 5aab a83d 9dd2 f83e ff61 f4be
00000340: b9fc 5cbe 6307 ffbd 9592 12bf d668 8c3e
00000350: f231 d73e 35df bc3e 0008 153e c772 19be
00000360: 61f1 bf3e a528 1e3f 2adc d33d 9add ce3e
00000370: f274 4bbd 26d1 4cbe b68b 59be ccfa c03e
00000380: 0445 57be 7a4e 9cbe c701 51be 0525 b6be
00000390: 0097 b2bd 4302 a8bb 7786 993e b8e6 8a3e
000003a0: 32d3 1b3f ab37 d6bd 6de8 233f ce56 e6be
000003b0: f526 8b3e 379e 6ebe afd9 ec3e 1642 c63e
000003c0: 0f74 fe3e d732 d53d fd41 a7be c034 69be
000003d0: 4fff a43e 181a cabe 5c73 08be e691 e73e
000003e0: 5875 b93e fe7b 25be 5cad 1c3e 6a85 173e
000003f0: 1fe2 f3bd b89f 243f 5a09 3e3e a93c 6fbe

critic_fc2.bias f4 [64]
0.3308315 0.13905375 0.14291424 -0.42097893 0.3106014 0.29291636 0.3414023 0.13081038
0.0114636 -0.0023575404 -0.44831452 0.22799972 -0.24908733 0.68391246 -0.46724865 -0.35111874
-0.5096167 -0.055579405 0.30618438 -0.6545228 0.6676862 -0.3962095 -0.061880883 0.3167852
0.30415982 -0.37561002 0.45389327 -0.3187996 0.105321154 -0.34675962 0.46437222 0.19778445
-0.28691652 -0.115837 -0.73393166 0.23252466 0.34679094 0.3434325 0.73435384 0.10218189
-0.2103714 0.111469604 -0.70512205 0.2919533 0.29232422 -0.05708184 0.33011544 0.029050391
-0.3512306 0.6520115 0.17846145 -0.34177658 0.42186335 -0.025785511 0.113319136 0.71730745
0.33566192 0.3776419 0.36382997 -0.31605628 -0.32931164 -0.33700302 0.34909344 0.66112006
00000000: bf62 a93e 1b64 0e3e 1c58 123e 8d8a d7be
00000010: 2607 9f3e 22f9 953e 48cc ae3e 28f3 053e
00000020: d3d1 3b3c f780 1abb 7b89 e5be c278 693e
00000030: c010 7fbe e314 2f3f 373b efbe d6c5 b3be
00000040: 3d76 02bf 3ba7 63bd 33c4 9c3e ce8e 27bf
00000050: 7ced 2a3f f9db cabe cf76 7dbd ab31 a23e
00000060: d6ba 9b3e f54f c0be b364 e83e b339 a3be
00000070: 9eb2 d73d 7a8a b1be 32c2 ed3e 0288 4a3e
00000080: b9e6 92be f33b edbd f2e2 3bbf f21a 6e3e
00000090: 958e b13e 62d6 af3e 9dfe 3b3f bd44 d13d
000000a0: 9a6b 57be 2d4a e43d e182 34bf e77a 953e
000000b0: 85ab 953e a6ce 69bd e404 a93e 16fb ed3c
000000c0: 7fd4 b3be 3aea 263f 99be 363e 57fd aebe
000000d0: 79fe d73e 233c d3bc dd13 e83d 76a1 373f
000000e0: e1db ab3e 475a c13e ec47 ba3e 21d2 a1be
000000f0: 899b a8be a98b acbe 60bc b23e 2a3f 293f

critic_fc3.weight f4 [1, 64]
-0.50368345 -0.49588987 1.5403892 0.4383599 -0.48283094 -0.5396125 -0.529689 -0.57130957
-1.3888035 -2.0334518 -1.5101008 -0.27140236 0.5321579 0.7820763 0.41341385 0.583015
-1.4925591 1.5547904 -0.52906877 -0.7718674 0.62761104 -1.5172348 1.5077385 -0.5504706
-0.5866312 0.48055223 -0.43073466 0.2570449 1.6546949 0.5455957 1.570299 -0.5828614
0.34119672 0.46718234 -1.267693 -0.59632725 -0.5665404 -0.5346666 1.3215038 -0.6091403
0.6178549 -0.6017669 -0.8731714 -0.5896355 -0.43768814 -1.6192365 -0.55742407 1.3687716
-1.4802018 1.3460084 -0.4866977 0.45403293 -0.41559288 1.60891 -1.7184031 0.9207323
-0.5243919 -0.3845684 1.6213536 -1.6797061 0.47694904 0.30654448 -0.5404621 0.5635175
00000000: 66f1 00bf 47e5 fdbe 792b c53f b570 e03e
00000010: 9e35 f7be 0b24 0abf b399 07bf 5841 12bf
00000020: 50c4 b1bf 1324 02c0 fc4a c1bf 40f5 8abe
00000030: 803b 083f 2736 483f fbaa d33e 7940 153f
00000040: 2d0c bfbf 5f03 c73f 0d71 07bf 1a99 45bf
00000050: 1eab 203f c034 c2bf 93fd c03f a4eb 0cbf
00000060: 762d 16bf f10a f63e 4189 dcbe 649b 833e
00000070: 0bcd d33f 29ac 0b3f 8fff c83f 6836 15bf
00000080: 56b1 ae3e 8632 ef3e c443 a2bf e7a8 18bf
00000090: cb08 11bf e9df 08bf 0927 a93f 9ef0 1bbf
000000a0: bd2b 1e3f 650d 1abf 2988 5fbf 5af2 16bf
000000b0: a918 e0be 2443 cfbf 58b3 0ebf e833 af3f
000000c0: 4177 bdbf 014a ac3f 7130 f9be 0177 e83e
000000d0: 97c8 d4be c3f0 cd3f a2f4 dbbf 1db5 6b3f
000000e0: 8c3e 06bf 26e6 c4be 8488 cf3f 9c00 d7bf
000000f0: aa32 f43e 66f3 9c3e b95b 0abf af42 103f
