A3C-new/A3C-Lunar-new/runs/LunarLander-v2/2022-11-11_23-34_First80MSteps/model_sam_BreakoutDeterministic-v4_conv.14.tar (torch, 42561 bytes, 11 tensors)

actor_fc1.weight f4 [64, 8]
000000 57 a9 7c 3d 8f e7 13 3d 43 9b 93 3b 5b ae 9a 3e
       0.061684933 0.036109503 0.0045045926 0.30211148
000010 e9 78 fc be fa ec 6f be 37 72 ea 3c 25 3e 03 3e
       -0.49310997 -0.23430243 0.028618915 0.12816675
000020 95 6f 1f be 14 3f 7b 3e a8 a6 5d be e1 66 f8 3b
       -0.15569909 0.24535781 -0.21645606 0.0075806235
000030 42 50 37 bf e4 91 b4 be e2 dd 1e be f3 52 d6 bd
       -0.7160684 -0.35267556 -0.15514329 -0.1046504
000040 e6 ff fb 3c 8e a9 1e 3b 14 46 27 3e 89 d8 8c 3e
       0.03076167 0.002420995 0.16335326 0.27508953
000050 b6 27 66 3f f5 ca c1 3e 44 0d 1e 3e 79 d8 c4 3a
       0.89904344 0.37850156 0.15434748 0.0015018127
000060 59 33 c4 bd c6 58 2d 3d 74 89 8d 3d b9 58 f4 3e
       -0.09580106 0.04232099 0.06910983 0.4772394
000070 a2 fb 73 be 39 e3 e0 bd 2e 42 55 3e b7 f4 61 3e
       -0.23826459 -0.10980839 0.20826027 0.22066008
000080 71 75 ae bd 42 77 12 be 5a b8 b8 be aa 35 90 3e
       -0.08518494 -0.14303306 -0.3607815 0.28165942
000090 01 83 09 3f a9 d4 2a 3f 27 89 99 be 65 54 ab 3d
       0.5371552 0.66730744 -0.2998745 0.08365706
0000a0 82 eb 67 be 9f b6 22 3e c4 0b c7 be 1e 57 10 be
       -0.22648433 0.15889977 -0.38876164 -0.14095733
0000b0 21 85 2d 3f 5d 69 bd 3e 99 29 9c bc ee 8b 83 be
       0.67781264 0.36994448 -0.019062804 -0.25692695
0000c0 b1 21 bd bd db e1 07 bf e9 36 3c 3e 67 5a a8 3e
       -0.09234942 -0.53079003 0.18380322 0.32881472
0000d0 71 ab 08 3f f4 15 1d 3e 3f cf cd bd 47 a8 13 3d
       0.533866 0.15340406 -0.10049295 0.036049154
0000e0 64 ea 01 be 4a 65 5d be 63 47 a5 3e a1 34 0e 3c
       -0.12687069 -0.2162067 0.32281026 0.00867954
0000f0 af 15 d0 be d2 e1 0b be 13 4d 28 be f2 9b b2 bd
       -0.40641543 -0.13660362 -0.16435651 -0.087211505
000100 18 c3 87 3c 1e 57 32 bd db e4 ad be 46 e4 3f 3c
       0.01657252 -0.043540113 -0.33963665 0.0117121395
000110 7d eb 79 3f 0e 7b 09 3f 49 49 cd 3d 46 91 f1 bd
       0.9762495 0.5370339 0.10023744 -0.11795287
000120 31 82 9e 3d 36 b9 9a be 80 f7 c1 3c c9 ed be be
       0.07739676 -0.3021943 0.023677588 -0.3729079
000130 59 66 41 3f 26 04 58 3e 3d 27 e4 3d a5 21 b1 bb
       0.75546795 0.21095333 0.111402966 -0.005405622
000140 d5 6b 11 bc ff 06 6c 3d f5 6b 0a 3c 8b 5a 1d bc
       -0.008875807 0.05762386 0.0084485905 -0.009604107
000150 d4 60 5d 3f c2 e2 35 3f 98 39 ba bd 04 51 a7 3d
       0.86475873 0.7104913 -0.090930164 0.081697494
000160 fb 97 47 3c 49 be 68 be ff 91 59 bd dc 94 d7 be
       0.012182231 -0.22728838 -0.05311775 -0.42105758
000170 4f ea 8a be e1 9e 77 be 06 c5 36 be 88 58 e6 3b
       -0.27131888 -0.24181701 -0.17848596 0.0070295967
000180 eb 59 d2 bd 90 aa 7e 3e da 0e c4 3e 75 35 9a be
       -0.10271057 0.24869752 0.3829258 -0.3011891
000190 f2 3a 83 be 3b d0 ea be 2d 48 02 bd 72 72 b2 bd
       -0.2563091 -0.45861992 -0.031807113 -0.08713235
0001a0 03 46 41 3e bd 4f 32 bc cf ec bd 3c a3 0f 7d 3e
       0.18874364 -0.010883269 0.023184208 0.24712996
0001b0 00 a6 26 bf d1 90 36 bf 39 bf 8b bc ae fb 23 3b
       -0.65097046 -0.7131472 -0.017058956 0.002502184
0001c0 38 11 7f be 49 b1 11 3e 1b a5 f4 be 54 38 d0 3e
       -0.24908912 0.14227785 -0.47782215 0.40667975
0001d0 89 81 b1 3e 65 f7 a3 3e bd d1 34 3e e3 e9 c2 bd
       0.3466914 0.32024685 0.17658134 -0.095172666
0001e0 a6 0f 0b be 6a 47 7b 3c f4 02 3a bd b4 89 b4 be
       -0.13580188 0.015336851 -0.045412973 -0.3526131
0001f0 27 45 46 3f fa 42 ee 3e 57 1d 5a 3e e3 c4 93 3b
       0.7744927 0.46535474 0.21300255 0.0045095547
000200 7b 17 d7 bd 44 a2 8c 3e 6b a0 d7 bb d3 9c d2 3e
       -0.105025254 0.2746755 -0.0065804026 0.41135272
000210 e1 98 d8 3d ab 7e 0a 3e 8b 40 c5 3e 45 55 a2 3e
       0.10576034 0.13524882 0.38525805 0.3170568
000220 be 30 56 be 5a 7d d3 3b 11 12 25 3e 21 9c 0f 3f
       -0.20917031 0.006454152 0.16120173 0.5609761
000230 ae 75 1c bf bf 1c dc be cc e6 f8 bd b2 ea b6 3d
       -0.61117065 -0.42990682 -0.12153396 0.08931483
000240 c5 7a 07 3e 75 51 07 bd 73 53 3d be 57 c6 0e 3e
       0.13230427 -0.033036668 -0.18488865 0.13942848
000250 ba d2 63 bf 41 69 92 bd 0c 59 92 be ae 56 07 be
       -0.8899342 -0.07148982 -0.28583562 -0.1321666
000260 68 6f 93 3e 01 df 16 3e 21 ea 2e 3e 65 2d 81 be
       0.28795934 0.14733507 0.170815 -0.25229946
000270 e6 4b d9 be 41 25 fe be b8 65 14 be fc 44 a0 3d
       -0.42440718 -0.49637797 -0.14491928 0.07825658
000280 1a 32 11 be a6 9b 50 3e 26 2e 65 bd 66 f2 a0 3e
       -0.14179268 0.20371875 -0.055952214 0.31434935
000290 28 e0 d5 be 7b 44 82 bd ea 10 8f 3d 19 3e 81 3e
       -0.4177258 -0.06360718 0.06985648 0.2524269
0002a0 10 39 67 3c dd eb eb bd ab 09 e5 3e 9f 13 9d 3e
       0.014112726 -0.11519597 0.4473394 0.30679032
0002b0 5d 22 18 bf ff a1 17 be c5 28 d9 3d 3a 81 07 bd
       -0.59427434 -0.1480789 0.10603479 -0.033082224
0002c0 08 a4 f5 3d 1a 6c b9 3d b6 2f dd 3d ee 29 90 bd
       0.11994177 0.09053822 0.10800116 -0.070392475
0002d0 43 36 84 3e 64 66 a0 3d d4 af 8f be dc 70 12 be
       0.25822648 0.078320295 -0.28063834 -0.14300865
0002e0 a0 22 81 be 20 1a 15 3e 12 8a e3 bd 41 6d b1 3e
       -0.2522173 0.14560747 -0.11110319 0.34653667
0002f0 86 e8 a3 be 8a a0 0c 3d 63 c2 90 3d cd 29 c7 3d
       -0.3201334 0.03433279 0.07068326 0.0972477
000300 75 ca 07 be 73 9e 73 3d c8 9f 18 3d 09 71 62 be
       -0.13260825 0.05947728 0.037261754 -0.22113432
000310 1f 1c 34 3f bf b9 b4 3e b3 41 3a 3d 29 45 33 bd
       0.7035541 0.35297963 0.045472812 -0.04376713
000320 83 ee 33 3e cf a7 01 be c3 00 8b be 98 ba ca be
       0.17571454 -0.1266167 -0.2714902 -0.39595485
000330 86 65 6c be 4d a4 91 bd 2b 38 9d be 60 b0 20 3e
       -0.23085603 -0.07111416 -0.30706915 0.15692282
000340 f3 fc 6a 3e 68 e7 3d 3d 82 a6 85 3e 83 1a f2 3e
       0.22948055 0.046363264 0.26103598 0.47285852
000350 2c 96 2a 3d 87 02 5a 3b 9a a5 82 3e 2c 14 68 3e
       0.04164712 0.0033265667 0.2551697 0.22663945
000360 28 d6 84 3d 99 8c 3c 3d 69 b0 9a be fa 58 82 be
       0.064861596 0.046032522 -0.30212715 -0.2545851
000370 ea 39 13 3f 5b 5d b3 3e e0 6e 0a 3d 9d 2f 1f be
       0.57510245 0.35032162 0.033797145 -0.15545507
000380 ed ea 33 3d b2 12 e4 3d 67 d3 e0 bc 74 6a d6 3e
       0.043925215 0.11136378 -0.027444554 0.41878092
000390 1d 4b f8 3e 13 f6 78 3e 0b e2 1b bd d3 b8 e9 3d
       0.48494807 0.2431262 -0.03805737 0.114122055
0003a0 ca 99 b1 bd b9 d0 aa 3c fa 5c e2 bd ec 2d ed 3e
       -0.08671911 0.02085148 -0.1105289 0.46324098
0003b0 76 f6 29 3f 35 a8 11 3f 40 dc 8a bc 75 42 c0 bc
       0.66391695 0.5689729 -0.016950727 -0.02346919
0003c0 c3 0d e1 bd 79 67 12 bd 36 a4 98 3e d5 ac 72 be
       -0.10988953 -0.03574321 0.29812783 -0.23698743
0003d0 ef b9 36 bf 33 6b ad be 14 95 22 bc ed cf b6 3d
       -0.7137746 -0.3387085 -0.009923238 0.089263774
0003e0 9d 13 17 3d 9c 30 d3 bd e8 2a ed bd 60 7a 25 3e
       0.03688394 -0.10312006 -0.11580449 0.16159964
0003f0 f3 c1 6e bf c3 ce b6 be 87 2b d7 bd 59 fa b4 bd
       -0.93264693 -0.35704622 -0.10506349 -0.088368125

actor_fc1.bias f4 [64]
000000 63 d9 8b 3d ec 97 ac bd bb 7a 8f 3d 81 74 b4 3d
       0.068285726 -0.08427414 0.07005831 0.08811284
000010 ea 50 f9 bc 9b 9b 04 bd b6 ee 73 3c fe 82 28 bd
       -0.03043409 -0.03237496 0.014888456 -0.04114055
000020 72 f4 04 bd f6 6a 11 bd d7 9e d0 bc bb 78 93 bd
       -0.032459684 -0.035502397 -0.025466366 -0.07200762
000030 31 4e c3 bc 40 2c 1f 3d 02 95 05 3d eb 1e 10 bd
       -0.023840996 0.03886056 0.032612808 -0.035185736
000040 28 6c 9a 3d 3d 5e 8b 3d bd 9b 13 bd bd 2b 09 bc
       0.075401604 0.06805084 -0.036037195 -0.008372244
000050 41 7b 65 3d 9f 00 5e 3d 1a 9f a5 bd 18 ba 8b 3d
       0.056025747 0.05419981 -0.08086987 0.06822604
000060 fb f8 f9 bc ba 5c b1 bd fc 6e df 3d 5f 29 4c bd
       -0.030514231 -0.08660264 0.109098405 -0.049844142
000070 2b 86 6f 3d 99 af 11 3d b5 d4 8e 3b 39 10 11 bb
       0.058477562 0.035567854 0.0043588527 -0.0022134914
000080 44 f2 b6 3c 7c 84 98 3c 69 02 85 bd 23 79 6d bc
       0.022332318 0.018617861 -0.064946 -0.014494213
000090 61 5d 59 bd 45 aa 15 3d 34 8c ab bc 10 5b 65 3d
       -0.05306757 0.036539335 -0.020940877 0.055995047
0000a0 c1 60 9d bc 15 b8 57 3d f9 fc 82 3d 6a ef 50 bd
       -0.019211175 0.05266579 0.06395907 -0.051009573
0000b0 51 eb eb bc 24 9c 5c bb 14 3c ec 3a ac 6d 60 3d
       -0.028798731 -0.0033662403 0.0018023276 0.05479209
0000c0 03 bf c6 3d 24 06 29 bd a5 ff 58 bd 5f ad 9d bc
       0.09704401 -0.04126562 -0.052978177 -0.019247709
0000d0 88 c5 c3 3d 0b d0 7f 3d 01 ce d6 bd 3b 64 62 bd
       0.095591605 0.062454265 -0.10488511 -0.05527137
0000e0 0b b0 13 3d 20 0a b1 bc 39 a7 2a 3d 7f 7f 05 3d
       0.03605656 -0.021611273 0.041663382 0.032592293
0000f0 2e 2d b0 3d 97 60 64 bc 35 ed f2 3c 8e c2 f4 bc
       0.08602367 -0.013939044 0.029654125 -0.029877927

actor_fc2.weight f4 [64, 64]
000000 fa 8b 65 bd dc 99 3c be 84 30 78 bd c2 d5 33 be
       -0.056041695 -0.18418068 -0.060593143 -0.17562011
000010 4f b5 a1 3e 08 69 1a be 5d 07 34 3f 10 b1 cc 3e
       0.3158364 -0.15079129 0.70323735 0.39978838
000020 02 2e 68 3e be 5c 16 3f 90 03 28 be 2b 1a 0f 3f
       0.226738 0.58735263 -0.16407609 0.55899304
000030 74 de a5 be e3 ee 89 3c f4 c4 96 be 0a bd 2a bc
       -0.3239628 0.016837543 -0.29447138 -0.010421047
000040 53 5d 99 bf 89 8d 0f be 29 00 0d 3d 6e fb c7 3d
       -1.1981605 -0.14018835 0.03442398 0.09764753
000050 5e 96 5d bf cf 82 4b 3e c9 fa 0e 3e d3 be e3 be
       -0.8655757 0.19874118 0.13962854 -0.44481525
000060 78 0b ab be 81 e2 5b 3e 26 46 30 be 7f aa 46 be
       -0.33407187 0.21473123 -0.1721426 -0.19400977
000070 bb 55 02 bf 4b 38 94 3c bf 0c af bc 8f f4 87 3e
       -0.50912064 0.018093249 -0.021368382 0.2655377
000080 d6 f6 fe bd 8e 2f 88 3e 75 f7 3c 3f 06 0c c6 3e
       -0.12449424 0.2659878 0.7381509 0.38681048
000090 a7 fc b5 3e 67 54 82 be e8 e7 93 be 8e 7c 8a bd
       0.3554432 -0.2545502 -0.28887868 -0.06762038
0000a0 a9 c8 b1 be a9 a3 08 bd a5 27 ae be 73 49 df 3e
       -0.34723404 -0.033359203 -0.3401462 0.43610725
0000b0 f6 c7 62 be 7b d0 bc bd a4 3a a9 bc 02 08 0f bf
       -0.22146592 -0.09219452 -0.020657845 -0.55871594
0000c0 64 4b 1f be 65 70 21 be 7d 79 e3 3e 24 48 47 bd
       -0.15556103 -0.15765531 0.44428626 -0.048652783
0000d0 c6 58 3d bf ae bb 62 be 28 59 6f 3d 5c 7f a3 be
       -0.7396358 -0.22141907 0.058434635 -0.31933105
0000e0 70 c1 32 3c da 46 65 be a8 a3 80 be bf 85 db be
       0.010910377 -0.22390309 -0.2512486 -0.42875478
0000f0 fa d5 a0 3d 95 cf d1 3e 04 db 8b bd 52 38 1c 3e
       0.07853313 0.40978685 -0.06828883 0.1525586
000100 7d 53 c6 be 8e a1 a8 be d4 ed 65 3e cb d7 bb bc
       -0.38735572 -0.32935756 0.22454005 -0.022930047
000110 d4 e9 22 be 6e 20 f0 3d cd 2e 1c 3d f0 8f 72 3e
       -0.15909511 0.117249355 0.03813057 0.2368772
000120 b0 11 11 3e a5 39 f2 3e 2e 17 2a 3e 71 7b a6 bd
       0.14166903 0.47309604 0.16610405 -0.08129013
000130 82 96 9e 3e d8 89 77 be 09 cf 48 bd db 28 f4 3e
       0.30974203 -0.24173677 -0.04902557 0.4768742
000140 f5 3c 84 3d a0 33 5e be 83 1a 6d be 1a 9e 6f 3d
       0.06456939 -0.21699381 -0.23154645 0.058500387
000150 16 67 dc be 39 f0 14 be 9b bb 80 3e 6a 8d 8c be
       -0.43047398 -0.14544763 0.25143132 -0.2745164
000160 c7 76 f2 3e c5 65 cb be b5 fc 8e 3d fa 68 58 3e
       0.47356245 -0.39726081 0.06981794 0.21133795
000170 17 c3 69 3e 83 03 39 3e 08 d6 8b bd b1 47 bc be
       0.22828327 0.18067746 -0.068279326 -0.36773446
000180 05 2d c3 bd 61 cc ab 3e 97 83 32 3d 4a c3 5a 3e
       -0.09530071 0.33554366 0.043582525 0.2136356
000190 a1 2c 4e 3f 5e 4c 38 bf 0b da 2a 3e 0e 28 99 3d
       0.8053685 -0.7199153 0.1668474 0.07478343
0001a0 99 7d 4e be 2f 46 4f 3e 18 a3 91 3e 12 6a 88 be
       -0.20165099 0.20241617 0.28444743 -0.26643425
0001b0 7a dd 7c be a8 93 d6 3d 4a 54 8e 3e 78 86 8e be
       -0.24693862 0.10477382 0.27798682 -0.27836967
0001c0 9e df 20 be 36 f6 d8 3e 33 71 ef 3d 45 7e 4f 3d
       -0.15710303 0.42375344 0.11691513 0.05065753
0001d0 ce 69 35 bd f0 e3 e0 be a5 3d bb be e6 11 18 be
       -0.044290356 -0.43923903 -0.3657047 -0.14850578
0001e0 c6 21 45 3b 4a dd 81 3e be 8c 0a be d1 b5 09 be
       0.0030079945 0.25364143 -0.13530251 -0.13448264
0001f0 8b 17 c6 3e 02 07 43 3e 7f e3 79 3e 80 7c c6 3e
       0.38689837 0.19045642 0.24403189 0.3876686
000200 1a 7e 0c 3e 5a 88 80 3e 97 08 99 3e bc dd 1d 3e
       0.13719979 0.25104028 0.29889366 0.15416616
000210 df 3c a4 be 17 75 6a 3e e3 90 c8 be db bd b0 be
       -0.3207769 0.22896229 -0.3917304 -0.34519848
000220 7b c7 97 be be 3f 65 bf 90 f7 bf 3e fe 5e 09 bf
       -0.2964438 -0.8955039 0.37493563 -0.5366057
000230 63 ae 2f 3e 2d 88 98 bd 1f c0 a7 3e e3 a7 8f 3d
       0.17156367 -0.074478485 0.32763764 0.07014444
000240 55 c0 9e 3f 24 c3 2e bd 8c fd 07 bf e8 7a 5d 3e
       1.2402445 -0.04266657 -0.53121257 0.21628916
000250 07 d4 4b 3f 96 b3 27 3e 61 c2 27 3c 07 a4 c0 3e
       0.79620403 0.163771 0.010239215 0.37625143
000260 56 61 be 3e ff 1a a7 be 61 c9 e5 3d ab 3c 8c 3e
       0.37183636 -0.32637784 0.112200506 0.27390036
000270 22 5d be 3e 4c 4d 86 3e 66 d6 79 bd 49 98 2b bf
       0.3718043 0.26230848 -0.060995482 -0.67029244
000280 47 0c 36 3d 3f 6c 39 3d a0 a9 40 bf c9 e0 c5 be
       0.044445302 0.045269247 -0.7525883 -0.3864806
000290 10 6d 61 be c4 b6 54 3e ac 4a d7 3a 0c ae 72 be
       -0.2201426 0.20772845 0.0016425452 -0.23699206
0002a0 3b 5c 89 3e cd 33 e0 bd 3d 9a 03 3f 46 34 bd be
       0.2682818 -0.1094738 0.51407224 -0.36953944
0002b0 cd 44 78 3e 53 00 3f be c4 1a 60 be 11 20 ef 3e
       0.24244995 -0.18652467 -0.2188521 0.46704152
0002c0 85 cc 96 bd c6 27 23 be 3f 67 cd be 20 93 6d 3d
       -0.07363228 -0.15933141 -0.40117833 0.058001637
0002d0 94 a7 5d 3f 8b 7d 2d 3d d0 a7 f7 bd 7d 33 eb 3c
       0.8658383 0.042356055 -0.120925546 0.028711075
0002e0 d0 fe 9c 3c 0c 76 9c 3e de 4f 2f 3f 3a f4 e5 3e
       0.019164473 0.30558813 0.6848124 0.44912893
0002f0 58 5b b2 3c fe 41 44 bf 72 e1 94 3d 66 56 9c be
       0.021772072 -0.76663196 0.07269563 -0.30534667
000300 56 de 39 3c 1b 5c ce bd 76 8e 4e 3e fd 1c 80 bd
       0.011344513 -0.100761615 0.20171532 -0.06255529
000310 37 87 46 3e c9 2b b9 3e 00 68 58 3d 80 0e 62 3e
       0.19387518 0.36166218 0.052833557 0.22075844
000320 5c ad 9a 3e 6b 96 84 3e b6 06 df 3e ae c4 28 3e
       0.30210388 0.2589601 0.43559808 0.16481277
000330 5a 25 93 3c 07 b7 df bd 1c dd 32 3d af 27 b7 3e
       0.017962147 -0.109235816 0.043667898 0.35772464
000340 1f c1 96 bd 65 83 c1 be 4f 0d 92 be c2 f7 b0 bd
       -0.07361054 -0.3779556 -0.2852578 -0.08641006
000350 96 4e a9 be 6c d2 9c bc 43 16 4b 3d 96 9f fb bd
       -0.3306777 -0.019143306 0.049581777 -0.12286298
000360 9c 82 2c 3e 56 90 6a be de b3 e3 3d b0 c2 f1 bd
       0.16846699 -0.22906622 0.11118291 -0.11804712
000370 b0 cf 0e 3e 72 d2 98 3e 4c d8 59 3d 37 5c 61 be
       0.13946414 0.29848057 0.053184792 -0.22007833
000380 c0 73 64 3e 49 ae 85 3d c5 75 35 be 23 21 9f 3e
       0.2230978 0.06527383 -0.17720707 0.3107997
000390 ad 5a 44 3f 7a 20 c4 be da 57 4e 3e f1 11 a8 bc
       0.7670086 -0.38306028 0.201507 -0.020516368
0003a0 c0 65 8d 3e 4d 21 2a 3e 6c 1b 16 3f 8b 26 1e bd
       0.27616692 0.16614266 0.5863559 -0.038610976
0003b0 94 de 47 be 94 f7 05 3d 27 3e 14 bc 26 83 98 be
       -0.195185 0.032706812 -0.009048021 -0.29787558
0003c0 d9 78 26 3d 77 7b ae 3e c3 5d 88 3e 02 1b 1d 3e
       0.040642593 0.3407857 0.26634035 0.15342334
0003d0 8e 8c c8 bd f3 28 66 be 7f 23 31 be e9 c8 04 be
       -0.09792434 -0.22476558 -0.17298697 -0.12967266
0003e0 dd 8b 8b be 90 0f 83 3e e6 9f f2 3d 4c 2f 01 be
       -0.27255145 0.2559781 0.118469045 -0.12615699
0003f0 dc 63 11 3e 72 c4 99 3e ed 07 21 3d 47 00 21 3f
       0.1419825 0.30032688 0.0393142 0.6289105

actor_fc2.bias f4 [64]
000000 93 58 24 be 72 df df 3c 04 8c 1f 3e 1c 32 01 bb
       -0.16049413 0.027328227 0.15580755 -0.0019713705
000010 6d 93 a4 bd 46 3a 3d bd b7 6d 69 3d 7e 95 41 3d
       -0.08035932 -0.046198152 0.056989398 0.047261707
000020 fa e8 15 3e 3c b2 b6 3d 21 29 1d 3b 92 d1 8a bb
       0.14639655 0.08920714 0.0023980814 -0.0042364085
000030 e2 1f 36 3e 6a 5d b0 bd 54 07 f7 bd 91 8d 48 be
       0.177856 -0.08611567 -0.120619446 -0.19585253
000040 a0 9a e7 3c be a1 de 3c a6 ac de bd d3 10 35 be
       0.028271973 0.027176734 -0.10872774 -0.17682199
000050 de 35 2e 3d c8 bc a5 bd 11 77 2c bd d7 a9 5e 3d
       0.04253184 -0.08092648 -0.042105738 0.05436119
000060 2a 78 34 3e 63 00 0a bb 44 5d 14 3e 28 d2 e1 3d
       0.17623964 -0.002105736 0.14488703 0.11026412
000070 c7 1d 08 be ed a7 5b bd ac 83 03 be 12 63 73 bd
       -0.13292609 -0.053626943 -0.12843198 -0.059420653
000080 bf 57 58 3e 8f c6 37 be 11 29 ca bd f4 26 94 3d
       0.21127222 -0.17946838 -0.09871114 0.07233992
000090 d9 cd 04 3d 72 a0 71 bd 44 c7 29 be 8a 88 1c 3d
       0.032422874 -0.058990903 -0.1657992 0.03821615
0000a0 e3 0a 8e 3d b0 64 0d 3d 93 40 e9 3d 30 f5 03 3e
       0.0693567 0.03451985 0.1138927 0.128865
0000b0 ae 43 1a 3e b8 33 62 3d 41 96 e3 3d a9 cf a7 3c
       0.1506488 0.055225104 0.11112643 0.020484762
0000c0 1c 7d ad 3d 34 e2 1c 3d 53 8f 06 3c 48 b0 12 bc
       0.08471128 0.03830166 0.008212882 -0.008953162
0000d0 a1 11 25 3d a8 7d 1b be 45 91 fa 3c 2a 76 e7 39
       0.040300015 -0.15184653 0.030586848 0.00044147793
0000e0 5c 08 bf bd ab 74 10 3e 8d 3b 1a bd e9 52 52 bd
       -0.09327766 0.14107005 -0.03765445 -0.0513486
0000f0 a8 31 ac bb 12 88 23 bc 3f b0 36 3a 18 10 38 3e
       -0.005254943 -0.009981172 0.0006969012 0.1797489

actor_fc3.weight f4 [4, 64]
000000 2c bf f9 be b7 fc d2 bd ea 71 03 3f 04 a7 43 be
       -0.48778665 -0.10302108 0.51345694 -0.1910668
000010 90 b1 87 bc 94 94 53 be 2f d6 a5 3e 9e 13 a8 3e
       -0.01656416 -0.20662147 0.32389972 0.32827467
000020 80 a3 f6 3e 2a 8e 95 3e 4a 07 b4 3e b0 1a 4e be
       0.48171616 0.29210025 0.3516181 -0.20127368
000030 a9 fb e9 3e 2b 61 b8 be 31 88 f2 be ee c8 ff be
       0.45699814 -0.36011633 -0.4736953 -0.49957985
000040 0c 5f 0a be a9 47 2c 3e 00 49 c1 be ac 60 fb be
       -0.1351282 0.16824211 -0.37751007 -0.49097192
000050 c2 2b 66 3e dc d6 c9 be 24 e2 89 be 32 11 9e 3e
       0.2247763 -0.39421737 -0.26930344 0.30872494
000060 53 a6 e9 3e 26 e2 0f 3e 07 f4 e9 3e 9f f3 b7 3e
       0.45634708 0.14051113 0.4569399 0.35928056
000070 55 c1 f2 be 3a f4 a6 be d0 79 d0 be d8 b5 66 be
       -0.47413126 -0.32608205 -0.40717936 -0.22530305
000080 bc d3 de 3e da 51 e2 be 1d 01 46 3d 84 c7 49 bd
       0.43520916 -0.44203073 0.048340905 -0.04926254
000090 82 6e 42 be 47 a0 9e be 9f eb e5 be 3e d6 7a 3e
       -0.18987468 -0.30981657 -0.44906327 0.2449579
0000a0 0f 67 d5 bd c0 2c 92 3e 8a 9f f2 3e 14 9f c3 3e
       -0.104200475 0.28549767 0.47387344 0.38207304
0000b0 f2 99 ee 3e c1 2d a8 3e b2 42 29 3e 83 46 27 3e
       0.46601826 0.32847407 0.16529348 0.16335492
0000c0 18 60 b0 3e 2e 2d 2a 3e 4c d3 28 be 52 8a 57 be
       0.34448314 0.16618797 -0.16486853 -0.21048859
0000d0 09 84 0a be 00 45 e6 be 87 97 11 be 0a 8d 33 3e
       -0.1352693 -0.44974518 -0.1421796 0.17534271
0000e0 0f 9a d9 bd 63 de f2 3e 7c 36 3b 3e c2 35 b1 be
       -0.106250875 0.47435293 0.18282503 -0.34611326
0000f0 ce df 06 3e da 79 53 3e 89 65 60 3e cd 78 db 3e
       0.13171312 0.20651951 0.21913733 0.428656
000100 35 5a a9 bc 11 a5 58 bf 91 84 6e bd 4b 33 2e bf
       -0.020672897 -0.8462687 -0.058231894 -0.68047017
000110 96 46 85 3f f8 a1 1d bf 0a 3e de be 59 cc cb be
       1.0412166 -0.6157527 -0.43406707 -0.39804342
000120 13 e1 66 bd d8 ba f5 3e d3 0d 01 3f de 05 25 bf
       -0.05636699 0.47994113 0.5041172 -0.6446208
000130 fd 87 89 be 72 69 c3 be cd e3 4c be 83 80 9a 3d
       -0.26861563 -0.38166386 -0.20008774 0.07544043
000140 fc 67 4d bf 5e 6c 29 3f 40 ff b0 be 80 06 13 3f
       -0.8023679 0.6618098 -0.3456974 0.57431793
000150 ab b8 1b 3f 47 9d ca be af bf 0b bf de 46 a3 be
       0.60828656 -0.39573118 -0.5458936 -0.31890005
000160 8c 62 47 be 06 16 20 3f 4f 1c 32 3e 2b 61 be 3e
       -0.19471186 0.62533605 0.17393611 0.37183508
000170 29 86 9f 3d b7 73 07 bf b7 c2 2c 3f cc ec 2a bf
       0.07789261 -0.5291094 0.6748461 -0.66767573
000180 0a 94 0e bd 6f 00 2d 3e df 98 ae bd aa ba 07 3e
       -0.03480915 0.16894697 -0.085252516 0.132548
000190 6b 75 06 bf 6e 5b c7 3e 3b bd a7 bd b3 34 fc 3e
       -0.52522916 0.38936943 -0.0819039 0.49258956
0001a0 08 63 d2 3d b7 f5 0e be 28 da 83 bc c9 c7 c6 be
       0.10272795 -0.1396092 -0.016095236 -0.388243
0001b0 21 21 2d 3d f6 09 b2 be b4 73 d3 3c 91 58 2d 3f
       0.042267922 -0.34773225 0.025812007 0.67713267
0001c0 76 b1 d2 3e 73 71 1e 3f 50 1f fb 3d cc c0 19 bf
       0.41151017 0.6189186 0.12261832 -0.6005981
0001d0 36 9c d9 3d a2 4e c9 3e ff e6 54 bf d2 77 3f 3f
       0.10625498 0.39317805 -0.8316497 0.74792206
0001e0 95 5d 61 3f da 6b 75 bd 97 6b 9a be 3e ce c3 3e
       0.8803342 -0.05991731 -0.3016021 0.38243288
0001f0 bc ea 90 be 6c 26 92 be cb f8 a9 be a6 0b 9d be
       -0.28304088 -0.2854494 -0.33197626 -0.3067295
000200 56 8b a2 3e d8 ef a4 3e 35 f4 a6 be b4 e7 93 3e
       0.3174693 0.32214236 -0.3260819 0.28887713
000210 64 bc ab be a4 a8 b8 3e 75 22 99 bd bf fe 34 be
       -0.33542168 0.36066163 -0.07477275 -0.17675303
000220 ae fd cf 3d e2 7e a7 be 28 a7 70 be 2e 91 81 3e
       0.101558074 -0.3271399 -0.23501265 0.25306076
000230 90 9e 5d be 12 74 7c 3e 63 54 b5 3c 7c 6c 06 3e
       -0.21642518 0.24653652 0.022134965 0.13127321
000240 74 6d 7d 3e 04 8d 80 be 52 16 ab 3e 7a c0 25 be
       0.24748784 -0.25107586 0.33415467 -0.16186705
000250 00 ff 92 be 2d ab 7a 3e 2e 2c 82 3e 61 c8 35 be
       -0.28710175 0.24479361 0.2542433 -0.1775222
000260 bf 71 66 be 67 1a 18 be ea 92 04 bd a5 3f 5f be
       -0.22504328 -0.14853822 -0.03236667 -0.21801622
000270 cd ed ca bd d5 fc a6 3e 4e 24 96 bd 95 5f 93 3e
       -0.09908638 0.3261477 -0.07331143 0.2878386
000280 61 93 e7 bd 17 4c 01 be 4f 42 d2 be 4f 2d 8e 3e
       -0.11307407 -0.12626682 -0.41066214 0.27768943
000290 b6 b2 ec 3d a2 f8 3e 3e d4 a4 ca 3c 2a 67 1b be
       0.11557524 0.18649533 0.0247368 -0.15176073
0002a0 7d 14 c2 3e 57 36 b9 be 11 52 07 bf ff 22 60 bd
       0.37906256 -0.3617427 -0.528596 -0.054720875
0002b0 36 52 e8 be e6 fd 5b be 41 8d ae 3e df 41 b8 be
       -0.45375222 -0.21483573 0.34092143 -0.35987756
0002c0 07 84 da bd d1 b7 5f be aa a9 bf 3e aa e1 c3 3e
       -0.106697135 -0.21847464 0.3743413 0.38258106
0002d0 05 b8 a7 3e d6 ed 11 3e dd c9 c8 3e 4d 4c a0 be
       0.32757583 0.14250883 0.3921651 -0.31308213
0002e0 a5 47 5f be be f2 bf bd 51 fa 87 be 2f b9 33 3e
       -0.21804674 -0.09372471 -0.26558164 0.1755111
0002f0 a1 21 0c be 2c 43 86 be a3 ae 3e be 4d 07 f7 bc
       -0.13684703 -0.26223123 -0.18621306 -0.030154848
000300 bc d2 00 3d 2f 63 0f 3d 60 40 33 3d 56 d9 d2 3d
       0.031450972 0.0350067 0.043762565 0.1029536
000310 84 1d a5 bc da 0c 4e bc b4 ef c9 3e 19 3a 12 3f
       -0.020155676 -0.012576306 0.3944069 0.571199
000320 40 96 7d be 07 54 05 be fb 9a a5 be 0a be 32 3d
       -0.24764347 -0.13020335 -0.32344803 0.043638267
000330 67 5f 7e 3e 8b 54 56 3d c7 12 bd 3e 27 f6 54 3d
       0.2484108 0.05232672 0.36928388 0.05199256
000340 99 2d 0a 3e 7e ca 99 bd ab 8d 89 3d b0 39 67 bd
       0.13493957 -0.075093254 0.06716474 -0.0564515
000350 5c 3a 24 be 93 69 47 3e a9 98 14 3e 8e 89 09 3f
       -0.16037887 0.19473867 0.1451136 0.53725517
000360 15 9b 03 3e d0 70 85 be db ad 30 be 72 fb 13 be
       0.12852128 -0.26062632 -0.1725382 -0.14451388
000370 af bb 85 3e b1 c6 fd 3d 92 f4 a0 be e3 0b 23 3e
       0.26119754 0.12391413 -0.31436592 0.15922503
000380 23 1b 84 bd 80 a2 db 3d b9 49 66 3f 9a 91 4e bf
       -0.064504884 0.10724354 0.8995624 -0.8069092
000390 d1 59 b9 3e 2f 71 0e bf e6 e4 c0 3e 8a 54 95 be
       0.36201337 -0.55641454 0.37674636 -0.2916606
0003a0 aa 96 5c bf 7d bb 24 3f 3a c9 4d 3e 78 c5 99 3e
       -0.86167395 0.64348584 0.20096293 0.3003347
0003b0 7b 5b a6 3d 2c e5 15 3f 60 29 80 bf 9e b0 85 3d
       0.08122917 0.58552814 -1.0012627 0.06527828
0003c0 61 d5 13 bf 52 52 b5 bd 43 88 2a bf 01 51 f1 bd
       -0.57747465 -0.08853592 -0.6661417 -0.117830284
0003d0 45 45 4b bf f2 3e b6 be 8c eb d0 3c 83 eb 89 bd
       -0.7940257 -0.35594898 0.025502943 -0.067343734
0003e0 1d cc 8a bd 55 aa e5 bd 91 41 36 3f a5 93 11 bf
       -0.06777213 -0.11214129 0.71193796 -0.5686591
0003f0 8a a6 25 3f 28 7a 2f 3f af 18 21 3f 16 33 ca 3d
       0.64707243 0.6854577 0.6292829 0.09873025

actor_fc3.bias f4 [4]
000000 e0 d0 46 3e 37 16 c0 bd 33 f5 fa 3c 50 06 0a be
       0.19415617 -0.09379237 0.030634498 -0.1347897

critic_fc1.weight f4 [64, 8]
000000 38 e9 1c 3d d8 38 0f bf 59 2d 52 bd 33 81 e1 bc
       0.038308352 -0.5594611 -0.05131278 -0.027527427
000010 7f 5e 45 3e 55 95 ca 3f a7 30 1a be 10 8d 5a bf
       0.19274329 1.5826823 -0.15057622 -0.85371494
000020 e5 de 3c bf c9 6d 25 3f 24 74 c3 bd b4 ca e4 bd
       -0.7377761 0.64620644 -0.095436364 -0.11171475
000030 f2 bf 0e 3f 84 6a a4 3e c6 af 7b 3e 88 7f 91 3c
       0.55761635 0.32112515 0.24578771 0.017761007
000040 cd 2a 88 3d ff 0d 9d be 22 b1 67 be 97 8c 0c 3e
       0.066487886 -0.3067474 -0.22626165 0.13725506
000050 d0 06 44 bf 63 9c 2c be 67 7a 07 3f e3 79 47 3f
       -0.76572895 -0.16856532 0.52921146 0.7792036
000060 7d 60 e7 3e 16 1e c0 3e 6e 64 1a be c9 34 6e be
       0.45190802 0.37522954 -0.15077373 -0.23262323
000070 97 98 9a be c1 d7 1e 3f 50 09 12 3e 58 2c 98 be
       -0.30194542 0.62047964 0.14261365 -0.29721332
000080 69 b2 22 3f 0d 53 d6 be 6c c7 44 be b9 99 44 bd
       0.6355348 -0.41860238 -0.19216698 -0.047998164
000090 fb 20 89 be bb a6 a2 bd d0 e6 e8 be 93 ed ec be
       -0.26782975 -0.079419576 -0.45488596 -0.46275005
0000a0 8f 6c a0 be 69 ff 0c 3e c6 54 b4 3e 76 4f 46 3f
       -0.31332824 0.13769306 0.35220927 0.77465
0000b0 1a 60 b1 be 38 14 0a bf 79 23 34 3f d2 64 2b 3f
       -0.34643632 -0.539371 0.70366627 0.66950715
0000c0 d0 1e 95 3e 67 ee 9f be cb a6 29 be a9 be d6 be
       0.2912507 -0.31236574 -0.16567533 -0.41942337
0000d0 3e b3 13 bf 48 21 b6 3c ac 14 bf 3d ab a0 5e 3e
       -0.57695377 0.022232667 0.09330115 0.21740977
0000e0 81 66 49 3c ba 55 ab 3e 30 85 93 3e 29 78 12 3f
       0.012292505 0.33463842 0.28812551 0.572146
0000f0 dd f2 12 3f 73 3e 19 3d b7 8a 29 bf 54 29 45 bf
       0.5740183 0.03741307 -0.6622729 -0.77016187
000100 9a 62 ee 3e 33 87 a6 be e0 88 81 3e fd ca 58 3f
       0.46559602 -0.32525024 0.2529974 0.84684736
000110 b4 a4 d0 be c7 f8 49 be d7 89 f0 3d d2 48 f2 3d
       -0.4075066 -0.19723807 0.11745041 0.118302956
000120 d0 96 90 3e bb 1c ae be d2 a2 9c 3d db bf c7 3d
       0.2824006 -0.34006295 0.07648243 0.097533904
000130 65 a2 0f be 90 0a 95 3f 20 4c 7d be d0 e9 80 bf
       -0.14026792 1.1643848 -0.2473607 -1.0071354
000140 77 38 63 be 9f 8f fe 3e 17 bb 14 bf 9e 0b 2c 3f
       -0.22189508 0.4971895 -0.58097976 0.67205226
000150 c9 47 10 bf 79 17 6d be 26 72 8b 3e af 67 8d 3e
       -0.56359535 -0.23153485 0.27235526 0.27618167
000160 fe 80 f0 3d 46 06 8e 3e 49 66 a4 bc 06 53 fa be
       0.11743353 0.2773916 -0.020068305 -0.48891467
000170 d0 e5 63 3e 46 4e 64 3e 13 f7 03 be 9f ae 81 bd
       0.22255635 0.22295484 -0.1288722 -0.063321345
000180 1b 18 98 bf 82 6d 0a 3f 24 14 ba be 79 ab 92 be
       -1.1882356 0.54073346 -0.3634349 -0.28646448
000190 fc e3 73 3f a1 dc 18 bd c0 4a 83 3e 2f 4c 78 3a
       0.9526975 -0.037319783 0.25642967 0.00094718015
0001a0 6a 69 04 3d 69 4b c8 3e be f9 2a 3e 00 ef ad be
       0.032327093 0.39120033 0.16696832 -0.33971405
0001b0 78 83 93 3b 4f 3d da 3e 8d ed 71 bf 65 69 80 be
       0.0045017563 0.426249 -0.945031 -0.2508041
0001c0 40 9c 85 3e 86 95 0c 3f ab b7 9a bd 1a f2 de be
       0.26095772 0.54915655 -0.07554563 -0.43544084
0001d0 8d 56 c4 be 92 18 4e bf 43 67 c5 bd b3 94 27 3e
       -0.38347283 -0.8050624 -0.09638836 0.16365318
0001e0 95 96 e2 3c da 55 da be 4a c2 fd bd ad 31 6c be
       0.027659694 -0.42643625 -0.12390573 -0.23065825
0001f0 ee 61 4a be 7d 24 44 3e 52 89 a4 3e c1 22 ea 3d
       -0.1976392 0.19154544 0.32136017 0.1143241
000200 d3 5f ce 3d 2b 5c f3 3e 80 8e 84 bd 7c 09 66 bd
       0.10076871 0.47531256 -0.06472492 -0.05616139
000210 6f 78 f6 be a2 10 1f c0 0b de 1f 3e 1b ee 83 3f
       -0.4813876 -2.4853902 0.15612046 1.0307039
000220 85 ba 57 3f e8 0e 88 be b5 f8 8b 3e a4 2c 09 3f
       0.8426898 -0.26573873 0.27338186 0.5358374
000230 f8 3f d9 be b3 12 b7 3c 77 87 80 be 02 11 43 bd
       -0.42431617 0.022347784 -0.2510335 -0.04762364
000240 1e ca a0 bd 85 cb a8 be df 54 26 bd 4a db 73 bd
       -0.07851051 -0.32967773 -0.040608283 -0.059535302
000250 60 e9 92 be 5e 84 2d be bc b6 25 3e 25 9b dc 3e
       -0.28693676 -0.16945025 0.16182989 0.43087116
000260 48 aa 20 3e 6c c8 e1 3e 8c ee 41 3e 21 fa ac be
       0.15689957 0.44098222 0.18938655 -0.33784583
000270 82 a1 2d bd d4 49 0f 3d 51 40 8e 3d f0 57 b7 be
       -0.042390354 0.034982517 0.06945861 -0.35809278
000280 26 70 a7 bb 0a 30 6e 3e ba 65 39 3d a0 f9 0c bf
       -0.0051098047 0.23260513 0.04526303 -0.550684
000290 84 27 0d 3f 26 f2 47 3f 0c 5e 66 3e 03 ed 7c be
       0.5513842 0.78103864 0.22496814 -0.24699788
0002a0 00 d0 06 bc de 02 d5 3e 9c db fd 3d df 0b 9e be
       -0.008228302 0.4160375 0.12395403 -0.30868432
0002b0 74 4c 0a 3f b7 3c 0d 3d 00 ab 9a bf c3 c6 68 bf
       0.5402291 0.03448173 -1.2083435 -0.90928286
0002c0 c6 02 4c bf 44 35 bf 3e 45 cc de be c2 f9 01 be
       -0.7969173 0.37345326 -0.4351522 -0.12692931
0002d0 0e 9a a1 3e 09 7a 2e be 9b b5 3e 3e e9 a9 25 3c
       0.31562847 -0.1703874 0.18623964 0.0101113105
0002e0 d5 03 84 be 8d 08 49 be 5e 05 b2 3e 81 55 4b 3f
       -0.25784174 -0.19632168 0.3476972 0.79427344
0002f0 7c e0 93 be 41 3d 6b 3f 90 f8 17 3f 04 8a f0 3d
       -0.28882205 0.9189034 0.5936365 0.117450744
000300 81 66 93 be 1b 58 b3 3e b1 c6 09 bf 5f 81 6f bf
       -0.28789142 0.35028157 -0.53818804 -0.9355678
000310 13 05 67 3e 57 ad e6 be 34 99 4b 3e 1e 96 18 be
       0.2256053 -0.45054123 0.19882661 -0.14901015
000320 34 70 34 be 8e fb 89 3e 95 fc 8d bd 99 2a 78 3f
       -0.17620927 0.26949733 -0.06932942 0.9694
000330 a1 f5 31 3d f8 39 8c 3f 80 c1 63 bc 55 e4 28 bf
       0.04344714 1.0955191 -0.013901114 -0.6597341
000340 92 83 02 be 79 ca 20 3f 83 f0 f1 be 3f e6 10 3e
       -0.12745503 0.6280895 -0.47253808 0.14150332
000350 52 50 a2 be 42 e0 ae be f8 92 a9 3d 4d 7c 1f 3e
       -0.31701905 -0.3415547 0.08279985 0.1557476
000360 1d 47 bb 3c 2c 81 39 3e c2 41 0a be 6c e9 9d 3e
       0.022861058 0.18115681 -0.13501647 0.3084215
000370 52 10 12 3f a6 e7 29 3f c2 5e 36 be 95 66 65 be
       0.5705615 0.6636909 -0.17809585 -0.22402413
000380 f7 8f e7 3d c6 4f e9 be 51 b8 1c bf a5 ea f7 3d
       0.11306756 -0.45568675 -0.61218745 0.12105302
000390 bd e8 9c be 66 d7 d1 bf 95 78 5b bf 07 cb 82 be
       -0.30646315 -1.6393859 -0.8573087 -0.25545523
0003a0 06 b7 4e 3d c8 a0 fc be 0d a6 12 be c8 9b 59 bf
       0.050467514 -0.49341416 -0.14321156 -0.8500333
0003b0 50 0b 6f 3f e9 83 63 3e f3 72 4c bf 08 75 53 bf
       0.93376637 0.22218288 -0.798629 -0.8260045
0003c0 f0 b1 8e 3f 9a d4 b5 bd 58 e9 55 3f 26 97 d8 bd
       1.1148052 -0.08878441 0.8355918 -0.10575704
0003d0 0c c8 01 3d cf 99 26 3e 1f 1d 5b bc 2c 7b 54 bd
       0.03168492 0.16269611 -0.013373642 -0.05187528
0003e0 7f ca 55 3e fb d4 c3 3e df d4 64 be c4 54 24 bf
       0.20878027 0.3824843 -0.22346829 -0.6419184
0003f0 b2 f5 c8 be 0c 81 fd be df 59 14 3e 2c 8f 3f 3e
       -0.3924995 -0.49512517 0.14487408 0.1870696

critic_fc1.bias f4 [64]
000000 de ad a5 be 74 57 35 bd 93 bc e1 3e 41 ce d0 be
       -0.32359213 -0.044272855 0.44089183 -0.4078236
000010 f5 3b 9d 3c 84 45 90 be 5f 61 f6 3e 2b c3 05 bf
       0.019193629 -0.28178036 0.48121163 -0.5225093
000020 65 0c 1f 3e 08 cd ee bc 98 0b 87 bd b0 19 09 bf
       0.15532072 -0.0291505 -0.06594008 -0.5355482
000030 78 16 2c be 62 0a a9 be fe a5 80 be dd 55 00 3f
       -0.16805446 -0.33015734 -0.25126642 0.50131017
000040 14 42 3f 3e 10 0f a5 3e 07 50 dd 3e 33 a7 d3 be
       0.1867755 0.32238054 0.4322512 -0.413385
000050 35 65 0b bf 2f 7b 05 bf 08 5f 9e be 4c 37 a0 3e
       -0.54451305 -0.5214109 -0.30931878 0.31292188
000060 1b 14 00 be dc e3 11 bf 57 53 6d bd 57 9f f5 be
       -0.1250767 -0.5698831 -0.057940807 -0.4797313
000070 ea f3 83 bd 69 43 c4 3d 80 d0 c4 3e 35 2e 6b be
       -0.06443007 0.0958317 0.38440323 -0.22966845
000080 a3 53 01 3f af a3 b1 3e aa 2b d0 3e a3 56 a9 be
       0.50518245 0.34695193 0.40658313 -0.3307391
000090 6a c9 93 bb 1b 0a b6 be 0c 1b 1e bd ca 06 c0 be
       -0.0045100944 -0.35554585 -0.038600013 -0.3750518
0000a0 23 14 21 bf f8 7d a1 3e 7c c8 f9 be 70 47 24 3e
       -0.6292135 0.3154142 -0.4878577 0.16042876
0000b0 b4 ff 72 be 9d 59 13 3e 4c 52 4d be 53 42 3a be
       -0.23730356 0.14389654 -0.20050925 -0.18189363
0000c0 87 c6 9d be e6 34 0c 3e c8 59 b9 bd 3d b0 0a 3e
       -0.30815527 0.13692054 -0.090503275 0.13543792
0000d0 6d cb e7 be c5 c1 bd 3e 48 cb fe bd 90 fb f9 be
       -0.4527239 0.37061897 -0.124411166 -0.4882474
0000e0 4b b5 a3 bd 37 6f 6a 3e 50 c4 e6 be 22 51 07 bf
       -0.07993563 0.22893988 -0.4507165 -0.52858174
0000f0 32 e4 be bd 5f a2 ef be 4e d2 2b bd e6 81 ef 3c
       -0.093208686 -0.46803567 -0.04194861 0.029236745

critic_fc2.weight f4 [64, 64]
000000 83 87 ce 3e ef 55 5c bd ef 68 3b 3f 8c 42 84 be
       0.40337762 -0.05379289 0.7320699 -0.2583202
000010 4a 06 50 3e 8d af 14 bf 19 d3 aa 3e 11 d0 0a be
       0.20314899 -0.5808037 0.3336418 -0.13555934
000020 44 2a 5f 3e 58 36 b7 3d 22 1d 6d be 91 69 b3 be
       0.21793467 0.08945912 -0.23155645 -0.35041478
000030 45 25 0f be 9b 11 e2 be 47 57 e4 be 50 c1 1a 3f
       -0.13979061 -0.44154057 -0.44597837 0.6045122
000040 47 6e 95 3d 75 79 30 3e b3 6c 0f 3f 88 b2 15 be
       0.07296424 0.17233832 0.56025237 -0.14618886
000050 45 35 9a be e8 3d 11 bf 2b eb 2a be c2 aa 91 3d
       -0.30118766 -0.56735086 -0.16691272 0.071126476
000060 06 c7 16 be 77 7e d0 be c3 4e ee bd cf 90 dc be
       -0.14724359 -0.40721485 -0.11636116 -0.4307923
000070 93 9f b1 bc 47 c2 3a 3e 68 25 94 bd f6 ff 89 bd
       -0.021682536 0.18238173 -0.07233697 -0.06738274
000080 63 55 89 3e 06 f9 8d 3e f4 86 6d 3e 53 3f b8 3e
       0.26822957 0.27729052 0.23196012 0.35985813
000090 49 f5 2e 3c 9e 38 4b 3e ca 56 1b bf 29 f1 41 be
       0.010678598 0.19845816 -0.60679305 -0.18939652
0000a0 ef 25 1f be a6 c7 16 be 7c 7a 08 bf 82 e1 8d 3e
       -0.15541814 -0.14724597 -0.53311896 0.2771111
0000b0 4b a8 61 be b5 99 7e 3e 9c 0b 11 bf 0a 60 23 be
       -0.22036855 0.24863322 -0.5665834 -0.15954605
0000c0 30 32 15 be 3d 20 20 3e d1 24 b4 3e 3b cc d6 3e
       -0.14569926 0.15637298 0.3518434 0.4195269
0000d0 90 0f 94 be e1 c0 45 3e c0 9f 15 bd c0 c8 6b be
       -0.28918123 0.19311859 -0.036529303 -0.23025799
0000e0 f4 dc a3 be 38 1e 24 3d fd 91 ad 3d 50 81 16 be
       -0.3200451 0.04006788 0.08475111 -0.14697766
0000f0 56 9a 54 ba b9 65 ea be 63 f0 59 be 28 4b 37 3f
       -0.0008110156 -0.45780733 -0.21283107 0.71599054
000100 f5 c1 59 bd 68 10 d1 be ad 80 4e 3f a3 61 e2 bd
       -0.053163487 -0.4083283 0.80665094 -0.11053779
000110 c3 55 93 3e ae d5 28 bf d4 15 47 3e c9 7a f9 bd
       0.28776368 -0.6595105 0.1944192 -0.121816225
000120 e6 0c cb 3e 11 ba d1 3d 51 ac 5e be a1 5c ad be
       0.39658278 0.102405675 -0.21745421 -0.33859733
000130 c3 a8 60 be 7e 1f 9f be 7d 03 ba bd 89 f0 1f 3f
       -0.21939377 -0.31078714 -0.090826966 0.624764
000140 2e b2 02 be ab 9d c5 3c fe 24 c1 3e 6b b4 0d be
       -0.12763283 0.024123034 0.37723535 -0.13838355
000150 85 91 a6 be 61 b2 0b bf 42 db 24 3e 5d 5e aa 3e
       -0.32532898 -0.5456906 0.16099265 0.33275118
000160 94 94 92 be fe 4c c4 be f6 7f 8a 3b 8a 55 83 be
       -0.2862898 -0.3833999 0.00422668 -0.256512
000170 c7 fa 68 bd 2f f7 87 3e d4 89 5d be ab 59 bf be
       -0.056879785 0.26555774 -0.21634609 -0.373731
000180 82 1a ab 3e 62 1a 0f 3f 98 4b 54 be dc 6a 00 3e
       0.3341866 0.5589963 -0.20731962 0.12540764
000190 68 40 53 bd f4 93 d4 3c 07 22 f6 be e7 63 c7 3d
       -0.051575094 0.025949456 -0.48072836 0.09735852
0001a0 25 81 35 be aa aa 37 3e f4 bf 30 bf 28 d3 df 3e
       -0.17725046 0.17936197 -0.690429 0.43715787
0001b0 2b 3a bf bb 60 2d cd bc a4 e2 00 bf d9 21 83 bd
       -0.0058357916 -0.02504605 -0.50345826 -0.0640294
0001c0 03 bf 3e be 6f 31 bc 3d a6 c3 f3 3e d5 70 de 3e
       -0.18627553 0.09189116 0.47610205 0.4344546
0001d0 af 7e 1d bf 39 ae 6f 3e 44 bb 62 3d 04 39 2d bc
       -0.6152143 0.23406304 0.05535437 -0.010572676
0001e0 be 78 f5 be 02 38 de 3d d8 fb 5b 3e df 89 2d bd
       -0.4794368 0.108505264 0.2148279 -0.042367812
0001f0 df 30 00 3e 7c 8d 2b bf e4 a1 03 be 7c 91 99 3e
       0.12518643 -0.67012763 -0.12854725 0.29993808
000200 78 70 00 bf 50 2b 67 3e d9 9c 88 bd 2a 3b 44 bd
       -0.50171614 0.22575116 -0.06670541 -0.047907986
000210 17 08 77 be fb 0a 3c 3e 2c ec e5 3e 38 d5 1e be
       -0.2412418 0.18363564 0.44906747 -0.15511024
000220 db a7 ea 3e b8 3f 59 be e7 6f b1 3e 90 b6 3b 3d
       0.4583119 -0.21215713 0.34655687 0.045828402
000230 4b 5c 1a bf a8 e3 c9 3e a4 45 c6 bd 6d cf 32 be
       -0.6029708 0.394315 -0.09681252 -0.17461939
000240 da 6d d8 3e a2 32 73 3f c1 06 ce bd ec e7 e1 3e
       0.4227131 0.94999135 -0.10059882 0.44122255
000250 e9 2b 1d be 2a 6f 99 3e e3 f8 0f bf af a6 32 3e
       -0.15348782 0.29967624 -0.56239146 0.17446397
000260 8c 75 a8 be c1 4c 44 bd 21 5c 1e be a8 2f 1e bf
       -0.3290218 -0.04792476 -0.15464832 -0.6179147
000270 dd 1d 53 bf b1 47 05 3e cb c3 36 3f 90 5e a9 bd
       -0.8246744 0.1301563 0.71392506 -0.082699895
000280 24 fd 17 be dc f7 ce be 6b b6 10 be c8 6f 84 be
       -0.14842659 -0.40423477 -0.14132087 -0.25866532
000290 66 40 22 3f 16 fe d4 be 58 7f d4 be b2 6d 06 bf
       0.63379514 -0.41600102 -0.41503406 -0.5251113
0002a0 22 6a 99 be 91 55 e1 be 3a 05 73 3b a9 f0 82 be
       -0.29963785 -0.44010594 0.0037081973 -0.25574234
0002b0 ca f0 48 bf 04 1f 18 3e 25 75 01 3f 97 a1 a8 3e
       -0.78492415 0.14855582 0.50569373 0.32935783
0002c0 61 33 a9 3e ec b3 78 3e b0 56 10 be a2 b9 1c bf
       0.33047011 0.24287385 -0.14095569 -0.61220753
0002d0 61 00 75 bd 0e aa ae bc 7e 2e b6 3e ac 6b 44 be
       -0.059814814 -0.021321323 0.35582346 -0.19181699
0002e0 1c 07 8e 3e cc f8 87 3e ed ff a3 bf 44 66 19 bd
       0.277398 0.26557004 -1.2812477 -0.037451044
0002f0 0f 06 66 be da 06 89 3e b7 6d 85 be 0c 22 05 bf
       -0.22463249 0.2676304 -0.26060268 -0.52005076
000300 67 78 d4 3b 2a 4e ae 3d a2 e1 0b bf be 09 20 3f
       0.0064840796 0.08511002 -0.54641163 0.62514865
000310 94 f5 45 3d 62 f4 28 3e 3f fa ff be 4e 70 10 3f
       0.048329905 0.16499475 -0.4999561 0.56421363
000320 e6 a7 5e be fd 22 45 be 9e 43 47 be c1 ce d7 3e
       -0.21743736 -0.19251628 -0.19459388 0.42149928
000330 16 64 98 bd d1 92 ad 3d aa 2a 00 3f c6 1f 3a bf
       -0.07440965 0.08475269 0.500651 -0.7270473
000340 ed 13 21 be 07 9d 2e be bd cb 36 bf 8e 2b a7 3e
       -0.15730257 -0.17052089 -0.7140463 0.32650417
000350 6c f8 b7 3e e1 d0 0a 3f 22 39 5d 3e 9c 6b a7 bd
       0.35931718 0.54224974 0.21603826 -0.08174822
000360 1e f7 9f 3e 06 5a 3d 3f 79 c6 db 3d 03 41 ed 3e
       0.31243223 0.7396549 0.10731215 0.46338663
000370 08 b9 50 bd 57 d6 80 bd 7d 09 8c be 89 b1 a9 3e
       -0.05095771 -0.06290882 -0.2735099 0.3314326
000380 a7 de 63 bf 1d f2 a7 be 73 e6 06 be cc 72 f9 be
       -0.89011616 -0.32801905 -0.13173847 -0.48720396
000390 28 1c f7 bd 8c 50 91 bd c5 3f 57 3e 05 42 be 3e
       -0.12065917 -0.07095441 0.2102042 0.37159744
0003a0 74 15 21 3f dd 95 ad bd 4a 39 48 3f 07 02 e6 be
       0.6292336 -0.0847585 0.78212416 -0.44923422
0003b0 1a 58 b6 3e 35 53 82 be 17 6d ed 3e c1 81 a6 3e
       0.3561409 -0.25454107 0.4637229 0.3252087
0003c0 7a 4a 1a 3f 99 47 37 3e 56 bd bf be 68 09 a1 be
       0.6026989 0.17898406 -0.3744914 -0.3145249
0003d0 f6 83 f1 3e 1a 30 fa be c3 c8 75 be a2 02 04 3f
       0.4717099 -0.48864824 -0.24002366 0.5156652
0003e0 0e 08 cf 3e d0 7a 54 be 9c 2f 40 3e fc 98 d6 3e
       0.40435833 -0.20749974 0.18768162 0.41913593
0003f0 14 f5 d5 bd eb ea 50 3f eb c6 81 3e b1 da 8c be
       -0.104471356 0.81608456 0.25347075 -0.27510598

critic_fc2.bias f4 [64]
000000 22 3e c6 3e 87 78 81 3e ce ad 82 3e 8a 6c e2 be
       0.3871928 0.25287268 0.25523227 -0.44223434
000010 91 4a c5 3e 88 92 b1 3e 95 9b cb 3e 7e 0c 35 3e
       0.38533452 0.34682107 0.39767137 0.17680547
000020 16 65 44 3e 3e 22 1f 3e be e6 7a be 39 70 a2 3e
       0.19179186 0.15540406 -0.24502084 0.31726244
000030 bf 1b a9 be 7c ff 6e 3f d1 d7 22 bf 26 75 ed be
       -0.3302898 0.9335859 -0.6361056 -0.4637844
000040 ad 40 cb be a0 df d4 3c c9 ef a3 3e e3 27 17 bf
       -0.3969778 0.025985539 0.3201888 -0.5904524
000050 e4 0f e6 3e 5e 87 cc be b0 52 94 be a7 e1 a5 3e
       0.44934 -0.39947027 -0.28969336 0.32398722
000060 8f 56 ba 3e a7 bb 02 bf 8d 3a 21 3f 10 37 ae be
       0.36394164 -0.51067585 0.62979966 -0.34026384
000070 e5 78 37 3d 3e f0 e6 be 8b a2 b9 3e d7 ad 44 3e
       0.04479303 -0.45105165 0.36256823 0.1920694
000080 bc 72 a9 be 0c 39 11 be 4c 7c 0c bf 70 a4 9f 3e
       -0.33095348 -0.14181918 -0.5487716 0.31180143
000090 4f d5 e6 3e 81 4b c5 3e 90 e0 18 3f c5 69 19 3d
       0.45084617 0.38534167 0.59717655 0.037454385
0000a0 ac 7e 85 be 42 21 2f 3e 74 1f 21 bf 28 5f 99 3e
       -0.26073205 0.1710253 -0.6293862 0.2995541
0000b0 f5 df aa 3e 20 be 03 be 07 c7 c2 3e f2 05 b5 3d
       0.3337399 -0.12865496 0.3804247 0.088390246
0000c0 3c 38 e2 be 77 90 53 3f fc 1d 26 3e 9e b1 f7 be
       -0.44183528 0.8264231 0.16222376 -0.483777
0000d0 2f 5a 14 3f e9 66 b5 3c be 87 bb 3e 70 1c 5b 3f
       0.5795011 0.022143798 0.36627 0.8559027
0000e0 25 50 cb 3e 58 62 ed 3e cc b5 b2 3e d7 af ba be
       0.39709583 0.46364093 0.34904325 -0.3646228
0000f0 7f 24 c6 be e8 a5 d5 be 84 fb d9 3e 39 d1 17 3f
       -0.3869972 -0.4172814 0.42574704 0.59303623

critic_fc3.weight f4 [1, 64]
000000 db 21 5d bf 76 0b 5c bf e8 c0 83 40 d3 98 44 3f
       -0.86379784 -0.8595499 4.117298 0.7679569
000010 a6 08 4e bf db 7a 61 bf af 95 5d bf 2b 49 72 bf
       -0.80481946 -0.8807809 -0.86556524 -0.94642895
000020 3b 8c 09 c0 36 f5 92 c0 e9 2c 0f c0 76 27 25 bf
       -2.149184 -4.592433 -2.237116 -0.6451334
000030 17 ce 62 3f d8 11 c0 3f 19 04 29 3f 8c 78 65 3f
       0.8859572 1.5005445 0.6602188 0.89637065
000040 96 c4 0b c0 0d f0 87 40 33 e9 60 bf 1a c2 ba bf
       -2.1838737 4.248053 -0.87855834 -1.4590485
000050 a6 6a bd 3f 20 f8 06 c0 82 62 0f 40 de 45 5e bf
       1.4798172 -2.1088943 2.2403874 -0.8682536
000060 83 8e 6c bf 04 61 3a 3f 7a de 2d bf 13 ad 19 3f
       -0.92404956 0.72804284 -0.679176 0.60029715
000070 60 cc 84 40 22 9d 5c 3f 38 af 30 40 48 cd 7e bf
       4.149948 0.86177266 2.7606945 -0.99531984
000080 d0 76 36 3f 30 5d 5f 3f ef 44 00 c0 d9 1e 71 bf
       0.71275043 0.8725157 -2.0042074 -0.94187695
000090 d7 8b 62 bf ad ec 60 bf 2a 3a 01 40 f4 20 87 bf
       -0.8849463 -0.8786114 2.019175 -1.0556931
0000a0 87 eb 7b 3f 57 bd 7b bf 71 a0 ca bf cc 2d 6d bf
       0.9840626 -0.98335785 -1.5830213 -0.92648005
0000b0 ea 24 48 bf b0 91 8d c0 4c f7 5c bf 30 05 01 40
       -0.78181326 -4.424034 -0.86314845 2.0159416
0000c0 89 5c 15 c0 91 a4 04 40 ef 23 65 bf c8 56 2f 3f
       -2.333773 2.0725443 -0.89507955 0.6849179
0000d0 06 8f 29 bf d4 10 0f 40 29 11 1f c0 57 37 d8 3f
       -0.6623386 2.235402 -2.4854224 1.6891888
0000e0 1f 5a 58 bf 2f 90 36 bf da 13 1b 40 53 db 14 c0
       -0.84512514 -0.71313757 2.4230866 -2.3258865
0000f0 1c 06 4f 3f 60 c0 21 3f ab 98 5c bf 8e 85 cd 3f
       0.808687 0.63184166 -0.8617045 1.6056383
